Op_problems/problem_ED_Column/checkpoints/kkt_hardnet_checkpoint_epoch_800_loss_0.054867.pth (torch, 21581 bytes, 12 tensors)

nn.0.weight f4 [64, 3]
00000000: f2c6 443e 83f5 74be 2d5a 0dbf fcbc 08bf
00000010: 3575 293f 408d c0bd ddde c9be 638f 20be
00000020: b254 083f 59eb 873e cdb0 e5bd d1d7 0a3f
00000030: 8704 9e3d 5f65 ff3c f8b3 153f c571 a33d
00000040: ab71 b6bd ce52 d73e 81c8 ef3e 568a aebe
00000050: ec24 ce3e 8394 fcbe 572e debe 7e7f 073f
00000060: a65c dabe 11b8 7bbe 697c bcbd 78c0 3d3e
00000070: d3fd c0bc adf5 ed3e b92c dd3e 5b81 03bf
00000080: f620 09bf 2d8b d1be bc22 173f fb01 97bc
00000090: 1c87 e2be 679c 9bbe ccc8 053e 18e3 d13e
000000a0: d180 ac3e 829d e33e 6cad 2e3f 04d9 e1be
000000b0: 7cc0 ce3a 63f2 bbbe db50 55be 1e10 883c
000000c0: f0c2 a53e f0b2 84be 05a8 a6be 6ffd abbd
000000d0: c346 a33e 121f a43c 059e 2f3f c1eb 0bbf
000000e0: 1eea 743e f812 5c3f ab86 1e3f 1f41 cbbe
000000f0: c273 e8be 6e9b 6f3d c6b5 2d3d cc1a 163f
00000100: dc2a 1f3f 572e 193d 67b6 2dbe d629 a13e
00000110: c3a4 bfbe 8683 b4be cbad 923d 16d3 73bd
00000120: 79bc 2a3f 9306 4ebd 84fd ec3d 8cee 273e
00000130: e530 4abd 5518 3ebe d5b0 053e 9bd8 a83e
00000140: c488 d8bd efea 9cbe 95fa 11be 2ce5 cb3e
00000150: d530 0d3f 6b70 3abe 9fbe 9f3e cd50 8bbd
00000160: ea8a 0abd 8908 8bbe 7813 c03e 6384 683d
00000170: 5d1e 6e3e a992 0cbf 974d 0dbd f924 e7be
00000180: 8d55 09bf 9d8a 12bf ef0b bebd cee9 c23e
00000190: 1483 6c3e 488f 4d3e f1ed 7dbe d7c7 c3be
000001a0: e8d3 ffbd 14a1 37bf a01e 103c 2a50 1d3e
000001b0: 04e6 e23e 8b21 1fbf 4dc5 0c3f 5ba3 fe3e
000001c0: b769 84be 91c8 fbbe fffe 16be 5396 083e
000001d0: 0abd 28be 45cc 87be 8d6b 323d 9ae7 b3be
000001e0: 82b8 f1be 149d 8f3e 7c70 5b3d 639d 663e
000001f0: aaa6 1b3f 9b3f 173d 1174 b13e aa7e 163f
00000200: 8aec 8ebe 74ea c43e 789c ca3e 93c8 61be
00000210: e20b e73e 3b86 87be 6e10 8dbe 27dc 203f
00000220: f109 bb3e d0e2 9bbc 6b0e 03bf 9d83 ed3e
00000230: c18e 3a3e c21e 1cbe 2d8a 7ebd bf91 ca3e
00000240: ae26 873e 9b46 dcbe e9d7 f7bc fc44 a6bd
00000250: 2c90 c43e 06dd 7e3e 7d17 afbd 1d97 8abd
00000260: 424f d7be ded6 02be d5ea 903e dec0 0dbf
00000270: be80 7d3e 06eb 143f 6c30 763e 4dd6 923e
00000280: b202 20be 6772 47bd 5613 3cbf 63e4 a2be
00000290: 0bfa 283e fbd0 493e 3c4b ae3e 2d89 a6be
000002a0: 07c8 293e db3d a3be 25f8 d9be 38b7 62be
000002b0: 1d0a c9be 6138 e03d a414 9b3e bce5 f33e
000002c0: d7ae bc3e 9d10 593e 4afa 8c3e eacf 1e3e
000002d0: 89c3 0bbf c598 88be fb55 f1be be9b 12bf
000002e0: e099 3d3e 2ee6 103f 4887 403f c18c a5bd
000002f0: 06be 5f3e c470 cb3e 795f f63d f3be f1be
0.19216517 -0.2392178 -0.5521572 -0.5341337 0.6619447 -0.09401941 -0.39427844 -0.15679698
0.53254235 0.26546744 -0.11215363 0.5423556 0.07715707 0.031176267 0.58477736 0.07980684
-0.08908399 0.42055362 0.4683266 -0.34089917 0.40262544 -0.49332055 -0.4339473 0.5292891
-0.4264881 -0.24581935 -0.09203417 0.18530452 -0.023558533 0.46476498 0.43198183 -0.51369256
-0.5356592 -0.40926495 0.59037375 -0.018433562 -0.44243705 -0.30392763 0.13064879 0.4099357
0.3369203 0.44456106 0.6823337 -0.44110882 0.0015773918 -0.36708364 -0.20831625 0.016609248
0.32375288 -0.25917768 -0.32550064 -0.08397948 0.31889924 0.020034347 0.68600494 -0.54656607
0.23917434 0.85966444 0.61924237 -0.3969812 -0.45400816 0.05849784 0.04240968 0.5863464
0.62174773 0.03739771 -0.16964112 0.3147723 -0.3743039 -0.35256594 0.07162055 -0.05952748
0.66693836 -0.05029924 0.11571792 0.16399592 -0.049363036 -0.1856397 0.13055737 0.32977757
-0.10572961 -0.3064799 -0.14255746 0.39823282 0.55152637 -0.18206947 0.3120012 -0.06802521
-0.033823885 -0.2715495 0.37514853 0.05676688 0.2325377 -0.54911286 -0.034497824 -0.45145395
-0.53646165 -0.5724276 -0.0927962 0.38069004 0.23096877 0.20074189 -0.24797799 -0.38238403
-0.1249159 -0.7173016 0.008796364 0.15362611 0.44316113 -0.6216056 0.5498856 0.49734005
-0.25861904 -0.49176458 -0.14745711 0.13338594 -0.16478363 -0.26523033 0.0435596 -0.35137635
-0.4721108 0.2804953 0.05357407 0.22520976 0.60801184 0.036925893 0.34658864 0.58787024
-0.2791484 0.38460124 0.395725 -0.22049169 0.45126253 -0.26469597 -0.27551597 0.62835926
0.36531022 -0.019029051 -0.51193875 0.46389475 0.18218519 -0.15246108 -0.062143493 0.3956432
0.26396698 -0.43022618 -0.030254321 -0.081186265 0.38391244 0.24889001 -0.08549402 -0.06767104
-0.42052656 -0.12777278 0.28304163 -0.55372417 0.24756142 0.5817112 0.24041909 0.28679124
-0.15626028 -0.048693087 -0.73467004 -0.3181487 0.16501634 0.19708626 0.34041774 -0.32526532
0.1658021 -0.3188313 -0.42572132 -0.22140205 -0.39265528 0.109482534 0.30289185 0.4763621
0.36852142 0.21197744 0.27534705 0.15509 -0.5459524 -0.26679054 -0.4713591 -0.57268894
0.1851573 0.56601226 0.7520642 -0.08083487 0.21849832 0.3973447 0.12029929 -0.47215995

nn.0.bias f4 [64]
00000000: 85f9 903d 9561 773e 82e0 733d 5f70 f03e
00000010: f4b4 133f 23bf 04bf cdb4 e73e 4079 e1be
00000020: 2fd1 a7be f6a7 713e b284 8f3c e673 f43e
00000030: 7117 f93e 6933 72be 0506 3a3f dc24 d4be
00000040: e25b dc3d 04c7 cf3d 1e4c 033f a9cc 1b3f
00000050: 8429 b83e f10d 92be 27b0 ed3e c4ab 0f3f
00000060: 9b18 28bc e835 d43e 9c5b 16be 13b0 d6bd
00000070: 8b7d 193e 3782 d33a c708 3cbe fca5 ab3d
00000080: ad1b 7cbb 812b e1be 0f9c d8be f73d 693e
00000090: fab0 35be 2b59 673c 7084 163f e513 da3e
000000a0: 1c9c 853e 462b 913e 5b8f c23e b83c c6be
000000b0: 0989 093f 7808 11bf bcf7 e4be 0dd0 8bbe
000000c0: 7d2c 343f e079 803e 8cb3 253e 9f61 ab3e
000000d0: 3b9a 21bf 8af8 0cbf ad13 b03e 8ca7 21be
000000e0: 4776 8d3e f0cb d1be 7125 0e3f c6f9 2ebf
000000f0: 12a8 963e cbbf b13e b00f a0be b39b 023f
0.07078842 0.24158318 0.05954028 0.46960732 0.5769799 -0.5185415 0.45255128 -0.4403782
-0.32776782 0.23599228 0.017519329 0.47744673 0.48650697 -0.23652424 0.72665435 -0.4143437
0.10759713 0.10145381 0.5128802 0.6085916 0.35969174 -0.2852626 0.46423456 0.5612147
-0.010259773 0.41447377 -0.14683384 -0.10482802 0.14989297 0.001613683 -0.18362723 0.083812684
-0.0038468644 -0.43978503 -0.42306563 0.22777544 -0.17743292 0.01412038 0.58795834 0.42593303
0.26095665 0.28353328 0.37999997 -0.387182 0.53724724 -0.5665355 -0.44720256 -0.27307168
0.70380384 0.25092983 0.16181773 0.33472916 -0.6312596 -0.5506674 0.3439001 -0.1578657
0.276293 -0.40975904 0.5552588 -0.68349874 0.29425102 0.3471664 -0.3126197 0.5101883

nn.2.weight f4 [15, 64]
00000000: 0c65 853d 7ea6 2abe 7392 b9bd 47a7 d33d
00000010: f997 e6bc 2100 913c ddb9 c03d dc42 353d
00000020: 3030 80bd 1165 cb3d 3c45 1b3d 0483 57bd
00000030: efd4 5cbe d11b 873d 8e2e 643e fc89 b53d
00000040: 0244 833d 5285 a13c 738d d63d 942b f23d
00000050: 90af 3fbd c508 a33d 602d 01bc 0a8e 43be
00000060: 3aef a23d d674 933d 94bf 0a3e 844d c7bd
00000070: 47c5 fa3d ca1a 82bd 2758 79bd 8892 e33c
00000080: 48f9 5c3d 9755 70bd 40ea 823c 0b9f 83be
00000090: 1b6f 0b3e bc0b 8c3d 2be1 24bd 20ff f93d
000000a0: b49b f0bd e6d3 4dbd cd2f 9f3d 84ac 193d
000000b0: 60ce 64bd c01b ee3e 9a0d 22be 2d02 dd3c
000000c0: b02c 023f 7701 adbd a485 d83d ca44 bebd
000000d0: d236 3cbc 2813 fa3c 7701 0bbf aefe e83d
000000e0: 88a5 7bbd 5898 973d b7d1 453b 1563 18bd
000000f0: f44d ef3d 35bb 3ebd baab 3d3e 80c9 f03d
00000100: f013 f1bd 67c3 403e 888a c9bc eeb1 98bd
00000110: 7ff4 d23d 2b1a b8bb b93d babd b5ae cdbc
00000120: 3c7b a53d 1ef0 af3d 401d c9bb b04b 063e
00000130: 0e13 0c3d b3aa 6fbd 5c60 b1bd b049 b63d
00000140: 10ec 3fbc 167d 253d 0b66 cf3d 594f 2cbe
00000150: e8cd 413e ea8d 253e f0f7 ce3d 3515 d53d
00000160: 640b f03c a0b9 033d 7ac8 0cbe 11e8 34bc
00000170: 6109 75bd 60c2 96bc 0a60 e0bc fce3 24bd
00000180: 8e4d aebd 5369 24bd f47e 253d 5c1a 4a3e
00000190: f03f 22bd 362c a9bd 383c 80bc 9c59 41bd
000001a0: e1d2 88bd 5515 1a3e 3e6f 273e 5ad5 bd3d
000001b0: 184c 84bd deae 923e 6c46 613e cc10 07bd
000001c0: 4bc2 6ebe 82e4 7dbd e0d6 1b3d f0a7 88bc
000001d0: f4bb ccbc 22fd d93d df27 46bd b063 053c
000001e0: 8428 7f3d 7c01 753d 92a2 0f3e 3290 0c3d
000001f0: 76f6 833d 65c3 0a3d c403 8d3c 7258 96bd
00000200: 2472 9e3d d943 a2bc 06f2 f33c 01a5 dc3b
00000210: 54cf 753d 641e 28be 4997 1c3e 6a00 aa3d
00000220: fe28 893d 5e2c 7b3b 26e0 eebd a01c 81bd
00000230: e2a7 f33d 50b1 b5bd 4134 c03e e04a 6cbc
00000240: 120b ff3d 9371 d9bd 20f3 7d3d 56e0 15be
00000250: 58ad a23d 8f28 ffbc f445 813d 63e6 3a3e
00000260: b771 df3d 42c6 eabd 121e 04be a35a d23d
00000270: 57e9 eb3d 2027 463d 6960 87bd 2000 d8bd
00000280: c2c0 f63d d442 ddbd 9004 2f3d faa7 9fbb
00000290: 1e4a 73bc 0050 363d df34 8b3e 3838 f3bc
000002a0: fec7 4f3d 37c6 0c3d 74fb 9dbd 58c1 cb3c
000002b0: c81d 2a3d f8cc 14bf e2eb 37be ae1a 723d
000002c0: b6fd 083f eb75 063d be8e cfbd 300e ac3d
000002d0: e474 e03b 1884 ee3c 38cd 713e cc9d 053d
000002e0: 1431 cabd 4eac dcbd 834d bc3d cc0b adbe
000002f0: a05c e5bc b247 9dbd 6595 b8bd b848 59bd
00000300: 803d 84ba e3a3 32be 270a c6bd 2d68 84bd
00000310: 1a3c d73c a104 37bb 6f07 243e b1c7 07be
00000320: ee9b dfbd d8a1 65bb 4afd ff3d 0911 8e3d
00000330: cda5 0cbd 2bcb 093a f4e2 aa3e 201a ac3b
00000340: d082 403c 5825 a5bd 726f 0c3e a29a e53e
00000350: 6be2 e2bb 59e4 a4bb e84f d0bc c7e7 833b
00000360: d904 843e 84ac 8a3d 8d48 c23b 5fae d13c
00000370: 813c 183d 3c6c d93d b7af 1a3e dc03 e7bd
00000380: 6cb2 783d 66cb 463e 6cea 083d 10a3 50be
00000390: bc85 2b3e c04a db3b 9c7d 8ebd 3074 5f3d
000003a0: b7da 493d ff74 b93d de1b 0c3d bcae 553d
000003b0: e4f8 9dbd 55bc bb3e f7ef 13be 647d 8b3d
000003c0: 955e e63e 4575 2d3d 065a 9d3d d643 f4bd
000003d0: cfac 1dbd 1411 92bd b154 dabe b4db 9fbd
000003e0: bec9 b6bd 40ed d5bd 12fe 4a3d 3c04 03bc
000003f0: e024 a93b e3cf a6bc b798 5f3e fe86 e8bd
0.06513414 -0.16665074 -0.09061136 0.1033464 -0.028148638 0.017700257 0.094104506 0.044253215
-0.06259191 0.09931386 0.037907824 -0.05261518 -0.21565603 0.065971024 0.22283384 0.08864209
0.06409456 0.019716892 0.10476198 0.11824718 -0.04679829 0.07960657 -0.007884353 -0.19097152
0.07955785 0.07200019 0.13549644 -0.09731582 0.12244659 -0.06352766 -0.060875084 0.027779832
0.05394867 -0.058675375 0.01598084 -0.25707278 0.13616602 0.06838176 -0.0402538 0.12206864
-0.11748448 -0.05025091 0.07772789 0.03751804 -0.055860877 0.46505547 -0.15825501 0.026978577
0.5084944 -0.08447545 0.10572365 -0.09290464 -0.01148768 0.030526713 -0.5429911 0.11376701
-0.06143716 0.07402104 0.0030184814 -0.037203867 0.1168479 -0.046565253 0.1852254 0.11757183
-0.11771381 0.1882454 -0.02460219 -0.074558124 0.1030054 -0.005618354 -0.09093804 -0.02510772
0.08080146 0.085907206 -0.00613752 0.1311481 0.03419786 -0.0585124 -0.08660957 0.089007735
-0.0117139965 0.040402494 0.10126885 -0.16827144 0.18926203 0.16167417 0.10105884 0.104044355
0.029302306 0.032159448 -0.1374835 -0.011041657 -0.059823398 -0.018403232 -0.027389545 -0.040256485
-0.08510886 -0.040139508 0.040404275 0.19736618 -0.039611757 -0.08260386 -0.015653715 -0.0472046
-0.06680847 0.150472 0.1635103 0.09269209 -0.06459826 0.28649038 0.2199952 -0.032975003
-0.23316304 -0.0619855 0.038046718 -0.016681641 -0.024991967 0.106439844 -0.048377868 0.008141443
0.062294498 0.05981587 0.1402686 0.034317203 0.06443493 0.03387775 0.01721371 -0.07341088
0.07736614 -0.019807743 0.029778492 0.006733537 0.060012177 -0.16417843 0.15292086 0.0830086
0.06697272 0.0038326005 -0.11663847 -0.06304288 0.118972555 -0.0887171 0.37539867 -0.0144221485
0.12453283 -0.10617366 0.06199944 -0.14636359 0.07943219 -0.03114727 0.063121706 0.18251948
0.10910361 -0.11463596 -0.12902096 0.10271194 0.115191154 0.048377156 -0.06610186 -0.10546899
0.120484844 -0.10803762 0.04272896 -0.0048723193 -0.014849214 0.044509888 0.27188775 -0.029689893
0.050727837 0.03436872 -0.077139765 0.024872467 0.041532308 -0.5812526 -0.17961076 0.059107475
0.5351213 0.0328273 -0.10134648 0.084011436 0.006849872 0.029115722 0.23613441 0.03262119
-0.09872642 -0.10775052 0.09194472 -0.33798063 -0.027998269 -0.076796904 -0.0901287 -0.053047866
-0.0010089129 -0.1744533 -0.09669905 -0.064651825 0.026273776 -0.0027926343 0.1601846 -0.1325977
-0.10918413 -0.0035039093 0.12499483 0.06936843 -0.034337807 0.00052564096 0.33376276 0.005252138
0.011749938 -0.080637634 0.13714388 0.44844538 -0.006923964 -0.005032104 -0.025428727 0.0040254327
0.25784948 0.06771186 0.005929059 0.025595842 0.037167076 0.10616347 0.15106092 -0.11280033
0.06071703 0.19413528 0.033426687 -0.20374703 0.16750234 0.0066922605 -0.06957552 0.054554164
0.04928085 0.09055518 0.034206264 0.052168593 -0.07713488 0.36667123 -0.14447008 0.06811026
0.44994035 0.042348165 0.07683186 -0.11927001 -0.03849488 -0.07132164 -0.4264274 -0.07805577
-0.08925198 -0.104456425 0.049558707 -0.007996615 0.0051618665 -0.0203628 0.218356 -0.11353873

nn.2.bias f4 [15]
00000000: 9605 b83c 735f 2cbb 7ab3 fa3d d0ec 4e3c
00000010: 81e0 b0ba 20b7 dd3d 2912 a43d a8d1 0b3e
00000020: ddab 31be 906f 35bc 2412 443d 5e06 8e3d
00000030: 94e2 debd 505b 8b3c f0d0 71bc
0.022463601 -0.002630201 0.12241264 0.012629703 -0.0013494642 0.10825944 0.08011276 0.13654196
-0.17350717 -0.011073962 0.047868863 0.06934808 -0.1088306 0.017011315 -0.014759287

exp_avg f4 [64, 3]
00000000: 0000 0000 0000 0000 0000 0000 3b90 45b7
00000010: 33f9 43b8 10f1 21b9 40b0 8ab5 5a59 a7b6
00000020: 2e3b 7cb7 05f6 22b5 8b7a 98b5 84c7 3fb7
00000030: eef2 8236 bf86 7837 13a5 1438 0740 0635
00000040: 6247 5c36 d800 6d37 b0b9 e135 db37 5936
00000050: 4c6a af37 1132 1eb7 f319 19b8 e8a1 04b9
00000060: 0000 0000 0000 0000 0000 0000 a02d 5034
00000070: 5bfb c235 ce6c 3b37 0000 0000 0000 0000
00000080: 0000 0000 cfde d7b3 1e77 ebb5 4d46 c2b5
00000090: 807a 2bb7 1539 19b8 628c dbb8 004d 80b4
000000a0: 8c93 a834 94a9 5736 73fb 8737 5fb9 8138
000000b0: 2f6b 5b39 0000 0000 0000 0000 0000 0000
000000c0: 0000 0000 0000 0000 0000 0000 bbcc 11b6
000000d0: 8ac4 0ab7 13fa cbb7 ca3c 5937 a3b1 5338
000000e0: c174 2c39 ad96 1d37 9244 0a38 dce6 2c39
000000f0: 89bc 4bb6 f427 56b7 7f3b 0eb8 f9e1 c236
00000100: bfd2 9137 5a38 7f38 0000 0000 0000 0000
00000110: 0000 0000 e4a5 59b6 b314 59b7 78aa 2bb8
00000120: 44ab 7637 9b73 5738 935f 3239 0000 0000
00000130: 0000 0000 0000 0000 a4b6 dcb6 407d e7b7
00000140: 63e1 8db8 ddde 9bb2 9d5e 8fb6 fbc7 a9b7
00000150: 7184 9934 34d9 cd34 a23e f635 0000 0000
00000160: 0000 0000 0000 0000 5826 5836 2dd6 4037
00000170: 2431 4538 0000 0000 0000 0000 0000 0000
00000180: 0000 0000 0000 0000 0000 0000 f266 4936
00000190: f2ec 0437 240c 4638 0000 0000 0000 0000
000001a0: 0000 0000 f5cc 21b7 ca17 1bb8 0565 fcb8
000001b0: f9a9 9236 ec89 9c37 ab6f 8438 0000 0000
000001c0: 0000 0000 0000 0000 104d 37b7 efdb 34b8
000001d0: 9f9a 1bb9 0000 0000 0000 0000 0000 0000
000001e0: 3e63 15b7 fba3 15b8 dc33 e2b8 6744 f734
000001f0: 5d45 29b6 0914 69b6 fd6f 81b5 c4f7 6eb6
00000200: e191 2cb6 0000 0000 0000 0000 0000 0000
00000210: 0000 0000 0000 0000 0000 0000 0590 4d38
00000220: aa0f 2f39 267c 123a 8ab3 d9b6 22bc dbb7
00000230: cd4d afb8 e7db 7636 0f9b 4037 73ac 0b38
00000240: 1d4b e437 20e0 f438 e32c be39 89c5 ca33
00000250: 4e51 fbb5 e31c 0cb7 0000 0000 0000 0000
00000260: 0000 0000 0000 0000 0000 0000 0000 0000
00000270: d8b1 0734 3ec5 3fb6 a1bc 7ab6 0000 0000
00000280: 0000 0000 0000 0000 323b e9b7 ca4d d7b8
00000290: 7775 bcb9 0000 0000 0000 0000 0000 0000
000002a0: 0000 0000 0000 0000 0000 0000 0000 0000
000002b0: 0000 0000 0000 0000 9c42 bb36 6668 9037
000002c0: c24d 5038 2d87 9036 ee49 6037 bc00 4b38
000002d0: 0000 0000 0000 0000 0000 0000 b11b 9cb6
000002e0: 2700 87b7 5764 45b8 e6ca 7337 8f91 5a38
000002f0: 8d11 4439 0000 0000 0000 0000 0000 0000
0.0 0.0 0.0 -1.1775696e-05 -4.6723708e-05 -0.0001544396 -1.0333097e-06 -4.9873897e-06
-1.5034149e-05 -6.070771e-07 -1.1360547e-06 -1.14309405e-05 3.9025826e-06 1.4813325e-05 3.5439687e-05 5.001206e-07
3.2824105e-06 1.4126497e-05 1.6817849e-06 3.2368032e-06 2.0911124e-05 -9.429191e-06 -3.650221e-05 -0.00012648816
0.0 0.0 0.0 1.9388108e-07 1.452728e-06 1.1171402e-05 0.0 0.0
0.0 -1.0052246e-07 -1.7543532e-06 -1.4474587e-06 -1.0220916e-05 -3.6531204e-05 -0.00010468882 -2.3897883e-07
3.1399793e-07 3.2136204e-06 1.6210344e-05 6.1857274e-05 0.00020925397 0.0 0.0 0.0
0.0 0.0 0.0 -2.1725853e-06 -8.271201e-06 -2.4315936e-05 1.29483615e-05 5.0471757e-05
0.00016446692 9.393011e-06 3.2965625e-05 0.000164892 -3.03591e-06 -1.2764696e-05 -3.391085e-05 5.807957e-06
1.7383483e-05 6.084922e-05 0.0 0.0 0.0 -3.243208e-06 -1.2939027e-05 -4.092834e-05
1.47026185e-05 5.136766e-05 0.00017011007 0.0 0.0 0.0 -6.577773e-06 -2.759567e-05
-6.7653855e-05 -1.8145721e-08 -4.2727465e-06 -2.0239493e-05 2.8594835e-07 3.8342262e-07 1.8346657e-06 0.0
0.0 0.0 3.2208827e-06 1.14939585e-05 4.7014226e-05 0.0 0.0 0.0
0.0 0.0 0.0 3.0011256e-06 7.922981e-06 4.7218186e-05 0.0 0.0
0.0 -9.644068e-06 -3.6977035e-05 -0.00012035113 4.3709265e-06 1.8660874e-05 6.31505e-05 0.0
0.0 0.0 -1.09255925e-05 -4.3120173e-05 -0.00014839553 0.0 0.0 0.0
-8.904199e-06 -3.5677087e-05 -0.00010786179 4.6057104e-07 -2.5223337e-06 -3.4731368e-06 -9.643842e-07 -3.5608982e-06
-2.571491e-06 0.0 0.0 0.0 0.0 0.0 0.0 4.9009937e-05
0.00016695136 0.00055879576 -6.488005e-06 -2.619444e-05 -8.359142e-05 3.6784857e-06 1.1480194e-05 3.330079e-05
2.7214695e-05 0.00011676573 0.00036273067 9.4422894e-08 -1.872462e-06 -8.351376e-06 0.0 0.0
0.0 0.0 0.0 0.0 1.2637554e-07 -2.8576028e-06 -3.73627e-06 0.0
0.0 0.0 -2.780333e-05 -0.00010266488 -0.00035945672 0.0 0.0 0.0
0.0 0.0 0.0 0.0 0.0 0.0 5.5807886e-06 1.7214752e-05
4.9663482e-05 4.307271e-06 1.33686535e-05 4.8399655e-05 0.0 0.0 0.0 -4.652386e-06
-1.6093325e-05 -4.706191e-05 1.453117e-05 5.2110812e-05 0.00018698555 0.0 0.0 0.0

exp_avg_sq f4 [64, 3]
00000000: 0000 0000 0000 0000 0000 0000 0a2b dc31
00000010: 3676 bf33 a713 0835 9ea4 322e 53a9 1630
00000020: 262a 5431 3e79 ab30 d7b2 9132 bab1 b933
00000030: 436c 1d2f 9623 0431 4421 3f32 a186 4330
00000040: a108 2532 f104 6433 3d96 8a31 cc2f 6e33
00000050: b71e a234 d28b 3931 b385 1f33 3104 6434
00000060: 0000 0000 0000 0000 0000 0000 f093 0030
00000070: 1d83 da31 3542 1c33 0000 0000 0000 0000
00000080: 0000 0000 18f8 cb30 4361 aa32 c30f f333
00000090: 847c 5132 9df9 3234 65b7 6a35 c596 8230
000000a0: f900 5e32 2a1b 9233 850a 3e32 a504 2434
000000b0: 8deb 6d35 0000 0000 0000 0000 0000 0000
000000c0: 0000 0000 0000 0000 0000 0000 e01b 9430
000000d0: 7b4e 7932 b0b8 b533 1f1d 9431 db42 8033
000000e0: f106 ba34 a4cd 8932 9bc9 6c34 f0d8 aa35
000000f0: d48b 6031 f463 4033 17cc 7934 321a e431
00000100: 8835 c133 afe1 0235 0000 0000 0000 0000
00000110: 0000 0000 fda9 9c31 36e5 8533 a8ee ad34
00000120: 0c84 5332 4c70 3634 c988 8035 0000 0000
00000130: 0000 0000 0000 0000 d1cf 5131 29be 3133
00000140: ff91 3434 850e b230 e2d6 9632 4e3b c033
00000150: b1da 2b31 f424 1333 e95c 3e34 0000 0000
00000160: 0000 0000 0000 0000 802b c530 2e89 a932
00000170: 7560 ee33 0000 0000 0000 0000 0000 0000
00000180: 0000 0000 0000 0000 0000 0000 6dee 3f31
00000190: efb6 2333 15a8 6b34 0000 0000 0000 0000
000001a0: 0000 0000 8384 0532 9a58 e733 3574 1c35
000001b0: c545 8d30 20e6 7632 a252 b033 0000 0000
000001c0: 0000 0000 0000 0000 f486 ab31 5c11 9333
000001d0: eebc d234 0000 0000 0000 0000 0000 0000
000001e0: 1768 a230 d8de 8b32 64e4 cb33 a0b7 7530
000001f0: 4efe 4b32 2435 9133 0c2c 5a31 aaeb 3533
00000200: b9e0 8234 0000 0000 0000 0000 0000 0000
00000210: 0000 0000 0000 0000 0000 0000 72df 3c34
00000220: d715 2136 9f06 6037 28ad 7c31 2938 5633
00000230: 94aa 9834 76fe bf30 7ac6 a332 dc91 de33
00000240: a1a9 0d33 b4ff ee34 cfd4 2336 2270 2f30
00000250: 4ea7 1432 c732 4533 0000 0000 0000 0000
00000260: 0000 0000 0000 0000 0000 0000 0000 0000
00000270: 8e47 0531 d649 e232 157d 1334 0000 0000
00000280: 0000 0000 0000 0000 aa10 9e33 0ac8 8735
00000290: 6bb9 bf36 0000 0000 0000 0000 0000 0000
000002a0: 0000 0000 0000 0000 0000 0000 0000 0000
000002b0: 0000 0000 0000 0000 ccb3 d630 3fec b532
000002c0: c45d f733 9040 ff31 f5e3 d633 0cfe 1135
000002d0: 0000 0000 0000 0000 0000 0000 040a 0f31
000002e0: 6c8d f532 e850 2534 d65f 4d32 8dfe 3034
000002f0: 15a5 7c35 0000 0000 0000 0000 0000 0000
0.0 0.0 0.0 6.4077357e-09 8.915633e-08 5.0692546e-07 4.0618724e-11 5.4810306e-10
3.087402e-09 1.2476347e-09 1.6961549e-08 8.647062e-08 1.4317529e-10 1.9228756e-09 1.1125227e-08 7.1131906e-10
9.606226e-09 5.308988e-08 4.0334087e-09 5.5457164e-08 3.01972e-07 2.7000522e-09 3.714167e-08 2.123568e-07
0.0 0.0 0.0 4.677636e-10 6.359541e-09 3.6381795e-08 0.0 0.0
0.0 1.4840706e-09 1.9834834e-08 1.1318436e-07 1.2193713e-08 1.666835e-07 8.7438667e-07 9.501596e-10
1.2922322e-08 6.803596e-08 1.1061847e-08 1.527538e-07 8.863215e-07 0.0 0.0 0.0
0.0 0.0 0.0 1.077634e-09 1.4511552e-08 8.462064e-08 4.3106776e-09 5.9726254e-08
3.465025e-07 1.6042414e-08 2.2052556e-07 1.2729124e-06 3.2675773e-09 4.479439e-08 2.326418e-07 6.6386514e-09
8.997e-08 4.8757187e-07 0.0 0.0 0.0 4.559523e-09 6.234988e-08 3.2397406e-07
1.231184e-08 1.6990924e-07 9.576553e-07 0.0 0.0 0.0 3.0531633e-09 4.1383974e-08
1.681692e-07 1.2955331e-09 1.7560016e-08 8.951484e-08 2.5008087e-09 3.4259713e-08 1.772893e-07 0.0
0.0 0.0 1.4346e-09 1.9736571e-08 1.1100284e-07 0.0 0.0 0.0
0.0 0.0 0.0 2.7929687e-09 3.8117772e-08 2.1947228e-07 0.0 0.0
0.0 7.771749e-09 1.0772892e-07 5.828363e-07 1.027893e-09 1.4371409e-08 8.2106695e-08 0.0
0.0 0.0 4.9920974e-09 6.8483786e-08 3.9253013e-07 0.0 0.0 0.0
1.1816635e-09 1.6283067e-08 9.494468e-08 8.939143e-10 1.1873977e-08 6.761755e-08 3.1748213e-09 4.235668e-08
2.4377894e-07 0.0 0.0 0.0 0.0 0.0 0.0 1.7590153e-07
2.4003582e-06 1.3352982e-05 3.6769254e-09 4.9876835e-08 2.8436318e-07 1.3969401e-09 1.9065954e-08 1.0364212e-07
3.2983397e-08 4.4517003e-07 2.4412764e-06 6.382398e-10 8.6527745e-09 4.591382e-08 0.0 0.0
0.0 0.0 0.0 0.0 1.9394721e-09 2.634344e-08 1.3735946e-07 0.0
0.0 0.0 7.3604795e-08 1.0116503e-06 5.713829e-06 0.0 0.0 0.0
0.0 0.0 0.0 0.0 0.0 0.0 1.5621651e-09 2.1178606e-08
1.151889e-07 7.4288167e-09 1.0006617e-07 5.4386396e-07 0.0 0.0 0.0 2.0814932e-09
2.8586065e-08 1.5396256e-07 1.1954361e-08 1.6483882e-07 9.411754e-07 0.0 0.0 0.0

exp_avg f4 [64]
00000000: 0000 0000 5297 06b8 77e7 69b6 b8fb 5cb5
00000010: af60 2f37 290d 3736 fb89 0d36 a4b6 d5b7
00000020: 0000 0000 9beb 9b35 0000 0000 ba3c 63b5
00000030: 259a dab7 fc05 d134 b179 2f38 0000 0000
00000040: 0000 0000 054b bbb6 8e0c 1338 264f be37
00000050: aa28 16b7 6342 5737 0000 0000 ddd5 1db7
00000060: 92f7 1638 0000 0000 e5c3 26b7 f01f 3eb6
00000070: 9465 2934 0000 0000 ff6f 0a37 0000 0000
00000080: 0000 0000 4bd8 c336 0000 0000 1774 d5b7
00000090: 2cbd 5837 0000 0000 e6fc ffb7 0000 0000
000000a0: 38ce d0b7 5e15 bcb5 3a95 07b6 0000 0000
000000b0: 0000 0000 1abd f938 6148 90b7 e5bf 0537
000000c0: 59d3 a338 2203 afb5 0000 0000 0000 0000
000000d0: 7020 edb5 0000 0000 8836 98b8 0000 0000
000000e0: 0000 0000 0000 0000 fbe2 4d37 c0b1 2f37
000000f0: 0000 0000 6edf 3bb7 4b3a 1938 0000 0000
0.0 -3.2089018e-05 -3.4854436e-06 -8.2322686e-07 1.0453324e-05 2.7276785e-06 2.1090952e-06 -2.5476627e-05
0.0 1.161697e-06 0.0 -8.465246e-07 -2.6059404e-05 3.8933638e-07 4.1836585e-05 0.0
0.0 -5.5817677e-06 3.5059224e-05 2.2686621e-05 -8.950165e-06 1.28304555e-05 0.0 -9.407723e-06
3.5993355e-05 0.0 -9.939981e-06 -2.8330796e-06 1.5776305e-07 0.0 8.251517e-06 0.0
0.0 5.8366327e-06 0.0 -2.5445637e-05 1.2918648e-05 0.0 -3.0516134e-05 0.0
-2.489156e-05 -1.401331e-06 -2.020343e-06 0.0 0.0 0.00011908468 -1.7199842e-05 7.972097e-06
7.811812e-05 -1.3039428e-06 0.0 0.0 -1.7667317e-06 0.0 -7.258082e-05 0.0
0.0 0.0 1.22718e-05 1.04721985e-05 0.0 -1.119809e-05 3.6532332e-05 0.0

exp_avg_sq f4 [64]
00000000: 0000 0000 c4e8 3933 c9f1 8f2f 2919 0a32
00000010: d199 8030 8a41 a031 24c3 e532 28ea 9932
00000020: 0000 0000 9613 5331 0000 0000 a5d9 2532
00000030: c639 ac33 30eb d331 071d 9f33 0000 0000
00000040: 0000 0000 175f f331 009a f832 d27d e433
00000050: ddd6 b732 6bdf 3a33 0000 0000 1879 0033
00000060: c93d b133 0000 0000 6cac aa32 4b5a 0f32
00000070: f347 8c32 0000 0000 bdc9 2332 0000 0000
00000080: 0000 0000 6be4 9e32 0000 0000 0bc2 5e33
00000090: 43ca ef31 0000 0000 3be2 0e33 0000 0000
000000a0: c485 0832 b2d6 c631 7dc7 b032 0000 0000
000000b0: 0000 0000 fe61 9c35 1a7f d032 e819 1e32
000000c0: efca 6634 1d58 8d31 0000 0000 0000 0000
000000d0: a09c 5832 0000 0000 6711 0435 0000 0000
000000e0: 0000 0000 0000 0000 d40d 3032 1df1 4f33
000000f0: 0000 0000 7236 6d32 93d9 ab33 0000 0000
0.0 4.3285368e-08 2.6183347e-10 8.038378e-09 9.356943e-10 4.664064e-09 2.6747848e-08 1.7918026e-08
0.0 3.0715674e-09 0.0 9.653751e-09 8.019883e-08 6.167646e-09 7.4092945e-08 0.0
0.0 7.0830413e-09 2.8941031e-08 1.0639964e-07 2.1401712e-08 4.3509697e-08 0.0 2.9912457e-08
8.2534434e-08 0.0 1.9869013e-08 8.344226e-09 1.6330864e-08 0.0 9.533719e-09 0.0
0.0 1.8497493e-08 0.0 5.1864884e-08 6.97881e-09 0.0 3.3267707e-08 0.0
7.946657e-09 5.7869665e-09 2.0579813e-08 0.0 0.0 1.1651425e-06 2.4272186e-08 9.202701e-09
2.1494246e-07 4.1136574e-09 0.0 0.0 1.2608467e-08 0.0 4.9199156e-07 0.0
0.0 0.0 1.02476925e-08 4.8415234e-08 0.0 1.3807595e-08 8.0023845e-08 0.0

exp_avg f4 [15, 64]
00000000: 0000 0000 2404 7833 e94a fdb6 9883 2db7
00000010: cb60 3eb7 be24 bab6 b2ad 01b7 5447 adb6
00000020: 0000 0000 022d 10b7 0000 0000 eb98 f5b5
00000030: 31d4 beb5 f445 12b7 7ec3 03b6 0000 0000
00000040: 0000 0000 444d bcb5 4ad2 a8b6 296c 9c35
00000050: eb5f 4eb5 1c0d 55b6 0000 0000 9123 1d34
00000060: 2489 57b6 0000 0000 18b2 4cb4 d84e adb6
00000070: 4f04 cfb6 0000 0000 6785 93b6 0000 0000
00000080: 0000 0000 1fdd 7eb6 0000 0000 d833 cdb5
00000090: af86 00b7 0000 0000 b77d 9c35 0000 0000
000000a0: 7115 b6b5 7a71 7ab6 ce97 8a35 0000 0000
000000b0: 0000 0000 da9b 5fb5 07b2 14b6 1200 b2b6
000000c0: 5927 02b5 87da c0b6 0000 0000 0000 0000
000000d0: 7456 a0b6 0000 0000 7bca 7eb5 0000 0000
000000e0: 0000 0000 0000 0000 d28b 21b7 c3bb 13b6
000000f0: 0000 0000 bb7f 1fb7 8dbc 8eb6 0000 0000
00000100: 0000 0000 479b 8637 229a 6a38 c465 a638
00000110: 0185 bf38 0453 0c38 7e31 6638 4498 eb37
00000120: 0000 0000 4750 8938 0000 0000 922f 0238
00000130: c5d3 5737 6cd1 8a38 ae7e 5037 0000 0000
00000140: 0000 0000 444e 9237 88e2 0138 f3e5 ae36
00000150: 6b1b 5737 2fff ee37 0000 0000 1f1c 0837
00000160: b20d a837 0000 0000 25a3 0db5 40bf 1738
00000170: 3acc 3038 0000 0000 214a fb37 0000 0000
00000180: 0000 0000 0f0b d637 0000 0000 8cd3 9037
00000190: 0fbb 3138 0000 0000 c817 8535 0000 0000
000001a0: 46b3 a737 02f1 2938 bdef b036 0000 0000
000001b0: 0000 0000 066c 5836 feba b437 b9e4 1638
000001c0: df0f 5336 ceda 5c38 0000 0000 0000 0000
000001d0: 3337 1c38 0000 0000 da9f 0e37 0000 0000
000001e0: 0000 0000 0000 0000 db2d b238 49fe 4e37
000001f0: 0000 0000 fda1 a838 5146 c437 0000 0000
00000200: 0000 0000 ef4e deb5 7e72 20b8 4e59 2db8
00000210: 9b14 44b8 eeea dab7 1271 f0b7 26e1 06b8
00000220: 0000 0000 dbdb 12b8 0000 0000 cbc1 05b7
00000230: eae2 33b7 8e6f 0bb8 ba51 32b4 0000 0000
00000240: 0000 0000 1c92 afb6 1e0b 7cb7 9d1d a937
00000250: 151c e3b6 9762 bdb6 0000 0000 6f50 40b5
00000260: e9ce e9b6 0000 0000 9953 6736 4d60 e5b7
00000270: 14b6 b2b7 0000 0000 9f59 83b7 0000 0000
00000280: 0000 0000 add7 5cb7 0000 0000 f754 68b7
00000290: f536 08b8 0000 0000 745a da36 0000 0000
000002a0: 2acd 15b7 f1e8 26b7 1cd1 5537 0000 0000
000002b0: 0000 0000 bec5 3d36 00fc 7db7 fc71 deb7
000002c0: d71e db35 00e4 c4b7 0000 0000 0000 0000
000002d0: 2eda 97b7 0000 0000 3def 40b7 0000 0000
000002e0: 0000 0000 0000 0000 7444 11b8 4c67 13b7
000002f0: 0000 0000 4778 41b8 2cc8 48b7 0000 0000
00000300: 0000 0000 671f 1c38 7c4b 3d39 cad2 7939
00000310: 42d6 8e39 ab4f f238 d5d7 2c39 0c47 e638
00000320: 0000 0000 2e0f 5039 0000 0000 cd03 a738
00000330: 262d 2c38 8643 5239 8772 e137 0000 0000
00000340: 0000 0000 7c51 4438 11be be38 36c5 89b7
00000350: a2c7 1738 9500 a038 0000 0000 c516 8937
00000360: 5b3e 7038 0000 0000 6637 9fb6 e38b fd38
00000370: 222d 0539 0000 0000 cd9c c138 0000 0000
00000380: 0000 0000 7d8a a738 0000 0000 5fbb 6b38
00000390: c8f4 1639 0000 0000 69d3 20b7 0000 0000
000003a0: 1e16 6c38 2047 df38 812f d0b6 0000 0000
000003b0: 0000 0000 ad92 0037 8417 9638 2796 fc38
000003c0: 8cef 1336 3b0b 2039 0000 0000 0000 0000
000003d0: 1931 f038 0000 0000 c5d5 0b38 0000 0000
000003e0: 0000 0000 0000 0000 8d9f 7d39 918b 3938
000003f0: 0000 0000 9900 8139 5005 9a38 0000 0000
0.0 5.7745766e-08 -7.5487083e-06 -1.0342243e-05 -1.1347419e-05 -5.5475093e-06 -7.729441e-06 -5.1641055e-06
0.0 -8.593548e-06 0.0 -1.8298427e-06 -1.4217859e-06 -8.718565e-06 -1.9634313e-06 0.0
0.0 -1.4029579e-06 -5.031271e-06 1.1654384e-06 -7.688056e-07 -3.1747104e-06 0.0 1.4634703e-07
-3.2117323e-06 0.0 -1.906377e-07 -5.1649804e-06 -6.1695823e-06 0.0 -4.3964715e-06 0.0
0.0 -3.7977659e-06 0.0 -1.5288779e-06 -7.660753e-06 0.0 1.1659494e-06 0.0
-1.3566297e-06 -3.7318955e-06 1.0325982e-06 0.0 0.0 -8.330077e-07 -2.2157344e-06 -5.3048216e-06
-4.848603e-07 -5.747486e-06 0.0 0.0 -4.778436e-06 0.0 -9.491702e-07 0.0
0.0 0.0 -9.628902e-06 -2.2013999e-06 0.0 -9.506878e-06 -4.25388e-06 0.0
0.0 1.6046351e-05 5.5933495e-05 7.934452e-05 9.1323636e-05 3.3455915e-05 5.4882366e-05 2.8085087e-05
0.0 6.547622e-05 0.0 3.103872e-05 1.2864305e-05 6.619361e-05 1.2427261e-05 0.0
0.0 1.7441002e-05 3.096697e-05 5.2123737e-06 1.2821382e-05 2.849064e-05 0.0 8.112779e-06
2.0033538e-05 0.0 -5.2764e-07 3.617932e-05 4.215187e-05 0.0 2.995605e-05 0.0
0.0 2.5515938e-05 0.0 1.7264647e-05 4.23743e-05 0.0 9.916193e-07 0.0
1.9991432e-05 4.0517196e-05 5.273118e-06 0.0 0.0 3.2249386e-06 2.1544747e-05 3.59758e-05
3.1450688e-06 5.2655865e-05 0.0 0.0 3.7244707e-05 0.0 8.501078e-06 0.0
0.0 0.0 8.496243e-05 1.2337762e-05 0.0 8.041037e-05 2.3397764e-05 0.0
0.0 -1.6563262e-06 -3.82536e-05 -4.1329586e-05 -4.6749232e-05 -2.6097023e-05 -2.8662882e-05 -3.2157775e-05
0.0 -3.501387e-05 0.0 -7.972539e-06 -1.0722064e-05 -3.3244076e-05 -1.6607274e-07 0.0
0.0 -5.232416e-06 -1.5022959e-05 2.016016e-05 -6.7683964e-06 -5.6441163e-06 0.0 -7.164262e-07
-6.9680286e-06 0.0 3.4470343e-06 -2.734377e-05 -2.130404e-05 0.0 -1.565815e-05 0.0
0.0 -1.3163238e-05 0.0 -1.384806e-05 -3.247611e-05 0.0 6.5074364e-06 0.0
-8.928861e-06 -9.948607e-06 1.2744476e-05 0.0 0.0 2.8278296e-06 -1.5138648e-05 -2.651754e-05
1.6325747e-06 -2.3471192e-05 0.0 0.0 -1.81022e-05 0.0 -1.1499794e-05 0.0
0.0 0.0 -3.4634446e-05 -8.7859335e-06 0.0 -4.6126803e-05 -1.1967535e-05 0.0
0.0 3.7222544e-05 0.00018052565 0.00023825016 0.00027243985 0.000115542985 0.00016483602 0.00010980488
0.0 0.0001984208 0.0 7.9638885e-05 4.1050043e-05 0.00020052315 2.6875421e-05 0.0
0.0 4.680593e-05 9.0953086e-05 -1.6423506e-05 3.6187128e-05 7.629503e-05 0.0 1.6342276e-05
5.7278532e-05 0.0 -4.7450185e-06 0.00012090036 0.00012700682 0.0 9.2321636e-05 0.0
0.0 7.988976e-05 0.0 5.620287e-05 0.00014396303 0.0 -9.585966e-06 0.0
5.6287383e-05 0.00010646717 -6.2044132e-06 0.0 0.0 7.663545e-06 7.1569375e-05 0.000120442644
2.2044142e-06 0.00015262973 0.0 0.0 0.00011453237 0.0 3.333927e-05 0.0
0.0 0.0 0.00024187398 4.423742e-05 0.0 0.00024605243 7.344282e-05 0.0

exp_avg_sq f4 [15, 64]
00000000: 0000 0000 5bcc 5e32 a3eb 5333 a14e 0134
00000010: 816b 3334 86f7 6d32 c3c4 6533 f712 b331
00000020: 0000 0000 c901 ae33 0000 0000 67cc 0e33
00000030: 417b 1831 ea10 bd33 437c 6f31 0000 0000
00000040: 0000 0000 de5c 2132 cecc 7f32 0b9d 2b32
00000050: c446 9331 1d8d d432 0000 0000 3a42 5531
00000060: b3aa 0732 0000 0000 8c0e 072f cb49 9f32
00000070: 3ed6 0733 0000 0000 d239 8c32 0000 0000
00000080: 0000 0000 29e4 5332 0000 0000 0139 b631
00000090: b5f1 a432 0000 0000 9d51 a630 0000 0000
000000a0: e8ac 4332 627f 5733 ab6d e531 0000 0000
000000b0: 0000 0000 cd00 2730 b93f 2532 4356 9f32
000000c0: 2ddb 7a2f 39dc 8b33 0000 0000 0000 0000
000000d0: fb90 0233 0000 0000 5a10 fb2f 0000 0000
000000e0: 0000 0000 0000 0000 a0f6 3634 b74f 1b31
000000f0: 0000 0000 fa32 0834 6c38 0e32 0000 0000
00000100: 0000 0000 3226 a533 b46a cf34 70be 6e35
00000110: 01d4 a335 8447 fb33 da98 d734 cdb5 6233
00000120: 0000 0000 cd5b 2135 0000 0000 0329 6434
00000130: e515 9a32 511a 2d35 9381 c732 0000 0000
00000140: 0000 0000 6368 8433 b5ce f533 279b 3333
00000150: dcba fb32 4fc9 2e34 0000 0000 808a 9c32
00000160: 8270 7633 0000 0000 c62e 9e2f c77f 2134
00000170: f301 7f34 0000 0000 4ac3 0334 0000 0000
00000180: 0000 0000 5a17 c633 0000 0000 20d3 2d33
00000190: 14d5 3334 0000 0000 4a25 9e31 0000 0000
000001a0: 9ba8 a433 26a2 b034 c63e 0033 0000 0000
000001b0: 0000 0000 8a5e 7031 6854 9933 5638 2134
000001c0: 6e22 af30 a0ae f534 0000 0000 0000 0000
000001d0: bb81 6b34 0000 0000 0860 9d31 0000 0000
000001e0: 0000 0000 0000 0000 77e0 9f35 855f 9e32
000001f0: 0000 0000 7d2b 7b35 64e8 8b33 0000 0000
00000200: 0000 0000 d62a ce33 a5c8 de34 97e7 8335
00000210: d209 b635 3ead 0234 b03d ec34 3ad9 5d33
00000220: 0000 0000 1bef 3135 0000 0000 c03d 8834
00000230: ff76 a232 ed47 4035 a629 e832 0000 0000
00000240: 0000 0000 5ede 9b33 a2ff 0434 d7d4 8d33
00000250: 717f 1033 ebdf 4d34 0000 0000 d4ce c332
00000260: c46e 8933 0000 0000 0151 4b30 c8bf 2a34
00000270: 64c2 8b34 0000 0000 2e81 1034 0000 0000
00000280: 0000 0000 e113 da33 0000 0000 50c4 3c33
00000290: 5648 3834 0000 0000 6f1e 0532 0000 0000
000002a0: 62f6 be33 2614 d034 060d 4133 0000 0000
000002b0: 0000 0000 899c 9b31 a178 a933 15b4 2a34
000002c0: a966 e230 5352 0b35 0000 0000 0000 0000
000002d0: 6b02 8434 0000 0000 c584 9a31 0000 0000
000002e0: 0000 0000 0000 0000 a4cc b535 8132 a832
000002f0: 0000 0000 c5dd 8a35 c22e 9633 0000 0000
00000300: 0000 0000 d718 c033 beb7 fb34 47b3 8d35
00000310: a525 c235 c440 1c34 6941 0035 7011 a033
00000320: 0000 0000 fecd 3f35 0000 0000 cda4 8434
00000330: 9da1 c032 6dc3 4c35 b907 e532 0000 0000
00000340: 0000 0000 aefb 9933 5a76 1234 c171 5533
00000350: e34a 1533 bb66 4934 0000 0000 4be2 b632
00000360: 00c3 8f33 0000 0000 5038 f22f 8ab1 4634
00000370: 1a5d 9734 0000 0000 1e81 1c34 0000 0000
00000380: 0000 0000 a3c4 ea33 0000 0000 22cf 5433
00000390: bee8 6134 0000 0000 34c0 c931 0000 0000
000003a0: efbf c133 1499 cc34 aae5 1633 0000 0000
000003b0: 0000 0000 d186 8431 a4bb b833 f4c3 4534
000003c0: a7f1 d830 6b6a 1035 0000 0000 0000 0000
000003d0: 77ce 8a34 0000 0000 618e ed31 0000 0000
000003e0: 0000 0000 0000 0000 bb57 bb35 23a3 c132
000003f0: 0000 0000 bbbb 9535 fbdd a633 0000 0000
0.0 1.2968566e-08 4.9341576e-08 1.2042666e-07 1.6709784e-07 1.3851496e-08 5.349717e-08 5.2117417e-09
0.0 8.102831e-08 0.0 3.3247854e-08 2.2188973e-09 8.804075e-08 3.4849712e-09 0.0
0.0 9.392549e-09 1.4889521e-08 9.9892175e-09 4.286308e-09 2.474422e-08 0.0 3.1033225e-09
7.896847e-09 0.0 1.2283347e-10 1.8543593e-08 3.162699e-08 0.0 1.6324439e-08 0.0
0.0 1.2333694e-08 0.0 5.3033777e-09 1.9202028e-08 0.0 1.2101286e-09 0.0
1.1389808e-08 5.0174442e-08 6.677245e-09 0.0 0.0 6.0755384e-10 9.618753e-09 1.8549263e-08
2.2815234e-10 6.51275e-08 0.0 0.0 3.0399843e-08 0.0 4.5668253e-10 0.0
0.0 0.0 1.7039793e-07 2.2600781e-09 0.0 1.2684532e-07 8.278317e-09 0.0
0.0 7.690359e-08 3.863439e-07 8.893903e-07 1.2206148e-06 1.1701107e-07 4.0158085e-07 5.2785072e-08
0.0 6.011076e-07 0.0 2.1249075e-07 1.7937916e-08 6.448582e-07 2.3225573e-08 0.0
0.0 6.165717e-08 1.1446301e-07 4.1817795e-08 2.930522e-08 1.6278248e-07 0.0 1.8223773e-08
5.7378664e-08 0.0 2.8773267e-10 1.5040779e-07 2.3749435e-07 0.0 1.2271371e-07 0.0
0.0 9.224341e-08 0.0 4.047172e-08 1.6748191e-07 0.0 4.6026445e-09 0.0
7.667514e-08 3.2900533e-07 2.9859414e-08 0.0 0.0 3.4978336e-09 7.139971e-08 1.5014788e-07
1.2742711e-09 4.5761863e-07 0.0 0.0 2.1933276e-07 0.0 4.580219e-09 0.0
0.0 0.0 1.1911751e-06 1.8437058e-08 0.0 9.356807e-07 6.5149635e-08 0.0
0.0 9.600414e-08 4.149671e-07 9.827662e-07 1.3562915e-06 1.2170219e-07 4.400331e-07 5.165314e-08
0.0 6.628558e-07 0.0 2.5376903e-07 1.8913395e-08 7.163024e-07 2.7027294e-08 0.0
0.0 7.258198e-08 1.2386457e-07 6.6045395e-08 3.364352e-08 1.9173574e-07 0.0 2.2795042e-08
6.399708e-08 0.0 7.3966083e-10 1.5902253e-07 2.6032205e-07 0.0 1.345804e-07 0.0
0.0 1.0155032e-07 0.0 4.3950706e-08 1.7162651e-07 0.0 7.748539e-09 0.0
8.892381e-08 3.875768e-07 4.494816e-08 0.0 0.0 4.5288897e-09 7.891618e-08 1.5897997e-07
1.6472842e-09 5.190133e-07 0.0 0.0 2.4588675e-07 0.0 4.497084e-09 0.0
0.0 0.0 1.3545109e-06 1.958074e-08 0.0 1.0346345e-06 6.9934245e-08 0.0
0.0 8.945215e-08 4.6886083e-07 1.0557495e-06 1.4465082e-06 1.4552194e-07 4.77789e-07 7.4537525e-08
0.0 7.14528e-07 0.0 2.4706824e-07 2.2425235e-08 7.6280304e-07 2.666262e-08 0.0
0.0 7.170398e-08 1.3640366e-07 4.9696386e-08 3.4759875e-08 1.8756957e-07 0.0 2.1290495e-08
6.694427e-08 0.0 4.4059556e-10 1.8504775e-07 2.8193682e-07 0.0 1.4575605e-07 0.0
0.0 1.0932242e-07 0.0 4.9548483e-08 2.1039429e-07 0.0 5.871721e-09 0.0
9.0221754e-08 3.810934e-07 3.5133475e-08 0.0 0.0 3.8570325e-09 8.602299e-08 1.8418342e-07
1.578475e-09 5.379904e-07 0.0 0.0 2.5854726e-07 0.0 6.9137944e-09 0.0
0.0 0.0 1.3958119e-06 2.2542343e-08 0.0 1.1156002e-06 7.7703554e-08 0.0

exp_avg f4 [15]
00000000: de72 26b6 5c86 fb37 4d17 e9b6 e657 9b38
00000010: eb0a b337 9359 3a37 8bdc d838 1db0 00b8
00000020: 77b4 43b6 26c1 0407 8187 5980 f818 2186
00000030: a4a4 0286 d264 1200 0000 0000
-2.480279e-06 2.9984098e-05 -6.9466537e-06 7.407348e-05 2.1343547e-05 1.110732e-05 0.00010340762 -3.0681596e-05
-2.9162309e-06 9.987338e-35 -8.221969e-39 -3.029908e-35 -2.457124e-35 1.689206e-39 0.0

exp_avg_sq f4 [15]
00000000: 3b51 e532 23a6 3a34 293c 5c34 44a3 5834
00000010: 0b33 d733 8613 db33 e21b 3334 dab6 4434
00000020: 4906 2334 0000 0000 0000 0000 0000 0000
00000030: 0000 0000 0000 0000 0000 0000
2.6696048e-08 1.738304e-07 2.0510983e-07 2.0175963e-07 1.0021002e-07 1.02015335e-07 1.6680818e-07 1.8320443e-07
1.5182844e-07 0.0 0.0 0.0 0.0 0.0 0.0
