Op_problems/problem_ED_Column/checkpoints/kkt_hardnet_checkpoint_epoch_1200_loss_0.054863.pth (torch, 21603 bytes, 12 tensors)

nn.0.weight f4 [64, 3]
0	0x3e44c6f2	0.19216517
1	0xbe74f583	-0.2392178
2	0xbf0d5a2d	-0.5521572
3	0xbf0dd034	-0.5539582
4	0x3f297296	0.6619047
5	0xbdc1c5ee	-0.0946158
6	0xbee07db8	-0.43845916
7	0xbe20dee7	-0.1571003
8	0x3f0aef2f	0.54271215
9	0x3e8cfc5b	0.27536282
10	0xbde80d0f	-0.11330616
11	0x3f0aeb92	0.542657
12	0x3dc96ccc	0.098352045
13	0x3ccd612a	0.025070745
14	0x3f13def5	0.5776208
15	0x3ddfb90f	0.10923969
16	0xbdb8061a	-0.08985539
17	0x3ed69e6f	0.4191775
18	0x3eec943e	0.4620685
19	0xbeae848c	-0.340855
20	0x3ecd6ab6	0.40120476
21	0xbf02c572	-0.5108253
22	0xbeddc112	-0.43311363
23	0x3f078e64	0.52951646
24	0xbeda5ca6	-0.4264881
25	0xbe7bb811	-0.24581935
26	0xbdbc7c69	-0.09203417
27	0x3e4cb6dd	0.19991632
28	0xbccd4343	-0.025056487
29	0x3eee882a	0.4658826
30	0x3edd2cb9	0.43198183
31	0xbf03815b	-0.51369256
32	0xbf0920f6	-0.5356592
33	0xbed6e519	-0.41971663
34	0x3f16e4cb	0.5894286
35	0xbcb4a5b2	-0.022051666
36	0xbee8bcc1	-0.45456508
37	0xbe9c3b8d	-0.30514184
38	0x3e055180	0.13019371
39	0x3eda266a	0.42607433
40	0x3eabfe46	0.33592433
41	0x3ee33685	0.44377533
42	0x3f30780f	0.68933195
43	0xbee2a628	-0.44267392
44	0x3a6e25ea	0.0009084629
45	0xbebbf263	-0.36708364
46	0xbe5550db	-0.20831625
47	0x3c88101e	0.016609248
48	0x3ea5c2f0	0.32375288
49	0xbe84b2f0	-0.25917768
50	0xbea6a805	-0.32550064
51	0xbdb8cf1a	-0.090238765
52	0x3ea2cb53	0.3179575
53	0x3ca37246	0.01995195
54	0x3f34bfb5	0.7060502
55	0xbf0c43be	-0.54790866
56	0x3e74dcb7	0.23912321
57	0x3f5c71eb	0.86111325
58	0x3f1e82d9	0.6191841
59	0xbecbc997	-0.39802238
60	0xbef1cdfa	-0.4722746
61	0x3d6b2255	0.05740579
62	0x3d29f2b9	0.041491244
63	0x3f16817c	0.5879133
64	0x3f1f7615	0.62289554
65	0x3d1ce02a	0.038299717
66	0xbe2db667	-0.16964112
67	0x3ea129d6	0.3147723
68	0xbebfa4c3	-0.3743039
69	0xbebdb499	-0.37051848
70	0x3d8fa48b	0.07013806
71	0xbd788612	-0.060674734
72	0x3f2c478c	0.6729667
73	0xbd4d7444	-0.050159708
74	0x3deb2c18	0.114830196
75	0x3e27ee8c	0.16399592
76	0xbd4a30e5	-0.049363036
77	0xbe3e1855	-0.1856397
78	0x3d9a8029	0.07543976
79	0x3eaab4be	0.3334102
80	0xbd890609	-0.06690604
81	0xbea8b4d1	-0.32950452
82	0xbe119f85	-0.14221008
83	0x3eca7a58	0.39546466
84	0x3f0d75cf	0.55257887
85	0xbe3ad9d3	-0.18247156
86	0x3e9fb0b6	0.31189507
87	0xbd8b50cd	-0.06802521
88	0xbd0a8aea	-0.033823885
89	0xbe8b0889	-0.2715495
90	0x3ec43212	0.3831945
91	0x3d65c62f	0.056097206
92	0x3e6ad991	0.22934557
93	0xbf0c92a9	-0.54911286
94	0xbd0d4d97	-0.034497824
95	0xbee724f9	-0.45145395
96	0xbf09558d	-0.53646165
97	0xbf128a9d	-0.5724276
98	0xbdbe0bef	-0.0927962
99	0x3ec06864	0.37579644
100	0x3e6ce9d8	0.2313608
101	0x3e4abe86	0.19799241
102	0xbe7dedf1	-0.24797799
103	0xbec3c7d7	-0.38238403
104	0xbdffd3e8	-0.1249159
105	0xbf3b0977	-0.7306132
106	0x3c0bce71	0.008533106
107	0x3e1dae0c	0.15398425
108	0x3ef05a95	0.4694411
109	0xbf1ff08e	-0.6247643
110	0x3f0b99cb	0.54531544
111	0x3efea35b	0.49734005
112	0xbe8469b7	-0.25861904
113	0xbefbc891	-0.49176458
114	0xbe31389e	-0.17306754
115	0x3e08ee4c	0.13372153
116	0xbe27ffc1	-0.16406156
117	0xbe87cc45	-0.26523033
118	0x3d326b8d	0.0435596
119	0xbeb3e79a	-0.35137635
120	0xbf02d326	-0.51103437
121	0x3e8f3144	0.27967274
122	0x3d491746	0.04909446
123	0x3e457562	0.19283059
124	0x3f1bae6e	0.60813034
125	0x3d040f6b	0.032241266
126	0x3eb2c69b	0.3491715
127	0x3f166655	0.58749896
128	0xbe8f3ad1	-0.2797456
129	0x3ec4ea74	0.38460124
130	0x3eca9c78	0.395725
131	0xbe61c893	-0.22049169
132	0x3ee70be2	0.45126253
133	0xbe87863b	-0.26469597
134	0xbe8d106e	-0.27551597
135	0x3f22a656	0.6353506
136	0x3ebb9246	0.36635035
137	0xbc9b0c11	-0.018926652
138	0xbf04d8fc	-0.5189359
139	0x3eee026c	0.46486223
140	0x3e3aac36	0.18229756
141	0xbe22adf3	-0.15886669
142	0xbd80cc87	-0.062890105
143	0x3ec91b0a	0.39278442
144	0x3e8f3e39	0.2797716
145	0xbedd8c46	-0.43271083
146	0xbcf9fb12	-0.030515227
147	0xbdce97e3	-0.10087564
148	0x3ec41891	0.38299993
149	0x3e7aaf1e	0.24480864
150	0xbdaf177d	-0.08549402
151	0xbd8a971d	-0.06767104
152	0xbed74f42	-0.42052656
153	0xbe02d6de	-0.12777278
154	0x3e90ead5	0.28304163
155	0xbf0dc0de	-0.55372417
156	0x3e74e198	0.23914182
157	0x3f1535eb	0.582854
158	0x3e773ed1	0.24145056
159	0x3e92d64d	0.28679124
160	0xbe2002b2	-0.15626028
161	0xbd477267	-0.048693087
162	0xbf3fe353	-0.74956244
163	0xbea0064e	-0.3125481
164	0x3e27a816	0.16372713
165	0x3e49d0fb	0.19708626
166	0x3eae4b3c	0.34041774
167	0xbea6892d	-0.32526532
168	0x3e29c807	0.1658021
169	0xbea33ddb	-0.3188313
170	0xbed9f825	-0.42572132
171	0xbe62b738	-0.22140205
172	0xbec90a1d	-0.39265528
173	0x3de03861	0.109482534
174	0x3e96e2f8	0.29470038
175	0x3ef3f0a7	0.4764454
176	0x3ebbed23	0.36704358
177	0x3e61999c	0.22031254
178	0x3e8d90a3	0.27649412
179	0x3e1e605b	0.15466444
180	0xbf0bc389	-0.5459524
181	0xbe8898c5	-0.26679054
182	0xbef155fb	-0.4713591
183	0xbf145faa	-0.5795847
184	0x3e3bb4de	0.18330714
185	0x3f10686a	0.56409323
186	0x3f42cc2c	0.7609279
187	0xbda541b5	-0.08069173
188	0x3e5f6c18	0.21818578
189	0x3ecb70c4	0.3973447
190	0x3df65f79	0.12029929
191	0xbef1bef3	-0.47215995

nn.0.bias f4 [64]
0	0x3d90f985	0.07078842
1	0x3e7a7c51	0.24461485
2	0x3d88312e	0.06650005
3	0x3eeedcba	0.46652776
4	0x3f106dc2	0.5641748
5	0xbf077a1d	-0.52920705
6	0x3ee73182	0.4515496
7	0xbedf8bea	-0.43661433
8	0xbea7d12f	-0.32776782
9	0x3e6cef14	0.23138076
10	0x3c8f84b2	0.017519329
11	0x3ef42201	0.47682193
12	0x3efada0d	0.48994485
13	0xbe779a4f	-0.24179958
14	0x3f39cc95	0.7257779
15	0xbed424dc	-0.4143437
16	0x3ddc5be2	0.10759713
17	0x3dd1dda0	0.1024735
18	0x3f022fb5	0.50854045
19	0x3f1bb7ba	0.6082722
20	0x3eba1a65	0.36348262
21	0xbe92e948	-0.28693604
22	0x3eedb027	0.46423456
23	0x3f10ae83	0.56516284
24	0xbc5ae066	-0.013359165
25	0x3ed435e8	0.41447377
26	0xbe902101	-0.2815018
27	0xbdd5c45d	-0.10437844
28	0x3e183f9e	0.14868018
29	0x3ad38237	0.001613683
30	0xbe414cbf	-0.18876933
31	0x3daba5fc	0.083812684
32	0xbb7c1bad	-0.0038468644
33	0xbee25431	-0.44204858
34	0xbed89c0f	-0.42306563
35	0x3e6bd3b9	0.23029985
36	0xbe3e8d3d	-0.18608566
37	0x3c67592b	0.01412038
38	0x3f18271f	0.59434694
39	0x3eda13e5	0.42593303
40	0x3e87e5a2	0.26542383
41	0x3e92201f	0.2854013
42	0x3ec1e912	0.3787313
43	0xbec63cb8	-0.387182
44	0x3f098909	0.53724724
45	0xbf11bf32	-0.56932366
46	0xbee57293	-0.44813976
47	0xbe8cfb64	-0.27535546
48	0x3f34117f	0.70339197
49	0x3e807da8	0.25095868
50	0x3e25b38c	0.16181773
51	0x3eab619f	0.33472916
52	0xbf218eef	-0.63108724
53	0xbf0cf88a	-0.5506674
54	0x3eb39198	0.35072017
55	0xbe21a78c	-0.1578657
56	0x3e8d7647	0.276293
57	0xbed1cbf0	-0.40975904
58	0x3f0dcf52	0.5539447
59	0xbf301a5d	-0.6879023
60	0x3e96a812	0.29425102
61	0x3eb2362f	0.34806964
62	0xbea1724f	-0.31532523
63	0x3f029bb3	0.5101883

nn.2.weight f4 [15, 64]
0	0x3d85650c	0.06513414
1	0xbe34358d	-0.17598553
2	0xbdbe9738	-0.093061864
3	0x3dd42bfb	0.10359951
4	0xbcebe250	-0.028794438
5	0x3cb0bf77	0.021575673
6	0x3dc491e1	0.09598137
7	0x3d250222	0.040285237
8	0xbd803030	-0.06259191
9	0x3dcc3bc6	0.099723384
10	0x3d1b453c	0.037907824
11	0xbd6e668b	-0.05820326
12	0xbe6df8b6	-0.23239407
13	0x3d8b1bec	0.06792435
14	0x3e6eb6c3	0.23311906
15	0x3db589fc	0.08864209
16	0x3d834402	0.06409456
17	0x3c8a9291	0.016915591
18	0x3de3948e	0.11112319
19	0x3dfe5c88	0.12419993
20	0xbd744a48	-0.059641153
21	0x3dacbdac	0.084346145
22	0xbc012d60	-0.007884353
23	0xbe52cf69	-0.20586933
24	0x3db7b291	0.08969606
25	0x3d9374d6	0.07200019
26	0x3e6ccdff	0.23125456
27	0xbdcc788f	-0.09983932
28	0x3e014d49	0.12627138
29	0xbd821aca	-0.06352766
30	0xbd663f37	-0.05621263
31	0x3ce39288	0.027779832
32	0x3d5cf948	0.05394867
33	0xbd5687d8	-0.052375644
34	0x3c82ea40	0.01598084
35	0xbe8b511a	-0.27210313
36	0x3e121bb4	0.1426838
37	0x3d8c0bbc	0.06838176
38	0xbd6af664	-0.057363883
39	0x3df9ff20	0.12206864
40	0xbe00fd16	-0.12596545
41	0xbd4f600a	-0.0506287
42	0x3da09cf5	0.07842437
43	0x3d19ac84	0.03751804
44	0xbd64ce60	-0.055860877
45	0x3f01ec64	0.5075133
46	0xbe27e1b4	-0.16394693
47	0x3cda68a5	0.026661227
48	0x3f037db1	0.51363665
49	0xbdb042af	-0.08606469
50	0x3dd885a4	0.10572365
51	0xbdbe44ca	-0.09290464
52	0xbc0c63db	-0.008568729
53	0x3cfa1328	0.030526713
54	0xbf16cf0c	-0.5890968
55	0x3de8feae	0.11376701
56	0xbd7ba588	-0.06143716
57	0x3d979858	0.07402104
58	0x3b3559eb	0.0027672003
59	0xbcc8d844	-0.024517186
60	0x3def4df4	0.1168479
61	0xbd4a7e0b	-0.04943661
62	0x3e4b4440	0.19850254
63	0x3df0c980	0.11757183
64	0xbdf113f0	-0.11771381
65	0x3e41491e	0.18875548
66	0xbcc5f04d	-0.024162436
67	0xbd986e16	-0.07442872
68	0x3dd300b6	0.1030287
69	0xbbaefb43	-0.0053400113
70	0xbdba4f2d	-0.09097133
71	0xbcc6ad42	-0.024252538
72	0x3da57b3c	0.08080146
73	0x3db002b7	0.08594268
74	0xbbc91d40	-0.00613752
75	0x3e06692c	0.13126057
76	0x3d0aa16e	0.033845358
77	0xbd6e5c82	-0.05819369
78	0xbdb49182	-0.08816816
79	0x3db649b0	0.089007735
80	0xbc3fec10	-0.0117139965
81	0x3d261d6d	0.040555406
82	0x3dcdf7c7	0.100570254
83	0xbe2cdf76	-0.16882119
84	0x3e41b396	0.18916163
85	0x3e25db6d	0.16196986
86	0x3dcef7f0	0.10105884
87	0x3dd4a8a4	0.10383728
88	0x3cee6d9e	0.029105004
89	0x3d03b9a0	0.032159448
90	0xbe60d405	-0.21955879
91	0xbc2df141	-0.010616601
92	0xbd74c39a	-0.059756853
93	0xbc96c260	-0.018403232
94	0xbcdec641	-0.027194144
95	0xbd24e3fc	-0.040256485
96	0xbdae4d8e	-0.08510886
97	0xbd22aa8d	-0.03971343
98	0x3d257ef4	0.040404275
99	0x3e4a64b4	0.19764978
100	0xbd223319	-0.03959951
101	0xbda92c36	-0.08260386
102	0xbc819263	-0.015816873
103	0xbd41599c	-0.0472046
104	0xbd878898	-0.0661785
105	0x3e1a2005	0.15051277
106	0x3e26f35e	0.16303775
107	0x3dbdd55a	0.09269209
108	0xbd844c18	-0.06459826
109	0x3e933f66	0.28759307
110	0x3e620691	0.22072817
111	0xbd0504b3	-0.032475185
112	0xbe73ddc1	-0.23815061
113	0xbd7c7a66	-0.061640166
114	0x3d1bd6e0	0.038046718
115	0xbc88a7f0	-0.016681641
116	0xbcc73b59	-0.024320291
117	0x3dd9fd22	0.106439844
118	0xbd45e1ff	-0.04831123
119	0x3c0563b0	0.008141443
120	0x3d7f2884	0.062294498
121	0x3d75017c	0.05981587
122	0x3e0fbd19	0.14036979
123	0x3d108252	0.035280533
124	0x3d83f676	0.06443493
125	0x3d0bcae8	0.034129053
126	0x3c8cc742	0.017184857
127	0xbd965872	-0.07341088
128	0x3d9e7224	0.07736614
129	0xbc5070ba	-0.012722189
130	0x3d02ad16	0.03190335
131	0x3bd77ae8	0.006575931
132	0x3d77ce94	0.060499743
133	0xbe29c338	-0.16578376
134	0x3e1b25ed	0.15151186
135	0x3db2d29b	0.08731576
136	0x3d8928fe	0.06697272
137	0x3b7572a5	0.0037452367
138	0xbdeee026	-0.11663847
139	0xbd7161a7	-0.05893102
140	0x3e061b94	0.13096458
141	0xbdb80e9a	-0.0898716
142	0x3ebb4df2	0.36582905
143	0xbc6c4ae0	-0.0144221485
144	0x3dff0b12	0.12453283
145	0xbdd4ce4f	-0.10390913
146	0x3d6a0b57	0.05713972
147	0xbe1c793a	-0.1528062
148	0x3db67a74	0.08910075
149	0xbd0dbc07	-0.034603145
150	0x3d8145f4	0.063121706
151	0x3e45d21d	0.19318433
152	0x3dd00270	0.10156715
153	0xbdeac642	-0.11463596
154	0xbe3ebb68	-0.18626177
155	0x3dd6e190	0.104922414
156	0x3de62aaf	0.1123861
157	0x3d462720	0.048377156
158	0xbd8d7a68	-0.06908113
159	0xbdd80020	-0.10546899
160	0x3df6c0c2	0.120484844
161	0xbde51cd3	-0.111871384
162	0x3d2f0490	0.04272896
163	0x3bd7c81d	0.0065851347
164	0xbc99cc69	-0.018774228
165	0x3d365000	0.044509888
166	0x3e90da2e	0.28291458
167	0xbcf33838	-0.029689893
168	0x3d69c9d1	0.057077233
169	0x3d0da115	0.034577448
170	0xbda17401	-0.07883454
171	0x3ccbc158	0.024872467
172	0x3d2a1dc8	0.041532308
173	0xbf1cc135	-0.6123231
174	0xbe327ed2	-0.1743119
175	0x3d754190	0.05987698
176	0x3f064c9f	0.52460665
177	0x3d0b418f	0.03399807
178	0xbdcf8ebe	-0.10134648
179	0x3dac0e30	0.084011436
180	0x3baaccc7	0.0052123996
181	0x3cee8418	0.029115722
182	0x3e82edfa	0.25572187
183	0x3d059dcc	0.03262119
184	0xbdca3114	-0.09872642
185	0xbddcac4e	-0.10775052
186	0x3dbc9833	0.09208717
187	0xbeb0a42b	-0.3450025
188	0xbce55ca0	-0.027998269
189	0xbd986017	-0.07440203
190	0xbdcaff93	-0.09912028
191	0xbd5948b8	-0.053047866
192	0xba843d80	-0.0010089129
193	0xbe35bb77	-0.17747293
194	0xbdcff1db	-0.10153552
195	0xbd8a5732	-0.067549124
196	0x3cbdd065	0.02317066
197	0xbbc675d4	-0.0060565267
198	0x3e21372d	0.15743704
199	0xbe1112c7	-0.14167319
200	0xbddf9bee	-0.10918413
201	0xbbd3f146	-0.006467971
202	0x3dfffd4a	0.12499483
203	0x3d87d9c3	0.066333316
204	0xbd3ebf94	-0.046569422
205	0xbaa42f11	-0.0012526234
206	0x3eab2f9a	0.33434755
207	0x3bac1a20	0.005252138
208	0x3c4082d0	0.011749938
209	0xbda8f1a6	-0.08249216
210	0x3e0a602b	0.13513248
211	0x3eea4d50	0.4576211
212	0xbc6e4b73	-0.014544356
213	0xbb61a0fa	-0.0034428225
214	0xbcd04fe8	-0.025428727
215	0xbb4b107b	-0.0030985165
216	0x3e84b9d5	0.2592303
217	0x3d8aac84	0.06771186
218	0x3c2972d4	0.010342319
219	0x3ca64f8c	0.020301603
220	0x3d10caea	0.035349764
221	0x3dd96c3c	0.10616347
222	0x3e1951da	0.1497263
223	0xbde703dc	-0.11280033
224	0x3d78b26c	0.06071703
225	0x3e46a6ea	0.1939961
226	0x3d08ea6c	0.033426687
227	0xbe5a4ad4	-0.21317607
228	0x3e27c173	0.16382389
229	0x3bdb4ac0	0.0066922605
230	0xbd94df3d	-0.07269142
231	0x3d5f7430	0.054554164
232	0x3d364099	0.0444952
233	0x3db77241	0.08957339
234	0x3d23a87b	0.039955597
235	0x3d55aebc	0.052168593
236	0xbd9df8e4	-0.07713488
237	0x3ec8b606	0.39201373
238	0xbe183aec	-0.14866227
239	0x3d8284f1	0.06373013
240	0x3ee285df	0.4424276
241	0x3d2275cf	0.039663132
242	0x3d9d5a06	0.07683186
243	0xbdf443d6	-0.11927001
244	0xbd206fd2	-0.03916914
245	0xbd921114	-0.07132164
246	0xbee5b620	-0.44865513
247	0xbd9fdbb4	-0.07805577
248	0xbdb6c9be	-0.08925198
249	0xbdd5ed40	-0.104456425
250	0x3d423316	0.047412
251	0xbbbe5102	-0.0058079967
252	0x3ba924e0	0.0051618665
253	0xbcc80a58	-0.024418995
254	0x3e610356	0.21973929
255	0xbde886fe	-0.11353873

nn.2.bias f4 [15]
0	0x3c99dcf7	0.018782122
1	0xbb40bf66	-0.0029410957
2	0x3dff1015	0.12454239
3	0x3c1bf213	0.009518164
4	0xba585b55	-0.00082533556
5	0x3dd50d63	0.10402944
6	0x3d9dae8d	0.076993085
7	0x3e0be081	0.1365986
8	0xbe366aef	-0.1781423
9	0xbc356f90	-0.011073962
10	0x3d441224	0.047868863
11	0x3d8e065e	0.06934808
12	0xbddee294	-0.1088306
13	0x3c8b5b50	0.017011315
14	0xbc71d0f0	-0.014759287

exp_avg f4 [64, 3]
0	0x00000000	0.0
1	0x00000000	0.0
2	0x00000000	0.0
3	0xb7d92f93	-2.589057e-05
4	0xb8cc28f5	-9.735107e-05
5	0xb98dc20a	-0.00027038186
6	0xb5e96b02	-1.7390996e-06
7	0xb6e07519	-6.689352e-06
8	0xb793b2b3	-1.7606979e-05
9	0xb6fcb0f3	-7.530785e-06
10	0xb7f142d3	-2.8760556e-05
11	0xb89f19e4	-7.586533e-05
12	0x36195398	2.2847435e-06
13	0x370eed9e	8.519184e-06
14	0x37bac41e	2.2264252e-05
15	0x36a9942f	5.0538433e-06
16	0x379d436d	1.8747256e-05
17	0x3834e4f7	4.3128584e-05
18	0x37949d1e	1.7716138e-05
19	0x388604b7	6.390496e-05
20	0x39358774	0.00017311965
21	0xb7ad478e	-2.0656527e-05
22	0xb8a3f36e	-7.817788e-05
23	0xb9584b64	-0.0002062745
24	0x00000000	0.0
25	0x00000000	0.0
26	0x00000000	0.0
27	0x373dac4f	1.1305397e-05
28	0x382ede7e	4.1692045e-05
29	0x38d9ff00	0.00010394864
30	0x00000000	0.0
31	0x00000000	0.0
32	0x00000000	0.0
33	0xb65c74cf	-3.2850546e-06
34	0xb75aaefc	-1.3034554e-05
35	0xb8400349	-4.5779427e-05
36	0xb71deefc	-9.413572e-06
37	0xb80a7e9c	-3.3019678e-05
38	0xb8b38537	-8.560198e-05
39	0xb60f87eb	-2.1387775e-06
40	0xb710a27b	-8.620899e-06
41	0xb7eaea9f	-2.8004228e-05
42	0x3848317f	4.7729813e-05
43	0x393bcc25	0.0001790976
44	0x3a02271f	0.0004964936
45	0x00000000	0.0
46	0x00000000	0.0
47	0x00000000	0.0
48	0x00000000	0.0
49	0x00000000	0.0
50	0x00000000	0.0
51	0xb73c0b36	-1.12082835e-05
52	0xb8300a3e	-4.197121e-05
53	0xb8f973e2	-0.0001189483
54	0x3807f0e0	3.241084e-05
55	0x38ff520f	0.00012174632
56	0x39aa0f09	0.0003243613
57	0x382cf51c	4.123627e-05
58	0x39203a25	0.0001528045
59	0x39d04e13	0.0003973102
60	0x34cf718f	3.863938e-07
61	0x35df6679	1.6644618e-06
62	0xb55dd61d	-8.264049e-07
63	0x37565485	1.2775073e-05
64	0x383b7630	4.4694345e-05
65	0x38d71a47	0.000102568934
66	0x00000000	0.0
67	0x00000000	0.0
68	0x00000000	0.0
69	0xb68905f3	-4.0836107e-06
70	0xb76f5633	-1.426558e-05
71	0xb8112248	-3.460262e-05
72	0x38219076	3.851993e-05
73	0x3914a105	0.00014174364
74	0x39c6366e	0.00037806056
75	0x00000000	0.0
76	0x00000000	0.0
77	0x00000000	0.0
78	0xb753aa08	-1.26161685e-05
79	0xb833708c	-4.2781743e-05
80	0xb8bc96aa	-8.992602e-05
81	0xb6ad6116	-5.167104e-06
82	0xb7b0c9be	-2.1074778e-05
83	0xb8652419	-5.4631473e-05
84	0x365f92ff	3.3315152e-06
85	0x3731f793	1.0607665e-05
86	0x37e35a19	2.7102464e-05
87	0x00000000	0.0
88	0x00000000	0.0
89	0x00000000	0.0
90	0x3737d470	1.0957112e-05
91	0x38289b80	4.0199142e-05
92	0x38d513f7	0.0001016035
93	0x00000000	0.0
94	0x00000000	0.0
95	0x00000000	0.0
96	0x00000000	0.0
97	0x00000000	0.0
98	0x00000000	0.0
99	0x378d21d3	1.682426e-05
100	0x388128fe	6.158835e-05
101	0x39259a5d	0.00015793131
102	0x00000000	0.0
103	0x00000000	0.0
104	0x00000000	0.0
105	0xb784694a	-1.5784655e-05
106	0xb874181f	-5.8196598e-05
107	0xb92b1c31	-0.00016318333
108	0x3776c41e	1.4708405e-05
109	0x3866fdd9	5.5072687e-05
110	0x391b6186	0.00014818282
111	0x00000000	0.0
112	0x00000000	0.0
113	0x00000000	0.0
114	0xb7c9c1c1	-2.405129e-05
115	0xb8be8e7c	-9.086446e-05
116	0xb9764fbd	-0.00023490093
117	0x00000000	0.0
118	0x00000000	0.0
119	0x00000000	0.0
120	0xb76629c8	-1.3718796e-05
121	0xb85bceb9	-5.2406194e-05
122	0xb9135756	-0.00014051548
123	0x35b68a24	1.3600261e-06
124	0x365febf6	3.3366937e-06
125	0xb4f04ebc	-4.476077e-07
126	0x3599f70a	1.1471286e-06
127	0x36440f47	2.9215169e-06
128	0xb7305408	-1.05099825e-05
129	0x00000000	0.0
130	0x00000000	0.0
131	0x00000000	0.0
132	0x00000000	0.0
133	0x00000000	0.0
134	0x00000000	0.0
135	0x38bd3a9e	9.0231406e-05
136	0x39ac7faf	0.00032901528
137	0x3a5cc0e8	0.0008421079
138	0xb744a299	-1.1720368e-05
139	0xb83d224c	-4.5093053e-05
140	0xb91428d3	-0.00014129588
141	0x369621b7	4.4742733e-06
142	0x3784f402	1.5849251e-05
143	0x38450907	4.6976867e-05
144	0x3853ae66	5.046874e-05
145	0x394e9157	0.00019699834
146	0x3a180fa3	0.000580067
147	0xb6e52704	-6.829274e-06
148	0xb7dd0f05	-2.6352247e-05
149	0xb88f223c	-6.825148e-05
150	0x00000000	0.0
151	0x00000000	0.0
152	0x00000000	0.0
153	0x00000000	0.0
154	0x00000000	0.0
155	0x00000000	0.0
156	0x35609193	8.365834e-07
157	0x35a307e0	1.2146738e-06
158	0xb607fca1	-2.0263617e-06
159	0x00000000	0.0
160	0x00000000	0.0
161	0x00000000	0.0
162	0xb897f5c2	-7.246017e-05
163	0xb98c4b4e	-0.00026758987
164	0xba31f269	-0.0006788136
165	0x00000000	0.0
166	0x00000000	0.0
167	0x00000000	0.0
168	0x00000000	0.0
169	0x00000000	0.0
170	0x00000000	0.0
171	0x00000000	0.0
172	0x00000000	0.0
173	0x00000000	0.0
174	0x36cd6f4c	6.1224328e-06
175	0x37b17190	2.1152926e-05
176	0x3857f1db	5.148524e-05
177	0x367d902f	3.7783864e-06
178	0x374e6bbb	1.230364e-05
179	0x3787009b	1.6093536e-05
180	0x00000000	0.0
181	0x00000000	0.0
182	0x00000000	0.0
183	0xb7157149	-8.907468e-06
184	0xb807d612	-3.2385877e-05
185	0xb8bd1e3f	-9.017856e-05
186	0x381a78ac	3.6828846e-05
187	0x390ee0e9	0.00013625961
188	0x39bb2344	0.00035693694
189	0x00000000	0.0
190	0x00000000	0.0
191	0x00000000	0.0

exp_avg_sq f4 [64, 3]
0	0x00000000	0.0
1	0x00000000	0.0
2	0x00000000	0.0
3	0x31edd5a3	6.9218955e-09
4	0x33cd6ed9	9.5662195e-08
5	0x351376af	5.4934475e-07
6	0x2e540441	4.8206997e-11
7	0x3032c119	6.503043e-10
8	0x317b6548	3.658288e-09
9	0x30c9e5bf	1.4689973e-09
10	0x32aad595	1.988773e-08
11	0x33da3170	1.0160409e-07
12	0x2f1b7280	1.4137846e-10
13	0x3102a7f2	1.9012956e-09
14	0x323e2b45	1.1069294e-08
15	0x30407400	7.001404e-10
16	0x3221dbe6	9.4214325e-09
17	0x335d1d77	5.148237e-08
18	0x318a3332	4.022149e-09
19	0x336d47a7	5.524603e-08
20	0x34a29487	3.028292e-07
21	0x314fe221	3.0251004e-09
22	0x3332240f	4.147665e-08
23	0x347ea88a	2.3716908e-07
24	0x00000000	0.0
25	0x00000000	0.0
26	0x00000000	0.0
27	0x3009f310	5.018572e-10
28	0x31ea6871	6.82217e-09
29	0x33284b6a	3.9184137e-08
30	0x00000000	0.0
31	0x00000000	0.0
32	0x00000000	0.0
33	0x30b5d276	1.32293e-09
34	0x3297d509	1.767559e-08
35	0x33d9f27f	1.014896e-07
36	0x325efe47	1.2979917e-08
37	0x343ddcba	1.7682297e-07
38	0x35785d6d	9.252315e-07
39	0x309091e7	1.0518847e-09
40	0x32741533	1.4207489e-08
41	0x339ff45c	7.448463e-08
42	0x3258ed97	1.2626876e-08
43	0x343a4932	1.7349228e-07
44	0x3588677e	1.016291e-06
45	0x00000000	0.0
46	0x00000000	0.0
47	0x00000000	0.0
48	0x00000000	0.0
49	0x00000000	0.0
50	0x00000000	0.0
51	0x30883d36	9.9127e-10
52	0x3265a1e1	1.3366361e-08
53	0x33a92e1a	7.8780616e-08
54	0x31a6971b	4.8484146e-09
55	0x338fab34	6.690098e-08
56	0x34d1c34a	3.9071375e-07
57	0x32979a0c	1.7648766e-08
58	0x3481c68f	2.4172593e-07
59	0x35bbcd1d	1.3992282e-06
60	0x316a22c3	3.4071241e-09
61	0x3347ab6f	4.6489216e-08
62	0x34814b74	2.4083022e-07
63	0x31f3c9f1	7.095189e-09
64	0x33ce2c68	9.6007e-08
65	0x350c08fc	5.216714e-07
66	0x00000000	0.0
67	0x00000000	0.0
68	0x00000000	0.0
69	0x31a60e83	4.8328856e-09
70	0x338d3d6f	6.576999e-08
71	0x34b6cc63	3.4048853e-07
72	0x325e3892	1.2934963e-08
73	0x343f7411	1.7830486e-07
74	0x35881b20	1.0140684e-06
75	0x00000000	0.0
76	0x00000000	0.0
77	0x00000000	0.0
78	0x31ed3363	6.90345e-09
79	0x33ca6dc8	9.426327e-08
80	0x34c414ae	3.652289e-07
81	0x30c73d19	1.4496521e-09
82	0x32a8b6b5	1.964086e-08
83	0x33d7125b	1.00150565e-07
84	0x313d80f8	2.757643e-09
85	0x33216ba3	3.758363e-08
86	0x3451e405	1.9547595e-07
87	0x00000000	0.0
88	0x00000000	0.0
89	0x00000000	0.0
90	0x30d33327	1.5366809e-09
91	0x32b4dcf6	2.105524e-08
92	0x33ff715f	1.1894985e-07
93	0x00000000	0.0
94	0x00000000	0.0
95	0x00000000	0.0
96	0x00000000	0.0
97	0x00000000	0.0
98	0x00000000	0.0
99	0x3156daa5	3.1265384e-09
100	0x33375459	4.268472e-08
101	0x348413db	2.4601363e-07
102	0x00000000	0.0
103	0x00000000	0.0
104	0x00000000	0.0
105	0x3212b246	8.538853e-09
106	0x33fc70ee	1.1755206e-07
107	0x352c41ec	6.417092e-07
108	0x3096eb27	1.0980771e-09
109	0x3282e1c5	1.523666e-08
110	0x33bcf065	8.79816e-08
111	0x00000000	0.0
112	0x00000000	0.0
113	0x00000000	0.0
114	0x31ca2922	5.88365e-09
115	0x33acdb2a	8.04924e-08
116	0x34f834ed	4.6232108e-07
117	0x00000000	0.0
118	0x00000000	0.0
119	0x00000000	0.0
120	0x30b98898	1.3499344e-09
121	0x329f57eb	1.8550017e-08
122	0x33e9270d	1.0857011e-07
123	0x307478c7	8.893832e-10
124	0x324b7493	1.1842661e-08
125	0x33917bbb	6.774595e-08
126	0x314557d9	2.8717209e-09
127	0x33247be4	3.8296903e-08
128	0x346d135a	2.2079385e-07
129	0x00000000	0.0
130	0x00000000	0.0
131	0x00000000	0.0
132	0x00000000	0.0
133	0x00000000	0.0
134	0x00000000	0.0
135	0x344c44de	1.9024034e-07
136	0x362e012d	2.5928705e-06
137	0x3772a639	1.4463026e-05
138	0x3187b0cc	3.9491166e-09
139	0x336546ed	5.3382724e-08
140	0x34a4baf6	3.0683412e-07
141	0x30c3c9ae	1.4245438e-09
142	0x32a70e12	1.9447757e-08
143	0x33e2f036	1.0567639e-07
144	0x33253114	3.8461692e-08
145	0x350ac78c	5.1699385e-07
146	0x363dcd3c	2.8282657e-06
147	0x3054649c	7.7268125e-10
148	0x3233b12e	1.0459457e-08
149	0x336edbaf	5.5613494e-08
150	0x00000000	0.0
151	0x00000000	0.0
152	0x00000000	0.0
153	0x00000000	0.0
154	0x00000000	0.0
155	0x00000000	0.0
156	0x311880cd	2.2192126e-09
157	0x3301265f	3.007005e-08
158	0x3428d801	1.5724801e-07
159	0x00000000	0.0
160	0x00000000	0.0
161	0x00000000	0.0
162	0x33ae8e8a	8.128434e-08
163	0x35956c9b	1.1132973e-06
164	0x36d2c628	6.281556e-06
165	0x00000000	0.0
166	0x00000000	0.0
167	0x00000000	0.0
168	0x00000000	0.0
169	0x00000000	0.0
170	0x00000000	0.0
171	0x00000000	0.0
172	0x00000000	0.0
173	0x00000000	0.0
174	0x30e493c7	1.6631184e-09
175	0x32c1d31c	2.2564159e-08
176	0x340498e7	1.2349084e-07
177	0x320a7fc1	8.061705e-09
178	0x33e8b4a1	1.0836198e-07
179	0x351d6bd4	5.864397e-07
180	0x00000000	0.0
181	0x00000000	0.0
182	0x00000000	0.0
183	0x3110423c	2.0992408e-09
184	0x32f74cdc	2.8789536e-08
185	0x34272e8b	1.5570019e-07
186	0x32638efa	1.3245648e-08
187	0x34438231	1.8208154e-07
188	0x358c74cb	1.0464804e-06
189	0x00000000	0.0
190	0x00000000	0.0
191	0x00000000	0.0

exp_avg f4 [64]
0	0x00000000	0.0
1	0xb8933d60	-7.020938e-05
2	0xb6971571	-4.502647e-06
3	0xb798fc2d	-1.823724e-05
4	0x36d98d89	6.483581e-06
5	0x3773b8d3	1.4526961e-05
6	0x38477bee	4.7560716e-05
7	0xb863cbce	-5.4310825e-05
8	0x00000000	0.0
9	0x37f7eace	2.9554034e-05
10	0x00000000	0.0
11	0xb71f0ca1	-9.480079e-06
12	0xb7f99275	-2.9751312e-05
13	0xb6946e5a	-4.4235903e-06
14	0x3902f3b1	0.00012488548
15	0x00000000	0.0
16	0x00000000	0.0
17	0xb7fa9d9c	-2.9875715e-05
18	0x38b3aef2	8.567971e-05
19	0x38e05205	0.0001069643
20	0xb60a6c61	-2.0626687e-06
21	0x38146853	3.538311e-05
22	0x00000000	0.0
23	0xb76b4d08	-1.4025027e-05
24	0x38d9b2dc	0.000103806815
25	0x00000000	0.0
26	0xb7b7f79a	-2.1930598e-05
27	0xb753cdb4	-1.2624474e-05
28	0x3727dda7	1.0005583e-05
29	0x00000000	0.0
30	0x37f6d110	2.9422838e-05
31	0x00000000	0.0
32	0x00000000	0.0
33	0x383a5e36	4.4433596e-05
34	0x00000000	0.0
35	0xb839ff61	-4.4345277e-05
36	0x38256395	3.943181e-05
37	0x00000000	0.0
38	0xb888a9b2	-6.5165936e-05
39	0x00000000	0.0
40	0xb81c226a	-3.722535e-05
41	0x363edbb5	2.8440093e-06
42	0x3623efc4	2.4428455e-06
43	0x00000000	0.0
44	0x00000000	0.0
45	0x3982845d	0.0002489415
46	0xb8021130	-3.1010422e-05
47	0x37572dcb	1.2825661e-05
48	0x3907ac4f	0.00012938793
49	0xb792126a	-1.7413131e-05
50	0x00000000	0.0
51	0x00000000	0.0
52	0x365d38e0	3.2964672e-06
53	0x00000000	0.0
54	0xb9516932	-0.00019970982
55	0x00000000	0.0
56	0x00000000	0.0
57	0x00000000	0.0
58	0x378d002d	1.6808592e-05
59	0x375b7bb6	1.3082221e-05
60	0x00000000	0.0
61	0xb7d21536	-2.5043828e-05
62	0x38ce9a6b	9.851608e-05
63	0x00000000	0.0

exp_avg_sq f4 [64]
0	0x00000000	0.0
1	0x334773d7	4.6438654e-08
2	0x2faa6d52	3.1000497e-10
3	0x32221807	9.435104e-09
4	0x307dcdbf	9.2333247e-10
5	0x319d47ca	4.577463e-09
6	0x32e472b3	2.6594853e-08
7	0x32abb06c	1.9987247e-08
8	0x00000000	0.0
9	0x3161d67f	3.2863736e-09
10	0x00000000	0.0
11	0x32140e66	8.618008e-09
12	0x33b67906	8.4970495e-08
13	0x31e9b913	6.802233e-09
14	0x33b4ec8e	8.424932e-08
15	0x00000000	0.0
16	0x00000000	0.0
17	0x31e070f9	6.5321015e-09
18	0x330afd31	3.2360905e-08
19	0x33faa49b	1.1671474e-07
20	0x32beb8d0	2.2202954e-08
21	0x3347600e	4.642066e-08
22	0x00000000	0.0
23	0x33078d77	3.15608e-08
24	0x33b9928b	8.64139e-08
25	0x00000000	0.0
26	0x333f4c3a	4.453998e-08
27	0x32200ae0	9.315698e-09
28	0x3299f585	1.7923194e-08
29	0x00000000	0.0
30	0x322ed538	1.0176613e-08
31	0x00000000	0.0
32	0x00000000	0.0
33	0x32b1a7ab	2.0681759e-08
34	0x00000000	0.0
35	0x33732c4d	5.6618138e-08
36	0x31fde5e9	7.389407e-09
37	0x00000000	0.0
38	0x3327c5f1	3.9062744e-08
39	0x00000000	0.0
40	0x321b10ef	9.026038e-09
41	0x31c64fe9	5.771643e-09
42	0x32a0128d	1.8634887e-08
43	0x00000000	0.0
44	0x00000000	0.0
45	0x35a8b11f	1.2568524e-06
46	0x32dfb2bc	2.6041896e-08
47	0x3220c687	9.358366e-09
48	0x34863b20	2.5002464e-07
49	0x31aafa63	4.976117e-09
50	0x00000000	0.0
51	0x00000000	0.0
52	0x327756fa	1.4397068e-08
53	0x00000000	0.0
54	0x35110369	5.402167e-07
55	0x00000000	0.0
56	0x00000000	0.0
57	0x00000000	0.0
58	0x323b4468	1.0900386e-08
59	0x336172a1	5.249115e-08
60	0x00000000	0.0
61	0x326e483c	1.38698475e-08
62	0x33bd9cc4	8.829514e-08
63	0x00000000	0.0

exp_avg f4 [15, 64]
0	0x00000000	0.0
1	0x366877c4	3.4640407e-06
2	0x36e3e986	6.792313e-06
3	0x37484699	1.1937366e-05
4	0x37666efe	1.3734911e-05
5	0x35e06aad	1.6720347e-06
6	0x37118755	8.674183e-06
7	0x351d5fd1	5.862649e-07
8	0x00000000	0.0
9	0x371ab6ea	9.221703e-06
10	0x00000000	0.0
11	0x36d3dc62	6.313946e-06
12	0x364de7be	3.0682272e-06
13	0x3702361f	7.761205e-06
14	0x369f39a3	4.745279e-06
15	0x00000000	0.0
16	0x00000000	0.0
17	0x3643e3d7	2.9189885e-06
18	0x36c75ce4	5.941476e-06
19	0x369f436c	4.746418e-06
20	0x36433e45	2.909351e-06
21	0x366521b8	3.4143286e-06
22	0x00000000	0.0
23	0x365f45bb	3.3270178e-06
24	0x363cba37	2.8122574e-06
25	0x00000000	0.0
26	0xb4ab5ebe	-3.1920166e-07
27	0x366b6a21	3.5079504e-06
28	0x36ca5cef	6.030888e-06
29	0x00000000	0.0
30	0x36512d0b	3.1169645e-06
31	0x00000000	0.0
32	0x00000000	0.0
33	0x35dbd36d	1.6378305e-06
34	0x00000000	0.0
35	0x36310aa1	2.6381242e-06
36	0x3681a68b	3.8638877e-06
37	0x00000000	0.0
38	0x363eda6b	2.8439342e-06
39	0x00000000	0.0
40	0x366c7009	3.5231953e-06
41	0x36ec6832	7.045478e-06
42	0x365e9e2f	3.3172653e-06
43	0x00000000	0.0
44	0x00000000	0.0
45	0xb5a921c8	-1.2601313e-06
46	0x355ad420	8.152001e-07
47	0x3644f261	2.934736e-06
48	0x36590eaf	3.2344067e-06
49	0x3704ebaf	7.9226875e-06
50	0x00000000	0.0
51	0x00000000	0.0
52	0x3630d998	2.63527e-06
53	0x00000000	0.0
54	0x35e5b748	1.7115171e-06
55	0x00000000	0.0
56	0x00000000	0.0
57	0x00000000	0.0
58	0x37661e70	1.3716155e-05
59	0xb592d159	-1.0938776e-06
60	0x00000000	0.0
61	0x373c353e	1.121807e-05
62	0x35fecdeb	1.8984405e-06
63	0x00000000	0.0
64	0x00000000	0.0
65	0x384eb45c	4.92822e-05
66	0x38dff741	0.00010679523
67	0x392916cf	0.00016125593
68	0x39439f4f	0.00018655996
69	0x386d0eb3	5.6518893e-05
70	0x38e0bd75	0.000107164415
71	0x3814e5d3	3.549999e-05
72	0x00000000	0.0
73	0x390b4ca8	0.0001328463
74	0x00000000	0.0
75	0x38a7c936	8.000659e-05
76	0x37b5cd47	2.1672471e-05
77	0x39107e58	0.00013779977
78	0x37da4ccf	2.6023392e-05
79	0x00000000	0.0
80	0x00000000	0.0
81	0x38366e08	4.3494656e-05
82	0x386fd3f7	5.7179448e-05
83	0x3822688a	3.872117e-05
84	0x37f397a1	2.9038465e-05
85	0x38961be4	7.1577524e-05
86	0x00000000	0.0
87	0x37c346d9	2.3278802e-05
88	0x382bcae3	4.095853e-05
89	0x00000000	0.0
90	0x362cb60f	2.573597e-06
91	0x38851529	6.3458756e-05
92	0x38addc43	8.29031e-05
93	0x00000000	0.0
94	0x3876b134	5.8816004e-05
95	0x00000000	0.0
96	0x00000000	0.0
97	0x38569abd	5.1165687e-05
98	0x00000000	0.0
99	0x380e1608	3.3875956e-05
100	0x38899aca	6.561501e-05
101	0x00000000	0.0
102	0x3756a065	1.2792739e-05
103	0x00000000	0.0
104	0x38419261	4.615111e-05
105	0x38cf60ce	9.8885605e-05
106	0x380841a2	3.2486052e-05
107	0x00000000	0.0
108	0x00000000	0.0
109	0x373c4ada	1.1223101e-05
110	0x384086c2	4.590187e-05
111	0x38859fb2	6.37168e-05
112	0x36c91c11	5.993534e-06
113	0x38f1d383	0.00011531173
114	0x00000000	0.0
115	0x00000000	0.0
116	0x38aa792d	8.1288024e-05
117	0x00000000	0.0
118	0x372d1a5a	1.0317739e-05
119	0x00000000	0.0
120	0x00000000	0.0
121	0x00000000	0.0
122	0x394598bf	0.00018844286
123	0x37c15d97	2.3050974e-05
124	0x00000000	0.0
125	0x392cab09	0.00016466914
126	0x3835706d	4.3258467e-05
127	0x00000000	0.0
128	0x00000000	0.0
129	0xb5b83695	-1.3724954e-06
130	0x3735be30	1.0832722e-05
131	0x3783680d	1.566487e-05
132	0x378ca309	1.676522e-05
133	0x3684e429	3.960468e-06
134	0x375e5456	1.3251867e-05
135	0x36d06916	6.2111167e-06
136	0x00000000	0.0
137	0x37459d42	1.17787295e-05
138	0x00000000	0.0
139	0x3624cd1e	2.4557298e-06
140	0x36d716fb	6.4101746e-06
141	0x36f21400	7.2144903e-06
142	0x37092781	8.175034e-06
143	0x00000000	0.0
144	0x00000000	0.0
145	0x355e022f	8.270462e-07
146	0x373abb3f	1.1130061e-05
147	0xb5d28e8f	-1.5687709e-06
148	0x3651c21b	3.1256411e-06
149	0xb5ad458c	-1.2909745e-06
150	0x00000000	0.0
151	0x364d4075	3.05849e-06
152	0x36693791	3.475205e-06
153	0x00000000	0.0
154	0xb455a56b	-1.989735e-07
155	0x36dbcb92	6.5504073e-06
156	0x37136d91	8.787393e-06
157	0x00000000	0.0
158	0x366f2d10	3.5640005e-06
159	0x00000000	0.0
160	0x00000000	0.0
161	0x35053abd	4.9631836e-07
162	0x00000000	0.0
163	0x367ce83f	3.7686111e-06
164	0x3734032b	1.0729574e-05
165	0x00000000	0.0
166	0x35d4bbd7	1.58499e-06
167	0x00000000	0.0
168	0x36105212	2.1505443e-06
169	0x36466fac	2.95693e-06
170	0xb610d8f1	-2.1583949e-06
171	0x00000000	0.0
172	0x00000000	0.0
173	0xb69b3403	-4.625415e-06
174	0xb5eab175	-1.7486005e-06
175	0x36aeb9e6	5.2072455e-06
176	0x36dcb28d	6.577297e-06
177	0x36ddeac0	6.6136417e-06
178	0x00000000	0.0
179	0x00000000	0.0
180	0xb56b627e	-8.7687647e-07
181	0x00000000	0.0
182	0x36c3c581	5.8344453e-06
183	0x00000000	0.0
184	0x00000000	0.0
185	0x00000000	0.0
186	0x374fd939	1.2388738e-05
187	0xb641c299	-2.8872512e-06
188	0x00000000	0.0
189	0x375c790d	1.3141206e-05
190	0x364bd6c4	3.0374367e-06
191	0x00000000	0.0
192	0x00000000	0.0
193	0x3902a3cc	0.00012458785
194	0x39b8850e	0.00035194348
195	0x3a03258d	0.0005002849
196	0x3a164484	0.00057322555
197	0x395003ee	0.0001983789
198	0x39b0d8c0	0.00033730827
199	0x392299b8	0.00015506789
200	0x00000000	0.0
201	0x39d8d22d	0.00041355324
202	0x00000000	0.0
203	0x39635707	0.00021680827
204	0x389f6e07	7.602205e-05
205	0x39dd7a3b	0.00042243474
206	0x38989e9c	7.277468e-05
207	0x00000000	0.0
208	0x00000000	0.0
209	0x38fd109c	0.00012067074
210	0x394021ba	0.00018323111
211	0x3880cba2	6.141445e-05
212	0x38b322c5	8.5418615e-05
213	0x394e14bb	0.00019653414
214	0x00000000	0.0
215	0x38776795	5.8985857e-05
216	0x39012b2f	0.00012318486
217	0x00000000	0.0
218	0x35e4c011	1.7043222e-06
219	0x39636111	0.00021684567
220	0x3988586f	0.0002600583
221	0x00000000	0.0
222	0x394128c4	0.000184211
223	0x00000000	0.0
224	0x00000000	0.0
225	0x3926a738	0.00015893287
226	0x00000000	0.0
227	0x38e8ead3	0.000111063615
228	0x3979e169	0.00023830462
229	0x00000000	0.0
230	0x379dc4fe	1.880759e-05
231	0x00000000	0.0
232	0x390aecb3	0.00013248883
233	0x398eee95	0.00027262108
234	0x3870f957	5.7452675e-05
235	0x00000000	0.0
236	0x00000000	0.0
237	0x37d37e40	2.521195e-05
238	0x3916d3fd	0.00014384087
239	0x3962dfbf	0.00021636391
240	0x37808e59	1.5325075e-05
241	0x39b31cc7	0.0003416298
242	0x00000000	0.0
243	0x00000000	0.0
244	0x39806efb	0.0002449675
245	0x00000000	0.0
246	0x384d1cd1	4.8902646e-05
247	0x00000000	0.0
248	0x00000000	0.0
249	0x00000000	0.0
250	0x3a115390	0.0005543763
251	0x38a158f8	7.69365e-05
252	0x00000000	0.0
253	0x3a0657fd	0.00051248056
254	0x391290b5	0.00013977553
255	0x00000000	0.0

exp_avg_sq f4 [15, 64]
0	0x00000000	0.0
1	0x32651869	1.3335105e-08
2	0x3362b2b5	5.278226e-08
3	0x34060e33	1.2484888e-07
4	0x34348db4	1.6815358e-07
5	0x32705245	1.39885445e-08
6	0x336b12c8	5.4732283e-08
7	0x31ad65f5	5.046554e-09
8	0x00000000	0.0
9	0x33b50e39	8.4310564e-08
10	0x00000000	0.0
11	0x33108439	3.364787e-08
12	0x3115cc31	2.1798423e-09
13	0x33c3be3f	9.115001e-08
14	0x31765517	3.584608e-09
15	0x00000000	0.0
16	0x00000000	0.0
17	0x32274970	9.737377e-09
18	0x3284c5c8	1.5456763e-08
19	0x32340636	1.0478791e-08
20	0x3192c6a9	4.2717443e-09
21	0x32e0b12e	2.6157604e-08
22	0x00000000	0.0
23	0x3152f997	3.0700897e-09
24	0x320b92d3	8.124249e-09
25	0x00000000	0.0
26	0x2e34ed0d	4.1137805e-11
27	0x329c4977	1.8194198e-08
28	0x330c4e35	3.266742e-08
29	0x00000000	0.0
30	0x328c5d50	1.6340579e-08
31	0x00000000	0.0
32	0x00000000	0.0
33	0x3253d7aa	1.2330853e-08
34	0x00000000	0.0
35	0x31b97aa1	5.39815e-09
36	0x32a077b9	1.8680895e-08
37	0x00000000	0.0
38	0x30ac8efc	1.2555286e-09
39	0x00000000	0.0
40	0x323add36	1.08769225e-08
41	0x3358da4a	5.048995e-08
42	0x31f08245	6.9997292e-09
43	0x00000000	0.0
44	0x00000000	0.0
45	0x3036eeff	6.655085e-10
46	0x322a0861	9.8972075e-09
47	0x329d5e2e	1.8320033e-08
48	0x2f83188a	2.3846197e-10
49	0x338d4070	6.577545e-08
50	0x00000000	0.0
51	0x00000000	0.0
52	0x33087a7f	3.1776377e-08
53	0x00000000	0.0
54	0x2ffa5715	4.553661e-10
55	0x00000000	0.0
56	0x00000000	0.0
57	0x00000000	0.0
58	0x343d1ca0	1.761241e-07
59	0x311f7b2e	2.3207565e-09
60	0x00000000	0.0
61	0x340b995b	1.3001174e-07
62	0x32135371	8.5754985e-09
63	0x00000000	0.0
64	0x00000000	0.0
65	0x33aa80a4	7.9396415e-08
66	0x34e34fa8	4.2340002e-07
67	0x357bbca3	9.377929e-07
68	0x35a79a5b	1.2487393e-06
69	0x34031101	1.2206512e-07
70	0x34e0a900	4.1846215e-07
71	0x336e1819	5.543561e-08
72	0x00000000	0.0
73	0x352ad2b0	6.3636526e-07
74	0x00000000	0.0
75	0x3468460e	2.163217e-07
76	0x329d896b	1.8339696e-08
77	0x3535f4e3	6.778411e-07
78	0x32ceb73c	2.4064882e-08
79	0x00000000	0.0
80	0x00000000	0.0
81	0x338a73ed	6.4472125e-08
82	0x340207ef	1.211008e-07
83	0x333a9837	4.344494e-08
84	0x32fee1dd	2.9672202e-08
85	0x3439eb15	1.731499e-07
86	0x00000000	0.0
87	0x329b5642	1.80836e-08
88	0x338037c3	5.9706075e-08
89	0x00000000	0.0
90	0x2eb99262	8.438829e-11
91	0x34239363	1.5234177e-07
92	0x3485fe43	2.495818e-07
93	0x00000000	0.0
94	0x3406303e	1.2497273e-07
95	0x00000000	0.0
96	0x00000000	0.0
97	0x33c94126	9.371642e-08
98	0x00000000	0.0
99	0x3335fd0b	4.2372488e-08
100	0x3436190e	1.6959186e-07
101	0x00000000	0.0
102	0x31a439de	4.779607e-09
103	0x00000000	0.0
104	0x339ee3f8	7.3989156e-08
105	0x34b2c7d1	3.330047e-07
106	0x330577d1	3.1075448e-08
107	0x00000000	0.0
108	0x00000000	0.0
109	0x3182beed	3.8052037e-09
110	0x33a0f7e8	7.4956745e-08
111	0x34240da1	1.5278648e-07
112	0x30bbb827	1.365838e-09
113	0x34fb5656	4.681521e-07
114	0x00000000	0.0
115	0x00000000	0.0
116	0x347986c9	2.3238967e-07
117	0x00000000	0.0
118	0x31ae8db6	5.080177e-09
119	0x00000000	0.0
120	0x00000000	0.0
121	0x00000000	0.0
122	0x35a74388	1.2462124e-06
123	0x32a674ab	1.9377998e-08
124	0x00000000	0.0
125	0x358315f4	9.76665e-07
126	0x33938d5b	6.870933e-08
127	0x00000000	0.0
128	0x00000000	0.0
129	0x33d25fab	9.796289e-08
130	0x34f2c5e9	4.522001e-07
131	0x358a35f1	1.02975e-06
132	0x35b90443	1.3784814e-06
133	0x34078fc7	1.262516e-07
134	0x34f4902b	4.5553438e-07
135	0x3364db68	5.3284936e-08
136	0x00000000	0.0
137	0x353b3a5d	6.974786e-07
138	0x00000000	0.0
139	0x34897d1b	2.5609265e-07
140	0x32a43ffb	1.9121208e-08
141	0x3548f83d	7.486704e-07
142	0x32ed77ea	2.7644962e-08
143	0x00000000	0.0
144	0x00000000	0.0
145	0x33a19848	7.5248465e-08
146	0x340bba60	1.3013187e-07
147	0x338eae86	6.644136e-08
148	0x3311055c	3.3765318e-08
149	0x34593fa5	2.0232854e-07
150	0x00000000	0.0
151	0x32bfd79a	2.233337e-08
152	0x338e24d4	6.619089e-08
153	0x00000000	0.0
154	0x2f795251	2.2675663e-10
155	0x342bbcaa	1.5994252e-07
156	0x3491fb57	2.7191228e-07
157	0x00000000	0.0
158	0x34125921	1.3629734e-07
159	0x00000000	0.0
160	0x00000000	0.0
161	0x33dc77ed	1.0266363e-07
162	0x00000000	0.0
163	0x334435a2	4.5683585e-08
164	0x34390373	1.7230722e-07
165	0x00000000	0.0
166	0x32045750	7.703264e-09
167	0x00000000	0.0
168	0x33b6eec4	8.5184666e-08
169	0x34d0f758	3.8922985e-07
170	0x334371ad	4.5505363e-08
171	0x00000000	0.0
172	0x00000000	0.0
173	0x31a742e6	4.867945e-09
174	0x33b10a7f	8.244114e-08
175	0x342c9c84	1.6075688e-07
176	0x30e7c628	1.6863781e-09
177	0x350d901c	5.27363e-07
178	0x00000000	0.0
179	0x00000000	0.0
180	0x348b22a9	2.5915986e-07
181	0x00000000	0.0
182	0x31a6a200	4.849653e-09
183	0x00000000	0.0
184	0x00000000	0.0
185	0x00000000	0.0
186	0x35bcdc7a	1.4071259e-06
187	0x32b05978	2.0529782e-08
188	0x00000000	0.0
189	0x35900ae6	1.0732008e-06
190	0x339daec6	7.342673e-08
191	0x00000000	0.0
192	0x00000000	0.0
193	0x33cfce49	9.676712e-08
194	0x35119388	5.4231396e-07
195	0x359d858d	1.173628e-06
196	0x35d15201	1.559558e-06
197	0x342c4f9e	1.6047713e-07
198	0x350cfce1	5.252205e-07
199	0x33b22e2e	8.297171e-08
200	0x00000000	0.0
201	0x3556157a	7.9752465e-07
202	0x00000000	0.0
203	0x348dc486	2.6406286e-07
204	0x32cf9e16	2.416986e-08
205	0x3562ee19	8.453804e-07
206	0x32f9e2e2	2.909059e-08
207	0x00000000	0.0
208	0x00000000	0.0
209	0x33a9488b	7.882871e-08
210	0x34239029	1.5233003e-07
211	0x33674c76	5.385342e-08
212	0x331ed7f3	3.6983646e-08
213	0x34618adc	2.1005275e-07
214	0x00000000	0.0
215	0x32be03c7	2.2120629e-08
216	0x339de229	7.3520205e-08
217	0x00000000	0.0
218	0x2f24b589	1.4980207e-10
219	0x3454b7fe	1.9810975e-07
220	0x34a7dc5e	3.1266512e-07
221	0x00000000	0.0
222	0x34282edc	1.5663267e-07
223	0x00000000	0.0
224	0x00000000	0.0
225	0x33fbc4f1	1.1723922e-07
226	0x00000000	0.0
227	0x336a8f54	5.4612727e-08
228	0x347251a5	2.2567708e-07
229	0x00000000	0.0
230	0x31d98d96	6.3316277e-09
231	0x00000000	0.0
232	0x33c4848f	9.1510735e-08
233	0x34d9c107	4.0559846e-07
234	0x3323cc1d	3.8137035e-08
235	0x00000000	0.0
236	0x00000000	0.0
237	0x3197f938	4.4230113e-09
238	0x33cc4f29	9.5138894e-08
239	0x3454b007	1.9808077e-07
240	0x30f1fac3	1.7606329e-09
241	0x351b9155	5.7953486e-07
242	0x00000000	0.0
243	0x00000000	0.0
244	0x349b15f0	2.8886961e-07
245	0x00000000	0.0
246	0x32090aa9	7.976873e-09
247	0x00000000	0.0
248	0x00000000	0.0
249	0x00000000	0.0
250	0x35ce68b0	1.5378664e-06
251	0x32d745e6	2.506108e-08
252	0x00000000	0.0
253	0x35a4b1d7	1.227071e-06
254	0x33ba17bb	8.6656165e-08
255	0x00000000	0.0

exp_avg f4 [15]
0	0x3709a444	8.204082e-06
1	0x3898ed78	7.292157e-05
2	0x37155ce7	8.902723e-06
3	0x39539578	0.0002017821
4	0x38e6af85	0.00010999948
5	0x381df070	3.765564e-05
6	0x38cea854	9.854199e-05
7	0xb9228ca3	-0.00015501915
8	0x38191e24	3.6506113e-05
9	0x0723abbc	1.2313225e-34
10	0x801f2fe5	-2.864082e-39
11	0x852454b7	-7.7268026e-36
12	0x86a4c7a8	-6.198331e-35
13	0x00095af7	8.59152e-40
14	0x00000000	0.0

exp_avg_sq f4 [15]
0	0x32ef6b58	2.7872076e-08
1	0x3444a37f	1.8313402e-07
2	0x34659d65	2.1384547e-07
3	0x346fd823	2.233724e-07
4	0x33d75024	1.0026295e-07
5	0x33faee11	1.1684836e-07
6	0x343e08ea	1.7698372e-07
7	0x3444a94d	1.8315514e-07
8	0x342121ad	1.5006545e-07
9	0x00000000	0.0
10	0x00000000	0.0
11	0x00000000	0.0
12	0x00000000	0.0
13	0x00000000	0.0
14	0x00000000	0.0
