Op_problems/problem_ED_Column/checkpoints/mlp_checkpoint_epoch_800_loss_0.000112.pth (torch, 21405 bytes, 12 tensors)

nn.0.weight f4 [64, 3]
00000000: b495 4c3f 5a33 cd3e 8602 25be f3e6 ac3e
00000010: 2411 11be 4b4b ad3d a7e3 153e 166b dd3e
00000020: 5ff9 103f 9f43 12bf 2fe6 2d3f 42a9 143e
00000030: b2cc a73e c1d5 183d 01d9 733e f2b8 c1be
00000040: ba34 c03e 9bf3 273d dbff 89be 95b2 163e
00000050: fe31 88be 738e cd3d ee9b aebe ee65 b03e
00000060: 2857 e9be b546 88be 1cf1 26be f7bc b1be
00000070: 2133 5f3d 0afb 11bf f70d 573f dce4 d6be
00000080: 2012 fd3e 30ad 033f 56e3 4dbd 3037 d33e
00000090: ebf2 b13e 8149 cc3e d2ba fb3c 6373 3abe
000000a0: fbd8 1e3e b652 20be fd99 213f e6b2 153f
000000b0: 39f1 c43e e493 0cbf 3cf5 b23e 959c d03d
000000c0: 231e 963e f62b b4be 644f 12bf 02b1 eabe
000000d0: 846e abbe e2fc 023f 64ee 38be e3cb 573e
000000e0: d045 0e3e c98d 24bc 7457 e73e ba07 d2be
000000f0: f7e5 143d dbc2 c9be bd4c 363e e299 4bbe
00000100: c527 353e 8358 f6bd c62b f53e 6534 afbe
00000110: 184c b0be ef12 e8bd 8f3f dc3e 5d2c 2c3e
00000120: e638 0e3f 54f4 f3be d799 12bf d5be 5fbf
00000130: 8fa0 cbbe f7aa d53e b871 133f f083 223f
00000140: 4209 6fbe 2b84 c9be 36d7 9c3e e8f7 6ebe
00000150: 61a2 0a3f 9ded 38be cd47 9c3e d19f 43bf
00000160: 9d44 0ebe a1b3 4c3e acf1 6f3d dbf0 60bc
00000170: 6253 cc3e 31f4 c83e 195d d6be 2fd0 9dbe
00000180: 1c56 073f 0a7e 47be ab97 51be 8e59 36bf
00000190: 6c7c 74be 20e8 423e 0c12 9cbd 0693 d6be
000001a0: 51e2 5d3c d2eb c9be f4c9 fabe 18c7 a2be
000001b0: 83cc 12bf 6263 77be 1b5e 1f3f 0a54 df3d
000001c0: a32f 363e 30da 09bf 0025 c2be 5dc9 44be
000001d0: 32e5 b83d c80d 02bf 2abc 7ebe ebf7 b0be
000001e0: a5b6 d13a 6afd 5bbe 5adf 23bd 424f c8be
000001f0: 94e6 cabe 9d74 acbe b70a 55be ab68 0ebf
00000200: 993b e33e e446 bb3e 5777 113f 06f9 793e
00000210: e697 19bf 28eb 103f faaa aabd fb9f 62be
00000220: 215f f5be 48f0 12bf 5039 1b3f a82b a3bc
00000230: ce8d 953e 4297 f2be eb76 db3e 1dfd d8be
00000240: d96d e33d 3158 cf3c a6ff 873e c5a4 ee3e
00000250: 2ca4 063f f363 eabe 91c9 143e 184b 7ebe
00000260: 1593 81bd 9441 ddbe 5da0 063f 4df5 d8be
00000270: f936 113f 0075 223e 0ee8 273e 9cfe 24bf
00000280: 62f5 103f c2bd cd3d 88cd 8f3d b147 03bf
00000290: 360a 743e db74 873e f5a0 87be a2e2 073f
000002a0: 0ecf 033e e48c a3be c99d 95be 5edb 19bd
000002b0: c39b c63e cfd4 dabd f1a9 a8be 5b74 4abe
000002c0: 7bd6 dcbe efd7 523e 12cf e43e 7e25 0bbf
000002d0: b3bd 153e 8c7a db3e befe 293e 6998 bcbe
000002e0: 7dd8 773e f6f6 833e 7a11 5d3e 7cc6 cfbd
000002f0: 628d 1cbe c8fd 7c3d cfe0 d0bd 222e 30be
0.7991593 0.4007824 -0.16114244 0.3376995 -0.14166695 0.084616266 0.14637624 0.43245763
0.5663051 -0.5713443 0.6792936 0.14517692 0.32773358 0.037313227 0.23813249 -0.37836415
0.37540227 0.041003805 -0.26953015 0.14716561 -0.2660064 0.10036936 -0.3410334 0.34452766
-0.45574307 -0.26616445 -0.16302913 -0.3471448 0.05449212 -0.5702368 0.84005684 -0.4197148
0.4942789 0.5143614 -0.050265633 0.41253042 0.34755644 0.3989983 0.030728731 -0.18208079
0.15512459 -0.15656552 0.6312559 0.584761 0.38465288 -0.54913163 0.34952724 0.10186116
0.29319867 -0.3518979 -0.5715239 -0.4583817 -0.33482754 0.5116712 -0.18059689 0.2107387
0.13893819 -0.01004357 0.4518391 -0.4102152 0.036352124 -0.39406475 0.17802711 -0.1988292
0.17690952 -0.12028601 0.4788496 -0.3421966 -0.34433055 -0.11331736 0.4301724 0.16813798
0.5555557 -0.47647345 -0.5726599 -0.8740056 -0.39770934 0.41731998 0.57595396 0.6348257
-0.23343375 -0.3935865 0.30632943 -0.23336756 0.5415402 -0.18059392 0.3052353 -0.76415735
-0.13893361 0.19990398 0.058580086 -0.013729299 0.39907366 0.39248803 -0.41867903 -0.30822894
0.5286577 -0.19481674 -0.20468013 -0.712304 -0.23875588 0.19033861 -0.0762063 -0.41909045
0.013542728 -0.3943773 -0.48982203 -0.3179252 -0.5734331 -0.24159005 0.6225297 0.10904701
0.1779161 -0.5384855 -0.37918854 -0.19217439 0.090280905 -0.5080228 -0.24876466 -0.34564146
0.0015999867 -0.21483389 -0.040007927 -0.3912297 -0.39629042 -0.3368272 -0.20804869 -0.5562846
0.44381407 0.36577523 0.56822723 0.24411401 -0.59997404 0.5660882 -0.083333924 -0.2213134
-0.4792414 -0.5739789 0.60634327 -0.019918278 0.2920975 -0.47381026 0.42864165 -0.4238061
0.11104936 0.025310608 0.26562232 0.46610084 0.52594256 -0.4577938 0.14530016 -0.24833333
-0.06326882 -0.43214095 0.52588445 -0.4237465 0.56724507 0.15864944 0.16397116 -0.64451003
0.56624424 0.10045959 0.07021624 -0.5128127 0.2383202 0.2645634 -0.26489988 0.5308019
0.12871954 -0.3194343 -0.29221943 -0.03756272 0.38790712 -0.10685121 -0.32942155 -0.19770949
-0.43132386 0.20590185 0.44689232 -0.54354084 0.14623146 0.42866933 0.16601083 -0.3683503
0.24203677 0.25774354 0.21588698 -0.1014528 -0.15288308 0.061765462 -0.10199129 -0.17205098

nn.0.bias f4 [64]
00000000: b150 c33e e520 f53e 6e86 a9bd bb63 74bd
00000010: 9ad7 6dbd 332f 0b3d fc21 0e3e 6cb9 db3d
00000020: eb3d 06bf 762d 5abe 8468 013f 16a9 6e3e
00000030: cdd7 01be 9038 b2be 90e3 babe bf6d 00bf
00000040: 0eb6 40be d28c a83e ed4c c53e b27a 883e
00000050: fea5 02bf c7c3 b1be c19a babd 976a 003f
00000060: 820b ab3d 8e09 a2bd d8fc 823e 012e 61be
00000070: f1b9 00bf 0034 183f 4cad 1dbe d908 edbd
00000080: a208 13bf 9b48 043f 96f5 df3e d676 573e
00000090: 7637 b0be 12df 11bf 3315 f0be 756e dc3e
000000a0: beeb 8d3e 64c0 f83e aba4 9e3e f6a6 1c3e
000000b0: fcce 343e e1ce e0be 8949 04bf ff3e 0abf
000000c0: 7d5d 2e3e bc21 91be b7f6 edbd 0c1f aabe
000000d0: c5ac 5fbe 83dc b7be 7d38 c3be ff97 b63e
000000e0: 59b4 2fbe ccb5 fa3e 0eaa 3dbe 4dd8 d8be
000000f0: e6d4 babc fe01 96be ecdf 34be e0b4 0cbf
0.381475 0.4787666 -0.082775936 -0.059665423 -0.05806694 0.03398056 0.13880152 0.10728726
-0.5243823 -0.21306404 0.50550103 0.23306689 -0.12679978 -0.3480878 -0.3650174 -0.5016746
-0.18819448 0.32919937 0.38535252 0.2665611 -0.51034534 -0.3471968 -0.09111548 0.50162643
0.08351804 -0.07911979 0.2558353 -0.21990205 -0.50283724 0.59454346 -0.15398139 -0.11573953
-0.5743505 0.5167329 0.43742055 0.21041426 -0.34417313 -0.56981003 -0.46891174 0.43053022
0.2771892 0.48584282 0.30985007 0.15298066 0.17657083 -0.43907836 -0.51674706 -0.54002374
0.1702785 -0.2834605 -0.11619323 -0.33226812 -0.2184325 -0.35910425 -0.38129035 0.3566284
-0.17158641 0.48966825 -0.18521902 -0.42352524 -0.022806596 -0.29298395 -0.17663544 -0.54963493

nn.2.weight f4 [15, 64]
00000000: 1bec 293d e42e cfbd ca15 8a3d 7032 7e3d
00000010: 1e73 a13d da3b c9bd 481d b83d 51e0 40bd
00000020: c8fc 3d3d d269 f03d 01e9 a7bc dc43 903a
00000030: dc4e 13bd 8cc1 d5bd 58f3 563d b1f2 dfbd
00000040: beec 9e3d 688c da3d 287b eb3d 688a f1bc
00000050: 2057 d2bd e839 e63c e06b 8d3d 32b8 edbd
00000060: 686e e8bc fac2 3a3c 26e0 a4bd 6803 7cbd
00000070: d862 87bd d776 fbbb 6b03 f4bd c80c d23d
00000080: e09c d63d 7b71 2a3d 003b 69bc 18f5 50bd
00000090: af37 b9bd fe1f f9bd 044a 3e3d 4a8e 8cbd
000000a0: 9693 a4bd a0ca 1fbc 3c6c c5bc 3e87 2abd
000000b0: bc9b 3bbd 0034 d9bc aa01 2dbd 0c26 75bd
000000c0: f31e c1bd 68a8 d63d 54e5 4cbd 64ab 073d
000000d0: 31d3 60bd 133e 763c f8b5 f33d c598 833d
000000e0: 7ad9 ddbd ad7b ee3c 9401 f33d dcb2 063d
000000f0: 942d 953d 895e 033e 10e8 9cbc 2889 d43c
00000100: 7f34 1b3d 9d3e a43c 6ad4 1a3e e167 f23d
00000110: 43f4 f03b 58f6 63bd ecf0 aebd 7fc9 d7bd
00000120: 228a c5bd 883b fdbc c1d5 0b3e 3396 9b3d
00000130: d137 533c 8c5e cdbd 7005 293e 07c0 323d
00000140: 402a 7cbc ca12 7a3d fa88 f9bc 5050 5fbc
00000150: 6044 32bc e842 f2bc dccc 81bd 1739 b3bd
00000160: 7cf0 cebd 47a7 10bf ef58 bf3e b44d 77bd
00000170: 6864 b43d d257 7dbd 3ab1 da3d d043 8c3d
00000180: 4097 c23d ce2c 99bd 02d3 fdbd 60a2 353c
00000190: 6309 c03d 9049 3dbc 00db 96bd 140e f43d
000001a0: 9480 3fbd 90c0 91bd 81e5 0abe 0602 9e3d
000001b0: 8b99 503e f0ac e23c cfc6 473e ae25 c2bd
000001c0: bf18 a7bd 8041 103b f66d e93d 1eb1 933d
000001d0: 4973 463d cd33 2d3d 4287 b6bd cf5c c6bc
000001e0: d871 b93c d960 0e3e 0210 d43d 0009 ebbd
000001f0: 90f0 383e 4259 28bd 2cba 3f3d 88a3 d83d
00000200: 03fe 9dbd 4099 4f3d b550 d5bd 5ddc e23c
00000210: de46 b4bb 4071 273d f09c d1bc 4a34 69bd
00000220: 5e76 b03d 3c23 7b3d effa b3bc a014 d2bd
00000230: 8f97 0abe 5083 5d3c 239b 61bc 0308 1a3e
00000240: a441 0fbd b6b0 dc3d a93b 223d 00ce b83b
00000250: c801 fcbc bad4 e7bd b6b4 f0bd a7fd 803b
00000260: 5a21 82bd 33a8 5f3e ff05 e0bc 444e 48bd
00000270: a4e2 02be d4ec 493e 4f34 0e3d a0dd 77bd
00000280: 9022 51bd 1041 803e 0291 aabd 2659 a7bd
00000290: 1b96 e93b fc44 3bbd 96e9 bfbd 44d9 973d
000002a0: 9edd cd3d e01d a63c a2bd 783c 99fc e8bd
000002b0: 2f5e 943e 0c59 023d 3019 1cbe 9873 81bc
000002c0: 9cb6 07bd 5ea6 8e3d dae0 cbbd eecb a13d
000002d0: dd21 1dbe 2c03 d93d a633 bcbc 03b0 0a3b
000002e0: c0b9 1abd 18b8 223e 00f8 54bb 5ed5 c73d
000002f0: 761a ba3d 0692 dcbc 1cc1 babd aa63 cd3d
00000300: 931f 583e 837f 563c cb09 c33c 48d0 16be
00000310: 771d aebc 7e9f 8c3b b035 083d 242e a13d
00000320: 2c59 0bbd 0e2e ec3d 4f53 ed3d 6456 52bb
00000330: 8d61 153d a0e8 f53c bc1d d03d 26c1 d2be
00000340: 6ce4 3f3d 83d1 ebbc 9431 9bbd 40d4 8bbd
00000350: 88e3 f63d f6d7 da3d 783e e53d 9e67 aa3d
00000360: 2465 c13d 5a66 a8be e067 923d fcd2 7f3d
00000370: 291b b03d b8c2 d9bd b837 c53c 58e5 d63c
00000380: b6c9 833d 8a0c afbd 48ac 96bd 6821 8a3c
00000390: 1489 80bd f6ab a6bd c470 853d 2804 acbc
000003a0: d0ed e93d 4808 f93d fed3 923d 6977 ac3d
000003b0: a2d3 09bd 404b 003b 610d e63d 002f e13a
000003c0: 0234 a63d 7605 ee3d 80b0 04bd 346e 58bd
000003d0: e794 6e3d 9526 16be cba4 c63c b975 1c3e
000003e0: ac2f c83d 7edb cd3d 0266 bcbd 7c65 89bd
000003f0: d4a7 d43c aedf 03bd 8071 283c 2e00 ebbd
0.041484933 -0.101163656 0.06742437 0.06205982 0.07883285 -0.09825869 0.0898996 -0.047088925
0.04638365 0.117389336 -0.020496847 0.0011006552 -0.035963878 -0.10437307 0.052478164 -0.109349616
0.07759999 0.106713116 0.114980996 -0.029484943 -0.10270524 0.028103784 0.06905341 -0.11607398
-0.028372958 0.011399025 -0.080505654 -0.061526686 -0.0661065 -0.007674079 -0.119147144 0.10256344
0.1047914 0.04161213 -0.014235258 -0.05101499 -0.09043824 -0.12164305 0.046457306 -0.06863077
-0.08035962 -0.009752899 -0.024099462 -0.041632883 -0.045802817 -0.026514053 -0.042237915 -0.059850737
-0.09429731 0.1048134 -0.05002339 0.033122435 -0.054888908 0.015029448 0.11899942 0.06425623
-0.10832496 0.029111708 0.118655354 0.032885417 0.07284084 0.12829031 -0.019153625 0.025944307
0.03789186 0.020049388 0.15120092 0.118362196 0.007353337 -0.055654854 -0.08542046 -0.10536479
-0.09645487 -0.030912176 0.1365576 0.075970076 0.012891726 -0.10027799 0.1650598 0.043640163
-0.015390933 0.061053075 -0.030460823 -0.013629988 -0.01088056 -0.029572919 -0.06337902 -0.087511234
-0.101044625 -0.56505245 0.37372538 -0.060376838 0.088082135 -0.06185133 0.106783345 0.06848872
0.09501505 -0.07479249 -0.12393762 0.0110860765 0.093767904 -0.011553183 -0.0736599 0.11916748
-0.04675348 -0.071168065 -0.13564111 0.0771523 0.20371072 0.027670354 0.19509433 -0.09479843
-0.08159017 0.0022011697 0.113979265 0.07211517 0.04844979 0.04228573 -0.08912517 -0.024214176
0.022637293 0.13904132 0.10354616 -0.11476326 0.18060517 -0.041100748 0.046808407 0.10578066
-0.077144645 0.05068326 -0.10415784 0.027692968 -0.005501612 0.040879488 -0.025587529 -0.056934632
0.08616327 0.0613129 -0.02197024 -0.1025784 -0.13534378 0.013520077 -0.013769898 0.15042119
-0.03497471 0.107758924 0.039607678 0.0056397915 -0.030762568 -0.11319871 -0.11753218 0.0039364877
-0.063540176 0.21841507 -0.02734661 -0.048902765 -0.12781769 0.19719249 0.034717854 -0.060514092
-0.051058352 0.2504964 -0.08328439 -0.081713006 0.0071284897 -0.045720086 -0.09370725 0.07414487
0.10052036 0.020277917 0.015181931 -0.11376304 0.28978106 0.031823203 -0.15243983 -0.01580219
-0.033133134 0.06965326 -0.099549964 0.079002246 -0.15344949 0.10596308 -0.022973847 0.002116204
-0.0377748 0.15890539 -0.0032496452 0.097574934 0.09087078 -0.026925098 -0.09118864 0.10028775
0.21105795 0.013091925 0.02380838 -0.1472789 -0.021254284 0.004291474 0.033254325 0.07870129
-0.034020588 0.11532222 0.115881555 -0.003209495 0.036469985 0.03001815 0.101619214 -0.41162986
0.0468487 -0.028786426 -0.07577816 -0.06827593 0.12055117 0.106857225 0.111935556 0.08320545
0.09443119 -0.32890588 0.07148719 0.06245707 0.085989304 -0.10632843 0.02407442 0.026232406
0.06434958 -0.085473135 -0.07357079 0.016861632 -0.062761456 -0.08138268 0.06515649 -0.020998076
0.11422312 0.12159783 0.071693406 0.08421213 -0.033649094 0.0019576102 0.112330206 0.0017180145
0.081153885 0.11622135 -0.032394886 -0.052839473 0.058247473 -0.14663155 0.024248501 0.15279283
0.09774718 0.100516304 -0.09199144 -0.0670881 0.025958933 -0.03219574 0.010280967 -0.11474644

nn.2.bias f4 [15]
00000000: 1b41 cc3d f719 d8bc 7133 183e a54f 01bc
00000010: 59d4 9bbd ffee 263d 1a62 053d a829 823d
00000020: ab5e a03d 56ae dabd dc51 dc3d 6ee8 f73d
00000030: 7465 0b3d 2c9f a0bd f82c 793d
0.099733554 -0.026379569 0.14863373 -0.007892524 -0.076088615 0.04075527 0.03256426 0.063556015
0.078305565 -0.10677783 0.10757801 0.12104879 0.0340323 -0.078428596 0.0608339

exp_avg f4 [64, 3]
00000000: 1d77 79b7 cb2d 7eb8 7cac 87b8 09c5 ce36
00000010: 9523 bd37 229a 3f38 a650 dab6 b065 ccb7
00000020: f59c eab7 ed15 0537 53cb 0a38 faf0 0338
00000030: 95ea 05b3 144f 60b5 f85a 0136 4870 8835
00000040: 0850 6f36 7610 ed33 0000 0000 0000 0000
00000050: 0000 0000 2e85 c2b6 8d6a c3b7 7a01 b2b7
00000060: 0000 0000 0000 0000 0000 0000 0000 0000
00000070: 0000 0000 0000 0000 d1f7 97b6 9a2c a0b7
00000080: 6ca3 2fb7 393a b5b6 5cc4 aab7 7658 b5b7
00000090: 9043 19b7 9c43 13b8 8068 24b8 0000 0000
000000a0: 0000 0000 0000 0000 7878 48b6 9170 66b7
000000b0: 2a3a c335 75ae e737 a3d8 e738 dd8b 0339
000000c0: 0000 0000 0000 0000 0000 0000 a0dc da36
000000d0: f904 cf37 bf3f e737 49e4 8e36 8eed 9a37
000000e0: 84db 0537 0000 0000 0000 0000 0000 0000
000000f0: 0000 0000 0000 0000 0000 0000 0000 0000
00000100: 0000 0000 0000 0000 0000 0000 0000 0000
00000110: 0000 0000 c4a3 beb5 4658 dbb6 9c85 6135
00000120: 0000 0000 0000 0000 0000 0000 74d3 a537
00000130: 0fd2 aa38 596f 4638 df48 f1b5 019d 18b7
00000140: 36f4 4a37 0000 0000 0000 0000 0000 0000
00000150: abc2 29b7 902e 2db8 f42d 0ab8 634c 8037
00000160: 2bb3 7d38 f952 7a38 b989 1236 2d25 e336
00000170: ea98 a837 0000 0000 0000 0000 0000 0000
00000180: 0000 0000 0000 0000 0000 0000 8fd3 ae37
00000190: f7f9 a938 b7f1 ce38 0000 0000 0000 0000
000001a0: 0000 0000 0000 0000 0000 0000 0000 0000
000001b0: c97b 8b36 28e8 8a37 7582 c237 0000 0000
000001c0: 0000 0000 0000 0000 0000 0000 0000 0000
000001d0: 0000 0000 0000 0000 0000 0000 0000 0000
000001e0: 0000 0000 0000 0000 0000 0000 0000 0000
000001f0: 0000 0000 0000 0000 5f2d 67b6 567a 67b7
00000200: 9ac1 b8b7 7849 01b7 b0e2 02b8 0d6b a2b7
00000210: d365 a137 9a6b 9738 0860 c838 0000 0000
00000220: 0000 0000 0000 0000 ccea 3bb7 1889 3bb8
00000230: ef59 13b8 0000 0000 0000 0000 0000 0000
00000240: 26fd 8bb6 0e61 8eb7 2ea3 65b7 0000 0000
00000250: 0000 0000 0000 0000 0000 0000 0000 0000
00000260: 0000 0000 0000 0000 0000 0000 0000 0000
00000270: 9092 3bb7 ab5f 34b8 4bf4 4db8 cd18 6c37
00000280: 7d1b 6c38 bb3d 8838 0400 0000 0400 0000
00000290: 0400 0000 4a00 00b7 b462 02b8 2da9 1fb8
000002a0: 0000 0000 0000 0000 0000 0000 0f1d f736
000002b0: 22bc d137 a43f 5438 0000 0000 0000 0000
000002c0: 0000 0000 0000 0000 0000 0000 0000 0000
000002d0: 6adb ae36 1d2f 9f37 2a5e fc37 1346 51b6
000002e0: af8d 31b7 6a40 f5b7 0000 0000 0000 0000
000002f0: 0000 0000 0000 0000 0000 0000 0000 0000
-1.486929e-05 -6.0600967e-05 -6.469429e-05 6.1622163e-06 2.2547125e-05 4.5681496e-05 -6.506295e-06 -2.4366047e-05
-2.7968063e-05 7.932523e-06 3.3091124e-05 3.145726e-05 -3.1179827e-08 -8.3561577e-07 1.9275449e-06 1.0165468e-06
3.566036e-06 1.1039167e-07 0.0 0.0 0.0 -5.7971547e-06 -2.3295428e-05 -2.1219941e-05
0.0 0.0 0.0 0.0 0.0 0.0 -4.5290003e-06 -1.9094256e-05
-1.04688625e-05 -5.4009984e-06 -2.0357016e-05 -2.1618074e-05 -9.135241e-06 -3.5110497e-05 -3.919797e-05 0.0
0.0 0.0 -2.9872444e-06 -1.3735277e-05 1.454556e-06 2.7618584e-05 0.0001105529 0.00012545237
0.0 0.0 0.0 6.5225904e-06 2.4678639e-05 2.756703e-05 4.2585057e-06 1.846885e-05
7.978528e-06 0.0 0.0 0.0 0.0 0.0 0.0 0.0
0.0 0.0 0.0 0.0 0.0 -1.4203765e-06 -6.536985e-06 8.401346e-07
0.0 0.0 0.0 1.9767998e-05 8.145358e-05 4.731058e-05 -1.7977108e-06 -9.096461e-06
1.2096998e-05 0.0 0.0 0.0 -1.011851e-05 -4.128978e-05 -3.294456e-05 1.529436e-05
6.0486764e-05 5.968192e-05 2.183586e-06 6.769455e-06 2.0098367e-05 0.0 0.0 0.0
0.0 0.0 0.0 2.0840931e-05 8.1051076e-05 9.867868e-05 0.0 0.0
0.0 0.0 0.0 0.0 4.1569333e-06 1.6558988e-05 2.3187351e-05 0.0
0.0 0.0 0.0 0.0 0.0 0.0 0.0 0.0
0.0 0.0 0.0 0.0 0.0 0.0 -3.4448092e-06 -1.37971565e-05
-2.2024662e-05 -7.706105e-06 -3.1205534e-05 -1.9361754e-05 1.9240111e-05 7.2202834e-05 9.5546304e-05 0.0
0.0 0.0 -1.12007365e-05 -4.4711953e-05 -3.513129e-05 0.0 0.0 0.0
-4.171993e-06 -1.6972914e-05 -1.3687457e-05 0.0 0.0 0.0 0.0 0.0
0.0 0.0 0.0 0.0 -1.1180193e-05 -4.3004442e-05 -4.9103324e-05 1.4072471e-05
5.6292385e-05 6.4964835e-05 6e-45 6e-45 6e-45 -7.629462e-06 -3.108634e-05 -3.806611e-05
0.0 0.0 0.0 7.3645565e-06 2.5002348e-05 5.060401e-05 0.0 0.0
0.0 0.0 0.0 0.0 5.2111473e-06 1.8976216e-05 3.008459e-05 -3.1184215e-06
-1.058301e-05 -2.9236271e-05 0.0 0.0 0.0 0.0 0.0 0.0

exp_avg_sq f4 [64, 3]
00000000: d93b 2a32 09a9 1334 cb60 5635 3565 e92f
00000010: ef61 c631 05be 1233 6982 c030 251d a732
00000020: 717b ef33 4df3 6d31 1556 4e33 e618 9534
00000030: 28d9 292f 7554 0f31 7d94 5332 7313 072f
00000040: 0a78 e730 e41e 2432 0000 0000 0000 0000
00000050: 0000 0000 38f5 ff30 692d de32 cbe4 1f34
00000060: 0000 0000 0000 0000 0000 0000 0000 0000
00000070: 0000 0000 0000 0000 ddc0 fc30 39e5 da32
00000080: 879d 1d34 4367 9830 4acd 8432 7682 bf33
00000090: 1197 5031 2776 3533 beda 8234 0000 0000
000000a0: 0000 0000 0000 0000 0d91 d530 262c b932
000000b0: 8e5d 0534 5ca0 0433 f608 e634 f42e 2636
000000c0: 0000 0000 0000 0000 0000 0000 88bc d830
000000d0: 1111 bc32 8614 0634 2024 0531 0240 e732
000000e0: c89f 2734 0000 0000 0000 0000 0000 0000
000000f0: 0000 0000 0000 0000 0000 0000 0000 0000
00000100: 0000 0000 0000 0000 0000 0000 0000 0000
00000110: 0000 0000 56f8 0730 9fee e931 71f7 2533
00000120: 0000 0000 0000 0000 0000 0000 16c5 0f33
00000130: 9fd0 f934 d177 3436 a558 fc30 c43e da32
00000140: c156 1e34 0000 0000 0000 0000 0000 0000
00000150: 8c2b d231 36c5 b633 d962 0435 49db 3132
00000160: c3b6 1a34 2670 5f35 f711 2e2f 0770 1231
00000170: 42ac 5632 0000 0000 0000 0000 0000 0000
00000180: 0000 0000 0000 0000 0000 0000 c8f3 6b32
00000190: 144e 4d34 60f1 9435 0000 0000 0000 0000
000001a0: 0000 0000 0000 0000 0000 0000 0000 0000
000001b0: b4d0 0530 70a9 e631 2ec7 2633 0000 0000
000001c0: 0000 0000 0000 0000 0000 0000 0000 0000
000001d0: 0000 0000 0000 0000 0000 0000 0000 0000
000001e0: 0000 0000 0000 0000 0000 0000 0000 0000
000001f0: 0000 0000 0000 0000 554f c92f 5618 ac31
00000200: d8cb f932 680e 9631 677d 8233 3ccb bb34
00000210: a754 2332 dcd4 0d34 17aa 4b35 0000 0000
00000220: 0000 0000 0000 0000 8755 f231 56be d233
00000230: 5a30 1735 0000 0000 0000 0000 0000 0000
00000240: d0a6 9d30 6483 8832 b29d c233 0000 0000
00000250: 0000 0000 0000 0000 0000 0000 0000 0000
00000260: 0000 0000 0000 0000 0000 0000 0000 0000
00000270: 0ae2 9231 e57b 7f33 6499 b734 55c5 0032
00000280: 1aa0 df33 e30a 2235 ce0c ee16 9729 aa18
00000290: b021 5e1a d449 1c31 a3e1 0633 f58f 4334
000002a0: 0000 0000 0000 0000 0000 0000 6088 d52f
000002b0: ab60 b631 4190 0233 0000 0000 0000 0000
000002c0: 0000 0000 0000 0000 0000 0000 0000 0000
000002d0: 50cc 1330 6042 0032 0010 3a33 50db 112f
000002e0: 5401 f530 0c49 3232 0000 0000 0000 0000
000002f0: 0000 0000 0000 0000 0000 0000 0000 0000
9.90891e-09 1.3751936e-07 7.9862065e-07 4.2454365e-10 5.773692e-09 3.4166096e-08 1.4006903e-09 1.9454612e-08
1.11517586e-07 3.462634e-09 4.8041404e-08 2.777153e-07 1.544761e-10 2.0857247e-09 1.2315579e-08 1.2285088e-10
1.6841579e-09 9.55308e-09 0.0 0.0 0.0 1.8623387e-09 2.5864852e-08 1.4891263e-07
0.0 0.0 0.0 0.0 0.0 0.0 1.8390228e-09 2.5482779e-08
1.4679073e-07 1.1088804e-09 1.5460177e-08 8.917861e-08 3.0353855e-09 4.2249805e-08 2.4373543e-07 0.0
0.0 0.0 1.5539016e-09 2.1556911e-08 1.2420625e-07 3.087949e-08 4.2847358e-07 2.4763258e-06
0.0 0.0 0.0 1.5769652e-09 2.1893841e-08 1.2487189e-07 1.9374582e-09 2.6921047e-08
1.5611215e-07 0.0 0.0 0.0 0.0 0.0 0.0 0.0
0.0 0.0 0.0 0.0 0.0 4.946562e-10 6.8083206e-09 3.8642103e-08
0.0 0.0 0.0 3.347403e-08 4.6531656e-07 2.6891832e-06 1.8360607e-09 2.5407083e-08
1.4746458e-07 0.0 0.0 0.0 6.116755e-09 8.510908e-08 4.9317674e-07 1.0352616e-08
1.4408856e-07 8.323717e-07 1.583159e-10 2.1309476e-09 1.2495606e-08 0.0 0.0 0.0
0.0 0.0 0.0 1.373423e-08 1.9120517e-07 1.1097109e-06 0.0 0.0
0.0 0.0 0.0 0.0 4.8681703e-10 6.713144e-09 3.883104e-08 0.0
0.0 0.0 0.0 0.0 0.0 0.0 0.0 0.0
0.0 0.0 0.0 0.0 0.0 0.0 3.6618056e-10 5.0086255e-09
2.9080113e-08 4.3672124e-09 6.076407e-08 3.4979337e-07 9.507096e-09 1.3209086e-07 7.5870906e-07 0.0
0.0 0.0 7.0528503e-09 9.813509e-08 5.6322244e-07 0.0 0.0 0.0
1.1470664e-09 1.5892233e-08 9.0625136e-08 0.0 0.0 0.0 0.0 0.0
0.0 0.0 0.0 0.0 4.274857e-09 5.9484496e-08 3.4198013e-07 7.495449e-09
1.0413369e-07 6.0365545e-07 3.8459055e-25 4.3985965e-24 4.5935737e-23 2.2742954e-09 3.140452e-08 1.8213161e-07
0.0 0.0 0.0 3.8841375e-10 5.307887e-09 3.0399182e-08 0.0 0.0
0.0 0.0 0.0 0.0 5.3768634e-10 7.4656725e-09 4.332105e-08 1.3265589e-10
1.7826474e-09 1.0377573e-08 0.0 0.0 0.0 0.0 0.0 0.0

exp_avg f4 [64]
00000000: 6dd3 1ab8 e3be 7437 3e69 72b7 af6f a737
00000010: efc0 20b5 8968 f235 0000 0000 dd32 67b7
00000020: 0000 0000 0000 0000 3ac6 3ab7 8d78 49b7
00000030: 32bd afb7 0000 0000 459a 01b7 9b13 8c38
00000040: 0000 0000 03cd 7237 7bc4 3437 0000 0000
00000050: 0000 0000 0000 0000 0000 0000 df79 68b6
00000060: 0000 0000 84c1 4638 68ba 9eb6 0000 0000
00000070: d159 cdb7 6249 1738 1ef9 9136 0000 0000
00000080: 0000 0000 046f 4e38 0000 0000 0000 0000
00000090: 49f8 2c37 0000 0000 0000 0000 0000 0000
000000a0: 0000 0000 0000 0000 a108 12b7 5147 97b7
000000b0: 9d5d 3638 0000 0000 958e dab7 0000 0000
000000c0: 0cbb 24b7 0000 0000 0000 0000 0000 0000
000000d0: b43a d7b7 22b5 0f38 0400 0000 0c0c a1b7
000000e0: 0000 0000 3123 8137 0000 0000 0000 0000
000000f0: fa7f 4237 f222 eeb6 0000 0000 0000 0000
-3.6913367e-05 1.4587978e-05 -1.4448828e-05 1.9959958e-05 -5.98854e-07 1.8060829e-06 0.0 -1.37805155e-05
0.0 0.0 -1.1132617e-05 -1.20086015e-05 -2.0949727e-05 0.0 -7.724918e-06 6.679372e-05
0.0 1.4472057e-05 1.0774583e-05 0.0 0.0 0.0 0.0 -3.4641632e-06
0.0 4.7387104e-05 -4.7304675e-06 0.0 -2.4479728e-05 3.606955e-05 4.350338e-06 0.0
0.0 4.921762e-05 0.0 0.0 1.0309807e-05 0.0 0.0 0.0
0.0 0.0 -8.704287e-06 -1.8033812e-05 4.3479366e-05 0.0 -2.605402e-05 0.0
-9.818712e-06 0.0 0.0 0.0 -2.5657333e-05 3.426255e-05 6e-45 -1.9198305e-05
0.0 1.5394386e-05 0.0 0.0 1.1593098e-05 -7.097021e-06 0.0 0.0

exp_avg_sq f4 [64]
00000000: d3a2 8e33 7a16 4031 de69 2132 6d38 c732
00000010: c49b 8a30 b3d6 5f30 0000 0000 928f 5632
00000020: 0000 0000 0000 0000 1556 5332 2349 0032
00000030: ce4d af32 0000 0000 7abf 3232 4815 5e34
00000040: 0000 0000 9793 3532 6841 5f32 0000 0000
00000050: 0000 0000 0000 0000 0000 0000 93ad 6131
00000060: 0000 0000 4c41 7134 e79a 5232 0000 0000
00000070: 2782 3033 e86f 9533 3f78 8d30 0000 0000
00000080: 0000 0000 cc55 c633 0000 0000 0000 0000
00000090: 99d6 5e31 0000 0000 0000 0000 0000 0000
000000a0: 0000 0000 0000 0000 f549 2631 0301 fc32
000000b0: 9c09 8933 0000 0000 d873 4b33 0000 0000
000000c0: 26bd 0332 0000 0000 0000 0000 0000 0000
000000d0: 4bb9 f632 ebfe 5733 c67b 4018 1750 8232
000000e0: 0000 0000 0d47 3031 0000 0000 0000 0000
000000f0: 48ec 7731 fca0 6c30 0000 0000 0000 0000
6.642008e-08 2.7952454e-09 9.395505e-09 2.3192309e-08 1.0085093e-09 8.1432033e-10 0.0 1.24890835e-08
0.0 0.0 1.2301389e-08 7.46721e-09 2.0408063e-08 0.0 1.04045e-08 2.0683103e-07
0.0 1.0569145e-08 1.299518e-08 0.0 0.0 0.0 0.0 3.2840475e-09
0.0 2.2468629e-07 1.22588295e-08 0.0 4.1096566e-08 6.958709e-08 1.0293276e-09 0.0
0.0 9.2357e-08 0.0 0.0 3.2427236e-09 0.0 0.0 0.0
0.0 0.0 2.419822e-09 2.9337121e-08 6.3813076e-08 0.0 4.736998e-08 0.0
7.668211e-09 0.0 0.0 0.0 2.872243e-08 5.0290435e-08 2.4877908e-24 1.5170412e-08
0.0 2.5651758e-09 0.0 0.0 3.607754e-09 8.608507e-10 0.0 0.0

exp_avg f4 [15, 64]
00000000: c3fa 83b7 6e00 9cb7 c46c 96b8 8620 04b8
00000010: 0003 e4b7 139b 72b7 0000 0000 4c0a dab7
00000020: 0000 0000 0000 0000 4ff6 68b8 9e08 54b8
00000030: 5dac 95b7 0000 0000 e471 6fb8 490d a2b6
00000040: 0000 0000 e3c7 32b8 164d f3b7 0000 0000
00000050: 0000 0000 0000 0000 0000 0000 0ea8 35b8
00000060: 0000 0000 ece9 8bb7 0fe1 40b7 0000 0000
00000070: 1778 92b7 1ff9 b5b7 4996 18b8 0000 0000
00000080: 0000 0000 b88d 84b7 0000 0000 0000 0000
00000090: ea81 25b8 0000 0000 0000 0000 0000 0000
000000a0: 0000 0000 0000 0000 afa3 fbb7 0562 5bb8
000000b0: a105 28b7 0000 0000 dc62 bab7 0000 0000
000000c0: f8b4 09b8 0000 0000 0000 0000 0000 0000
000000d0: 3ede bdb7 1a39 7ab7 0400 0080 5760 67b8
000000e0: 0000 0000 e644 77b7 0000 0000 0000 0000
000000f0: c622 0ab8 655b c5b7 0000 0000 0000 0000
00000100: 2823 4a37 07ae 8c37 147f 8c38 609c ee37
00000110: 77e1 d637 b4f3 5637 0000 0000 526f d637
00000120: 0000 0000 0000 0000 90b3 5b38 9e8a 4638
00000130: 0d5d 8337 0000 0000 f134 5d38 8777 ab36
00000140: 0000 0000 5fa1 2d38 67f4 db37 0000 0000
00000150: 0000 0000 0000 0000 0000 0000 d7be 2238
00000160: 0000 0000 9b4f 9737 56c8 0137 0000 0000
00000170: 512e 9637 51af ab37 8ce8 1238 0000 0000
00000180: 0000 0000 f874 8037 0000 0000 0000 0000
00000190: 5cab 2638 0000 0000 0000 0000 0000 0000
000001a0: 0000 0000 0000 0000 d2e3 fa37 8451 4638
000001b0: 1b31 0337 0000 0000 2e88 b737 0000 0000
000001c0: b5d1 0038 0000 0000 0000 0000 0000 0000
000001d0: 9768 b037 5703 6737 0400 0080 49b9 5b38
000001e0: 0000 0000 67bf 4337 0000 0000 0000 0000
000001f0: 69b7 fa37 0ff0 bd37 0000 0000 0000 0000
00000200: e8f6 1939 2ba2 a838 79b7 8c39 5748 2539
00000210: b661 c238 ed65 a938 0000 0000 5f8e 4038
00000220: 0000 0000 0000 0000 c394 3639 678f 3939
00000230: 4931 dd38 0000 0000 1144 7b39 c0d0 0337
00000240: 0000 0000 78c6 c538 48d4 0b39 0000 0000
00000250: 0000 0000 0000 0000 0000 0000 d28a 5f39
00000260: 0000 0000 0613 04b8 2228 1b39 0000 0000
00000270: d627 6337 16aa 8538 ad5c d038 0000 0000
00000280: 0000 0000 ec5d fc37 0000 0000 0000 0000
00000290: 0de5 4a38 0000 0000 0000 0000 0000 0000
000002a0: 0000 0000 0000 0000 2f2f 1338 cfa2 8239
000002b0: b064 c438 0000 0000 0801 4d38 0000 0000
000002c0: a93a f438 0000 0000 0000 0000 0000 0000
000002d0: 7b5e be38 3d53 9638 0400 0000 07a1 2c39
000002e0: 0000 0000 ebb9 0139 0000 0000 0000 0000
000002f0: b8f0 2239 bd1e 9338 0000 0000 0000 0000
00000300: f931 f1b8 bc90 57b8 ce04 24b9 276a e3b8
00000310: 9927 50b8 48d1 74b8 0000 0000 ca24 16b7
00000320: 0000 0000 0000 0000 402c bab8 710f ceb8
00000330: 2b07 9ab8 0000 0000 caa5 18b9 5abb bdb5
00000340: 0000 0000 c389 15b8 93d3 bab8 0000 0000
00000350: 0000 0000 0000 0000 0000 0000 7c4c 18b9
00000360: 0000 0000 9551 4938 26fd ffb8 0000 0000
00000370: b68d 7037 9bf1 19b8 d5f5 3ab8 0000 0000
00000380: 0000 0000 5b1c 50b7 0000 0000 0000 0000
00000390: 1608 b236 0000 0000 0000 0000 0000 0000
000003a0: 0000 0000 0000 0000 7afc 9236 7cce 2bb9
000003b0: abf3 a2b8 0000 0000 cf77 4cb7 0000 0000
000003c0: a5e2 8ab8 0000 0000 0000 0000 0000 0000
000003d0: e7c9 5ab8 34e8 4cb8 0400 0080 0755 acb8
000003e0: 0000 0000 d6b2 ceb8 0000 0000 0000 0000
000003f0: 3335 d5b8 f4d3 13b8 0000 0000 0000 0000
-1.5733187e-05 -1.859685e-05 -7.1728165e-05 -3.1501542e-05 -2.7181115e-05 -1.446043e-05 0.0 -2.599242e-05
0.0 0.0 -5.5542503e-05 -5.0552764e-05 -1.7842447e-05 0.0 -5.708811e-05 -4.829523e-06
0.0 -4.2624666e-05 -2.9003753e-05 0.0 0.0 0.0 0.0 -4.3310276e-05
0.0 -1.667902e-05 -1.1496492e-05 0.0 -1.7460477e-05 -2.1692887e-05 -3.6379588e-05 0.0
0.0 -1.580162e-05 0.0 0.0 -3.9460057e-05 0.0 0.0 0.0
0.0 0.0 -2.9997753e-05 -5.2304957e-05 -1.0014891e-05 0.0 -2.2218963e-05 0.0
-3.2831886e-05 0.0 0.0 0.0 -2.2634045e-05 -1.4914456e-05 -6e-45 -5.5164415e-05
0.0 -1.4738389e-05 0.0 0.0 -3.293415e-05 -2.3526789e-05 0.0 0.0
1.2048324e-05 1.6770338e-05 6.69939e-05 2.8444629e-05 2.5615778e-05 1.28121355e-05 0.0 2.5562626e-05
0.0 0.0 5.23809e-05 4.7335976e-05 1.5659747e-05 0.0 5.273981e-05 5.110112e-06
0.0 4.1396703e-05 2.6220643e-05 0.0 0.0 0.0 0.0 3.8801543e-05
0.0 1.8037672e-05 7.7356435e-06 0.0 1.7902961e-05 2.0466427e-05 3.502569e-05 0.0
0.0 1.5313257e-05 0.0 0.0 3.9737075e-05 0.0 0.0 0.0
0.0 0.0 2.990841e-05 4.7282796e-05 7.819642e-06 0.0 2.1878714e-05 0.0
3.0712883e-05 0.0 0.0 0.0 2.1029538e-05 1.3769451e-05 -6e-45 5.238623e-05
0.0 1.166747e-05 0.0 0.0 2.988773e-05 2.2642342e-05 0.0 0.0
0.00014683197 8.0410704e-05 0.0002683958 0.00015762575 9.268841e-05 8.077533e-05 0.0 4.590896e-05
0.0 0.0 0.0001741229 0.00017696396 0.00010547281 0.0 0.00023962582 7.856812e-06
0.0 9.43066e-05 0.00013335154 0.0 0.0 0.0 0.0 0.00021318652
0.0 -3.148897e-05 0.00014796903 0.0 1.3539529e-05 6.373615e-05 9.935475e-05 0.0
0.0 3.0084477e-05 0.0 0.0 4.8373873e-05 0.0 0.0 0.0
0.0 0.0 3.5091474e-05 0.00024916834 9.364763e-05 0.0 4.887677e-05 0.0
0.00011645753 0.0 0.0 0.0 9.0775044e-05 7.168062e-05 6e-45 0.00016463186
0.0 0.00012371659 0.0 0.0 0.00015539199 7.015232e-05 0.0 0.0
-0.00011501084 -5.139479e-05 -0.00015642049 -0.00010843976 -4.9627943e-05 -5.836904e-05 0.0 -8.949262e-06
0.0 0.0 -8.877413e-05 -9.825722e-05 -7.3446274e-05 0.0 -0.00014557611 -1.4136124e-06
0.0 -3.565267e-05 -8.90858e-05 0.0 0.0 0.0 0.0 -0.00014524342
0.0 4.7998114e-05 -0.000122065 0.0 1.4338109e-05 -3.6703055e-05 -4.4574805e-05 0.0
0.0 -1.2404368e-05 0.0 0.0 5.3057547e-06 0.0 0.0 0.0
0.0 0.0 4.380531e-06 -0.00016384752 -7.770149e-05 0.0 -1.2187243e-05 0.0
-6.6225686e-05 0.0 0.0 0.0 -5.2163286e-05 -4.8853646e-05 -6e-45 -8.217437e-05
0.0 -9.856156e-05 0.0 0.0 -0.000101665406 -3.5244928e-05 0.0 0.0

exp_avg_sq f4 [15, 64]
00000000: e569 f631 c7f1 ed31 9515 c633 fc60 ad32
00000010: deb2 5a32 f5ff 9c31 0000 0000 e595 2f32
00000020: 0000 0000 0000 0000 8e9f 6433 e534 4233
00000030: c9f5 e531 0000 0000 9fbf 7f33 4e3c 9a2f
00000040: 0000 0000 1c50 fc32 fa38 9232 0000 0000
00000050: 0000 0000 0000 0000 0000 0000 b75e 2633
00000060: 0000 0000 0c12 4e31 05cb a731 0000 0000
00000070: 702f 7c31 029d 1632 3b79 b832 0000 0000
00000080: 0000 0000 3b34 9531 0000 0000 0000 0000
00000090: f42b bc32 0000 0000 0000 0000 0000 0000
000000a0: 0000 0000 0000 0000 8b99 6332 000d 6833
000000b0: 069f 5431 0000 0000 3416 f131 0000 0000
000000c0: 04da a532 0000 0000 0000 0000 0000 0000
000000d0: b5cf 1a32 cb74 9331 ac09 2910 9ee4 5e33
000000e0: 0000 0000 1df2 d531 0000 0000 0000 0000
000000f0: 2531 b632 7738 1d32 0000 0000 0000 0000
00000100: f8a2 2532 a62d 1f32 3b7c 0434 ae27 e832
00000110: 1338 9232 893f d231 0000 0000 a752 6a32
00000120: 0000 0000 0000 0000 efcf 9833 71dc 8133
00000130: 0435 1a32 0000 0000 ed2b ab33 e9f9 cc2f
00000140: 0000 0000 d666 2833 9cb1 c332 0000 0000
00000150: 0000 0000 0000 0000 0000 0000 9bc1 5e33
00000160: 0000 0000 8ea2 8831 ce16 e231 0000 0000
00000170: ee1b a831 3a1b 4932 4b74 f632 0000 0000
00000180: 0000 0000 bff5 c631 0000 0000 0000 0000
00000190: 36dd fa32 0000 0000 0000 0000 0000 0000
000001a0: 0000 0000 0000 0000 a3b8 9732 555f 9b33
000001b0: 5ab9 8e31 0000 0000 fe09 2132 0000 0000
000001c0: 40ca dd32 0000 0000 0000 0000 0000 0000
000001d0: e13e 4f32 de5f c531 3230 2414 25f1 9433
000001e0: 0000 0000 0b8d 0f32 0000 0000 0000 0000
000001f0: 7af2 f332 9f10 5232 0000 0000 0000 0000
00000200: ec3d ba34 69fe af34 01d6 9236 cfb2 8135
00000210: 7e89 2135 bc00 6c34 0000 0000 e3bc 0235
00000220: 0000 0000 0000 0000 76d1 2836 8497 0f36
00000230: 7d89 aa34 0000 0000 4a0b 3d36 2f1f 7932
00000240: 0000 0000 df67 bc35 25e1 5935 0000 0000
00000250: 0000 0000 0000 0000 0000 0000 a7d3 f735
00000260: 0000 0000 85ef 2634 abb4 8234 0000 0000
00000270: b567 3c34 a88a e234 2ae4 8835 0000 0000
00000280: 0000 0000 cde6 6134 0000 0000 0000 0000
00000290: c6c5 8d35 0000 0000 0000 0000 0000 0000
000002a0: 0000 0000 0000 0000 0cd2 2a35 cc17 2c36
000002b0: 5805 2534 0000 0000 17c0 b134 0000 0000
000002c0: a3d4 7535 0000 0000 0000 0000 0000 0000
000002d0: 84b0 e334 5f54 5e34 7339 1a10 c82c 2536
000002e0: 0000 0000 4ac3 a234 0000 0000 0000 0000
000002f0: e82a 8735 4daf ea34 0000 0000 0000 0000
00000300: f6af b534 1b9c ab34 4c24 8f36 c36f 7c35
00000310: 669b 1d35 9181 6534 0000 0000 a322 ff34
00000320: 0000 0000 0000 0000 e7b8 2436 6b0d 0c36
00000330: 1351 a634 0000 0000 9262 3836 6fcb 7132
00000340: 0000 0000 6394 b735 2626 5435 0000 0000
00000350: 0000 0000 0000 0000 0000 0000 ab59 f135
00000360: 0000 0000 dc92 2234 56db 7e34 0000 0000
00000370: b074 3834 2925 dc34 a183 8535 0000 0000
00000380: 0000 0000 b960 5b34 0000 0000 0000 0000
00000390: fe3c 8a35 0000 0000 0000 0000 0000 0000
000003a0: 0000 0000 0000 0000 bd90 2635 6bbd 2736
000003b0: c810 2034 0000 0000 e4c9 ad34 0000 0000
000003c0: bba6 6f35 0000 0000 0000 0000 0000 0000
000003d0: 834e de34 d321 5834 990a 7d13 b712 2136
000003e0: 0000 0000 6a57 9e34 0000 0000 0000 0000
000003f0: 94bd 8335 dda2 e434 0000 0000 0000 0000
7.171581e-09 6.9250947e-09 9.224019e-08 2.0183954e-08 1.272994e-08 4.5692965e-09 0.0 1.0220423e-08
0.0 0.0 5.32305e-08 4.5217252e-08 6.6927197e-09 0.0 5.9546093e-08 2.8055286e-10
0.0 2.937309e-08 1.7022547e-08 0.0 0.0 0.0 0.0 3.873603e-08
0.0 2.9987204e-09 4.8834203e-09 0.0 3.6697791e-09 8.766849e-09 2.1475548e-08 0.0
0.0 4.3424087e-09 0.0 0.0 2.1906068e-08 0.0 0.0 0.0
0.0 0.0 1.3248051e-08 5.4028533e-08 3.0940455e-09 0.0 7.0165473e-09 0.0
1.930767e-08 0.0 0.0 0.0 9.011207e-09 4.291541e-09 3.3336824e-29 5.189633e-08
0.0 6.226641e-09 0.0 0.0 2.1209937e-08 9.151441e-09 0.0 0.0
9.641319e-09 9.265397e-09 1.2338653e-07 2.7026399e-08 1.7022137e-08 6.1190275e-09 0.0 1.3639386e-08
0.0 0.0 7.1158745e-08 6.047129e-08 8.976034e-09 0.0 7.970798e-08 3.7284956e-10
0.0 3.9209077e-08 2.2781755e-08 0.0 0.0 0.0 0.0 5.1864486e-08
0.0 3.9766013e-09 6.5800583e-09 0.0 4.8926188e-09 1.17059304e-08 2.8691053e-08 0.0
0.0 5.7904965e-09 0.0 0.0 2.9204426e-08 0.0 0.0 0.0
0.0 0.0 1.7662677e-08 7.235091e-08 4.153816e-09 0.0 9.373705e-09 0.0
2.5819759e-08 0.0 0.0 0.0 1.2063283e-08 5.7443534e-09 8.289389e-27 6.935651e-08
0.0 8.355765e-09 0.0 0.0 2.8399189e-08 1.2227388e-08 0.0 0.0
3.4690254e-07 3.2781398e-07 4.3760524e-06 9.663289e-07 6.017725e-07 2.197948e-07 0.0 4.870364e-07
0.0 0.0 2.5155873e-06 2.1396854e-06 3.1765003e-07 0.0 2.8169766e-06 1.4500798e-08
0.0 1.4037322e-06 8.116643e-07 0.0 0.0 0.0 0.0 1.8464533e-06
0.0 1.5547091e-07 2.434584e-07 0.0 1.7546593e-07 4.2196666e-07 1.0199194e-06 0.0
0.0 2.1038723e-07 0.0 0.0 1.0562878e-06 0.0 0.0 0.0
0.0 0.0 6.3635594e-07 2.5643849e-06 1.5368767e-07 0.0 3.3108583e-07 0.0
9.157904e-07 0.0 0.0 0.0 4.2410477e-07 2.0706055e-07 3.0415402e-29 2.4612982e-06
0.0 3.0316943e-07 0.0 0.0 1.0070771e-06 4.3713445e-07 0.0 0.0
3.3841906e-07 3.1964814e-07 4.2659576e-06 9.403995e-07 5.871319e-07 2.1374423e-07 0.0 4.7522653e-07
0.0 0.0 2.4545532e-06 2.0869436e-06 3.09789e-07 0.0 2.7475512e-06 1.4074302e-08
0.0 1.3677749e-06 7.903167e-07 0.0 0.0 0.0 0.0 1.7981996e-06
0.0 1.5140853e-07 2.3735387e-07 0.0 1.7178786e-07 4.100523e-07 9.947581e-07 0.0
0.0 2.0431152e-07 0.0 0.0 1.0299552e-06 0.0 0.0 0.0
0.0 0.0 6.205044e-07 2.4995195e-06 1.4907266e-07 0.0 3.2370656e-07 0.0
8.9277063e-07 0.0 0.0 0.0 4.1407847e-07 2.0128873e-07 3.1938314e-27 2.4001763e-06
0.0 2.9493395e-07 0.0 0.0 9.815435e-07 4.2586808e-07 0.0 0.0

exp_avg f4 [15]
00000000: d3ad ccb7 f3ab af37 1324 1239 39aa d6b8
00000010: d5e7 0633 850e c337 2463 5536 d71c 09b5
00000020: f016 0238 0000 0000 0000 0000 0000 0000
00000030: 0000 0000 0000 0000 0000 0000
-2.4399638e-05 2.0941696e-05 0.00013937084 -0.000102360216 3.1410156e-08 2.3252573e-05 3.179718e-06 -5.1078445e-07
3.1015777e-05 0.0 0.0 0.0 0.0 0.0 0.0

exp_avg_sq f4 [15]
00000000: f9b6 7132 ead8 a132 240c 3535 6b31 3035
00000010: 456c 0930 fbe1 7f32 b55c 7431 7c37 0a32
00000020: 1bc9 a633 0000 0000 0000 0000 0000 0000
00000030: 0000 0000 0000 0000 0000 0000
1.40696494e-08 1.8841508e-08 6.744542e-07 6.563702e-07 4.999417e-10 1.48943355e-08 3.555937e-09 8.045273e-09
7.766558e-08 0.0 0.0 0.0 0.0 0.0 0.0
