Op_problems/problem_ED_Column/checkpoints/mlp_checkpoint_epoch_1000_loss_0.000110.pth (torch, 21427 bytes, 12 tensors)

nn.0.weight f4 [64, 3]
000000 31 16 4f 3f 45 3f cd 3e fb f2 24 be f5 6d a5 3e
       0.80893236 0.40087333 -0.16108315 0.32310453
000010 49 9a 12 be e3 46 aa 3d 25 2c 27 3e 41 5a dd 3e
       -0.14316668 0.08314302 0.16325434 0.4323292
000020 f4 eb 10 3f 0a b3 14 bf c7 b9 2d 3f 51 fe 13 3e
       0.56610036 -0.5808569 0.678616 0.14452483
000030 2f 6f a5 3e 9b dd 10 3d 0d d9 71 3e 13 33 cc be
       0.3231139 0.03536759 0.23617955 -0.39882717
000040 60 03 bf 3e b6 c4 1e 3d db ff 89 be 95 b2 16 3e
       0.37307262 0.038761817 -0.26953015 0.14716561
000050 fe 31 88 be e3 9b e5 3d bc b3 ae be f6 48 b0 3e
       -0.2660064 0.11211374 -0.341215 0.34430665
000060 28 57 e9 be b5 46 88 be 1c f1 26 be f7 bc b1 be
       -0.45574307 -0.26616445 -0.16302913 -0.3471448
000070 21 33 5f 3d 0a fb 11 bf 01 83 59 3f 0a fc d6 be
       0.05449212 -0.5702368 0.8496552 -0.41989166
000080 be f2 fc 3e 6e f4 07 3f 5c c2 4e bd d3 10 d3 3e
       0.49403948 0.53107345 -0.050478324 0.41223773
000090 ac ad b9 3e ee 49 cc 3e 0b 59 fb 3c 63 73 3a be
       0.36265314 0.39900154 0.030682107 -0.18208079
0000a0 fb d8 1e 3e b6 52 20 be 34 9f 23 3f 76 a1 15 3f
       0.15512459 -0.15656552 0.639148 0.58449495
0000b0 b5 c5 c4 3e ec 76 0f bf 1e ec b2 3e ed 37 d0 3d
       0.38432088 -0.56040835 0.34945768 0.10166917
0000c0 23 1e 96 3e f6 2b b4 be 64 4f 12 bf 14 a5 f3 be
       0.29319867 -0.3518979 -0.5715239 -0.47586882
0000d0 d0 ee ab be c7 be 02 3f d9 fc 42 be 50 f7 56 3e
       -0.33580637 0.51072353 -0.19041766 0.2099278
0000e0 7b 7e 0d 3e c9 8d 24 bc 74 57 e7 3e ba 07 d2 be
       0.1381778 -0.01004357 0.4518391 -0.4102152
0000f0 f7 e5 14 3d db c2 c9 be bd 4c 36 3e e2 99 4b be
       0.036352124 -0.39406475 0.17802711 -0.1988292
000100 c5 27 35 3e 83 58 f6 bd c6 2b f5 3e 65 34 af be
       0.17690952 -0.12028601 0.4788496 -0.3421966
000110 18 4c b0 be 2d 02 d9 bd 79 d6 db 3e 9e 57 2b 3e
       -0.34433055 -0.10596118 0.42937067 0.16732642
000120 e6 38 0e 3f 54 f4 f3 be d7 99 12 bf b6 c1 62 bf
       0.5555557 -0.47647345 -0.5726599 -0.8857683
000130 f7 cb cb be c8 77 d5 3e af 7c 15 3f 34 78 22 3f
       -0.3980405 0.41692948 0.5839338 0.63464665
000140 1e 4e 6f be 2b 84 c9 be 36 d7 9c 3e e8 f7 6e be
       -0.23369643 -0.3935865 0.30632943 -0.23336756
000150 61 8e 0d 3f 50 de 38 be ae 47 9c 3e 28 1c 47 bf
       0.5529538 -0.18053555 0.30523437 -0.7777734
000160 f8 dd 0e be 96 27 4c 3e b7 c3 39 3d dd 3f 81 bc
       -0.13951862 0.19936976 0.045352664 -0.015777523
000170 6e 3e cb 3e 31 f4 c8 3e 19 5d d6 be 2f d0 9d be
       0.39696068 0.39248803 -0.41867903 -0.30822894
000180 1c 56 07 3f 0a 7e 47 be ab 97 51 be bc fa 39 bf
       0.5286577 -0.19481674 -0.20468013 -0.72648215
000190 e4 13 75 be d3 5d 42 3e 0c 12 9c bd 06 93 d6 be
       -0.23933369 0.18981104 -0.0762063 -0.41909045
0001a0 51 e2 5d 3c d2 eb c9 be f4 c9 fa be 18 c7 a2 be
       0.013542728 -0.3943773 -0.48982203 -0.3179252
0001b0 13 76 15 bf e2 b5 78 be 94 07 1f 3f 0a 54 df 3d
       -0.5838329 -0.24288133 0.6212094 0.10904701
0001c0 a3 2f 36 3e 30 da 09 bf 00 25 c2 be 5d c9 44 be
       0.1779161 -0.5384855 -0.37918854 -0.19217439
0001d0 32 e5 b8 3d c8 0d 02 bf 2a bc 7e be eb f7 b0 be
       0.090280905 -0.5080228 -0.24876466 -0.34564146
0001e0 a5 b6 d1 3a 6a fd 5b be 5a df 23 bd 42 4f c8 be
       0.0015999867 -0.21483389 -0.040007927 -0.3912297
0001f0 94 e6 ca be 9d 74 ac be 4b 23 50 be 44 ac 0e bf
       -0.39629042 -0.3368272 -0.20325963 -0.55731606
000200 82 b6 e2 3e 53 a9 c1 3e 6d 78 11 3f 4c ee 79 3e
       0.44279867 0.37824497 0.5682438 0.2440731
000210 d1 19 1e bf f5 c0 10 3f 49 e7 ab bd fb 9f 62 be
       -0.6175814 0.5654443 -0.083937235 -0.2213134
000220 21 5f f5 be 48 f0 12 bf d1 9e 1e 3f ed 14 a2 bc
       -0.4792414 -0.5739789 0.61961085 -0.019785369
000230 19 96 95 3e 42 97 f2 be eb 76 db 3e 1d fd d8 be
       0.29216078 -0.47381026 0.42864165 -0.4238061
000240 f8 4e fa 3d 4b ac cc 3c 60 d0 87 3e c5 a4 ee 3e
       0.12222093 0.0249845 0.26526165 0.46610084
000250 2c a4 06 3f f3 63 ea be 91 c9 14 3e 18 4b 7e be
       0.52594256 -0.4577938 0.14530016 -0.24833333
000260 15 93 81 bd 94 41 dd be 5d a0 06 3f 4d f5 d8 be
       -0.06326882 -0.43214095 0.52588445 -0.4237465
000270 10 18 15 3f fa 89 22 3e 76 ee 27 3e 2b f9 27 bf
       0.5823984 0.15872946 0.1639956 -0.65614575
000280 b2 cd 10 3f 52 95 cc 3d 88 cd 8f 3d b1 47 03 bf
       0.56563866 0.09989418 0.07021624 -0.5128127
000290 36 0a 74 3e ec 8e 8b 3e 57 b8 87 be 42 d5 07 3f
       0.2383202 0.27257478 -0.26507828 0.5305978
0002a0 0e cf 03 3e e4 8c a3 be c9 9d 95 be c4 4a 93 bd
       0.12871954 -0.3194343 -0.29221943 -0.07191995
0002b0 f6 ad c5 3e 2d 71 de bd f1 a9 a8 be 5b 74 4a be
       0.38609284 -0.1086143 -0.32942155 -0.19770949
0002c0 7b d6 dc be ef d7 52 3e 12 cf e4 3e 7e 25 0b bf
       -0.43132386 0.20590185 0.44689232 -0.54354084
0002d0 a8 28 00 3e f2 b9 da 3e c1 81 28 3e b9 ab b9 be
       0.12515509 0.4271999 0.16455747 -0.36263826
0002e0 0e c4 75 3e e3 ef 82 3e 7a 11 5d 3e 7c c6 cf bd
       0.2400057 0.25573644 0.21588698 -0.1014528
0002f0 62 8d 1c be c8 fd 7c 3d cf e0 d0 bd 22 2e 30 be
       -0.15288308 0.061765462 -0.10199129 -0.17205098

nn.0.bias f4 [64]
000000 26 50 c1 3e e1 22 f7 3e 16 3d b8 bd b5 33 68 bd
       0.3775646 0.48268798 -0.08996026 -0.056689937
000010 71 49 72 bd d9 0f 21 3d fc 21 0e 3e fa 44 d1 3d
       -0.05915207 0.039321754 0.13880152 0.10218234
000020 eb 3d 06 bf 76 2d 5a be 45 55 00 3f 43 3f 67 3e
       -0.5243823 -0.21306404 0.5013011 0.22582726
000030 80 45 08 be 90 38 b2 be 38 c6 bc be b2 90 fe be
       -0.13307762 -0.3480878 -0.3686998 -0.4971977
000040 0e b6 40 be 3f 92 ab 3e 73 d4 c6 3e b2 7a 88 3e
       -0.18819448 0.33510014 0.3883396 0.2665611
000050 fe a5 02 bf c7 c3 b1 be c1 9a ba bd 66 b5 fe 3e
       -0.51034534 -0.3471968 -0.09111548 0.4974777
000060 82 0b ab 3d ff 76 99 bd df 26 81 3e 01 2e 61 be
       0.08351804 -0.074934 0.2522497 -0.21990205
000070 33 f0 01 bf cf 72 19 3f ab 1c 1b be d9 08 ed bd
       -0.5075714 0.5994081 -0.15147655 -0.11573953
000080 a2 08 13 bf ef 95 05 3f 96 f5 df 3e d6 76 57 3e
       -0.5743505 0.52181906 0.43742055 0.21041426
000090 9f fa ae be 12 df 11 bf 33 15 f0 be 75 6e dc 3e
       -0.34175584 -0.56981003 -0.46891174 0.43053022
0000a0 be eb 8d 3e 64 c0 f8 3e dc fc 9c 3e fd 56 17 3e
       0.2771892 0.48584282 0.30661666 0.14779277
0000b0 53 62 3b 3e e1 ce e0 be 5b a8 05 bf ff 3e 0a bf
       0.18299226 -0.43907836 -0.52210015 -0.54002374
0000c0 95 2e 29 3e bc 21 91 be b7 f6 ed bd 0c 1f aa be
       0.16521676 -0.2834605 -0.11619323 -0.33226812
0000d0 40 03 66 be 77 d4 b5 be 7d 38 c3 be 4c ce b4 3e
       -0.22462177 -0.3551366 -0.38129035 0.35313642
0000e0 59 b4 2f be bc 62 00 3f 0e aa 3d be 4d d8 d8 be
       -0.17158641 0.50150657 -0.18521902 -0.42352524
0000f0 97 90 84 bc 16 9e 98 be ec df 34 be e0 b4 0c bf
       -0.016182227 -0.2980811 -0.17663544 -0.54963493

nn.2.weight f4 [15, 64]
000000 65 00 2b 3d 44 f2 ce bd fd 29 8a 3d dc 82 7d 3d
       0.041748423 -0.10104802 0.0674629 0.061892375
000010 63 d6 a1 3d 77 cf c9 bd 48 1d b8 3d 57 98 40 bd
       0.07902219 -0.09854024 0.0898996 -0.047020283
000020 c8 fc 3d 3d d2 69 f0 3d 8e c7 a6 bc 58 bc 9d 3a
       0.04638365 0.117389336 -0.020358827 0.001203428
000030 96 81 12 bd 8c c1 d5 bd e7 91 57 3d 64 8a df bd
       -0.035768114 -0.10437307 0.052629378 -0.10915068
000040 be ec 9e 3d f0 52 da 3d aa 38 eb 3d 68 8a f1 bc
       0.07759999 0.1066035 0.11485417 -0.029484943
000050 20 57 d2 bd e8 39 e6 3c e0 6b 8d 3d 70 e1 ed bd
       -0.10270524 0.028103784 0.06905341 -0.116152644
000060 68 6e e8 bc b6 83 34 3c 16 5f a4 bd 68 03 7c bd
       -0.028372958 0.01101773 -0.08025949 -0.061526686
000070 f5 1c 86 bd ad 10 05 bc 31 c7 f3 bd c8 0c d2 3d
       -0.06548492 -0.008121652 -0.11903227 0.10256344
000080 e0 9c d6 3d 32 1e 28 3d 00 3b 69 bc 18 f5 50 bd
       0.1047914 0.04104442 -0.014235258 -0.05101499
000090 dd 51 b9 bd fe 1f f9 bd 04 4a 3e 3d 4a 8e 8c bd
       -0.09048817 -0.12164305 0.046457306 -0.06863077
0000a0 96 93 a4 bd a0 ca 1f bc 0b 49 c6 bc 60 4a 2a bd
       -0.08035962 -0.009752899 -0.024204751 -0.041574836
0000b0 4a e5 3d bd 00 34 d9 bc 2d 15 2b bd 0c 26 75 bd
       -0.046361245 -0.026514053 -0.04176824 -0.059850737
0000c0 c3 12 c1 bd 68 a8 d6 3d 54 e5 4c bd 64 ab 07 3d
       -0.09427407 0.1048134 -0.05002339 0.033122435
0000d0 e0 93 5f bd 2d 13 71 3c f8 b5 f3 3d 4a ad 83 3d
       -0.054584384 0.0147140445 0.11899942 0.06429537
0000e0 7a d9 dd bd 1a 79 ed 3c 94 01 f3 3d dc b2 06 3d
       -0.10832496 0.02898841 0.118655354 0.032885417
0000f0 92 48 95 3d 7f 34 03 3e 10 e8 9c bc 28 89 d4 3c
       0.07289232 0.12812994 -0.019153625 0.025944307
000100 98 51 1b 3d 9f 1a a4 3c 46 d7 1a 3e 18 e1 f2 3d
       0.03791961 0.020032225 0.15121183 0.118593395
000110 02 2a ec 3b 25 77 62 bd ec f0 ae bd 07 f7 d7 bd
       0.007207156 -0.055289406 -0.08542046 -0.105451636
000120 22 8a c5 bd 88 3b fd bc b8 be 0b 3e 6b 7d 9b 3d
       -0.09645487 -0.030912176 0.13646972 0.07592281
000130 fb 6c 52 3c 8c 5e cd bd 14 f0 28 3e 7d f1 31 3d
       0.012843366 -0.10027799 0.16497833 0.04344319
000140 40 2a 7c bc 4d 6a 7a 3d 1e de f7 bc 50 50 5f bc
       -0.015390933 0.061136533 -0.03025728 -0.013629988
000150 60 44 32 bc e8 42 f2 bc dc cc 81 bd 50 d9 b2 bd
       -0.01088056 -0.029572919 -0.06337902 -0.08732855
000160 7c f0 ce bd fa 4a 10 bf e3 66 bf 3e b4 4d 77 bd
       -0.101044625 -0.56364405 0.37383184 -0.060376838
000170 6f f3 b2 3d ba 82 7b bd ce 74 da 3d d0 43 8c 3d
       0.087378375 -0.061403967 0.1066681 0.06848872
000180 40 97 c2 3d 13 1e 98 bd 02 d3 fd bd 60 a2 35 3c
       0.09501505 -0.07427611 -0.12393762 0.0110860765
000190 34 ee bf 3d 90 49 3d bc 00 db 96 bd 14 0e f4 3d
       0.093716055 -0.011553183 -0.0736599 0.11916748
0001a0 94 80 3f bd 90 c0 91 bd 8f d6 0a be 67 16 9e 3d
       -0.04675348 -0.071168065 -0.1355841 0.07719117
0001b0 73 55 51 3e f0 ac e2 3c f4 48 47 3e ae 25 c2 bd
       0.20442753 0.027670354 0.19461423 -0.09479843
0001c0 de 07 a7 bd 80 41 10 3b f6 6d e9 3d 1e b1 93 3d
       -0.081557974 0.0022011697 0.113979265 0.07211517
0001d0 a8 89 45 3d e2 7d 2e 3d 42 87 b6 bd bc 69 c6 bc
       0.048226982 0.04260052 -0.08912517 -0.02422034
0001e0 d8 71 b9 3c 1d b5 0e 3e 02 10 d4 3d 00 09 eb bd
       0.022637293 0.13936277 0.10354616 -0.11476326
0001f0 ad f6 38 3e d3 c2 27 bd 2c ba 3f 3d 88 a3 d8 3d
       0.1806285 -0.040957283 0.046808407 0.10578066
000200 df 1d a6 bd 5f 81 54 3d 34 56 d7 bd c6 c5 f5 3c
       -0.08111166 0.05188119 -0.10514489 0.030001532
000210 cc 55 0f bc 6c 35 39 3d f0 9c d1 bc c5 9f 69 bd
       -0.008748483 0.045216963 -0.025587529 -0.057037134
000220 5e 76 b0 3d 3c 23 7b 3d 86 1f bf bc 03 d8 d4 bd
       0.08616327 0.0613129 -0.023330461 -0.103927635
000230 64 bd 0f be 50 83 5d 3c 61 4f 8f bc fb 8c 19 3e
       -0.1403709 0.013520077 -0.017493905 0.14995186
000240 a4 41 0f bd 6a 7e e3 3d c6 0a 2f 3d 00 ce b8 3b
       -0.03497471 0.11108096 0.042734884 0.0056397915
000250 c8 01 fc bc ba d4 e7 bd b6 b4 f0 bd 6f 25 cd 3b
       -0.030762568 -0.11319871 -0.11753218 0.006260566
000260 5a 21 82 bd 2e ac 6a 3e d3 a7 fe bc 44 4e 48 bd
       -0.063540176 0.22917244 -0.031085884 -0.048902765
000270 9b 97 11 be be 9b 55 3e e8 90 07 3d a0 dd 77 bd
       -0.14217989 0.20860192 0.033097178 -0.060514092
000280 90 22 51 bd 98 cb 87 3e 02 91 aa bd 26 59 a7 bd
       -0.051058352 0.26522517 -0.08328439 -0.081713006
000290 c7 cb fd 3b fc 44 3b bd 96 e9 bf bd 44 d9 97 3d
       0.0077452394 -0.045720086 -0.09370725 0.07414487
0002a0 9e dd cd 3d e0 1d a6 3c e5 81 99 3c fe 2a eb bd
       0.10052036 0.020277917 0.018738696 -0.114828095
0002b0 03 bd 99 3e 0c 59 02 3d 0b b3 27 be 98 73 81 bc
       0.30027017 0.031823203 -0.16376893 -0.01580219
0002c0 41 2f 07 bd 5e a6 8e 3d da e0 cb bd ee cb a1 3d
       -0.03300405 0.06965326 -0.099549964 0.079002246
0002d0 c4 5c 24 be 81 1e de 3d a6 33 bc bc 61 2b 11 3b
       -0.16051012 0.10845662 -0.022973847 0.00221511
0002e0 c0 b9 1a bd 3c 06 28 3e 00 f8 54 bb 5e d5 c7 3d
       -0.0377748 0.16408628 -0.0032496452 0.097574934
0002f0 df 27 b7 3d 42 91 dc bc 1c c1 ba bd aa 63 cd 3d
       0.08943152 -0.026924733 -0.09118864 0.10028775
000300 c3 03 5a 3e 4d 23 51 3c d4 29 c7 3c 4f bf 17 be
       0.21290497 0.012764764 0.024311937 -0.14819072
000310 45 c7 a0 bc f9 f6 25 3b b0 35 08 3d 9d 3a a1 3d
       -0.01962627 0.002532421 0.033254325 0.07872508
000320 2c 59 0b bd 0e 2e ec 3d 38 ba ee 3d 6d 60 26 bb
       -0.034020588 0.11532222 0.11656612 -0.0025387064
000330 11 b7 1e 3d a0 e8 f5 3c 18 bc d3 3d d0 63 d2 be
       0.038748804 0.03001815 0.103386104 -0.41091776
000340 6c e4 3f 3d f8 15 f7 bc 3c cc 9d bd 40 d4 8b bd
       0.0468487 -0.030161843 -0.0770497 -0.06827593
000350 88 e3 f6 3d f6 d7 da 3d 78 3e e5 3d 04 47 a8 3d
       0.12055117 0.106857225 0.111935556 0.0821667
000360 24 65 c1 3d 17 e5 aa be ba f9 95 3d fc d2 7f 3d
       0.09443119 -0.33377907 0.07323022 0.06245707
000370 91 79 bd 3d ea 22 e4 bd df 34 cc 3c 58 e5 d6 3c
       0.092517026 -0.11139472 0.024927555 0.026232406
000380 b6 c9 83 3d 6f 7b bc bd 48 ac 96 bd 68 21 8a 3c
       0.06434958 -0.092032306 -0.07357079 0.016861632
000390 ec d3 80 bd f6 ab a6 bd c4 70 85 3d 28 04 ac bc
       -0.06290421 -0.08138268 0.06515649 -0.020998076
0003a0 d0 ed e9 3d 48 08 f9 3d 52 6f 8f 3d 62 94 ad 3d
       0.11422312 0.12159783 0.070036545 0.084755674
0003b0 55 7e 1c bd 40 4b 00 3b 6e a3 f0 3d 00 2f e1 3a
       -0.038206417 0.0019576102 0.11749922 0.0017180145
0003c0 26 18 a6 3d 76 05 ee 3d 80 b0 04 bd 34 6e 58 bd
       0.08110075 0.11622135 -0.032394886 -0.052839473
0003d0 7e cf 7b 3d 72 1f 17 be cb a4 c6 3c 84 75 1c 3e
       0.061477177 -0.14758089 0.024248501 0.15279204
0003e0 ac 2f c8 3d 8d 85 c9 3d 02 66 bc bd 7c 65 89 bd
       0.09774718 0.09839926 -0.09199144 -0.0670881
0003f0 3d 7c db 3c cd 9b 03 bd 80 71 28 3c 2e 00 eb bd
       0.02679264 -0.032131005 0.010280967 -0.11474644

nn.2.bias f4 [15]
000000 56 e7 cb 3d 72 72 d5 bc 80 29 1f 3e fe a9 32 bc
       0.09956233 -0.026055548 0.15543175 -0.010904787
000010 40 36 9b bd 98 76 28 3d e2 19 06 3d 5c fd 80 3d
       -0.07578707 0.041128725 0.032739528 0.062983245
000020 11 21 a0 3d 56 ae da bd dc 51 dc 3d 6e e8 f7 3d
       0.07818807 -0.10677783 0.10757801 0.12104879
000030 74 65 0b 3d 2c 9f a0 bd f8 2c 79 3d
       0.0340323 -0.078428596 0.0608339

exp_avg f4 [64, 3]
000000 44 50 3c 38 0a 48 34 39 58 f6 c7 39 1c 1e 9d b6
       4.4897446e-05 0.00017192974 0.00038139778 -4.68247e-06
000010 08 7f 99 b7 2f 41 2d b8 8e 78 94 37 97 34 8f 38
       -1.8298175e-05 -4.130712e-05 1.7699113e-05 6.828567e-05
000020 0b b9 1d 39 64 19 df b7 b0 8d d5 b8 82 b2 6c b9
       0.0001504162 -2.6595495e-05 -0.00010183023 -0.00022573213
000030 f0 59 07 36 56 5a 01 37 e9 27 92 37 60 97 bb b6
       2.0168918e-06 7.710032e-06 1.742314e-05 -5.5906567e-06
000040 df c0 b5 b7 20 23 45 b8 00 00 00 00 00 00 00 00
       -2.1666694e-05 -4.7001173e-05 0.0 0.0
000050 00 00 00 00 d8 6c a5 37 74 ca 9e 38 42 01 30 39
       0.0 1.9720217e-05 7.571737e-05 0.00016785137
000060 00 00 00 00 00 00 00 00 00 00 00 00 00 00 00 00
       0.0 0.0 0.0 0.0
000070 00 00 00 00 00 00 00 00 b6 ec a7 37 bf 65 a0 38
       0.0 0.0 2.0018178e-05 7.648346e-05
000080 5b 25 31 39 ca ac 85 37 e8 eb 80 38 c3 d5 0e 39
       0.00016893951 1.5935297e-05 6.1474566e-05 0.00013621808
000090 ff 9a dc 37 35 aa d4 38 bd 79 6b 39 00 00 00 00
       2.629822e-05 0.00010140651 0.00022456697 0.0
0000a0 00 00 00 00 00 00 00 00 99 87 a2 37 74 24 9b 38
       0.0 0.0 1.9375047e-05 7.397766e-05
0000b0 53 e2 2a 39 82 62 a4 b8 a0 b0 9d b9 14 9e 2e ba
       0.00016296776 -7.838478e-05 -0.0003007697 -0.0006661129
0000c0 00 00 00 00 00 00 00 00 00 00 00 00 ab db 9c b7
       0.0 0.0 0.0 -1.869894e-05
0000d0 1a b5 97 b8 e6 42 27 b9 a4 e5 a7 b7 69 d6 a0 b8
       -7.233974e-05 -0.00015951283 -2.0014886e-05 -7.6693315e-05
0000e0 85 5a 32 b9 00 00 00 00 00 00 00 00 00 00 00 00
       -0.00017009124 0.0 0.0 0.0
0000f0 00 00 00 00 00 00 00 00 00 00 00 00 00 00 00 00
       0.0 0.0 0.0 0.0
000100 00 00 00 00 00 00 00 00 00 00 00 00 00 00 00 00
       0.0 0.0 0.0 0.0
000110 00 00 00 00 7e 35 18 37 87 7c 11 38 aa d4 9f 38
       0.0 9.072361e-06 3.468667e-05 7.6213226e-05
000120 00 00 00 00 00 00 00 00 00 00 00 00 25 8a b8 b8
       0.0 0.0 0.0 -8.799535e-05
000130 66 d9 b0 b9 f4 33 43 ba a8 b9 a2 37 5c f5 9a 38
       -0.0003373131 -0.0007446401 1.9398358e-05 7.388994e-05
000140 55 b4 2b 39 00 00 00 00 00 00 00 00 00 00 00 00
       0.0001637501 0.0 0.0 0.0
000150 6e 6a 20 38 fa 35 1a 39 f7 ae aa 39 25 a1 4d b8
       3.8246093e-05 0.00014706692 0.00032555286 -4.9025886e-05
000160 a0 e2 45 b9 4a dd da b9 d3 36 f5 35 da 3f dd 36
       -0.00018871808 -0.00041745073 1.8269878e-06 6.5937465e-06
000170 b4 b9 7e 37 00 00 00 00 00 00 00 00 00 00 00 00
       1.5182817e-05 0.0 0.0 0.0
000180 00 00 00 00 00 00 00 00 00 00 00 00 32 59 69 b8
       0.0 0.0 0.0 -5.56346e-05
000190 df bb 60 b9 27 4b f9 b9 00 00 00 00 00 00 00 00
       -0.00021432292 -0.00047548974 0.0 0.0
0001a0 00 00 00 00 00 00 00 00 00 00 00 00 00 00 00 00
       0.0 0.0 0.0 0.0
0001b0 bb c2 1a b7 e0 61 14 b8 26 1e a4 b8 00 00 00 00
       -9.2244545e-06 -3.5377103e-05 -7.825745e-05 0.0
0001c0 00 00 00 00 00 00 00 00 00 00 00 00 00 00 00 00
       0.0 0.0 0.0 0.0
0001d0 00 00 00 00 00 00 00 00 00 00 00 00 00 00 00 00
       0.0 0.0 0.0 0.0
0001e0 00 00 00 00 00 00 00 00 00 00 00 00 00 00 00 00
       0.0 0.0 0.0 0.0
0001f0 00 00 00 00 00 00 00 00 d5 c2 c6 36 b2 11 bd 37
       0.0 0.0 5.9235413e-06 2.2538796e-05
000200 97 c3 53 38 47 06 02 38 87 d2 f9 38 62 08 8a 39
       5.0488477e-05 3.100026e-05 0.00011912459 0.00026327657
000210 94 8d 40 b8 4f 70 3a b9 62 f8 cd b9 00 00 00 00
       -4.5908222e-05 -0.0001778018 -0.00039285707 0.0
000220 00 00 00 00 00 00 00 00 32 98 31 38 b7 b7 2a 39
       0.0 0.0 4.234183e-05 0.00016280902
000230 b1 42 bc 39 00 00 00 00 00 00 00 00 00 00 00 00
       0.00035907843 0.0 0.0 0.0
000240 6a ca 82 37 4b ee 7a 38 64 6c 0a 39 00 00 00 00
       1.5591464e-05 5.9826572e-05 0.00013201084 0.0
000250 00 00 00 00 00 00 00 00 00 00 00 00 00 00 00 00
       0.0 0.0 0.0 0.0
000260 00 00 00 00 00 00 00 00 00 00 00 00 00 00 00 00
       0.0 0.0 0.0 0.0
000270 f7 9e 05 38 e6 d1 00 39 85 5d 8e 39 33 f8 22 b8
       3.185772e-05 0.00012285225 0.00027154028 -3.8854963e-05
000280 69 6a 1c b9 59 75 ad b9 04 00 00 00 04 00 00 00
       -0.0001491696 -0.00033084562 6e-45 6e-45
000290 04 00 00 00 54 89 aa 37 95 c4 a2 38 c3 72 34 39
       6e-45 2.0329528e-05 7.761378e-05 0.0001720889
0002a0 00 00 00 00 00 00 00 00 00 00 00 00 a8 0f ef b6
       0.0 0.0 0.0 -7.1245777e-06
0002b0 46 02 f0 b7 b5 a2 84 b8 00 00 00 00 00 00 00 00
       -2.8611288e-05 -6.324557e-05 0.0 0.0
0002c0 00 00 00 00 00 00 00 00 00 00 00 00 00 00 00 00
       0.0 0.0 0.0 0.0
0002d0 a3 57 16 b7 ac 69 12 b8 d6 27 a4 b8 67 4a ea b5
       -8.961101e-06 -3.4907527e-05 -7.8275494e-05 -1.7456013e-06
0002e0 cc e5 d7 b6 a0 f0 68 b7 00 00 00 00 00 00 00 00
       -6.434251e-06 -1.38843025e-05 0.0 0.0
0002f0 00 00 00 00 00 00 00 00 00 00 00 00 00 00 00 00
       0.0 0.0 0.0 0.0

exp_avg_sq f4 [64, 3]
000000 81 8d 50 32 30 15 35 34 0c c4 81 35 a5 b4 0c 30
       1.2139368e-08 1.6864647e-07 9.668306e-07 5.1188415e-10
000010 7c 93 ef 31 4e 0b 30 33 f9 bb ee 30 64 9b ce 32
       6.9725825e-09 4.0988475e-08 1.7370204e-09 2.405222e-08
000020 b1 cf 12 34 41 5a 91 31 14 4c 7c 33 70 33 b4 34
       1.3672867e-07 4.230316e-09 5.8742515e-08 3.3565038e-07
000030 ed e4 53 2f 6f ac 33 31 af 32 84 32 d4 dc 5b 2f
       1.9271669e-10 2.6145945e-09 1.538987e-08 1.9996388e-10
000040 04 20 3c 31 fc 44 85 32 00 00 00 00 00 00 00 00
       2.73758e-09 1.5514608e-08 0.0 0.0
000050 00 00 00 00 7f e8 17 31 98 c1 03 33 c3 a8 3b 34
       0.0 2.210555e-09 3.0676887e-08 1.7477127e-07
000060 00 00 00 00 00 00 00 00 00 00 00 00 00 00 00 00
       0.0 0.0 0.0 0.0
000070 00 00 00 00 00 00 00 00 1f 16 1b 31 81 58 06 33
       0.0 0.0 2.2568043e-09 3.12798e-08
000080 c2 59 3f 34 bd 39 bb 30 6b c0 a2 32 c2 f0 e7 33
       1.7820915e-07 1.3622451e-09 1.8946784e-08 1.0800569e-07
000090 95 e2 87 31 d8 00 6c 33 bf 55 a8 34 00 00 00 00
       3.9547765e-09 5.49488e-08 3.1354827e-07 0.0
0000a0 00 00 00 00 00 00 00 00 9e 3c 0a 31 2b cb ef 32
       0.0 0.0 2.01161e-09 2.7915652e-08
0000b0 4c 95 2a 34 32 9d 1c 33 22 d6 07 35 fe 2a 42 36
       1.5886798e-07 3.646455e-08 5.0603023e-07 2.8933277e-06
0000c0 00 00 00 00 00 00 00 00 00 00 00 00 8c a2 0d 31
       0.0 0.0 0.0 2.0610598e-09
0000d0 07 f8 f4 32 d3 8e 2d 34 5f 81 26 31 76 bd 10 33
       2.8518128e-08 1.616384e-07 2.4229718e-09 3.3699926e-08
0000e0 1b 35 4f 34 00 00 00 00 00 00 00 00 00 00 00 00
       1.9297697e-07 0.0 0.0 0.0
0000f0 00 00 00 00 00 00 00 00 00 00 00 00 00 00 00 00
       0.0 0.0 0.0 0.0
000100 00 00 00 00 00 00 00 00 00 00 00 00 00 00 00 00
       0.0 0.0 0.0 0.0
000110 00 00 00 00 db e3 15 30 c0 94 00 32 14 ae 35 33
       0.0 5.4529686e-10 7.484402e-09 4.230067e-08
000120 00 00 00 00 00 00 00 00 00 00 00 00 9c aa 33 33
       0.0 0.0 0.0 4.1831854e-08
000130 66 10 1c 35 aa c0 5e 36 2b 5d 1a 31 be d5 05 33
       5.813839e-07 3.3192723e-06 2.246291e-09 3.1160873e-08
000140 8a 8d 3f 34 00 00 00 00 00 00 00 00 00 00 00 00
       1.7839753e-07 0.0 0.0 0.0
000150 4e 7c 13 32 6e 39 00 34 60 67 37 35 45 72 6b 32
       8.58479e-09 1.1941822e-07 6.8323243e-07 1.3704782e-08
000160 72 94 4c 34 bd 00 92 35 39 b9 44 2f 73 82 26 31
       1.9052985e-07 1.0878063e-06 1.78919e-10 2.423033e-09
000170 64 37 73 32 00 00 00 00 00 00 00 00 00 00 00 00
       1.4157056e-08 0.0 0.0 0.0
000180 00 00 00 00 00 00 00 00 00 00 00 00 4e 47 9d 32
       0.0 0.0 0.0 1.8309631e-08
000190 34 c0 88 34 06 d5 c3 35 00 00 00 00 00 00 00 00
       2.547182e-07 1.459063e-06 0.0 0.0
0001a0 00 00 00 00 00 00 00 00 00 00 00 00 00 00 00 00
       0.0 0.0 0.0 0.0
0001b0 9f f2 21 30 f3 b6 0b 32 38 3c 48 33 00 00 00 00
       5.8916244e-10 8.132463e-09 4.6620897e-08 0.0
0001c0 00 00 00 00 00 00 00 00 00 00 00 00 00 00 00 00
       0.0 0.0 0.0 0.0
0001d0 00 00 00 00 00 00 00 00 00 00 00 00 00 00 00 00
       0.0 0.0 0.0 0.0
0001e0 00 00 00 00 00 00 00 00 00 00 00 00 00 00 00 00
       0.0 0.0 0.0 0.0
0001f0 00 00 00 00 00 00 00 00 30 f0 c5 2f 35 3a a9 31
       0.0 0.0 3.6004755e-10 4.9251647e-09
000200 57 04 f4 32 ac ca b4 31 6c 00 9d 33 98 74 df 34
       2.8407312e-08 5.2617306e-09 7.310959e-08 4.162182e-07
000210 3f 83 59 32 a9 62 3c 34 66 26 86 35 00 00 00 00
       1.2660904e-08 1.7544757e-07 9.994953e-07 0.0
000220 00 00 00 00 00 00 00 00 78 99 24 32 45 da 0e 34
       0.0 0.0 9.580951e-09 1.3304187e-07
000230 8f d0 4a 35 00 00 00 00 00 00 00 00 00 00 00 00
       7.5554357e-07 0.0 0.0 0.0
000240 a5 04 bc 30 a4 6c a2 32 a2 ac e5 33 00 00 00 00
       1.368012e-09 1.8908686e-08 1.0695045e-07 0.0
000250 00 00 00 00 00 00 00 00 00 00 00 00 00 00 00 00
       0.0 0.0 0.0 0.0
000260 00 00 00 00 00 00 00 00 00 00 00 00 00 00 00 00
       0.0 0.0 0.0 0.0
000270 d1 51 c3 31 fd 7b a9 33 e5 21 f1 34 82 02 1c 32
       5.6845484e-09 7.892229e-08 4.491441e-07 9.080965e-09
000280 19 7e 07 34 08 f1 41 35 35 76 03 10 27 f1 bb 11
       1.2618729e-07 7.224885e-07 2.5926258e-29 2.965202e-28
000290 49 57 75 13 14 f7 38 31 f4 e1 1f 33 48 42 65 34
       3.0966382e-27 2.6915972e-09 3.7225576e-08 2.13514e-07
0002a0 00 00 00 00 00 00 00 00 00 00 00 00 97 cb 12 30
       0.0 0.0 0.0 5.340381e-10
0002b0 bc c3 fa 31 8e 05 33 33 00 00 00 00 00 00 00 00
       7.29821e-09 4.1681737e-08 0.0 0.0
0002c0 00 00 00 00 00 00 00 00 00 00 00 00 00 00 00 00
       0.0 0.0 0.0 0.0
0002d0 d6 ed 20 30 2b 60 0b 32 2d 49 48 33 2f c0 24 2f
       5.8545646e-10 8.112731e-09 4.663268e-08 1.498399e-10
0002e0 56 6f 0a 31 6f 25 49 32 00 00 00 00 00 00 00 00
       2.014493e-09 1.1708251e-08 0.0 0.0
0002f0 00 00 00 00 00 00 00 00 00 00 00 00 00 00 00 00
       0.0 0.0 0.0 0.0

exp_avg f4 [64]
000000 ae 58 fc 38 41 88 59 b7 64 e0 48 38 88 74 95 b8
       0.00012032814 -1.2965932e-05 4.7892696e-05 -7.126579e-05
000010 3b a4 b3 36 1c 23 7f b7 00 00 00 00 a3 76 5e 38
       5.3537347e-06 -1.5207359e-05 0.0 5.3039414e-05
000020 00 00 00 00 00 00 00 00 e7 42 60 38 ff ca 34 38
       0.0 0.0 5.346807e-05 4.31044e-05
000030 35 26 95 38 00 00 00 00 7c ab 58 38 26 d3 5c b9
       7.11199e-05 0.0 5.165812e-05 -0.00021059494
000040 00 00 00 00 41 03 55 b8 75 e7 60 b8 00 00 00 00
       0.0 -5.0786188e-05 -5.3621323e-05 0.0
000050 00 00 00 00 00 00 00 00 00 00 00 00 56 8d cb 37
       0.0 0.0 0.0 2.42653e-05
000060 00 00 00 00 e0 3b 77 b9 2c 12 58 38 00 00 00 00
       0.0 -0.00023578061 5.1515337e-05 0.0
000070 13 ea d7 38 87 a5 0a b9 4a bf 95 36 00 00 00 00
       0.000102955986 -0.0001322237 4.462815e-06 0.0
000080 00 00 00 00 66 8a 1d b9 00 00 00 00 00 00 00 00
       0.0 -0.00015024244 0.0 0.0
000090 bb 11 d0 b7 00 00 00 00 00 00 00 00 00 00 00 00
       -2.4803789e-05 0.0 0.0 0.0
0000a0 00 00 00 00 00 00 00 00 1b 8f 84 37 4f de ae 38
       0.0 0.0 1.5802265e-05 8.338375e-05
0000b0 ec fb 02 b9 00 00 00 00 45 10 ef 38 00 00 00 00
       -0.00012491614 0.0 0.000113994385 0.0
0000c0 98 ba 2f 38 00 00 00 00 00 00 00 00 00 00 00 00
       4.189703e-05 0.0 0.0 0.0
0000d0 07 aa b4 38 e2 1e db b8 04 00 00 00 94 d5 63 38
       8.614739e-05 -0.00010448486 6e-45 5.4319928e-05
0000e0 00 00 00 00 8e eb aa b7 00 00 00 00 00 00 00 00
       0.0 -2.0375268e-05 0.0 0.0
0000f0 44 63 ce b7 e5 0e 93 b6 00 00 00 00 00 00 00 00
       -2.4603338e-05 -4.3826753e-06 0.0 0.0

exp_avg_sq f4 [64]
000000 7d 99 ae 33 d0 7c 67 31 92 3b 47 32 9e 48 f3 32
       8.130426e-08 3.3685872e-09 1.1596869e-08 2.8321946e-08
000010 dd c4 ad 30 5c d5 b5 30 00 00 00 00 99 21 7e 32
       1.2643359e-09 1.3230124e-09 0.0 1.4792385e-08
000020 00 00 00 00 00 00 00 00 5a 81 81 32 4f e8 1c 32
       0.0 0.0 1.5076399e-08 9.133216e-09
000030 f5 90 e3 32 00 00 00 00 36 39 67 32 70 e6 82 34
       2.6492197e-08 0.0 1.3458978e-08 2.4382052e-07
000040 00 00 00 00 c0 42 6c 32 2e 86 8b 32 00 00 00 00
       0.0 1.3752185e-08 1.6242748e-08 0.0
000050 00 00 00 00 00 00 00 00 00 00 00 00 83 20 78 31
       0.0 0.0 0.0 3.610723e-09
000060 00 00 00 00 6b 79 96 34 0d ed 80 32 00 00 00 00
       0.0 2.802802e-07 1.500896e-08 0.0
000070 8b 44 77 33 d1 46 c5 33 be c8 a0 30 00 00 00 00
       5.757151e-08 9.186409e-08 1.1698587e-09 0.0
000080 00 00 00 00 15 d7 03 34 00 00 00 00 00 00 00 00
       0.0 1.2278572e-07 0.0 0.0
000090 4f da 86 31 00 00 00 00 00 00 00 00 00 00 00 00
       3.924732e-09 0.0 0.0 0.0
0000a0 00 00 00 00 00 00 00 00 6a 54 23 31 72 63 17 33
       0.0 0.0 2.3767606e-09 3.5247872e-08
0000b0 93 bd b5 33 00 00 00 00 23 bc 89 33 00 00 00 00
       8.462953e-08 0.0 6.4137815e-08 0.0
0000c0 94 a9 1c 32 00 00 00 00 00 00 00 00 00 00 00 00
       9.118953e-09 0.0 0.0 0.0
0000d0 3a 69 23 33 ca a4 82 33 5e 98 54 11 6d 33 9a 32
       3.8047098e-08 6.083572e-08 1.6770803e-28 1.7951345e-08
0000e0 00 00 00 00 f1 22 72 31 00 00 00 00 00 00 00 00
       0.0 3.5235497e-09 0.0 0.0
0000f0 b8 6d 86 31 97 c8 85 30 00 00 00 00 00 00 00 00
       3.912387e-09 9.734035e-10 0.0 0.0

exp_avg f4 [15, 64]
000000 62 a5 70 b7 cc f1 5a b7 f9 b4 48 b8 3e 6d c0 b7
       -1.4343621e-05 -1.305011e-05 -4.785226e-05 -2.2939053e-05
000010 23 9b 91 b7 81 de 34 b7 00 00 00 00 28 52 7f b7
       -1.7357588e-05 -1.0780642e-05 0.0 -1.5218313e-05
000020 00 00 00 00 00 00 00 00 58 2c 16 b8 a5 8c 0b b8
       0.0 0.0 -3.5804085e-05 -3.3271168e-05
000030 29 9a 5f b7 00 00 00 00 5e 21 22 b8 6a 02 2b b6
       -1.3327729e-05 0.0 -3.8654885e-05 -2.548239e-06
000040 00 00 00 00 76 51 db b7 7e fc ae b7 00 00 00 00
       0.0 -2.6144768e-05 -2.0859992e-05 0.0
000050 00 00 00 00 00 00 00 00 00 00 00 00 53 cd 04 b8
       0.0 0.0 0.0 -3.1662476e-05
000060 00 00 00 00 3a fe f7 b6 37 7b 4c b7 00 00 00 00
       0.0 -7.3907695e-06 -1.2188036e-05 0.0
000070 a5 03 12 b7 25 c3 75 b7 7a 6c bb b7 00 00 00 00
       -8.703127e-06 -1.4648574e-05 -2.234265e-05 0.0
000080 00 00 00 00 4f 7c 29 b7 00 00 00 00 00 00 00 00
       0.0 -1.0102128e-05 0.0 0.0
000090 88 b4 b7 b7 00 00 00 00 00 00 00 00 00 00 00 00
       -2.1899366e-05 0.0 0.0 0.0
0000a0 00 00 00 00 00 00 00 00 30 ee 8e b7 19 78 1c b8
       0.0 0.0 -1.7038634e-05 -3.7305148e-05
0000b0 c7 b1 1f b7 00 00 00 00 0d 97 53 b7 00 00 00 00
       -9.5185305e-06 0.0 -1.2611749e-05 0.0
0000c0 fd b7 b6 b7 00 00 00 00 00 00 00 00 00 00 00 00
       -2.1781767e-05 0.0 0.0 0.0
0000d0 33 a5 7a b7 e5 0e 31 b7 04 00 00 80 91 33 14 b8
       -1.4939625e-05 -1.055349e-05 -6e-45 -3.5333975e-05
0000e0 00 00 00 00 82 45 5c b7 00 00 00 00 00 00 00 00
       0.0 -1.3129205e-05 0.0 0.0
0000f0 b5 68 c2 b7 27 5f 75 b7 00 00 00 00 00 00 00 00
       -2.317536e-05 -1.4625292e-05 0.0 0.0
000100 33 c1 ac 37 db da 94 37 7e 60 86 38 fc 98 02 38
       2.0593963e-05 1.7744887e-05 6.407591e-05 3.1136893e-05
000110 86 41 c2 37 ea 13 77 37 00 00 00 00 dc 5e a5 37
       2.3157114e-05 1.4726984e-05 0.0 1.9713705e-05
000120 00 00 00 00 00 00 00 00 20 12 48 38 32 a9 3a 38
       0.0 0.0 4.7700596e-05 4.450343e-05
000130 c6 6d 9a 37 00 00 00 00 e2 bd 5a 38 3d 1c 4f 36
       1.8409348e-05 0.0 5.2152092e-05 3.086184e-06
000140 00 00 00 00 f4 f6 0e 38 48 4d ed 37 00 00 00 00
       0.0 3.408543e-05 2.8288589e-05 0.0
000150 00 00 00 00 00 00 00 00 00 00 00 00 fe f1 34 38
       0.0 0.0 0.0 4.3140717e-05
000160 00 00 00 00 86 84 0d 37 5b fc 95 37 00 00 00 00
       0.0 8.43511e-06 1.7879696e-05 0.0
000170 6c f4 37 37 65 2e a2 37 81 8f f6 37 00 00 00 00
       1.0964559e-05 1.9333509e-05 2.939231e-05 0.0
000180 00 00 00 00 bc 8c 5b 37 00 00 00 00 00 00 00 00
       0.0 1.30861845e-05 0.0 0.0
000190 45 52 e9 37 00 00 00 00 00 00 00 00 00 00 00 00
       2.7814074e-05 0.0 0.0 0.0
0001a0 00 00 00 00 00 00 00 00 90 b0 b6 37 a9 e1 54 38
       0.0 0.0 2.1778309e-05 5.07549e-05
0001b0 38 3a 61 37 00 00 00 00 7d f1 89 37 00 00 00 00
       1.34246e-05 0.0 1.6444124e-05 0.0
0001c0 ee 48 f4 37 00 00 00 00 00 00 00 00 00 00 00 00
       2.9121027e-05 0.0 0.0 0.0
0001d0 de 03 a9 37 ac c5 6d 37 04 00 00 80 bc 75 44 38
       2.014817e-05 1.4172325e-05 -6e-45 4.683969e-05
0001e0 00 00 00 00 79 c2 9b 37 00 00 00 00 00 00 00 00
       0.0 1.8567998e-05 0.0 0.0
0001f0 e6 04 04 38 3a 47 a1 37 00 00 00 00 00 00 00 00
       3.1475814e-05 1.9225863e-05 0.0 0.0
000200 5b 0f 98 b9 98 b8 87 b9 70 f8 73 ba 0f e0 ec b9
       -0.0002900314 -0.0002588674 -0.00093067344 -0.00045180364
000210 61 df af b9 e5 7e 60 b9 00 00 00 00 61 01 99 b9
       -0.0003354503 -0.00021409577 0.0 -0.0002918346
000220 00 00 00 00 00 00 00 00 8d 8a 36 ba c9 ba 29 ba
       0.0 0.0 -0.00069633947 -0.00064746715
000230 58 0a 89 b9 00 00 00 00 ff a2 44 ba de 33 3c b8
       -0.00026138383 0.0 -0.0007501095 -4.4870998e-05
000240 00 00 00 00 b2 da 04 ba 9a 8f d8 b9 00 00 00 00
       0.0 -0.00050679885 -0.00041305722 0.0
000250 00 00 00 00 00 00 00 00 00 00 00 00 62 6f 24 ba
       0.0 0.0 0.0 -0.0006272701
000260 00 00 00 00 7d 6a 0e b9 99 9f 82 b9 00 00 00 00
       0.0 -0.00013581845 -0.00024914442 0.0
000270 50 48 25 b9 09 c9 98 b9 78 27 e1 b9 00 00 00 00
       -0.00015762565 -0.00029141482 -0.0004294475 0.0
000280 00 00 00 00 8f 80 52 b9 00 00 00 00 00 00 00 00
       0.0 -0.00020075052 0.0 0.0
000290 de 29 d9 b9 00 00 00 00 00 00 00 00 00 00 00 00
       -0.0004142066 0.0 0.0 0.0
0002a0 00 00 00 00 00 00 00 00 e6 bc ab b9 7a 07 40 ba
       0.0 0.0 -0.00032756402 -0.0007325333
0002b0 2f 0d 4c b9 00 00 00 00 0f b0 76 b9 00 00 00 00
       -0.00019459867 0.0 -0.00023525975 0.0
0002c0 6a cb de b9 00 00 00 00 00 00 00 00 00 00 00 00
       -0.00042494695 0.0 0.0 0.0
0002d0 d2 ea 96 b9 92 61 57 b9 04 00 00 00 f8 fb 33 ba
       -0.00028785184 -0.00020540346 6e-45 -0.00068658544
0002e0 00 00 00 00 1d 55 8c b9 00 00 00 00 00 00 00 00
       0.0 -0.00026766295 0.0 0.0
0002f0 71 ff ed b9 37 6b 93 b9 00 00 00 00 00 00 00 00
       -0.0004539448 -0.00028117906 0.0 0.0
000300 51 f3 93 39 2a 61 83 39 12 55 6c 3a 67 ea e4 39
       0.0002821931 0.0002505866 0.0009015362 0.00043662192
000310 6e a0 aa 39 22 a5 58 39 00 00 00 00 53 0c 94 39
       0.00032544456 0.00020660882 0.0 0.00028237942
000320 00 00 00 00 00 00 00 00 93 ec 30 3a d3 7e 24 3a
       0.0 0.0 0.00067491195 0.0006275002
000330 bd 3d 85 39 00 00 00 00 a4 e0 3e 3a ac 94 34 38
       0.00025413735 0.0 0.0007281399 4.3053806e-05
000340 00 00 00 00 1b 30 00 3a 57 40 d1 39 00 00 00 00
       0.0 0.0004889981 0.00039911523 0.0
000350 00 00 00 00 00 00 00 00 00 00 00 00 f4 06 1f 3a
       0.0 0.0 0.0 0.0006066405
000360 00 00 00 00 b5 cb 07 39 4e 39 7e 39 00 00 00 00
       0.0 0.0001295049 0.00024244675 0.0
000370 c3 a6 21 39 ee a7 92 39 3e 12 da 39 00 00 00 00
       0.0001541628 0.00027972407 0.00041593792 0.0
000380 00 00 00 00 c1 6d 49 39 00 00 00 00 00 00 00 00
       0.0 0.0001920974 0.0 0.0
000390 be b4 d1 39 00 00 00 00 00 00 00 00 00 00 00 00
       0.0003999825 0.0 0.0 0.0
0003a0 00 00 00 00 00 00 00 00 00 a7 a5 39 2f 1f 3a 3a
       0.0 0.0 0.00031595677 0.00070999836
0003b0 76 57 44 39 00 00 00 00 95 b5 70 39 00 00 00 00
       0.00018724598 0.0 0.00022955828 0.0
0003c0 d6 b0 d7 39 00 00 00 00 00 00 00 00 00 00 00 00
       0.0004113975 0.0 0.0 0.0
0003d0 60 e2 92 39 39 de 4f 39 04 00 00 80 06 36 2e 3a
       0.00028015953 0.00019823843 -6e-45 0.00066456234
0003e0 00 00 00 00 54 95 87 39 00 00 00 00 00 00 00 00
       0.0 0.00025860465 0.0 0.0
0003f0 2d a6 e6 39 dc 8f 8e 39 00 00 00 00 00 00 00 00
       0.0004399283 0.00027191534 0.0 0.0

exp_avg_sq f4 [15, 64]
000000 5f 4a 09 32 16 ef 00 32 aa 0d dc 33 ce 87 bf 32
       7.99136e-09 7.5049424e-09 1.0247034e-07 2.2297083e-08
000010 5a c8 6c 32 9f f4 a5 31 00 00 00 00 93 88 42 32
       1.3782563e-08 4.8299422e-09 0.0 1.132334e-08
000020 00 00 00 00 00 00 00 00 eb df 7d 33 43 8e 57 33
       0.0 0.0 5.9109805e-08 5.0187975e-08
000030 db 90 ff 31 00 00 00 00 1f e8 8d 33 c1 61 a9 2f
       7.437945e-09 0.0 6.608047e-08 3.081038e-10
000040 00 00 00 00 a3 1b 0b 33 1e 40 a1 32 00 00 00 00
       0.0 3.2388595e-08 1.8772024e-08 0.0
000050 00 00 00 00 00 00 00 00 00 00 00 00 43 ec 37 33
       0.0 0.0 0.0 4.2822887e-08
000060 00 00 00 00 c6 12 62 31 9e ef b9 31 00 00 00 00
       0.0 3.2898e-09 5.41145e-09 0.0
000070 90 ed 8b 31 bc 1d 26 32 e8 c2 c8 32 00 00 00 00
       4.07244e-09 9.6692325e-09 2.3371697e-08 0.0
000080 00 00 00 00 6e f7 a3 31 00 00 00 00 00 00 00 00
       0.0 4.772054e-09 0.0 0.0
000090 31 53 ce 32 00 00 00 00 00 00 00 00 00 00 00 00
       2.4019387e-08 0.0 0.0 0.0
0000a0 00 00 00 00 00 00 00 00 8b ad 79 32 c1 05 81 33
       0.0 0.0 1.4533167e-08 6.008077e-08
0000b0 ff f0 68 31 00 00 00 00 e7 11 06 32 00 00 00 00
       3.3897434e-09 0.0 7.803897e-09 0.0
0000c0 9e b6 b7 32 00 00 00 00 00 00 00 00 00 00 00 00
       2.1387049e-08 0.0 0.0 0.0
0000d0 db 30 2c 32 cd cf a1 31 49 b3 3a 09 f3 82 77 33
       1.0022826e-08 4.709341e-09 2.2473235e-33 5.7628267e-08
0000e0 00 00 00 00 e6 6b e6 31 00 00 00 00 00 00 00 00
       0.0 6.7061476e-09 0.0 0.0
0000f0 2b a5 c7 32 da 48 29 32 00 00 00 00 00 00 00 00
       2.3241759e-08 9.853659e-09 0.0 0.0
000100 c7 56 34 32 87 76 28 32 99 a3 0f 34 59 55 fa 32
       1.049711e-08 9.805837e-09 1.337743e-07 2.9142642e-08
000110 f6 81 9a 32 58 fe d8 31 00 00 00 00 d2 44 7d 32
       1.7987059e-08 6.315343e-09 0.0 1.4742186e-08
000120 00 00 00 00 00 00 00 00 33 9f a5 33 ec ad 8c 33
       0.0 0.0 7.7123694e-08 6.550894e-08
000130 2b 4e 27 32 00 00 00 00 49 65 b9 33 f7 31 db 2f
       9.738453e-09 0.0 8.6331575e-08 3.987137e-10
000140 00 00 00 00 3c 2f 35 33 06 b1 d2 32 00 00 00 00
       0.0 4.2185306e-08 2.4527719e-08 0.0
000150 00 00 00 00 00 00 00 00 00 00 00 00 23 6c 70 33
       0.0 0.0 0.0 5.5977704e-08
000160 00 00 00 00 1b 06 92 31 8c d4 f4 31 00 00 00 00
       0.0 4.2498534e-09 7.1254984e-09 0.0
000170 d8 e0 b5 31 78 80 58 32 a1 da 02 33 00 00 00 00
       5.293355e-09 1.2602065e-08 3.0466826e-08 0.0
000180 00 00 00 00 a5 5f d5 31 00 00 00 00 00 00 00 00
       0.0 6.2099894e-09 0.0 0.0
000190 07 20 06 33 00 00 00 00 00 00 00 00 00 00 00 00
       3.1228435e-08 0.0 0.0 0.0
0001a0 00 00 00 00 00 00 00 00 96 5a a2 32 e0 a9 a8 33
       0.0 0.0 1.8900476e-08 7.85401e-08
0001b0 90 ba 98 31 00 00 00 00 b0 b3 2e 32 00 00 00 00
       4.444992e-09 0.0 1.0168989e-08 0.0
0001c0 73 c7 ef 32 00 00 00 00 00 00 00 00 00 00 00 00
       2.7913961e-08 0.0 0.0 0.0
0001d0 73 f7 60 32 22 55 d3 31 0b 58 35 0d bc 68 a1 33
       1.30947795e-08 6.1505867e-09 5.588091e-31 7.516198e-08
0001e0 00 00 00 00 39 12 17 32 00 00 00 00 00 00 00 00
       0.0 8.7935e-09 0.0 0.0
0001f0 db 79 02 33 38 ab 5c 32 00 00 00 00 00 00 00 00
       3.037881e-08 1.2844616e-08 0.0 0.0
000200 19 bb de 34 b7 e6 ca 34 10 08 ad 36 2b 6e 98 35
       4.1486854e-07 3.77933e-07 5.1567404e-06 1.1356946e-06
000210 df 6e 39 35 4e f5 84 34 00 00 00 00 76 64 18 35
       6.907921e-07 2.47654e-07 0.0 5.67706e-07
000220 00 00 00 00 00 00 00 00 6c 8f 46 36 4b fc 28 36
       0.0 0.0 2.9587782e-06 2.5180805e-06
000230 d4 5f ca 34 00 00 00 00 46 f8 5e 36 3c 18 8e 32
       3.7695156e-07 0.0 3.3225092e-06 1.6541996e-08
000240 00 00 00 00 e3 f6 da 35 56 78 7f 35 00 00 00 00
       0.0 1.6314119e-06 9.5170014e-07 0.0
000250 00 00 00 00 00 00 00 00 00 00 00 00 fc c8 11 36
       0.0 0.0 0.0 2.1723672e-06
000260 00 00 00 00 42 5d 3b 34 f0 b2 9b 34 00 00 00 00
       0.0 1.7449659e-07 2.9001194e-07 0.0
000270 92 78 5a 34 eb e8 03 35 45 75 9d 35 00 00 00 00
       2.0346695e-07 4.9140243e-07 1.1731541e-06 0.0
000280 00 00 00 00 ec 72 82 34 00 00 00 00 00 00 00 00
       0.0 2.4298004e-07 0.0 0.0
000290 f1 e8 a2 35 00 00 00 00 00 00 00 00 00 00 00 00
       1.2137735e-06 0.0 0.0 0.0
0002a0 00 00 00 00 00 00 00 00 a2 82 44 35 a7 ad 4b 36
       0.0 0.0 7.3205786e-07 3.0350436e-06
0002b0 93 5d 41 34 00 00 00 00 9c 6f d0 34 00 00 00 00
       1.8008568e-07 0.0 3.8824226e-07 0.0
0002c0 92 56 90 35 00 00 00 00 00 00 00 00 00 00 00 00
       1.0754031e-06 0.0 0.0 0.0
0002d0 6c 8f 06 35 80 92 81 34 a8 56 2a 09 1c 10 42 36
       5.0127596e-07 2.4134715e-07 2.0503751e-33 2.891763e-06
0002e0 00 00 00 00 56 d7 bb 34 00 00 00 00 00 00 00 00
       0.0 3.4988142e-07 0.0 0.0
0002f0 97 a9 9d 35 8f 88 05 35 00 00 00 00 00 00 00 00
       1.1746769e-06 4.974508e-07 0.0 0.0
000300 02 ab d8 34 78 2e c5 34 69 1c a8 36 46 07 94 35
       4.035756e-07 3.672792e-07 5.0100975e-06 1.1028976e-06
000310 fa 34 34 35 08 19 81 34 00 00 00 00 89 1c 14 35
       6.7132316e-07 2.4046335e-07 0.0 5.517582e-07
000320 00 00 00 00 00 00 00 00 e4 f9 40 36 fb 35 24 36
       0.0 0.0 2.8755685e-06 2.4469325e-06
000330 63 b1 c4 34 00 00 00 00 45 ab 58 36 e7 e6 89 32
       3.663691e-07 0.0 3.22862e-06 1.6053901e-08
000340 00 00 00 00 41 b5 d4 35 bc 24 78 35 00 00 00 00
       0.0 1.5847983e-06 9.2440655e-07 0.0
000350 00 00 00 00 00 00 00 00 00 00 00 00 eb 9d 0d 36
       0.0 0.0 0.0 2.1102558e-06
000360 00 00 00 00 7a 35 36 34 c1 88 97 34 00 00 00 00
       0.0 1.6969526e-07 2.8225443e-07 0.0
000370 0b 9e 54 34 b6 0b 00 35 9d ff 98 35 00 00 00 00
       1.9801534e-07 4.770076e-07 1.1399276e-06 0.0
000380 00 00 00 00 32 38 7d 34 00 00 00 00 00 00 00 00
       0.0 2.3582905e-07 0.0 0.0
000390 e7 4c 9e 35 00 00 00 00 00 00 00 00 00 00 00 00
       1.1794299e-06 0.0 0.0 0.0
0003a0 00 00 00 00 00 00 00 00 fe f6 3e 35 ed e5 45 36
       0.0 0.0 7.1139937e-07 2.9489122e-06
0003b0 ab bb 3b 34 00 00 00 00 00 b4 ca 34 00 00 00 00
       1.7484005e-07 0.0 3.77564e-07 0.0
0003c0 d5 3c 8c 35 00 00 00 00 00 00 00 00 00 00 00 00
       1.0448517e-06 0.0 0.0 0.0
0003d0 5e cd 02 35 a5 8b 7b 34 a5 bd 8b 0c d2 90 3c 36
       4.872762e-07 2.3426999e-07 2.153048e-31 2.809848e-06
0003e0 00 00 00 00 5e 85 b6 34 00 00 00 00 00 00 00 00
       0.0 3.399718e-07 0.0 0.0
0003f0 d7 2d 99 35 c5 b3 01 35 00 00 00 00 00 00 00 00
       1.141273e-06 4.8317844e-07 0.0 0.0

exp_avg f4 [15]
000000 8a b1 a2 b7 18 98 e0 37 24 cb cd b9 48 99 c6 39
       -1.9394578e-05 2.6773705e-05 -0.00039251999 0.00037879706
000010 2f f7 be b4 b5 19 c8 37 0b 04 6e b7 7f 02 1f b7
       -3.5570108e-07 2.3853829e-05 -1.4186847e-05 -9.47772e-06
000020 2c cf 4a b8 00 00 00 00 00 00 00 00 00 00 00 00
       -4.8353497e-05 0.0 0.0 0.0
000030 00 00 00 00 00 00 00 00 00 00 00 00
       0.0 0.0 0.0

exp_avg_sq f4 [15]
000000 b1 86 86 32 49 f9 af 32 28 bd 56 35 ea 9b 50 35
       1.5660904e-08 2.0486043e-08 7.999647e-07 7.7712923e-07
000010 2d 38 11 30 bc 48 90 32 0b cc 8a 31 d9 55 18 32
       5.2830523e-10 1.6796882e-08 4.0395256e-09 8.867084e-09
000020 74 00 c2 33 00 00 00 00 00 00 00 00 00 00 00 00
       9.0339114e-08 0.0 0.0 0.0
000030 00 00 00 00 00 00 00 00 00 00 00 00
       0.0 0.0 0.0
