Op_problems/problem_ED_Column/checkpoints/mlp_checkpoint_epoch_200_loss_0.000352.pth (torch, 21405 bytes, 12 tensors)

nn.0.weight f4 [64, 3]
0	0x3f0ea137	0.55714744
1	0x3ed65b4b	0.41866526
2	0xbe291524	-0.16511971
3	0x3eead5a7	0.4586613
4	0xbe10715f	-0.14105748
5	0x3db99d27	0.090631776
6	0xbe2e58ac	-0.17026013
7	0x3edb3702	0.42815405
8	0x3f0f5499	0.5598846
9	0xbebfe038	-0.37475753
10	0x3f27055a	0.6524254
11	0x3e18e623	0.1493154
12	0x3eb55ec1	0.35423854
13	0x3d0d63d5	0.034519035
14	0x3e786c74	0.24260122
15	0xbde514a1	-0.11185575
16	0x3eca7856	0.39544934
17	0x3d5e6e24	0.054304257
18	0xbe89ffdb	-0.26953015
19	0x3e16b295	0.14716561
20	0xbe8831fe	-0.2660064
21	0xbd9abc13	-0.075554036
22	0xbea47db0	-0.32127142
23	0x3eaff44c	0.3436607
24	0xbee95728	-0.45574307
25	0xbe8846b5	-0.26616445
26	0xbe26f11c	-0.16302913
27	0xbeb1bcf7	-0.3471448
28	0x3d5f3321	0.05449212
29	0xbf11fb0a	-0.5702368
30	0x3f1c23df	0.60992235
31	0xbed3d171	-0.4137073
32	0x3efb20ea	0.4904855
33	0x3e753771	0.2394693
34	0xbd6ed541	-0.058308844
35	0x3ed0cf6c	0.4078325
36	0x3dafa08f	0.08575546
37	0x3ed00974	0.40632212
38	0x3cde12fa	0.027108658
39	0xbe3a7363	-0.18208079
40	0x3e1ed8fb	0.15512459
41	0xbe2052b6	-0.15656552
42	0x3ead43ff	0.3384094
43	0x3f1642a1	0.5869542
44	0x3ec1f5d0	0.37882853
45	0xbea3975d	-0.3195142
46	0x3ea5b51c	0.32364738
47	0x3dcb028a	0.09912594
48	0x3e961e23	0.29319867
49	0xbeb42bf6	-0.3518979
50	0xbf124f64	-0.5715239
51	0xbe3040a3	-0.17212157
52	0xbeb00573	-0.34379157
53	0x3f04eacf	0.5192079
54	0x3db52f84	0.088469535
55	0x3e52f583	0.20601468
56	0x3e1659e4	0.14682728
57	0xbc248dc9	-0.01004357
58	0x3ee75774	0.4518391
59	0xbed207ba	-0.4102152
60	0x3d14e5f7	0.036352124
61	0xbec9c2db	-0.39406475
62	0x3e364cbd	0.17802711
63	0xbe4b99e2	-0.1988292
64	0x3e3527c5	0.17690952
65	0xbdf65883	-0.12028601
66	0x3ef52bc6	0.4788496
67	0xbeaf3465	-0.3421966
68	0xbeb04c18	-0.34433055
69	0xbea48d26	-0.32138938
70	0x3ee66047	0.4499533
71	0x3e2aeb80	0.16691399
72	0x3f0e38e6	0.5555557
73	0xbef3f454	-0.47647345
74	0xbf1299d7	-0.5726599
75	0xbf166cee	-0.58759964
76	0xbed1fd83	-0.41013727
77	0x3ed55241	0.41664317
78	0x3eac93d6	0.3370654
79	0x3f1f0387	0.6211476
80	0xbe75560f	-0.2395861
81	0xbec9842b	-0.3935865
82	0x3e9cd736	0.30632943
83	0xbe6ef7e8	-0.23336756
84	0x3e92690a	0.28595763
85	0xbe38aa75	-0.18033774
86	0x3e9a27ba	0.30108434
87	0xbeda8975	-0.42682996
88	0xbe14d8cd	-0.14535828
89	0x3e5560ec	0.20837754
90	0x3e468745	0.19387539
91	0xbcaaa148	-0.020828858
92	0x3ecfdeb3	0.40599594
93	0x3ec8f431	0.39248803
94	0xbed65d19	-0.41867903
95	0xbe9dd02f	-0.30822894
96	0x3f07561c	0.5286577
97	0xbe477e0a	-0.19481674
98	0xbe5197ab	-0.20468013
99	0xbef1aa59	-0.47200277
100	0xbe77a069	-0.24182285
101	0x3e491414	0.19636565
102	0xbd9c120c	-0.0762063
103	0xbed69306	-0.41909045
104	0x3c5de251	0.013542728
105	0xbec9ebd2	-0.3943773
106	0xbefac9f4	-0.48982203
107	0xbea2c718	-0.3179252
108	0xbee18668	-0.44047856
109	0xbe865a5c	-0.26240814
110	0x3f2098d9	0.62733227
111	0x3ddf540a	0.10904701
112	0x3e362fa3	0.1779161
113	0xbf09da30	-0.5384855
114	0xbec22500	-0.37918854
115	0xbe44c95d	-0.19217439
116	0x3db8e532	0.090280905
117	0xbf020dc8	-0.5080228
118	0xbe7ebc2a	-0.24876466
119	0xbeb0f7eb	-0.34564146
120	0x3ad1b6a5	0.0015999867
121	0xbe5bfd6a	-0.21483389
122	0xbd23df5a	-0.040007927
123	0xbec84f42	-0.3912297
124	0xbecae694	-0.39629042
125	0xbeac749d	-0.3368272
126	0xbe606eec	-0.21917313
127	0xbf07de7c	-0.5307386
128	0x3ee56845	0.44806114
129	0x3d748f62	0.059707053
130	0x3f127d5e	0.57222545
131	0x3e73a576	0.23793587
132	0xbeb0944d	-0.34488145
133	0x3f0d7388	0.5525441
134	0xbda10e5f	-0.07864069
135	0xbe629ffb	-0.2213134
136	0xbef55f21	-0.4792414
137	0xbf12f048	-0.5739789
138	0x3e874ced	0.26425877
139	0xbcb5ae9a	-0.022177983
140	0x3e91c09b	0.2846726
141	0xbef29742	-0.47381026
142	0x3edb76eb	0.42864165
143	0xbed8fd1d	-0.4238061
144	0xbdd80e57	-0.1054961
145	0x3d3b1862	0.04567755
146	0x3e872914	0.26398528
147	0x3eeea4c5	0.46610084
148	0x3f06a42c	0.52594256
149	0xbeea63f3	-0.4577938
150	0x3e14c991	0.14530016
151	0xbe7e4b18	-0.24833333
152	0xbd819315	-0.06326882
153	0xbedd4194	-0.43214095
154	0x3f06a05d	0.52588445
155	0xbed8f54d	-0.4237465
156	0x3e8f128c	0.27943838
157	0x3e27bb8f	0.16380142
158	0x3e234212	0.15943173
159	0xbec02dc0	-0.37534904
160	0x3f0d7279	0.55252796
161	0x3ddacbb2	0.10683383
162	0x3d8fcd88	0.07021624
163	0xbf0347b1	-0.5128127
164	0x3e740a36	0.2383202
165	0x3deba2c1	0.11505652
166	0xbe74d3b4	-0.23908883
167	0x3f07c001	0.5302735
168	0x3e03cf0e	0.12871954
169	0xbea38ce4	-0.3194343
170	0xbe959dc9	-0.29221943
171	0x3d915c36	0.07097666
172	0x3ecc1baa	0.39864856
173	0xbdd1a358	-0.102362335
174	0xbea8a9f1	-0.32942155
175	0xbe4a745b	-0.19770949
176	0xbedcd67b	-0.43132386
177	0x3e52d7ef	0.20590185
178	0x3ee4cf12	0.44689232
179	0xbf0b257e	-0.54354084
180	0x3e546dd4	0.20745021
181	0x3ed6ca04	0.41951
182	0x3e2befd2	0.16790703
183	0xbe80e683	-0.25175866
184	0x3e7f270a	0.24917236
185	0x3e88d788	0.26726937
186	0x3e5d117a	0.21588698
187	0xbdcfc67c	-0.1014528
188	0xbe1c8d62	-0.15288308
189	0x3d7cfdc8	0.061765462
190	0xbdd0e0cf	-0.10199129
191	0xbe302e22	-0.17205098

nn.0.bias f4 [64]
0	0x3ed56158	0.4167583
1	0x3ee80480	0.45315933
2	0x3c99dc56	0.018781822
3	0xbd76b3d2	-0.060230084
4	0xbd45f2c5	-0.048327226
5	0xbd80abff	-0.06282806
6	0x3e0e21fc	0.13880152
7	0x3e026f0f	0.12737678
8	0xbf063deb	-0.5243823
9	0xbe5a2d76	-0.21306404
10	0x3f1061a8	0.5639901
11	0x3eaa9bf9	0.33322123
12	0xbd74a226	-0.05972495
13	0xbeb23890	-0.3480878
14	0xbe91e3b8	-0.28494048
15	0xbf0c5408	-0.5481572
16	0xbe40b60e	-0.18819448
17	0x3e8a16f4	0.26970637
18	0x3ea7968b	0.32732043
19	0x3e887ab2	0.2665611
20	0xbf02a5fe	-0.51034534
21	0xbeb1c3c7	-0.3471968
22	0xbdba9ac1	-0.09111548
23	0x3f07d1ab	0.530543
24	0x3dab0b82	0.08351804
25	0xbe2f9797	-0.1714767
26	0x3eb34e05	0.35020462
27	0xbe612e01	-0.21990205
28	0xbed997c0	-0.4249859
29	0x3f04a21c	0.5180986
30	0xbe28c0b7	-0.16479765
31	0xbded08d9	-0.11573953
32	0xbf1308a2	-0.5743505
33	0x3ee9c1c3	0.4565564
34	0x3edff596	0.43742055
35	0x3e5776d6	0.21041426
36	0xbeab10fc	-0.33411396
37	0xbf11df12	-0.56981003
38	0xbef01533	-0.46891174
39	0x3edc6e75	0.43053022
40	0x3e8debbe	0.2771892
41	0x3ef8c064	0.48584282
42	0x3e8df756	0.27727765
43	0x3e6d8d14	0.23198348
44	0x3e02f570	0.1278894
45	0xbee0cee1	-0.43907836
46	0xbed489dd	-0.4151143
47	0xbf0a3eff	-0.54002374
48	0x3e4d0b8d	0.20023938
49	0xbe9121bc	-0.2834605
50	0xbdedf6b7	-0.11619323
51	0xbeaa1f0c	-0.33226812
52	0xbe0fd7f8	-0.1404723
53	0xbece7fbb	-0.40331826
54	0xbec3387d	-0.38129035
55	0x3eb693ce	0.3565964
56	0xbe2fb459	-0.17158641
57	0x3eded031	0.43518212
58	0xbe3daa0e	-0.18521902
59	0xbed8d84d	-0.42352524
60	0xbcbc69ae	-0.02299961
61	0xbea18bda	-0.3155201
62	0xbe34dfec	-0.17663544
63	0xbf0cb4e0	-0.54963493

nn.2.weight f4 [15, 64]
0	0x3d24a6f8	0.040198296
1	0xbdd03b7a	-0.10167594
2	0x3d880d35	0.06643144
3	0x3d7fd7d2	0.06246168
4	0x3da24dfb	0.0792503
5	0xbdc43445	-0.09580282
6	0x3db81d48	0.0898996
7	0xbd4994e9	-0.049214277
8	0x3d3dfcc8	0.04638365
9	0x3df069d2	0.117389336
10	0xbcb21c33	-0.021741962
11	0xb988dda9	-0.0002610509
12	0xbd1810e3	-0.03712548
13	0xbdd5c18c	-0.10437307
14	0x3d56777f	0.052360054
15	0xbdc4b4dc	-0.09604809
16	0x3d9eecbe	0.07759999
17	0x3dda0768	0.10645944
18	0x3deca7ad	0.11555419
19	0xbcf18a68	-0.029484943
20	0xbdd25720	-0.10270524
21	0x3ce639e8	0.028103784
22	0x3d8d6be0	0.06905341
23	0xbdf1fcdb	-0.118158065
24	0xbce86e68	-0.028372958
25	0x3c3edd4e	0.011649443
26	0xbda9bc0b	-0.082878195
27	0xbd7c0368	-0.061526686
28	0xbd8696fe	-0.06571768
29	0xbc06ef1d	-0.00823572
30	0xbdf2cff4	-0.1185607
31	0x3dd20cc8	0.10256344
32	0x3dd69ce0	0.1047914
33	0x3d241ba7	0.040065434
34	0xbc693b00	-0.014235258
35	0xbd50f518	-0.05101499
36	0xbdb969b3	-0.09053364
37	0xbdf91ffe	-0.12164305
38	0x3d3e4a04	0.046457306
39	0xbd8c8e4a	-0.06863077
40	0xbda49396	-0.08035962
41	0xbc1fcaa0	-0.009752899
42	0xbcd35076	-0.025795203
43	0xbd2f5b1a	-0.04281149
44	0xbd35e9d7	-0.04441246
45	0xbcd93400	-0.026514053
46	0xbd2cbeb3	-0.042174052
47	0xbd75260c	-0.059850737
48	0xbdc4ef5e	-0.09615968
49	0x3dd6a868	0.1048134
50	0xbd4ce554	-0.05002339
51	0x3d07ab64	0.033122435
52	0xbd63714c	-0.05552797
53	0x3c974389	0.01846482
54	0x3df3b5f8	0.11899942
55	0x3d8153fc	0.06314847
56	0xbdddd97a	-0.10832496
57	0x3ce1aab5	0.02754722
58	0x3df30194	0.118655354
59	0x3d06b2dc	0.032885417
60	0x3d95ba15	0.07310883
61	0x3e051216	0.1299518
62	0xbc9ce810	-0.019153625
63	0x3cd48928	0.025944307
64	0xbbd6563c	-0.0065410417
65	0x3c940860	0.0180704
66	0x3e1261f8	0.14295185
67	0x3e0afcab	0.13572948
68	0xbd12141d	-0.035663713
69	0xbd26f347	-0.04075935
70	0xbdaef0ec	-0.08542046
71	0xbdc87ac1	-0.097890384
72	0xbdc58a22	-0.09645487
73	0xbcfd3b88	-0.030912176
74	0x3dfd028b	0.12354001
75	0x3d87a248	0.066227496
76	0xbd09736b	-0.033557337
77	0xbdcd5e8c	-0.10027799
78	0x3df52a5b	0.11970969
79	0xbd20221f	-0.03909504
80	0xbc7c2a40	-0.015390933
81	0x3dbad3e8	0.09122449
82	0xbbe94d93	-0.0071198433
83	0xbc5f5050	-0.013629988
84	0xbc324460	-0.01088056
85	0xbcf242e8	-0.029572919
86	0xbd81ccdc	-0.06337902
87	0xbd6b5bf2	-0.057460733
88	0xbdcef07c	-0.101044625
89	0xbee61cac	-0.4494375
90	0x3eac56ca	0.33659965
91	0xbd774db4	-0.060376838
92	0xbd811e1c	-0.06304571
93	0x3d81dc24	0.063408166
94	0x3d9f060a	0.07764824
95	0x3d8c43d0	0.06848872
96	0x3dc29740	0.09501505
97	0x3db31317	0.087438755
98	0xbdfdd302	-0.12393762
99	0x3c35a260	0.0110860765
100	0x3dc74c53	0.097313546
101	0xbc3d4990	-0.011553183
102	0xbd96db00	-0.0736599
103	0x3df40e14	0.11916748
104	0xbd3f8094	-0.04675348
105	0xbd91c090	-0.071168065
106	0xbdbf1b39	-0.09331364
107	0x3d896b45	0.06709913
108	0x3e953d16	0.29148167
109	0x3ce2acf0	0.027670354
110	0x3d7d5fb7	0.06185886
111	0xbdc225ae	-0.09479843
112	0xbd98138f	-0.074256055
113	0x3b104180	0.0022011697
114	0x3de96df6	0.113979265
115	0x3d93b11e	0.07211517
116	0xbcc349b9	-0.023838865
117	0x3d45e8dd	0.04831778
118	0xbdb68742	-0.08912517
119	0xbcaf6a76	-0.02141307
120	0x3cb971d8	0.022637293
121	0x3e2e96fb	0.17049782
122	0x3dd41002	0.10354616
123	0xbdeb0900	-0.11476326
124	0x3e1b40ea	0.15161481
125	0xbd3550e8	-0.04426661
126	0x3d3fba2c	0.046808407
127	0x3dd8a388	0.10578066
128	0xbc7f419e	-0.015579609
129	0x3d8b77f5	0.06809989
130	0xbdca711a	-0.09884854
131	0xbc389752	-0.011266546
132	0x3d47856f	0.048711237
133	0x3b277428	0.0025551412
134	0xbcd19cf0	-0.025587529
135	0xbd703a2c	-0.058649227
136	0x3db0765e	0.08616327
137	0x3d7b233c	0.0613129
138	0x3bae7786	0.005324307
139	0xbdb03fd6	-0.08605926
140	0xbdb1d04e	-0.08682309
141	0x3c5d8350	0.013520077
142	0x3d0a3299	0.03373966
143	0x3df52b5c	0.11971161
144	0xbd0f41a4	-0.03497471
145	0x3d988b16	0.074484035
146	0x3c161a55	0.0091615515
147	0x3bb8ce00	0.0056397915
148	0xbcfc01c8	-0.030762568
149	0xbde7d4ba	-0.11319871
150	0xbdf0b4b6	-0.11753218
151	0xbd128851	-0.035774533
152	0xbd82215a	-0.063540176
153	0x3da4fdde	0.08056234
154	0x3c36bf48	0.011154003
155	0xbd484e44	-0.048902765
156	0x3d82a8f5	0.06379882
157	0x3d692883	0.0569234
158	0x3d876fac	0.066130966
159	0xbd77dda0	-0.060514092
160	0xbd512290	-0.051058352
161	0x3d92d5c0	0.07169676
162	0xbdaa9102	-0.08328439
163	0xbda75926	-0.081713006
164	0xbb7ef419	-0.0038902818
165	0xbd3b44fc	-0.045720086
166	0xbdbfe996	-0.09370725
167	0x3d97d944	0.07414487
168	0x3dcddd9e	0.10052036
169	0x3ca61de0	0.020277917
170	0xbce22779	-0.027606713
171	0xbdd8af21	-0.10580278
172	0x3e1dd83f	0.15414523
173	0x3d02590c	0.031823203
174	0xbba6fea5	-0.005096274
175	0xbc817398	-0.01580219
176	0xbd2a93df	-0.041644927
177	0x3d8ea65e	0.06965326
178	0xbdcbe0da	-0.099549964
179	0x3da1cbee	0.079002246
180	0xbd86a6f0	-0.065748096
181	0x3d77400a	0.060363807
182	0xbcbc33a6	-0.022973847
183	0x3b857f54	0.0040740166
184	0xbd1ab9c0	-0.0377748
185	0x3df04776	0.1173238
186	0xbb54f800	-0.0032496452
187	0x3dc7d55e	0.097574934
188	0x3defb2ba	0.11704011
189	0xbd1b655f	-0.037938472
190	0xbdbac11c	-0.09118864
191	0x3dcd63aa	0.10028775
192	0x3e246b22	0.16056493
193	0xbccca9eb	-0.024983367
194	0x3cd0c3a7	0.02548392
195	0xbdd29754	-0.1028277
196	0xbd6ff698	-0.05858478
197	0x3d3a0fc1	0.04542518
198	0x3d0835b0	0.033254325
199	0x3d8ab646	0.06773047
200	0xbd0b592c	-0.034020588
201	0x3dec2e0e	0.11532222
202	0x3da6a074	0.08136073
203	0xbcab61da	-0.020920683
204	0x3ca77167	0.020439817
205	0x3cf5e8a0	0.03001815
206	0x3da28ec3	0.07937386
207	0xbe75d2fb	-0.24006264
208	0x3d3fe46c	0.0468487
209	0xbc846559	-0.016161608
210	0xbd750f88	-0.059829265
211	0xbd8bd440	-0.06827593
212	0x3df6e388	0.12055117
213	0x3ddad7f6	0.106857225
214	0x3de53e78	0.111935556
215	0x3de10875	0.10987941
216	0x3dc16524	0.09443119
217	0xbe70db77	-0.23521219
218	0x3d58679d	0.05283319
219	0x3d7fd2fc	0.06245707
220	0xbd01fab1	-0.03173322
221	0xbce5d50e	-0.028055694
222	0x3b90457a	0.0044028135
223	0x3cd6e558	0.026232406
224	0x3d83c9b6	0.06434958
225	0x3c3baab4	0.011454273
226	0xbd96ac48	-0.07357079
227	0x3c8a2168	0.016861632
228	0xbd4b12f2	-0.049578615
229	0xbda6abf6	-0.08138268
230	0x3d8570c4	0.06515649
231	0xbcac0428	-0.020998076
232	0x3de9edd0	0.11422312
233	0x3df90848	0.12159783
234	0x3da7a0e1	0.08184982
235	0x3daa43e9	0.08313734
236	0x3daebc7b	0.085320435
237	0x3b004b40	0.0019576102
238	0x3cd88ac9	0.026433365
239	0x3ae12f00	0.0017180145
240	0x3dac6c39	0.08419079
241	0x3dee0576	0.11622135
242	0xbd04b080	-0.032394886
243	0xbd586e34	-0.052839473
244	0x3be9030b	0.0071109585
245	0xbd92a5ca	-0.07160528
246	0x3cc6a4cb	0.024248501
247	0x3e11cc90	0.1423819
248	0x3dc82fac	0.09774718
249	0x3dfd5a43	0.12370732
250	0xbdbc6602	-0.09199144
251	0xbd89657c	-0.0670881
252	0x3c80f3f2	0.015741322
253	0xbbdb7a20	-0.006697908
254	0x3c287180	0.010280967
255	0xbdeb002e	-0.11474644

nn.2.bias f4 [15]
0	0x3dc5e7f3	0.096633814
1	0x3d638db2	0.055555053
2	0x3d805b2b	0.06267389
3	0x3cc2d11a	0.023781348
4	0xbda4653d	-0.08027122
5	0x3d89ca07	0.06727987
6	0x3cfcb6af	0.03084883
7	0xbbefad0f	-0.0073143314
8	0x3d6853c1	0.0567205
9	0xbddaae56	-0.10677783
10	0x3ddc51dc	0.10757801
11	0x3df7e86e	0.12104879
12	0x3d0b6574	0.0340323
13	0xbda09f2c	-0.078428596
14	0x3d792cf8	0.0608339

exp_avg f4 [64, 3]
0	0x37b1a43e	2.1176525e-05
1	0x393b3a44	0.00017855415
2	0x39bb3fed	0.00035715048
3	0xb78651cf	-1.601214e-05
4	0xb8b4ea69	-8.626731e-05
5	0xb948073e	-0.00019076184
6	0x38235b20	3.8947095e-05
7	0x3940b180	0.00018376671
8	0x39e57371	0.00043764294
9	0x367cf6bd	3.7694547e-06
10	0xb882b17d	-6.231943e-05
11	0xb8ac135b	-8.205204e-05
12	0xb7ae6cb7	-2.079304e-05
13	0xb8ddb7a6	-0.000105723084
14	0xb9772a5a	-0.00023571533
15	0x361b186b	2.3111013e-06
16	0x37c3b00a	2.3327786e-05
17	0x38208cb1	3.8278e-05
18	0x00000000	0.0
19	0x00000000	0.0
20	0x00000000	0.0
21	0x368bdc7b	4.16819e-06
22	0x38be3488	9.069691e-05
23	0x39236103	0.00015581031
24	0x00000000	0.0
25	0x00000000	0.0
26	0x00000000	0.0
27	0x00000000	0.0
28	0x00000000	0.0
29	0x00000000	0.0
30	0x37a848b7	2.0061021e-05
31	0x38d2b877	0.000100479396
32	0x3971eb10	0.00023071119
33	0x378ffc62	1.7164453e-05
34	0x389656ac	7.168701e-05
35	0x39381aca	0.00017557587
36	0x37697ce3	1.391696e-05
37	0x38c8c55a	9.573503e-05
38	0x39527443	0.00020070472
39	0x00000000	0.0
40	0x00000000	0.0
41	0x00000000	0.0
42	0x378f6598	1.7094237e-05
43	0x38e64bf7	0.00010981404
44	0x3981210a	0.00024629413
45	0xb869fa24	-5.578449e-05
46	0xb9c309c1	-0.00037200566
47	0xba4be53c	-0.0007777994
48	0x00000000	0.0
49	0x00000000	0.0
50	0x00000000	0.0
51	0xb72cd224	-1.0300926e-05
52	0xb8afae70	-8.377142e-05
53	0xb930a282	-0.00016845207
54	0xb7540d52	-1.2639286e-05
55	0xb8e37aa5	-0.00010847048
56	0xb96f5785	-0.0002282542
57	0x00000000	0.0
58	0x00000000	0.0
59	0x00000000	0.0
60	0x00000000	0.0
61	0x00000000	0.0
62	0x00000000	0.0
63	0x00000000	0.0
64	0x00000000	0.0
65	0x00000000	0.0
66	0x00000000	0.0
67	0x00000000	0.0
68	0x00000000	0.0
69	0x378fa6fb	1.7124685e-05
70	0x3926fba1	0.00015924733
71	0x39a5af94	0.00031602068
72	0x00000000	0.0
73	0x00000000	0.0
74	0x00000000	0.0
75	0xb8be4176	-9.072099e-05
76	0xb9fa7482	-0.0004777052
77	0xba8f655e	-0.0010940244
78	0x381a38ee	3.676948e-05
79	0x3902de7d	0.0001248065
80	0x39b098cb	0.00033683176
81	0x00000000	0.0
82	0x00000000	0.0
83	0x00000000	0.0
84	0xb796f85d	-1.7997047e-05
85	0xb8ac95fc	-8.229536e-05
86	0xb9438ce5	-0.00018649136
87	0xb72b70ac	-1.0218628e-05
88	0xb8dde1f4	-0.00010580188
89	0xb9606cc8	-0.00021402829
90	0xb682f515	-3.902833e-06
91	0xb83cfcaf	-4.5058023e-05
92	0xb8aed285	-8.336179e-05
93	0x00000000	0.0
94	0x00000000	0.0
95	0x00000000	0.0
96	0x00000000	0.0
97	0x00000000	0.0
98	0x00000000	0.0
99	0xb6bb108c	-5.5749606e-06
100	0xb7d4f713	-2.5387422e-05
101	0xb8578c41	-5.1390616e-05
102	0x00000000	0.0
103	0x00000000	0.0
104	0x00000000	0.0
105	0x00000000	0.0
106	0x00000000	0.0
107	0x00000000	0.0
108	0x36c6f802	5.9297317e-06
109	0xb79c3579	-1.862155e-05
110	0xb6b39fa8	-5.353202e-06
111	0x00000000	0.0
112	0x00000000	0.0
113	0x00000000	0.0
114	0x00000000	0.0
115	0x00000000	0.0
116	0x00000000	0.0
117	0x00000000	0.0
118	0x00000000	0.0
119	0x00000000	0.0
120	0x00000000	0.0
121	0x00000000	0.0
122	0x00000000	0.0
123	0x00000000	0.0
124	0x00000000	0.0
125	0x00000000	0.0
126	0x364842e7	2.9841265e-06
127	0x387e04f4	6.0562932e-05
128	0x38c7447b	9.501815e-05
129	0x382487cd	3.922712e-05
130	0x398b89b7	0.00026614752
131	0x3a185273	0.0005810626
132	0x373dc86c	1.1311942e-05
133	0x36c01ba9	5.725266e-06
134	0x386008ab	5.3413834e-05
135	0x00000000	0.0
136	0x00000000	0.0
137	0x00000000	0.0
138	0x378923ff	1.6348435e-05
139	0x38a155dc	7.693071e-05
140	0x394084ad	0.00018359972
141	0x00000000	0.0
142	0x00000000	0.0
143	0x00000000	0.0
144	0x3744859f	1.17136215e-05
145	0x38f3e12b	0.00011629084
146	0x3968cd93	0.00022201827
147	0x00000000	0.0
148	0x00000000	0.0
149	0x00000000	0.0
150	0x00000000	0.0
151	0x00000000	0.0
152	0x00000000	0.0
153	0x00000000	0.0
154	0x00000000	0.0
155	0x00000000	0.0
156	0x3771fa83	1.4423046e-05
157	0x3898eb70	7.2917785e-05
158	0x392b96be	0.00016363987
159	0xb79a039e	-1.8359915e-05
160	0xb916d235	-0.00014383423
161	0xb99b44d0	-0.00029615173
162	0x00000004	6e-45
163	0x00000004	6e-45
164	0x00000004	6e-45
165	0x374cc650	1.2205521e-05
166	0x38ed1de3	0.000113066075
167	0x395ff076	0.00021356516
168	0x00000000	0.0
169	0x00000000	0.0
170	0x00000000	0.0
171	0x36e62595	6.8589093e-06
172	0x3884694e	6.313865e-05
173	0x390e96e2	0.00013598384
174	0x00000000	0.0
175	0x00000000	0.0
176	0x00000000	0.0
177	0x00000000	0.0
178	0x00000000	0.0
179	0x00000000	0.0
180	0x35fd56ad	1.8875195e-06
181	0xb7fea6fe	-3.0356921e-05
182	0xb80b34c8	-3.318934e-05
183	0x358f6722	1.0684346e-06
184	0xb5638383	-8.4755465e-07
185	0xb6e292c0	-6.752409e-06
186	0x00000000	0.0
187	0x00000000	0.0
188	0x00000000	0.0
189	0x00000000	0.0
190	0x00000000	0.0
191	0x00000000	0.0

exp_avg_sq f4 [64, 3]
0	0x31ea7083	6.8230874e-09
1	0x33c2fc0d	9.079677e-08
2	0x350b36aa	5.186108e-07
3	0x317637a5	3.5829342e-09
4	0x335055f2	4.850694e-08
5	0x348fcd4b	2.6785196e-07
6	0x325a0581	1.26905215e-08
7	0x3437e547	1.7126614e-07
8	0x357de3c5	9.458129e-07
9	0x319573e8	4.3496478e-09
10	0x33773296	5.7555177e-08
11	0x34a8cd2c	3.144172e-07
12	0x320a531d	8.051555e-09
13	0x33e70dcf	1.07592875e-07
14	0x3521b6d7	6.024324e-07
15	0x31c90dcf	5.8514398e-09
16	0x33a903a6	7.8703394e-08
17	0x34f46300	4.5520574e-07
18	0x00000000	0.0
19	0x00000000	0.0
20	0x00000000	0.0
21	0x31fcf403	7.361906e-09
22	0x33d34ba7	9.839214e-08
23	0x35146e3f	5.5294726e-07
24	0x00000000	0.0
25	0x00000000	0.0
26	0x00000000	0.0
27	0x00000000	0.0
28	0x00000000	0.0
29	0x00000000	0.0
30	0x32412ffa	1.1244987e-08
31	0x3422f5ec	1.5176892e-07
32	0x35561c8f	7.976277e-07
33	0x30d7230a	1.5653268e-09
34	0x32bb0c00	2.1775122e-08
35	0x33e5ccd6	1.0700903e-07
36	0x31bb1c1e	5.445613e-09
37	0x339e70b0	7.377946e-08
38	0x34df58ce	4.16016e-07
39	0x00000000	0.0
40	0x00000000	0.0
41	0x00000000	0.0
42	0x324a275a	1.1766895e-08
43	0x34287569	1.5688933e-07
44	0x356ba19e	8.7779506e-07
45	0x32be747f	2.2171887e-08
46	0x34a37f15	3.045358e-07
47	0x35e60d4b	1.7140204e-06
48	0x00000000	0.0
49	0x00000000	0.0
50	0x00000000	0.0
51	0x31a4f1c4	4.8005138e-09
52	0x338c7ed4	6.542328e-08
53	0x34aea05d	3.2526705e-07
54	0x320d5261	8.226011e-09
55	0x33eb08bd	1.094463e-07
56	0x35285af5	6.2717237e-07
57	0x00000000	0.0
58	0x00000000	0.0
59	0x00000000	0.0
60	0x00000000	0.0
61	0x00000000	0.0
62	0x00000000	0.0
63	0x00000000	0.0
64	0x00000000	0.0
65	0x00000000	0.0
66	0x00000000	0.0
67	0x00000000	0.0
68	0x00000000	0.0
69	0x32154da8	8.6905985e-09
70	0x33f738ce	1.15121665e-07
71	0x3526f361	6.219398e-07
72	0x00000000	0.0
73	0x00000000	0.0
74	0x00000000	0.0
75	0x32f3ba9d	2.8373785e-08
76	0x34d25959	3.9180557e-07
77	0x3617197b	2.2515585e-06
78	0x324a6af3	1.1782265e-08
79	0x342db839	1.61789e-07
80	0x3556f636	8.0079496e-07
81	0x00000000	0.0
82	0x00000000	0.0
83	0x00000000	0.0
84	0x3233a8f5	1.0457588e-08
85	0x34168f34	1.4021936e-07
86	0x354ef224	7.709334e-07
87	0x316e0635	3.4637087e-09
88	0x3345ef45	4.608525e-08
89	0x34862447	2.498584e-07
90	0x311a8d8a	2.2490405e-09
91	0x3303d6e6	3.0696263e-08
92	0x341de287	1.4704175e-07
93	0x00000000	0.0
94	0x00000000	0.0
95	0x00000000	0.0
96	0x00000000	0.0
97	0x00000000	0.0
98	0x00000000	0.0
99	0x31d6fe4e	6.257131e-09
100	0x33b42b6d	8.389802e-08
101	0x35020cba	4.8447293e-07
102	0x00000000	0.0
103	0x00000000	0.0
104	0x00000000	0.0
105	0x00000000	0.0
106	0x00000000	0.0
107	0x00000000	0.0
108	0x31a981fd	4.9333253e-09
109	0x338f7fba	6.68219e-08
110	0x34b1445d	3.301856e-07
111	0x00000000	0.0
112	0x00000000	0.0
113	0x00000000	0.0
114	0x00000000	0.0
115	0x00000000	0.0
116	0x00000000	0.0
117	0x00000000	0.0
118	0x00000000	0.0
119	0x00000000	0.0
120	0x00000000	0.0
121	0x00000000	0.0
122	0x00000000	0.0
123	0x00000000	0.0
124	0x00000000	0.0
125	0x00000000	0.0
126	0x31d30eea	6.1426038e-09
127	0x33b10a54	8.2440835e-08
128	0x3500a948	4.793005e-07
129	0x3289c184	1.60369e-08
130	0x34646a0a	2.1272731e-07
131	0x35a3f816	1.2216649e-06
132	0x321c4f98	9.098493e-09
133	0x3403c242	1.2270996e-07
134	0x35227e4a	6.053348e-07
135	0x00000000	0.0
136	0x00000000	0.0
137	0x00000000	0.0
138	0x312e3acf	2.5353761e-09
139	0x33148775	3.4582133e-08
140	0x343d682b	1.7639893e-07
141	0x00000000	0.0
142	0x00000000	0.0
143	0x00000000	0.0
144	0x31e6712d	6.7067476e-09
145	0x33c05fef	8.958147e-08
146	0x3504ce21	4.947379e-07
147	0x00000000	0.0
148	0x00000000	0.0
149	0x00000000	0.0
150	0x00000000	0.0
151	0x00000000	0.0
152	0x00000000	0.0
153	0x00000000	0.0
154	0x00000000	0.0
155	0x00000000	0.0
156	0x31d068fb	6.0655316e-09
157	0x33af99f2	8.177075e-08
158	0x34f4993a	4.556003e-07
159	0x317893c2	3.617274e-09
160	0x33527653	4.900205e-08
161	0x3495ca86	2.7900768e-07
162	0x2bb0adfe	1.2553845e-12
163	0x2d7c9639	1.4357898e-11
164	0x2f24dd5d	1.4994357e-10
165	0x3188fb27	3.9866737e-09
166	0x3361c413	5.2565223e-08
167	0x349cd384	2.9211162e-07
168	0x00000000	0.0
169	0x00000000	0.0
170	0x00000000	0.0
171	0x326539da	1.3342708e-08
172	0x343eaaa9	1.7757215e-07
173	0x3585de59	9.973984e-07
174	0x00000000	0.0
175	0x00000000	0.0
176	0x00000000	0.0
177	0x00000000	0.0
178	0x00000000	0.0
179	0x00000000	0.0
180	0x31ea7bec	6.8243846e-09
181	0x33c79b1a	9.2948724e-08
182	0x350e3c91	5.298726e-07
183	0x319b9279	4.5277457e-09
184	0x338267fd	6.072512e-08
185	0x34bfe0af	3.574e-07
186	0x00000000	0.0
187	0x00000000	0.0
188	0x00000000	0.0
189	0x00000000	0.0
190	0x00000000	0.0
191	0x00000000	0.0

exp_avg f4 [64]
0	0x38c0e3ff	9.197741e-05
1	0xb85d4497	-5.2754385e-05
2	0x391697ff	0.00014361738
3	0xb6ca352a	-6.0262582e-06
4	0xb889d921	-6.5731125e-05
5	0x35d8eba4	1.6161835e-06
6	0x00000000	0.0
7	0x380a9c7f	3.3047512e-05
8	0x00000000	0.0
9	0x00000000	0.0
10	0x3891339a	6.92375e-05
11	0x38791850	5.938887e-05
12	0x386c2858	5.6304358e-05
13	0x00000000	0.0
14	0x38a960c1	8.07657e-05
15	0xb961db97	-0.00021539476
16	0x00000000	0.0
17	0xb83db8a0	-4.5233057e-05
18	0xb890c8bb	-6.903844e-05
19	0x00000000	0.0
20	0x00000000	0.0
21	0x00000000	0.0
22	0x00000000	0.0
23	0x38b25d11	8.5050364e-05
24	0x00000000	0.0
25	0xb9b6774b	-0.00034802625
26	0x38fbaaa2	0.000120003955
27	0x00000000	0.0
28	0xb864860f	-5.4484288e-05
29	0xb884e168	-6.336236e-05
30	0xb7b4af16	-2.1539203e-05
31	0x00000000	0.0
32	0x00000000	0.0
33	0xb6f712f2	-7.363379e-06
34	0x00000000	0.0
35	0x00000000	0.0
36	0x372cd0f9	1.0300654e-05
37	0x00000000	0.0
38	0x00000000	0.0
39	0x00000000	0.0
40	0x00000000	0.0
41	0x00000000	0.0
42	0x372a96ac	1.0167871e-05
43	0x393f62a8	0.00018251932
44	0x37ea4835	2.7928598e-05
45	0x00000000	0.0
46	0x38812887	6.158748e-05
47	0x00000000	0.0
48	0x386953e2	5.562965e-05
49	0x00000000	0.0
50	0x00000000	0.0
51	0x00000000	0.0
52	0x3846bcee	4.7382833e-05
53	0xb8ad340b	-8.2589766e-05
54	0x00000004	6e-45
55	0x383ea99d	4.5457495e-05
56	0x00000000	0.0
57	0x38353ddf	4.3211385e-05
58	0x00000000	0.0
59	0x00000000	0.0
60	0x363bf8b2	2.8009931e-06
61	0xb700c640	-7.675553e-06
62	0x00000000	0.0
63	0x00000000	0.0

exp_avg_sq f4 [64]
0	0x333c933a	4.3906063e-08
1	0x32c8e117	2.3385423e-08
2	0x33b15e2e	8.259336e-08
3	0x32eede65	2.780798e-08
4	0x335fc4a1	5.2100066e-08
5	0x332346fe	3.8015962e-08
6	0x00000000	0.0
7	0x334b5ef4	4.735098e-08
8	0x00000000	0.0
9	0x00000000	0.0
10	0x339ca704	7.294696e-08
11	0x3232cc23	1.0407379e-08
12	0x331803ea	3.5393818e-08
13	0x00000000	0.0
14	0x33a27944	7.565771e-08
15	0x341c11c0	1.453509e-07
16	0x00000000	0.0
17	0x33058b63	3.1093247e-08
18	0x3362fec7	5.2851444e-08
19	0x00000000	0.0
20	0x00000000	0.0
21	0x00000000	0.0
22	0x00000000	0.0
23	0x336d7aba	5.529248e-08
24	0x00000000	0.0
25	0x344b37e5	1.8926183e-07
26	0x33a58e0c	7.7092494e-08
27	0x00000000	0.0
28	0x33917513	6.773384e-08
29	0x32bcfe53	2.2001734e-08
30	0x3279a3c0	1.453094e-08
31	0x00000000	0.0
32	0x00000000	0.0
33	0x332d381e	4.033074e-08
34	0x00000000	0.0
35	0x00000000	0.0
36	0x3308ede5	3.188133e-08
37	0x00000000	0.0
38	0x00000000	0.0
39	0x00000000	0.0
40	0x00000000	0.0
41	0x00000000	0.0
42	0x332b6245	3.9903416e-08
43	0x33dc8fd4	1.02707105e-07
44	0x337b5fc3	5.8527586e-08
45	0x00000000	0.0
46	0x328de770	1.6519806e-08
47	0x00000000	0.0
48	0x33392c7b	4.3114124e-08
49	0x00000000	0.0
50	0x00000000	0.0
51	0x00000000	0.0
52	0x332936dd	3.9398277e-08
53	0x32ca4af3	2.3549978e-08
54	0x2d0edc2d	8.120654e-12
55	0x32dc9b51	2.5682e-08
56	0x00000000	0.0
57	0x33b819ae	8.572839e-08
58	0x00000000	0.0
59	0x00000000	0.0
60	0x333f14a0	4.448941e-08
61	0x32fbcc3b	2.9313119e-08
62	0x00000000	0.0
63	0x00000000	0.0

exp_avg f4 [15, 64]
0	0xb7326477	-1.0633018e-05
1	0xb74419c3	-1.16885085e-05
2	0xb83d3b48	-4.511632e-05
3	0xb7cea19b	-2.4632367e-05
4	0xb7788a4c	-1.4814152e-05
5	0xb74efb16	-1.2337017e-05
6	0x00000000	0.0
7	0xb774f7a9	-1.4601196e-05
8	0x00000000	0.0
9	0x00000000	0.0
10	0xb8016740	-3.0852156e-05
11	0xb7fca3a3	-3.011694e-05
12	0xb73d530b	-1.1284613e-05
13	0x00000000	0.0
14	0xb809228d	-3.2695523e-05
15	0xb6346f52	-2.6886887e-06
16	0x00000000	0.0
17	0xb7e5be73	-2.7387612e-05
18	0xb7b22ddc	-2.1240608e-05
19	0x00000000	0.0
20	0x00000000	0.0
21	0x00000000	0.0
22	0x00000000	0.0
23	0xb809624a	-3.2754884e-05
24	0x00000000	0.0
25	0xb723ae6d	-9.756169e-06
26	0xb7269cf0	-9.930911e-06
27	0x00000000	0.0
28	0xb69ab400	-4.6105124e-06
29	0xb79f666a	-1.9001967e-05
30	0xb7abf2da	-2.0497875e-05
31	0x00000000	0.0
32	0x00000000	0.0
33	0xb7712ea8	-1.4375582e-05
34	0x00000000	0.0
35	0x00000000	0.0
36	0xb7c16616	-2.305493e-05
37	0x00000000	0.0
38	0x00000000	0.0
39	0x00000000	0.0
40	0x00000000	0.0
41	0x00000000	0.0
42	0xb79927ba	-1.825752e-05
43	0xb8105ab5	-3.4416753e-05
44	0xb74e9021	-1.2312114e-05
45	0x00000000	0.0
46	0xb706a545	-8.025502e-06
47	0x00000000	0.0
48	0xb7b1033a	-2.1101547e-05
49	0x00000000	0.0
50	0x00000000	0.0
51	0x00000000	0.0
52	0xb73cfa48	-1.1263946e-05
53	0xb74d1633	-1.2224121e-05
54	0x80000004	-6e-45
55	0xb80a534b	-3.2979337e-05
56	0x00000000	0.0
57	0xb765f224	-1.3705841e-05
58	0x00000000	0.0
59	0x00000000	0.0
60	0xb7afe39f	-2.096762e-05
61	0xb783ea6f	-1.5725584e-05
62	0x00000000	0.0
63	0x00000000	0.0
64	0x39739a7d	0.00023231837
65	0x399aa94d	0.00029499308
66	0x3a519734	0.00079952483
67	0x39c1a962	0.0003693803
68	0x39a16e13	0.00030790325
69	0x39418359	0.00018454845
70	0x00000000	0.0
71	0x399f1d75	0.0003034879
72	0x00000000	0.0
73	0x00000000	0.0
74	0x3a37bbed	0.0007008899
75	0x3a202881	0.0006109551
76	0x393f1925	0.00018224547
77	0x00000000	0.0
78	0x3a195ce0	0.0005850326
79	0xb8018523	-3.087999e-05
80	0x00000000	0.0
81	0x3a0e9d8e	0.00054403476
82	0x39d4289c	0.00040466047
83	0x00000000	0.0
84	0x00000000	0.0
85	0x00000000	0.0
86	0x00000000	0.0
87	0x3a159f7d	0.00057076645
88	0x00000000	0.0
89	0x392771ae	0.0001596871
90	0x393a0b5d	0.00017742575
91	0x00000000	0.0
92	0x38ec0a4b	0.00011255274
93	0x39b996d5	0.00035398328
94	0x39d21107	0.00040067008
95	0x00000000	0.0
96	0x00000000	0.0
97	0x398cd1e6	0.00026859267
98	0x00000000	0.0
99	0x00000000	0.0
100	0x39d456f6	0.00040500582
101	0x00000000	0.0
102	0x00000000	0.0
103	0x00000000	0.0
104	0x00000000	0.0
105	0x00000000	0.0
106	0x39c9874f	0.0003843852
107	0x3a210a96	0.000614324
108	0x392398ad	0.00015601768
109	0x00000000	0.0
110	0x392946e1	0.000161435
111	0x00000000	0.0
112	0x39ce4a11	0.00039346566
113	0x00000000	0.0
114	0x00000000	0.0
115	0x00000000	0.0
116	0x396518f2	0.00021848435
117	0x3907c6c1	0.00012948645
118	0x80000004	-6e-45
119	0x3a2fda9d	0.0006708296
120	0x00000000	0.0
121	0x3981d603	0.00024764249
122	0x00000000	0.0
123	0x00000000	0.0
124	0x39c5990a	0.0003768879
125	0x397a0e9f	0.00023847305
126	0x00000000	0.0
127	0x00000000	0.0
128	0xba065567	-0.000512442
129	0xba0cf42b	-0.000537696
130	0xbafefbff	-0.0019453763
131	0xba86668b	-0.0010253949
132	0xba3972f6	-0.00070743205
133	0xba0aa8e5	-0.00052894495
134	0x00000000	0.0
135	0xba20eacb	-0.00061385025
136	0x00000000	0.0
137	0x00000000	0.0
138	0xbab5f8dd	-0.0013883371
139	0xbaad4251	-0.0013218616
140	0xba06a7bc	-0.00051366887
141	0x00000000	0.0
142	0xbac61a98	-0.0015114127
143	0xb8fe3a92	-0.000121225734
144	0x00000000	0.0
145	0xba95dae8	-0.0011433037
146	0xba6ebc96	-0.0009107081
147	0x00000000	0.0
148	0x00000000	0.0
149	0x00000000	0.0
150	0x00000000	0.0
151	0xbaae87cc	-0.0013315617
152	0x00000000	0.0
153	0xb9b7b2d5	-0.0003503772
154	0xb9edffcc	-0.00045394746
155	0x00000000	0.0
156	0xb9967be0	-0.00028702524
157	0xba3aea00	-0.00071302056
158	0xba76f610	-0.00094208214
159	0x00000000	0.0
160	0x00000000	0.0
161	0xba05a750	-0.0005098479
162	0x00000000	0.0
163	0x00000000	0.0
164	0xba7e9cba	-0.0009712685
165	0x00000000	0.0
166	0x00000000	0.0
167	0x00000000	0.0
168	0x00000000	0.0
169	0x00000000	0.0
170	0xba41014d	-0.00073625596
171	0xbac3b140	-0.0014930144
172	0xb9f80b1c	-0.00047310523
173	0x00000000	0.0
174	0xb9e2f718	-0.00043290178
175	0x00000000	0.0
176	0xba688d68	-0.0008871169
177	0x00000000	0.0
178	0x00000000	0.0
179	0x00000000	0.0
180	0xba104102	-0.0005502851
181	0xba0735bd	-0.0005157849
182	0x00000004	6e-45
183	0xbabaca15	-0.0014250899
184	0x00000000	0.0
185	0xba1515bc	-0.00056871376
186	0x00000000	0.0
187	0x00000000	0.0
188	0xba79903b	-0.0009520088
189	0xba322b40	-0.0006796606
190	0x00000000	0.0
191	0x00000000	0.0
192	0x39dbb34b	0.0004190452
193	0x39c54ee3	0.00037633543
194	0x3ae16b50	0.0017198119
195	0x3a7f935b	0.00097494357
196	0x3a1d4a9a	0.0006000191
197	0x3a05a1ea	0.00050976744
198	0x00000000	0.0
199	0x39faa4cc	0.000478065
200	0x00000000	0.0
201	0x00000000	0.0
202	0x3a8a49a0	0.0010550506
203	0x3a8d74de	0.0010792275
204	0x3a004a50	0.0004893886
205	0x00000000	0.0
206	0x3ab49d2b	0.001377975
207	0x395f6464	0.00021304336
208	0x00000000	0.0
209	0x3a707e99	0.0009174138
210	0x3a486c0d	0.00076454954
211	0x00000000	0.0
212	0x00000000	0.0
213	0x00000000	0.0
214	0x00000000	0.0
215	0x3a9680fb	0.0011482531
216	0x00000000	0.0
217	0x399afd1c	0.0002956175
218	0x39d62c68	0.00040850346
219	0x00000000	0.0
220	0x39879a01	0.00025863948
221	0x3a11b57d	0.0005558355
222	0x3a554e37	0.000813696
223	0x00000000	0.0
224	0x00000000	0.0
225	0x39c6dcd9	0.00037930047
226	0x00000000	0.0
227	0x00000000	0.0
228	0x3a6040ea	0.0008554595
229	0x00000000	0.0
230	0x00000000	0.0
231	0x00000000	0.0
232	0x00000000	0.0
233	0x00000000	0.0
234	0x3a0fd31b	0.0005486474
235	0x3aac94f1	0.0013166947
236	0x39f60513	0.00046924557
237	0x00000000	0.0
238	0x39d28e00	0.0004016012
239	0x00000000	0.0
240	0x3a43ffe0	0.0007476788
241	0x00000000	0.0
242	0x00000000	0.0
243	0x00000000	0.0
244	0x3a015815	0.0004934085
245	0x3a13d95a	0.0005639993
246	0x80000004	-6e-45
247	0x3a96abc4	0.0011495282
248	0x00000000	0.0
249	0x39fd4baa	0.00048312295
250	0x00000000	0.0
251	0x00000000	0.0
252	0x3a60af45	0.0008571039
253	0x3a2bacc1	0.00065488747
254	0x00000000	0.0
255	0x00000000	0.0

exp_avg_sq f4 [15, 64]
0	0x32264565	9.67825e-09
1	0x3255bad0	1.2440708e-08
2	0x3414fa40	1.3874615e-07
3	0x33153b0b	3.4745465e-08
4	0x32b9e74c	2.1642016e-08
5	0x32232705	9.496721e-09
6	0x00000000	0.0
7	0x32838058	1.5308771e-08
8	0x00000000	0.0
9	0x00000000	0.0
10	0x33abe053	8.003612e-08
11	0x3391762f	6.773586e-08
12	0x3222e977	9.482725e-09
13	0x00000000	0.0
14	0x33bdbddf	8.835536e-08
15	0x2fdaf020	3.9824588e-10
16	0x00000000	0.0
17	0x3358bb16	5.0461573e-08
18	0x3303a791	3.0653215e-08
19	0x00000000	0.0
20	0x00000000	0.0
21	0x00000000	0.0
22	0x00000000	0.0
23	0x337cdce3	5.8874218e-08
24	0x00000000	0.0
25	0x319b9117	4.5275885e-09
26	0x31e56e6f	6.677332e-09
27	0x00000000	0.0
28	0x31b1f1a4	5.1788493e-09
29	0x328fd931	1.6746158e-08
30	0x331d8b21	3.6680948e-08
31	0x00000000	0.0
32	0x00000000	0.0
33	0x320a4009	8.047217e-09
34	0x00000000	0.0
35	0x00000000	0.0
36	0x3320056d	3.7257838e-08
37	0x00000000	0.0
38	0x00000000	0.0
39	0x00000000	0.0
40	0x00000000	0.0
41	0x00000000	0.0
42	0x32ba272d	2.1671065e-08
43	0x33aa10eb	7.919319e-08
44	0x31c9dbc3	5.874854e-09
45	0x00000000	0.0
46	0x321b8b93	9.053923e-09
47	0x00000000	0.0
48	0x32f7b70a	2.8837821e-08
49	0x00000000	0.0
50	0x00000000	0.0
51	0x00000000	0.0
52	0x325bdf4a	1.2798248e-08
53	0x3214e3bf	8.666517e-09
54	0x24faeadd	1.0881809e-16
55	0x33a8c994	7.8597765e-08
56	0x00000000	0.0
57	0x322ef243	1.0183217e-08
58	0x00000000	0.0
59	0x00000000	0.0
60	0x3312346b	3.4040948e-08
61	0x3292e469	1.7100506e-08
62	0x00000000	0.0
63	0x00000000	0.0
64	0x362d3793	2.5811357e-06
65	0x366c70e7	3.5232458e-06
66	0x37d175c9	2.496959e-05
67	0x36874530	4.031368e-06
68	0x36da919a	6.5138565e-06
69	0x364dbc1d	3.0656877e-06
70	0x00000000	0.0
71	0x36a8072d	5.0076255e-06
72	0x00000000	0.0
73	0x00000000	0.0
74	0x37678930	1.3800614e-05
75	0x37223acf	9.669645e-06
76	0x3658cba7	3.230505e-06
77	0x00000000	0.0
78	0x3784d412	1.583438e-05
79	0x33e40288	1.0617538e-07
80	0x00000000	0.0
81	0x37013f03	7.70367e-06
82	0x3710d944	8.633655e-06
83	0x00000000	0.0
84	0x00000000	0.0
85	0x00000000	0.0
86	0x00000000	0.0
87	0x3781d4f8	1.547717e-05
88	0x00000000	0.0
89	0x34291b9e	1.5749399e-07
90	0x34e93c08	4.344331e-07
91	0x00000000	0.0
92	0x35f6abde	1.8378448e-06
93	0x35ab5212	1.2764378e-06
94	0x36970fb6	4.5019797e-06
95	0x00000000	0.0
96	0x00000000	0.0
97	0x3526c74a	6.212982e-07
98	0x00000000	0.0
99	0x00000000	0.0
100	0x36a9f1e1	5.064751e-06
101	0x00000000	0.0
102	0x00000000	0.0
103	0x00000000	0.0
104	0x00000000	0.0
105	0x00000000	0.0
106	0x36d522a8	6.351929e-06
107	0x375c861c	1.3144247e-05
108	0x34862c34	2.4991607e-07
109	0x00000000	0.0
110	0x35220a99	6.0365124e-07
111	0x00000000	0.0
112	0x370c5fb5	8.366934e-06
113	0x00000000	0.0
114	0x00000000	0.0
115	0x00000000	0.0
116	0x367c0c8b	3.7558227e-06
117	0x35f542d4	1.8273372e-06
118	0x28f3b81d	2.7058266e-14
119	0x374bfb06	1.2158189e-05
120	0x00000000	0.0
121	0x359877ca	1.1359746e-06
122	0x00000000	0.0
123	0x00000000	0.0
124	0x36946833	4.422874e-06
125	0x36aca56d	5.1452575e-06
126	0x00000000	0.0
127	0x00000000	0.0
128	0x35296a5a	6.311217e-07
129	0x354f3a34	7.7198206e-07
130	0x371307b8	8.76368e-06
131	0x36155311	2.2251081e-06
132	0x35b3cfc9	1.3397013e-06
133	0x3520ee1e	5.995115e-07
134	0x00000000	0.0
135	0x357f9b99	9.5221327e-07
136	0x00000000	0.0
137	0x00000000	0.0
138	0x36a8523e	5.0163644e-06
139	0x368f43e4	4.2696356e-06
140	0x35203e7d	5.969558e-07
141	0x00000000	0.0
142	0x36bae43f	5.5698033e-06
143	0x32ed7a57	2.7646065e-08
144	0x00000000	0.0
145	0x3655a728	3.183677e-06
146	0x3600de95	1.9203046e-06
147	0x00000000	0.0
148	0x00000000	0.0
149	0x00000000	0.0
150	0x00000000	0.0
151	0x367a5821	3.73042e-06
152	0x00000000	0.0
153	0x34a8d4ea	3.1447354e-07
154	0x34f66b8a	4.5899316e-07
155	0x00000000	0.0
156	0x34acbb56	3.21738e-07
157	0x358f614c	1.0682647e-06
158	0x361b1903	2.3111359e-06
159	0x00000000	0.0
160	0x00000000	0.0
161	0x350b2510	5.183547e-07
162	0x00000000	0.0
163	0x00000000	0.0
164	0x361f28be	2.3716561e-06
165	0x00000000	0.0
166	0x00000000	0.0
167	0x00000000	0.0
168	0x00000000	0.0
169	0x00000000	0.0
170	0x35b5ebfc	1.3554231e-06
171	0x36a8c6dc	5.0299404e-06
172	0x34d42536	3.9515152e-07
173	0x00000000	0.0
174	0x3519d063	5.7300184e-07
175	0x00000000	0.0
176	0x35f21dc7	1.8039071e-06
177	0x00000000	0.0
178	0x00000000	0.0
179	0x00000000	0.0
180	0x35553d3c	7.943779e-07
181	0x35146735	5.528448e-07
182	0x24e4ed9f	9.9281784e-17
183	0x36a619e9	4.950202e-06
184	0x00000000	0.0
185	0x35334f7b	6.6798356e-07
186	0x00000000	0.0
187	0x00000000	0.0
188	0x3610dfe9	2.1588005e-06
189	0x358fa63d	1.0702712e-06
190	0x00000000	0.0
191	0x00000000	0.0
192	0x359ffed0	1.1920583e-06
193	0x35d51fe2	1.5879016e-06
194	0x376a6c40	1.3972691e-05
195	0x364982d8	3.0027495e-06
196	0x363d241f	2.818422e-06
197	0x35add9bf	1.2952877e-06
198	0x00000000	0.0
199	0x360d4c7a	2.1055153e-06
200	0x00000000	0.0
201	0x00000000	0.0
202	0x37053e90	7.941984e-06
203	0x36d1023e	6.2289464e-06
204	0x35b2a159	1.3308992e-06
205	0x00000000	0.0
206	0x37149dff	8.858274e-06
207	0x339cec6c	7.307321e-08
208	0x00000000	0.0
209	0x369fa311	4.7575527e-06
210	0x36813a0f	3.8512585e-06
211	0x00000000	0.0
212	0x00000000	0.0
213	0x00000000	0.0
214	0x00000000	0.0
215	0x36ef510c	7.13219e-06
216	0x00000000	0.0
217	0x34ab7d79	3.1942525e-07
218	0x35088bc5	5.086734e-07
219	0x00000000	0.0
220	0x354881ad	7.469451e-07
221	0x35ac85c2	1.2853927e-06
222	0x36555fa5	3.1795146e-06
223	0x00000000	0.0
224	0x00000000	0.0
225	0x3525306c	6.1537753e-07
226	0x00000000	0.0
227	0x00000000	0.0
228	0x36623497	3.3707236e-06
229	0x00000000	0.0
230	0x00000000	0.0
231	0x00000000	0.0
232	0x00000000	0.0
233	0x00000000	0.0
234	0x363c2182	2.8033687e-06
235	0x3701412e	7.704175e-06
236	0x34e4f412	4.2645894e-07
237	0x00000000	0.0
238	0x3531adf9	6.61908e-07
239	0x00000000	0.0
240	0x36776f78	3.6870752e-06
241	0x00000000	0.0
242	0x00000000	0.0
243	0x00000000	0.0
244	0x35dc70ed	1.6424143e-06
245	0x3582e227	9.751574e-07
246	0x283bce42	1.042531e-14
247	0x36fa5135	7.4600343e-06
248	0x00000000	0.0
249	0x3568197b	8.6463814e-07
250	0x00000000	0.0
251	0x00000000	0.0
252	0x3649d191	3.0073318e-06
253	0x3616a30f	2.2446654e-06
254	0x00000000	0.0
255	0x00000000	0.0

exp_avg f4 [15]
0	0xb7b01b8a	-2.0993659e-05
1	0x39e5b613	0.0004381394
2	0xba570b71	-0.0008203304
3	0x3a1bf9bf	0.0005949996
4	0xb7111621	-8.647826e-06
5	0x36a94f12	5.0457975e-06
6	0x377fe7b9	1.5253137e-05
7	0xb96f365d	-0.00022813068
8	0xb85d851e	-5.281448e-05
9	0x00000000	0.0
10	0x00000000	0.0
11	0x00000000	0.0
12	0x00000000	0.0
13	0x00000000	0.0
14	0x00000000	0.0

exp_avg_sq f4 [15]
0	0x32bf31e5	2.2258016e-08
1	0x36ae9d61	5.2039254e-06
2	0x35be598d	1.4182166e-06
3	0x362b12fc	2.5492036e-06
4	0x32d1b58d	2.4413362e-08
5	0x344f6f77	1.9318928e-07
6	0x328d074e	1.6417882e-08
7	0x34b18fa6	3.3073337e-07
8	0x33cc05d1	9.500548e-08
9	0x00000000	0.0
10	0x00000000	0.0
11	0x00000000	0.0
12	0x00000000	0.0
13	0x00000000	0.0
14	0x00000000	0.0
