Op_problems/problem_ED_Column/checkpoints/mlp_checkpoint_epoch_600_loss_0.000124.pth (torch, 21405 bytes, 12 tensors)

nn.0.weight f4 [64, 3]
0.77085596 0.40030134 -0.16161838 0.37492427 -0.13979669 0.086570665 0.09837483 0.43197834
0.56576735 -0.54564077 0.68030846 0.14616239 0.34474167 0.039462928 0.24031831 -0.32605606
0.3786108 0.044257037 -0.26953015 0.14716561 -0.2660064 0.06762757 -0.34131145 0.34424987
-0.45574307 -0.26616445 -0.16302913 -0.3471448 0.05449212 -0.5702368 0.8109101 -0.41996318
0.49406135 0.46747875 -0.050637018 0.4120871 0.30519792 0.39848572 0.03016481 -0.18208079
0.15512459 -0.15656552 0.60684204 0.58467424 0.38462445 -0.51779175 0.34974024 0.102276385
0.29319867 -0.3518979 -0.5715239 -0.41193172 -0.3333148 0.5132551 -0.15402803 0.21189216
0.140061 -0.01004357 0.4518391 -0.4102152 0.036352124 -0.39406475 0.17802711 -0.1988292
0.17690952 -0.12028601 0.4788496 -0.3421966 -0.34433055 -0.13685583 0.43048257 0.16849518
0.5555557 -0.47647345 -0.5726599 -0.8405835 -0.3966621 0.4183572 0.5508596 0.6346522
-0.23360139 -0.3935865 0.30632943 -0.23336756 0.5095474 -0.18103373 0.30481055 -0.7265836
-0.13788241 0.2009756 0.09118256 -0.011490398 0.40147677 0.39248803 -0.41867903 -0.30822894
0.5286577 -0.19481674 -0.20468013 -0.6730107 -0.23769529 0.19143999 -0.0762063 -0.41909045
0.013542728 -0.3943773 -0.48982203 -0.3179252 -0.54686445 -0.23998736 0.6241364 0.10904701
0.1779161 -0.5384855 -0.37918854 -0.19217439 0.090280905 -0.5080228 -0.24876466 -0.34564146
0.0015999867 -0.21483389 -0.040007927 -0.3912297 -0.39629042 -0.3368272 -0.22620562 -0.55579203
0.4443287 0.33028764 0.5677445 0.24361837 -0.5524809 0.56728894 -0.08206997 -0.2213134
-0.4792414 -0.5739789 0.568238 -0.020518813 0.291486 -0.47381026 0.42864165 -0.4238061
0.0792313 0.025173323 0.26548994 0.46610084 0.52594256 -0.4577938 0.14530016 -0.24833333
-0.06326882 -0.43214095 0.52588445 -0.4237465 0.5243287 0.1580546 0.1633311 -0.6123688
0.5672475 0.10146747 0.07021624 -0.5128127 0.2383202 0.24018395 -0.26510745 0.5306265
0.12871954 -0.3194343 -0.29221943 0.047351494 0.3905578 -0.1039029 -0.32942155 -0.19770949
-0.43132386 0.20590185 0.44689232 -0.54354084 0.19634148 0.43054432 0.16800168 -0.3854179
0.24375027 0.25926667 0.21588698 -0.1014528 -0.15288308 0.061765462 -0.10199129 -0.17205098
00000000: d156 453f 4cf4 cc3e 4a7f 25be 13f6 bf3e
00000010: dd26 0fbe f64b b13d be78 c93d 442c dd3e
00000020: 21d6 103f 1daf 0bbf b228 2e3f 98ab 153e
00000030: fb81 b03e e1a3 213d 0116 763e d2f0 a6be
00000040: 46d9 c13e de46 353d dbff 89be 95b2 163e
00000050: fe31 88be 5380 8a3d 60c0 aebe 8541 b03e
00000060: 2857 e9be b546 88be 1cf1 26be f7bc b1be
00000070: 2133 5f3d 0afb 11bf ce97 4f3f 6a05 d7be
00000080: 9cf5 fc3e 6059 ef3e c368 4fbd 15fd d23e
00000090: e742 9c3e 5206 cc3e 311c f73c 6373 3abe
000000a0: fbd8 1e3e b652 20be 005a 1b3f 36ad 153f
000000b0: 7fed c43e 008e 04bf 2711 b33e 4876 d13d
000000c0: 231e 963e f62b b4be 644f 12bf b7e8 d2be
000000d0: 3da8 aabe b064 033f 86b9 1dbe 42fa 583e
000000e0: 276c 0f3e c98d 24bc 7457 e73e ba07 d2be
000000f0: f7e5 143d dbc2 c9be bd4c 363e e299 4bbe
00000100: c527 353e 8358 f6bd c62b f53e 6534 afbe
00000110: 184c b0be ef23 0cbe 3668 dc3e 008a 2c3e
00000120: e638 0e3f 54f4 f3be d799 12bf 7b30 57bf
00000130: 4b17 cbbe ea32 d63e 2205 0d3f 9178 223f
00000140: 3435 6fbe 2b84 c9be 36d7 9c3e e8f7 6ebe
00000150: b371 023f e860 39be 2110 9c3e 6201 3abf
00000160: 0c31 0dbe 8ccc 4d3e ecbd ba3d 3942 3cbc
00000170: 5d8e cd3e 31f4 c83e 195d d6be 2fd0 9dbe
00000180: 1c56 073f 0a7e 47be ab97 51be 6e4a 2cbf
00000190: 6566 73be d808 443e 0c12 9cbd 0693 d6be
000001a0: 51e2 5d3c d2eb c9be f4c9 fabe 18c7 a2be
000001b0: 4fff 0bbf 3fbf 75be 67c7 1f3f 0a54 df3d
000001c0: a32f 363e 30da 09bf 0025 c2be 5dc9 44be
000001d0: 32e5 b83d c80d 02bf 2abc 7ebe ebf7 b0be
000001e0: a5b6 d13a 6afd 5bbe 5adf 23bd 424f c8be
000001f0: 94e6 cabe 9d74 acbe 72a2 67be 6348 0ebf
00000200: 0d7f e33e 761b a93e b457 113f 1877 793e
00000210: 636f 0dbf d939 113f 4d14 a8bd fb9f 62be
00000220: 215f f5be 48f0 12bf 0c78 113f 1217 a8bc
00000230: a73d 953e 4297 f2be eb76 db3e 1dfd d8be
00000240: 0544 a23d 4938 ce3c 4cee 873e c5a4 ee3e
00000250: 2ca4 063f f363 eabe 91c9 143e 184b 7ebe
00000260: 1593 81bd 9441 ddbe 5da0 063f 4df5 d8be
00000270: 683a 063f 11d9 213e 4540 273e 34c4 1cbf
00000280: 2237 113f 2dce cf3d 88cd 8f3d b147 03bf
00000290: 360a 743e c8f2 753e 2abc 87be 23d7 073f
000002a0: 0ecf 033e e48c a3be c99d 95be a4f3 413d
000002b0: 31f7 c73e 0bcb d4bd f1a9 a8be 5b74 4abe
000002c0: 7bd6 dcbe efd7 523e 12cf e43e 7e25 0bbf
000002d0: be0d 493e 4e70 dc3e a208 2c3e 7f55 c5be
000002e0: ac99 793e 9abe 843e 7a11 5d3e 7cc6 cfbd
000002f0: 628d 1cbe c8fd 7c3d cfe0 d0bd 222e 30be

nn.0.bias f4 [64]
0.3920177 0.4668421 -0.06466696 -0.06853916 -0.0615771 0.017458508 0.13880152 0.11985831
-0.5243823 -0.21306404 0.5167023 0.25080726 -0.11087979 -0.3480878 -0.35532758 -0.5137636
-0.18819448 0.31297892 0.37632713 0.2665611 -0.51034534 -0.3471968 -0.09111548 0.51162696
0.08351804 -0.09074354 0.26543775 -0.21990205 -0.49069804 0.58116096 -0.16369493 -0.11573953
-0.5743505 0.5027957 0.43742055 0.21041426 -0.35258046 -0.56981003 -0.46891174 0.43053022
0.2771892 0.48584282 0.31769463 0.16633841 0.15954047 -0.43907836 -0.5025419 -0.54002374
0.18272574 -0.2834605 -0.11619323 -0.33226812 -0.2024052 -0.3704062 -0.38129035 0.36601868
-0.17158641 0.4599433 -0.18521902 -0.42352524 -0.03972917 -0.2843668 -0.17663544 -0.54963493
00000000: 8bb6 c83e ed05 ef3e 1c70 84bd 425e 8cbd
00000010: 4538 7cbd 2505 8f3c fc21 0e3e 4678 f53d
00000020: eb3d 06bf 762d 5abe 9a46 043f cf69 803e
00000030: f114 e3bd 9038 b2be 7fed b5be 0386 03bf
00000040: 0eb6 40be c63e a03e f3ad c03e b27a 883e
00000050: fea5 02bf c7c3 b1be c19a babd fcf9 023f
00000060: 820b ab3d c0d7 b9bd 75e7 873e 012e 61be
00000070: c63c fbbe f7c6 143f a59f 27be d908 edbd
00000080: a208 13bf 38b7 003f 96f5 df3e d676 573e
00000090: 6d85 b4be 12df 11bf 3315 f0be 756e dc3e
000000a0: beeb 8d3e 64c0 f83e dfa8 a23e 9e54 2a3e
000000b0: 945e 233e e1ce e0be 96a6 00bf ff3e 0abf
000000c0: 751c 3b3e bc21 91be b7f6 edbd 0c1f aabe
000000d0: 4f43 4fbe e2a5 bdbe 7d38 c3be cd66 bb3e
000000e0: 59b4 2fbe b07d eb3e 0eaa 3dbe 4dd8 d8be
000000f0: 0ebb 22bd 8698 91be ecdf 34be e0b4 0cbf

nn.2.weight f4 [15, 64]
0.04070003 -0.1012459 0.06728979 0.062559105 0.07824522 -0.09746305 0.0898996 -0.04718558
0.04638365 0.117389336 -0.020839786 0.00083208276 -0.036711063 -0.10437307 0.05189474 -0.10905337
0.07759999 0.10719562 0.11547586 -0.029484943 -0.10270524 0.028103784 0.06905341 -0.115712315
-0.028372958 0.013150515 -0.081213325 -0.061526686 -0.0684572 -0.0058824955 -0.11947382 0.10256344
0.1047914 0.043897737 -0.014235258 -0.05101499 -0.09028918 -0.12164305 0.046457306 -0.06863077
-0.08035962 -0.009752899 -0.023608401 -0.04180542 -0.04393664 -0.026514053 -0.04404852 -0.059850737
-0.094303735 0.1048134 -0.05002339 0.033122435 -0.056018893 0.015769783 0.11899942 0.064209476
-0.10832496 0.0297218 0.118655354 0.032885417 0.07260541 0.12854093 -0.019153625 0.025944307
0.03646822 0.020204885 0.15083931 0.11894529 0.006320271 -0.054692622 -0.08542046 -0.10542156
-0.09645487 -0.030912176 0.13605033 0.07550569 0.011331264 -0.10027799 0.16385972 0.04396593
-0.015390933 0.061934445 -0.029690126 -0.013629988 -0.01088056 -0.029572919 -0.06337902 -0.086950935
-0.101044625 -0.56251806 0.37240273 -0.060376838 0.083849184 -0.058612227 0.106230825 0.06848872
0.09501505 -0.0705821 -0.12393762 0.0110860765 0.09395616 -0.011553183 -0.0736599 0.11916748
-0.04675348 -0.071168065 -0.13467263 0.07673594 0.20656347 0.027670354 0.19172627 -0.09479843
-0.08163676 0.0022011697 0.113979265 0.07211517 0.04629912 0.042943113 -0.08912517 -0.02428349
0.022637293 0.14015572 0.10354616 -0.11476326 0.1800044 -0.04115467 0.046808407 0.10578066
-0.06653551 0.048663676 -0.101757064 0.021450333 0.003193177 0.03042105 -0.025587529 -0.056702953
0.08616327 0.0613129 -0.018122148 -0.09911623 -0.122753404 0.013520077 -0.004053802 0.15053126
-0.03497471 0.09946833 0.031652886 0.0056397915 -0.030762568 -0.11319871 -0.11753218 -0.002132644
-0.063540176 0.19101468 -0.017666137 -0.048902765 -0.09019467 0.16793454 0.03932764 -0.060514092
-0.051058352 0.21297678 -0.08328439 -0.081713006 0.0054469663 -0.045720086 -0.09370725 0.07414487
0.10052036 0.020277917 0.006151536 -0.111079246 0.26314598 0.031823203 -0.12287852 -0.01580219
-0.033533365 0.06965326 -0.099549964 0.079002246 -0.13521335 0.09899773 -0.022973847 0.0020131816
-0.0377748 0.1474375 -0.0032496452 0.097574934 0.09505736 -0.027689233 -0.09118864 0.10028775
0.20561469 0.014038511 0.022525674 -0.14425802 -0.025850464 0.0094165215 0.033254325 0.07867747
-0.034020588 0.11532222 0.11392295 -0.0049961805 0.029976847 0.03001815 0.09654913 -0.41275865
0.0468487 -0.024603985 -0.071807936 -0.06827593 0.12055117 0.106857225 0.111935556 0.08631618
0.09443119 -0.31481424 0.066448644 0.06245707 0.06671762 -0.09132843 0.021602998 0.026232406
0.06434958 -0.06619983 -0.07357079 0.016861632 -0.06202211 -0.08138268 0.06515649 -0.020998076
0.11422312 0.12159783 0.07645884 0.08278115 -0.02025176 0.0019576102 0.09715015 0.0017180145
0.08138353 0.11622135 -0.032394886 -0.052839473 0.048877902 -0.14339982 0.024248501 0.15285641
0.09774718 0.10620615 -0.09199144 -0.0670881 0.023628468 -0.031914435 0.010280967 -0.11474644
00000000: 13b5 263d 035a cfbd 3bcf 893d fd1e 803d
00000010: 083f a03d b59a c7bd 481d b83d ab45 41bd
00000020: c8fc 3d3d d269 f03d 33b8 aabc 2120 5a3a
00000030: 575e 16bd 8cc1 d5bd 948f 543d 6057 dfbd
00000040: beec 9e3d 6189 db3d 9c7e ec3d 688a f1bc
00000050: 2057 d2bd e839 e63c e06b 8d3d 94fa ecbd
00000060: 686e e8bc 4275 573c 2c53 a6bd 6803 7cbd
00000070: 4a33 8cbd f3c1 c0bb b1ae f4bd c80c d23d
00000080: e09c d63d 1dce 333d 003b 69bc 18f5 50bd
00000090: 89e9 b8bd fe1f f9bd 044a 3e3d 4a8e 8cbd
000000a0: 9693 a4bd a0ca 1fbc 6866 c1bc 293c 2bbd
000000b0: e8f6 33bd 0034 d9bc 396c 34bd 0c26 75bd
000000c0: 5122 c1bd 68a8 d63d 54e5 4cbd 64ab 073d
000000d0: 1174 65bd a22f 813c f8b5 f33d 4280 833d
000000e0: 7ad9 ddbd 227b f33c 9401 f33d dcb2 063d
000000f0: 25b2 943d 3ca0 033e 10e8 9cbc 2889 d43c
00000100: b35f 153d b784 a53c 9f75 1a3e 9799 f33d
00000110: 471a cf3b 5f05 60bd ecf0 aebd 42e7 d7bd
00000120: 228a c5bd 883b fdbc c750 0b3e baa2 9a3d
00000130: c4a6 393c 8c5e cdbd d8ca 273e 9e15 343d
00000140: 402a 7cbc f9ae 7d3d b538 f3bc 5050 5fbc
00000150: 6044 32bc e842 f2bc dccc 81bd 5513 b2bd
00000160: 7cf0 cebd 2f01 10bf 92ab be3e b44d 77bd
00000170: 1fb9 ab3d 6013 70bd 8c8f d93d d043 8c3d
00000180: 4097 c23d 598d 90bd 02d3 fdbd 60a2 353c
00000190: 166c c03d 9049 3dbc 00db 96bd 140e f43d
000001a0: 9480 3fbd 90c0 91bd 9fe7 09be bc27 9d3d
000001b0: 6085 533e f0ac e23c e453 443e ae25 c2bd
000001c0: 2c31 a7bd 8041 103b f66d e93d 1eb1 933d
000001d0: 25a4 3d3d 1ee5 2f3d 4287 b6bd 2bee c6bc
000001e0: d871 b93c fb84 0f3e 0210 d43d 0009 ebbd
000001f0: 1353 383e cd91 28bd 2cba 3f3d 88a3 d83d
00000200: c543 88bd 9053 473d 0266 d0bd 9cb8 af3c
00000210: 9f44 513b 9135 f93c f09c d1bc 5b41 68bd
00000220: 5e76 b03d 3c23 7b3d e674 94bc 73fd cabd
00000230: 2366 fbbd 5083 5d3c c2d5 84bb de24 1a3e
00000240: a441 0fbd 0db6 cb3d 75a6 013d 00ce b83b
00000250: c801 fcbc bad4 e7bd b6b4 f0bd d4c3 0bbb
00000260: 5a21 82bd 5a99 433e 93b8 90bc 444e 48bd
00000270: fcb7 b8bd 08f7 2b3e 0516 213d a0dd 77bd
00000280: 9022 51bd 9616 5a3e 0291 aabd 2659 a7bd
00000290: 777c b23b fc44 3bbd 96e9 bfbd 44d9 973d
000002a0: 9edd cd3d e01d a63c d392 c93b 847d e3bd
000002b0: 12bb 863e 0c59 023d bca7 fbbd 9873 81bc
000002c0: 485a 09bd 5ea6 8e3d dae0 cbbd eecb a13d
000002d0: 5e75 0abe 52bf ca3d a633 bcbc 95ef 033b
000002e0: c0b9 1abd dbf9 163e 00f8 54bb 5ed5 c73d
000002f0: 6fad c23d 88d4 e2bc 1cc1 babd aa63 cd3d
00000300: a88c 523e c801 663c c387 b83c 60b8 13be
00000310: 5ac4 d3bc c147 1a3c b035 083d a721 a13d
00000320: 2c59 0bbd 0e2e ec3d 7050 e93d 00b7 a3bb
00000330: 0192 f53c a0e8 f53c 8dbb c53d 1a55 d3be
00000340: 6ce4 3f3d 4c8e c9bc 0a10 93bd 40d4 8bbd
00000350: 88e3 f63d f6d7 da3d 783e e53d 8ac6 b03d
00000360: 2465 c13d 552f a1be 3a16 883d fcd2 7f3d
00000370: 3fa3 883d 660a bbbd c5f8 b03c 58e5 d63c
00000380: b6c9 833d c793 87bd 48ac 96bd 6821 8a3c
00000390: e50a 7ebd f6ab a6bd c470 853d 2804 acbc
000003a0: d0ed e93d 4808 f93d 7496 9c3d 2a89 a93d
000003b0: 05e7 a5bc 404b 003b a8f6 c63d 002f e13a
000003c0: 68ac a63d 7605 ee3d 80b0 04bd 346e 58bd
000003d0: 3234 483d 67d7 12be cba4 c63c 6486 1c3e
000003e0: ac2f c83d 9c82 d93d 0266 bcbd 7c65 89bd
000003f0: 7d90 c13c b6b8 02bd 8071 283c 2e00 ebbd

nn.2.bias f4 [15]
0.10067144 -0.024529556 0.1312266 0.0010786563 -0.07679171 0.03944921 0.0316532 0.0642609
0.07813875 -0.10677783 0.10757801 0.12104879 0.0340323 -0.078428596 0.0608339
00000000: d42c ce3d 35f2 c8bc 4460 063e b361 8d3a
00000010: f944 9dbd 7f95 213d c9a6 013d 389b 833d
00000020: 3507 a03d 56ae dabd dc51 dc3d 6ee8 f73d
00000030: 7465 0b3d 2c9f a0bd f82c 793d

exp_avg f4 [64, 3]
1.5225021e-05 7.547977e-05 0.00028186484 -6.58634e-07 -7.077841e-06 -3.1887994e-05 4.3089835e-06 2.80841e-05
0.00010511658 -9.0243275e-06 -4.299272e-05 -0.00015903352 1.3088767e-06 3.8731005e-06 1.4452248e-05 -2.4320704e-08
-2.5666598e-06 -1.0085002e-05 0.0 0.0 0.0 7.3983483e-06 3.6440117e-05 0.00012895279
0.0 0.0 0.0 0.0 0.0 0.0 6.53542e-06 3.286397e-05
0.00012072841 5.743549e-06 3.1392625e-05 0.000110854446 8.243675e-06 4.447593e-05 0.00016023278 0.0
0.0 0.0 5.89194e-06 2.8592025e-05 0.00010687277 -2.4769197e-05 -0.00012922076 -0.00048014696
0.0 0.0 0.0 -4.425075e-06 -2.6816959e-05 -9.7577125e-05 -8.29195e-06 -3.8297476e-05
-0.0001376468 0.0 0.0 0.0 0.0 0.0 0.0 0.0
0.0 0.0 0.0 0.0 0.0 2.9114904e-06 1.4516663e-05 5.213429e-05
0.0 0.0 0.0 -2.9699066e-05 -0.00015028627 -0.00054857385 8.65643e-06 4.0068677e-05
0.00014123252 0.0 0.0 0.0 1.1492201e-05 5.6533758e-05 0.00020828673 -1.47340215e-05
-7.718364e-05 -0.00028406538 2.844971e-06 8.813054e-06 2.8496643e-05 0.0 0.0 0.0
0.0 0.0 0.0 -1.6514587e-05 -8.793006e-05 -0.00032517035 0.0 0.0
0.0 0.0 0.0 0.0 -1.9042443e-06 -1.0494719e-05 -4.2745283e-05 0.0
0.0 0.0 0.0 0.0 0.0 0.0 0.0 0.0
0.0 0.0 0.0 0.0 0.0 0.0 2.2746387e-06 1.1159029e-05
4.184667e-05 1.14514605e-05 5.840157e-05 0.00021016052 -1.0610816e-05 -6.500738e-05 -0.00024020195 0.0
0.0 0.0 1.0483643e-05 5.7674668e-05 0.00021458561 0.0 0.0 0.0
4.3443506e-06 2.3004784e-05 8.3514395e-05 0.0 0.0 0.0 0.0 0.0
0.0 0.0 0.0 0.0 7.991637e-06 4.6117228e-05 0.00017082563 -1.2921815e-05
-6.6193556e-05 -0.0002471205 6e-45 6e-45 6e-45 5.904936e-06 3.007013e-05 0.00011601136
0.0 0.0 0.0 1.0903228e-06 -3.983282e-06 -1.6156398e-05 0.0 0.0
0.0 0.0 0.0 0.0 -4.653203e-06 -2.422113e-05 -8.131405e-05 -2.153511e-06
-6.807506e-06 -2.0094547e-05 0.0 0.0 0.0 0.0 0.0 0.0
00000000: f86e 7f37 e54a 9e38 42c7 9339 fccc 30b5
00000010: 317e edb6 79bf 05b8 e395 9036 2596 eb37
00000020: 0972 dc38 3167 17b7 1553 34b8 3cc2 26b9
00000030: a9ac af35 aef5 8136 ef77 7237 cbe9 d0b2
00000040: e13e 2cb6 c132 29b7 0000 0000 0000 0000
00000050: 0000 0000 543f f836 47d7 1838 8037 0739
00000060: 0000 0000 0000 0000 0000 0000 0000 0000
00000070: 0000 0000 0000 0000 d54a db36 6bd7 0938
00000080: 922f fd38 b6b8 c036 93ab 0338 877a e838
00000090: 514e 0a37 ab8b 3a38 2904 2839 0000 0000
000000a0: 0000 0000 0000 0000 61b3 c536 e8d8 ef37
000000b0: e220 e038 72c7 cfb7 6f7f 07b9 3cbc fbb9
000000c0: 0000 0000 0000 0000 0000 0000 1b7b 94b6
000000d0: fbf4 e0b7 52a2 ccb8 a71d 0bb7 9aa1 20b8
000000e0: 4855 10b9 0000 0000 0000 0000 0000 0000
000000f0: 0000 0000 0000 0000 0000 0000 0000 0000
00000100: 0000 0000 0000 0000 0000 0000 0000 0000
00000110: 0000 0000 0663 4336 988c 7337 c5aa 5a38
00000120: 0000 0000 0000 0000 0000 0000 4222 f9b7
00000130: 2a96 1db9 2bce 0fba 153b 1137 6a0f 2838
00000140: d117 1439 0000 0000 0000 0000 0000 0000
00000150: a1ce 4037 a91e 6d38 8b67 5a39 2432 77b7
00000160: a7dd a1b8 9cee 94b9 3bec 3e36 c7db 1337
00000170: 130c ef37 0000 0000 0000 0000 0000 0000
00000180: 0000 0000 0000 0000 0000 0000 ce88 8ab7
00000190: 1767 b8b8 a07b aab9 0000 0000 0000 0000
000001a0: 0000 0000 0000 0000 0000 0000 0000 0000
000001b0: 5695 ffb5 7a12 30b7 6649 33b8 0000 0000
000001c0: 0000 0000 0000 0000 0000 0000 0000 0000
000001d0: 0000 0000 0000 0000 0000 0000 0000 0000
000001e0: 0000 0000 0000 0000 0000 0000 0000 0000
000001f0: 0000 0000 0000 0000 ffa5 1836 aa37 3b37
00000200: 8584 2f38 a61f 4037 35f4 7438 895e 5c39
00000210: 1c05 32b7 9254 88b8 b8de 7bb9 0000 0000
00000220: 0000 0000 0000 0000 e7e2 2f37 b4e7 7138
00000230: 6302 6139 0000 0000 0000 0000 0000 0000
00000240: b0c5 9136 66fa c037 7324 af38 0000 0000
00000250: 0000 0000 0000 0000 0000 0000 0000 0000
00000260: 0000 0000 0000 0000 0000 0000 0000 0000
00000270: d213 0637 ff6d 4138 a81f 3339 c6ca 58b7
00000280: 65d1 8ab8 f48f 81b9 0400 0000 0400 0000
00000290: 0400 0000 0423 c636 1d3f fc37 204b f338
000002a0: 0000 0000 0000 0000 0000 0000 3557 9235
000002b0: 22a8 85b6 9a87 87b7 0000 0000 0000 0000
000002c0: 0000 0000 0000 0000 0000 0000 0000 0000
000002d0: b622 9cb6 7b2e cbb7 2687 aab8 0a85 10b6
000002e0: 086c e4b6 b690 a8b7 0000 0000 0000 0000
000002f0: 0000 0000 0000 0000 0000 0000 0000 0000

exp_avg_sq f4 [64, 3]
9.314839e-09 1.307659e-07 7.6703947e-07 3.833181e-10 5.2664166e-09 3.1374395e-08 1.5987834e-09 2.2431943e-08
1.292122e-07 3.2338232e-09 4.521565e-08 2.6401548e-07 1.4709715e-10 1.9753539e-09 1.1504918e-08 7.1076076e-11
9.565873e-10 5.43785e-09 0.0 0.0 0.0 1.994847e-09 2.7921022e-08 1.619998e-07
0.0 0.0 0.0 0.0 0.0 0.0 1.8022267e-09 2.5262144e-08
1.463458e-07 1.15156e-09 1.6247249e-08 9.4520246e-08 2.6563485e-09 3.740535e-08 2.177339e-07 0.0
0.0 0.0 1.2770094e-09 1.7920932e-08 1.0422389e-07 3.3063223e-08 4.6362695e-07 2.698579e-06
0.0 0.0 0.0 1.4440753e-09 2.0197618e-08 1.1585321e-07 1.6747278e-09 2.3526555e-08
1.3827861e-07 0.0 0.0 0.0 0.0 0.0 0.0 0.0
0.0 0.0 0.0 0.0 0.0 6.8003986e-10 9.40856e-09 5.3641287e-08
0.0 0.0 0.0 3.1119885e-08 4.3806864e-07 2.5538086e-06 1.5653469e-09 2.1949578e-08
1.2900523e-07 0.0 0.0 0.0 3.791522e-09 5.3391055e-08 3.1457128e-07 8.280225e-09
1.16619205e-07 6.8153923e-07 1.3621308e-10 1.819235e-09 1.0698491e-08 0.0 0.0 0.0
0.0 0.0 0.0 1.0506625e-08 1.4818268e-07 8.714961e-07 0.0 0.0
0.0 0.0 0.0 0.0 4.6030338e-10 6.385294e-09 3.719707e-08 0.0
0.0 0.0 0.0 0.0 0.0 0.0 0.0 0.0
0.0 0.0 0.0 0.0 0.0 0.0 5.504721e-10 7.577385e-09
4.408062e-08 4.5946607e-09 6.465991e-08 3.7568776e-07 8.063985e-09 1.1299723e-07 6.54254e-07 0.0
0.0 0.0 5.3269216e-09 7.4950485e-08 4.33829e-07 0.0 0.0 0.0
1.2495123e-09 1.7420566e-08 9.99228e-08 0.0 0.0 0.0 0.0 0.0
0.0 0.0 0.0 0.0 3.5530692e-09 4.9987932e-08 2.8972838e-07 7.340208e-09
1.0312865e-07 6.040216e-07 5.705018e-21 6.5248815e-20 6.814112e-19 2.35841e-09 3.2876056e-08 1.916881e-07
0.0 0.0 0.0 3.3458272e-10 4.4987813e-09 2.5967166e-08 0.0 0.0
0.0 0.0 0.0 0.0 7.295351e-10 1.0188699e-08 5.9540994e-08 1.1237022e-10
1.5057522e-09 8.780447e-09 0.0 0.0 0.0 0.0 0.0 0.0
00000000: 1807 2032 a868 0c34 8de6 4d35 3abb d22f
00000010: e4f3 b431 83c0 0633 31bc db30 5db0 c032
00000020: 94bd 0a34 053a 5e31 2233 4233 03be 8d34
00000030: 2bbc 212f cbbe 0731 2aa7 4532 464c 9c2e
00000040: ec78 8330 d6d7 ba31 0000 0000 0000 0000
00000050: 0000 0000 b815 0931 fad6 ef32 2af2 2d34
00000060: 0000 0000 0000 0000 0000 0000 0000 0000
00000070: 0000 0000 0000 0000 37b2 f730 0b00 d932
00000080: 3a23 1d34 ea44 9e30 1490 8b32 0efb ca33
00000090: fa8a 3631 9ea7 2033 3dca 6934 0000 0000
000000a0: 0000 0000 0000 0000 c682 af30 8cf0 9932
000000b0: b1d1 df33 6601 0e33 67e8 f834 3c19 3536
000000c0: 0000 0000 0000 0000 0000 0000 e278 c630
000000d0: 087f ad32 faca f833 3f2c e630 7117 ca32
000000e0: bc79 1434 0000 0000 0000 0000 0000 0000
000000f0: 0000 0000 0000 0000 0000 0000 0000 0000
00000100: 0000 0000 0000 0000 0000 0000 0000 0000
00000110: 0000 0000 8ded 3a30 49a3 2132 3863 6633
00000120: 0000 0000 0000 0000 0000 0000 ada8 0533
00000130: b22f eb34 1962 2b36 bf23 d730 a28b bc32
00000140: b084 0a34 0000 0000 0000 0000 0000 0000
00000150: 9546 8231 1650 6533 59e2 a834 d140 0e32
00000160: 1670 fa33 05f3 3635 93c4 152f a408 fa30
00000170: 76cc 3732 0000 0000 0000 0000 0000 0000
00000180: 0000 0000 0000 0000 0000 0000 a080 3432
00000190: 251c 1f34 c2f0 6935 0000 0000 0000 0000
000001a0: 0000 0000 0000 0000 0000 0000 0000 0000
000001b0: f10d fd2f a465 db31 9cc2 1f33 0000 0000
000001c0: 0000 0000 0000 0000 0000 0000 0000 0000
000001d0: 0000 0000 0000 0000 0000 0000 0000 0000
000001e0: 0000 0000 0000 0000 0000 0000 0000 0000
000001f0: 0000 0000 0000 0000 0850 1730 b12d 0232
00000200: 2753 3d33 10df 9d31 29db 8a33 22b2 c934
00000210: c889 0a32 e2a8 f233 fe9f 2f35 0000 0000
00000220: 0000 0000 0000 0000 1908 b731 77f4 a033
00000230: 01e9 e834 0000 0000 0000 0000 0000 0000
00000240: 4ebb ab30 3ba4 9532 2495 d633 0000 0000
00000250: 0000 0000 0000 0000 0000 0000 0000 0000
00000260: 0000 0000 0000 0000 0000 0000 0000 0000
00000270: 412a 7431 50b2 5633 f78b 9b34 2735 fc31
00000280: 9377 dd33 0c24 2235 8c87 d71d 7d10 9a1f
00000290: f91d 4921 9611 2231 9b33 0d33 d3d2 4d34
000002a0: 0000 0000 0000 0000 0000 0000 55f0 b72f
000002b0: b393 9a31 670e df32 0000 0000 0000 0000
000002c0: 0000 0000 0000 0000 0000 0000 0000 0000
000002d0: 7888 4830 5f0a 2f32 04ba 7f33 cf1a f72e
000002e0: f2f2 ce30 d0d8 1632 0000 0000 0000 0000
000002f0: 0000 0000 0000 0000 0000 0000 0000 0000

exp_avg f4 [64]
5.854901e-05 -6.156663e-06 2.3198578e-05 -3.30625e-05 2.4851815e-06 -2.6228618e-06 0.0 2.8186687e-05
0.0 0.0 2.5644618e-05 2.4830642e-05 3.5215704e-05 0.0 2.222408e-05 -0.000101855105
0.0 -2.1894562e-05 -2.9200746e-05 0.0 0.0 0.0 0.0 1.139642e-05
0.0 -0.0001172614 3.0400459e-05 0.0 4.39768e-05 -6.089241e-05 5.723317e-06 0.0
0.0 -6.934332e-05 0.0 0.0 -8.418452e-06 0.0 0.0 0.0
0.0 0.0 8.528269e-06 4.5737554e-05 -5.3139545e-05 0.0 4.611402e-05 0.0
1.817984e-05 0.0 0.0 0.0 3.715428e-05 -5.178014e-05 6e-45 2.3492157e-05
0.0 -4.9280648e-06 0.0 0.0 -1.8810548e-05 -4.6097225e-06 0.0 0.0
00000000: 8592 7538 5595 ceb6 919a c237 97ac 0ab8
00000010: 18c7 2636 6c04 30b6 0000 0000 7372 ec37
00000020: 0000 0000 0000 0000 661f d737 664b d037
00000030: 93b4 1338 0000 0000 d96d ba37 0b9b d5b8
00000040: 0000 0000 37aa b7b7 20f4 f4b7 0000 0000
00000050: 0000 0000 0000 0000 0000 0000 4033 3f37
00000060: 0000 0000 3cea f5b8 7d04 ff37 0000 0000
00000070: bb73 3838 ba66 7fb8 eb0a c036 0000 0000
00000080: 0000 0000 696c 91b8 0000 0000 0000 0000
00000090: fa3c 0db7 0000 0000 0000 0000 0000 0000
000000a0: 0000 0000 0000 0000 a314 0f37 53d6 3f38
000000b0: 27e2 5eb8 0000 0000 8d6a 4138 0000 0000
000000c0: e980 9837 0000 0000 0000 0000 0000 0000
000000d0: 1bd6 1b38 812e 59b8 0400 0000 0611 c537
000000e0: 0000 0000 c15b a5b6 0000 0000 0000 0000
000000f0: 58cb 9db7 37ad 9ab6 0000 0000 0000 0000

exp_avg_sq f4 [64]
6.324953e-08 2.5435734e-09 1.0857545e-08 2.1873777e-08 9.537856e-10 4.65267e-10 0.0 1.3511292e-08
0.0 0.0 1.2215417e-08 7.861739e-09 1.810409e-08 0.0 8.677715e-09 2.2414208e-07
0.0 9.781263e-09 1.1382054e-08 0.0 0.0 0.0 0.0 4.552293e-09
0.0 2.1196594e-07 1.0605352e-08 0.0 2.585675e-08 5.6472878e-08 8.802493e-10 0.0
0.0 7.170251e-08 0.0 0.0 3.0905802e-09 0.0 0.0 0.0
0.0 0.0 3.662338e-09 3.1309447e-08 5.4753976e-08 0.0 3.629905e-08 0.0
8.43156e-09 0.0 0.0 0.0 2.4199226e-08 4.989454e-08 3.6903888e-20 1.5894093e-08
0.0 2.182278e-09 0.0 0.0 4.927193e-09 7.2748035e-10 0.0 0.0
00000000: ccd3 8733 04cb 2e31 fd87 3a32 f2e4 bb32
00000010: 5916 8330 82c8 ff2f 0000 0000 4a1f 6832
00000020: 0000 0000 0000 0000 f9db 5132 4b10 0732
00000030: 5183 9b32 0000 0000 ff14 1532 b5ab 7034
00000040: 0000 0000 730a 2832 ce8a 4332 0000 0000
00000050: 0000 0000 0000 0000 0000 0000 656a 9c31
00000060: 0000 0000 c198 6334 d532 3632 0000 0000
00000070: 981b de32 968c 7233 0af6 7130 0000 0000
00000080: 0000 0000 dffa 9933 0000 0000 0000 0000
00000090: 1062 5431 0000 0000 0000 0000 0000 0000
000000a0: 0000 0000 0000 0000 88ac 7b31 1a79 0633
000000b0: a22a 6b33 0000 0000 3ae7 1b33 0000 0000
000000c0: 65da 1032 0000 0000 0000 0000 0000 0000
000000d0: a9de cf32 a04b 5633 1046 2e1f 7b87 8832
000000e0: 0000 0000 0af7 1531 0000 0000 0000 0000
000000f0: 0c4c a931 e1f7 4730 0000 0000 0000 0000

exp_avg f4 [15, 64]
-2.105612e-05 -2.7428803e-05 -0.000104371895 -4.594105e-05 -4.0068924e-05 -2.1755064e-05 0.0 -3.8668015e-05
0.0 0.0 -8.117874e-05 -7.35941e-05 -2.4962834e-05 0.0 -8.221621e-05 -7.3973038e-06
0.0 -6.411528e-05 -4.252183e-05 0.0 0.0 0.0 0.0 -6.281444e-05
0.0 -2.6665735e-05 -1.4767311e-05 0.0 -2.5547813e-05 -3.3053224e-05 -5.4114822e-05 0.0
0.0 -2.45725e-05 0.0 0.0 -5.977761e-05 0.0 0.0 0.0
0.0 0.0 -4.5455716e-05 -7.515351e-05 -1.4540726e-05 0.0 -3.2106458e-05 0.0
-4.798792e-05 0.0 0.0 0.0 -3.2247604e-05 -2.202512e-05 -6e-45 -8.1111866e-05
0.0 -2.137883e-05 0.0 0.0 -4.789084e-05 -3.5114743e-05 0.0 0.0
1.2073885e-05 2.3358867e-05 9.248253e-05 3.953768e-05 3.5310964e-05 1.8425348e-05 0.0 3.747206e-05
0.0 0.0 7.295264e-05 6.538707e-05 1.9044863e-05 0.0 6.976473e-05 7.780437e-06
0.0 6.21773e-05 3.7009042e-05 0.0 0.0 0.0 0.0 5.355657e-05
0.0 3.1118678e-05 5.8064143e-06 0.0 2.4213457e-05 3.2651667e-05 4.9937364e-05 0.0
0.0 2.5617748e-05 0.0 0.0 5.99935e-05 0.0 0.0 0.0
0.0 0.0 4.5929417e-05 6.298884e-05 1.0884256e-05 0.0 2.8835031e-05 0.0
4.3058062e-05 0.0 0.0 0.0 2.6922009e-05 1.9561223e-05 -6e-45 7.448871e-05
0.0 1.5181289e-05 0.0 0.0 4.010852e-05 3.2846267e-05 0.0 0.0
-7.00508e-05 -0.00016678701 -0.00066628336 -0.00028836538 -0.0002503719 -0.00013493217 0.0 -0.00027699006
0.0 0.0 -0.0005245488 -0.00046971964 -0.00012767586 0.0 -0.0004886161 -5.951536e-05
0.0 -0.00046589045 -0.00027070395 0.0 0.0 0.0 0.0 -0.000388605
0.0 -0.0002470967 -2.4638228e-05 0.0 -0.00016837884 -0.00025453445 -0.00036178596 0.0
0.0 -0.000203432 0.0 0.0 -0.00044907094 0.0 0.0 0.0
0.0 0.0 -0.00034742279 -0.00044603206 -8.185725e-05 0.0 -0.00019881288 0.0
-0.0003127239 0.0 0.0 0.0 -0.00018416534 -0.00014458036 6e-45 -0.0005434045
0.0 -0.00010569722 0.0 0.0 -0.00028272535 -0.00024217393 0.0 0.0
5.3494197e-05 0.00013559734 0.0005509714 0.0002315099 0.00021022075 0.00010677099 0.0 0.00023190743
0.0 0.0 0.00043690373 0.00038976764 0.000105562685 0.0 0.0004085186 5.0372426e-05
0.0 0.00038368374 0.00021720349 0.0 0.0 0.0 0.0 0.00031152015
0.0 0.00020560922 1.4201943e-05 0.0 0.00015060653 0.00020120414 0.00030325644 0.0
0.0 0.00016095815 0.0 0.0 0.00037693477 0.0 0.0 0.0
0.0 0.0 0.00028818738 0.0003649795 5.7947917e-05 0.0 0.0001749202 0.0
0.00025755804 0.0 0.0 0.0 0.00015697892 0.00011671053 -6e-45 0.00045018987
0.0 7.85216e-05 0.0 0.0 0.00023255702 0.0002007112 0.0 0.0
00000000: aca1 b0b7 e816 e6b7 3ce2 dab8 d4b0 40b8
00000010: ae0f 28b8 a57e b6b7 0000 0000 772f 22b8
00000020: 0000 0000 0000 0000 813e aab8 8856 9ab8
00000030: 4767 d1b7 0000 0000 7e6b acb8 5b36 f8b6
00000040: 0000 0000 a175 86b8 7859 32b8 0000 0000
00000050: 0000 0000 0000 0000 0000 0000 3fbb 83b8
00000060: 0000 0000 3bb0 dfb7 1ec1 77b7 0000 0000
00000070: 834f d6b7 a1a2 0ab8 59f9 62b8 0000 0000
00000080: 0000 0000 0b21 ceb7 0000 0000 0000 0000
00000090: b8b9 7ab8 0000 0000 0000 0000 0000 0000
000000a0: 0000 0000 0000 0000 b4a7 3eb8 bc9b 9db8
000000b0: f1f3 73b7 0000 0000 0caa 06b8 0000 0000
000000c0: a346 49b8 0000 0000 0000 0000 0000 0000
000000d0: 9a41 07b8 96c2 b8b7 0400 0080 9a1a aab8
000000e0: 0000 0000 b056 b3b7 0000 0000 0000 0000
000000f0: 66de 48b8 2b48 13b8 0000 0000 0000 0000
00000100: f190 4a37 c9f2 c337 2ef3 c138 43d5 2538
00000110: dc1a 1438 2290 9a37 0000 0000 512b 1d38
00000120: 0000 0000 0000 0000 26fe 9838 6a20 8938
00000130: 88c2 9f37 0000 0000 a74e 9238 b988 0237
00000140: 0000 0000 2f65 8238 283a 1b38 0000 0000
00000150: 0000 0000 0000 0000 0000 0000 eea1 6038
00000160: 0000 0000 6d85 0238 b8d4 c236 0000 0000
00000170: 011e cb37 76f3 0838 d673 5138 0000 0000
00000180: 0000 0000 b2e5 d637 0000 0000 0000 0000
00000190: 88a1 7b38 0000 0000 0000 0000 0000 0000
000001a0: 0000 0000 0000 0000 56a4 4038 e018 8438
000001b0: 869b 3637 0000 0000 c2e2 f137 0000 0000
000001c0: 3e99 3438 0000 0000 0000 0000 0000 0000
000001d0: 93d6 e137 6817 a437 0400 0080 d236 9c38
000001e0: 0000 0000 24b3 7e37 0000 0000 0000 0000
000001f0: 323a 2838 69c4 0938 0000 0000 0000 0000
00000200: 3de8 92b8 8ce3 2eb9 85a9 2eba bf2f 97b9
00000210: 5944 83b9 947c 0db9 0000 0000 fa38 91b9
00000220: 0000 0000 0000 0000 e081 09ba b444 f6b9
00000230: bae0 05b9 0000 0000 7916 00ba 22a0 79b8
00000240: 0000 0000 c242 f4b9 45ed 8db9 0000 0000
00000250: 0000 0000 0000 0000 0000 0000 aebd cbb9
00000260: 0000 0000 c28c 81b9 31ae ceb7 0000 0000
00000270: da8e 30b9 0973 85b9 17ae bdb9 0000 0000
00000280: 0000 0000 5d50 55b9 0000 0000 0000 0000
00000290: 4871 ebb9 0000 0000 0000 0000 0000 0000
000002a0: 0000 0000 0000 0000 4c26 b6b9 69d9 e9b9
000002b0: c7aa abb8 0000 0000 6d78 50b9 0000 0000
000002c0: 17f5 a3b9 0000 0000 0000 0000 0000 0000
000002d0: 821c 41b9 7f9a 17b9 0400 0000 4273 0eba
000002e0: 0000 0000 c3a9 ddb8 0000 0000 0000 0000
000002f0: c13a 94b9 12f0 7db9 0000 0000 0000 0000
00000300: f55e 6038 222f 0e39 116f 103a 77c1 7239
00000310: b46e 5c39 3dea df38 0000 0000 2d2c 7339
00000320: 0000 0000 0000 0000 3a10 e539 ba59 cc39
00000330: 8961 dd38 0000 0000 702e d639 fb46 5338
00000340: 0000 0000 2929 c939 1ec1 6339 0000 0000
00000350: 0000 0000 0000 0000 0000 0000 8753 a339
00000360: 0000 0000 ce98 5739 e144 6e37 0000 0000
00000370: 22ec 1d39 53fa 5239 64fe 9e39 0000 0000
00000380: 0000 0000 e0c6 2839 0000 0000 0000 0000
00000390: 549f c539 0000 0000 0000 0000 0000 0000
000003a0: 0000 0000 0000 0000 db17 9739 b85a bf39
000003b0: 1a0d 7338 0000 0000 c96a 3739 0000 0000
000003c0: db08 8739 0000 0000 0000 0000 0000 0000
000003d0: b59a 2439 7dc2 f438 0400 0080 7607 ec39
000003e0: 0000 0000 f7ab a438 0000 0000 0000 0000
000003f0: 8dda 7339 0176 5239 0000 0000 0000 0000

exp_avg_sq f4 [15, 64]
6.5540586e-09 6.663135e-09 8.55257e-08 1.8909786e-08 1.2206843e-08 4.55316e-09 0.0 9.515189e-09
0.0 0.0 4.949678e-08 4.193043e-08 6.1320398e-09 0.0 5.5312853e-08 2.7077618e-10
0.0 2.7796517e-08 1.6005504e-08 0.0 0.0 0.0 0.0 3.602385e-08
0.0 2.9210618e-09 4.4630846e-09 0.0 3.4107817e-09 8.304292e-09 2.0516982e-08 0.0
0.0 4.1566515e-09 0.0 0.0 2.0840533e-08 0.0 0.0 0.0
0.0 0.0 1.2484286e-08 4.9966676e-08 2.9479077e-09 0.0 6.4816983e-09 0.0
1.793624e-08 0.0 0.0 0.0 8.290243e-09 4.0751904e-09 4.9451876e-25 4.828917e-08
0.0 6.0647007e-09 0.0 0.0 2.0078861e-08 8.733214e-09 0.0 0.0
9.659754e-09 9.854464e-09 1.2664633e-07 2.8062798e-08 1.8065565e-08 6.7702532e-09 0.0 1.4106801e-08
0.0 0.0 7.3208824e-08 6.204128e-08 9.059118e-09 0.0 8.1812175e-08 4.068348e-10
0.0 4.1279275e-08 2.3729875e-08 0.0 0.0 0.0 0.0 5.3370144e-08
0.0 4.3927555e-09 6.5864696e-09 0.0 5.0500484e-09 1.2378661e-08 3.040846e-08 0.0
0.0 6.21397e-09 0.0 0.0 3.0986534e-08 0.0 0.0 0.0
0.0 0.0 1.8551882e-08 7.392754e-08 4.3970565e-09 0.0 9.582163e-09 0.0
2.6561969e-08 0.0 0.0 0.0 1.2243767e-08 6.0659775e-09 1.2296508e-22 7.151828e-08
0.0 8.989085e-09 0.0 0.0 2.9719569e-08 1.2973039e-08 0.0 0.0
3.9924822e-07 3.98725e-07 5.1533e-06 1.1526229e-06 7.309328e-07 2.7849842e-07 0.0 5.7628944e-07
0.0 0.0 2.9636822e-06 2.5167117e-06 3.686163e-07 0.0 3.3167148e-06 1.8030962e-08
0.0 1.6906341e-06 9.697445e-07 0.0 0.0 0.0 0.0 2.1821963e-06
0.0 1.9404098e-07 2.803712e-07 0.0 2.0651721e-07 5.1168473e-07 1.2365853e-06 0.0
0.0 2.585408e-07 0.0 0.0 1.2799162e-06 0.0 0.0 0.0
0.0 0.0 7.6378905e-07 3.0083002e-06 1.8694709e-07 0.0 3.8726725e-07 0.0
1.0805579e-06 0.0 0.0 0.0 4.9380697e-07 2.5120087e-07 4.511818e-25 2.9076434e-06
0.0 3.7322692e-07 0.0 0.0 1.2082535e-06 5.3166224e-07 0.0 0.0
3.5273652e-07 3.5155205e-07 4.534778e-06 1.0121994e-06 6.439941e-07 2.4445194e-07 0.0 5.069415e-07
0.0 0.0 2.6116052e-06 2.2165025e-06 3.2491133e-07 0.0 2.9217365e-06 1.567759e-08
0.0 1.4849919e-06 8.525659e-07 0.0 0.0 0.0 0.0 1.919064e-06
0.0 1.6899558e-07 2.4741595e-07 0.0 1.8188922e-07 4.4759489e-07 1.0881851e-06 0.0
0.0 2.256253e-07 0.0 0.0 1.1235512e-06 0.0 0.0 0.0
0.0 0.0 6.7072375e-07 2.6488299e-06 1.6343247e-07 0.0 3.4135329e-07 0.0
9.50888e-07 0.0 0.0 0.0 4.3550804e-07 2.200625e-07 4.737744e-23 2.5590891e-06
0.0 3.2834973e-07 0.0 0.0 1.0638792e-06 4.6685946e-07 0.0 0.0
00000000: 1c32 e131 8ef1 e431 40aa b733 0f6f a232
00000010: 43b6 5132 0572 9c31 0000 0000 3e78 2332
00000020: 0000 0000 0000 0000 4996 5433 ff16 3433
00000030: feb1 d231 0000 0000 2091 6d33 5cdc 942f
00000040: 0000 0000 30c5 ee32 7a7c 8932 0000 0000
00000050: 0000 0000 0000 0000 0000 0000 a4b8 1a33
00000060: 0000 0000 ddbb 4831 b559 9931 0000 0000
00000070: 1b63 6a31 aaaa 0e32 523d b032 0000 0000
00000080: 0000 0000 4bd2 8e31 0000 0000 0000 0000
00000090: d104 b332 0000 0000 0000 0000 0000 0000
000000a0: 0000 0000 0000 0000 787a 5632 f19a 5633
000000b0: 2494 4a31 0000 0000 9fb5 de31 0000 0000
000000c0: 3512 9a32 0000 0000 0000 0000 0000 0000
000000d0: e06c 0e32 c105 8c31 d00b 1917 8166 4f33
000000e0: 0000 0000 ac61 d031 0000 0000 0000 0000
000000f0: e279 ac32 1509 1632 0000 0000 0000 0000
00000100: 0cf4 2532 644c 2932 47fc 0734 bf0e f132
00000110: 992e 9b32 c79f e831 0000 0000 5e5a 7232
00000120: 0000 0000 0000 0000 fa36 9d33 8e3b 8533
00000130: 6ca2 1b32 0000 0000 b8b0 af33 e8a8 df2f
00000140: 0000 0000 0b4b 3133 8cd6 cb32 0000 0000
00000150: 0000 0000 0000 0000 0000 0000 1839 6533
00000160: 0000 0000 16ef 9631 334f e231 0000 0000
00000170: b284 ad31 eda9 5432 759a 0233 0000 0000
00000180: 0000 0000 a882 d531 0000 0000 0000 0000
00000190: 0e16 0533 0000 0000 0000 0000 0000 0000
000001a0: 0000 0000 0000 0000 055c 9f32 18c2 9e33
000001b0: eb14 9731 0000 0000 cc9e 2432 0000 0000
000001c0: 632a e432 0000 0000 0000 0000 0000 0000
000001d0: a858 5232 e76c d031 d9a7 141b 9795 9933
000001e0: 0000 0000 6a6e 1a32 0000 0000 0000 0000
000001f0: 064a ff32 07e0 5e32 0000 0000 0000 0000
00000200: 4258 d634 5910 d634 83ea ac36 d2b3 9a35
00000210: 5235 4435 8884 9534 0000 0000 4fb2 1a35
00000220: 0000 0000 0000 0000 ace3 4636 c7e4 2836
00000230: 3de6 c534 0000 0000 ba94 5e36 81e2 9a32
00000240: 0000 0000 bfe9 e235 2b28 8235 0000 0000
00000250: 0000 0000 0000 0000 0000 0000 d971 1236
00000260: 0000 0000 9459 5034 ed85 9634 0000 0000
00000270: 05bf 5d34 b55a 0935 bff8 a535 0000 0000
00000280: 0000 0000 94cd 8a34 0000 0000 0000 0000
00000290: 96c9 ab35 0000 0000 0000 0000 0000 0000
000002a0: 0000 0000 0000 0000 2f07 4d35 34e2 4936
000002b0: a0bb 4834 0000 0000 9be9 cf34 0000 0000
000002c0: b007 9135 0000 0000 0000 0000 0000 0000
000002d0: 288e 0435 c9dc 8634 4ea2 0b17 ef20 4336
000002e0: 0000 0000 eb5f c834 0000 0000 0000 0000
000002f0: 462b a235 8db7 0e35 0000 0000 0000 0000
00000300: bd5f bd34 f2bc bc34 7229 9836 e8da 8735
00000310: f0de 2c35 383d 8334 0000 0000 c114 0835
00000320: 0000 0000 0000 0000 0943 2f36 39bf 1436
00000330: 796f ae34 0000 0000 0d13 4436 63ab 8632
00000340: 0000 0000 ef4f c735 e2db 6435 0000 0000
00000350: 0000 0000 0000 0000 0000 0000 45c9 0036
00000360: 0000 0000 2775 3534 97d4 8434 0000 0000
00000370: 544d 4334 f94c f034 c10d 9235 0000 0000
00000380: 0000 0000 6943 7234 0000 0000 0000 0000
00000390: edcc 9635 0000 0000 0000 0000 0000 0000
000003a0: 0000 0000 0000 0000 c90b 3435 8dc2 3136
000003b0: fa7b 2f34 0000 0000 3d43 b734 0000 0000
000003c0: 8740 7f35 0000 0000 0000 0000 0000 0000
000003d0: c5cf e934 524a 6c34 6e1a 651a d1bc 2b36
000003e0: 0000 0000 0b48 b034 0000 0000 0000 0000
000003f0: 9cca 8e35 ada4 fa34 0000 0000 0000 0000

exp_avg f4 [15]
-3.535507e-05 2.9556695e-05 -0.0002184822 0.00016831551 9.212437e-08 3.1564654e-05 -4.166795e-06 -1.0072105e-06
-5.922906e-05 0.0 0.0 0.0 0.0 0.0 0.0
00000000: 384a 14b8 85f0 f737 5e18 65b9 da7d 3039
00000010: e8d5 c533 4a64 0438 7fd0 8bb6 7d2f 87b5
00000020: b86c 78b8 0000 0000 0000 0000 0000 0000
00000030: 0000 0000 0000 0000 0000 0000

exp_avg_sq f4 [15]
1.3026334e-08 1.9300835e-08 7.9334563e-07 6.97418e-07 4.419822e-10 1.310136e-08 2.9754197e-09 7.828983e-09
6.933556e-08 0.0 0.0 0.0 0.0 0.0 0.0
00000000: 6cca 5f32 fcca a532 4cf6 5435 3336 3b35
00000010: 77fb f22f 6414 6132 2378 4c31 3b80 0632
00000020: a1e5 9433 0000 0000 0000 0000 0000 0000
00000030: 0000 0000 0000 0000 0000 0000
