Op_problems/problem_ED_Column/checkpoints/pinn_checkpoint_epoch_400_loss_0.060426.pth (torch, 21427 bytes, 12 tensors)

nn.0.weight f4 [64, 3]
0	0x3ef4f50d	0.4784321
1	0x3f05dfb5	0.52294475
2	0xbe15d566	-0.14632186
3	0x3edb739d	0.42861643
4	0xbe3623a7	-0.17787038
5	0x3dc1680a	0.09443672
6	0xbe328b23	-0.17435889
7	0x3ecc78f9	0.39936045
8	0x3f0df3e1	0.55450255
9	0xbe86c98e	-0.2632565
10	0x3f1090f8	0.56471205
11	0x3e0eb494	0.13936073
12	0x3eaf30b8	0.34216857
13	0x3d8bfc19	0.06835193
14	0x3e8767b1	0.26446298
15	0xbb8a2dbb	-0.0042168773
16	0x3f0e05fc	0.5547788
17	0x3dd8289b	0.1055462
18	0xbe89ffdb	-0.26953015
19	0x3e16b295	0.14716561
20	0xbe8831fe	-0.2660064
21	0xbd41a74d	-0.04727869
22	0xbe2ab6c5	-0.16671284
23	0x3ec3fec3	0.38280305
24	0xbee95728	-0.45574307
25	0xbe8846b5	-0.26616445
26	0xbe26f11c	-0.16302913
27	0xbeb1bcf7	-0.3471448
28	0x3d5f3321	0.05449212
29	0xbf11fb0a	-0.5702368
30	0x3f292fa5	0.66088325
31	0xbed54103	-0.41651163
32	0x3efe2674	0.49638712
33	0x3e34c7a9	0.1765429
34	0xbd984aa5	-0.07436112
35	0x3ecb10b2	0.39661175
36	0x3e471f8d	0.1944563
37	0x3edea6bf	0.43486592
38	0x3ceb732d	0.028741444
39	0xbe3a7363	-0.18208079
40	0x3e1ed8fb	0.15512459
41	0xbe2052b6	-0.15656552
42	0x3ef0363f	0.46916386
43	0x3f0652ac	0.524699
44	0x3eba528f	0.36391112
45	0xbe2613d3	-0.162185
46	0x3ec1584e	0.37762684
47	0x3de6a18a	0.1126128
48	0x3e961e23	0.29319867
49	0xbeb42bf6	-0.3518979
50	0xbf124f64	-0.5715239
51	0xbe2417a9	-0.1602465
52	0xbeb7f4da	-0.35928994
53	0x3effb046	0.49939173
54	0x3ea9b3ee	0.33145088
55	0x3e8a9637	0.2706773
56	0x3e431a05	0.19052894
57	0xbc248dc9	-0.01004357
58	0x3ee75774	0.4518391
59	0xbed207ba	-0.4102152
60	0x3d14e5f7	0.036352124
61	0xbec9c2db	-0.39406475
62	0x3e364cbd	0.17802711
63	0xbe4b99e2	-0.1988292
64	0x3e3527c5	0.17690952
65	0xbdf65883	-0.12028601
66	0x3ef52bc6	0.4788496
67	0xbeaf3465	-0.3421966
68	0xbeb04c18	-0.34433055
69	0xbeb21cb1	-0.34787515
70	0x3ec6cb36	0.38826913
71	0x3e2ca1ea	0.1685864
72	0x3f0e38e6	0.5555557
73	0xbef3f454	-0.47647345
74	0xbf1299d7	-0.5726599
75	0xbf26b7bb	-0.651241
76	0xbeceeaa1	-0.40413383
77	0x3eb96e43	0.36216936
78	0x3ecfb6e3	0.4056922
79	0x3f0e4dee	0.5558766
80	0xbe83e042	-0.25757033
81	0xbec9842b	-0.3935865
82	0x3e9cd736	0.30632943
83	0xbe6ef7e8	-0.23336756
84	0x3ecf1760	0.4044752
85	0xbe71993b	-0.23593609
86	0x3ea71e09	0.32640103
87	0xbf09862a	-0.53720343
88	0xbe51bdac	-0.2048251
89	0x3e404344	0.1877566
90	0x3e813c02	0.25241095
91	0xbd499195	-0.049211103
92	0x3eb5da20	0.3551798
93	0x3ec8f431	0.39248803
94	0xbed65d19	-0.41867903
95	0xbe9dd02f	-0.30822894
96	0x3f07561c	0.5286577
97	0xbe477e0a	-0.19481674
98	0xbe5197ab	-0.20468013
99	0xbf169614	-0.5882275
100	0xbebbcff2	-0.36682087
101	0x3e456a6b	0.19278876
102	0xbd9c120c	-0.0762063
103	0xbed69306	-0.41909045
104	0x3c5de251	0.013542728
105	0xbec9ebd2	-0.3943773
106	0xbefac9f4	-0.48982203
107	0xbea2c718	-0.3179252
108	0xbee6b0b9	-0.45056704
109	0xbe82fe6d	-0.25584736
110	0x3f1e7f41	0.61912924
111	0x3ddf540a	0.10904701
112	0x3e362fa3	0.1779161
113	0xbf09da30	-0.5384855
114	0xbec22500	-0.37918854
115	0xbe44c95d	-0.19217439
116	0x3db8e532	0.090280905
117	0xbf020dc8	-0.5080228
118	0xbe7ebc2a	-0.24876466
119	0xbeb0f7eb	-0.34564146
120	0x3ad1b6a5	0.0015999867
121	0xbe5bfd6a	-0.21483389
122	0xbd23df5a	-0.040007927
123	0xbec84f42	-0.3912297
124	0xbecae694	-0.39629042
125	0xbeac749d	-0.3368272
126	0xbe403c59	-0.18773021
127	0xbec9ce06	-0.39414996
128	0x3ee803ad	0.45315304
129	0xbe4329c9	-0.19058909
130	0x3ee831d8	0.45350528
131	0x3e2cbf04	0.16869742
132	0xbefe3bef	-0.496551
133	0x3ec89852	0.3917871
134	0xbe2a8bd9	-0.1665491
135	0xbe629ffb	-0.2213134
136	0xbef55f21	-0.4792414
137	0xbf12f048	-0.5739789
138	0x3e4ee184	0.20203215
139	0xbd82bb8e	-0.063834295
140	0x3e821953	0.25409946
141	0xbef29742	-0.47381026
142	0x3edb76eb	0.42864165
143	0xbed8fd1d	-0.4238061
144	0xbe5edcb8	-0.21763885
145	0x3da54d01	0.08071328
146	0x3e80b3bf	0.25137135
147	0x3eeea4c5	0.46610084
148	0x3f06a42c	0.52594256
149	0xbeea63f3	-0.4577938
150	0x3e14c991	0.14530016
151	0xbe7e4b18	-0.24833333
152	0xbd819315	-0.06326882
153	0xbedd4194	-0.43214095
154	0x3f06a05d	0.52588445
155	0xbed8f54d	-0.4237465
156	0x3ee2cd5c	0.44297302
157	0x3e06ef0d	0.13177128
158	0x3df79f32	0.12090911
159	0xbe047619	-0.12935676
160	0x3f0aa95c	0.5416467
161	0x3e12af22	0.1432462
162	0x3d894a3a	0.06703611
163	0xbf076b91	-0.5289851
164	0x3ea486ca	0.32134086
165	0x3d97040d	0.073738195
166	0xbe4eb02a	-0.20184389
167	0x3f02c2fb	0.51078767
168	0x3e03cf0e	0.12871954
169	0xbea38ce4	-0.3194343
170	0xbe959dc9	-0.29221943
171	0x3dc44263	0.09582975
172	0x3eb97e66	0.36229247
173	0xbdce93af	-0.10086762
174	0xbea8a9f1	-0.32942155
175	0xbe4a745b	-0.19770949
176	0xbedcd67b	-0.43132386
177	0x3e52d7ef	0.20590185
178	0x3ee4cf12	0.44689232
179	0xbf0b257e	-0.54354084
180	0xbcbcba8c	-0.023038171
181	0x3e7ff6ca	0.24996486
182	0x3e1549d4	0.14578944
183	0xbe4f51fa	-0.20246115
184	0x3ec3296d	0.38117543
185	0x3e98cd9e	0.29844373
186	0x3e5d117a	0.21588698
187	0xbdcfc67c	-0.1014528
188	0xbe1c8d62	-0.15288308
189	0x3d7cfdc8	0.061765462
190	0xbdd0e0cf	-0.10199129
191	0xbe302e22	-0.17205098

nn.0.bias f4 [64]
0	0x3eaa37ce	0.332457
1	0x3ede32cc	0.4339813
2	0x3d5860af	0.05282658
3	0xbdb542b2	-0.08850612
4	0xbd917bd1	-0.07103694
5	0xbd148bff	-0.036266323
6	0x3e0e21fc	0.13880152
7	0x3dc80835	0.0976719
8	0xbf063deb	-0.5243823
9	0xbe5a2d76	-0.21306404
10	0x3f0f5368	0.5598664
11	0x3e74be82	0.23900798
12	0xbcad081d	-0.021122033
13	0xbeb23890	-0.3480878
14	0xbec0d9eb	-0.37666258
15	0xbf09f3d4	-0.5388768
16	0xbe40b60e	-0.18819448
17	0x3e8a729d	0.27040568
18	0x3ed7fc0e	0.4218449
19	0x3e887ab2	0.2665611
20	0xbf02a5fe	-0.51034534
21	0xbeb1c3c7	-0.3471968
22	0xbdba9ac1	-0.09111548
23	0x3f02f76a	0.51158774
24	0x3dab0b82	0.08351804
25	0xbc72dcc5	-0.014823143
26	0x3ea116ae	0.31462616
27	0xbe612e01	-0.21990205
28	0xbec0f974	-0.37690318
29	0x3ee8f231	0.45497277
30	0xbe2078d1	-0.15671088
31	0xbded08d9	-0.11573953
32	0xbf1308a2	-0.5743505
33	0x3f038c4d	0.51385957
34	0x3edff596	0.43742055
35	0x3e5776d6	0.21041426
36	0xbeca3ddd	-0.39500323
37	0xbf11df12	-0.56981003
38	0xbef01533	-0.46891174
39	0x3edc6e75	0.43053022
40	0x3e8debbe	0.2771892
41	0x3ef8c064	0.48584282
42	0x3e7ca1f1	0.2467115
43	0x3e80e008	0.25170922
44	0xbc5b6e12	-0.013392942
45	0xbee0cee1	-0.43907836
46	0xbf018fa4	-0.50609803
47	0xbf0a3eff	-0.54002374
48	0x3e1ae441	0.15126134
49	0xbe9121bc	-0.2834605
50	0xbdedf6b7	-0.11619323
51	0xbeaa1f0c	-0.33226812
52	0xbe17aa66	-0.14811096
53	0xbebc3333	-0.36757812
54	0xbe985e60	-0.29759502
55	0x3e65a0e7	0.2242466
56	0xbe2fb459	-0.17158641
57	0x3eea5318	0.4576652
58	0xbe3daa0e	-0.18521902
59	0xbed8d84d	-0.42352524
60	0xbd2a14b7	-0.04152366
61	0xbeaa6d84	-0.3328668
62	0xbe34dfec	-0.17663544
63	0xbf0cb4e0	-0.54963493

nn.2.weight f4 [15, 64]
0	0x3d1183d8	0.035526127
1	0xbde46e73	-0.11153879
2	0x3d86fb71	0.065909274
3	0x3d83e886	0.06440835
4	0x3d993541	0.074808605
5	0xbdccfa2b	-0.10008653
6	0x3db81d48	0.0898996
7	0xbd557b43	-0.052119505
8	0x3d3dfcc8	0.04638365
9	0x3df069d2	0.117389336
10	0xbceec79d	-0.029147917
11	0xbb2cbb9f	-0.0026356948
12	0xbd2bc010	-0.041931212
13	0xbdd5c18c	-0.10437307
14	0x3d456231	0.048189346
15	0xbdd51922	-0.10405184
16	0x3d9eecbe	0.07759999
17	0x3dd870d4	0.10568395
18	0x3ddefc19	0.108879276
19	0xbcf18a68	-0.029484943
20	0xbdd25720	-0.10270524
21	0x3ce639e8	0.028103784
22	0x3d8d6be0	0.06905341
23	0xbdea6a33	-0.11446037
24	0xbce86e68	-0.028372958
25	0x3cd008a6	0.025394749
26	0xbdbeb37d	-0.093115784
27	0xbd7c0368	-0.061526686
28	0xbda0708a	-0.07833965
29	0x3c0b211e	0.0084917825
30	0xbdff50eb	-0.12466606
31	0x3dd20cc8	0.10256344
32	0x3dd69ce0	0.1047914
33	0x3d806ecd	0.062711336
34	0xbc693b00	-0.014235258
35	0xbd50f518	-0.05101499
36	0xbdb3f1e3	-0.087863706
37	0xbdf91ffe	-0.12164305
38	0x3d3e4a04	0.046457306
39	0xbd8c8e4a	-0.06863077
40	0xbda49396	-0.08035962
41	0xbc1fcaa0	-0.009752899
42	0xbcdb505e	-0.02677172
43	0xbd20c359	-0.039248798
44	0xbabe0477	-0.001449718
45	0xbcd93400	-0.026514053
46	0xbd7928d8	-0.060829967
47	0xbd75260c	-0.059850737
48	0xbdbd929d	-0.0925648
49	0x3dd6a868	0.1048134
50	0xbd4ce554	-0.05002339
51	0x3d07ab64	0.033122435
52	0xbd89eef1	-0.067350276
53	0x3c6b4119	0.014358782
54	0x39d6d4e1	0.00040975868
55	0x3d7a4f55	0.061110813
56	0xbdddd97a	-0.10832496
57	0x3cc84e96	0.024451535
58	0x3df30194	0.118655354
59	0x3d06b2dc	0.032885417
60	0x3d96d5a7	0.0736497
61	0x3e05664d	0.13027306
62	0xbc9ce810	-0.019153625
63	0x3cd48928	0.025944307
64	0x3d72ffca	0.05932597
65	0x3c1bed24	0.009516988
66	0x3e239525	0.15974863
67	0x3e2e9953	0.17050676
68	0xbbcff1b1	-0.0063459505
69	0x3c558882	0.013033034
70	0xbdaef0ec	-0.08542046
71	0xbdc025e2	-0.093822256
72	0xbdc58a22	-0.09645487
73	0xbcfd3b88	-0.030912176
74	0x3dfa114d	0.12210331
75	0x3d8e156c	0.0693768
76	0x3cbc2d11	0.022970708
77	0xbdcd5e8c	-0.10027799
78	0x3e2a82b7	0.16651426
79	0x3de271d3	0.110568665
80	0xbc7c2a40	-0.015390933
81	0x3d8b528c	0.06802854
82	0x3c81b956	0.015835445
83	0xbc5f5050	-0.013629988
84	0xbc324460	-0.01088056
85	0xbcf242e8	-0.029572919
86	0xbd81ccdc	-0.06337902
87	0xbd703f51	-0.058654133
88	0xbdcef07c	-0.101044625
89	0xbef9edfb	-0.48814377
90	0x3ef37f2b	0.4755796
91	0xbd774db4	-0.060376838
92	0xbcedcab5	-0.029027322
93	0xbce28e21	-0.027655663
94	0x3dc70912	0.09718527
95	0x3d8c43d0	0.06848872
96	0x3dc29740	0.09501505
97	0xbdc4fa96	-0.09618108
98	0xbdfdd302	-0.12393762
99	0x3c35a260	0.0110860765
100	0x3db69e47	0.08916908
101	0xbc3d4990	-0.011553183
102	0xbd96db00	-0.0736599
103	0x3df40e14	0.11916748
104	0xbd3f8094	-0.04675348
105	0xbd91c090	-0.071168065
106	0xbdef97c3	-0.11698868
107	0x3da4f78d	0.08055029
108	0x3d72d7c4	0.0592878
109	0x3ce2acf0	0.027670354
110	0x3dfbd2d3	0.12296071
111	0xbdc225ae	-0.09479843
112	0xbd9be297	-0.07611578
113	0x3b104180	0.0022011697
114	0x3de96df6	0.113979265
115	0x3d93b11e	0.07211517
116	0x3cfe79b0	0.031063884
117	0x3de98e07	0.11404043
118	0x3a0e9e43	0.0005440453
119	0xbccb784c	-0.024837635
120	0x3cb971d8	0.022637293
121	0x3e4ede69	0.2020203
122	0x3dd41002	0.10354616
123	0xbdeb0900	-0.11476326
124	0x3e37927c	0.17926973
125	0xbad73461	-0.0016418808
126	0x3d3fba2c	0.046808407
127	0x3dd8a388	0.10578066
128	0xbc81c3e6	-0.015840482
129	0x3c0328b1	0.008005307
130	0xbdae5946	-0.08513121
131	0x3d0c3a1c	0.034235105
132	0x3ce74779	0.028232323
133	0x3c9a7fa2	0.018859688
134	0xbcd19cf0	-0.025587529
135	0xbd78a546	-0.060704492
136	0x3db0765e	0.08616327
137	0x3d7b233c	0.0613129
138	0xbcfb61cb	-0.03068628
139	0xbdbd741d	-0.092506625
140	0xbdab5271	-0.08365334
141	0x3c5d8350	0.013520077
142	0x3ce3268b	0.02772834
143	0x3df541f0	0.11975467
144	0xbd0f41a4	-0.03497471
145	0x3d95bf91	0.07311929
146	0xbaa638ef	-0.0012681762
147	0x3bb8ce00	0.0056397915
148	0xbcfc01c8	-0.030762568
149	0xbde7d4ba	-0.11319871
150	0xbdf0b4b6	-0.11753218
151	0xba46dcb7	-0.00075859897
152	0xbd82215a	-0.063540176
153	0x3dce0d0e	0.10061084
154	0xbafc529c	-0.0019250694
155	0xbd484e44	-0.048902765
156	0xbcc87835	-0.024471382
157	0x3e039307	0.12849055
158	0x3d385667	0.045004275
159	0xbd77dda0	-0.060514092
160	0xbd512290	-0.051058352
161	0x3e1aa7f9	0.15103139
162	0xbdaa9102	-0.08328439
163	0xbda75926	-0.081713006
164	0x3c8a0117	0.016846223
165	0xbd3b44fc	-0.045720086
166	0xbdbfe996	-0.09370725
167	0x3d97d944	0.07414487
168	0x3dcddd9e	0.10052036
169	0x3ca61de0	0.020277917
170	0xbcea53ba	-0.028604377
171	0xbd9a82ed	-0.07544503
172	0xbd2cba4f	-0.042169865
173	0x3d02590c	0.031823203
174	0xbd8d4123	-0.068971895
175	0xbc817398	-0.01580219
176	0xbc875b7c	-0.016523115
177	0x3d8ea65e	0.06965326
178	0xbdcbe0da	-0.099549964
179	0x3da1cbee	0.079002246
180	0xbdead614	-0.114666134
181	0x3dace99f	0.08442997
182	0xbd7a3143	-0.061082136
183	0xbad103d4	-0.0015946575
184	0xbd1ab9c0	-0.0377748
185	0x3e095ec1	0.13415052
186	0xbb54f800	-0.0032496452
187	0x3dc7d55e	0.097574934
188	0x3e07123b	0.13190548
189	0xbc476e45	-0.012172286
190	0xbdbac11c	-0.09118864
191	0x3dcd63aa	0.10028775
192	0x3e43b507	0.19112025
193	0x3d95951d	0.07303832
194	0x3c72edbb	0.014827187
195	0xbe1a5c8d	-0.15074368
196	0xbd152d92	-0.036420412
197	0x3ce8d71a	0.02842288
198	0x3d0835b0	0.033254325
199	0x3da33985	0.07969955
200	0xbd0b592c	-0.034020588
201	0x3dec2e0e	0.11532222
202	0x3e0f956c	0.14021844
203	0xbb0f4658	-0.0021861997
204	0x3c74e1ab	0.014946382
205	0x3cf5e8a0	0.03001815
206	0x3d967919	0.07347316
207	0xbea08b77	-0.31356403
208	0x3d3fe46c	0.0468487
209	0xba1bb6af	-0.0005940003
210	0xbcfcef2c	-0.030875765
211	0xbd8bd440	-0.06827593
212	0x3df6e388	0.12055117
213	0x3ddad7f6	0.106857225
214	0x3de53e78	0.111935556
215	0x3dbc7f73	0.092039965
216	0x3dc16524	0.09443119
217	0xbe8fe9eb	-0.28108153
218	0x3de9eedd	0.11422513
219	0x3d7fd2fc	0.06245707
220	0x3ce7e262	0.02830619
221	0xbd4a4494	-0.049381807
222	0x3cade58c	0.02122762
223	0x3cd6e558	0.026232406
224	0x3d83c9b6	0.06434958
225	0x3c34d5b5	0.01103728
226	0xbd96ac48	-0.07357079
227	0x3c8a2168	0.016861632
228	0xbdad51cc	-0.08462867
229	0xbda6abf6	-0.08138268
230	0x3d8570c4	0.06515649
231	0xbcac0428	-0.020998076
232	0x3de9edd0	0.11422312
233	0x3df90848	0.12159783
234	0x3dc6e9ba	0.097125486
235	0x3d7f7d6f	0.062375482
236	0x3d059178	0.032609433
237	0x3b004b40	0.0019576102
238	0xbb6c11f6	-0.0036021448
239	0x3ae12f00	0.0017180145
240	0x3d8bf534	0.06833878
241	0x3dee0576	0.11622135
242	0xbd04b080	-0.032394886
243	0xbd586e34	-0.052839473
244	0x3d3a340c	0.045459792
245	0xbdf47ed2	-0.119382516
246	0x3cc3c2a2	0.02389652
247	0x3e213b41	0.1574526
248	0x3dc82fac	0.09774718
249	0x3e16cb63	0.14726023
250	0xbdbc6602	-0.09199144
251	0xbd89657c	-0.0670881
252	0xbb85b243	-0.0040800883
253	0xbd3fcde9	-0.04682723
254	0x3c287180	0.010280967
255	0xbdeb002e	-0.11474644

nn.2.bias f4 [15]
0	0x3dc6086d	0.09669576
1	0x3cc85b10	0.024457484
2	0x3d97fb76	0.07421009
3	0x3d8ea128	0.06964332
4	0xbd8d46e0	-0.06898284
5	0x3d677e28	0.056516796
6	0x3dcb69cd	0.09932289
7	0xbdf24ca2	-0.11831023
8	0x3d8ba40f	0.06818401
9	0xbd623458	-0.0552257
10	0x3e74acaa	0.23893991
11	0x3dd0c328	0.10193473
12	0x3d61b838	0.055107325
13	0x3dbbaaf7	0.09163468
14	0x3c05271f	0.008127003

exp_avg f4 [64, 3]
0	0xbb41f0b7	-0.002959294
1	0xbc243a24	-0.010023627
2	0xbcb1009c	-0.021606736
3	0x3a8c095e	0.0010683944
4	0x3b95a318	0.0045665614
5	0x3c027a70	0.007963762
6	0xba0cb039	-0.00053668354
7	0xbb813715	-0.003943334
8	0xbb5a3fad	-0.0033302114
9	0xba51a248	-0.0007996899
10	0xbb82ad11	-0.0039879163
11	0xbc1bb5a1	-0.009503753
12	0xbac3e842	-0.0014946538
13	0xbb367542	-0.0027840887
14	0xbc853438	-0.016260251
15	0xbabbcc30	-0.001432782
16	0xbb72b41f	-0.003703363
17	0xbc8a4067	-0.016876413
18	0x00000000	0.0
19	0x00000000	0.0
20	0x00000000	0.0
21	0xba67a4bc	-0.0008836498
22	0xbb2dc7e9	-0.002651686
23	0xbc296efa	-0.0103414
24	0x00000000	0.0
25	0x00000000	0.0
26	0x00000000	0.0
27	0x00000000	0.0
28	0x00000000	0.0
29	0x00000000	0.0
30	0xb9ca2123	-0.0003855313
31	0xba32a325	-0.00068144716
32	0x3b5fc6d0	0.00341456
33	0xbb235a3f	-0.0024925617
34	0xbbed94e2	-0.007250414
35	0xbcb7eac5	-0.022450814
36	0xbb13f65a	-0.0022577257
37	0xbbb393d8	-0.005480271
38	0xbbd90e41	-0.0066240137
39	0x00000000	0.0
40	0x00000000	0.0
41	0x00000000	0.0
42	0xba35713c	-0.0006921475
43	0x3ad84e2f	0.0016502793
44	0x3ba4ef33	0.0050333976
45	0xbb68ee87	-0.0035542564
46	0xbc0aa562	-0.008462282
47	0xbce1de43	-0.027571803
48	0x00000000	0.0
49	0x00000000	0.0
50	0x00000000	0.0
51	0xba94fae4	-0.0011366275
52	0xbb991071	-0.0046711494
53	0xbc561abf	-0.0130679
54	0xba347f60	-0.00068854354
55	0xbb290526	-0.0025790422
56	0xbbd5d8dd	-0.0065260963
57	0x00000000	0.0
58	0x00000000	0.0
59	0x00000000	0.0
60	0x00000000	0.0
61	0x00000000	0.0
62	0x00000000	0.0
63	0x00000000	0.0
64	0x00000000	0.0
65	0x00000000	0.0
66	0x00000000	0.0
67	0x00000000	0.0
68	0x00000000	0.0
69	0x3ac03257	0.001466344
70	0x3bb365cd	0.005474782
71	0x3c6f1047	0.014591283
72	0x00000000	0.0
73	0x00000000	0.0
74	0x00000000	0.0
75	0x3bde7ea9	0.0067900014
76	0x3c98031c	0.01855617
77	0x3d2fc4fa	0.04291246
78	0xbbcdcd81	-0.0062806015
79	0xbcacc8ef	-0.021091906
80	0xbd3586bf	-0.044317957
81	0x00000000	0.0
82	0x00000000	0.0
83	0x00000000	0.0
84	0x39b36221	0.00034214652
85	0x3b99d76f	0.004694871
86	0x3c48afd8	0.012248956
87	0x3b38f7b1	0.0028223807
88	0x3b6ecd31	0.0036438222
89	0x3b74664e	0.0037292424
90	0xbb3697e6	-0.0027861535
91	0xbc0d4687	-0.008622772
92	0xbc9c5819	-0.019084977
93	0x00000000	0.0
94	0x00000000	0.0
95	0x00000000	0.0
96	0x00000000	0.0
97	0x00000000	0.0
98	0x00000000	0.0
99	0x3bec6c78	0.007215079
100	0x3c6f7324	0.014614854
101	0x3d2ce30d	0.04220872
102	0x00000000	0.0
103	0x00000000	0.0
104	0x00000000	0.0
105	0x00000000	0.0
106	0x00000000	0.0
107	0x00000000	0.0
108	0xb9e8d405	-0.00044408455
109	0xba8c3f68	-0.0010700049
110	0xbbfb2277	-0.0076640206
111	0x00000000	0.0
112	0x00000000	0.0
113	0x00000000	0.0
114	0x00000000	0.0
115	0x00000000	0.0
116	0x00000000	0.0
117	0x00000000	0.0
118	0x00000000	0.0
119	0x00000000	0.0
120	0x00000000	0.0
121	0x00000000	0.0
122	0x00000000	0.0
123	0x00000000	0.0
124	0x00000000	0.0
125	0x00000000	0.0
126	0xba9a2a36	-0.0011761847
127	0xbb6fc711	-0.0036587159
128	0xbc13e8b5	-0.00902765
129	0x3b207ccd	0.002448845
130	0x3b91b496	0.0044465763
131	0x3c472d02	0.012156727
132	0x00000004	6e-45
133	0x00000004	6e-45
134	0x00000004	6e-45
135	0x00000000	0.0
136	0x00000000	0.0
137	0x00000000	0.0
138	0xbbc4e67f	-0.0060089226
139	0xbc49ab08	-0.012308843
140	0xbd1fa1a0	-0.038972497
141	0x00000000	0.0
142	0x00000000	0.0
143	0x00000000	0.0
144	0xb98e1294	-0.00027098192
145	0xbaa07ada	-0.0012243644
146	0xbc0fd57b	-0.008778925
147	0x00000000	0.0
148	0x00000000	0.0
149	0x00000000	0.0
150	0x00000000	0.0
151	0x00000000	0.0
152	0x00000000	0.0
153	0x00000000	0.0
154	0x00000000	0.0
155	0x00000000	0.0
156	0xbb0ea0a9	-0.0021763241
157	0xbbb9f8c5	-0.0056754076
158	0xbc4c08c6	-0.012453264
159	0xbb3aa7c2	-0.002848134
160	0xbc021240	-0.007938921
161	0xbc71c791	-0.014757053
162	0x3a98a2ca	0.0011645195
163	0x3b5ba174	0.0033512982
164	0x3c23c2e2	0.009995194
165	0xbac3c931	-0.0014937279
166	0xbb15f4b7	-0.0022881457
167	0xb9f602c6	-0.00046922843
168	0x00000000	0.0
169	0x00000000	0.0
170	0x00000000	0.0
171	0x3a7cbd6d	0.0009641264
172	0x3922b821	0.00015518117
173	0x3ba84100	0.0051347017
174	0x00000000	0.0
175	0x00000000	0.0
176	0x00000000	0.0
177	0x00000000	0.0
178	0x00000000	0.0
179	0x00000000	0.0
180	0x3a7d188c	0.0009654842
181	0x3a77720c	0.00094392966
182	0x3abd0bd5	0.0014423082
183	0xbb93528d	-0.004495925
184	0xbc4a336f	-0.012341364
185	0xbd1796bb	-0.037008982
186	0x00000000	0.0
187	0x00000000	0.0
188	0x00000000	0.0
189	0x00000000	0.0
190	0x00000000	0.0
191	0x00000000	0.0

exp_avg_sq f4 [64, 3]
0	0x39a77d13	0.0003194591
1	0x3b8cf0d2	0.004301169
2	0x3cd30be3	0.025762504
3	0x39f5d7c2	0.00046890794
4	0x3bcecb8a	0.006310885
5	0x3d1d77df	0.038444396
6	0x3abb22c4	0.0014277329
7	0x3c9d69ab	0.019215425
8	0x3df2c504	0.11853984
9	0x39394e45	0.00017672133
10	0x3b1c6459	0.0023863523
11	0x3c6b85ba	0.014375145
12	0x3b57c50e	0.003292385
13	0x3d3598dc	0.04433523
14	0x3e8b5c12	0.27218682
15	0x3aa8a39e	0.0012866145
16	0x3c8dd1b8	0.017311916
17	0x3ddb75b3	0.10715809
18	0x00000000	0.0
19	0x00000000	0.0
20	0x00000000	0.0
21	0x397ce025	0.00024116093
22	0x3b54d133	0.0032473325
23	0x3ca0b6c3	0.019618398
24	0x00000000	0.0
25	0x00000000	0.0
26	0x00000000	0.0
27	0x00000000	0.0
28	0x00000000	0.0
29	0x00000000	0.0
30	0x3b00161b	0.0019544426
31	0x3cd7c37a	0.026338328
32	0x3e26e463	0.1629806
33	0x3a71a9f6	0.00092187466
34	0x3c4b6ac3	0.012415591
35	0x3d9b559b	0.07584687
36	0x3aa8ea0d	0.0012887135
37	0x3c8e13b7	0.017343385
38	0x3dd95bf6	0.10613243
39	0x00000000	0.0
40	0x00000000	0.0
41	0x00000000	0.0
42	0x38e803c5	0.00011063324
43	0x3ac181d9	0.0014763429
44	0x3c0e2d39	0.008677774
45	0x3ab2cd6b	0.0013641542
46	0x3c966128	0.018356875
47	0x3de35414	0.11100021
48	0x00000000	0.0
49	0x00000000	0.0
50	0x00000000	0.0
51	0x3a397ced	0.00070758053
52	0x3c1c475e	0.0095385
53	0x3d6ae5a5	0.057347912
54	0x39b883b7	0.0003519335
55	0x3b9b1d65	0.0047337287
56	0x3ce0f191	0.027458938
57	0x00000000	0.0
58	0x00000000	0.0
59	0x00000000	0.0
60	0x00000000	0.0
61	0x00000000	0.0
62	0x00000000	0.0
63	0x00000000	0.0
64	0x00000000	0.0
65	0x00000000	0.0
66	0x00000000	0.0
67	0x00000000	0.0
68	0x00000000	0.0
69	0x398ea318	0.00027205865
70	0x3b70aa86	0.0036722734
71	0x3cb9bde6	0.022673558
72	0x00000000	0.0
73	0x00000000	0.0
74	0x00000000	0.0
75	0x39d4f2fd	0.0004061683
76	0x3bb1dc9f	0.0054279114
77	0x3cffb9cd	0.031216526
78	0x3ab4f07b	0.0013804579
79	0x3c9828b2	0.018574093
80	0x3de60acf	0.1123253
81	0x00000000	0.0
82	0x00000000	0.0
83	0x00000000	0.0
84	0x3982e229	0.00024964035
85	0x3b5cb241	0.0033675584
86	0x3ca9bf3b	0.020721069
87	0x3a16fa25	0.00057593203
88	0x3bfcbee9	0.007713188
89	0x3d40dc39	0.04708502
90	0x3919b835	0.0001465984
91	0x3b01e510	0.001982037
92	0x3c3e2240	0.0116048455
93	0x00000000	0.0
94	0x00000000	0.0
95	0x00000000	0.0
96	0x00000000	0.0
97	0x00000000	0.0
98	0x00000000	0.0
99	0x3b0702e2	0.0020601084
100	0x3ce21ad3	0.027600681
101	0x3e2f2922	0.17105535
102	0x00000000	0.0
103	0x00000000	0.0
104	0x00000000	0.0
105	0x00000000	0.0
106	0x00000000	0.0
107	0x00000000	0.0
108	0x3a08a1b2	0.0005212083
109	0x3be6049f	0.007019594
110	0x3d2fc94e	0.04291659
111	0x00000000	0.0
112	0x00000000	0.0
113	0x00000000	0.0
114	0x00000000	0.0
115	0x00000000	0.0
116	0x00000000	0.0
117	0x00000000	0.0
118	0x00000000	0.0
119	0x00000000	0.0
120	0x00000000	0.0
121	0x00000000	0.0
122	0x00000000	0.0
123	0x00000000	0.0
124	0x00000000	0.0
125	0x00000000	0.0
126	0x39280c5b	0.00016026331
127	0x3b0d9da0	0.0021608844
128	0x3c586109	0.013206729
129	0x3983df6e	0.00025152735
130	0x3b5c881a	0.0033650459
131	0x3ca659af	0.020306436
132	0x23dc2f03	2.3872358e-17
133	0x25e52cd5	3.9755547e-16
134	0x26987ecf	1.058149e-15
135	0x00000000	0.0
136	0x00000000	0.0
137	0x00000000	0.0
138	0x3b927e66	0.0044706343
139	0x3d7656b7	0.06014129
140	0x3ebe2dbf	0.37144276
141	0x00000000	0.0
142	0x00000000	0.0
143	0x00000000	0.0
144	0x3ae1bc55	0.0017222265
145	0x3cbe1b98	0.023206517
146	0x3e134172	0.14380434
147	0x00000000	0.0
148	0x00000000	0.0
149	0x00000000	0.0
150	0x00000000	0.0
151	0x00000000	0.0
152	0x00000000	0.0
153	0x00000000	0.0
154	0x00000000	0.0
155	0x00000000	0.0
156	0x388dabab	6.7553796e-05
157	0x3a6dc1a2	0.0009069686
158	0x3bae597a	0.005320725
159	0x3a165791	0.00057350943
160	0x3bfcefec	0.0077190306
161	0x3d4087fd	0.04700469
162	0x3986129e	0.00025572343
163	0x3b60c2cc	0.0034295795
164	0x3cca8da6	0.024725746
165	0x3a97b5e1	0.001157459
166	0x3c7f5f67	0.015586711
167	0x3dc40863	0.09571912
168	0x00000000	0.0
169	0x00000000	0.0
170	0x00000000	0.0
171	0x3ad25908	0.0016048262
172	0x3cb11732	0.021617506
173	0x3e095dc5	0.13414676
174	0x00000000	0.0
175	0x00000000	0.0
176	0x00000000	0.0
177	0x00000000	0.0
178	0x00000000	0.0
179	0x00000000	0.0
180	0x38c00218	9.1556634e-05
181	0x3aa0bda9	0.0012263554
182	0x3bf7e896	0.007565568
183	0x3b0f2e40	0.0021847636
184	0x3cf121dd	0.029435093
185	0x3e392c62	0.18083337
186	0x00000000	0.0
187	0x00000000	0.0
188	0x00000000	0.0
189	0x00000000	0.0
190	0x00000000	0.0
191	0x00000000	0.0

exp_avg f4 [64]
0	0xbbd445ed	-0.0064780624
1	0x3b377a8a	0.0027996623
2	0xbb102c6a	-0.002199913
3	0xbb2402bf	-0.002502605
4	0xbb3f0ed2	-0.002915312
5	0xbb344e72	-0.0027512577
6	0x00000000	0.0
7	0xbb03f063	-0.0020132295
8	0x00000000	0.0
9	0x00000000	0.0
10	0x3a25e310	0.00063280854
11	0xbbabb5c7	-0.0052401754
12	0xbb274aa5	-0.002552667
13	0x00000000	0.0
14	0x3af59b80	0.0018738359
15	0xbbbd7127	-0.005781311
16	0x00000000	0.0
17	0xbb6f8ceb	-0.00365525
18	0xbac5db30	-0.001509523
19	0x00000000	0.0
20	0x00000000	0.0
21	0x00000000	0.0
22	0x00000000	0.0
23	0x3b7c8d93	0.0038536533
24	0x00000000	0.0
25	0x3c37dfb8	0.011222772
26	0xbc5b566f	-0.013387307
27	0x00000000	0.0
28	0x3b7f0710	0.0038914122
29	0x3aa3e8ae	0.0012505257
30	0xbbbec336	-0.005821611
31	0x00000000	0.0
32	0x00000000	0.0
33	0x3c1167d0	0.0088748485
34	0x00000000	0.0
35	0x00000000	0.0
36	0xba859933	-0.0010192752
37	0x00000000	0.0
38	0x00000000	0.0
39	0x00000000	0.0
40	0x00000000	0.0
41	0x00000000	0.0
42	0xbb275e82	-0.0025538509
43	0x3b347eea	0.0027541467
44	0x00000004	6e-45
45	0x00000000	0.0
46	0xbc0d439c	-0.008622076
47	0x00000000	0.0
48	0xbaeaae3a	-0.0017904707
49	0x00000000	0.0
50	0x00000000	0.0
51	0x00000000	0.0
52	0xbb5f40fb	-0.003406583
53	0xbb935ab8	-0.0044968985
54	0x3b011dd8	0.0019701626
55	0xb9c5b12c	-0.0003770677
56	0x00000000	0.0
57	0x3a26e0ca	0.00063658936
58	0x00000000	0.0
59	0x00000000	0.0
60	0x396789fa	0.00022081277
61	0xbc1338af	-0.008985682
62	0x00000000	0.0
63	0x00000000	0.0

exp_avg_sq f4 [64]
0	0x3b07f75d	0.0020746805
1	0x3b47abd7	0.0030467415
2	0x3c180484	0.00927842
3	0x3a967dcd	0.0011481583
4	0x3caf4f9b	0.021400264
5	0x3c090158	0.008362137
6	0x00000000	0.0
7	0x3acd72b2	0.0015674441
8	0x00000000	0.0
9	0x00000000	0.0
10	0x3c502784	0.012704734
11	0x3bc45a68	0.0059922226
12	0x3c091e73	0.008369076
13	0x00000000	0.0
14	0x3a39d604	0.0007089081
15	0x3c112668	0.008859254
16	0x00000000	0.0
17	0x3b96b13d	0.004598765
18	0x3b15db5b	0.0022866342
19	0x00000000	0.0
20	0x00000000	0.0
21	0x00000000	0.0
22	0x00000000	0.0
23	0x3ae7bcc8	0.0017680163
24	0x00000000	0.0
25	0x3b2bdee3	0.002622538
26	0x3c12f65c	0.008969869
27	0x00000000	0.0
28	0x3ad3f984	0.0016172384
29	0x3b73912e	0.0037165391
30	0x3a798ce7	0.0009519592
31	0x00000000	0.0
32	0x00000000	0.0
33	0x3c5a6b52	0.013331251
34	0x00000000	0.0
35	0x00000000	0.0
36	0x3b5dfeb7	0.0033873746
37	0x00000000	0.0
38	0x00000000	0.0
39	0x00000000	0.0
40	0x00000000	0.0
41	0x00000000	0.0
42	0x3a887a41	0.0010412411
43	0x3ad50af0	0.001625387
44	0x253fd374	1.6638252e-16
45	0x00000000	0.0
46	0x3cedcf2d	0.029029453
47	0x00000000	0.0
48	0x3c3768e6	0.011194443
49	0x00000000	0.0
50	0x00000000	0.0
51	0x00000000	0.0
52	0x39e52bc9	0.00043710906
53	0x3b740b65	0.0037238237
54	0x3ad9e5a6	0.0016624227
55	0x3bf6499a	0.007516098
56	0x00000000	0.0
57	0x3c2add0a	0.010428676
58	0x00000000	0.0
59	0x00000000	0.0
60	0x3a1aa121	0.0005898644
61	0x3c68a4a1	0.014199407
62	0x00000000	0.0
63	0x00000000	0.0

exp_avg f4 [15, 64]
0	0xb69d3503	-4.685136e-06
1	0xb61e12bc	-2.355474e-06
2	0xb6d1a2bc	-6.24763e-06
3	0xb6711ddc	-3.592918e-06
4	0xb62a19c9	-2.5346983e-06
5	0xb686a123	-4.01227e-06
6	0x00000000	0.0
7	0xb604203c	-1.9688296e-06
8	0x00000000	0.0
9	0x00000000	0.0
10	0xb69bf47a	-4.647821e-06
11	0xb67900f9	-3.7104458e-06
12	0xb65486c9	-3.1668917e-06
13	0x00000000	0.0
14	0xb6a34028	-4.8652473e-06
15	0xb4a4ed78	-3.0720162e-07
16	0x00000000	0.0
17	0xb61221f7	-2.1775465e-06
18	0xb6bb660d	-5.5849146e-06
19	0x00000000	0.0
20	0x00000000	0.0
21	0x00000000	0.0
22	0x00000000	0.0
23	0xb6b3e2cd	-5.361019e-06
24	0x00000000	0.0
25	0x35aae96e	1.2733924e-06
26	0xb68327d2	-3.90874e-06
27	0x00000000	0.0
28	0x348c2675	2.6105013e-07
29	0xb59e2e32	-1.1785362e-06
30	0xb5f9be84	-1.8607393e-06
31	0x00000000	0.0
32	0x00000000	0.0
33	0xb4d05699	-3.8806027e-07
34	0x00000000	0.0
35	0x00000000	0.0
36	0x318dca47	4.1266364e-09
37	0x00000000	0.0
38	0x00000000	0.0
39	0x00000000	0.0
40	0x00000000	0.0
41	0x00000000	0.0
42	0xb5c6a553	-1.4800265e-06
43	0xb6a22521	-4.8322986e-06
44	0x00000004	6e-45
45	0x00000000	0.0
46	0x353134ff	6.601476e-07
47	0x00000000	0.0
48	0xb62b45f9	-2.5521715e-06
49	0x00000000	0.0
50	0x00000000	0.0
51	0x00000000	0.0
52	0xb5ec79f0	-1.7618859e-06
53	0xb62199b3	-2.4080334e-06
54	0x350f6f25	5.343339e-07
55	0xb6675646	-3.44719e-06
56	0x00000000	0.0
57	0xb6829245	-3.89133e-06
58	0x00000000	0.0
59	0x00000000	0.0
60	0xb61c4586	-2.328628e-06
61	0xb6281e1e	-2.5051481e-06
62	0x00000000	0.0
63	0x00000000	0.0
64	0xb843c054	-4.6670742e-05
65	0xb7fdc362	-3.0250932e-05
66	0xb8c54ead	-9.4083465e-05
67	0xb839737f	-4.4215e-05
68	0xb8504ab9	-4.9660655e-05
69	0xb8552a8a	-5.0822775e-05
70	0x00000000	0.0
71	0xb8237405	-3.897028e-05
72	0x00000000	0.0
73	0x00000000	0.0
74	0xb8a45697	-7.836258e-05
75	0xb87d10c3	-6.033551e-05
76	0xb82ae3c7	-4.0743293e-05
77	0x00000000	0.0
78	0xb8bb1d69	-8.922333e-05
79	0xb78fddaa	-1.7150149e-05
80	0x00000000	0.0
81	0xb82f410c	-4.178383e-05
82	0xb8921dd1	-6.967376e-05
83	0x00000000	0.0
84	0x00000000	0.0
85	0x00000000	0.0
86	0x00000000	0.0
87	0xb8590b94	-5.1747615e-05
88	0x00000000	0.0
89	0x36ec94fc	7.050692e-06
90	0xb8032d74	-3.1275165e-05
91	0x00000000	0.0
92	0xb7f369e8	-2.9017174e-05
93	0xb681f2f5	-3.8727835e-06
94	0xb844ded8	-4.693758e-05
95	0x00000000	0.0
96	0x00000000	0.0
97	0x36e4c069	6.817329e-06
98	0x00000000	0.0
99	0x00000000	0.0
100	0xb8054ca4	-3.1781048e-05
101	0x00000000	0.0
102	0x00000000	0.0
103	0x00000000	0.0
104	0x00000000	0.0
105	0x00000000	0.0
106	0xb8047b3c	-3.1586023e-05
107	0xb8628715	-5.4008404e-05
108	0x80000004	-6e-45
109	0x00000000	0.0
110	0xb7a587da	-1.9732794e-05
111	0x00000000	0.0
112	0xb8106959	-3.4430388e-05
113	0x00000000	0.0
114	0x00000000	0.0
115	0x00000000	0.0
116	0xb81b321d	-3.700155e-05
117	0xb824bacb	-3.927461e-05
118	0xb5999cb5	-1.1444996e-06
119	0xb8817036	-6.1721e-05
120	0x00000000	0.0
121	0xb8008754	-3.0643612e-05
122	0x00000000	0.0
123	0x00000000	0.0
124	0xb80e4d7b	-3.3927598e-05
125	0xb8428788	-4.6379428e-05
126	0x00000000	0.0
127	0x00000000	0.0
128	0x3992ec8a	0.00028023525
129	0x3987880d	0.00025850572
130	0x3a66d6a3	0.0008805787
131	0x39c3a81f	0.00037318558
132	0x39dc580a	0.00042027264
133	0x39d02d2a	0.000397065
134	0x00000000	0.0
135	0x39ddb837	0.00042289656
136	0x00000000	0.0
137	0x00000000	0.0
138	0x3a41a0b7	0.0007386314
139	0x3a1795c1	0.0005782508
140	0x3996aeb3	0.0002874039
141	0x00000000	0.0
142	0x3a38c162	0.0007047859
143	0x39059de5	0.00012742689
144	0x00000000	0.0
145	0x3a04572c	0.000504839
146	0x3a17a6c9	0.0005785046
147	0x00000000	0.0
148	0x00000000	0.0
149	0x00000000	0.0
150	0x00000000	0.0
151	0x3a00eba0	0.00049179234
152	0x00000000	0.0
153	0x38f0750a	0.00011465892
154	0x390cf02d	0.00013440913
155	0x00000000	0.0
156	0x398b42ae	0.00026561826
157	0x392b5401	0.00016339125
158	0x39e1f357	0.00043096647
159	0x00000000	0.0
160	0x00000000	0.0
161	0x38cb12c5	9.6832904e-05
162	0x00000000	0.0
163	0x00000000	0.0
164	0x39e5c96c	0.00043828355
165	0x00000000	0.0
166	0x00000000	0.0
167	0x00000000	0.0
168	0x00000000	0.0
169	0x00000000	0.0
170	0x39d9e674	0.00041561166
171	0x39fa0b14	0.0004769197
172	0x80000004	-6e-45
173	0x00000000	0.0
174	0x3938492c	0.00017574866
175	0x00000000	0.0
176	0x39bc6fed	0.00035941546
177	0x00000000	0.0
178	0x00000000	0.0
179	0x00000000	0.0
180	0x398c1c5d	0.00026724013
181	0x39a198ca	0.0003082215
182	0x37faeb0f	2.991178e-05
183	0x3a25f9df	0.0006331484
184	0x00000000	0.0
185	0x3961cd29	0.000215341
186	0x00000000	0.0
187	0x00000000	0.0
188	0x3998a416	0.00029113953
189	0x39dc7334	0.00042047503
190	0x00000000	0.0
191	0x00000000	0.0
192	0xb9724cf4	-0.00023107586
193	0xb970ddc1	-0.00022970793
194	0xba4347dd	-0.0007449368
195	0xb9a05086	-0.00030577573
196	0xb9bab05b	-0.0003560808
197	0xb9ab2fdb	-0.00032651317
198	0x00000000	0.0
199	0xb9c03fad	-0.00036668536
200	0x00000000	0.0
201	0x00000000	0.0
202	0xba298684	-0.0006466883
203	0xba02bfb4	-0.00049876724
204	0xb976a405	-0.0002352149
205	0x00000000	0.0
206	0xba194c22	-0.00058478315
207	0xb8c4ac56	-9.3781084e-05
208	0x00000000	0.0
209	0xb9e8909a	-0.00044358225
210	0xba014d79	-0.0004932504
211	0x00000000	0.0
212	0x00000000	0.0
213	0x00000000	0.0
214	0x00000000	0.0
215	0xb9dbc266	-0.00041915773
216	0x00000000	0.0
217	0xb8e34d56	-0.000108386084
218	0xb8dd7092	-0.00010559069
219	0x00000000	0.0
220	0xb96d97cf	-0.00022658634
221	0xb91ec96b	-0.00015143088
222	0xb9c06455	-0.00036695847
223	0x00000000	0.0
224	0x00000000	0.0
225	0xb8cfbd8a	-9.9058336e-05
226	0x00000000	0.0
227	0x00000000	0.0
228	0xb9c54e38	-0.00037633046
229	0x00000000	0.0
230	0x00000000	0.0
231	0x00000000	0.0
232	0x00000000	0.0
233	0x00000000	0.0
234	0xb9c0d9e7	-0.00036783444
235	0xb9d25d23	-0.00040123714
236	0x80000004	-6e-45
237	0x00000000	0.0
238	0xb917ac61	-0.00014464698
239	0x00000000	0.0
240	0xb9a17066	-0.00030792056
241	0x00000000	0.0
242	0x00000000	0.0
243	0x00000000	0.0
244	0xb969674f	-0.00022259097
245	0xb981676a	-0.00024681847
246	0xb8290717	-4.0299343e-05
247	0xba0fd0b4	-0.0005486116
248	0x00000000	0.0
249	0xb93e85fd	-0.00018169727
250	0x00000000	0.0
251	0x00000000	0.0
252	0xb97e96bf	-0.00024279485
253	0xb9b5efd0	-0.00034701684
254	0x00000000	0.0
255	0x00000000	0.0

exp_avg_sq f4 [15, 64]
0	0x31f18b4a	7.0298585e-09
1	0x31bc99b4	5.488994e-09
2	0x33a0af40	7.4824584e-08
3	0x327e8a6d	1.481622e-08
4	0x3272946c	1.4120001e-08
5	0x3283be97	1.5337077e-08
6	0x00000000	0.0
7	0x328ec1d5	1.661912e-08
8	0x00000000	0.0
9	0x00000000	0.0
10	0x3344ccc7	4.582105e-08
11	0x3301b16f	3.0196528e-08
12	0x31fc0906	7.335191e-09
13	0x00000000	0.0
14	0x332cfa8d	4.0274745e-08
15	0x30b78b1a	1.3354537e-09
16	0x00000000	0.0
17	0x32d4911d	2.4746038e-08
18	0x33054f96	3.103886e-08
19	0x00000000	0.0
20	0x00000000	0.0
21	0x00000000	0.0
22	0x00000000	0.0
23	0x32eff574	2.7934881e-08
24	0x00000000	0.0
25	0x311074a8	2.102107e-09
26	0x30f2e77f	1.7673613e-09
27	0x00000000	0.0
28	0x318b9e42	4.0634243e-09
29	0x31987f3d	4.4382475e-09
30	0x327ed585	1.4833295e-08
31	0x00000000	0.0
32	0x00000000	0.0
33	0x3119e9b0	2.2397266e-09
34	0x00000000	0.0
35	0x00000000	0.0
36	0x329ad53f	1.8024933e-08
37	0x00000000	0.0
38	0x00000000	0.0
39	0x00000000	0.0
40	0x00000000	0.0
41	0x00000000	0.0
42	0x3291a0e3	1.6953384e-08
43	0x32d084b9	2.4274742e-08
44	0x1cc9d32c	1.3355651e-21
45	0x00000000	0.0
46	0x30e115d5	1.637711e-09
47	0x00000000	0.0
48	0x32682823	1.3513303e-08
49	0x00000000	0.0
50	0x00000000	0.0
51	0x00000000	0.0
52	0x31a818f3	4.89228e-09
53	0x321905b1	8.907066e-09
54	0x2f750e37	2.228767e-10
55	0x331d4249	3.6614697e-08
56	0x00000000	0.0
57	0x31b86e48	5.3676423e-09
58	0x00000000	0.0
59	0x00000000	0.0
60	0x320b7b1c	8.118857e-09
61	0x328f32fe	1.667058e-08
62	0x00000000	0.0
63	0x00000000	0.0
64	0x3385d8c7	6.232727e-08
65	0x334c2617	4.7532094e-08
66	0x352d2283	6.4497743e-07
67	0x3409db47	1.2838892e-07
68	0x3402b7cb	1.2174057e-07
69	0x340eb025	1.3288862e-07
70	0x00000000	0.0
71	0x3419b56a	1.4315233e-07
72	0x00000000	0.0
73	0x00000000	0.0
74	0x34d3c864	3.9447616e-07
75	0x348b8be6	2.5992557e-07
76	0x338903d1	6.380254e-08
77	0x00000000	0.0
78	0x34ba6146	3.4715976e-07
79	0x32464f95	1.1543212e-08
80	0x00000000	0.0
81	0x3464e46a	2.1317251e-07
82	0x34901f6f	2.684496e-07
83	0x00000000	0.0
84	0x00000000	0.0
85	0x00000000	0.0
86	0x00000000	0.0
87	0x3482469e	2.4265768e-07
88	0x00000000	0.0
89	0x32a2fb20	1.897348e-08
90	0x329154df	1.6918817e-08
91	0x00000000	0.0
92	0x3317c6e2	3.533831e-08
93	0x33265652	3.8728395e-08
94	0x3408fe42	1.2758485e-07
95	0x00000000	0.0
96	0x00000000	0.0
97	0x32ab15e1	1.991697e-08
98	0x00000000	0.0
99	0x00000000	0.0
100	0x3427494d	1.5579754e-07
101	0x00000000	0.0
102	0x00000000	0.0
103	0x00000000	0.0
104	0x00000000	0.0
105	0x00000000	0.0
106	0x341cffcf	1.4621695e-07
107	0x3461f255	2.1042918e-07
108	0x2300acaa	6.975457e-18
109	0x00000000	0.0
110	0x32772606	1.4385938e-08
111	0x00000000	0.0
112	0x33faf867	1.1686716e-07
113	0x00000000	0.0
114	0x00000000	0.0
115	0x00000000	0.0
116	0x33369151	4.250734e-08
117	0x33a54002	7.695054e-08
118	0x3127c354	2.441273e-09
119	0x34a92e81	3.151254e-07
120	0x00000000	0.0
121	0x334b88d4	4.7389065e-08
122	0x00000000	0.0
123	0x00000000	0.0
124	0x3396e56c	7.026651e-08
125	0x341a4896	1.4368774e-07
126	0x00000000	0.0
127	0x00000000	0.0
128	0x3546481f	7.38657e-07
129	0x35132a14	5.4823e-07
130	0x36fc9223	7.527198e-06
131	0x35cafd6a	1.5123926e-06
132	0x35bcad07	1.4057449e-06
133	0x35d17c1c	1.5607834e-06
134	0x00000000	0.0
135	0x35def0e3	1.6610396e-06
136	0x00000000	0.0
137	0x00000000	0.0
138	0x3698fd60	4.5594497e-06
139	0x364a9525	3.018716e-06
140	0x35489324	7.4719924e-07
141	0x00000000	0.0
142	0x368727ae	4.027933e-06
143	0x34115bc9	1.3537569e-07
144	0x00000000	0.0
145	0x36262ceb	2.4762073e-06
146	0x36522ba2	3.1317836e-06
147	0x00000000	0.0
148	0x00000000	0.0
149	0x00000000	0.0
150	0x00000000	0.0
151	0x363f8f25	2.854454e-06
152	0x00000000	0.0
153	0x34725a20	2.2570794e-07
154	0x34615dff	2.0988954e-07
155	0x00000000	0.0
156	0x34d81172	4.0245828e-07
157	0x34f49e86	4.5563883e-07
158	0x35c5d437	1.4739406e-06
159	0x00000000	0.0
160	0x00000000	0.0
161	0x347ac1d6	2.3353581e-07
162	0x00000000	0.0
163	0x00000000	0.0
164	0x35f35bc4	1.8131618e-06
165	0x00000000	0.0
166	0x00000000	0.0
167	0x00000000	0.0
168	0x00000000	0.0
169	0x00000000	0.0
170	0x35e3c673	1.6970574e-06
171	0x3625d567	2.4711132e-06
172	0x1fdcfb67	9.3589534e-20
173	0x00000000	0.0
174	0x343022dd	1.640396e-07
175	0x00000000	0.0
176	0x35b6eead	1.362952e-06
177	0x00000000	0.0
178	0x00000000	0.0
179	0x00000000	0.0
180	0x35027076	4.8592426e-07
181	0x35726aba	9.030733e-07
182	0x32f729b5	2.877355e-08
183	0x36757591	3.6576278e-06
184	0x00000000	0.0
185	0x3517eff8	5.6601084e-07
186	0x00000000	0.0
187	0x00000000	0.0
188	0x355bef38	8.1931967e-07
189	0x35e1318a	1.6778224e-06
190	0x00000000	0.0
191	0x00000000	0.0
192	0x351fbae9	5.9504106e-07
193	0x34eeb8e8	4.4465492e-07
194	0x36cc8c28	6.09599e-06
195	0x35a45364	1.2243222e-06
196	0x3598c628	1.1382554e-06
197	0x35a9726b	1.2624781e-06
198	0x00000000	0.0
199	0x35b4b0bc	1.3462482e-06
200	0x00000000	0.0
201	0x00000000	0.0
202	0x3677fe5a	3.695392e-06
203	0x36241a47	2.44532e-06
204	0x35221461	6.037936e-07
205	0x00000000	0.0
206	0x365ac248	3.2597618e-06
207	0x33ed5c6a	1.10529825e-07
208	0x00000000	0.0
209	0x3606b4b4	2.007274e-06
210	0x362a0a70	2.533805e-06
211	0x00000000	0.0
212	0x00000000	0.0
213	0x00000000	0.0
214	0x00000000	0.0
215	0x361aeefa	2.308689e-06
216	0x00000000	0.0
217	0x34445bb9	1.8287291e-07
218	0x3433e8f0	1.6755416e-07
219	0x00000000	0.0
220	0x34aeb2f8	3.2540243e-07
221	0x34c5cf8a	3.6845114e-07
222	0x35a04300	1.1940429e-06
223	0x00000000	0.0
224	0x00000000	0.0
225	0x344a3c68	1.8834692e-07
226	0x00000000	0.0
227	0x00000000	0.0
228	0x35c57205	1.4710828e-06
229	0x00000000	0.0
230	0x00000000	0.0
231	0x00000000	0.0
232	0x00000000	0.0
233	0x00000000	0.0
234	0x35b8accb	1.3759358e-06
235	0x36062a92	1.9992335e-06
236	0x21ed0f4a	1.6063792e-18
237	0x00000000	0.0
238	0x340e0755	1.3227448e-07
239	0x00000000	0.0
240	0x35942d01	1.1039957e-06
241	0x00000000	0.0
242	0x00000000	0.0
243	0x00000000	0.0
244	0x34d2f66d	3.9294846e-07
245	0x354468e8	7.316835e-07
246	0x32c4fd54	2.2932603e-08
247	0x3646e5ed	2.9638134e-06
248	0x00000000	0.0
249	0x34f4de90	4.5610477e-07
250	0x00000000	0.0
251	0x00000000	0.0
252	0x35320ff9	6.633341e-07
253	0x35b68156	1.3597698e-06
254	0x00000000	0.0
255	0x00000000	0.0

exp_avg f4 [15]
0	0xb69da6f5	-4.698401e-06
1	0xb806fbe1	-3.218267e-05
2	0x39a39602	0.00031201547
3	0xb992b02c	-0.00027978548
4	0x3694ca26	4.434277e-06
5	0x378e37fb	1.6953787e-05
6	0x3c9b1894	0.018932618
7	0xbcfac716	-0.03061251
8	0x3b5ee10a	0.0034008645
9	0xbc1f1149	-0.009708711
10	0xbb92dd38	-0.0044819377
11	0x3cb3520f	0.021889715
12	0xbc806972	-0.01567528
13	0x3b618e37	0.0034417042
14	0xbbff6a7e	-0.0077946773

exp_avg_sq f4 [15]
0	0x324f8696	1.2079587e-08
1	0x33e2c606	1.0559965e-07
2	0x35a719db	1.2449995e-06
3	0x3586fc23	1.005716e-06
4	0x310bd6ef	2.0349338e-09
5	0x335e4984	5.1755265e-08
6	0x3f46abe3	0.7760603
7	0x3ca175f6	0.019709568
8	0x3c4cbfed	0.012496931
9	0x3c62441b	0.013810183
10	0x3c0e5391	0.008686916
11	0x3cf3ce27	0.029761387
12	0x3cf71d49	0.030165331
13	0x3c383222	0.011242421
14	0x3d4c967e	0.049948208
