Op_problems/problem_ED_Column/checkpoints/pinn_checkpoint_epoch_400_loss_0.058478.pth (torch, 21427 bytes, 12 tensors)

nn.0.weight f4 [64, 3]
000000 bb 39 b9 be 62 37 d9 3d 0a 82 99 be ee 10 ab 3e
       -0.36176857 0.106062666 -0.29982024 0.33411354
000010 62 e6 cb be c8 9f f1 be 9b 74 e4 bd 04 98 db 3e
       -0.39824206 -0.47192216 -0.11155053 0.42889416
000020 46 98 e0 be 9a 6a 3c be 20 32 35 bd 59 46 81 be
       -0.43866175 -0.1840004 -0.044237256 -0.25248984
000030 ac 69 81 3e 37 62 01 3f 70 d0 94 3e ca 5c f9 bd
       0.25275934 0.5054049 0.29065275 -0.12175901
000040 e8 15 e8 be c1 10 f4 be e6 91 0d be d0 3e 3a be
       -0.45329213 -0.47669032 -0.13825187 -0.18188024
000050 52 2e e0 be 5e 27 31 3e cc da 62 be 61 d9 1f 3e
       -0.4378534 0.17300174 -0.22153777 0.15610267
000060 fa f8 9c be 6c 15 55 bd 1e ec 31 be d9 92 b5 3e
       -0.30658704 -0.052022383 -0.17375228 0.35463598
000070 40 e4 06 bf 11 22 69 be 6f 81 fc 3d f8 8f 26 be
       -0.5269203 -0.22766902 0.12329375 -0.16265857
000080 5b e3 21 bc 68 13 73 3e 73 fe 77 3d e9 07 08 3e
       -0.009880866 0.23737872 0.060545396 0.13284267
000090 02 b8 2c 3e f2 09 9f be 07 1c 6c be 8a fc 86 3e
       0.16867068 -0.31062275 -0.23057567 0.26364547
0000a0 36 37 d6 3d f4 34 b5 3e ac db 97 bd ac dc 10 3f
       0.104597494 0.35391963 -0.07414946 0.5658672
0000b0 98 cb a4 3e 45 9f 25 be 87 11 97 be f5 c6 ee 3d
       0.3218658 -0.16174038 -0.2950556 0.11659042
0000c0 bc 99 f6 be 33 60 87 be b8 1d 35 3e de 42 4e 3d
       -0.48164165 -0.26440582 0.17687118 0.05035674
0000d0 ee c6 85 3e a8 4a 77 be d4 c3 f8 3e 7a 8d a2 be
       0.26128334 -0.24149573 0.48586905 -0.31748563
0000e0 9a 77 97 be 3c db c4 3e 8b fd 3d be e0 0f 50 3e
       -0.29583436 0.38448513 -0.1855375 0.20318556
0000f0 e3 0c d2 bd 60 0f d1 be ea 31 bd bc 3c 3b 7c 3e
       -0.10256364 -0.40832043 -0.02309509 0.24631971
000100 dc b3 d7 3e e1 48 dc 3e e1 67 f8 3b 2b 62 dd 3e
       0.4212941 0.43024352 0.0075807427 0.4323896
000110 10 0c 2f 3e 4c 93 17 3e 45 28 d3 3d 7f f8 75 bd
       0.17094445 0.14802283 0.10310415 -0.060051437
000120 1e 56 e1 3d d5 2c 06 bd f5 4d b3 3e 47 9b 15 be
       0.11002754 -0.0327576 0.35020414 -0.14610015
000130 78 83 a9 be c1 e9 6c 3e 45 8a 92 be f4 0e b6 3e
       -0.33108115 0.23136045 -0.28621116 0.35558283
000140 50 eb fe 3e 1e d1 bd 3d ce 31 ed bd 5c 93 d5 bc
       0.49788904 0.092684016 -0.11581765 -0.026071243
000150 0d 71 8a 3e 02 d1 e1 be 3c 40 1e be 96 19 b4 be
       0.27039376 -0.44104773 -0.15454191 -0.3517577
000160 b7 af 05 bf 45 81 d3 be a9 f4 d6 be a2 58 d1 3e
       -0.52221245 -0.41309562 -0.41983536 0.40887934
000170 b0 d1 bf 3e 71 f8 08 bf bc df ff be 36 17 01 3f
       0.37464666 -0.5350409 -0.49975383 0.5042604
000180 20 e4 54 3e 8d bb b2 3e 8d aa 17 3e 72 79 a2 be
       0.20790148 0.34908715 0.14811154 -0.3173328
000190 11 57 a1 be 99 2e c1 3e b2 95 3b bf 80 19 fc be
       -0.3151174 0.37730864 -0.7327529 -0.49238205
0001a0 01 e9 34 3e a3 5d 98 bd 5b 5c 12 3e 09 36 95 3e
       0.17667009 -0.07439735 0.14293043 0.29142788
0001b0 ac df a9 be fa 65 a6 be 51 d0 b5 be e4 5e fb be
       -0.3317846 -0.32499677 -0.35510495 -0.49095833
0001c0 86 33 11 bd 6c cb ed 3e 4e 8a 10 bd 01 1e a2 3e
       -0.035449527 0.4644426 -0.035288148 0.31663516
0001d0 58 02 93 be 95 a2 6a 3d ae f7 dd be 4d 51 1c bd
       -0.28712726 0.057283957 -0.43353027 -0.038163472
0001e0 37 4c 0b 3e 28 98 6f be df a2 01 3f 63 14 6f 3e
       0.13603292 -0.23397887 0.50639147 0.2334762
0001f0 ab 1b a8 3e 5c 4f 11 3f e7 87 b8 3e cc 24 3a 3b
       0.3283361 0.5676172 0.36041185 0.002840328
000200 21 32 a2 3e 42 a6 11 3f 53 4b 0e bf eb ed de bd
       0.3167887 0.56894314 -0.55583686 -0.10885223
000210 d2 8b 8f 3e 28 4b 0f be 09 7f f0 be ef 99 ab be
       0.28036362 -0.13993514 -0.4697192 -0.3351588
000220 06 a4 99 be 0a 1b 75 3e ca 32 bc 3e 2c 8f 86 bd
       -0.30007952 0.23936096 0.367575 -0.065702766
000230 9c e0 f1 be a0 00 a8 3d 7a 49 25 3e d2 01 5f be
       -0.47241676 0.08203244 0.1614131 -0.21778038
000240 4c 28 c8 3e f8 14 76 be f7 ed 1a 3e 41 5c e3 3e
       0.39093244 -0.24031436 0.15129839 0.44406322
000250 5b a6 af 3e 39 65 c2 bd 6e f6 0d 3f 16 f3 4f bd
       0.34306607 -0.09491963 0.55454147 -0.050768934
000260 e3 d4 03 bf 8a ac d8 3e 23 60 0b 3f 6f 4a 91 3e
       -0.51496714 0.42319137 0.5444357 0.283771
000270 77 04 33 3f 6d 26 cb 3e 9b b8 8f 3e a2 27 ab 3e
       0.6992869 0.39677754 0.2807053 0.33428675
000280 f9 13 e3 be b8 bc e1 bb a7 8f 7c be 2c a2 22 3e
       -0.44351175 -0.006888952 -0.24664174 0.15882176
000290 bd b4 02 bf df cd 0b 3d 8c 4b 67 3e 3d af 5b be
       -0.51057035 0.03413188 0.22587413 -0.21453567
0002a0 3a 30 92 be 3f b5 c7 be 2d c3 42 3e 34 21 f8 be
       -0.2855242 -0.39005467 0.19019766 -0.48462832
0002b0 14 b3 f2 bd 29 89 03 3d 8f ad 28 3e 3f c6 fd be
       -0.11850563 0.032113228 0.16472457 -0.49565312
0002c0 62 99 ee 3d 64 f1 67 be 10 a9 89 bd 67 b4 d7 be
       0.11650349 -0.22650677 -0.06721699 -0.42129824
0002d0 e5 ca 10 bf 0d 65 22 3e 06 6e f6 3c 7d ca 18 3f
       -0.5655959 0.1585886 0.03008176 0.5968397
0002e0 88 f5 05 3f 05 fd de 3e c4 15 b2 3e 47 6a da 3e
       0.52327776 0.43552414 0.3478223 0.42659208
0002f0 88 12 6f 3e 20 24 04 bf 77 57 dd 3e 8e 27 bc 3d
       0.23346913 -0.5161762 0.43230793 0.09187232

nn.0.bias f4 [64]
000000 3f 6f 13 be 96 d2 2f be 04 ca eb 3e 63 47 ce 3e
       -0.14397906 -0.17170176 0.46052563 0.4028884
000010 20 69 64 3c bc 00 5d be aa ed 9e be c2 80 d2 3e
       0.013941079 -0.21582311 -0.31040698 0.4111386
000020 41 44 b3 be 87 f8 c3 be 10 65 b1 be 7b ea 4b 3e
       -0.3501301 -0.3827555 -0.34647417 0.19913666
000030 d1 99 e2 3e 86 51 2a 3e 53 ff 82 3e 5f be ee be
       0.44257978 0.16632661 0.25585422 -0.46629617
000040 01 c7 d6 be bc 21 ad be 04 28 bd be 13 3a b8 be
       -0.41948703 -0.338148 -0.36944592 -0.35981807
000050 76 36 b3 be 69 2a 71 be bb 15 ce be 1e d6 a8 3e
       -0.35002488 -0.23551334 -0.40250954 0.32975858
000060 ed 31 86 bd a4 44 9f ba f1 86 43 3e 76 12 05 bf
       -0.06552491 -0.0012151194 0.19094445 -0.51981294
000070 42 75 67 be 42 a7 a0 bc 94 85 ff be 40 74 5b 3e
       -0.22603324 -0.019611005 -0.499066 0.21431065
000080 be b7 01 bf 8f 43 db 3e 51 f9 2b 3f 14 30 15 3e
       -0.50670993 0.4282498 0.671773 0.14569122
000090 a1 e0 8f be 29 21 ef 3e ca ca c1 be d7 ee df 3c
       -0.28101066 0.46704987 -0.37850028 0.027335567
0000a0 4c 02 d9 3e 3d f4 fa 3e f0 3b de bb b3 7b 33 bd
       0.42384565 0.49014464 -0.0067820475 -0.04381914
0000b0 d2 35 4d bd 12 4c 0f bf df 1c d2 3d 67 a1 ea be
       -0.050100155 -0.5597545 0.10259413 -0.45826265
0000c0 1b d8 92 3d 94 e9 84 bd 59 f8 bb 3e 0a ce a1 be
       0.07170125 -0.06489864 0.36712912 -0.31602508
0000d0 74 1b eb 3e df e0 0c be 8b b0 e4 bd 53 8d 06 bf
       0.45919383 -0.13757657 -0.111664854 -0.52559394
0000e0 bd 96 e5 3e 93 8b 4c 3d 38 35 05 bf 6b fe 04 3d
       0.44841567 0.049937796 -0.5203433 0.032469194
0000f0 82 b9 45 3e a3 1a d4 bd c6 09 e1 3e cb 71 61 3e
       0.19309047 -0.10356643 0.4395277 0.22016065

nn.2.weight f4 [15, 64]
000000 48 41 83 bc 2a f0 ff 3d 82 8b b4 3d 50 35 7b bc
       -0.01602234 0.124969795 0.088156715 -0.015332535
000010 08 da 7a 3a 14 22 1d 3d 5c 69 32 bd 02 ac b8 3d
       0.00095692324 0.038362578 -0.04355751 0.09017183
000020 14 4c f6 bd 90 26 89 bd 50 b1 6a 3d 83 51 de bd
       -0.120262295 -0.06696808 0.057298005 -0.10855391
000030 18 a4 29 bd da f2 61 bd 1a 15 a9 3d a0 f1 cd 3b
       -0.041416258 -0.055163242 0.08255978 0.0062849075
000040 b4 d2 b5 bd 36 4b ce 3d 84 7c 69 bd 4d 83 f5 bc
       -0.08878079 0.10072939 -0.057003513 -0.029969836
000050 c8 c2 2c 3d 12 eb 94 bd f3 9e a1 ba c1 5a 7e 3d
       0.042177945 -0.072713986 -0.0012330696 0.06209827
000060 bb 4d 9a bc 90 d6 14 bd 40 d7 c2 3d 84 99 7b bd
       -0.018835893 -0.036337435 0.09513712 -0.0614257
000070 78 c4 ac bd 58 2b 5d 3d 01 fa 56 3d 11 db 90 3c
       -0.08435911 0.053996414 0.052484516 0.017682584
000080 2f ac e5 3b be 48 0f 3e 91 d7 2b 3c f7 a2 c7 bd
       0.0070090513 0.13992593 0.010488407 -0.0974788
000090 0c 26 fc bd 47 ca 49 3d e4 8d 47 3d 00 87 e7 3a
       -0.12311944 0.049265172 0.0487193 0.0017664135
0000a0 ef 36 bb bd b2 07 ac bd db 9e 9b bd dc ce a4 3d
       -0.09141337 -0.08399905 -0.07598659 0.08047268
0000b0 10 ac c8 3c 5c 95 8e bd ee 19 f2 bd b6 12 93 3d
       0.024496108 -0.06962082 -0.11821352 0.07181303
0000c0 dc bd 2f 3b fd 53 f8 3d bc bf d1 bd 95 2a bc bd
       0.0026816046 0.121253945 -0.102416486 -0.091878094
0000d0 34 d2 09 3d dc 94 ab 3d 4a 1a a9 3d 98 84 fe 3d
       0.03364773 0.08378002 0.08256967 0.12427634
0000e0 3f 75 d5 3d 48 b2 64 3d 7c 67 9d bd 0e 47 fc 3d
       0.104227535 0.055834085 -0.07685754 0.1231824
0000f0 28 f4 b5 bc da 17 b9 3d 8e c9 85 3d 82 a7 50 bd
       -0.02221115 0.090377524 0.06532584 -0.050940998
000100 20 f5 36 bc d0 87 2a bc 64 4d c1 3d a8 e4 c3 3d
       -0.011166841 -0.010408357 0.09438589 0.09565097
000110 9d aa ce 3d a8 7b 91 bd 1c d2 11 3d 64 ad ac 3d
       0.10091136 -0.07103664 0.035600767 0.08431509
000120 e2 a7 87 bd 98 2a cd 3d 10 66 e7 3c f3 82 0c 3e
       -0.06623818 0.1001789 0.02824691 0.13721828
000130 20 a0 2f 3d 27 cd ee 3d 75 c8 2c bd 30 75 53 3d
       0.042877316 0.116602235 -0.04218336 0.05162543
000140 18 00 de bd 80 c0 0b bc 8c 32 c8 3d 49 28 d2 bd
       -0.10839862 -0.008529782 0.09775266 -0.1026159
000150 74 b9 c2 bd 30 2e b2 3b c5 80 d3 3d 54 40 d6 3e
       -0.095080286 0.005437635 0.10327295 0.41845953
000160 1c c9 a8 bd 9b 58 8e be 6f d2 bc 3b 70 20 6f bd
       -0.082414836 -0.27801976 0.0057623903 -0.058380544
000170 80 d5 b2 3a 00 e0 2d 3d dd ad 7e 3d 13 de 25 be
       0.001364395 0.04244995 0.062177528 -0.16197996
000180 a8 67 70 3e 72 f5 d4 bc 69 53 e9 be a8 a0 0f 3e
       0.23477042 -0.025995944 -0.4557145 0.14026129
000190 80 6b ce 3c 2f 89 7b 3d 62 02 b5 3d 40 fd 11 bb
       0.025197744 0.061410125 0.08838345 -0.0022276193
0001a0 45 24 d1 3d 92 65 2f 3d 06 72 0a 3e 90 69 78 3c
       0.10211996 0.042821474 0.13520059 0.015161887
0001b0 b4 97 6b 3d de ea 80 3d 66 e1 8d bd 50 b7 df 3d
       0.057517722 0.06294797 -0.06927757 0.10923636
0001c0 08 85 e2 bc 4c 6e c1 3e d4 e1 bc bd c1 cf 2e 3d
       -0.027651325 0.37779462 -0.09222761 0.0426786
0001d0 ae a5 28 3e 24 90 a1 bd 20 de 8d 3c 54 cb e0 3d
       0.16469452 -0.07888821 0.017317832 0.10976282
0001e0 a9 94 88 be 80 f7 b4 ba e8 65 a6 3c 18 c9 a7 3d
       -0.2667592 -0.0013806671 0.020312265 0.081926525
0001f0 9c 66 89 bd 79 b1 48 bd 39 3f 5b bb f6 be da 3d
       -0.06709024 -0.048997376 -0.0033454432 0.10680954
000200 8c 85 bc bd 8a 24 db bd 80 b0 4e bb e0 56 06 3d
       -0.092051595 -0.10700329 -0.0031538308 0.032797694
000210 ee 84 c2 bd 38 dd 46 bd 6e 08 8c 3d 7c 75 f2 bd
       -0.094980106 -0.048550814 0.06837545 -0.118388146
000220 c2 92 d2 bd 48 be 1a bd 10 b1 cd 3d 89 ad b2 bd
       -0.10281898 -0.037779123 0.100435376 -0.087245055
000230 42 88 ad bd fc b2 e6 bd 01 05 90 bc c0 d3 b5 3d
       -0.08473255 -0.11264607 -0.017580511 0.08878279
000240 0c 71 40 3d 4c f3 2a bd 10 16 de bd 00 a9 c0 be
       0.04698281 -0.041735932 -0.10844052 -0.37628937
000250 78 3f d8 3c 10 4c b0 3d 56 d7 7a 3d 42 5b 9f bd
       0.026397452 0.08608258 0.061240517 -0.07781078
000260 74 1d 2c 3d 19 df 00 3d a2 3e 14 3d bc b6 6e 3d
       0.042020276 0.031462763 0.036192544 0.058279738
000270 d0 10 fc bc 74 29 15 3d 6d d5 34 3d 40 b0 a0 3d
       -0.030769736 0.036416486 0.04414885 0.07846117
000280 55 50 a8 bd 4c c8 d9 3d 4e 6b 31 3e d2 79 c1 3d
       -0.08218447 0.10633907 0.1732609 0.094470635
000290 5e 39 d3 bd ad d3 45 bd 5e 69 9d bd f0 bb 45 bc
       -0.10313676 -0.048297573 -0.07686113 -0.012068734
0002a0 1d aa df bc 95 dc 02 be 06 2a cf 3c 88 eb fb 3c
       -0.027302796 -0.12779458 0.025288593 0.030751958
0002b0 5c 21 fa 3d 84 b1 b6 bd 6a db cd bd 70 0f f6 3c
       0.12213394 -0.08920577 -0.100516155 0.030036658
0002c0 81 d6 0b bd 16 f1 bd bd b8 b1 4f 3d 69 8f 5c bc
       -0.034140114 -0.09274499 0.050706595 -0.013461926
0002d0 95 8f f7 3c d8 c4 4b bd dc 56 ff bd bc 1f d5 bd
       0.030219832 -0.04974827 -0.12467739 -0.104064435
0002e0 9f 96 ab bb a0 a9 e4 3c 32 34 e5 3d da 35 a5 3d
       -0.0052364613 0.027912915 0.11191596 0.08066912
0002f0 15 8a 17 3e a6 cf 27 3b 33 d9 ce 3d e0 b9 c4 3d
       0.14798768 0.0025605946 0.10100021 0.09605765
000300 48 c9 be bc 30 ae 8a bd 00 d4 14 bc 64 a4 c0 3d
       -0.023289338 -0.06771505 -0.009083748 0.09406355
000310 4e ab 1c bc 50 a4 9a bc 54 6b 78 3d 05 f9 bd 3d
       -0.009562327 -0.018877178 0.06064923 0.09276012
000320 24 89 6c bd a8 ef ac 3c 24 5a b9 3d af 8a f1 3d
       -0.057747975 0.02111037 0.09050396 0.1179403
000330 a0 f6 a4 bb 81 71 62 bd 92 06 be 3d 60 eb ba 3b
       -0.005034283 -0.055284027 0.09278597 0.0057043284
000340 14 61 61 bd 8c 3a e1 bd 80 eb 72 bd 5a 57 80 bd
       -0.05502422 -0.10997495 -0.05930662 -0.06266661
000350 d8 b0 d1 3c ba 01 c2 3d 8d 1a cd bd a3 d5 22 3f
       0.025597021 0.094729856 -0.1001483 0.63607234
000360 db 50 7b bc 4a 31 3d be 9c 41 eb bd ce 8c ab bd
       -0.015339102 -0.18475834 -0.11487123 -0.08376466
000370 c4 2c c0 3d c2 6c ac 3d 9b 33 71 3b 45 f9 1b bd
       0.09383538 0.084191814 0.003680444 -0.03807952
000380 2d 7f 72 bd 18 d2 56 3c d2 c9 10 3e 9b 52 b5 bd
       -0.059203316 0.013111614 0.14139488 -0.08853646
000390 0c 06 0b bd 44 ff ea bd b0 3f 4a 3c 96 4d c7 bd
       -0.033941314 -0.11474469 0.012344286 -0.09731595
0003a0 ae 64 15 bd 5f 9c 91 3d f3 9d 2e 3e de 5f d5 3d
       -0.03647297 0.071099035 0.1705244 0.10418676
0003b0 44 e3 af 3d 28 72 fd bc 00 55 77 bb a6 23 e6 bd
       0.08588269 -0.030938223 -0.0037739873 -0.11237268
0003c0 cb b6 77 3e 53 6c 77 3e 6c 4b d9 3d 88 ee e2 bd
       0.24190824 0.24162416 0.10610089 -0.110806525
0003d0 f6 db 72 3d 58 df a4 bd ce e9 c3 bd 32 32 98 bd
       0.059291802 -0.08050412 -0.09566079 -0.07431449
0003e0 ce d8 fe 3d 30 2f aa 3d a0 37 67 3d 00 5f 2f bd
       0.12443696 0.083097816 0.056449533 -0.04281521
0003f0 13 76 ae bd a4 b9 20 3e d5 5f 93 3d 9f db a7 bd
       -0.085186146 0.15695816 0.07196013 -0.08196186

nn.2.bias f4 [15]
000000 e1 5a fe 3b 62 33 12 3e f7 59 b6 3d eb 2d 1d 3e
       0.0077622985 0.14277413 0.08903878 0.15349548
000010 68 6b 82 3b 71 bb cd 3d 66 e5 06 3d ca 59 89 3d
       0.003980089 0.10045517 0.032933615 0.06706579
000020 ad c7 93 3d 4d 04 af 3b 41 90 ab 3c ba 00 2b bd
       0.072158195 0.005341089 0.020942809 -0.04174874
000030 1b de bf 3d 47 0f 55 3e 8d 5e 01 be
       0.09368535 0.20806609 -0.12633725

exp_avg f4 [64, 3]
000000 00 00 00 00 00 00 00 00 00 00 00 00 00 00 00 00
       0.0 0.0 0.0 0.0
000010 00 00 00 00 00 00 00 00 00 00 00 00 00 00 00 00
       0.0 0.0 0.0 0.0
000020 00 00 00 00 00 00 00 00 00 00 00 00 00 00 00 00
       0.0 0.0 0.0 0.0
000030 53 5d 0f 3b a7 7b 95 3b 96 d3 91 3c 00 00 00 00
       0.0021875694 0.0045618596 0.017801087 0.0
000040 00 00 00 00 00 00 00 00 00 00 00 00 00 00 00 00
       0.0 0.0 0.0 0.0
000050 00 00 00 00 23 f6 7e 3b 1d a1 4b 3c fa c9 18 3d
       0.0 0.0038904033 0.012428549 0.037301995
000060 00 00 00 00 00 00 00 00 00 00 00 00 00 00 00 00
       0.0 0.0 0.0 0.0
000070 00 00 00 00 00 00 00 00 00 00 00 00 00 00 00 00
       0.0 0.0 0.0 0.0
000080 00 00 00 00 41 79 83 39 39 3c 9b ba f6 dd 9f bb
       0.0 0.00025076608 -0.0011843509 -0.0048787547
000090 00 00 00 00 00 00 00 00 00 00 00 00 57 3e 0b ba
       0.0 0.0 0.0 -0.00053117186
0000a0 74 7f 7b bb 47 a1 2c bb 3f 3d 0a 3b b1 9c ae 3b
       -0.0038375529 -0.0026341246 0.0021093634 0.0053287377
0000b0 1b a8 ab 3c 00 00 00 00 00 00 00 00 00 00 00 00
       0.020954182 0.0 0.0 0.0
0000c0 00 00 00 00 00 00 00 00 00 00 00 00 00 00 00 00
       0.0 0.0 0.0 0.0
0000d0 00 00 00 00 00 00 00 00 00 00 00 00 00 00 00 00
       0.0 0.0 0.0 0.0
0000e0 00 00 00 00 dc 7e b5 bb d7 d2 ca bb ee 74 18 bd
       0.0 -0.0055388045 -0.006189685 -0.037220888
0000f0 00 00 00 00 00 00 00 00 00 00 00 00 0e 83 e8 ba
       0.0 0.0 0.0 -0.0017739253
000100 0e a6 a4 bb 1c ca 88 bc de 49 a9 ba 99 93 d6 ba
       -0.005024678 -0.016697936 -0.0012915691 -0.0016370892
000110 6a a5 62 bc 27 fe 33 3c 58 96 11 3d a2 c2 e0 3d
       -0.013833383 0.010985888 0.03554377 0.10974623
000120 1b f3 37 bb 2d 71 11 bc a8 98 e2 bc c5 fd b8 bb
       -0.0028068486 -0.008877081 -0.027660683 -0.005645486
000130 8b 07 a7 bc 0b 47 8b bd 3a 91 83 39 f0 92 84 3b
       -0.020389339 -0.0680066 0.0002509447 0.0040458366
000140 42 18 8f ba 00 00 00 00 00 00 00 00 00 00 00 00
       -0.0010917264 0.0 0.0 0.0
000150 00 00 00 00 00 00 00 00 00 00 00 00 00 00 00 00
       0.0 0.0 0.0 0.0
000160 00 00 00 00 00 00 00 00 28 53 07 bb be 57 04 bc
       0.0 0.0 -0.002064893 -0.00807756
000170 14 87 9d bc bc 43 d7 ba 7f 46 e0 bb a2 f8 a2 bc
       -0.01922945 -0.0016423385 -0.0068443413 -0.019893948
000180 57 4f 19 bc b5 a0 db bc 56 48 a1 bd 67 28 e4 3a
       -0.009357295 -0.02681003 -0.07875125 0.001740706
000190 c8 9b 9e 3b b8 35 4d 3c 75 5e a4 3b fe b9 01 3c
       0.004840348 0.012525015 0.005016143 0.007917879
0001a0 c3 94 09 3d 9f 22 b9 39 a0 6f 08 3b 88 ab e6 3b
       0.033589136 0.00035311744 0.0020818487 0.007039491
0001b0 00 00 00 00 00 00 00 00 00 00 00 00 d1 2e 80 3b
       0.0 0.0 0.0 0.003911831
0001c0 8d 1b 2d 3c 59 56 11 3d 00 00 00 00 00 00 00 00
       0.010565651 0.03548274 0.0 0.0
0001d0 00 00 00 00 00 00 00 00 00 00 00 00 00 00 00 00
       0.0 0.0 0.0 0.0
0001e0 a5 6a 1a 3b e1 c4 d1 3b 38 20 bd 3c 53 89 9c b9
       0.00235621 0.0064016436 0.023086652 -0.00029856953
0001f0 77 d6 2c 38 63 1e 93 bb 0a 01 f6 ba 96 57 27 bb
       4.120773e-05 -0.0044897064 -0.001876862 -0.0025534383
000200 e7 8d 5e bc 00 00 00 00 00 00 00 00 00 00 00 00
       -0.013583637 0.0 0.0 0.0
000210 00 00 00 00 00 00 00 00 00 00 00 00 00 00 00 00
       0.0 0.0 0.0 0.0
000220 00 00 00 00 00 00 00 00 00 00 00 00 00 00 00 00
       0.0 0.0 0.0 0.0
000230 00 00 00 00 00 00 00 00 00 00 00 00 00 00 00 00
       0.0 0.0 0.0 0.0
000240 37 df 91 3a ee fc 17 3c dd 96 aa 3c e9 c4 9d 3a
       0.0011129145 0.009276612 0.02082389 0.0012036833
000250 e3 8c 6b 3b bd 58 8f 3c 00 00 00 00 00 00 00 00
       0.003594213 0.017498368 0.0 0.0
000260 00 00 00 00 02 a7 a5 bb b1 79 53 bc fe f9 37 bd
       0.0 -0.0050553093 -0.012907431 -0.044916146
000270 6a 68 12 3b af 75 13 3c 6e 00 a3 3c 00 00 00 00
       0.0022340068 0.009000226 0.019897666 0.0
000280 00 00 00 00 00 00 00 00 00 00 00 00 00 00 00 00
       0.0 0.0 0.0 0.0
000290 00 00 00 00 00 00 00 00 00 00 00 00 00 00 00 00
       0.0 0.0 0.0 0.0
0002a0 43 7e 0b bb c4 89 ef bb a1 a8 c6 bc 00 00 00 00
       -0.0021284975 -0.007310124 -0.02425033 0.0
0002b0 00 00 00 00 00 00 00 00 00 00 00 00 00 00 00 00
       0.0 0.0 0.0 0.0
0002c0 00 00 00 00 00 00 00 00 00 00 00 00 00 00 00 00
       0.0 0.0 0.0 0.0
0002d0 d4 24 f2 ba 86 88 44 bc ec e7 e0 bc ab 45 52 3b
       -0.001847411 -0.01199544 -0.027454339 0.0032084982
0002e0 f1 4b 76 3c 64 ca 1d 3d 7a f5 9a 3a 04 d9 c6 3b
       0.015032754 0.038523093 0.0011822425 0.0060683507
0002f0 96 ee 88 3c 10 f5 4e bb c0 21 1b bc 2c 7a 14 bd
       0.01671533 -0.0031579174 -0.009468496 -0.036249325

exp_avg_sq f4 [64, 3]
000000 00 00 00 00 00 00 00 00 00 00 00 00 00 00 00 00
       0.0 0.0 0.0 0.0
000010 00 00 00 00 00 00 00 00 00 00 00 00 00 00 00 00
       0.0 0.0 0.0 0.0
000020 00 00 00 00 00 00 00 00 00 00 00 00 00 00 00 00
       0.0 0.0 0.0 0.0
000030 f6 fc 01 3b 41 9c da 3c d5 2e 24 3e 00 00 00 00
       0.0019834614 0.026685836 0.1603349 0.0
000040 00 00 00 00 00 00 00 00 00 00 00 00 00 00 00 00
       0.0 0.0 0.0 0.0
000050 00 00 00 00 05 22 51 3b 6e 1e 30 3d 61 47 83 3e
       0.0 0.0031911146 0.04299777 0.25640395
000060 00 00 00 00 00 00 00 00 00 00 00 00 00 00 00 00
       0.0 0.0 0.0 0.0
000070 00 00 00 00 00 00 00 00 00 00 00 00 00 00 00 00
       0.0 0.0 0.0 0.0
000080 00 00 00 00 49 91 d9 38 fa 49 b7 3a 67 06 02 3c
       0.0 0.00010374428 0.0013983839 0.007936097
000090 00 00 00 00 00 00 00 00 00 00 00 00 f5 2d 38 3b
       0.0 0.0 0.0 0.0028103564
0000a0 c5 26 1b 3d eb a1 66 3e 5d 17 09 3b 99 9f e6 3c
       0.03787877 0.22522704 0.0020918467 0.028152274
0000b0 43 a8 2d 3e 00 00 00 00 00 00 00 00 00 00 00 00
       0.16958718 0.0 0.0 0.0
0000c0 00 00 00 00 00 00 00 00 00 00 00 00 00 00 00 00
       0.0 0.0 0.0 0.0
0000d0 00 00 00 00 00 00 00 00 00 00 00 00 00 00 00 00
       0.0 0.0 0.0 0.0
0000e0 00 00 00 00 31 4c 15 3c 49 92 fa 3d e4 94 3b 3f
       0.0 0.009112404 0.12234933 0.73274064
0000f0 00 00 00 00 00 00 00 00 00 00 00 00 e1 1b 0b 3a
       0.0 0.0 0.0 0.00053065835
000100 39 93 ea 3b d7 33 2c 3d ba 40 84 3b 13 ca 5e 3d
       0.0071586636 0.042041626 0.0040360363 0.05439193
000110 44 3d a8 3e 1c 04 e6 3c c8 91 c1 3e 41 54 10 40
       0.32859242 0.028078131 0.37806535 2.2551425
000120 45 e6 53 3b cc 80 32 3d 6d 0a 87 3e e9 b2 90 3c
       0.0032333296 0.04357986 0.26375142 0.017663436
000130 89 b2 73 3e 60 ae b4 3f e0 fc 86 3b 97 63 63 3d
       0.23798575 1.4115715 0.0041195005 0.0555149
000140 53 d3 a8 3e 00 00 00 00 00 00 00 00 00 00 00 00
       0.32973728 0.0 0.0 0.0
000150 00 00 00 00 00 00 00 00 00 00 00 00 00 00 00 00
       0.0 0.0 0.0 0.0
000160 00 00 00 00 00 00 00 00 95 20 23 3b 95 87 09 3d
       0.0 0.0 0.0024891247 0.033576567
000170 f1 e2 46 3e 08 cb a4 3a 59 dc 8a 3c e7 cb cc 3d
       0.19422509 0.0012572715 0.016950773 0.09999829
000180 10 22 1b 3c ab 82 02 3e 70 74 3a 3f b7 92 21 3a
       0.00946857 0.12745158 0.7283392 0.0006163525
000190 54 5d 08 3c 55 ad 42 3d ea 94 d7 3a 73 78 b4 3c
       0.008323032 0.047528584 0.0016447578 0.02203009
0001a0 cc 99 08 3e a0 41 6f 3a a6 a3 49 3c e4 98 97 3d
       0.13339919 0.00091269054 0.012307083 0.074022084
0001b0 00 00 00 00 00 00 00 00 00 00 00 00 ae 60 7b 3b
       0.0 0.0 0.0 0.0038357186
0001c0 80 8e 53 3d 7b 82 9d 3e 00 00 00 00 00 00 00 00
       0.05164957 0.3076361 0.0 0.0
0001d0 00 00 00 00 00 00 00 00 00 00 00 00 00 00 00 00
       0.0 0.0 0.0 0.0
0001e0 30 1f 2b 3b c4 05 10 3d cf e5 58 3e d2 84 6f 3a
       0.0026111118 0.03516175 0.21181415 0.0009136918
0001f0 89 c4 49 3c ca dd 97 3d 07 66 32 3a c9 be 15 3c
       0.012314924 0.0741535 0.00068053644 0.009139725
000200 93 2f 60 3d 00 00 00 00 00 00 00 00 00 00 00 00
       0.05473287 0.0 0.0 0.0
000210 00 00 00 00 00 00 00 00 00 00 00 00 00 00 00 00
       0.0 0.0 0.0 0.0
000220 00 00 00 00 00 00 00 00 00 00 00 00 00 00 00 00
       0.0 0.0 0.0 0.0
000230 00 00 00 00 00 00 00 00 00 00 00 00 00 00 00 00
       0.0 0.0 0.0 0.0
000240 2e d5 32 3a a5 e9 16 3c 34 51 56 3d f5 e5 03 3b
       0.00068219274 0.009210979 0.052323535 0.0020126079
000250 62 24 de 3c 50 7b 23 3e 00 00 00 00 00 00 00 00
       0.027116958 0.15965009 0.0 0.0
000260 00 00 00 00 d1 26 a2 3b 40 62 88 3d a5 9a cb 3e
       0.0 0.004948475 0.06659365 0.39766422
000270 fb 23 b2 3a c3 31 96 3c 51 71 d7 3d 00 00 00 00
       0.0013591045 0.018334275 0.1051966 0.0
000280 00 00 00 00 00 00 00 00 00 00 00 00 00 00 00 00
       0.0 0.0 0.0 0.0
000290 00 00 00 00 00 00 00 00 00 00 00 00 00 00 00 00
       0.0 0.0 0.0 0.0
0002a0 e9 e2 1e 3b 99 c5 05 3d d7 46 44 3e 00 00 00 00
       0.0024244136 0.032659147 0.19167648 0.0
0002b0 00 00 00 00 00 00 00 00 00 00 00 00 00 00 00 00
       0.0 0.0 0.0 0.0
0002c0 00 00 00 00 00 00 00 00 00 00 00 00 00 00 00 00
       0.0 0.0 0.0 0.0
0002d0 af 16 7c 3a 93 0e 55 3c b6 8b 98 3d c3 d6 23 3b
       0.0009616417 0.013003963 0.07448523 0.0024999834
0002e0 e4 3e 0a 3d 3e 1d 4d 3e 3e 31 59 3a 2c 6f 37 3c
       0.033751383 0.20030686 0.0008285231 0.011195939
0002f0 55 df 85 3d 2f 42 96 3b 6a 03 7d 3d 15 22 bf 3e
       0.06536738 0.0045855264 0.061770834 0.3733069

exp_avg f4 [64]
000000 00 00 00 00 00 00 00 00 00 00 00 00 00 00 00 00
       0.0 0.0 0.0 0.0
000010 16 0e 54 3b 00 00 00 00 00 00 00 00 4e f4 0b 3c
       0.0032357029 0.0 0.0 0.0085421335
000020 00 00 00 00 00 00 00 00 00 00 00 00 c2 b6 61 ba
       0.0 0.0 0.0 -0.0008610302
000030 00 00 00 00 1e 60 3c bb fb 8d 6c 3b 00 00 00 00
       0.0 -0.0028743814 0.003609537 0.0
000040 00 00 00 00 00 00 00 00 00 00 00 00 30 d4 a7 bb
       0.0 0.0 0.0 -0.0051217303
000050 00 00 00 00 16 32 6e bb 1b 5d 5d ba 02 4d c7 3c
       0.0 -0.0036345772 -0.0008444355 0.024328712
000060 aa fa bd bb fb ed 6b bc 9b 44 39 3b 00 00 00 00
       -0.0057977038 -0.014400001 0.0028269652 0.0
000070 00 00 00 00 00 00 00 00 6c 09 d2 bb f5 18 9b bb
       0.0 0.0 -0.0064098146 -0.0047331997
000080 8d cd a0 bc c0 18 54 3b 57 ed b1 3b 6a 36 9d 3a
       -0.019629264 0.0032363385 0.0054299044 0.0011994366
000090 00 00 00 00 aa ef f6 3b 00 00 00 00 00 00 00 00
       0.0 0.0075358944 0.0 0.0
0000a0 79 14 8f 3b 32 26 d2 39 d4 4f 07 bb 00 00 00 00
       0.004366454 0.0004008278 -0.0020646947 0.0
0000b0 00 00 00 00 00 00 00 00 00 00 00 00 00 00 00 00
       0.0 0.0 0.0 0.0
0000c0 3e d6 cd 3b 87 6b 38 3b 00 00 00 00 d7 6e 17 bc
       0.006281643 0.0028140263 0.0 -0.009242735
0000d0 1d c0 c6 3b 00 00 00 00 00 00 00 00 00 00 00 00
       0.006065382 0.0 0.0 0.0
0000e0 0a ea af bb 00 00 00 00 00 00 00 00 00 00 00 00
       -0.005368476 0.0 0.0 0.0
0000f0 3d d4 fd bb fd a5 1f 3c 59 2e 84 3b fc 0f d3 bb
       -0.007746248 0.0097441645 0.0040338454 -0.0064411145

exp_avg_sq f4 [64]
000000 00 00 00 00 00 00 00 00 00 00 00 00 00 00 00 00
       0.0 0.0 0.0 0.0
000010 d9 d5 52 3c 00 00 00 00 00 00 00 00 29 a6 a9 3c
       0.012868368 0.0 0.0 0.020709114
000020 00 00 00 00 00 00 00 00 00 00 00 00 5e f2 2f 3a
       0.0 0.0 0.0 0.0006711836
000030 00 00 00 00 df 69 95 3c 69 8a 5e 3c 00 00 00 00
       0.0 0.01823896 0.013582804 0.0
000040 00 00 00 00 00 00 00 00 00 00 00 00 b7 f9 71 3d
       0.0 0.0 0.0 0.059076037
000050 00 00 00 00 dc b7 61 3b 23 8d d6 3c 13 aa 3a 3e
       0.0 0.0034441864 0.026190346 0.1822894
000060 33 e7 ab 3c 05 ef ea 3d 2a 05 db 3c 00 00 00 00
       0.020984268 0.114713706 0.02673586 0.0
000070 00 00 00 00 00 00 00 00 85 43 84 3c 1f bd 05 3c
       0.0 0.0 0.016145477 0.008162766
000080 5b 9c 7b 3d d5 12 83 3b cb 1a 2e 3c 01 32 c2 3b
       0.06142841 0.0040000477 0.010626505 0.005926371
000090 00 00 00 00 37 eb cb 3c 00 00 00 00 00 00 00 00
       0.0 0.024892433 0.0 0.0
0000a0 1e d7 8a 3c 71 3f c2 3b 76 82 90 3b 00 00 00 00
       0.016948279 0.005927973 0.0044100834 0.0
0000b0 00 00 00 00 00 00 00 00 00 00 00 00 00 00 00 00
       0.0 0.0 0.0 0.0
0000c0 ce a5 90 3b 14 3d 56 3c 00 00 00 00 67 83 03 3d
       0.0044142967 0.013076086 0.0 0.032107737
0000d0 65 7b 10 3c 00 00 00 00 00 00 00 00 00 00 00 00
       0.008818482 0.0 0.0 0.0
0000e0 d4 fa 80 3c 00 00 00 00 00 00 00 00 00 00 00 00
       0.015744604 0.0 0.0 0.0
0000f0 40 45 cc 3b e4 f3 84 3c 43 5c b0 3b 53 e9 f3 3c
       0.006233841 0.016229577 0.005382092 0.029774344

exp_avg f4 [15, 64]
000000 00 00 00 00 00 00 00 00 00 00 00 00 00 00 00 00
       0.0 0.0 0.0 0.0
000010 cc 71 08 b8 00 00 00 00 00 00 00 00 69 80 5b b7
       -3.253091e-05 0.0 0.0 -1.3083315e-05
000020 00 00 00 00 00 00 00 00 00 00 00 00 ae 47 77 b7
       0.0 0.0 0.0 -1.47390365e-05
000030 00 00 00 00 c8 f9 ff b7 04 3f 1f b8 00 00 00 00
       0.0 -3.0514682e-05 -3.7967242e-05 0.0
000040 00 00 00 00 00 00 00 00 00 00 00 00 b7 a9 d7 b6
       0.0 0.0 0.0 -6.4272567e-06
000050 00 00 00 00 e9 cb 18 b8 67 9b 7c b7 ed ac 84 b6
       0.0 -3.642953e-05 -1.5056553e-05 -3.9540378e-06
000060 4c 27 c0 b7 ec f9 03 b7 ad d1 35 b8 00 00 00 00
       -2.2906483e-05 -7.866398e-06 -4.334904e-05 0.0
000070 00 00 00 00 00 00 00 00 46 f0 cf b7 e0 ac ca b7
       0.0 0.0 -2.4788209e-05 -2.4160778e-05
000080 91 c8 3a b7 2b 7f c8 b7 ce a3 02 b7 9f 5f d1 b7
       -1.1133162e-05 -2.3901075e-05 -7.786743e-06 -2.4959269e-05
000090 00 00 00 00 91 8f 15 b8 00 00 00 00 00 00 00 00
       0.0 -3.5658075e-05 0.0 0.0
0000a0 53 97 1a b8 3d 1d 66 b8 08 0e c6 b7 00 00 00 00
       -3.6857393e-05 -5.4863503e-05 -2.3609973e-05 0.0
0000b0 00 00 00 00 00 00 00 00 00 00 00 00 00 00 00 00
       0.0 0.0 0.0 0.0
0000c0 3f 5a 0b b7 a8 10 1c b6 00 00 00 00 46 4d f1 b7
       -8.306058e-06 -2.3255507e-06 0.0 -2.8765422e-05
0000d0 24 1a 22 b8 00 00 00 00 00 00 00 00 00 00 00 00
       -3.8648155e-05 0.0 0.0 0.0
0000e0 bc ff 25 b7 00 00 00 00 00 00 00 00 00 00 00 00
       -9.894309e-06 0.0 0.0 0.0
0000f0 04 35 b8 b6 a3 e2 33 b8 de 2e 0e b8 5c 6c 89 b7
       -5.489799e-06 -4.2887998e-05 -3.3899087e-05 -1.6382131e-05
000100 00 00 00 00 00 00 00 00 00 00 00 00 00 00 00 00
       0.0 0.0 0.0 0.0
000110 b9 52 1b 38 00 00 00 00 00 00 00 00 4a 55 3d 37
       3.703192e-05 0.0 0.0 1.1285136e-05
000120 00 00 00 00 00 00 00 00 00 00 00 00 52 91 74 37
       0.0 0.0 0.0 1.4577368e-05
000130 00 00 00 00 b1 f4 02 38 eb 3a 46 38 00 00 00 00
       0.0 3.1222302e-05 4.726175e-05 0.0
000140 00 00 00 00 00 00 00 00 00 00 00 00 e1 25 dd b2
       0.0 0.0 0.0 -2.5745011e-08
000150 00 00 00 00 ea 63 25 38 22 59 9d 37 74 c6 a7 36
       0.0 3.9432118e-05 1.8757364e-05 5.000091e-06
000160 04 2f bc 37 ac d6 cf 36 8e 26 5c 38 00 00 00 00
       2.243324e-05 6.194072e-06 5.2487994e-05 0.0
000170 00 00 00 00 00 00 00 00 fd bf 07 38 15 8f d9 37
       0.0 0.0 3.236531e-05 2.5935044e-05
000180 9e c2 41 37 4b 8e dc 37 1a 30 4e 37 0a 2c f2 37
       1.1549009e-05 2.6292304e-05 1.2289756e-05 2.8869155e-05
000190 00 00 00 00 72 7e 35 38 00 00 00 00 00 00 00 00
       0.0 4.3271524e-05 0.0 0.0
0001a0 a3 07 19 38 34 c6 7d 38 ba ad b3 37 00 00 00 00
       3.6485155e-05 6.050449e-05 2.141936e-05 0.0
0001b0 00 00 00 00 00 00 00 00 00 00 00 00 00 00 00 00
       0.0 0.0 0.0 0.0
0001c0 ef 3e 3f 36 af db d7 35 00 00 00 00 c0 e3 00 38
       2.849785e-06 1.6082685e-06 0.0 3.0729687e-05
0001d0 81 b8 26 38 00 00 00 00 00 00 00 00 00 00 00 00
       3.9749317e-05 0.0 0.0 0.0
0001e0 29 f6 31 37 00 00 00 00 00 00 00 00 00 00 00 00
       1.0607336e-05 0.0 0.0 0.0
0001f0 ef ec 5f 37 ee 7b 3a 38 14 8f 20 38 1d 7c e4 37
       1.3347001e-05 4.4461274e-05 3.8280225e-05 2.7237513e-05
000200 00 00 00 00 00 00 00 00 00 00 00 00 00 00 00 00
       0.0 0.0 0.0 0.0
000210 6f 1c 10 ba 00 00 00 00 00 00 00 00 8e fa 4c b9
       -0.0005497401 0.0 0.0 -0.00019548295
000220 00 00 00 00 00 00 00 00 00 00 00 00 72 0f 76 b9
       0.0 0.0 0.0 -0.00023466142
000230 00 00 00 00 31 43 00 ba 1f f1 2e ba 00 00 00 00
       0.0 -0.0004892825 -0.0006673503 0.0
000240 00 00 00 00 00 00 00 00 00 00 00 00 13 1b 6c b8
       0.0 0.0 0.0 -5.6292e-05
000250 00 00 00 00 67 e0 1c ba 6a 61 8a b9 ba 6e 9a b8
       0.0 -0.0005984366 -0.0002639399 -7.363917e-05
000260 ac 66 bb b9 ed 67 e2 b8 3d c3 43 ba 00 00 00 00
       -0.00035743916 -0.000107958775 -0.00074677524 0.0
000270 00 00 00 00 00 00 00 00 9d 3f e6 b9 e5 84 c9 b9
       0.0 0.0 -0.00043916414 -0.00038436722
000280 2a be 3c b9 ef 2a cc b9 13 b5 19 b9 5e cb dc b9
       -0.00017999919 -0.000389419 -0.00014658672 -0.0004211319
000290 00 00 00 00 21 52 20 ba 00 00 00 00 00 00 00 00
       0.0 -0.0006115754 0.0 0.0
0002a0 e4 c7 17 ba f0 8e 6e ba 19 86 bc b9 00 00 00 00
       -0.0005789979 -0.0009100279 -0.00035958065 0.0
0002b0 00 00 00 00 00 00 00 00 00 00 00 00 00 00 00 00
       0.0 0.0 0.0 0.0
0002c0 4b ef c6 b8 06 b3 20 b8 00 00 00 00 19 f0 f7 b9
       -9.4859475e-05 -3.83137e-05 0.0 -0.00047290398
0002d0 cc af 24 ba 00 00 00 00 00 00 00 00 00 00 00 00
       -0.00062822993 0.0 0.0 0.0
0002e0 53 d5 24 b9 00 00 00 00 00 00 00 00 00 00 00 00
       -0.00015719728 0.0 0.0 0.0
0002f0 ed b8 10 b9 e3 34 36 ba 4c 3c 16 ba 5c a4 ae b9
       -0.000138018 -0.000695063 -0.0005731031 -0.00033310323
000300 00 00 00 00 00 00 00 00 00 00 00 00 00 00 00 00
       0.0 0.0 0.0 0.0
000310 c5 48 1e 3a 00 00 00 00 00 00 00 00 d8 35 48 39
       0.0006038065 0.0 0.0 0.00019093545
000320 00 00 00 00 00 00 00 00 00 00 00 00 7d d3 80 39
       0.0 0.0 0.0 0.00024571634
000330 00 00 00 00 48 c7 09 3a cd b2 3e 3a 00 00 00 00
       0.0 0.00052558305 0.0007274568 0.0
000340 00 00 00 00 00 00 00 00 00 00 00 00 70 39 90 38
       0.0 0.0 0.0 6.877154e-05
000350 00 00 00 00 0e af 2e 3a 41 2d a3 39 40 a2 8a 38
       0.0 0.00066636584 0.000311235 6.610574e-05
000360 72 30 cd 39 d3 e0 f1 38 14 23 56 3a 00 00 00 00
       0.00039136742 0.00011533652 0.0008168679 0.0
000370 00 00 00 00 00 00 00 00 14 45 06 3a 25 9a d7 39
       0.0 0.0 0.0005121988 0.00041122842
000380 97 b0 66 39 98 9d d5 39 ca 95 0d 39 25 a5 ef 39
       0.00022000294 0.00040743942 0.00013502609 0.00045708675
000390 00 00 00 00 1c aa 2b 3a 00 00 00 00 00 00 00 00
       0.0 0.00065484806 0.0 0.0
0003a0 ab da 1f 3a 6f ac 7f 3a 63 9d cb 39 00 00 00 00
       0.0006097953 0.00097531726 0.0003883644 0.0
0003b0 00 00 00 00 00 00 00 00 00 00 00 00 00 00 00 00
       0.0 0.0 0.0 0.0
0003c0 41 e8 c0 38 ea 0d 36 38 00 00 00 00 b4 6f 0b 3a
       9.198534e-05 4.340514e-05 0.0 0.0005319074
0003d0 72 e5 2d 3a 00 00 00 00 00 00 00 00 00 00 00 00
       0.0006633616 0.0 0.0 0.0
0003e0 0a b8 1e 39 00 00 00 00 00 00 00 00 00 00 00 00
       0.00015136614 0.0 0.0 0.0
0003f0 aa 03 20 39 28 0c 48 3a 47 ad 1f 3a 21 d7 c0 39
       0.00015260154 0.0007631206 0.0006091189 0.00036781377

exp_avg_sq f4 [15, 64]
000000 00 00 00 00 00 00 00 00 00 00 00 00 00 00 00 00
       0.0 0.0 0.0 0.0
000010 a1 ae 3b 33 00 00 00 00 00 00 00 00 98 b0 d8 31
       4.3698154e-08 0.0 0.0 6.3065038e-09
000020 00 00 00 00 00 00 00 00 00 00 00 00 67 8a 1b 32
       0.0 0.0 0.0 9.0536565e-09
000030 00 00 00 00 2f 35 15 33 d9 a6 7f 33 00 00 00 00
       0.0 3.4740136e-08 5.952356e-08 0.0
000040 00 00 00 00 00 00 00 00 00 00 00 00 a9 db 3d 30
       0.0 0.0 0.0 6.9069955e-10
000050 00 00 00 00 25 27 53 33 b2 32 12 32 ed 6f bd 30
       0.0 4.9162868e-08 8.509845e-09 1.3783371e-09
000060 23 7f 90 32 ba 58 82 30 6e a6 93 33 00 00 00 00
       1.6821621e-08 9.483963e-10 6.875494e-08 0.0
000070 00 00 00 00 00 00 00 00 87 ff a4 32 69 03 6e 32
       0.0 0.0 1.9208313e-08 1.3854199e-08
000080 27 28 99 31 c5 62 94 32 0e 0a 97 30 88 59 c3 32
       4.457451e-09 1.7274383e-08 1.0989554e-09 2.2741702e-08
000090 00 00 00 00 1b 46 39 33 00 00 00 00 00 00 00 00
       0.0 4.313743e-08 0.0 0.0
0000a0 3e 15 46 33 aa 1d fb 33 9d 4c a8 32 00 00 00 00
       4.6119787e-08 1.1693494e-07 1.9592614e-08 0.0
0000b0 00 00 00 00 00 00 00 00 00 00 00 00 00 00 00 00
       0.0 0.0 0.0 0.0
0000c0 74 ce 0f 31 b5 6d 84 30 00 00 00 00 74 aa 0f 33
       2.0926594e-09 9.635445e-10 0.0 3.344981e-08
0000d0 51 73 8e 33 00 00 00 00 00 00 00 00 00 00 00 00
       6.633366e-08 0.0 0.0 0.0
0000e0 8e 24 28 31 00 00 00 00 00 00 00 00 00 00 00 00
       2.4467997e-09 0.0 0.0 0.0
0000f0 d7 46 a4 30 2e 4d 9d 33 e9 6c 5b 33 44 19 4a 32
       1.1952704e-09 7.324921e-08 5.1088964e-08 1.1763692e-08
000100 00 00 00 00 00 00 00 00 00 00 00 00 00 00 00 00
       0.0 0.0 0.0 0.0
000110 7b 4c 06 34 00 00 00 00 00 00 00 00 49 ca 9a 32
       1.2507546e-07 0.0 0.0 1.8019948e-08
000120 00 00 00 00 00 00 00 00 00 00 00 00 04 bb de 32
       0.0 0.0 0.0 2.5929246e-08
000130 00 00 00 00 b3 3b d5 33 b2 1c 37 34 00 00 00 00
       0.0 9.9294446e-08 1.7053642e-07 0.0
000140 00 00 00 00 00 00 00 00 00 00 00 00 4c 5e 0e 31
       0.0 0.0 0.0 2.0717321e-09
000150 00 00 00 00 52 00 17 34 16 60 d1 32 0b fd 88 31
       0.0 1.4063087e-07 2.4374497e-08 3.9868886e-09
000160 d6 d2 4e 33 3a f5 3e 31 36 68 53 34 00 00 00 00
       4.8154867e-08 2.7788034e-09 1.9688818e-07 0.0
000170 00 00 00 00 00 00 00 00 7c 5d 6c 33 76 ae 2b 33
       0.0 0.0 5.5033055e-08 3.997271e-08
000180 ea 74 5a 32 c5 8b 54 33 19 33 64 31 94 b0 8b 33
       1.2715853e-08 4.9487216e-08 3.3207412e-09 6.504811e-08
000190 00 00 00 00 a1 b6 04 34 00 00 00 00 00 00 00 00
       0.0 1.2359898e-07 0.0 0.0
0001a0 04 92 0d 34 b6 a4 b3 34 1f 2b 70 33 00 00 00 00
       1.3184768e-07 3.346119e-07 5.5918573e-08 0.0
0001b0 00 00 00 00 00 00 00 00 00 00 00 00 00 00 00 00
       0.0 0.0 0.0 0.0
0001c0 2d e5 cd 31 65 53 42 31 00 00 00 00 15 7c cd 33
       5.9923395e-09 2.827812e-09 0.0 9.568627e-08
0001d0 77 a8 4b 34 00 00 00 00 00 00 00 00 00 00 00 00
       1.8967135e-07 0.0 0.0 0.0
0001e0 3e d6 f2 31 00 00 00 00 00 00 00 00 00 00 00 00
       7.0674835e-09 0.0 0.0 0.0
0001f0 cd 90 75 31 62 c4 60 34 64 09 1d 34 6b ca 11 33
       3.5734502e-09 2.093307e-07 1.4625181e-07 3.394454e-08
000200 00 00 00 00 00 00 00 00 00 00 00 00 00 00 00 00
       0.0 0.0 0.0 0.0
000210 55 bd 61 36 00 00 00 00 00 00 00 00 44 9d 01 35
       3.3637818e-06 0.0 0.0 4.8285096e-07
000220 00 00 00 00 00 00 00 00 00 00 00 00 e5 96 3a 35
       0.0 0.0 0.0 6.950998e-07
000230 00 00 00 00 f5 97 32 36 5c 87 9a 36 00 00 00 00
       0.0 2.6612518e-06 4.6053156e-06 0.0
000240 00 00 00 00 00 00 00 00 00 00 00 00 dc fd 69 33
       0.0 0.0 0.0 5.4480424e-08
000250 00 00 00 00 c9 c5 7c 36 a6 99 2f 35 a8 1a ee 33
       0.0 3.7666052e-06 6.541617e-07 1.10875874e-07
000260 0a 5c ac 35 4d 28 a4 33 da ef b1 36 00 00 00 00
       1.2841786e-06 7.644176e-08 5.3029335e-06 0.0
000270 00 00 00 00 00 00 00 00 5d ef c6 35 d9 2f 90 35
       0.0 0.0 1.4821813e-06 1.0742762e-06
000280 91 f7 b5 34 7a b7 b2 35 cb 62 c6 33 b5 f7 ea 35
       3.3894005e-07 1.3315432e-06 9.238064e-08 1.7506451e-06
000290 00 00 00 00 12 a3 5f 36 00 00 00 00 00 00 00 00
       0.0 3.332451e-06 0.0 0.0
0002a0 c9 f8 6c 36 28 e1 16 37 e7 65 c8 35 00 00 00 00
       3.5311552e-06 8.99312e-06 1.4930819e-06 0.0
0002b0 00 00 00 00 00 00 00 00 00 00 00 00 00 00 00 00
       0.0 0.0 0.0 0.0
0002c0 9a 7f 29 34 79 22 a9 33 00 00 00 00 56 fd 2b 36
       1.5785773e-07 7.875946e-08 0.0 2.5628447e-06
0002d0 7c 4b ab 36 00 00 00 00 00 00 00 00 00 00 00 00
       5.1049847e-06 0.0 0.0 0.0
0002e0 a1 fb 4c 34 00 00 00 00 00 00 00 00 00 00 00 00
       1.9090523e-07 0.0 0.0 0.0
0002f0 77 20 d5 33 e8 4d bc 36 bf 64 84 36 90 6a 79 35
       9.924491e-08 5.611906e-06 3.945635e-06 9.29148e-07
000300 00 00 00 00 00 00 00 00 00 00 00 00 00 00 00 00
       0.0 0.0 0.0 0.0
000310 48 02 73 36 00 00 00 00 00 00 00 00 dc 17 0c 35
       3.621115e-06 0.0 0.0 5.2188784e-07
000320 00 00 00 00 00 00 00 00 00 00 00 00 87 15 49 35
       0.0 0.0 0.0 7.490966e-07
000330 00 00 00 00 bd 5b 40 36 92 50 a6 36 00 00 00 00
       0.0 2.8663628e-06 4.956565e-06 0.0
000340 00 00 00 00 00 00 00 00 00 00 00 00 73 a2 7a 33
       0.0 0.0 0.0 5.8355408e-08
000350 00 00 00 00 3d 1a 88 36 68 71 3d 35 d1 87 00 34
       0.0 4.0561704e-06 7.0573014e-07 1.1970339e-07
000360 1d b2 b9 35 3b 47 b1 33 99 93 bf 36 00 00 00 00
       1.3835412e-06 8.2551615e-08 5.709426e-06 0.0
000370 00 00 00 00 00 00 00 00 23 f3 d6 35 22 64 9b 35
       0.0 0.0 1.6015005e-06 1.1577542e-06
000380 dd 2f c4 34 5e 7b c0 35 f9 2d d2 33 a3 fa fc 35
       3.654267e-07 1.4341019e-06 9.7872494e-08 1.8848408e-06
000390 00 00 00 00 d2 bc 70 36 00 00 00 00 00 00 00 00
       0.0 3.5872695e-06 0.0 0.0
0003a0 dc 5c 7f 36 ce 74 22 37 b6 ed d7 35 00 00 00 00
       3.8052012e-06 9.683148e-06 1.6087931e-06 0.0
0003b0 00 00 00 00 00 00 00 00 00 00 00 00 00 00 00 00
       0.0 0.0 0.0 0.0
0003c0 17 51 38 34 35 d8 b5 33 00 00 00 00 37 2a 39 36
       1.7165836e-07 8.467797e-08 0.0 2.759172e-06
0003d0 83 80 b8 36 00 00 00 00 00 00 00 00 00 00 00 00
       5.498588e-06 0.0 0.0 0.0
0003e0 2d e7 5c 34 00 00 00 00 00 00 00 00 00 00 00 00
       2.0573198e-07 0.0 0.0 0.0
0003f0 1d 02 e6 33 10 c0 ca 36 04 86 8e 36 27 3b 86 35
       1.0710594e-07 6.042428e-06 4.2475313e-06 1.0000994e-06

exp_avg f4 [15]
000000 6b 50 80 b7 14 5b a4 37 36 d1 90 b9 45 49 88 39
       -1.5296237e-05 1.9592735e-05 -0.00027621695 0.00025994531
000010 57 0e 93 b4 e7 af 0f 37 86 7e 32 3d b9 46 3a 39
       -2.7391317e-07 8.56442e-06 0.043577693 0.00017764689
000020 dc b0 c2 3c 3a 85 c4 3c 7e cf 82 3c 4c 95 02 3d
       0.023765974 0.023989309 0.01596808 0.03188066
000030 3a a7 f9 3c bc 1c 0b 3c db c9 c6 bb
       0.030475248 0.0084907375 -0.0060665435

exp_avg_sq f4 [15]
000000 46 03 5c 32 e9 93 1e 33 49 66 87 35 cf df 91 35
       1.280643e-08 3.6921765e-08 1.0088053e-06 1.0868479e-06
000010 ed 49 12 30 5b 4f 13 33 2b 8c d2 3f 93 66 09 3d
       5.3219545e-10 3.4298278e-08 1.6449026 0.033545088
000020 ed b1 ad 3d 69 91 a8 3d ce 99 57 3d 55 70 35 3e
       0.08481202 0.0823086 0.052636914 0.17718633
000030 d1 3b 31 3e 12 1b 4c 3d ca bb d5 3d
       0.17307974 0.049830504 0.104362085
