Op_problems/problem_ED_Column/checkpoints/pinn_checkpoint_epoch_800_loss_0.057197.pth (torch, 21427 bytes, 12 tensors)

nn.0.weight f4 [64, 3]
0	0x3ef34647	0.47514555
1	0x3f05b81d	0.5223406
2	0xbe1542c3	-0.14576249
3	0x3ee164f0	0.44022322
4	0xbe350e2c	-0.17681187
5	0x3dbffcb4	0.09374371
6	0xbe3ab120	-0.1823163
7	0x3ecc6349	0.399195
8	0x3f0e00cb	0.5546996
9	0xbe9b0a35	-0.30281225
10	0x3f0ff48f	0.5623254
11	0x3e0ef529	0.13960709
12	0x3eb0b6b8	0.34514403
13	0x3d8c3384	0.06845763
14	0x3e8783e0	0.264678
15	0xbc6267db	-0.013818706
16	0x3f0e64e0	0.55622673
17	0x3dd7b7a3	0.10533073
18	0xbe89ffdb	-0.26953015
19	0x3e16b295	0.14716561
20	0xbe8831fe	-0.2660064
21	0xbd7fe2b0	-0.062472045
22	0xbe2ccf7d	-0.16876025
23	0x3ec4a24c	0.38405073
24	0xbee95728	-0.45574307
25	0xbe8846b5	-0.26616445
26	0xbe26f11c	-0.16302913
27	0xbeb1bcf7	-0.3471448
28	0x3d5f3321	0.05449212
29	0xbf11fb0a	-0.5702368
30	0x3f29a569	0.6626802
31	0xbed70e26	-0.42002982
32	0x3efeb53a	0.4974764
33	0x3e346641	0.17617132
34	0xbd976d1d	-0.073938586
35	0x3ecb3eba	0.39696294
36	0x3e55195d	0.20810457
37	0x3eddf371	0.43349794
38	0x3ced823a	0.02899276
39	0xbe3a7363	-0.18208079
40	0x3e1ed8fb	0.15512459
41	0xbe2052b6	-0.15656552
42	0x3f0bfcd3	0.54682654
43	0x3f044435	0.51666576
44	0x3eba44d1	0.36380628
45	0xbe24a372	-0.16077974
46	0x3ec0df4f	0.3767037
47	0x3de85d7b	0.11345955
48	0x3e961e23	0.29319867
49	0xbeb42bf6	-0.3518979
50	0xbf124f64	-0.5715239
51	0xbe29ed24	-0.16594368
52	0xbeb79e9c	-0.35863197
53	0x3eff41b2	0.4985481
54	0x3ea678fe	0.32514185
55	0x3e8b7c8f	0.27243468
56	0x3e42aa47	0.19010268
57	0xbc248dc9	-0.01004357
58	0x3ee75774	0.4518391
59	0xbed207ba	-0.4102152
60	0x3d14e5f7	0.036352124
61	0xbec9c2db	-0.39406475
62	0x3e364cbd	0.17802711
63	0xbe4b99e2	-0.1988292
64	0x3e3527c5	0.17690952
65	0xbdf65883	-0.12028601
66	0x3ef52bc6	0.4788496
67	0xbeaf3465	-0.3421966
68	0xbeb04c18	-0.34433055
69	0xbeae54e9	-0.34049156
70	0x3ec28b47	0.37996885
71	0x3e2ea9a1	0.17056896
72	0x3f0e38e6	0.5555557
73	0xbef3f454	-0.47647345
74	0xbf1299d7	-0.5726599
75	0xbf2dfdbf	-0.6796531
76	0xbecf9eb9	-0.40550783
77	0x3ebac5d3	0.36479053
78	0x3ecd7f62	0.40136248
79	0x3f0d99c4	0.5531275
80	0xbe8387ce	-0.25689548
81	0xbec9842b	-0.3935865
82	0x3e9cd736	0.30632943
83	0xbe6ef7e8	-0.23336756
84	0x3ee47b16	0.44625157
85	0xbe7c371c	-0.24630398
86	0x3ea89f6a	0.32934123
87	0xbf17b3b5	-0.59258586
88	0xbe4a4c66	-0.19755706
89	0x3e3e4a08	0.18582928
90	0x3e8a632a	0.2702878
91	0xbd4fdbe5	-0.050746817
92	0x3eb4ed03	0.35337076
93	0x3ec8f431	0.39248803
94	0xbed65d19	-0.41867903
95	0xbe9dd02f	-0.30822894
96	0x3f07561c	0.5286577
97	0xbe477e0a	-0.19481674
98	0xbe5197ab	-0.20468013
99	0xbf1f370c	-0.6219337
100	0xbebbf4d8	-0.36710238
101	0x3e45114b	0.19244878
102	0xbd9c120c	-0.0762063
103	0xbed69306	-0.41909045
104	0x3c5de251	0.013542728
105	0xbec9ebd2	-0.3943773
106	0xbefac9f4	-0.48982203
107	0xbea2c718	-0.3179252
108	0xbeec4a8b	-0.46150622
109	0xbe833bde	-0.25631613
110	0x3f1e6568	0.61873484
111	0x3ddf540a	0.10904701
112	0x3e362fa3	0.1779161
113	0xbf09da30	-0.5384855
114	0xbec22500	-0.37918854
115	0xbe44c95d	-0.19217439
116	0x3db8e532	0.090280905
117	0xbf020dc8	-0.5080228
118	0xbe7ebc2a	-0.24876466
119	0xbeb0f7eb	-0.34564146
120	0x3ad1b6a5	0.0015999867
121	0xbe5bfd6a	-0.21483389
122	0xbd23df5a	-0.040007927
123	0xbec84f42	-0.3912297
124	0xbecae694	-0.39629042
125	0xbeac749d	-0.3368272
126	0xbe3c4422	-0.18385366
127	0xbec6fe7b	-0.38866028
128	0x3ee6d86a	0.45086986
129	0xbe6a703c	-0.22894377
130	0x3eea4999	0.45759276
131	0x3e2b24c2	0.1671324
132	0xbefe3bef	-0.496551
133	0x3ec89852	0.3917871
134	0xbe2a8bd9	-0.1665491
135	0xbe629ffb	-0.2213134
136	0xbef55f21	-0.4792414
137	0xbf12f048	-0.5739789
138	0x3e627ca1	0.22117855
139	0xbd85a2a9	-0.065251656
140	0x3e821c28	0.25412107
141	0xbef29742	-0.47381026
142	0x3edb76eb	0.42864165
143	0xbed8fd1d	-0.4238061
144	0xbe62c061	-0.22143699
145	0x3da97505	0.08274273
146	0x3e800ce8	0.25009847
147	0x3eeea4c5	0.46610084
148	0x3f06a42c	0.52594256
149	0xbeea63f3	-0.4577938
150	0x3e14c991	0.14530016
151	0xbe7e4b18	-0.24833333
152	0xbd819315	-0.06326882
153	0xbedd4194	-0.43214095
154	0x3f06a05d	0.52588445
155	0xbed8f54d	-0.4237465
156	0x3ef20f88	0.47277474
157	0x3dffa90f	0.12483417
158	0x3df6000e	0.12011729
159	0xbdf8e289	-0.12152583
160	0x3f0a09ce	0.5392121
161	0x3e12fb62	0.14353707
162	0x3d946b13	0.07246985
163	0xbf0995f2	-0.53744423
164	0x3ea90dd8	0.33018374
165	0x3db5a820	0.08869958
166	0xbe522faa	-0.20525995
167	0x3f02f503	0.5115511
168	0x3e03cf0e	0.12871954
169	0xbea38ce4	-0.3194343
170	0xbe959dc9	-0.29221943
171	0x3da0d4b4	0.0785307
172	0x3eb8ac4f	0.3606896
173	0xbdcd19c7	-0.10014682
174	0xbea8a9f1	-0.32942155
175	0xbe4a745b	-0.19770949
176	0xbedcd67b	-0.43132386
177	0x3e52d7ef	0.20590185
178	0x3ee4cf12	0.44689232
179	0xbf0b257e	-0.54354084
180	0xbd9dc341	-0.07703257
181	0x3e77c1cc	0.24195021
182	0x3e17faef	0.14841817
183	0xbe4cc2f0	-0.19996238
184	0x3ec2a46a	0.38016063
185	0x3e98eadd	0.29866686
186	0x3e5d117a	0.21588698
187	0xbdcfc67c	-0.1014528
188	0xbe1c8d62	-0.15288308
189	0x3d7cfdc8	0.061765462
190	0xbdd0e0cf	-0.10199129
191	0xbe302e22	-0.17205098

nn.0.bias f4 [64]
0	0x3eab3ca1	0.33444694
1	0x3edd7655	0.43254343
2	0x3d64de60	0.055876136
3	0xbdb4d453	-0.0882956
4	0xbd931812	-0.071823254
5	0xbd1eb3c1	-0.038745645
6	0x3e0e21fc	0.13880152
7	0x3dc6fdaa	0.09716351
8	0xbf063deb	-0.5243823
9	0xbe5a2d76	-0.21306404
10	0x3f0f4e86	0.5597919
11	0x3e74cf5c	0.23907226
12	0xbcb3b4ee	-0.02193686
13	0xbeb23890	-0.3480878
14	0xbec7e176	-0.390392
15	0xbf0a869e	-0.5411166
16	0xbe40b60e	-0.18819448
17	0x3e8a82ce	0.2705292
18	0x3ed7982f	0.42108294
19	0x3e887ab2	0.2665611
20	0xbf02a5fe	-0.51034534
21	0xbeb1c3c7	-0.3471968
22	0xbdba9ac1	-0.09111548
23	0x3f02d094	0.51099515
24	0x3dab0b82	0.08351804
25	0xbbacce97	-0.005273651
26	0x3ea13905	0.31488815
27	0xbe612e01	-0.21990205
28	0xbec4b14f	-0.38416526
29	0x3eec33e3	0.46133336
30	0xbe2256d6	-0.15853438
31	0xbded08d9	-0.11573953
32	0xbf1308a2	-0.5743505
33	0x3f054b6f	0.5206823
34	0x3edff596	0.43742055
35	0x3e5776d6	0.21041426
36	0xbecb764b	-0.39738688
37	0xbf11df12	-0.56981003
38	0xbef01533	-0.46891174
39	0x3edc6e75	0.43053022
40	0x3e8debbe	0.2771892
41	0x3ef8c064	0.48584282
42	0x3e7bf2a4	0.24604279
43	0x3e844a1d	0.25837794
44	0xbc5b6e12	-0.013392942
45	0xbee0cee1	-0.43907836
46	0xbf027c06	-0.50970495
47	0xbf0a3eff	-0.54002374
48	0x3e1a5b8f	0.1507399
49	0xbe9121bc	-0.2834605
50	0xbdedf6b7	-0.11619323
51	0xbeaa1f0c	-0.33226812
52	0xbe20c116	-0.15698656
53	0xbebd290b	-0.36945376
54	0xbe8aa9ca	-0.27082664
55	0x3e63723d	0.22211547
56	0xbe2fb459	-0.17158641
57	0x3eeb4a3c	0.45955074
58	0xbe3daa0e	-0.18521902
59	0xbed8d84d	-0.42352524
60	0xbd0e4ce2	-0.03474129
61	0xbeab17a9	-0.3341649
62	0xbe34dfec	-0.17663544
63	0xbf0cb4e0	-0.54963493

nn.2.weight f4 [15, 64]
0	0x3d14c834	0.03632374
1	0xbde02fa9	-0.109465905
2	0x3d865b27	0.06560355
3	0x3d8148c2	0.063127056
4	0x3d9b3c50	0.07579863
5	0xbdce1992	-0.10063471
6	0x3db81d48	0.0898996
7	0xbd54cb5f	-0.051951762
8	0x3d3dfcc8	0.04638365
9	0x3df069d2	0.117389336
10	0xbce43ff9	-0.027862536
11	0xbb0eae09	-0.0021771214
12	0xbd2b3f17	-0.041808214
13	0xbdd5c18c	-0.10437307
14	0x3d47ff47	0.048827436
15	0xbdd9642c	-0.106148094
16	0x3d9eecbe	0.07759999
17	0x3dd8964c	0.10575542
18	0x3ddfc268	0.10925752
19	0xbcf18a68	-0.029484943
20	0xbdd25720	-0.10270524
21	0x3ce639e8	0.028103784
22	0x3d8d6be0	0.06905341
23	0xbdec7cac	-0.11547217
24	0xbce86e68	-0.028372958
25	0x3cb6fd4f	0.022337584
26	0xbdbd041d	-0.092293
27	0xbd7c0368	-0.061526686
28	0xbd9a1965	-0.07524375
29	0x3bc57528	0.006025929
30	0xbdfd628b	-0.12372311
31	0x3dd20cc8	0.10256344
32	0x3dd69ce0	0.1047914
33	0x3d732252	0.059358902
34	0xbc693b00	-0.014235258
35	0xbd50f518	-0.05101499
36	0xbdb4fec6	-0.08837657
37	0xbdf91ffe	-0.12164305
38	0x3d3e4a04	0.046457306
39	0xbd8c8e4a	-0.06863077
40	0xbda49396	-0.08035962
41	0xbc1fcaa0	-0.009752899
42	0xbcdaddd1	-0.026717098
43	0xbd2429db	-0.04007898
44	0xbabe0477	-0.001449718
45	0xbcd93400	-0.026514053
46	0xbd6e5e2c	-0.058195278
47	0xbd75260c	-0.059850737
48	0xbdbede3e	-0.09319733
49	0x3dd6a868	0.1048134
50	0xbd4ce554	-0.05002339
51	0x3d07ab64	0.033122435
52	0xbd85adff	-0.06527328
53	0x3c5b7b68	0.013396122
54	0x3a2a6dae	0.0006501329
55	0x3d7bda9b	0.061487775
56	0xbdddd97a	-0.10832496
57	0x3cc3e471	0.02391264
58	0x3df30194	0.118655354
59	0x3d06b2dc	0.032885417
60	0x3d95dd30	0.07317579
61	0x3e04b460	0.12959433
62	0xbc9ce810	-0.019153625
63	0x3cd48928	0.025944307
64	0x3d9d735b	0.07688018
65	0x3d439c45	0.047756452
66	0x3e1da503	0.15394978
67	0x3e154066	0.14575347
68	0x3c96e0a0	0.018417656
69	0x3b8dc281	0.004326165
70	0xbdaef0ec	-0.08542046
71	0xbdbb473a	-0.09144445
72	0xbdc58a22	-0.09645487
73	0xbcfd3b88	-0.030912176
74	0x3e16d5ac	0.14729947
75	0x3da0266a	0.07819827
76	0x3cf7df17	0.030257745
77	0xbdcd5e8c	-0.10027799
78	0x3e3ed8a7	0.18637334
79	0x3dba9dca	0.09112127
80	0xbc7c2a40	-0.015390933
81	0x3d875211	0.0660745
82	0x3cb9ca78	0.022679552
83	0xbc5f5050	-0.013629988
84	0xbc324460	-0.01088056
85	0xbcf242e8	-0.029572919
86	0xbd81ccdc	-0.06337902
87	0xbdad0202	-0.084476486
88	0xbdcef07c	-0.101044625
89	0xbf10b96d	-0.5653294
90	0x3efc6fc0	0.49304008
91	0xbd774db4	-0.060376838
92	0x3d497143	0.04918028
93	0xbdc4dd80	-0.0961256
94	0x3df83a73	0.12120523
95	0x3d8c43d0	0.06848872
96	0x3dc29740	0.09501505
97	0xbe463862	-0.19357446
98	0xbdfdd302	-0.12393762
99	0x3c35a260	0.0110860765
100	0x3da5885b	0.08082648
101	0xbc3d4990	-0.011553183
102	0xbd96db00	-0.0736599
103	0x3df40e14	0.11916748
104	0xbd3f8094	-0.04675348
105	0xbd91c090	-0.071168065
106	0xbdf5f5c4	-0.12009767
107	0x3d7c2b3c	0.06156467
108	0x3d72d7c4	0.0592878
109	0x3ce2acf0	0.027670354
110	0x3e4e29f9	0.20133199
111	0xbdc225ae	-0.09479843
112	0xbdbbdbcd	-0.09172783
113	0x3b104180	0.0022011697
114	0x3de96df6	0.113979265
115	0x3d93b11e	0.07211517
116	0x3dac66c4	0.084180385
117	0x3dd0d6b8	0.10197204
118	0x384b7134	4.85044e-05
119	0xbc93720b	-0.017998716
120	0x3cb971d8	0.022637293
121	0x3e3ce52d	0.18446799
122	0x3dd41002	0.10354616
123	0xbdeb0900	-0.11476326
124	0x3e2fc627	0.17165433
125	0xbc359d01	-0.011084796
126	0x3d3fba2c	0.046808407
127	0x3dd8a388	0.10578066
128	0xbd30a43c	-0.043125376
129	0xbd81927b	-0.06326767
130	0xbd96d7c3	-0.07365372
131	0x3da8976d	0.08232007
132	0xbc7bbc90	-0.015364781
133	0x3d1a9746	0.03774192
134	0xbcd19cf0	-0.025587529
135	0xbd862bbe	-0.06551312
136	0x3db0765e	0.08616327
137	0x3d7b233c	0.0613129
138	0xbd9e6ae2	-0.0773523
139	0xbdde59c7	-0.108569674
140	0xbdbf1149	-0.09329469
141	0x3c5d8350	0.013520077
142	0xbbcc162b	-0.0062282286
143	0x3e27f341	0.16401388
144	0xbd0f41a4	-0.03497471
145	0x3d998db9	0.074977346
146	0xbc4ea79e	-0.012613205
147	0x3bb8ce00	0.0056397915
148	0xbcfc01c8	-0.030762568
149	0xbde7d4ba	-0.11319871
150	0xbdf0b4b6	-0.11753218
151	0x3d3c827c	0.046022877
152	0xbd82215a	-0.063540176
153	0x3e6ae203	0.22937779
154	0xbcc7e2b3	-0.02440009
155	0xbd484e44	-0.048902765
156	0xbe2a834d	-0.1665165
157	0x3e7e2d0a	0.24821869
158	0x3b02c370	0.0019952916
159	0xbd77dda0	-0.060514092
160	0xbd512290	-0.051058352
161	0x3ea21c89	0.31662396
162	0xbdaa9102	-0.08328439
163	0xbda75926	-0.081713006
164	0x3cffbf84	0.031219251
165	0xbd3b44fc	-0.045720086
166	0xbdbfe996	-0.09370725
167	0x3d97d944	0.07414487
168	0x3dcddd9e	0.10052036
169	0x3ca61de0	0.020277917
170	0xbccf3387	-0.025293125
171	0xbd219f8f	-0.039458808
172	0xbd2cba4f	-0.042169865
173	0x3d02590c	0.031823203
174	0xbe5460a5	-0.20739992
175	0xbc817398	-0.01580219
176	0x3c3f7f87	0.01168812
177	0x3d8ea65e	0.06965326
178	0xbdcbe0da	-0.099549964
179	0x3da1cbee	0.079002246
180	0xbe561f81	-0.20910455
181	0x3de23825	0.11045865
182	0xbcc62645	-0.02418817
183	0xbc70c7de	-0.01469609
184	0xbd1ab9c0	-0.0377748
185	0x3e2be597	0.167868
186	0xbb54f800	-0.0032496452
187	0x3dc7d55e	0.097574934
188	0x3e183d2f	0.1486709
189	0x3bec6923	0.0072146817
190	0xbdbac11c	-0.09118864
191	0x3dcd63aa	0.10028775
192	0x3e5cbc1f	0.21556138
193	0x3e0e18e5	0.13876684
194	0x3b91da9a	0.004451108
195	0xbe4656bb	-0.19369023
196	0xba5713b5	-0.00082045357
197	0x3c2c2334	0.01050644
198	0x3d0835b0	0.033254325
199	0x3daccf85	0.08438019
200	0xbd0b592c	-0.034020588
201	0x3dec2e0e	0.11532222
202	0x3e3a7922	0.18210271
203	0x3c497366	0.01229558
204	0x3cab75ef	0.020930259
205	0x3cf5e8a0	0.03001815
206	0x3dcaed9f	0.09908604
207	0xbebc4604	-0.36772168
208	0x3d3fe46c	0.0468487
209	0xb9c85126	-0.00038207433
210	0xbca3c35b	-0.019990614
211	0xbd8bd440	-0.06827593
212	0x3df6e388	0.12055117
213	0x3ddad7f6	0.106857225
214	0x3de53e78	0.111935556
215	0x3d5e2049	0.05423001
216	0x3dc16524	0.09443119
217	0xbec6c9cf	-0.38825843
218	0x3e0b0189	0.13574804
219	0x3d7fd2fc	0.06245707
220	0x3e12b9e2	0.14328721
221	0xbe1315ab	-0.14363734
222	0x3d652be2	0.055950053
223	0x3cd6e558	0.026232406
224	0x3d83c9b6	0.06434958
225	0xbdf01948	-0.11723572
226	0xbd96ac48	-0.07357079
227	0x3c8a2168	0.016861632
228	0xbdcb86d6	-0.09937827
229	0xbda6abf6	-0.08138268
230	0x3d8570c4	0.06515649
231	0xbcac0428	-0.020998076
232	0x3de9edd0	0.11422312
233	0x3df90848	0.12159783
234	0x3dc58e8f	0.096463315
235	0x3d042f83	0.032271873
236	0x3d059178	0.032609433
237	0x3b004b40	0.0019576102
238	0x3dd0811b	0.10180875
239	0x3ae12f00	0.0017180145
240	0x3d38a311	0.045077387
241	0x3dee0576	0.11622135
242	0xbd04b080	-0.032394886
243	0xbd586e34	-0.052839473
244	0x3df9e207	0.122013144
245	0xbe168c50	-0.14701962
246	0x3c78666a	0.015161136
247	0x3e2d784f	0.16940425
248	0x3dc82fac	0.09774718
249	0x3dfb3ce4	0.12267473
250	0xbdbc6602	-0.09199144
251	0xbd89657c	-0.0670881
252	0xbca1f5e2	-0.019770566
253	0xbd88ef54	-0.06686273
254	0x3c287180	0.010280967
255	0xbdeb002e	-0.11474644

nn.2.bias f4 [15]
0	0x3dc57009	0.0964051
1	0x3ba06c0a	0.0048956918
2	0x3ddbeb23	0.10738208
3	0x3d4ab117	0.049485292
4	0xbd8cc000	-0.068725586
5	0x3d3b3bc1	0.045711283
6	0x3dcdb980	0.10045147
7	0xbdfc4816	-0.12318437
8	0x3d8a9f5d	0.067686774
9	0xbd7028d9	-0.058632705
10	0x3e7ad731	0.24496152
11	0x3dc5e1ec	0.09662232
12	0x3d6c29e4	0.057657138
13	0x3dcbf98f	0.09959709
14	0x3bdb11d2	0.006685474

exp_avg f4 [64, 3]
0	0xbb2b3dc7	-0.0026129351
1	0xbc29ff07	-0.010375745
2	0xbc93d9d9	-0.018048214
3	0x3b1568f9	0.0022798164
4	0x3c18b001	0.009319306
5	0x3c6312ee	0.013859494
6	0xbb607f54	-0.003425558
7	0xbc65a82c	-0.014017146
8	0xbc8a6de5	-0.016898105
9	0x3a4d4829	0.0007830882
10	0x3b2819e2	0.0025650193
11	0x3bc0d317	0.005884539
12	0x3b37792b	0.0027995806
13	0x3c465ecb	0.012107561
14	0x3ba5a6c4	0.0050552804
15	0x3bb6cac7	0.005578372
16	0x3cb3388b	0.021877548
17	0x3cf6d3e3	0.030130332
18	0x00000000	0.0
19	0x00000000	0.0
20	0x00000000	0.0
21	0x3b17f6c0	0.0023187846
22	0x3c1726a9	0.009225526
23	0x3c432429	0.011910477
24	0x00000000	0.0
25	0x00000000	0.0
26	0x00000000	0.0
27	0x00000000	0.0
28	0x00000000	0.0
29	0x00000000	0.0
30	0x3abb1a3e	0.0014274789
31	0x3b9ecf37	0.0048464793
32	0x3cb655c5	0.022257695
33	0x3adec073	0.001699461
34	0x3be87f9c	0.0070952903
35	0x3b8d6cc0	0.0043159425
36	0xba8cc06d	-0.00107385
37	0xbb9ab80e	-0.004721648
38	0x3acc73cc	0.0015598475
39	0x00000000	0.0
40	0x00000000	0.0
41	0x00000000	0.0
42	0x3b2c3f1f	0.002628274
43	0x3c2887a7	0.010286248
44	0x3cbd7fd9	0.023132252
45	0x3b975c11	0.0046191295
46	0x3c96a3b8	0.018388614
47	0x3cb9e3ea	0.022691686
48	0x00000000	0.0
49	0x00000000	0.0
50	0x00000000	0.0
51	0xbab8f652	-0.0014111495
52	0xbba95756	-0.005167882
53	0xbc82adff	-0.015952108
54	0x3b0c3954	0.0021396475
55	0x3c03df75	0.008048882
56	0x3c7f9ed3	0.0156018315
57	0x00000000	0.0
58	0x00000000	0.0
59	0x00000000	0.0
60	0x00000000	0.0
61	0x00000000	0.0
62	0x00000000	0.0
63	0x00000000	0.0
64	0x00000000	0.0
65	0x00000000	0.0
66	0x00000000	0.0
67	0x00000000	0.0
68	0x00000000	0.0
69	0x3a854eb7	0.0010170554
70	0x3b82eee3	0.0039957627
71	0x3c4ed704	0.012624506
72	0x00000000	0.0
73	0x00000000	0.0
74	0x00000000	0.0
75	0xbaeb5e9f	-0.0017957276
76	0xbbd8e954	-0.0066196118
77	0xbc51c25a	-0.012802685
78	0xbb87355f	-0.0041262354
79	0xbc87f20f	-0.016594915
80	0xbcd4dd1b	-0.025984338
81	0x00000000	0.0
82	0x00000000	0.0
83	0x00000000	0.0
84	0x3b85453c	0.0040670913
85	0x3c82d6be	0.015971538
86	0x3d12a835	0.035804946
87	0xb9b88c4a	-0.00035199738
88	0xbad15795	-0.0015971536
89	0xbc2fabd2	-0.0107221175
90	0xbb563911	-0.0032687823
91	0xbc4be8d4	-0.012445647
92	0xbcd23b27	-0.025662972
93	0x00000000	0.0
94	0x00000000	0.0
95	0x00000000	0.0
96	0x00000000	0.0
97	0x00000000	0.0
98	0x00000000	0.0
99	0xbbef1ce2	-0.0072971443
100	0xbceebd9f	-0.029143153
101	0xbd316a5f	-0.043314334
102	0x00000000	0.0
103	0x00000000	0.0
104	0x00000000	0.0
105	0x00000000	0.0
106	0x00000000	0.0
107	0x00000000	0.0
108	0x3b305e39	0.002691163
109	0x3c2ef782	0.010679128
110	0x3c50c984	0.012743358
111	0x00000000	0.0
112	0x00000000	0.0
113	0x00000000	0.0
114	0x00000000	0.0
115	0x00000000	0.0
116	0x00000000	0.0
117	0x00000000	0.0
118	0x00000000	0.0
119	0x00000000	0.0
120	0x00000000	0.0
121	0x00000000	0.0
122	0x00000000	0.0
123	0x00000000	0.0
124	0x00000000	0.0
125	0x00000000	0.0
126	0xba8b28cf	-0.001061702
127	0xbb8473a9	-0.004042108
128	0xbc3565ca	-0.011071632
129	0xbabb59c4	-0.001429372
130	0xbbc5ff65	-0.0060424083
131	0xbbed4e4f	-0.007242001
132	0x00000004	6e-45
133	0x00000004	6e-45
134	0x00000004	6e-45
135	0x00000000	0.0
136	0x00000000	0.0
137	0x00000000	0.0
138	0x3b7327ee	0.0037102657
139	0x3c84ce61	0.01621169
140	0x3c2aaeca	0.0104176495
141	0x00000000	0.0
142	0x00000000	0.0
143	0x00000000	0.0
144	0xb98ec696	-0.0002723231
145	0xb9b4bea5	-0.00034474317
146	0xbc5ce6bd	-0.013482747
147	0x00000000	0.0
148	0x00000000	0.0
149	0x00000000	0.0
150	0x00000000	0.0
151	0x00000000	0.0
152	0x00000000	0.0
153	0x00000000	0.0
154	0x00000000	0.0
155	0x00000000	0.0
156	0x388727d2	6.444719e-05
157	0x399fb713	0.00030463244
158	0x3ab237d5	0.0013596962
159	0xb9b3a482	-0.00034264108
160	0xbae88ecf	-0.0017742756
161	0x3b152538	0.002275778
162	0x3a576f9a	0.0008218229
163	0x3b6619d2	0.0035110605
164	0x3c18f6ef	0.009336217
165	0x3a6c6a8e	0.00090185634
166	0x3b47f3ee	0.0030510384
167	0x3c829669	0.015940862
168	0x00000000	0.0
169	0x00000000	0.0
170	0x00000000	0.0
171	0xb847311f	-4.7491045e-05
172	0xba9c929e	-0.0011945551
173	0x3c0fd213	0.008778113
174	0x00000000	0.0
175	0x00000000	0.0
176	0x00000000	0.0
177	0x00000000	0.0
178	0x00000000	0.0
179	0x00000000	0.0
180	0xba30f760	-0.0006750729
181	0xbb2e17b0	-0.0026564412
182	0xbbab43d1	-0.00522659
183	0x3a23436b	0.00062280026
184	0x3b6133d7	0.0034363174
185	0xbc264bc3	-0.010149899
186	0x00000000	0.0
187	0x00000000	0.0
188	0x00000000	0.0
189	0x00000000	0.0
190	0x00000000	0.0
191	0x00000000	0.0

exp_avg_sq f4 [64, 3]
0	0x3a8d67e1	0.0010788405
1	0x3c6c0515	0.0144055085
2	0x3dad7078	0.08468717
3	0x3ab9e976	0.0014183957
4	0x3c9b0856	0.018924873
5	0x3de730ef	0.1128863
6	0x3b7e1e85	0.0038775515
7	0x3d53bd80	0.051694393
8	0x3ea15d33	0.31516418
9	0x3a2656d6	0.0006345337
10	0x3c0b57e9	0.008504846
11	0x3d4e3084	0.050339237
12	0x3c0c5241	0.008564533
13	0x3de9eab2	0.11421718
14	0x3f31b355	0.69414264
15	0x3b4de1dd	0.0031415143
16	0x3d2b6199	0.041841123
17	0x3e839a42	0.25703627
18	0x00000000	0.0
19	0x00000000	0.0
20	0x00000000	0.0
21	0x3a224d69	0.00061913446
22	0x3c07577b	0.008260603
23	0x3d49a87c	0.049232945
24	0x00000000	0.0
25	0x00000000	0.0
26	0x00000000	0.0
27	0x00000000	0.0
28	0x00000000	0.0
29	0x00000000	0.0
30	0x3bb515ef	0.0055262963
31	0x3d971477	0.0737695
32	0x3ee65bd5	0.44991937
33	0x3b6fc5a4	0.003658631
34	0x3d483f59	0.048888538
35	0x3e952f19	0.29137495
36	0x3b6cc911	0.0036130587
37	0x3d456728	0.04819408
38	0x3e952493	0.29129466
39	0x00000000	0.0
40	0x00000000	0.0
41	0x00000000	0.0
42	0x39819faf	0.0002472377
43	0x3b59673d	0.0033173107
44	0x3c9ec77a	0.019382227
45	0x3ba0a300	0.0049022436
46	0x3d863523	0.06553104
47	0x3ec620ba	0.38696843
48	0x00000000	0.0
49	0x00000000	0.0
50	0x00000000	0.0
51	0x3b86ec3a	0.004117516
52	0x3d61ba51	0.055109326
53	0x3ea4efa5	0.32214084
54	0x3b372871	0.002794769
55	0x3d193970	0.037408292
56	0x3e5b7044	0.21429545
57	0x00000000	0.0
58	0x00000000	0.0
59	0x00000000	0.0
60	0x00000000	0.0
61	0x00000000	0.0
62	0x00000000	0.0
63	0x00000000	0.0
64	0x00000000	0.0
65	0x00000000	0.0
66	0x00000000	0.0
67	0x00000000	0.0
68	0x00000000	0.0
69	0x3aa8f35a	0.0012889907
70	0x3c8d6901	0.017261984
71	0x3dd0bed1	0.10192645
72	0x00000000	0.0
73	0x00000000	0.0
74	0x00000000	0.0
75	0x3a60c5e2	0.0008574409
76	0x3c3bbe08	0.011458881
77	0x3d83be52	0.06432785
78	0x3b98c113	0.004661688
79	0x3d7ed9e1	0.062219504
80	0x3ebcebe0	0.36898708
81	0x00000000	0.0
82	0x00000000	0.0
83	0x00000000	0.0
84	0x3a8da7f2	0.0010807498
85	0x3c6d1ba6	0.014471924
86	0x3db1c0df	0.08679365
87	0x3ad74da3	0.0016426336
88	0x3cb3907b	0.02191948
89	0x3e076d49	0.13225283
90	0x3a75f853	0.00093830115
91	0x3c4e331a	0.012585426
92	0x3d94cc3f	0.07265519
93	0x00000000	0.0
94	0x00000000	0.0
95	0x00000000	0.0
96	0x00000000	0.0
97	0x00000000	0.0
98	0x00000000	0.0
99	0x3b9bb62b	0.0047519407
100	0x3d81cbc0	0.0633769
101	0x3ec82b26	0.3909542
102	0x00000000	0.0
103	0x00000000	0.0
104	0x00000000	0.0
105	0x00000000	0.0
106	0x00000000	0.0
107	0x00000000	0.0
108	0x3aeb4f1a	0.0017952651
109	0x3cc47a51	0.023984106
110	0x3e123c96	0.14280924
111	0x00000000	0.0
112	0x00000000	0.0
113	0x00000000	0.0
114	0x00000000	0.0
115	0x00000000	0.0
116	0x00000000	0.0
117	0x00000000	0.0
118	0x00000000	0.0
119	0x00000000	0.0
120	0x00000000	0.0
121	0x00000000	0.0
122	0x00000000	0.0
123	0x00000000	0.0
124	0x00000000	0.0
125	0x00000000	0.0
126	0x3a83420a	0.0010014188
127	0x3c5bbbb5	0.013411452
128	0x3d9fc7dc	0.07801792
129	0x3a58f85c	0.00082767545
130	0x3c3517f8	0.011053078
131	0x3d853135	0.06503526
132	0x16064cb3	1.0848636e-25
133	0x180bc89a	1.8066607e-24
134	0x18ba0727	4.8087095e-24
135	0x00000000	0.0
136	0x00000000	0.0
137	0x00000000	0.0
138	0x3c2e4f93	0.010639089
139	0x3e114901	0.14188005
140	0x3f5f3a26	0.871981
141	0x00000000	0.0
142	0x00000000	0.0
143	0x00000000	0.0
144	0x3b9987c4	0.004685374
145	0x3d800adf	0.062520735
146	0x3ec3de91	0.38255742
147	0x00000000	0.0
148	0x00000000	0.0
149	0x00000000	0.0
150	0x00000000	0.0
151	0x00000000	0.0
152	0x00000000	0.0
153	0x00000000	0.0
154	0x00000000	0.0
155	0x00000000	0.0
156	0x39c89e0c	0.00038264727
157	0x3ba7bdcc	0.005119061
158	0x3cf2caba	0.029637683
159	0x3afd612c	0.0019331328
160	0x3cd376ef	0.025813548
161	0x3e1e3784	0.15450865
162	0x39a607f7	0.00031667922
163	0x3b89953b	0.004198698
164	0x3cf0ca34	0.029393293
165	0x3b5d4770	0.0033764504
166	0x3d38a083	0.04507495
167	0x3e8bed25	0.27329364
168	0x00000000	0.0
169	0x00000000	0.0
170	0x00000000	0.0
171	0x3b97f0d3	0.004636863
172	0x3d7d93b1	0.061908428
173	0x3ec19380	0.37807846
174	0x00000000	0.0
175	0x00000000	0.0
176	0x00000000	0.0
177	0x00000000	0.0
178	0x00000000	0.0
179	0x00000000	0.0
180	0x39fc0a7d	0.00048073
181	0x3bd325c5	0.0064437115
182	0x3d1b9549	0.037984166
183	0x3bb64cac	0.005563339
184	0x3d980fbc	0.07424876
185	0x3ee7f98a	0.4530757
186	0x00000000	0.0
187	0x00000000	0.0
188	0x00000000	0.0
189	0x00000000	0.0
190	0x00000000	0.0
191	0x00000000	0.0

exp_avg f4 [64]
0	0xbbe23baf	-0.0069040875
1	0x3bca0ac7	0.0061658355
2	0xbc162114	-0.00916316
3	0x3aba5864	0.0014217016
4	0x3bf48722	0.007462398
5	0x3c6547cc	0.0139941685
6	0x00000000	0.0
7	0x3bb9d942	0.005671651
8	0x00000000	0.0
9	0x00000000	0.0
10	0x3b50ed88	0.003187986
11	0x3b90b9f9	0.004416701
12	0xbb37d66d	-0.0028051392
13	0x00000000	0.0
14	0x3be48bc4	0.006974669
15	0x3c3b7f80	0.011443973
16	0x00000000	0.0
17	0xbb5af14a	-0.003340798
18	0x3bb0bd7b	0.0053936816
19	0x00000000	0.0
20	0x00000000	0.0
21	0x00000000	0.0
22	0x00000000	0.0
23	0x3b2a30d9	0.0025969057
24	0x00000000	0.0
25	0xbb979d6a	-0.0046269195
26	0xbc324cc9	-0.010882565
27	0x00000000	0.0
28	0x3c2b7c0b	0.010466586
29	0xbab5513c	-0.0013833414
30	0xbc02d57d	-0.00798547
31	0x00000000	0.0
32	0x00000000	0.0
33	0xbc9cdeb6	-0.019149166
34	0x00000000	0.0
35	0x00000000	0.0
36	0x3bd9eb25	0.006650346
37	0x00000000	0.0
38	0x00000000	0.0
39	0x00000000	0.0
40	0x00000000	0.0
41	0x00000000	0.0
42	0xbb2b17ff	-0.0026106832
43	0xbb7f192a	-0.003892491
44	0x00000004	6e-45
45	0x00000000	0.0
46	0x3c2a3c47	0.010390348
47	0x00000000	0.0
48	0xb9bc4e02	-0.00035916275
49	0x00000000	0.0
50	0x00000000	0.0
51	0x00000000	0.0
52	0x3966beef	0.00022005638
53	0xba8c7d48	-0.0010718489
54	0x3ad73c97	0.0016421255
55	0x3b0d7c3b	0.002158894
56	0x00000000	0.0
57	0xba5df2da	-0.00084666687
58	0x00000000	0.0
59	0x00000000	0.0
60	0xbb0eb3e1	-0.0021774697
61	0x3ae6a3f8	0.0017596474
62	0x00000000	0.0
63	0x00000000	0.0

exp_avg_sq f4 [64]
0	0x3be51991	0.006991573
1	0x3c168e48	0.009189196
2	0x3ccde1f9	0.025132166
3	0x3b86ac23	0.0041098758
4	0x3d634d1c	0.05549346
5	0x3ca6debd	0.020369882
6	0x00000000	0.0
7	0x3b8380ca	0.0040131556
8	0x00000000	0.0
9	0x00000000	0.0
10	0x3d129adc	0.035792217
11	0x3cc23241	0.023705604
12	0x3cbfc47a	0.023409117
13	0x00000000	0.0
14	0x3ad1b16e	0.0015998313
15	0x3d0228b7	0.03177711
16	0x00000000	0.0
17	0x3cda8478	0.026674494
18	0x3c944e9a	0.018103886
19	0x00000000	0.0
20	0x00000000	0.0
21	0x00000000	0.0
22	0x00000000	0.0
23	0x3c08d373	0.008351195
24	0x00000000	0.0
25	0x3bb5bb9c	0.0055460464
26	0x3cf78d6d	0.030218804
27	0x00000000	0.0
28	0x3be54838	0.0069971345
29	0x3c2e5ab9	0.010641747
30	0x3bc71ada	0.006076199
31	0x00000000	0.0
32	0x00000000	0.0
33	0x3cfc89e3	0.030827468
34	0x00000000	0.0
35	0x00000000	0.0
36	0x3c3ea69c	0.011636402
37	0x00000000	0.0
38	0x00000000	0.0
39	0x00000000	0.0
40	0x00000000	0.0
41	0x00000000	0.0
42	0x3bd4851c	0.0064855944
43	0x3bafbe0b	0.005363231
44	0x176a0174	7.561131e-25
45	0x00000000	0.0
46	0x3d8d31a7	0.06894236
47	0x00000000	0.0
48	0x3cf8a254	0.030350842
49	0x00000000	0.0
50	0x00000000	0.0
51	0x00000000	0.0
52	0x3b227ad1	0.0024792443
53	0x3c4d3d63	0.012526843
54	0x3b068418	0.0020525511
55	0x3cb32ad1	0.021871002
56	0x00000000	0.0
57	0x3cf624d1	0.030046852
58	0x00000000	0.0
59	0x00000000	0.0
60	0x3b4c0435	0.0031130437
61	0x3d13a37c	0.036044583
62	0x00000000	0.0
63	0x00000000	0.0

exp_avg f4 [15, 64]
0	0xb774d81b	-1.4593849e-05
1	0xb78808b8	-1.6216523e-05
2	0xb8823c3f	-6.210105e-05
3	0xb7d600e9	-2.5511212e-05
4	0xb7e7cdc6	-2.7633167e-05
5	0xb7d95192	-2.59064e-05
6	0x00000000	0.0
7	0xb801d025	-3.0949846e-05
8	0x00000000	0.0
9	0x00000000	0.0
10	0xb85112cd	-4.9846993e-05
11	0xb828ed27	-4.0275187e-05
12	0xb7933e2f	-1.7552722e-05
13	0x00000000	0.0
14	0xb83f2173	-4.55691e-05
15	0xb71608f3	-8.94278e-06
16	0x00000000	0.0
17	0xb81fffa1	-3.8146627e-05
18	0xb81de0e9	-3.764118e-05
19	0x00000000	0.0
20	0x00000000	0.0
21	0x00000000	0.0
22	0x00000000	0.0
23	0xb81351e0	-3.5123783e-05
24	0x00000000	0.0
25	0xb76b89a3	-1.4039138e-05
26	0xb6948c58	-4.427082e-06
27	0x00000000	0.0
28	0xb7960747	-1.7884782e-05
29	0xb77e0ea0	-1.5142985e-05
30	0xb7f685b0	-2.9387738e-05
31	0x00000000	0.0
32	0x00000000	0.0
33	0xb7403bee	-1.1458045e-05
34	0x00000000	0.0
35	0x00000000	0.0
36	0xb813a670	-3.5202538e-05
37	0x00000000	0.0
38	0x00000000	0.0
39	0x00000000	0.0
40	0x00000000	0.0
41	0x00000000	0.0
42	0xb8072094	-3.221685e-05
43	0xb809b0be	-3.282795e-05
44	0x00000004	6e-45
45	0x00000000	0.0
46	0xb7495abe	-1.2001661e-05
47	0x00000000	0.0
48	0xb7dd6d67	-2.6396197e-05
49	0x00000000	0.0
50	0x00000000	0.0
51	0x00000000	0.0
52	0xb7836839	-1.566495e-05
53	0xb7ae281a	-2.076109e-05
54	0xb6dfd6ca	-6.6709226e-06
55	0xb83e525f	-4.5376244e-05
56	0x00000000	0.0
57	0xb7561e25	-1.2762413e-05
58	0x00000000	0.0
59	0x00000000	0.0
60	0xb7a3a592	-1.9508214e-05
61	0xb7fa7b5d	-2.9859768e-05
62	0x00000000	0.0
63	0x00000000	0.0
64	0x376242f5	1.3486239e-05
65	0x378306a3	1.5619507e-05
66	0x38808081	6.127451e-05
67	0x37d2598f	2.5075655e-05
68	0x37e39f40	2.7134665e-05
69	0x37d3c3ee	2.5244397e-05
70	0x00000000	0.0
71	0x380110c9	3.077163e-05
72	0x00000000	0.0
73	0x00000000	0.0
74	0x384d1700	4.889723e-05
75	0x382668e6	3.967518e-05
76	0x378ddabd	1.6910368e-05
77	0x00000000	0.0
78	0x383b2626	4.4619803e-05
79	0x37177160	9.0266985e-06
80	0x00000000	0.0
81	0x381f683d	3.8005634e-05
82	0x38195906	3.6560952e-05
83	0x00000000	0.0
84	0x00000000	0.0
85	0x00000000	0.0
86	0x00000000	0.0
87	0x38102150	3.43633e-05
88	0x00000000	0.0
89	0x3775f90b	1.4661123e-05
90	0x3667b0f2	3.4524678e-06
91	0x00000000	0.0
92	0x3795ff46	1.7881055e-05
93	0x377fbc9d	1.5243099e-05
94	0x37f3eca0	2.9078044e-05
95	0x00000000	0.0
96	0x00000000	0.0
97	0x37447965	1.1710775e-05
98	0x00000000	0.0
99	0x00000000	0.0
100	0x38158f8b	3.5658053e-05
101	0x00000000	0.0
102	0x00000000	0.0
103	0x00000000	0.0
104	0x00000000	0.0
105	0x00000000	0.0
106	0x3806ff1f	3.218569e-05
107	0x3806bb83	3.2122723e-05
108	0x80000004	-6e-45
109	0x00000000	0.0
110	0x374babd2	1.2139748e-05
111	0x00000000	0.0
112	0x37db2694	2.6124799e-05
113	0x00000000	0.0
114	0x00000000	0.0
115	0x00000000	0.0
116	0x377f223d	1.5207156e-05
117	0x37ab9e93	2.045863e-05
118	0x36ead120	6.998089e-06
119	0x383c59fd	4.49065e-05
120	0x00000000	0.0
121	0x37490ede	1.1983995e-05
122	0x00000000	0.0
123	0x00000000	0.0
124	0x37a114db	1.9202407e-05
125	0x37f88aa0	2.9628456e-05
126	0x00000000	0.0
127	0x00000000	0.0
128	0x399b9024	0.00029671297
129	0x3967a161	0.00022089995
130	0x3a401288	0.000732698
131	0x39ae64b0	0.00033262884
132	0x39ad9762	0.0003310992
133	0x39bcd5f9	0.00036017576
134	0x00000000	0.0
135	0x39a8182d	0.0003206147
136	0x00000000	0.0
137	0x00000000	0.0
138	0x3a18aaf9	0.0005823817
139	0x39f40507	0.00046543052
140	0x398c2451	0.0002672994
141	0x00000000	0.0
142	0x3a179e55	0.0005783786
143	0x38c5456c	9.406623e-05
144	0x00000000	0.0
145	0x39c7a15d	0.00038076463
146	0x3a0633a7	0.0005119391
147	0x00000000	0.0
148	0x00000000	0.0
149	0x00000000	0.0
150	0x00000000	0.0
151	0x39f23ec3	0.00046204598
152	0x00000000	0.0
153	0x385056e6	4.9671995e-05
154	0x393f663e	0.00018253268
155	0x00000000	0.0
156	0x39262f38	0.00015848584
157	0x3910ef70	0.00013822108
158	0x39a827e9	0.00032073192
159	0x00000000	0.0
160	0x00000000	0.0
161	0x38a0a6dc	7.6604745e-05
162	0x00000000	0.0
163	0x00000000	0.0
164	0x399533f2	0.00028458197
165	0x00000000	0.0
166	0x00000000	0.0
167	0x00000000	0.0
168	0x00000000	0.0
169	0x00000000	0.0
170	0x39a165d5	0.00030784184
171	0x39e34399	0.00043347178
172	0x80000004	-6e-45
173	0x00000000	0.0
174	0x38c3dd98	9.3396e-05
175	0x00000000	0.0
176	0x399d7228	0.00030030427
177	0x00000000	0.0
178	0x00000000	0.0
179	0x00000000	0.0
180	0x395ad665	0.00020869968
181	0x398ae68b	0.0002649318
182	0x3719679e	9.143636e-06
183	0x3a01d6b7	0.00049529545
184	0x00000000	0.0
185	0x3978dc79	0.00023733256
186	0x00000000	0.0
187	0x00000000	0.0
188	0x397c9aca	0.00024090256
189	0x39b24e45	0.0003400912
190	0x00000000	0.0
191	0x00000000	0.0
192	0xb9892775	-0.00026160074
193	0xb9420d63	-0.00018506269
194	0xba2192a9	-0.00061635167
195	0xb996385c	-0.0002865222
196	0xb98ffeb2	-0.00027464848
197	0xb9a270c4	-0.00030983065
198	0x00000000	0.0
199	0xb98a0985	-0.00026328504
200	0x00000000	0.0
201	0x00000000	0.0
202	0xb9fc2566	-0.0004809305
203	0xb9cb01e4	-0.00038720586
204	0xb9719d48	-0.00023042143
205	0x00000000	0.0
206	0xb9fe1bec	-0.0004846746
207	0xb8a4c5fd	-7.8570076e-05
208	0x00000000	0.0
209	0xb9a3491e	-0.0003114426
210	0xb9e470c0	-0.00043571554
211	0x00000000	0.0
212	0x00000000	0.0
213	0x00000000	0.0
214	0x00000000	0.0
215	0xb9d0bc32	-0.00039813068
216	0x00000000	0.0
217	0xb808217b	-3.2456108e-05
218	0xb92f9270	-0.00016743853
219	0x00000000	0.0
220	0xb8fcada2	-0.00012048638
221	0xb8f4ebc5	-0.00011678742
222	0xb98984bb	-0.00026229568
223	0x00000000	0.0
224	0x00000000	0.0
225	0xb883f0b6	-6.291403e-05
226	0x00000000	0.0
227	0x00000000	0.0
228	0xb96bad85	-0.00022475987
229	0x00000000	0.0
230	0x00000000	0.0
231	0x00000000	0.0
232	0x00000000	0.0
233	0x00000000	0.0
234	0xb983193b	-0.00025005065
235	0xb9c3591d	-0.00037259693
236	0x80000004	-6e-45
237	0x00000000	0.0
238	0xb89049a0	-6.880169e-05
239	0x00000000	0.0
240	0xb9847b4c	-0.00025268865
241	0x00000000	0.0
242	0x00000000	0.0
243	0x00000000	0.0
244	0xb935ad7d	-0.00017326135
245	0xb96cf812	-0.00022599127
246	0xb50823ec	-5.071622e-07
247	0xb9d65f56	-0.00040888292
248	0x00000000	0.0
249	0xb95cff70	-0.00021075993
250	0x00000000	0.0
251	0x00000000	0.0
252	0xb9563b5c	-0.00020430743
253	0xb9959735	-0.00028532153
254	0x00000000	0.0
255	0x00000000	0.0

exp_avg_sq f4 [15, 64]
0	0x31ef8428	6.97084e-09
1	0x31b951f0	5.393524e-09
2	0x339c8a61	7.289487e-08
3	0x326fb114	1.3951894e-08
4	0x326cfd2c	1.3794573e-08
5	0x327f4ecc	1.486087e-08
6	0x00000000	0.0
7	0x328990d6	1.6014763e-08
8	0x00000000	0.0
9	0x00000000	0.0
10	0x333f59d7	4.4552362e-08
11	0x32fd4339	2.9483646e-08
12	0x31f96277	7.258048e-09
13	0x00000000	0.0
14	0x3329d7c0	3.9544602e-08
15	0x30b36061	1.3051357e-09
16	0x00000000	0.0
17	0x32cd2ed5	2.3886438e-08
18	0x3301d4c6	3.022867e-08
19	0x00000000	0.0
20	0x00000000	0.0
21	0x00000000	0.0
22	0x00000000	0.0
23	0x32e94161	2.71545e-08
24	0x00000000	0.0
25	0x310e166b	2.0676463e-09
26	0x30eed3ed	1.7377012e-09
27	0x00000000	0.0
28	0x3189e1b2	4.0128834e-09
29	0x318dba3c	4.1248125e-09
30	0x32765f31	1.4340729e-08
31	0x00000000	0.0
32	0x00000000	0.0
33	0x310e53b2	2.0711295e-09
34	0x00000000	0.0
35	0x00000000	0.0
36	0x32939c1f	1.7184048e-08
37	0x00000000	0.0
38	0x00000000	0.0
39	0x00000000	0.0
40	0x00000000	0.0
41	0x00000000	0.0
42	0x328dc906	1.6505975e-08
43	0x32c8dd74	2.338377e-08
44	0x0ef6345e	6.069411e-30
45	0x00000000	0.0
46	0x30dc751a	1.6040389e-09
47	0x00000000	0.0
48	0x32604c71	1.3055897e-08
49	0x00000000	0.0
50	0x00000000	0.0
51	0x00000000	0.0
52	0x319e4d60	4.6072017e-09
53	0x3215087f	8.674873e-09
54	0x2fb8608e	3.353801e-10
55	0x33194764	3.5688018e-08
56	0x00000000	0.0
57	0x31b270f1	5.1933218e-09
58	0x00000000	0.0
59	0x00000000	0.0
60	0x32016148	7.5309075e-09
61	0x328b4358	1.6212354e-08
62	0x00000000	0.0
63	0x00000000	0.0
64	0x32089781	7.95069e-09
65	0x31d3a051	6.159134e-09
66	0x33b2cba3	8.325812e-08
67	0x3288dd66	1.5933164e-08
68	0x32875431	1.5754354e-08
69	0x3291c3b3	1.6969215e-08
70	0x00000000	0.0
71	0x329d2117	1.8292253e-08
72	0x00000000	0.0
73	0x00000000	0.0
74	0x335a8ccb	5.088513e-08
75	0x3310a24e	3.3675228e-08
76	0x320e5a97	8.286086e-09
77	0x00000000	0.0
78	0x3341f563	4.5159492e-08
79	0x30ccd0b0	1.4902266e-09
80	0x00000000	0.0
81	0x32ea5ecf	2.72843e-08
82	0x331442f3	3.4519825e-08
83	0x00000000	0.0
84	0x00000000	0.0
85	0x00000000	0.0
86	0x00000000	0.0
87	0x3305322d	3.101211e-08
88	0x00000000	0.0
89	0x31221932	2.3588425e-09
90	0x3107afad	1.9744946e-09
91	0x00000000	0.0
92	0x319d62c6	4.5805306e-09
93	0x31a1efe4	4.712989e-09
94	0x328cb0be	1.6378518e-08
95	0x00000000	0.0
96	0x00000000	0.0
97	0x3122a30a	2.366678e-09
98	0x00000000	0.0
99	0x00000000	0.0
100	0x32a891b6	1.9624036e-08
101	0x00000000	0.0
102	0x00000000	0.0
103	0x00000000	0.0
104	0x00000000	0.0
105	0x00000000	0.0
106	0x32a1f3c9	1.8853727e-08
107	0x32e564ab	2.6704887e-08
108	0x151cf80d	3.1699627e-26
109	0x00000000	0.0
110	0x30fb8498	1.8300339e-09
111	0x00000000	0.0
112	0x328019fe	1.4912981e-08
113	0x00000000	0.0
114	0x00000000	0.0
115	0x00000000	0.0
116	0x31b4c285	5.260804e-09
117	0x322a3160	9.906529e-09
118	0x2fd0b749	3.7965212e-10
119	0x332f136b	4.0763023e-08
120	0x00000000	0.0
121	0x31cb9823	5.9253735e-09
122	0x00000000	0.0
123	0x00000000	0.0
124	0x3213c343	8.6009235e-09
125	0x329f0f19	1.8516902e-08
126	0x00000000	0.0
127	0x00000000	0.0
128	0x34e6b8cf	4.2975304e-07
129	0x34acbfca	3.2177041e-07
130	0x3693698f	4.39323e-06
131	0x35639021	8.4773825e-07
132	0x355d3779	8.240964e-07
133	0x35715bb0	8.991292e-07
134	0x00000000	0.0
135	0x3581961a	9.654934e-07
136	0x00000000	0.0
137	0x00000000	0.0
138	0x3632ca13	2.664169e-06
139	0x35ed9579	1.7701378e-06
140	0x34eb4a03	4.3826012e-07
141	0x00000000	0.0
142	0x361ea4ca	2.3639755e-06
143	0x33aa2d3f	7.924472e-08
144	0x00000000	0.0
145	0x35c1c1d6	1.4436034e-06
146	0x35f41207	1.8184663e-06
147	0x00000000	0.0
148	0x00000000	0.0
149	0x00000000	0.0
150	0x00000000	0.0
151	0x35dd8a53	1.6506041e-06
152	0x00000000	0.0
153	0x3413b993	1.3757953e-07
154	0x33ff0c97	1.1876653e-07
155	0x00000000	0.0
156	0x3481dcc1	2.4188742e-07
157	0x3488feb6	2.55173e-07
158	0x35666a36	8.5836234e-07
159	0x00000000	0.0
160	0x00000000	0.0
161	0x340cb137	1.3102986e-07
162	0x00000000	0.0
163	0x00000000	0.0
164	0x358d3ee5	1.0523623e-06
165	0x00000000	0.0
166	0x00000000	0.0
167	0x00000000	0.0
168	0x00000000	0.0
169	0x00000000	0.0
170	0x35862e82	9.997314e-07
171	0x35be5a59	1.4182398e-06
172	0x1206c95d	4.2531144e-28
173	0x00000000	0.0
174	0x33d2f6b0	9.823759e-08
175	0x00000000	0.0
176	0x3553ec38	7.894737e-07
177	0x00000000	0.0
178	0x00000000	0.0
179	0x00000000	0.0
180	0x3492991c	2.730602e-07
181	0x350cade7	5.2407125e-07
182	0x32df0679	2.596356e-08
183	0x360ffeb1	2.145691e-06
184	0x00000000	0.0
185	0x34acd647	3.2193404e-07
186	0x00000000	0.0
187	0x00000000	0.0
188	0x34f3fab8	4.54447e-07
189	0x3583461a	9.780663e-07
190	0x00000000	0.0
191	0x00000000	0.0
192	0x34ceee33	3.8543803e-07
193	0x349b2af6	2.8902258e-07
194	0x36845ea2	3.9449233e-06
195	0x354c20a8	7.6043443e-07
196	0x3546cef8	7.4061927e-07
197	0x35589ac3	8.069148e-07
198	0x00000000	0.0
199	0x3568dc41	8.6747247e-07
200	0x00000000	0.0
201	0x00000000	0.0
202	0x3620a939	2.3940358e-06
203	0x35d56f3c	1.590211e-06
204	0x34d335f9	3.9341083e-07
205	0x00000000	0.0
206	0x360e8ca7	2.124152e-06
207	0x3398e4b5	7.119653e-08
208	0x00000000	0.0
209	0x35ae1278	1.2969385e-06
210	0x35db2213	1.6326688e-06
211	0x00000000	0.0
212	0x00000000	0.0
213	0x00000000	0.0
214	0x00000000	0.0
215	0x35c6b071	1.4803501e-06
216	0x00000000	0.0
217	0x34047d64	1.2339075e-07
218	0x33e44eaa	1.0631386e-07
219	0x00000000	0.0
220	0x3469bf36	2.1769378e-07
221	0x34754fdd	2.2846457e-07
222	0x354f22ae	7.7163975e-07
223	0x00000000	0.0
224	0x00000000	0.0
225	0x33fb90ef	1.17144616e-07
226	0x00000000	0.0
227	0x00000000	0.0
228	0x357dedc0	9.4595816e-07
229	0x00000000	0.0
230	0x00000000	0.0
231	0x00000000	0.0
232	0x00000000	0.0
233	0x00000000	0.0
234	0x35711d78	8.982238e-07
235	0x35aac52c	1.2723372e-06
236	0x141097c4	7.3000726e-27
237	0x00000000	0.0
238	0x33bdfdb3	8.847146e-08
239	0x00000000	0.0
240	0x353e3cc1	7.0868924e-07
241	0x00000000	0.0
242	0x00000000	0.0
243	0x00000000	0.0
244	0x3483c526	2.4544096e-07
245	0x34fc962b	4.704792e-07
246	0x32c8df43	2.3384592e-08
247	0x36015fda	1.927829e-06
248	0x00000000	0.0
249	0x349adf58	2.884724e-07
250	0x00000000	0.0
251	0x00000000	0.0
252	0x34db083c	4.079792e-07
253	0x356bc8fd	8.78368e-07
254	0x00000000	0.0
255	0x00000000	0.0

exp_avg f4 [15]
0	0xb7b3cca6	-2.143376e-05
1	0x37ac6811	2.0552457e-05
2	0x39a95603	0.00032298276
3	0xb9938f42	-0.0002814476
4	0xb51a1098	-5.739362e-07
5	0x37b596d6	2.164712e-05
6	0xbd03af82	-0.0321498
7	0xba6ec19a	-0.00091078284
8	0x3c814392	0.01577929
9	0xbc8673c5	-0.016412625
10	0xbb58adfc	-0.0033062687
11	0x3d54b048	0.051925927
12	0xbd22e923	-0.039773118
13	0xbac3f19d	-0.0014949326
14	0x3ce191f2	0.027535412

exp_avg_sq f4 [15]
0	0x324af901	1.1814564e-08
1	0x3267bfcd	1.348958e-08
2	0x3541ba17	7.21689e-07
3	0x352daacf	6.469608e-07
4	0x3008fca5	4.983554e-10
5	0x3253cbc1	1.2328145e-08
6	0x40043f77	2.0663736
7	0x3d21aa4b	0.039469045
8	0x3dc1bb5d	0.09459565
9	0x3dcfd887	0.10148721
10	0x3d851d91	0.0649978
11	0x3e448be6	0.19193992
12	0x3e6ef594	0.23335868
13	0x3d891976	0.066943094
14	0x3dfa2c54	0.12215486
