Op_problems/problem_ED_Column/checkpoints/pinn_checkpoint_epoch_200_loss_0.069102.pth (torch, 21427 bytes, 12 tensors)

nn.0.weight f4 [64, 3]
0	0x3ee05054	0.43811285
1	0x3f0573c2	0.5212976
2	0xbe17ade7	-0.14812432
3	0x3ee41d78	0.44553733
4	0xbe35f12a	-0.17767778
5	0x3dc209e4	0.09474543
6	0xbe2c4bd2	-0.16825798
7	0x3ecccc78	0.39999747
8	0x3f0db13e	0.55348575
9	0xbe932433	-0.28738555
10	0x3f10b1f5	0.5652154
11	0x3e0eb148	0.13934815
12	0x3eac3b5a	0.33639032
13	0x3d889cc9	0.066705294
14	0x3e872ef4	0.2640301
15	0xbd0af23d	-0.033922423
16	0x3f0d1de3	0.5512373
17	0x3dd92d88	0.106043875
18	0xbe89ffdb	-0.26953015
19	0x3e16b295	0.14716561
20	0xbe8831fe	-0.2660064
21	0xbd972973	-0.07380953
22	0xbe2c5a65	-0.16831358
23	0x3ec30c76	0.38095444
24	0xbee95728	-0.45574307
25	0xbe8846b5	-0.26616445
26	0xbe26f11c	-0.16302913
27	0xbeb1bcf7	-0.3471448
28	0x3d5f3321	0.05449212
29	0xbf11fb0a	-0.5702368
30	0x3f244379	0.64165455
31	0xbed3e1fb	-0.41383347
32	0x3efd3ab4	0.4945885
33	0x3e1753d6	0.14778075
34	0xbd9e0287	-0.07715326
35	0x3ecab89a	0.39593965
36	0x3e1b543d	0.15168853
37	0x3edfb878	0.43695426
38	0x3ce0cf00	0.027442455
39	0xbe3a7363	-0.18208079
40	0x3e1ed8fb	0.15512459
41	0xbe2052b6	-0.15656552
42	0x3ead2778	0.33819175
43	0x3f08f888	0.5350423
44	0x3eb9a914	0.3626181
45	0xbe60b81a	-0.21945229
46	0x3ec112f5	0.37709776
47	0x3de32587	0.11091142
48	0x3e961e23	0.29319867
49	0xbeb42bf6	-0.3518979
50	0xbf124f64	-0.5715239
51	0xbe1a31bc	-0.15058035
52	0xbeb9d418	-0.36294627
53	0x3f007b33	0.5018799
54	0x3e9b462d	0.30326977
55	0x3e8819ad	0.2658209
56	0x3e43fdde	0.19139811
57	0xbc248dc9	-0.01004357
58	0x3ee75774	0.4518391
59	0xbed207ba	-0.4102152
60	0x3d14e5f7	0.036352124
61	0xbec9c2db	-0.39406475
62	0x3e364cbd	0.17802711
63	0xbe4b99e2	-0.1988292
64	0x3e3527c5	0.17690952
65	0xbdf65883	-0.12028601
66	0x3ef52bc6	0.4788496
67	0xbeaf3465	-0.3421966
68	0xbeb04c18	-0.34433055
69	0xbeb4775f	-0.35247323
70	0x3ecb2c81	0.3968239
71	0x3e289b42	0.16465476
72	0x3f0e38e6	0.5555557
73	0xbef3f454	-0.47647345
74	0xbf1299d7	-0.5726599
75	0xbf03b912	-0.5145427
76	0xbed0326a	-0.40663463
77	0x3eb76726	0.35820884
78	0x3eb7b7df	0.3588247
79	0x3f0e8c27	0.55682606
80	0xbe8456b0	-0.25847387
81	0xbec9842b	-0.3935865
82	0x3e9cd736	0.30632943
83	0xbe6ef7e8	-0.23336756
84	0x3eb5b7ee	0.3549189
85	0xbe69bab5	-0.2282513
86	0x3ea45850	0.32098627
87	0xbee7e7b3	-0.4529396
88	0xbe59e774	-0.21279699
89	0x3e4335b4	0.19063455
90	0x3e5d0bba	0.21586505
91	0xbd493c93	-0.049130034
92	0x3eb86d20	0.36020756
93	0x3ec8f431	0.39248803
94	0xbed65d19	-0.41867903
95	0xbe9dd02f	-0.30822894
96	0x3f07561c	0.5286577
97	0xbe477e0a	-0.19481674
98	0xbe5197ab	-0.20468013
99	0xbefd9b2c	-0.4953245
100	0xbebb6e4d	-0.3660759
101	0x3e45c945	0.1931506
102	0xbd9c120c	-0.0762063
103	0xbed69306	-0.41909045
104	0x3c5de251	0.013542728
105	0xbec9ebd2	-0.3943773
106	0xbefac9f4	-0.48982203
107	0xbea2c718	-0.3179252
108	0xbeee2c03	-0.46517953
109	0xbe836ac0	-0.2566738
110	0x3f1ec93e	0.6202582
111	0x3ddf540a	0.10904701
112	0x3e362fa3	0.1779161
113	0xbf09da30	-0.5384855
114	0xbec22500	-0.37918854
115	0xbe44c95d	-0.19217439
116	0x3db8e532	0.090280905
117	0xbf020dc8	-0.5080228
118	0xbe7ebc2a	-0.24876466
119	0xbeb0f7eb	-0.34564146
120	0x3ad1b6a5	0.0015999867
121	0xbe5bfd6a	-0.21483389
122	0xbd23df5a	-0.040007927
123	0xbec84f42	-0.3912297
124	0xbecae694	-0.39629042
125	0xbeac749d	-0.3368272
126	0xbe5b001f	-0.21386765
127	0xbecc7eeb	-0.3994058
128	0x3ee99618	0.45622325
129	0xbdc7b9d6	-0.09752242
130	0x3ee6874f	0.45025107
131	0x3e2e963c	0.17049497
132	0xbefe3bef	-0.496551
133	0x3ec89852	0.3917871
134	0xbe2a8bd9	-0.1665491
135	0xbe629ffb	-0.2213134
136	0xbef55f21	-0.4792414
137	0xbf12f048	-0.5739789
138	0x3e27fbb4	0.16404611
139	0xbd806caf	-0.0627073
140	0x3e822db1	0.25425485
141	0xbef29742	-0.47381026
142	0x3edb76eb	0.42864165
143	0xbed8fd1d	-0.4238061
144	0xbe52dfad	-0.20593138
145	0x3da3467e	0.0797243
146	0x3e81b688	0.25334573
147	0x3eeea4c5	0.46610084
148	0x3f06a42c	0.52594256
149	0xbeea63f3	-0.4577938
150	0x3e14c991	0.14530016
151	0xbe7e4b18	-0.24833333
152	0xbd819315	-0.06326882
153	0xbedd4194	-0.43214095
154	0x3f06a05d	0.52588445
155	0xbed8f54d	-0.4237465
156	0x3eb0c2ba	0.34523565
157	0x3e11f584	0.14253813
158	0x3dfc72df	0.123265974
159	0xbe4681e0	-0.19385481
160	0x3f0b7656	0.5447744
161	0x3e1180b5	0.14209254
162	0x3dd0b003	0.101898216
163	0xbf04f5e7	-0.5193772
164	0x3eaa36ec	0.33245027
165	0x3cc82011	0.024429353
166	0xbe4b789e	-0.1987023
167	0x3f02564c	0.5091293
168	0x3e03cf0e	0.12871954
169	0xbea38ce4	-0.3194343
170	0xbe959dc9	-0.29221943
171	0x3dd67f48	0.10473496
172	0x3eb96c44	0.36215413
173	0xbdd10140	-0.102053165
174	0xbea8a9f1	-0.32942155
175	0xbe4a745b	-0.19770949
176	0xbedcd67b	-0.43132386
177	0x3e52d7ef	0.20590185
178	0x3ee4cf12	0.44689232
179	0xbf0b257e	-0.54354084
180	0x3db7e257	0.08978718
181	0x3e8311e6	0.25599593
182	0x3e10c096	0.14135966
183	0xbe6ff4f5	-0.23433287
184	0x3ec2edfe	0.380722
185	0x3e98b977	0.29828998
186	0x3e5d117a	0.21588698
187	0xbdcfc67c	-0.1014528
188	0xbe1c8d62	-0.15288308
189	0x3d7cfdc8	0.061765462
190	0xbdd0e0cf	-0.10199129
191	0xbe302e22	-0.17205098

nn.0.bias f4 [64]
0	0x3eaea333	0.34108886
1	0x3edc352a	0.4300931
2	0x3d559f73	0.052154016
3	0xbd8d4e4c	-0.068996996
4	0xbd8f1bb0	-0.06987703
5	0xbcd5dfe6	-0.02610774
6	0x3e0e21fc	0.13880152
7	0x3de11ae4	0.10991457
8	0xbf063deb	-0.5243823
9	0xbe5a2d76	-0.21306404
10	0x3f10e950	0.56606007
11	0x3e7cb2f2	0.24677637
12	0xbc6d390e	-0.014478935
13	0xbeb23890	-0.3480878
14	0xbeb53b8f	-0.35397002
15	0xbf05e48f	-0.5230188
16	0xbe40b60e	-0.18819448
17	0x3e88fd69	0.26755837
18	0x3edc52ca	0.43031913
19	0x3e887ab2	0.2665611
20	0xbf02a5fe	-0.51034534
21	0xbeb1c3c7	-0.3471968
22	0xbdba9ac1	-0.09111548
23	0x3f031e55	0.5121816
24	0x3dab0b82	0.08351804
25	0xbd4e37ce	-0.05034619
26	0x3ea78955	0.32721964
27	0xbe612e01	-0.21990205
28	0xbebcef7e	-0.36901468
29	0x3ee32c77	0.4436986
30	0xbe1d7562	-0.15376809
31	0xbded08d9	-0.11573953
32	0xbf1308a2	-0.5743505
33	0x3efd4e4b	0.49473795
34	0x3edff596	0.43742055
35	0x3e5776d6	0.21041426
36	0xbec5326e	-0.38515037
37	0xbf11df12	-0.56981003
38	0xbef01533	-0.46891174
39	0x3edc6e75	0.43053022
40	0x3e8debbe	0.2771892
41	0x3ef8c064	0.48584282
42	0x3e7d4f22	0.24737218
43	0x3e700799	0.23440398
44	0xbc5b6e12	-0.013392942
45	0xbee0cee1	-0.43907836
46	0xbefeebbf	-0.49789235
47	0xbf0a3eff	-0.54002374
48	0x3e19700b	0.14984147
49	0xbe9121bc	-0.2834605
50	0xbdedf6b7	-0.11619323
51	0xbeaa1f0c	-0.33226812
52	0xbdf06b63	-0.117392324
53	0xbeb4c647	-0.35307524
54	0xbe97da29	-0.2965863
55	0x3e6eedde	0.23332927
56	0xbe2fb459	-0.17158641
57	0x3eeaa89b	0.4583176
58	0xbe3daa0e	-0.18521902
59	0xbed8d84d	-0.42352524
60	0xbd40cd70	-0.04707092
61	0xbea62aed	-0.32454625
62	0xbe34dfec	-0.17663544
63	0xbf0cb4e0	-0.54963493

nn.2.weight f4 [15, 64]
0	0x3d1ebcf4	0.03875442
1	0xbdd5504c	-0.10415706
2	0x3d84d717	0.06486338
3	0x3d74b2a1	0.059740666
4	0x3da416b8	0.08012146
5	0xbdd06759	-0.10175962
6	0x3db81d48	0.0898996
7	0xbd5498c1	-0.05190349
8	0x3d3dfcc8	0.04638365
9	0x3df069d2	0.117389336
10	0xbcc75baf	-0.02433571
11	0xba8f291b	-0.0010922285
12	0xbd26c4cc	-0.040715024
13	0xbdd5c18c	-0.10437307
14	0x3d53b17b	0.05168293
15	0xbddce579	-0.10785956
16	0x3d9eecbe	0.07759999
17	0x3dd73de1	0.10509849
18	0x3de170d7	0.110078506
19	0xbcf18a68	-0.029484943
20	0xbdd25720	-0.10270524
21	0x3ce639e8	0.028103784
22	0x3d8d6be0	0.06905341
23	0xbdf602f4	-0.12012282
24	0xbce86e68	-0.028372958
25	0x3c50b4c3	0.012738409
26	0xbdb982a9	-0.090581246
27	0xbd7c0368	-0.061526686
28	0xbd804e95	-0.06264988
29	0xbb85b5c8	-0.004080508
30	0xbdf5b6b4	-0.119977385
31	0x3dd20cc8	0.10256344
32	0x3dd69ce0	0.1047914
33	0x3d35507d	0.044266213
34	0xbc693b00	-0.014235258
35	0xbd50f518	-0.05101499
36	0xbdb72036	-0.089416906
37	0xbdf91ffe	-0.12164305
38	0x3d3e4a04	0.046457306
39	0xbd8c8e4a	-0.06863077
40	0xbda49396	-0.08035962
41	0xbc1fcaa0	-0.009752899
42	0xbce57ddc	-0.028014116
43	0xbd2cbf01	-0.042174343
44	0xbabe0477	-0.001449718
45	0xbcd93400	-0.026514053
46	0xbd35783f	-0.04430413
47	0xbd75260c	-0.059850737
48	0xbdc40468	-0.09571153
49	0x3dd6a868	0.1048134
50	0xbd4ce554	-0.05002339
51	0x3d07ab64	0.033122435
52	0xbd6f1391	-0.05836827
53	0x3c404fd6	0.011737784
54	0xbb12ba3d	-0.0022388839
55	0x3d7e04db	0.06201635
56	0xbdddd97a	-0.10832496
57	0x3caa0a8d	0.020756984
58	0x3df30194	0.118655354
59	0x3d06b2dc	0.032885417
60	0x3d9806aa	0.07423146
61	0x3e03953a	0.12849894
62	0xbc9ce810	-0.019153625
63	0x3cd48928	0.025944307
64	0x3cff8e82	0.031195883
65	0x3cf1da9a	0.029523183
66	0x3e215fd9	0.15759219
67	0x3e1d3052	0.15350464
68	0xbcc08503	-0.023500925
69	0xbc188ea1	-0.009311349
70	0xbdaef0ec	-0.08542046
71	0xbda2f372	-0.0795659
72	0xbdc58a22	-0.09645487
73	0xbcfd3b88	-0.030912176
74	0x3e0bcf1c	0.13653225
75	0x3d9eaabf	0.07747411
76	0xbc1d457f	-0.009599089
77	0xbdcd5e8c	-0.10027799
78	0x3e091bd7	0.13389526
79	0xbc0af97c	-0.008482333
80	0xbc7c2a40	-0.015390933
81	0x3dc58850	0.0964514
82	0x3c854e79	0.01627277
83	0xbc5f5050	-0.013629988
84	0xbc324460	-0.01088056
85	0xbcf242e8	-0.029572919
86	0xbd81ccdc	-0.06337902
87	0xbd2c154a	-0.04201249
88	0xbdcef07c	-0.101044625
89	0xbebfab7a	-0.37435514
90	0x3ed66260	0.4187193
91	0xbd774db4	-0.060376838
92	0xbd91782b	-0.07102998
93	0x3d883087	0.06649881
94	0x3dabf4b6	0.08396284
95	0x3d8c43d0	0.06848872
96	0x3dc29740	0.09501505
97	0x3d889015	0.066681065
98	0xbdfdd302	-0.12393762
99	0x3c35a260	0.0110860765
100	0x3dc6646e	0.09687124
101	0xbc3d4990	-0.011553183
102	0xbd96db00	-0.0736599
103	0x3df40e14	0.11916748
104	0xbd3f8094	-0.04675348
105	0xbd91c090	-0.071168065
106	0xbdaa6747	-0.0832048
107	0x3da716eb	0.08158668
108	0x3d72d7c4	0.0592878
109	0x3ce2acf0	0.027670354
110	0x3cff8417	0.031190915
111	0xbdc225ae	-0.09479843
112	0xbd815a03	-0.063159965
113	0x3b104180	0.0022011697
114	0x3de96df6	0.113979265
115	0x3d93b11e	0.07211517
116	0xbc24bd43	-0.010054889
117	0x3d8e2a74	0.06941691
118	0xbe9d3a88	-0.30708718
119	0xbc45b8d4	-0.012067992
120	0x3cb971d8	0.022637293
121	0x3e582f12	0.21111706
122	0x3dd41002	0.10354616
123	0xbdeb0900	-0.11476326
124	0x3e26f7f7	0.16305529
125	0xbcbf126f	-0.02332422
126	0x3d3fba2c	0.046808407
127	0x3dd8a388	0.10578066
128	0xbb21ba7f	-0.002467781
129	0x3d756ce0	0.059918284
130	0xbdbcf033	-0.09225502
131	0x3ade6352	0.0016966856
132	0x3d6857b5	0.05672427
133	0x3b5ae2ca	0.0033399337
134	0xbcd19cf0	-0.025587529
135	0xbd61a9c9	-0.05509356
136	0x3db0765e	0.08616327
137	0x3d7b233c	0.0613129
138	0x3b4bf111	0.0031119029
139	0xbda4dcea	-0.080499485
140	0xbdac09c0	-0.08400297
141	0x3c5d8350	0.013520077
142	0x3d2daf8d	0.042403746
143	0x3d8d0e75	0.06887523
144	0xbd0f41a4	-0.03497471
145	0x3d9c99f9	0.076465555
146	0x3bdbe3e5	0.0067105168
147	0x3bb8ce00	0.0056397915
148	0xbcfc01c8	-0.030762568
149	0xbde7d4ba	-0.11319871
150	0xbdf0b4b6	-0.11753218
151	0xbcfe6ac1	-0.031056764
152	0xbd82215a	-0.063540176
153	0x3d2ecee3	0.04267777
154	0x3abff1ce	0.0014644207
155	0xbd484e44	-0.048902765
156	0x3d801a1a	0.062549785
157	0x3d91479f	0.07093739
158	0x3d924290	0.07141602
159	0xbd77dda0	-0.060514092
160	0xbd512290	-0.051058352
161	0x3d93d4c3	0.072183155
162	0xbdaa9102	-0.08328439
163	0xbda75926	-0.081713006
164	0x3c183a34	0.00929122
165	0xbd3b44fc	-0.045720086
166	0xbdbfe996	-0.09370725
167	0x3d97d944	0.07414487
168	0x3dcddd9e	0.10052036
169	0x3ca61de0	0.020277917
170	0xbcdc01b0	-0.026856273
171	0xbdc2118a	-0.094760016
172	0xbd2cba4f	-0.042169865
173	0x3d02590c	0.031823203
174	0x3c3c6e95	0.011500974
175	0xbc817398	-0.01580219
176	0xbd064880	-0.032783985
177	0x3d8ea65e	0.06965326
178	0xbdcbe0da	-0.099549964
179	0x3da1cbee	0.079002246
180	0xbd88156c	-0.06644711
181	0x3d6ed4b3	0.058308315
182	0xbe1028cc	-0.14078063
183	0x3c0148f0	0.007890925
184	0xbd1ab9c0	-0.0377748
185	0x3de95392	0.11392893
186	0xbb54f800	-0.0032496452
187	0x3dc7d55e	0.097574934
188	0x3e03ac4c	0.12858695
189	0xbce8da77	-0.028424485
190	0xbdbac11c	-0.09118864
191	0x3dcd63aa	0.10028775
192	0x3e27dfe9	0.16394009
193	0xbca4622f	-0.020066349
194	0x3ceb7a5e	0.028744873
195	0xbdc80292	-0.09766115
196	0xbd6d60e6	-0.057953738
197	0x3d741017	0.059585657
198	0x3d0835b0	0.033254325
199	0x3d91270e	0.07087527
200	0xbd0b592c	-0.034020588
201	0x3dec2e0e	0.11532222
202	0x3db0f22d	0.08639941
203	0xbcab2dde	-0.020895895
204	0x3cf2952b	0.029612144
205	0x3cf5e8a0	0.03001815
206	0x3da1a86f	0.07893454
207	0xbe100f5a	-0.14068356
208	0x3d3fe46c	0.0468487
209	0xbc71b677	-0.014752976
210	0xbd47d3c1	-0.04878593
211	0xbd8bd440	-0.06827593
212	0x3df6e388	0.12055117
213	0x3ddad7f6	0.106857225
214	0x3de53e78	0.111935556
215	0x3de84f6f	0.11343276
216	0x3dc16524	0.09443119
217	0xbe610011	-0.21972682
218	0x3daee7bc	0.085402936
219	0x3d7fd2fc	0.06245707
220	0xbce9efc4	-0.028556712
221	0xbcf6ff8e	-0.030151155
222	0x3b9de1e8	0.00481819
223	0x3cd6e558	0.026232406
224	0x3d83c9b6	0.06434958
225	0x3cafd0dd	0.021461898
226	0xbd96ac48	-0.07357079
227	0x3c8a2168	0.016861632
228	0xbd5f2cc7	-0.054486062
229	0xbda6abf6	-0.08138268
230	0x3d8570c4	0.06515649
231	0xbcac0428	-0.020998076
232	0x3de9edd0	0.11422312
233	0x3df90848	0.12159783
234	0x3da8f684	0.08250144
235	0x3da970fe	0.08273505
236	0x3d059178	0.032609433
237	0x3b004b40	0.0019576102
238	0xbbbdf8b8	-0.005797472
239	0x3ae12f00	0.0017180145
240	0x3daad28f	0.08340942
241	0x3dee0576	0.11622135
242	0xbd04b080	-0.032394886
243	0xbd586e34	-0.052839473
244	0x3c5b4801	0.013383866
245	0xbd4d6097	-0.050140943
246	0xbd8b43bf	-0.06800031
247	0x3e116655	0.14199193
248	0x3dc82fac	0.09774718
249	0x3e0fa447	0.1402751
250	0xbdbc6602	-0.09199144
251	0xbd89657c	-0.0670881
252	0x3c44afe5	0.012004827
253	0xbb014cf2	-0.00197297
254	0x3c287180	0.010280967
255	0xbdeb002e	-0.11474644

nn.2.bias f4 [15]
0	0x3dbb8a72	0.09157266
1	0x3da161f9	0.07880015
2	0x3d6c5ce8	0.05770579
3	0x3d033db6	0.032041274
4	0xbd99018b	-0.074709974
5	0x3d8cc2bc	0.0687308
6	0x3dc91a68	0.0981949
7	0xbdb82848	-0.08992058
8	0x3da0f3ae	0.07858978
9	0xbd59bacb	-0.053156655
10	0x3e6387d4	0.22219783
11	0x3de6cdc4	0.112697154
12	0x3d42bd5c	0.04754387
13	0x3d976a89	0.07393367
14	0x3ca2a7c3	0.019855386

exp_avg f4 [64, 3]
0	0xb9f559c1	-0.00046796913
1	0xb9a4bf17	-0.0003142289
2	0xbb083ef1	-0.002078947
3	0xba0324d5	-0.0005002742
4	0xbb44a39a	-0.003000474
5	0xbbb24249	-0.0054400307
6	0x3a89e105	0.0010519332
7	0x3b288135	0.002571178
8	0x3b00a4c0	0.0019629449
9	0xb960d8fb	-0.00021443136
10	0x3a72a671	0.0009256369
11	0x3a8a3144	0.0010543247
12	0xbb4a89c4	-0.0030904869
13	0xbc2024ff	-0.009774446
14	0xbc8da7e7	-0.017291976
15	0xbb0fd886	-0.0021949126
16	0xbb5195ce	-0.003198016
17	0xbb3e366b	-0.0029024135
18	0x00000000	0.0
19	0x00000000	0.0
20	0x00000000	0.0
21	0xba9c3c40	-0.0011919811
22	0xbb0d3cb6	-0.002155108
23	0xbb78cc89	-0.003796371
24	0x00000000	0.0
25	0x00000000	0.0
26	0x00000000	0.0
27	0x00000000	0.0
28	0x00000000	0.0
29	0x00000000	0.0
30	0x3b03adce	0.002009261
31	0x3c15fea7	0.009154952
32	0x3c84e69d	0.016223246
33	0xbb2503dc	-0.0025179302
34	0xbbbfe14a	-0.005855714
35	0xbc37c56c	-0.011216503
36	0x3af543c3	0.0018712211
37	0x3c264992	0.0101493765
38	0x3ca08e87	0.019599212
39	0x00000000	0.0
40	0x00000000	0.0
41	0x00000000	0.0
42	0x3acd15b1	0.0015646723
43	0x3c161d1f	0.009162216
44	0x3ca5156b	0.020151814
45	0xbae45ed9	-0.0017423286
46	0x3a295929	0.0006460124
47	0x3b7bb67b	0.0038408327
48	0x00000000	0.0
49	0x00000000	0.0
50	0x00000000	0.0
51	0xbb0cc9b5	-0.0021482531
52	0xbc03de5e	-0.008048622
53	0xbc84fb0c	-0.01623299
54	0xba49c6bc	-0.0007697155
55	0xbaa30eb9	-0.0012440301
56	0xbb200c48	-0.0024421383
57	0x00000000	0.0
58	0x00000000	0.0
59	0x00000000	0.0
60	0x00000000	0.0
61	0x00000000	0.0
62	0x00000000	0.0
63	0x00000000	0.0
64	0x00000000	0.0
65	0x00000000	0.0
66	0x00000000	0.0
67	0x00000000	0.0
68	0x00000000	0.0
69	0x3ab19dd0	0.001355106
70	0x3bb51ea6	0.005527335
71	0x3c1eecec	0.009700041
72	0x00000000	0.0
73	0x00000000	0.0
74	0x00000000	0.0
75	0x3a830191	0.0009994974
76	0xbb85208c	-0.004062718
77	0xbc184964	-0.009294841
78	0xba8df1a3	-0.001082946
79	0x39aafa32	0.00032611337
80	0xbb7cc787	-0.0038571076
81	0x00000000	0.0
82	0x00000000	0.0
83	0x00000000	0.0
84	0x3ae16204	0.0017195349
85	0x3bd61b82	0.006534041
86	0x3c5e8cc5	0.013583367
87	0xbb0bb3c6	-0.002131687
88	0xbc350c90	-0.011050358
89	0xbcb42847	-0.021991862
90	0xbaa40ebd	-0.0012516599
91	0xbb89ce59	-0.0042055068
92	0xbc1a9e34	-0.009437133
93	0x00000000	0.0
94	0x00000000	0.0
95	0x00000000	0.0
96	0x00000000	0.0
97	0x00000000	0.0
98	0x00000000	0.0
99	0x3ae7eba1	0.0017694124
100	0xbb9d9e85	-0.0048101568
101	0xbc805d74	-0.015669562
102	0x00000000	0.0
103	0x00000000	0.0
104	0x00000000	0.0
105	0x00000000	0.0
106	0x00000000	0.0
107	0x00000000	0.0
108	0xba970aac	-0.0011523566
109	0xbb096b18	-0.0020968374
110	0xbb1d3455	-0.002398749
111	0x00000000	0.0
112	0x00000000	0.0
113	0x00000000	0.0
114	0x00000000	0.0
115	0x00000000	0.0
116	0x00000000	0.0
117	0x00000000	0.0
118	0x00000000	0.0
119	0x00000000	0.0
120	0x00000000	0.0
121	0x00000000	0.0
122	0x00000000	0.0
123	0x00000000	0.0
124	0x00000000	0.0
125	0x00000000	0.0
126	0xba1d3b39	-0.00059978996
127	0xba7f1134	-0.00097300415
128	0xba17e9a4	-0.0005795008
129	0x3992183b	0.00027865343
130	0xbb4bed7b	-0.0031116891
131	0xbbfe07f2	-0.007752412
132	0x00000004	6e-45
133	0x00000004	6e-45
134	0x00000004	6e-45
135	0x00000000	0.0
136	0x00000000	0.0
137	0x00000000	0.0
138	0xbb66ffbb	-0.0035247642
139	0xbbca2aab	-0.006169637
140	0xbc1ef8c9	-0.00970287
141	0x00000000	0.0
142	0x00000000	0.0
143	0x00000000	0.0
144	0xbb1798f1	-0.0023131932
145	0xbc0d6ca1	-0.008631856
146	0xbc843fa3	-0.016143626
147	0x00000000	0.0
148	0x00000000	0.0
149	0x00000000	0.0
150	0x00000000	0.0
151	0x00000000	0.0
152	0x00000000	0.0
153	0x00000000	0.0
154	0x00000000	0.0
155	0x00000000	0.0
156	0xb89efe9e	-7.581453e-05
157	0x3a6d54e1	0.00090534805
158	0x3a893ee0	0.0010471009
159	0x3a4207c5	0.00074016704
160	0x3be3677f	0.006939828
161	0x3c5260de	0.012840478
162	0x3b40e25d	0.0029431798
163	0x3bd9cd0a	0.006646757
164	0x3c8bba75	0.017056683
165	0x3b0f3c7b	0.0021856118
166	0x3c48c566	0.012254095
167	0x3ccb0ec5	0.024787316
168	0x00000000	0.0
169	0x00000000	0.0
170	0x00000000	0.0
171	0x3a9eb892	0.001210945
172	0x3b6d88fd	0.0036244981
173	0x3b978f73	0.004625255
174	0x00000000	0.0
175	0x00000000	0.0
176	0x00000000	0.0
177	0x00000000	0.0
178	0x00000000	0.0
179	0x00000000	0.0
180	0xb9a6301c	-0.00031697832
181	0xbb818cbe	-0.0039535454
182	0xbc2ff490	-0.010739461
183	0xbb5d6413	-0.0033781573
184	0xbbde28d9	-0.0067797718
185	0xbc4b1057	-0.012394032
186	0x00000000	0.0
187	0x00000000	0.0
188	0x00000000	0.0
189	0x00000000	0.0
190	0x00000000	0.0
191	0x00000000	0.0

exp_avg_sq f4 [64, 3]
0	0x38ebedce	0.00011249968
1	0x3ac77e59	0.001522015
2	0x3c17464d	0.00923307
3	0x3942f459	0.00018592308
4	0x3b24e0fd	0.0025158518
5	0x3c7e6c2e	0.015528722
6	0x3a11a9f1	0.0005556634
7	0x3bf654b9	0.007517424
8	0x3d407c88	0.046993762
9	0x3892ecab	7.005905e-05
10	0x3a7838e1	0.0009468925
11	0x3bb99cc3	0.0056644394
12	0x3ab379c5	0.0013692906
13	0x3c97de1b	0.018538525
14	0x3deb6735	0.114942946
15	0x3a140ea5	0.0005647934
16	0x3bf9a3a0	0.0076183826
17	0x3d421394	0.047381952
18	0x00000000	0.0
19	0x00000000	0.0
20	0x00000000	0.0
21	0x38f59bb0	0.000117115094
22	0x3acf056b	0.0015794461
23	0x3c1d1f3d	0.009589967
24	0x00000000	0.0
25	0x00000000	0.0
26	0x00000000	0.0
27	0x00000000	0.0
28	0x00000000	0.0
29	0x00000000	0.0
30	0x3a4ccd8d	0.0007812612
31	0x3c2d862d	0.010591072
32	0x3d874e22	0.066066995
33	0x39be2676	0.0003626828
34	0x3ba09b10	0.0049012974
35	0x3cf721df	0.030167518
36	0x3a10ad4a	0.0005518986
37	0x3bf49a90	0.0074647143
38	0x3d3c8f5e	0.046035163
39	0x00000000	0.0
40	0x00000000	0.0
41	0x00000000	0.0
42	0x385bce8f	5.240604e-05
43	0x3a39876d	0.000707737
44	0x3b87f115	0.0041486123
45	0x3a0a3944	0.00052728155
46	0x3be8a1ee	0.0070993816
47	0x3d3172fb	0.043322545
48	0x00000000	0.0
49	0x00000000	0.0
50	0x00000000	0.0
51	0x3947813a	0.0001902626
52	0x3b291770	0.0025801323
53	0x3c823176	0.015892725
54	0x3881eaf6	6.194964e-05
55	0x3a5b027b	0.00083545566
56	0x3b9fb703	0.0048741116
57	0x00000000	0.0
58	0x00000000	0.0
59	0x00000000	0.0
60	0x00000000	0.0
61	0x00000000	0.0
62	0x00000000	0.0
63	0x00000000	0.0
64	0x00000000	0.0
65	0x00000000	0.0
66	0x00000000	0.0
67	0x00000000	0.0
68	0x00000000	0.0
69	0x38c74ce8	9.503384e-05
70	0x3aa96b5b	0.0012925671
71	0x3c051119	0.008121752
72	0x00000000	0.0
73	0x00000000	0.0
74	0x00000000	0.0
75	0x3955f7ea	0.00020405618
76	0x3b3277cd	0.0027232051
77	0x3c800a6e	0.015629973
78	0x3a1bbb9e	0.0005940738
79	0x3c0358c3	0.008016768
80	0x3d48531d	0.048907388
81	0x00000000	0.0
82	0x00000000	0.0
83	0x00000000	0.0
84	0x38a125c1	7.6841105e-05
85	0x3a892a26	0.0010464832
86	0x3bd6d054	0.0065555964
87	0x3976db78	0.00023542147
88	0x3b50a481	0.0031836333
89	0x3ca10e0f	0.019660024
90	0x380a9c9c	3.3047618e-05
91	0x39ec803b	0.00045108967
92	0x3b2ff7ae	0.002685051
93	0x00000000	0.0
94	0x00000000	0.0
95	0x00000000	0.0
96	0x00000000	0.0
97	0x00000000	0.0
98	0x00000000	0.0
99	0x3a62281c	0.00086271926
100	0x3c3df5bd	0.011594233
101	0x3d93c9fc	0.0721626
102	0x00000000	0.0
103	0x00000000	0.0
104	0x00000000	0.0
105	0x00000000	0.0
106	0x00000000	0.0
107	0x00000000	0.0
108	0x3963a51e	0.00021709918
109	0x3b404680	0.0029338896
110	0x3c953d99	0.018217849
111	0x00000000	0.0
112	0x00000000	0.0
113	0x00000000	0.0
114	0x00000000	0.0
115	0x00000000	0.0
116	0x00000000	0.0
117	0x00000000	0.0
118	0x00000000	0.0
119	0x00000000	0.0
120	0x00000000	0.0
121	0x00000000	0.0
122	0x00000000	0.0
123	0x00000000	0.0
124	0x00000000	0.0
125	0x00000000	0.0
126	0x38759378	5.8549893e-05
127	0x3a4ffe3d	0.0007934308
128	0x3ba4ddb5	0.0050313124
129	0x38ee04c9	0.00011349616
130	0x3ac799e7	0.0015228362
131	0x3c18382b	0.009290735
132	0x2ac75a8f	3.541234e-13
133	0x2ccf7ea4	5.897354e-12
134	0x2d8a1196	1.5696593e-11
135	0x00000000	0.0
136	0x00000000	0.0
137	0x00000000	0.0
138	0x3aef747d	0.0018268969
139	0x3cca8669	0.024722295
140	0x3e1de6e3	0.15420108
141	0x00000000	0.0
142	0x00000000	0.0
143	0x00000000	0.0
144	0x3a3891bd	0.00070407597
145	0x3c1c58a9	0.009542623
146	0x3d74a7d1	0.059730355
147	0x00000000	0.0
148	0x00000000	0.0
149	0x00000000	0.0
150	0x00000000	0.0
151	0x00000000	0.0
152	0x00000000	0.0
153	0x00000000	0.0
154	0x00000000	0.0
155	0x00000000	0.0
156	0x37915c2e	1.7328271e-05
157	0x3974f9a1	0.00023362647
158	0x3ab6c087	0.0013942876
159	0x398eca48	0.00027235062
160	0x3b7082f6	0.0036699153
161	0x3cb72b89	0.022359626
162	0x39c9bf5d	0.00038480284
163	0x3ba9b54c	0.005179083
164	0x3d118e6c	0.035536215
165	0x39ffd92f	0.00048799205
166	0x3bd85846	0.00660232
167	0x3d266173	0.04062028
168	0x00000000	0.0
169	0x00000000	0.0
170	0x00000000	0.0
171	0x3a28e48c	0.00064427475
172	0x3c0f0916	0.008730194
173	0x3d609585	0.054830093
174	0x00000000	0.0
175	0x00000000	0.0
176	0x00000000	0.0
177	0x00000000	0.0
178	0x00000000	0.0
179	0x00000000	0.0
180	0x37fdf8f3	3.0275876e-05
181	0x39d4d16a	0.00040591817
182	0x3b295ade	0.0025841515
183	0x3a77d211	0.00094536046
184	0x3c518003	0.012786868
185	0x3da1b685	0.07896141
186	0x00000000	0.0
187	0x00000000	0.0
188	0x00000000	0.0
189	0x00000000	0.0
190	0x00000000	0.0
191	0x00000000	0.0

exp_avg f4 [64]
0	0x39896852	0.000262084
1	0xbb1cbd30	-0.0023916475
2	0x3ac81fff	0.0015268325
3	0x3abfdddc	0.0014638263
4	0xbbc9afe1	-0.0061549996
5	0xba096393	-0.0005240973
6	0x00000000	0.0
7	0xba3745df	-0.00069913076
8	0x00000000	0.0
9	0x00000000	0.0
10	0x3be0766f	0.006850056
11	0xbb3f1db9	-0.0029162003
12	0x3bfa6edc	0.00764261
13	0x00000000	0.0
14	0x3be2f317	0.006925951
15	0x3b2b0ac4	0.0026098946
16	0x00000000	0.0
17	0xbbb40e46	-0.0054948656
18	0xb9797e2c	-0.00023793493
19	0x00000000	0.0
20	0x00000000	0.0
21	0x00000000	0.0
22	0x00000000	0.0
23	0x3b6d597f	0.0036216674
24	0x00000000	0.0
25	0xbba65fa1	-0.005077318
26	0x3ad66528	0.0016357051
27	0x00000000	0.0
28	0x3b91fc21	0.004455105
29	0xbc0249f2	-0.0079522
30	0xbb3ac2b5	-0.0028497402
31	0x00000000	0.0
32	0x00000000	0.0
33	0xbbd15454	-0.0063882265
34	0x00000000	0.0
35	0x00000000	0.0
36	0xba180259	-0.00057986897
37	0x00000000	0.0
38	0x00000000	0.0
39	0x00000000	0.0
40	0x00000000	0.0
41	0x00000000	0.0
42	0xb9c35642	-0.00037257565
43	0xbb4ddbfb	-0.0031411636
44	0x00000004	6e-45
45	0x00000000	0.0
46	0xbb2788df	-0.002556376
47	0x00000000	0.0
48	0xbbc48aba	-0.005997983
49	0x00000000	0.0
50	0x00000000	0.0
51	0x00000000	0.0
52	0x3a80abce	0.0009816827
53	0x3bc06a73	0.0058720647
54	0x3b837a3b	0.0040123737
55	0x3c18f55e	0.009335844
56	0x00000000	0.0
57	0x3b257e6f	0.0025252362
58	0x00000000	0.0
59	0x00000000	0.0
60	0xbb50e051	-0.0031871984
61	0xbb488daa	-0.0030602016
62	0x00000000	0.0
63	0x00000000	0.0

exp_avg_sq f4 [64]
0	0x3a40b873	0.0007351704
1	0x3a9f4733	0.0012151956
2	0x3b6e01a8	0.0036316905
3	0x39f01b2c	0.00045796612
4	0x3c12a4f5	0.008950462
5	0x3b7157cc	0.0036826013
6	0x00000000	0.0
7	0x3a48365d	0.00076374953
8	0x00000000	0.0
9	0x00000000	0.0
10	0x3ba777ed	0.005110732
11	0x3b1b1853	0.0023665621
12	0x3b6c4a7c	0.0036055138
13	0x00000000	0.0
14	0x39b27f72	0.0003404576
15	0x3b610cf3	0.0034339994
16	0x00000000	0.0
17	0x3aa304a5	0.0012437297
18	0x39d37ae9	0.0004033663
19	0x00000000	0.0
20	0x00000000	0.0
21	0x00000000	0.0
22	0x00000000	0.0
23	0x3a23091b	0.00062193134
24	0x00000000	0.0
25	0x3aad80f5	0.0013237285
26	0x3b7e4585	0.003879876
27	0x00000000	0.0
28	0x3a03d6ca	0.00050292595
29	0x3ac966b1	0.0015365687
30	0x3962c4d0	0.00021626358
31	0x00000000	0.0
32	0x00000000	0.0
33	0x3bb7be2d	0.0056073875
34	0x00000000	0.0
35	0x00000000	0.0
36	0x3ab9dc27	0.001417999
37	0x00000000	0.0
38	0x00000000	0.0
39	0x00000000	0.0
40	0x00000000	0.0
41	0x00000000	0.0
42	0x39c89387	0.0003825689
43	0x3a414e28	0.0007374012
44	0x2c2dadc5	2.468124e-12
45	0x00000000	0.0
46	0x3c438d4a	0.011935541
47	0x00000000	0.0
48	0x3b96e09b	0.004604412
49	0x00000000	0.0
50	0x00000000	0.0
51	0x00000000	0.0
52	0x38ed91fc	0.00011328232
53	0x3ae8cdcd	0.0017761529
54	0x3b24838c	0.0025102822
55	0x3b50d9cf	0.0031868105
56	0x00000000	0.0
57	0x3b8a0eb8	0.0042131804
58	0x00000000	0.0
59	0x00000000	0.0
60	0x394ca86c	0.00019517698
61	0x3bca4881	0.006173194
62	0x00000000	0.0
63	0x00000000	0.0

exp_avg f4 [15, 64]
0	0xb73d77bf	-1.1293158e-05
1	0xb70d9bcf	-8.440532e-06
2	0xb829c39e	-4.0474923e-05
3	0xb7a991b5	-2.021422e-05
4	0xb7773d0a	-1.4736559e-05
5	0xb79f026c	-1.8955405e-05
6	0x00000000	0.0
7	0xb797f7a9	-1.8115928e-05
8	0x00000000	0.0
9	0x00000000	0.0
10	0xb7de08b3	-2.6468513e-05
11	0xb7c6e8b2	-2.3711797e-05
12	0xb74c7fbf	-1.2189091e-05
13	0x00000000	0.0
14	0xb7dff2fa	-2.6696816e-05
15	0xb6c9fc71	-6.019655e-06
16	0x00000000	0.0
17	0xb7bc98f2	-2.2482567e-05
18	0xb7ce8984	-2.462115e-05
19	0x00000000	0.0
20	0x00000000	0.0
21	0x00000000	0.0
22	0x00000000	0.0
23	0xb7e76e7f	-2.75888e-05
24	0x00000000	0.0
25	0xb704c5c7	-7.913862e-06
26	0xb6c8cf96	-5.9846307e-06
27	0x00000000	0.0
28	0xb6ad5fa0	-5.166934e-06
29	0xb751f558	-1.2514494e-05
30	0xb781b556	-1.546244e-05
31	0x00000000	0.0
32	0x00000000	0.0
33	0xb722dddf	-9.707611e-06
34	0x00000000	0.0
35	0x00000000	0.0
36	0xb7a63952	-1.9815434e-05
37	0x00000000	0.0
38	0x00000000	0.0
39	0x00000000	0.0
40	0x00000000	0.0
41	0x00000000	0.0
42	0xb79d37ac	-1.8741783e-05
43	0xb7cd245d	-2.4454837e-05
44	0x00000004	6e-45
45	0x00000000	0.0
46	0xb6610d46	-3.3535339e-06
47	0x00000000	0.0
48	0xb797e2a7	-1.8106146e-05
49	0x00000000	0.0
50	0x00000000	0.0
51	0x00000000	0.0
52	0xb70a8137	-8.255526e-06
53	0xb779bb15	-1.4885115e-05
54	0xb5bda35c	-1.4129141e-06
55	0xb7dde597	-2.6452164e-05
56	0x00000000	0.0
57	0xb7445097	-1.1701274e-05
58	0x00000000	0.0
59	0x00000000	0.0
60	0xb75cf7e9	-1.3170743e-05
61	0xb7a4c5bf	-1.9642406e-05
62	0x00000000	0.0
63	0x00000000	0.0
64	0x383d3d84	4.5118402e-05
65	0x38e1bdca	0.00010764187
66	0x38d3ef71	0.000101058635
67	0x36323ebd	2.6560585e-06
68	0x3826ee18	3.9799226e-05
69	0x372d1d0f	1.0318369e-05
70	0x00000000	0.0
71	0x38b52ef5	8.639499e-05
72	0x00000000	0.0
73	0x00000000	0.0
74	0x395a7284	0.0002083276
75	0x38f996cf	0.000119013355
76	0x365c0f3a	3.2791418e-06
77	0x00000000	0.0
78	0x35ccc39d	1.5256115e-06
79	0xb8b2f943	-8.53413e-05
80	0x00000000	0.0
81	0x390f0afa	0.00013641632
82	0x38fa9d43	0.00011950221
83	0x00000000	0.0
84	0x00000000	0.0
85	0x00000000	0.0
86	0x00000000	0.0
87	0x38f2a04b	0.00011569316
88	0x00000000	0.0
89	0x3838bdb3	4.404569e-05
90	0x37b36d8a	2.1389471e-05
91	0x00000000	0.0
92	0xb69cbe0d	-4.671287e-06
93	0x38e290b0	0.0001080347
94	0x3822d3c1	3.882102e-05
95	0x00000000	0.0
96	0x00000000	0.0
97	0x38f743f5	0.00011790536
98	0x00000000	0.0
99	0x00000000	0.0
100	0x37e4ace7	2.7260232e-05
101	0x00000000	0.0
102	0x00000000	0.0
103	0x00000000	0.0
104	0x00000000	0.0
105	0x00000000	0.0
106	0x39017a71	0.00012348012
107	0x38921eb3	6.967541e-05
108	0x80000004	-6e-45
109	0x00000000	0.0
110	0xb83e6ac2	-4.5398956e-05
111	0x00000000	0.0
112	0x388dde81	6.7648485e-05
113	0x00000000	0.0
114	0x00000000	0.0
115	0x00000000	0.0
116	0x36ce37a9	6.145758e-06
117	0xb84a0511	-4.816527e-05
118	0xb8a42231	-7.826498e-05
119	0x390cc1ca	0.00013423632
120	0x00000000	0.0
121	0x389068be	6.885965e-05
122	0x00000000	0.0
123	0x00000000	0.0
124	0x378adf84	1.6554965e-05
125	0xb7834b3d	-1.5651452e-05
126	0x00000000	0.0
127	0x00000000	0.0
128	0xba2e70d2	-0.0006654385
129	0xba0b9421	-0.0005324502
130	0xbb112fc0	-0.0022153705
131	0xba8a8293	-0.0010567479
132	0xba6b64bd	-0.000897955
133	0xba877857	-0.0010335547
134	0x00000000	0.0
135	0xba832be6	-0.001000759
136	0x00000000	0.0
137	0x00000000	0.0
138	0xbacf7bb9	-0.0015829719
139	0xbaaff42b	-0.0013424208
140	0xba3634ff	-0.0006950646
141	0x00000000	0.0
142	0xbace39f7	-0.0015733828
143	0xb9a9b739	-0.00032370703
144	0x00000000	0.0
145	0xbaa0a78c	-0.0012256964
146	0xbab65909	-0.0013912033
147	0x00000000	0.0
148	0x00000000	0.0
149	0x00000000	0.0
150	0x00000000	0.0
151	0xbab93ff4	-0.0014133439
152	0x00000000	0.0
153	0xb9bfde4a	-0.00036595977
154	0xb9b80d17	-0.00035104968
155	0x00000000	0.0
156	0xb9d4b2b9	-0.0004056895
157	0xba189c5d	-0.000582164
158	0xba733a2b	-0.0009278382
159	0x00000000	0.0
160	0x00000000	0.0
161	0xb9db9a5a	-0.00041885936
162	0x00000000	0.0
163	0x00000000	0.0
164	0xba8be776	-0.0010673839
165	0x00000000	0.0
166	0x00000000	0.0
167	0x00000000	0.0
168	0x00000000	0.0
169	0x00000000	0.0
170	0xba83f0fe	-0.0010066328
171	0xbaabcc90	-0.0013107229
172	0x80000004	-6e-45
173	0x00000000	0.0
174	0xb98d4a39	-0.00026948916
175	0x00000000	0.0
176	0xba7b34eb	-0.00095827755
177	0x00000000	0.0
178	0x00000000	0.0
179	0x00000000	0.0
180	0xba0c991b	-0.00053633907
181	0xba528762	-0.0008031038
182	0xb91198d3	-0.00013885209
183	0xbac1d382	-0.0014787766
184	0x00000000	0.0
185	0xba223755	-0.00061880547
186	0x00000000	0.0
187	0x00000000	0.0
188	0xba44727b	-0.00074938656
189	0xba8bed01	-0.0010675491
190	0x00000000	0.0
191	0x00000000	0.0
192	0x3a033ef0	0.0005006632
193	0x399b88bb	0.00029665776
194	0x3ae48b3f	0.0017436518
195	0x3a6d8bfc	0.0009061692
196	0x3a3238d6	0.00067986303
197	0x3a6299f7	0.00086441584
198	0x00000000	0.0
199	0x3a3f9d2a	0.0007309491
200	0x00000000	0.0
201	0x00000000	0.0
202	0x3a87bbff	0.001035571
203	0x3a7e64e6	0.0009704366
204	0x3a178736	0.0005780341
205	0x00000000	0.0
206	0x3aa9666a	0.0012924199
207	0x39c69d6c	0.0003788279
208	0x00000000	0.0
209	0x3a61cc89	0.0008613547
210	0x3a856052	0.00101758
211	0x00000000	0.0
212	0x00000000	0.0
213	0x00000000	0.0
214	0x00000000	0.0
215	0x3a8e098a	0.0010836583
216	0x00000000	0.0
217	0x398bc3e3	0.00026658093
218	0x398f0562	0.00027279096
219	0x00000000	0.0
220	0x399fddca	0.0003049209
221	0x39caf8b2	0.00038713735
222	0x3a393a98	0.0007065921
223	0x00000000	0.0
224	0x00000000	0.0
225	0x397a8bdc	0.0002389396
226	0x00000000	0.0
227	0x00000000	0.0
228	0x3a61c686	0.0008612651
229	0x00000000	0.0
230	0x00000000	0.0
231	0x00000000	0.0
232	0x00000000	0.0
233	0x00000000	0.0
234	0x3a3699b3	0.0006965652
235	0x3a874e05	0.0010322934
236	0x80000004	-6e-45
237	0x00000000	0.0
238	0x39842d75	0.0002521087
239	0x00000000	0.0
240	0x3a4070f1	0.00073410483
241	0x00000000	0.0
242	0x00000000	0.0
243	0x00000000	0.0
244	0x39dc20eb	0.00041986196
245	0x3a426ae8	0.0007416443
246	0x37f4a6c2	2.916472e-05
247	0x3a8c0b3b	0.0010684499
248	0x00000000	0.0
249	0x39ec6e90	0.00045095803
250	0x00000000	0.0
251	0x00000000	0.0
252	0x3a1e6cde	0.0006043444
253	0x3a715f69	0.00092076376
254	0x00000000	0.0
255	0x00000000	0.0

exp_avg_sq f4 [15, 64]
0	0x323c9ab8	1.0978219e-08
1	0x321ca88a	9.1187164e-09
2	0x3400a86c	1.19822e-07
3	0x32cff985	2.421144e-08
4	0x32c20ebd	2.2591275e-08
5	0x32d1a1f7	2.4404455e-08
6	0x00000000	0.0
7	0x32e194eb	2.6261167e-08
8	0x00000000	0.0
9	0x00000000	0.0
10	0x339c3c54	7.27529e-08
11	0x334c56d1	4.757641e-08
12	0x3246f1ee	1.1580125e-08
13	0x00000000	0.0
14	0x33886f6b	6.35326e-08
15	0x3105e182	1.9482234e-09
16	0x00000000	0.0
17	0x332ae40c	3.9788617e-08
18	0x3354325c	4.9405898e-08
19	0x00000000	0.0
20	0x00000000	0.0
21	0x00000000	0.0
22	0x00000000	0.0
23	0x33425ede	4.5255426e-08
24	0x00000000	0.0
25	0x3160ebb0	3.2730263e-09
26	0x314387de	2.8453466e-09
27	0x00000000	0.0
28	0x31d09192	6.070146e-09
29	0x32029e60	7.603006e-09
30	0x32cf1cff	2.4111158e-08
31	0x00000000	0.0
32	0x00000000	0.0
33	0x31861feb	3.903542e-09
34	0x00000000	0.0
35	0x00000000	0.0
36	0x32fa36fb	2.9128833e-08
37	0x00000000	0.0
38	0x00000000	0.0
39	0x00000000	0.0
40	0x00000000	0.0
41	0x00000000	0.0
42	0x32e8f2e2	2.7118805e-08
43	0x332dc312	4.0457117e-08
44	0x23b6bb58	1.9811823e-17
45	0x00000000	0.0
46	0x312f6c31	2.5527351e-09
47	0x00000000	0.0
48	0x32c18403	2.2528189e-08
49	0x00000000	0.0
50	0x00000000	0.0
51	0x00000000	0.0
52	0x3214d2f6	8.662701e-09
53	0x326f9dff	1.3947555e-08
54	0x3050680d	7.5817824e-10
55	0x33781a18	5.776573e-08
56	0x00000000	0.0
57	0x3213ee0a	8.61065e-09
58	0x00000000	0.0
59	0x00000000	0.0
60	0x327071a5	1.3995678e-08
61	0x32e45de8	2.6585397e-08
62	0x00000000	0.0
63	0x00000000	0.0
64	0x3671bdf1	3.602236e-06
65	0x3687af70	4.043737e-06
66	0x38009f72	3.0666073e-05
67	0x36c14218	5.7595425e-06
68	0x370753e8	8.066163e-06
69	0x36d63b6d	6.384615e-06
70	0x00000000	0.0
71	0x3702be1b	7.792866e-06
72	0x00000000	0.0
73	0x00000000	0.0
74	0x3794fb7b	1.776008e-05
75	0x3741ccbe	1.1551367e-05
76	0x36916e96	4.3342106e-06
77	0x00000000	0.0
78	0x378a3b84	1.6478596e-05
79	0x3514d278	5.544057e-07
80	0x00000000	0.0
81	0x371b6041	9.261131e-06
82	0x376d8b3b	1.4158718e-05
83	0x00000000	0.0
84	0x00000000	0.0
85	0x00000000	0.0
86	0x00000000	0.0
87	0x3798ddbd	1.8223067e-05
88	0x00000000	0.0
89	0x346ad343	2.1869805e-07
90	0x35127832	5.4564146e-07
91	0x00000000	0.0
92	0x3615b91b	2.2310476e-06
93	0x35ba0b08	1.386129e-06
94	0x36abc1a8	5.1187417e-06
95	0x00000000	0.0
96	0x00000000	0.0
97	0x351de4fb	5.882027e-07
98	0x00000000	0.0
99	0x00000000	0.0
100	0x36d125b9	6.233077e-06
101	0x00000000	0.0
102	0x00000000	0.0
103	0x00000000	0.0
104	0x00000000	0.0
105	0x00000000	0.0
106	0x3712a5ef	8.740913e-06
107	0x37495915	1.2001275e-05
108	0x29e900a8	1.03473924e-13
109	0x00000000	0.0
110	0x3502ef5c	4.877709e-07
111	0x00000000	0.0
112	0x3725a58c	9.873311e-06
113	0x00000000	0.0
114	0x00000000	0.0
115	0x00000000	0.0
116	0x369dce35	4.7029703e-06
117	0x367747f9	3.6847762e-06
118	0x341095bd	1.346552e-07
119	0x3778f78a	1.4839587e-05
120	0x00000000	0.0
121	0x35cfeac8	1.5491032e-06
122	0x00000000	0.0
123	0x00000000	0.0
124	0x365f72f9	3.3296512e-06
125	0x3704704e	7.893961e-06
126	0x00000000	0.0
127	0x00000000	0.0
128	0x356b7912	8.77205e-07
129	0x353749f9	6.8280457e-07
130	0x37192f8e	9.130583e-06
131	0x35fc2bf2	1.8788253e-06
132	0x35e32dc3	1.6926136e-06
133	0x35fd77b9	1.8884813e-06
134	0x00000000	0.0
135	0x3604df52	1.9799522e-06
136	0x00000000	0.0
137	0x00000000	0.0
138	0x36b8a325	5.50262e-06
139	0x36724599	3.6101321e-06
140	0x356f09fa	8.9048956e-07
141	0x00000000	0.0
142	0x36a1d88b	4.823383e-06
143	0x3424b1bc	1.533835e-07
144	0x00000000	0.0
145	0x364a08de	3.0105507e-06
146	0x367db177	3.7803236e-06
147	0x00000000	0.0
148	0x00000000	0.0
149	0x00000000	0.0
150	0x00000000	0.0
151	0x366884ae	3.4647924e-06
152	0x00000000	0.0
153	0x348e9016	2.6554397e-07
154	0x348b2a44	2.592152e-07
155	0x00000000	0.0
156	0x34f26471	4.5149093e-07
157	0x351c9945	5.8337565e-07
158	0x35f44afe	1.8201242e-06
159	0x00000000	0.0
160	0x00000000	0.0
161	0x34a1ede3	3.0161672e-07
162	0x00000000	0.0
163	0x00000000	0.0
164	0x3614aa1c	2.2152735e-06
165	0x00000000	0.0
166	0x00000000	0.0
167	0x00000000	0.0
168	0x00000000	0.0
169	0x00000000	0.0
170	0x36089f71	2.0358386e-06
171	0x36501e36	3.1012e-06
172	0x26c8139c	1.3883103e-15
173	0x00000000	0.0
174	0x3451510f	1.9494131e-07
175	0x00000000	0.0
176	0x35e30630	1.6914619e-06
177	0x00000000	0.0
178	0x00000000	0.0
179	0x00000000	0.0
180	0x352bc10a	6.3983373e-07
181	0x3590b64b	1.078189e-06
182	0x3392859c	6.822958e-08
183	0x3692907b	4.367959e-06
184	0x00000000	0.0
185	0x353a0f30	6.93125e-07
186	0x00000000	0.0
187	0x00000000	0.0
188	0x358f4cbf	1.0676666e-06
189	0x3607bff7	2.0228306e-06
190	0x00000000	0.0
191	0x00000000	0.0
192	0x35d32d4c	1.5733908e-06
193	0x35d797c9	1.6062924e-06
194	0x37827b16	1.5554524e-05
195	0x364bfb7f	3.0395747e-06
196	0x3669250f	3.4741277e-06
197	0x36544f0c	3.1636473e-06
198	0x00000000	0.0
199	0x36759b53	3.6598256e-06
200	0x00000000	0.0
201	0x00000000	0.0
202	0x371bed30	9.2939445e-06
203	0x36cab635	6.041281e-06
204	0x35f33560	1.8120445e-06
205	0x00000000	0.0
206	0x370b3c76	8.299123e-06
207	0x349ed86c	2.958726e-07
208	0x00000000	0.0
209	0x36a7c065	4.9993855e-06
210	0x36e21d67	6.7387477e-06
211	0x00000000	0.0
212	0x00000000	0.0
213	0x00000000	0.0
214	0x00000000	0.0
215	0x36f863df	7.4026025e-06
216	0x00000000	0.0
217	0x34a47fb4	3.0640297e-07
218	0x34a50b31	3.0741788e-07
219	0x00000000	0.0
220	0x3582048a	9.687076e-07
221	0x356875a5	8.659793e-07
222	0x36420d5b	2.8916027e-06
223	0x00000000	0.0
224	0x00000000	0.0
225	0x34e107e6	4.1915263e-07
226	0x00000000	0.0
227	0x00000000	0.0
228	0x366d80f4	3.5390813e-06
229	0x00000000	0.0
230	0x00000000	0.0
231	0x00000000	0.0
232	0x00000000	0.0
233	0x00000000	0.0
234	0x3685208e	3.9674987e-06
235	0x36bcde39	5.6287067e-06
236	0x28d6a233	2.3829115e-14
237	0x00000000	0.0
238	0x349df5b1	2.9422293e-07
239	0x00000000	0.0
240	0x3681f8b6	3.8734534e-06
241	0x00000000	0.0
242	0x00000000	0.0
243	0x00000000	0.0
244	0x35e02303	1.669949e-06
245	0x35f8ef7f	1.8547142e-06
246	0x33b58a8d	8.4536715e-08
247	0x36fce3fb	7.5367257e-06
248	0x00000000	0.0
249	0x357fa267	9.523123e-07
250	0x00000000	0.0
251	0x00000000	0.0
252	0x35ebf228	1.7579341e-06
253	0x3678bae2	3.706366e-06
254	0x00000000	0.0
255	0x00000000	0.0

exp_avg f4 [15]
0	0xb793f5e9	-1.7638276e-05
1	0x39450da0	0.0001879246
2	0xba6bd042	-0.00089955714
3	0x3a11100b	0.00055337016
4	0xb79fa01b	-1.9028832e-05
5	0x388c3b67	6.686785e-05
6	0x3d107415	0.035266954
7	0x3ca632af	0.02028784
8	0x3bc60ac1	0.0060437624
9	0xbbd26add	-0.0064214305
10	0xbc498edd	-0.012302128
11	0x3cd60ca9	0.026129084
12	0xbc358055	-0.01107796
13	0xbcc8e13b	-0.02452146
14	0xbb218192	-0.002464388

exp_avg_sq f4 [15]
0	0x32a89142	1.962383e-08
1	0x36da3e9a	6.504194e-06
2	0x35cc6406	1.5228295e-06
3	0x36418b1b	2.8840211e-06
4	0x331954df	3.570028e-08
5	0x34737f83	2.2677527e-07
6	0x3ea322d3	0.31862506
7	0x3c79bd51	0.01524289
8	0x3b20d579	0.0024541302
9	0x3b29f054	0.00259306
10	0x3b0287b2	0.0019917306
11	0x3c1d6108	0.009605654
12	0x3bb62e3d	0.0055597113
13	0x3ba7a138	0.0051156543
14	0x3cb5608c	0.022140764
