Op_problems/problem_pooling/kkt_hardnet_model.pth (torch, 7169 bytes, 4 tensors)

0.weight f4 [64, 4]
0	0x3ed1a946	0.40949458
1	0x3ecd0b69	0.40047768
2	0xbd85116d	-0.06497464
3	0x3edbd5b4	0.4293648
4	0xbc3a9618	-0.011388324
5	0x3d49db4d	0.049281407
6	0xbece3f7a	-0.40282804
7	0x3ea1e6a5	0.3162128
8	0x3f8a568d	1.0807663
9	0xbede6e20	-0.43443394
10	0x3ed8abfd	0.42318717
11	0x3ccf26ef	0.02528712
12	0x3f6a1e90	0.91452885
13	0x3d05b9d1	0.03264791
14	0x3e4a6d42	0.19768241
15	0xbe093a9e	-0.13401267
16	0x3f0eca0a	0.5577704
17	0xbe776a23	-0.24161582
18	0xbed19722	-0.40935618
19	0x3e4285a2	0.1899629
20	0xbe912046	-0.28344935
21	0xbd27ec11	-0.040996615
22	0xbeedb71b	-0.4642876
23	0x3e9bd730	0.30437613
24	0xbeca142a	-0.3946851
25	0xbe6c098c	-0.23050517
26	0xbe10936c	-0.14118737
27	0xbe99ecfe	-0.30063623
28	0x3e05d59d	0.13069768
29	0xbf28c7d8	-0.6592994
30	0x3f0cc2f7	0.5498499
31	0x3ec24ff5	0.37951627
32	0x3efe109a	0.4962204
33	0x3c8a0416	0.016847651
34	0xbedaf685	-0.42766204
35	0x3e32b5c1	0.17452146
36	0x3cd061b9	0.025437223
37	0x3ec87b5a	0.3915661
38	0x3d884336	0.066534445
39	0xbe468e8f	-0.1939032
40	0x3f044a5a	0.5167595
41	0xbe92e3f1	-0.2868953
42	0x3eeb9b71	0.4601703
43	0x3f034494	0.51276517
44	0x3e801b20	0.25020695
45	0xbe7d36b4	-0.24727899
46	0x3f0bd962	0.54628575
47	0x3e72b908	0.23703396
48	0x3e82017a	0.25391752
49	0xbe9c0886	-0.30475253
50	0xbefd6aa4	-0.49495423
51	0xbe45d10c	-0.19318026
52	0xbebb23a2	-0.36550623
53	0x3eb3b26a	0.35097057
54	0xbe8e4d03	-0.2779313
55	0xbe090a7e	-0.13382909
56	0xbf1ddbd0	-0.6166353
57	0x3df1bed8	0.11803979
58	0x3f16e246	0.58939016
59	0xbe8cc353	-0.2749277
60	0xbe2e5e86	-0.17028245
61	0xbe7f3277	-0.24921595
62	0x3ef596af	0.47966525
63	0x3e8625c5	0.2620069
64	0x3e85f8f9	0.26166514
65	0x3ec799f8	0.38984656
66	0x3f6175c2	0.8807031
67	0x3eaa12e3	0.33217534
68	0xbf2c30df	-0.6726207
69	0xbe8ed2aa	-0.278951
70	0x3f21ccc3	0.63203067
71	0x3ecdc196	0.40186757
72	0x3ef65610	0.48112535
73	0xbed3454e	-0.41263813
74	0xbefdeb98	-0.49593806
75	0xbec848fe	-0.3911819
76	0xbebb331f	-0.3656244
77	0x3d29c5c0	0.041448355
78	0x3d904b3d	0.070456006
79	0x3e6fa552	0.23402908
80	0xbe43c0bf	-0.19116496
81	0xbae0732d	-0.0017124169
82	0x3f85f06d	1.0463997
83	0x3de7058a	0.11280353
84	0xbf1cd7de	-0.6126689
85	0xbf192bac	-0.59832263
86	0x3ef7492d	0.48298016
87	0x3e52951f	0.20564698
88	0xbe6b83c0	-0.22999477
89	0x3e56b790	0.20968461
90	0x3de92c14	0.1138536
91	0xbdd2dd5e	-0.10296129
92	0x3f24ec66	0.64423215
93	0x3f134e4b	0.5754134
94	0xbe7129c2	-0.23551086
95	0xbe3f0f66	-0.18658218
96	0x3eea68d2	0.45783097
97	0xbe2cc3f4	-0.16871625
98	0xbe35832c	-0.1772582
99	0xbef7b448	-0.4837973
100	0x3eaada12	0.333695
101	0x3f0c932c	0.54912066
102	0x3e202935	0.15640719
103	0xbe30cf0d	-0.17266484
104	0x3c402840	0.011728346
105	0xbeaede6e	-0.34154075
106	0xbed93086	-0.42419833
107	0xbe8cf83a	-0.27533132
108	0xbf03013a	-0.51173747
109	0xbf0f73fc	-0.56036353
110	0x3f1b7443	0.60724276
111	0x3f0e7239	0.5564304
112	0x3e1dc71c	0.15407985
113	0xbeeec466	-0.46634215
114	0xbea82254	-0.3283869
115	0xbe2a6c14	-0.16642791
116	0x3da01fc0	0.07818556
117	0xbee14286	-0.43996066
118	0xbe5c9b64	-0.21543652
119	0xbe994258	-0.2993343
120	0x3ab59e00	0.0013856292
121	0xbe3e8450	-0.1860516
122	0xbd0deaf0	-0.034647882
123	0xbead7924	-0.33881485
124	0xbeafb798	-0.34319758
125	0xbe9559d2	-0.2917009
126	0xbe2f419c	-0.17114872
127	0xbeca0e50	-0.39464045
128	0x3ecff36c	0.40615404
129	0xbe5b17ae	-0.21395752
130	0x3efe1f98	0.4963348
131	0x3e3eda94	0.18638068
132	0x3f1d3859	0.61414105
133	0x3f25f8e5	0.6483291
134	0x3eb08434	0.34475863
135	0xbf613f28	-0.87986994
136	0x3f04ce05	0.5187686
137	0xbee64afe	-0.4497909
138	0x3f13ccaf	0.577342
139	0x3e5e2799	0.21694793
140	0x3eb5f690	0.35539675
141	0xbdbad260	-0.09122157
142	0x3f683f98	0.90722036
143	0x3e106442	0.14100745
144	0xbe835610	-0.25651598
145	0x3da8c627	0.082409196
146	0x3e9a4b19	0.3013542
147	0x3eea4a50	0.4575982
148	0x3ed83141	0.42225078
149	0xbedc0054	-0.42969
150	0x3dbda792	0.09260477
151	0xbe7e403d	-0.24829192
152	0xbdabb00b	-0.08383187
153	0x3df0b3d0	0.117530465
154	0x3fc051a0	1.502491
155	0x3e8c82fa	0.27443677
156	0x3f186971	0.5953589
157	0x3ec2a2de	0.38014883
158	0x3e97eec2	0.29674345
159	0xbe3f5c02	-0.18687442
160	0x3f97d335	1.186133
161	0x3edf2aa1	0.4358721
162	0x3e81f3b8	0.25381255
163	0xbe9bb607	-0.30412313
164	0x3e9340d8	0.2876041
165	0xbd8fbac0	-0.070180416
166	0xbcd1967a	-0.025584448
167	0x3ede69e2	0.43440157
168	0x3de44cb0	0.111474395
169	0xbe8da386	-0.2766382
170	0xbe819252	-0.25306946
171	0xbcc39b80	-0.02387786
172	0x3e8ef0c4	0.27918065
173	0xbe02d554	-0.1277669
174	0xbe921132	-0.28528744
175	0xbe2f54ac	-0.17122144
176	0x3f5b02db	0.8555123
177	0x3f05d205	0.5227359
178	0x3f217434	0.63067937
179	0xbf0b69be	-0.54458225
180	0x3eaea716	0.3411185
181	0x3ecb3f27	0.3969662
182	0x3e20288c	0.15640467
183	0xbe2ab78c	-0.1667158
184	0x3f1deb2d	0.61686975
185	0x3ef8be6c	0.4858278
186	0x3eb0602d	0.34448376
187	0xbd41b0ff	-0.047287937
188	0xbe079408	-0.13240063
189	0x3d5b18d0	0.05349046
190	0xbdb4e4d0	-0.08832705
191	0xbe189398	-0.14900053
192	0x3ebd9d31	0.3703399
193	0x3ef6cc84	0.48202908
194	0xbcb94fc7	-0.022621049
195	0xbe2b0426	-0.16700801
196	0x3ce8fe9d	0.028441722
197	0xbdac20bd	-0.08404682
198	0x3e70e284	0.23523909
199	0x3e346ed2	0.176204
200	0xbf580496	-0.84382
201	0xbebf2ff8	-0.37341285
202	0x3ec7b475	0.39004865
203	0x3ec61374	0.38686717
204	0xbccbb9a0	-0.024868786
205	0xbe9a5808	-0.30145288
206	0xbe9c9f42	-0.30590254
207	0xbee550fa	-0.44788343
208	0x3c903c32	0.017606828
209	0x3e627375	0.22114356
210	0x3e9d463a	0.3071764
211	0x3e26ad68	0.16277087
212	0xbf425f59	-0.7592674
213	0xbeb48912	-0.35260826
214	0x3e46b333	0.19404297
215	0x3f150fd6	0.5822729
216	0x3f940dbf	1.1566695
217	0x3d97088c	0.07374677
218	0x3dcd5c4a	0.10027368
219	0xbe92cd8d	-0.28672448
220	0xbe8c7691	-0.2743421
221	0x3ee8a893	0.45441112
222	0xbeb0f16d	-0.34559193
223	0xbe26eef9	-0.16302098
224	0xbeda517c	-0.42640293
225	0x3e79b05d	0.24383684
226	0x3eb9760e	0.3622288
227	0x3d8bfd84	0.06835464
228	0xbdfb13d6	-0.12259643
229	0xbeb1f79d	-0.34759226
230	0x3e73446f	0.23756574
231	0x3f1a11bf	0.6018333
232	0x3cb12f9b	0.021629145
233	0x3ebfe8f3	0.37482414
234	0xbe01f225	-0.12690027
235	0xbe694b4b	-0.22782628
236	0xbba07180	-0.0048963428
237	0xbec2b086	-0.38025302
238	0xbedb556c	-0.4283861
239	0xbeef7302	-0.46767431
240	0x3e5197e4	0.20468098
241	0xbe7b6028	-0.245484
242	0xbdce1528	-0.10062629
243	0xbe935450	-0.28775263
244	0xbdba98d0	-0.09111178
245	0xbeb42e86	-0.35191745
246	0xbea74640	-0.32670784
247	0x3e29d600	0.16585541
248	0x3f482f51	0.781972
249	0x3f10d7f8	0.5657954
250	0x3e13866c	0.14406747
251	0xbf2c199e	-0.6722659
252	0xbdb4ac68	-0.088219464
253	0xbe7830d0	-0.2423737
254	0xbe1ca460	-0.15297079
255	0xbef3b5fc	-0.4759978

0.bias f4 [64]
0	0x3ed79134	0.4210297
1	0x3e16ffd3	0.14746027
2	0xbf0e1b7d	-0.55510694
3	0x3ca33b35	0.019925693
4	0x3df8aabf	0.12141942
5	0x3fbcccd8	1.4750013
6	0x3eb81d48	0.3595984
7	0x3ffd866d	1.9806648
8	0x3f378398	0.7168517
9	0x3f474deb	0.7785327
10	0xbea69835	-0.32538
11	0xc00d7174	-2.2100496
12	0xbdebc190	-0.115115285
13	0x4060718a	3.5069299
14	0x3fbb6995	1.4641596
15	0xc0c7bb86	-6.241641
16	0xc0a8be7e	-5.2732534
17	0xbe3d20fe	-0.18469617
18	0x3ef219d0	0.47285318
19	0xbf6e55c3	-0.9309961
20	0xbe5d9cdd	-0.2164187
21	0x402a276f	2.6586568
22	0x3dae8804	0.08522037
23	0x3df5c26a	0.11999972
24	0xbde86e68	-0.11349183
25	0xbc82e2f5	-0.015977362
26	0xbd332030	-0.04373187
27	0xc0a13e3e	-5.038848
28	0xbe5149fc	-0.20438379
29	0xbe2289f8	-0.15872943
30	0xbef34720	-0.47515202
31	0x3ed20cc8	0.41025376
32	0xbf3386b7	-0.70127434
33	0x40281e29	2.6268408
34	0xbe04c7c0	-0.12966824
35	0xbe7c4f8a	-0.24639717
36	0xc0014914	-2.0200853
37	0xbf0511a9	-0.5198007
38	0x3f8fb6df	1.1227683
39	0x3e732af2	0.23746851
40	0x4004699c	2.068946
41	0x3e82b60b	0.25529513
42	0xbe2a8070	-0.16650558
43	0xbe25a484	-0.16176039
44	0xbd8d984e	-0.069138154
45	0x3dee1a5d	0.11626122
46	0xbde07df0	-0.10961521
47	0xbe75260c	-0.23940295
48	0xbf248828	-0.6427026
49	0x3f067632	0.525241
50	0xbffd363d	-1.9782177
51	0x3e07ab64	0.13248974
52	0xbeb1c263	-0.34718618
53	0x3e9b10ef	0.30286357
54	0x3f502af1	0.81315523
55	0x3f8b5d04	1.0887761
56	0x3d2ebc08	0.04265979
57	0x3ee9fb5d	0.45699587
58	0xbf208daf	-0.6271619
59	0x3e06b2dc	0.13154167
60	0x3eaba0f4	0.33521235
61	0x3efc6320	0.49294376
62	0x3f789751	0.9710589
63	0x3dd48928	0.10377723

2.weight f4 [13, 64]
0	0x3f02a58f	0.5103387
1	0xc0df4478	-6.977108
2	0x400efae1	2.2340624
3	0x3fc0ea8f	1.5071582
4	0xc1212c67	-10.07334
5	0xc0ed53c5	-7.416476
6	0xbdaef0ec	-0.08542046
7	0x40911246	4.5334806
8	0xc112c7a3	-9.173739
9	0xbff71d70	-1.9305859
10	0x403b4bab	2.9264934
11	0x40c9d4de	6.307235
12	0xbdc2b70a	-0.09507568
13	0xc13ca43b	-11.790095
14	0xc092322a	-4.5686235
15	0x40de2eca	6.9432116
16	0x405d3754	3.456502
17	0x4080cc46	4.0249357
18	0xbd6cf5b4	-0.05785151
19	0x3ee4c064	0.44678032
20	0x4094c926	4.6495543
21	0xc0a3f5b7	-5.1237445
22	0xc01bdfde	-2.4355388
23	0xc0671733	-3.610791
24	0xbdcef07c	-0.101044625
25	0x3ef11daa	0.47092944
26	0x3df74124	0.120729715
27	0x40b5b694	5.6785374
28	0xbdabe942	-0.083941
29	0x3cf83630	0.030299276
30	0x3d0d1ccc	0.03445129
31	0x3d8c43d0	0.06848872
32	0x4063828b	3.5548427
33	0xc13482d7	-11.281943
34	0x4119767a	9.591425
35	0x40a67cd2	5.202737
36	0x3fcd0851	1.6018163
37	0x3c827a71	0.015927525
38	0x4087709a	4.2324953
39	0x3f2ce4fb	0.67536896
40	0x3eddfc42	0.4335652
41	0x3fa9d713	1.326876
42	0xbde6cc50	-0.11269438
43	0x3bb6f620	0.0055835396
44	0x3dbd2643	0.092358135
45	0xbe868ce4	-0.26279366
46	0x3f46e56f	0.7769384
47	0xbdc225ae	-0.09479843
48	0xbf2eb1c8	-0.6824002
49	0x3ff923d7	1.9464062
50	0x40292b14	2.6432543
51	0x3d93b11e	0.07211517
52	0x3f54e514	0.83162045
53	0x3fe397a8	1.7780657
54	0xc0e4036f	-7.125419
55	0xc0fbb84b	-7.8662467
56	0x3dc5b233	0.096531294
57	0x40ab8148	5.3595314
58	0xbef7f510	-0.48429155
59	0xbdeb0900	-0.11476326
60	0x3dab2a5e	0.0835769
61	0xbdb48e06	-0.08816151
62	0xc188ed6e	-17.115932
63	0x3dd8a388	0.10578066
64	0x3c08fc4b	0.008360933
65	0x3e43d76c	0.19125146
66	0xbf0e938e	-0.556939
67	0xbeeadef7	-0.45873234
68	0x3e9ca9af	0.30598208
69	0xbd4cb13c	-0.04997371
70	0xbcd19cf0	-0.025587529
71	0x3ee4de96	0.4470107
72	0x3e1455ae	0.14485809
73	0xbd84977d	-0.064742066
74	0x3df27249	0.118382044
75	0x3c6bcfed	0.014392835
76	0xbdcfced2	-0.1014687
77	0xbe062c58	-0.13102853
78	0xbbbf4c95	-0.0058379867
79	0xbdceb4ef	-0.10093104
80	0xbb08bf73	-0.0020866066
81	0x3e863ebe	0.26219743
82	0x3c2324a0	0.009957463
83	0x3d46ac5b	0.048504215
84	0xbe726119	-0.23669852
85	0x3f66d729	0.9017206
86	0xbe56d77e	-0.20980641
87	0xbe6ed948	-0.23325074
88	0xbd82215a	-0.063540176
89	0xbd810e1a	-0.06301518
90	0xbd150c78	-0.036388844
91	0x3e5e65b1	0.2171848
92	0x3df413fa	0.11917873
93	0x3d325760	0.04354036
94	0x3db680c4	0.08911279
95	0xbd77dda0	-0.060514092
96	0x3d69853c	0.057011828
97	0xbe252b71	-0.16129853
98	0x3f6d8338	0.9277835
99	0xbe84a6d5	-0.25908533
100	0x3d3f7c88	0.04674962
101	0xbd834309	-0.0640927
102	0x3d04bce8	0.032406718
103	0xbd7b42d8	-0.061343044
104	0xbd05a473	-0.032627534
105	0x3def6995	0.1169006
106	0xbcb24ac0	-0.02176416
107	0xbded203a	-0.11578412
108	0xbef70e25	-0.4825298
109	0xbdb67b4d	-0.089102365
110	0xbcbac565	-0.022799203
111	0xbc817398	-0.01580219
112	0xbe38e0ac	-0.18054456
113	0x3e2aed7f	0.1669216
114	0x3e94af50	0.29040003
115	0x3da1cbee	0.079002246
116	0xbd13276c	-0.035926268
117	0x3eb613f1	0.3556209
118	0xbf57cb6b	-0.84294766
119	0xbdc74f3d	-0.097319104
120	0xbd3c9d44	-0.046048418
121	0x3e6c734f	0.23090862
122	0xbd4d3937	-0.050103392
123	0x3dc7d55e	0.097574934
124	0x3df62396	0.12018506
125	0xbd797118	-0.06089887
126	0x3e97d503	0.29654703
127	0x3dcd63aa	0.10028775
128	0x3daeebd5	0.08541075
129	0xbdf78793	-0.120864056
130	0xbdecce1b	-0.11562749
131	0x3e026ee7	0.12737618
132	0xbecc486e	-0.3989901
133	0xbd6744ce	-0.0564621
134	0x3d0835b0	0.033254325
135	0x3d798790	0.060920298
136	0xbde60ff0	-0.112335086
137	0x3db16ae0	0.08662963
138	0x3ce03f6a	0.027373988
139	0x3d7cd091	0.061722342
140	0xbbe7e3e0	-0.0070767254
141	0x3e0b868e	0.13625547
142	0xbe52c10f	-0.20581459
143	0xbe279b57	-0.16367851
144	0xbe8f4516	-0.27982396
145	0xbe388d6f	-0.18022703
146	0xbdd4b882	-0.103867546
147	0xbdb519d7	-0.08842819
148	0x3f2491e8	0.64285135
149	0x3f44ee9e	0.769266
150	0x3d6762fa	0.056490876
151	0x3ca316cf	0.019908337
152	0x3dc16524	0.09443119
153	0xbec0e7f4	-0.37676966
154	0xbd8cdbbc	-0.068778485
155	0x3d80b4ee	0.062845096
156	0xbd84a7a0	-0.064772844
157	0xbdacc402	-0.08435823
158	0xbd237fc0	-0.039916754
159	0x3cd6e558	0.026232406
160	0x3dfc7fc3	0.12329056
161	0xbcf37c5c	-0.029722385
162	0x3d54539c	0.05183755
163	0x3ea3ebde	0.3201589
164	0xbdab4276	-0.08362286
165	0xbdc5bd57	-0.09655254
166	0x3ef910d1	0.48645642
167	0xbc24ec85	-0.010066156
168	0x3c86de3f	0.016463397
169	0x3db060a2	0.08612181
170	0x3d19245c	0.03738819
171	0x3d303570	0.043019712
172	0x3e03b14f	0.12860607
173	0xbc56b332	-0.013104247
174	0xbcba9429	-0.022775726
175	0x3ae12f00	0.0017180145
176	0x3c0539d5	0.008131464
177	0x3df5bf0d	0.11999331
178	0xbd9584ee	-0.07300745
179	0xbd586e34	-0.052839473
180	0xbd28f623	-0.04125036
181	0x3c2f4e62	0.01069984
182	0x3ebe9b01	0.37227634
183	0x3b26f39b	0.002547479
184	0x3db47d82	0.08813001
185	0x3e4d4b42	0.2004824
186	0xbdea91ea	-0.11453612
187	0xbd89657c	-0.0670881
188	0xbce0fc08	-0.027463928
189	0xbcbcbf78	-0.023040518
190	0x3f00ad6e	0.5026463
191	0xbdeb002e	-0.11474644
192	0x3d59af66	0.05314579
193	0x3c798f67	0.015231944
194	0x3dde6f6c	0.10861096
195	0xbb6e7e80	-0.0036391318
196	0xbdade30f	-0.084905736
197	0x3da2897c	0.07936379
198	0x3dc11e2e	0.094295844
199	0xbf25fbcf	-0.64837354
200	0xbd61bdae	-0.055112533
201	0xbc8f8340	-0.01751864
202	0x3d69432e	0.056948833
203	0x3eafa4fd	0.34305564
204	0x3db91782	0.09037687
205	0xbcc76ace	-0.02434292
206	0xbe3bc084	-0.18335158
207	0x3ed2dda5	0.41184726
208	0x3e193cb5	0.14964564
209	0x3ec835e5	0.39103618
210	0x3d0c0c40	0.03419137
211	0x3cf23f5c	0.029571228
212	0x3e72ddb6	0.23717389
213	0xbf6c01e8	-0.9219041
214	0x3d0bb387	0.034106757
215	0xbea95418	-0.3307197
216	0xbdf0c6a2	-0.11756636
217	0xbeaf23b3	-0.34206924
218	0xbdae5448	-0.08512169
219	0x3f1cb0dc	0.61207366
220	0xbd9b6a14	-0.07588592
221	0xbc13de70	-0.009025201
222	0xbce344f0	-0.027742833
223	0x3cb63988	0.02224423
224	0x3e05b4ab	0.130572
225	0xbe6c79cf	-0.23093341
226	0x3f4a24a0	0.78962135
227	0x3e982117	0.29712746
228	0x3e4c93f8	0.1997832
229	0xbb97a865	-0.0046282285
230	0x3e10a572	0.14125612
231	0xbe1851e1	-0.14874984
232	0xbf0bcc0c	-0.54608226
233	0x3dc8ba9a	0.098012164
234	0xbcdfb600	-0.027308464
235	0xbdada1f2	-0.08478154
236	0xbe8bce07	-0.27305624
237	0xbda2f18a	-0.07956226
238	0x3c41d770	0.011831149
239	0x3dfe551a	0.124185756
240	0xbb5d30b8	-0.0033750962
241	0x3e1c0d49	0.15239443
242	0x3e24f1be	0.16107842
243	0xbddc36e4	-0.10752657
244	0xbce4563e	-0.027873155
245	0x3e5a9d45	0.21349056
246	0xbe8a213f	-0.2697849
247	0xbe2f16cb	-0.17098539
248	0xbd4cce1f	-0.05000126
249	0x3e47e2d4	0.19520122
250	0xbda72ffe	-0.08163451
251	0xbdfc5f9c	-0.123229235
252	0xbd9d22d0	-0.076726556
253	0x3d433ae4	0.047663584
254	0x3f8ac599	1.0841552
255	0xbd184d0c	-0.037182853

2.bias f4 [13]
0	0xc13c8cb7	-11.784354
1	0x3f8201cc	1.0156798
2	0x3f052cf5	0.52021724
3	0xbf8d1cc6	-1.1024406
4	0xbd5e0cd3	-0.05421145
5	0x3daf9620	0.08573556
6	0xbdc7640a	-0.09735878
7	0x3de9aea6	0.11410265
8	0x3c1ebd70	0.00968872
9	0x3d7640ca	0.06012038
10	0x3dc6d421	0.09708429
11	0x3dda3e0a	0.10656364
12	0xbdc78f98	-0.09744185
