Op_problems/problem_pooling/mlp_model.pth (torch, 7089 bytes, 4 tensors)

0.weight f4 [64, 4]
0.5251044 0.44384268 -0.16422875 0.48808464 -0.23367448 -0.043725792 -0.36003888 0.25918365
0.18800019 -0.51586235 0.3970993 0.29949242 0.4022706 0.19990103 -0.04343382 -0.2843018
0.21815825 -0.054813206 -0.3282233 -0.007920082 -0.03554201 -0.036140863 -0.19406709 0.2858056
-0.3946851 -0.23050517 -0.14118737 -0.30063623 -0.7860633 -0.3222853 0.5154625 -0.67105067
0.47323018 -0.101022 -0.21431804 0.1389836 0.22489256 0.407699 0.03061278 -0.15283322
0.24272625 -0.22615294 0.07130236 0.29174384 0.040031362 -0.36370248 0.28742003 0.2237241
0.25391752 -0.30475253 -0.49495423 -0.19318026 -0.26735938 0.23069651 -0.115659155 0.06675439
0.030875882 0.21262637 0.416766 -0.16474858 -0.27781865 -0.2660276 0.28257307 0.26114988
-0.2850087 0.01464799 0.52505094 -0.012837771 -0.5605006 -0.28306413 0.6660144 0.30997863
0.48112535 -0.41263813 -0.49593806 -0.3911819 -0.44978002 -0.102169424 0.0011084069 0.19797325
0.033655085 -0.36327028 0.296269 0.22451147 -0.7733315 -0.011472223 0.22878264 -0.71006924
-0.08421013 0.120511115 0.0018825572 -0.09097496 0.59871286 0.5129763 -0.24995922 -0.123019464
0.45783097 -0.16871625 -0.1772582 -0.4837973 0.3692474 0.34999883 -0.027136639 -0.35298148
0.011728346 -0.34154075 -0.42419833 -0.27533132 -0.35221982 -0.29710078 0.5477363 0.29393318
0.15407985 -0.46634215 -0.3283869 -0.16642791 0.07818556 -0.43996066 -0.21543652 -0.2993343
0.0013856292 -0.1860516 -0.034647882 -0.33881485 -0.34319758 -0.2917009 -0.17114872 -0.39464045
0.4364046 -0.17942922 0.29461133 0.14063072 -0.52250195 0.36466855 -0.122081965 -0.16636503
1.0551145 -0.60089046 0.26303983 -0.0994072 0.22071101 -0.4273703 0.5028147 0.18988416
-0.1968344 -0.13360883 0.017723057 0.12796952 0.42225078 -0.42969 0.09260477 -0.24829192
-1.3327038 0.015075772 0.38469642 -0.33676416 0.37865075 0.2353085 0.13241477 -0.16382352
0.612383 0.40203175 0.010602625 -0.45143297 0.38684806 0.014462189 -0.20910978 0.4764336
0.111474395 -0.2766382 -0.25306946 -0.02387786 0.27918065 -0.1277669 -0.28528744 -0.17122144
0.87832165 -0.03696147 0.4550739 -0.57131106 0.18303297 0.18471192 -0.081747256 -0.1685317
0.4095963 0.27939308 0.13643943 -0.19810563 -0.13240063 0.05349046 -0.08832705 -0.14900053
0.43123636 0.44024915 -0.115031384 -0.098445415 0.13964202 -0.006789904 0.109818056 0.14902663
-0.48551524 -0.23767196 0.42571375 0.20657852 -0.024868786 -0.30145288 -0.30590254 -0.44788343
-0.31638128 -0.116641834 0.20482084 0.07326512 -0.66849804 -0.5657707 0.14045486 0.55839777
0.54640573 0.14985527 0.16660675 -0.29558527 -0.12064926 0.41851968 -0.20970277 -0.05575656
-0.3113963 0.24596971 0.16172709 0.13554771 -0.39719218 -0.2714656 -0.1353371 0.60613066
-0.36085087 0.20992984 -0.12574497 -0.16006108 -0.0048963428 -0.38025302 -0.4283861 -0.46767431
0.20468098 -0.245484 -0.10062629 -0.28775263 -0.09111178 -0.35191745 -0.32670784 0.16585541
0.39157784 0.2354159 0.15425716 -0.5701563 -0.088219464 -0.2423737 -0.15297079 -0.4759978
00000000: 3e6d 063f 593f e33e 952b 28be 3be6 f93e
00000010: 5d48 6fbe d119 33bd 0457 b8be b8b3 843e
00000020: 1f83 403e 8e0f 04bf 9950 cb3e 1257 993e
00000030: 69f6 cd3e dbb2 4c3e a9e7 31bd 0190 91be
00000040: e064 5f3e d083 60bd e20c a8be 3bc3 01bc
00000050: 8094 11bd 7108 14bd 86b9 46be 1d55 923e
00000060: 2a14 cabe 8c09 6cbe 6c93 10be feec 99be
00000070: 723b 49bf 9402 a5be 5af5 033f fac9 2bbf
00000080: 3a4b f23e 9fe4 cebd 3076 5bbe b851 0e3e
00000090: 3c4a 663e ecbd d03e a7c7 fa3c 5080 1cbe
000000a0: 3b8d 783e a394 67be f906 923d 735f 953e
000000b0: edf7 233d 3637 babe b828 933e ee17 653e
000000c0: 7a01 823e 8608 9cbe a46a fdbe 0cd1 45be
000000d0: 54e3 88be b53b 6c3e b5de ecbd 87b6 883d
000000e0: 6bef fc3c baba 593e 5a62 d53e dab3 28be
000000f0: 3f3e 8ebe c534 88be 6bad 903e 70b5 853e
00000100: a9ec 91be 20fe 6f3c bd69 063f 8455 52bc
00000110: f87c 0fbf c8ed 90be eb7f 2a3f 85b5 9e3e
00000120: 1056 f63e 4e45 d3be 98eb fdbe fe48 c8be
00000130: 9149 e6be 343e d1bd f747 913a 80b9 4a3e
00000140: ead9 093d 90fe b9be 92b0 973e 56e6 653e
00000150: 0ef9 45bf fef5 3bbc ff45 6a3e 19c7 35bf
00000160: 5c76 acbd 88ce f63d 23c0 f63a 1451 babd
00000170: 3f45 193f 6a52 033f 4ff5 7fbe a1f1 fbbd
00000180: d268 ea3e f4c3 2cbe 2c83 35be 48b4 f7be
00000190: ff0d bd3e 0c33 b33e a84d debc fdb9 b4be
000001a0: 4028 403c 6ede aebe 8630 d9be 3af8 8cbe
000001b0: 2856 b4be 981d 98be 7238 0c3f 697e 963e
000001c0: 1cc7 1d3e 66c4 eebe 5422 a8be 146c 2abe
000001d0: c01f a03d 8642 e1be 649b 5cbe 5842 99be
000001e0: 009e b53a 5084 3ebe f0ea 0dbd 2479 adbe
000001f0: 98b7 afbe d259 95be 9c41 2fbe 500e cabe
00000200: 6c70 df3e 4bbc 37be 4cd7 963e 8001 103e
00000210: b0c2 05bf d6b5 ba3e 1c06 fabd 985b 2abe
00000220: fe0d 873f f5d3 19bf 28ad 863e 0196 cbbd
00000230: 1102 623e 48d0 dabe 77b8 003f fe70 423e
00000240: f58e 49be c1d0 08be f22f 913c 710a 033e
00000250: 4131 d83e 5400 dcbe 92a7 bd3d 3d40 7ebe
00000260: 0a96 aabf 5f00 773c eef6 c43e 5a6c acbe
00000270: 83de c13e b6f4 703e bd97 073e 5ac1 27be
00000280: 22c5 1c3f 1bd7 cd3e a2b6 2d3c 3922 e7be
00000290: f310 c63e d1f2 6c3c e020 56be 1bef f33e
000002a0: b04c e43d 86a3 8dbe 5292 81be 809b c3bc
000002b0: c4f0 8e3e 54d5 02be 3211 92be ac54 2fbe
000002c0: b0d9 603f e964 17bd 72ff e83e 7141 12bf
000002d0: ff6c 3b3e 1f25 3d3e 1b6b a7bd 9393 2cbe
000002e0: 9bb6 d13e 9c0c 8f3e c7b6 0b3e 34dc 4abe
000002f0: 0894 07be d018 5b3d d0e4 b4bd 9893 18be
00000300: 03cb dc3e 5668 e13e 9395 ebbd c09d c9bd
00000310: 51fe 0e3e d87d debb 4ae8 e03d 709a 183e
00000320: 7495 f8be 4760 73be 27f7 d93e 5289 533e
00000330: a0b9 cbbc 0858 9abe 429f 9cbe fa50 e5be
00000340: bafc a1be eae1 eebd 8ebc 513e 060c 963d
00000350: b022 2bbf 59d6 10bf 66d3 0f3e 28f3 0e3f
00000360: 3fe1 0b3f a973 193e f69a 2a3e f456 97be
00000370: f616 f7bd 3648 d63e 53bc 56be fe60 64bd
00000380: 566f 9fbe 7cdf 7b3e c99b 253e 05cd 0a3e
00000390: c65c cbbe 8afd 8abe cf95 0abe 612b 1b3f
000003a0: 72c1 b8be d9f7 563e 4ac3 00be 0de7 23be
000003b0: 8071 a0bb 86b0 c2be 6c55 dbbe 0273 efbe
000003c0: e497 513e 2860 7bbe 2815 cebd 5054 93be
000003d0: d098 babd 862e b4be 4046 a7be 00d6 293e
000003e0: e47c c83e de10 713e 97f5 1d3e c3f5 11bf
000003f0: 68ac b4bd d030 78be 60a4 1cbe fcb5 f3be

0.bias f4 [64]
0.0456418 0.3647135 0.61316615 0.6874361 0.22021426 -0.32649237 0.3595984 1.484911
0.14344475 0.23580386 -0.25003076 0.60226405 -0.115115285 -0.42747504 0.7309122 -0.14197896
0.62115675 0.70613277 0.47285318 -0.38678664 0.03100735 -1.4127984 0.03333227 -0.42954174
-0.11349183 1.0850382 -0.04373187 -0.33525077 -0.20438379 -0.15872943 -0.47515202 0.41025376
-0.02733474 -0.41509017 -0.44157416 -0.14462905 -1.1285137 -0.5198007 0.042032186 0.012403242
0.789917 -0.24063647 -0.16650558 -0.16176039 -0.35963848 -0.18349822 -0.4703508 -0.23940295
-0.7132416 0.14796224 -0.027658526 0.13248974 0.12164953 -0.7475888 0.3617653 0.232543
-0.4182141 0.4685513 1.1725819 0.13154167 0.33521235 0.49294376 -0.34331825 0.10377723
00000000: e5f2 3a3d babb ba3e 75f8 1c3f d0fb 2f3f
00000010: d97f 613e 022a a7be 481d b83e 9011 be3f
00000020: 2ee3 123e 9176 713e 0804 80be fa2d 1a3f
00000030: 90c1 ebbd 02de dabe 101d 3b3f ef62 11be
00000040: 2104 1f3f 1ec5 343f d019 f23e e608 c6be
00000050: 2003 fe3c 94d6 b4bf 6b87 083d e5ec dbbe
00000060: 686e e8bd 88e2 8a3f 3020 33bd fda5 abbe
00000070: fc49 51be f889 22be 2047 f3be c80c d23e
00000080: 1bed dfbc b386 d4be 0216 e2be a319 14be
00000090: 2373 90bf a911 05bf f129 2c3d f836 4b3c
000000a0: 0038 4a3f 6869 76be 7080 2abe 84a4 25be
000000b0: 8922 b8be f5e6 3bbe d2d1 f0be 0c26 75be
000000c0: 0097 36bf 6a83 173e 2294 e2bc 64ab 073e
000000d0: 6423 f93d fb61 3fbf 4d39 b93e c11f 6e3e
000000e0: 2920 d6be f5e5 ef3e 2a17 963f dcb2 063e
000000f0: f4a0 ab3e 2063 fc3e 69c7 afbe 2889 d43d

2.weight f4 [13, 64]
-0.042021517 -0.0013433782 -0.0022127226 -0.0073516285 -0.044063546 0.0011898678 -0.08542046 0.024117572
0.0043331897 0.031176219 0.06558733 -0.015720133 -0.09507568 -0.040144213 0.0070481817 -0.07090801
-0.0024212108 0.052861948 -0.05785151 0.004362246 0.020976447 -0.018780561 0.013746623 -0.025762975
-0.101044625 0.0049532442 0.120729715 -0.15375261 -0.083941 0.030299276 0.03445129 0.06848872
0.072097555 -0.003307917 0.011334876 0.0026055272 -0.0137597285 0.015927525 -0.016113142 0.05106687
-0.0088340435 -0.015233538 -0.11269438 0.0055835396 0.014308072 -0.0026673716 0.020695386 -0.09479843
-0.08090738 0.050578855 0.002098824 0.07211517 -0.014011539 0.004456645 0.0005980562 0.05286062
0.08097562 0.059718117 -0.012949259 -0.11476326 0.0835769 -0.08816151 -0.083696686 0.10578066
0.015199721 0.11265012 -0.5918198 -0.505574 0.05302334 -0.11192465 -0.025587529 -0.24821885
-0.25859854 0.15039448 0.053932194 -0.34375706 -0.1014687 0.009894002 0.15288632 -0.10237914
0.18334028 0.19928087 0.009957463 -0.09052868 -0.31885266 0.41865036 0.030546054 -0.019005168
-0.063540176 0.41553956 -0.036388844 0.108339064 0.11917873 0.04354036 0.08911279 -0.060514092
0.058852166 -0.14243373 0.27491784 -0.40209562 0.022720035 -0.0640927 -0.16283749 0.22876717
0.49412796 -0.0250541 -0.02176416 -0.11578412 0.29534295 0.10458306 0.19718562 -0.01580219
0.027619414 0.14414625 0.07943342 0.079002246 0.25191346 0.3881858 0.16426532 0.030532718
-0.0017991338 -0.19814326 0.30121738 0.097574934 0.12018506 -0.06089887 0.035261914 0.10028775
0.24365209 -0.13704121 0.56566817 0.53918076 -0.051791858 0.10674968 0.033254325 0.23000763
0.24061956 0.22302446 0.103672616 0.22763751 -0.0070767254 0.14547598 0.03667787 -0.19175002
-0.11427645 -0.21570966 -0.103867546 0.06995166 0.4788095 -0.641899 0.0875022 0.35487592
0.09443119 -0.4499945 -0.068778485 -0.04253392 -0.064772844 -0.08435823 -0.039916754 0.026232406
0.14571169 0.18652146 -0.7377777 0.40622106 -0.00092579547 -0.09655254 0.113877684 0.09201867
-0.29816934 0.26285532 0.03738819 0.043019712 -0.2726961 0.04101355 0.07540445 0.0017180145
0.18171231 0.19861156 -0.08504019 -0.052839473 -0.22437952 -0.57315326 -0.19259638 0.20744684
0.19818008 0.2798404 -0.3149374 -0.0670881 -0.027463928 -0.023040518 -0.14678383 -0.11474644
0.039945606 -0.17801973 0.5303355 0.51809967 0.10194075 -0.10271323 0.094295844 0.26061216
0.23248181 0.06602905 0.004982271 0.44351354 0.09037687 -0.041699994 0.030206727 0.22645175
0.07253314 0.20992647 0.03419137 0.080776 0.286895 -0.47703758 0.057821617 -0.15006246
-0.11756636 -0.4171456 -0.08512169 0.30605045 -0.07588592 -0.009025201 -0.027742833 0.02224423
0.11691591 0.20903099 -0.116721064 0.42434135 0.046522893 -0.0046282285 0.23113766 0.0151652
-0.42460465 0.036272094 -0.027308464 -0.08478154 -0.26267603 0.014227587 0.039710574 0.124185756
0.04975743 0.10551388 -0.07417759 -0.10752657 -0.25479656 -0.49787512 -0.14085004 -0.08358509
-0.055370666 0.03022999 -0.3325815 -0.123229235 -0.076726556 0.047663584 0.19886363 -0.037182853
00000000: c11e 2cbd 4b14 b0ba 5303 11bb eee5 f0bb
00000010: fa7b 34bd 57f5 9b3a ecf0 aebd 3792 c53c
00000020: 6efd 8d3b 4565 ff3c a652 863d 82c7 80bc
00000030: 0ab7 c2bd 426e 24bd 6ff4 e63b 3838 91bd
00000040: 2dad 1ebb c585 583d b4f5 6cbd 2cf1 8e3b
00000050: ccd6 ab3c b1d9 99bc 8439 613c e00c d3bc
00000060: 7cf0 cebd d34e a23b 2441 f73d 5371 1dbe
00000070: 42e9 abbd 3036 f83c cc1c 0d3d d043 8c3d
00000080: e2a7 933d a3c9 58bb eab5 393c 7ec1 2a3b
00000090: 7c70 61bc 717a 823c b5ff 83bc 7f2b 513d
000000a0: aabc 10bc 1796 79bc 50cc e6bd 20f6 b63b
000000b0: 676c 6a3c 12cf 2ebb 5f89 a93c ae25 c2bd
000000c0: c5b2 a5bd c62b 4f3d 6c8c 093b 1eb1 933d
000000d0: a790 65bc 0c09 923b dfc6 1c3a 6184 583d
000000e0: 8cd6 a53d fc9a 743d 2129 54bc 0009 ebbd
000000f0: 5e2a ab3d 068e b4bd 2b69 abbd 88a3 d83d
00000100: 4008 793c 1bb5 e63d 8181 17bf 4c6d 01bf
00000110: 002f 593d c038 e5bd f09c d1bc 152d 7ebe
00000120: 0767 84be 0301 1a3e 01e8 5c3d ed00 b0be
00000130: d2ce cfbd 741a 223c 3b8e 1c3e 28ac d1bd
00000140: 8ebd 3b3e 4910 4c3e a024 233c 1a67 b9bd
00000150: a840 a3be 5759 d63e b83b fa3c bab0 9bbc
00000160: 5a21 82bd 9ac1 d43e 780c 15bd dfe0 dd3d
00000170: fa13 f43d 6057 323d c480 b63d a0dd 77bd
00000180: f80e 713d 26da 11be 08c2 8c3e 7adf cdbe
00000190: 5e1f ba3c 0943 83bd dfbe 26be f141 6a3e
000001a0: 57fe fc3e 423e cdbc c04a b2bc 3a20 edbd
000001b0: 3137 973e a52f d63d 07eb 493e 9873 81bc
000001c0: 1c42 e23c 139b 133e fdad a23d eecb a13d
000001d0: cdfa 803e 4ac0 c63e 2b35 283e c01f fa3c
000001e0: ead0 ebba 11e6 4abe 2a39 9a3e 5ed5 c73d
000001f0: 9623 f63d 1871 79bd cc6e 103d aa63 cd3d
00000200: ef7f 793e 8854 0cbe a1cf 103f c007 0a3f
00000210: b323 54bd 949f da3d b035 083d 1f87 6b3e
00000220: f964 763e 8660 643e 4f52 d43d cf19 693e
00000230: e0e3 e7bb a8f7 143e 893b 163d 1e5a 44be
00000240: c509 eabd fee2 5cbe 82b8 d4bd d142 8f3d
00000250: 8526 f53e 7e53 24bf 5a34 b33d 4cb2 b53e
00000260: 2465 c13d ae65 e6be bcdb 8cbd 0c38 2ebd
00000270: a0a7 84bd 02c4 acbd c07f 23bd 58e5 d63c
00000280: 7235 153e 7bff 3e3e 00df 3cbf 35fc cf3e
00000290: 15b1 72ba 57bd c5bd b438 e93d 4974 bc3d
000002a0: a7a9 98be f994 863e 5c24 193d 7035 303d
000002b0: d39e 8bbe d3fd 273d a66d 9a3d 002f e13a
000002c0: cb12 3a3e d460 4b3e 8d29 aebd 346e 58bd
000002d0: bfc3 65be 2cba 12bf fc37 45be f26c 543e
000002e0: b8ef 4a3e 3e47 8f3e 7a3f a1be 7c65 89bd
000002f0: 08fc e0bc 78bf bcbc 804e 16be 2e00 ebbd
00000300: 019e 233d ce4a 36be 11c4 073f 2ea2 043f
00000310: 50c6 d03d 505b d2bd 2e1e c13d f56e 853e
00000320: b60f 6e3e 3d3a 873d 5242 a33b 3514 e33e
00000330: 8217 b93d 9dcd 2abd 1974 f73c f8e2 673e
00000340: 418c 943d f7f6 563e 400c 0c3d e36d a53d
00000350: e7e3 923e 453e f4be 5cd6 6c3d f9a9 19be
00000360: a2c6 f0bd 1c94 d5be 4854 aebd a5b2 9c3e
00000370: 146a 9bbd 70de 13bc f044 e3bc 8839 b63c
00000380: 9c71 ef3d 380c 563e 740b efbd 4543 d93e
00000390: ca8e 3e3d 65a8 97bb 5aaf 6c3e 7677 783c
000003a0: c865 d9be 0c92 143d 00b6 dfbc f2a1 adbd
000003b0: 797d 86be d31a 693c 8ea7 223d 1a55 fe3d
000003c0: 72ce 4b3d a917 d83d 6cea 97bd e436 dcbd
000003d0: b274 82be 7de9 febe fe3a 10be a92e abbd
000003e0: 5acc 62bd e2a4 f73c 1f48 aabe 9c5f fcbd
000003f0: d022 9dbd e43a 433d e8a2 4b3e 0c4d 18bd

2.bias f4 [13]
1.0312718 0.2673068 -0.09793999 -0.42313918 0.30770954 0.08573556 -0.09735878 0.11410265
0.00968872 0.060120642 0.09708454 0.10656364 -0.09744185
00000000: b700 843f 70dc 883e c394 c8bd b3a5 d8be
00000010: 1b8c 9d3e 2096 af3d 0a64 c7bd a6ae e93d
00000020: 70bd 1e3c 1041 763d 42d4 c63d 0a3e da3d
00000030: 988f c7bd
