Op_problems/problem_tp8_113/pinn_model.pth (torch, 5307 bytes, 4 tensors)

0.weight f4 [64, 2]
000000 b5 2c f3 3e 1a b6 19 3f 30 28 c3 bd a0 c4 23 3f
       0.47495046 0.6004349 -0.095291495 0.639719
000010 92 db 3c be ca 0b 17 3e ad 96 c6 be 05 52 cb 3e
       -0.18443134 0.14750591 -0.38786831 0.39711013
000020 e2 a7 19 3f a6 f5 17 bf f8 5a 14 3f f7 74 d0 3d
       0.60021794 -0.59359205 0.5795131 0.10178559
000030 32 37 f4 3e 5d 7a f8 3d 59 c5 a1 3e 0f 6a 19 bc
       0.4769836 0.12132714 0.31595877 -0.009363665
000040 c6 a4 0e 3f 36 2e f1 3d 94 b3 a5 be 62 86 14 3e
       0.55720174 0.11776392 -0.3236357 0.14504388
000050 ba 44 4a bd f6 7a 35 3c 55 ba 6d be 8a f7 e7 3e
       -0.04938195 0.011076679 -0.23215611 0.45306045
000060 a2 f4 2a be b3 8c 9d bc 0c 76 4c be 13 af d9 be
       -0.16694883 -0.01923213 -0.19966906 -0.42516384
000070 a2 61 e2 3d 56 de 0a bf 8e 0a 24 3f 2b 89 02 bf
       0.11053778 -0.5424551 0.64078605 -0.5099055
000080 66 65 f5 3e 6b f3 9a 3d d2 18 4b be 19 f6 d4 3e
       0.47928923 0.075659595 -0.19833687 0.41594008
000090 44 ee e9 3d 21 ed 0a 3f 7b e0 d0 3d ed 97 49 be
       0.11422399 0.5426808 0.10199066 -0.19686861
0000a0 96 10 32 3e ea 57 89 bd cb a1 73 3e 7a 8c 22 3f
       0.1738914 -0.067062214 0.23792188 0.634956
0000b0 d7 ae b7 3e c5 9f bd be ac 86 bf 3e 98 26 1c 3e
       0.3587558 -0.37035957 0.37407434 0.15249097
0000c0 66 cc b6 3e 7c 23 b9 be 4c 31 33 bf a1 e0 8b be
       0.3570282 -0.36159885 -0.69997096 -0.27319816
0000d0 6c ea 15 bf cf d7 0c 3f 5f d5 1a 3e 5e bb 98 3e
       -0.58560824 0.550168 0.15120457 0.2983045
0000e0 91 41 55 3e bb c0 ef bb 0e 6d 0d 3f 9b e4 12 bf
       0.20825793 -0.0073166764 0.5524453 -0.57380074
0000f0 78 cc 9d 3d 4b af 01 bf 2c 98 8c 3e ba 52 d3 bd
       0.07705015 -0.506581 0.27459848 -0.10318513
000100 9a 7b 71 3e 5a 35 b1 bd 6e d0 1d 3f d6 fd bc be
       0.23582307 -0.08652754 0.61646163 -0.3691241
000110 4c eb d7 be a3 ee d7 be 84 05 1c 3f 2f 5a 77 3e
       -0.42171705 -0.42174253 0.60945916 0.24155496
000120 5d 70 31 3f 9e bf 03 bf 7b 8c 33 bf 7b 9f 0d bf
       0.6931208 -0.5146426 -0.7013623 -0.5532147
000130 2a c0 d7 be 59 da 94 3e aa 7a 94 3e d1 20 11 3f
       -0.42138797 0.29072836 0.28999835 0.566907
000140 78 01 b4 be 51 ee ed be 73 a4 af 3e b5 f9 b6 be
       -0.3515737 -0.46470883 0.34305152 -0.35737386
000150 54 60 c9 3e 67 d2 30 be 50 55 d9 3e f6 04 e1 be
       0.39331305 -0.17267762 0.424479 -0.43949097
000160 3f 95 af be 40 9e 52 3e 4e 1f 3e 3e 4a f7 b9 bd
       -0.34293553 0.2056818 0.1856663 -0.0908037
000170 05 06 d8 3e 69 06 e8 3e 39 45 03 bf eb 47 c1 be
       0.42192093 0.4531739 -0.512775 -0.37750182
000180 5e 3e 16 3f 68 b9 78 be a0 28 c9 3b 56 cf cd be
       0.58688915 -0.24289477 0.006138876 -0.40197247
000190 82 d0 e1 be ef 87 36 3e 80 25 bf bd 3f 66 03 bf
       -0.4410439 0.17825292 -0.093333244 -0.5132789
0001a0 1c de 40 3d 1e 89 ee be 7e e3 27 bf 6d 36 e5 be
       0.04708682 -0.46588987 -0.655815 -0.44768086
0001b0 28 6e 1e bf 18 86 e6 be 82 3b 29 3f 5b 14 15 3e
       -0.61886835 -0.4502418 0.66106427 0.14558546
0001c0 4c 2b 58 3e ca 17 16 bf 33 42 12 be 75 cc d3 bc
       0.21110266 -0.5863005 -0.14283065 -0.025854329
0001d0 30 16 0b 3e 3c 62 0f bf 22 fe 9b be bd bd d8 be
       0.13582683 -0.5600927 -0.30467325 -0.4233226
0001e0 00 6c 00 3b 3b b7 86 be 7e aa ca 3d 03 c6 55 be
       0.0019595623 -0.2631167 0.098958 -0.20876317
0001f0 68 80 f8 be c9 36 d3 be 8e d9 77 be 06 e0 0e bf
       -0.48535466 -0.41252735 -0.24204084 -0.5581058

0.bias f4 [64]
000000 c3 62 42 3f 67 36 f9 bd eb 57 0d 3f 5b 90 de 3d
       0.7593195 -0.121685795 0.5521228 0.10867377
000010 f1 3f 2b bf 90 a6 e1 3e 9d 36 8f bd 7b 45 6d be
       -0.6689444 0.4407239 -0.069928385 -0.23171036
000020 9f 9d 23 bf 37 8c 28 bf d1 aa 09 3f 0f f2 df bd
       -0.63912386 -0.6583895 0.5377627 -0.10934841
000030 64 9d 16 3f 53 8e 14 bf 4a a2 33 3f ef 2e 0d bf
       0.5883391 -0.5802967 0.7016951 -0.5514974
000040 49 ff c7 bd ad 40 38 3e b5 61 a2 3e ba 0c 0f 3f
       -0.09765489 0.17993422 0.3171517 0.55878794
000050 29 81 47 3f 04 52 05 bf e5 f2 49 3e 2b 87 97 be
       0.7793146 -0.5207827 0.19721563 -0.29595312
000060 c1 e1 8c bd be 7d 07 bf 7f 24 0a 3f 43 3d ed be
       -0.06878997 -0.5292624 0.5396194 -0.463358
000070 30 f9 7e 3e a6 e8 e3 3d f4 1e 13 3e 27 f9 99 be
       0.24899745 0.111283585 0.14367276 -0.300729
000080 4d bd 56 3f f0 63 22 3e 68 4a ba 3d 4f e4 2a bf
       0.838826 0.15858436 0.09096223 -0.6675462
000090 88 df 87 3e c8 40 d9 bd e3 0d 82 be bd 41 3e 3f
       0.26537728 -0.10608059 -0.2540122 0.7431906
0000a0 cd 82 31 3e f6 34 b4 be a9 49 d6 be a3 e2 c6 bb
       0.17335053 -0.35196656 -0.41853073 -0.0060694977
0000b0 1b 1d 06 3f 1e 9d 12 be 6d e6 cf be 82 f4 77 be
       0.5238816 -0.14317748 -0.40605488 -0.24214366
0000c0 95 03 13 bf 9c 33 01 3f 49 40 f8 3e 3d 6b 2a bf
       -0.5742734 0.50469375 0.48486546 -0.6656988
0000d0 d5 75 07 3e d6 57 95 3e e8 4b 03 3e 2b 64 89 be
       0.13228543 0.29168576 0.12821925 -0.26834235
0000e0 a1 1a c9 3e 23 8d 2e 3f eb 8c 60 3e c8 78 fe bd
       0.3927813 0.6818411 0.21928756 -0.12425381
0000f0 90 bc 3f be 5e 95 bc 3e 90 d2 ff bd 9c c6 57 be
       -0.18724275 0.36832708 -0.124913335 -0.21071857

2.weight f4 [8, 64]
000000 15 a3 b2 3d 95 f4 a8 3d 30 01 0b 3c ee 0a 49 bd
       0.08722512 0.08249775 0.00848417 -0.04908269
000010 f7 aa a5 bc 17 a1 34 3d 05 c4 af 3c 55 5c 10 3d
       -0.020223124 0.04409894 0.021455774 0.035244305
000020 8e ff 38 be ba aa ad bd 1d f6 99 3e f1 71 99 3c
       -0.18066236 -0.08479829 0.30070582 0.01873109
000030 af 6f d8 3d 08 58 9a bd bf c7 98 bc 91 40 06 be
       0.10568177 -0.07536322 -0.018649934 -0.13110568
000040 64 e9 38 bd 70 cc be 3c c3 f1 95 3d 26 86 26 3e
       -0.045144454 0.023290843 0.07321503 0.16262111
000050 29 33 14 bc 72 ed de bd ef ec cd 3b c8 a7 96 3d
       -0.009045401 -0.10885133 0.006284348 0.073562205
000060 d4 8f d6 3b d0 97 04 bd 10 f4 1b 3d fc dc c4 bd
       0.0065479074 -0.032371342 0.038074553 -0.09612462
000070 35 ea 00 3c ab 4b db 3d 80 74 92 bd f3 83 5b bd
       0.007868339 0.10707792 -0.07151127 -0.053592633
000080 9d b8 d0 bc f3 7f f0 3d 58 f4 c1 3d 75 e8 72 bc
       -0.025478655 0.117431544 0.09470433 -0.01482593
000090 86 80 7d bd 18 a8 fc bd b2 44 0c be 93 9c c8 3d
       -0.061890148 -0.12336749 -0.1369808 0.09795489
0000a0 32 79 1a 3e 1e f7 a0 3d 17 b5 6a 3d 10 f4 dc 3c
       0.15085295 0.07859634 0.057301607 0.026971847
0000b0 90 d9 99 bb a3 db ee bd d7 56 0d be 02 73 ef bd
       -0.004695125 -0.11662986 -0.13802658 -0.11691858
0000c0 d2 bf 3f 3d 7e 7a 96 3b c9 35 b6 bc 50 54 93 bd
       0.046813793 0.004592239 -0.022242444 -0.07193816
0000d0 5f 60 fb bc a6 5f 17 bc 40 46 a7 bd 36 06 f2 3c
       -0.030685602 -0.009239113 -0.08167696 0.029543977
0000e0 c0 d5 c4 bc 09 b6 68 3e 59 e4 30 bd 10 cb bb bd
       -0.024027705 0.22725691 -0.04318652 -0.091695905
0000f0 68 ac b4 bc 19 83 a2 3c 60 a4 1c bd fc b5 f3 bd
       -0.022054866 0.019837903 -0.038242698 -0.11899945
000100 1e e8 ce 3d bb b0 0a be 5f 78 08 3e a6 8b e9 3c
       0.101028666 -0.1354398 0.13327168 0.028508972
000110 8b b9 c7 3d b2 9b 85 bd 25 b7 d4 3d c1 3c 3f bd
       0.097521864 -0.06523837 0.103864945 -0.0466888
000120 46 6f 35 3d aa ad 4a 3d e8 1b 99 3e 48 df 59 bd
       0.04429557 0.049482025 0.29904103 -0.053191453
000130 f1 e4 ef 3d 8c c1 d5 bd 39 81 c9 3d bd 21 e8 bd
       0.11713589 -0.10437307 0.098391004 -0.1133456
000140 6e 66 bd 3d cd b5 77 3d a5 90 0d 3e 5b 4d 19 3d
       0.092480525 0.060476113 0.13824709 0.037427288
000150 4e a4 38 bd 6e 5d 5b bc 05 2a c4 3d 5d 88 f8 bd
       -0.04507857 -0.013388975 0.09578327 -0.12135384
000160 b9 f1 5d bc ea 75 99 bd 27 49 c2 bc 91 2f f8 bd
       -0.013546401 -0.074931934 -0.023716522 -0.121184476
000170 13 99 3a bc 3b 42 84 bc e0 49 01 be ed 6c de 3d
       -0.011389035 -0.016144862 -0.12625837 0.1086062
000180 b6 8b 23 3e 60 b2 0f 3c 00 3b 69 bc 61 55 62 bd
       0.15971264 0.008770555 -0.014235258 -0.055257205
000190 a4 45 af bd fe 1f f9 bd c4 39 43 3b d3 36 fd bc
       -0.08558205 -0.12164305 0.002978907 -0.030909931
0001a0 06 9b ff 3b f1 63 42 bb 70 98 df bc cc ff b7 bc
       0.0078004627 -0.002966162 -0.027294368 -0.02246084
0001b0 83 b4 b0 3c 0a 6e 87 bc 87 b8 61 bd 0c 26 75 bd
       0.02157045 -0.016531963 -0.05510762 -0.059850737
0001c0 3d 0e b1 bd 65 02 25 3e b4 d1 56 bc 64 ab 07 3d
       -0.08645294 0.16114195 -0.013111521 0.033122435
0001d0 54 95 9c bd e7 07 b7 3d 3e ab ee 3d eb 23 8f 3d
       -0.076456696 0.08937054 0.116537556 0.06989273
0001e0 eb af b5 bd 27 b1 b3 3e 93 ce ff 3d dc b2 06 3d
       -0.08871444 0.35096094 0.12490573 0.032885417
0001f0 f4 a0 ab 3d 14 eb 5f 3e 10 e8 9c bc 28 89 d4 3c
       0.08380309 0.21867019 -0.019153625 0.025944307
000200 8b 29 4e bd 01 2c 81 bd d2 1d 9f 3c 6e d4 b8 3b
       -0.050332587 -0.06307221 0.0194234 0.005640558
000210 26 ec 3e bd 18 12 7e bd cd ec 35 bd 9f b1 ad bd
       -0.046611927 -0.062028974 -0.044415284 -0.08481144
000220 3a 84 58 bd 30 9f be bd 69 59 54 be dd 93 e2 bc
       -0.052860476 -0.09307706 -0.20737232 -0.027658397
000230 8c 4b 9c bd 8c 5e cd bd 49 37 9f 3d ef 8d 7c bd
       -0.07631597 -0.10027799 0.07774217 -0.061658796
000240 b3 e3 cc 3c d5 9d 4c 3c 16 f3 f5 bc 08 ef d8 3b
       0.02501092 0.012488802 -0.030023139 0.0066202916
000250 65 13 a9 3c 01 73 49 3c c8 ff 02 bd 3f 43 8e bd
       0.02063913 0.0122954855 -0.031982213 -0.0694642
000260 41 a7 93 bd 04 14 89 bd ea b2 76 3d 9d 50 72 bc
       -0.072096355 -0.06693271 0.06022922 -0.0147897275
000270 a7 b8 43 bd 34 23 7a 3d 26 f2 5d 3d 5f 2e d2 3d
       -0.04778352 0.06106873 0.05418601 0.10262751
000280 56 14 03 3e 2d 8f d2 3d 02 d3 fd bd cb d8 5e 3d
       0.12800726 0.10281215 -0.12393762 0.05440597
000290 d5 aa da 3d 90 49 3d bc 36 60 0f be 1b 1c 1e 3e
       0.10677115 -0.011553183 -0.14001545 0.15440409
0002a0 49 59 d1 bd 73 f1 24 bd ee 79 a2 bd 99 d3 0e 3d
       -0.10222108 -0.040269326 -0.079334125 0.034869764
0002b0 f3 2f 48 bc 1b 68 73 3d da eb 8b 3d ae 25 c2 bd
       -0.012218463 0.059425455 0.068320945 -0.09479843
0002c0 0b c5 a8 bd 17 c3 27 be 69 5f 18 3d 1e b1 93 3d
       -0.08240708 -0.16383015 0.037200365 0.07211517
0002d0 7d b6 8a bd 88 4b 90 bd 10 b8 bc bd f6 68 9d bc
       -0.06773088 -0.070456564 -0.09214795 -0.019215088
0002e0 e8 20 3a 3d 15 2a 65 be 64 5b 01 3e 00 09 eb bd
       0.045441538 -0.22379334 0.12632519 -0.11476326
0002f0 5e 2a ab 3d 5c 30 78 be 2c ba 3f 3d 88 a3 d8 3d
       0.0835769 -0.24237198 0.046808407 0.10578066
000300 68 93 6d ba fc 56 ea 3d a9 da d1 bd 05 43 cb bc
       -0.0009062798 0.11442372 -0.10246784 -0.02481223
000310 61 ae cf 3d b6 f0 ed bc 95 86 d5 bc f1 bf 22 bd
       0.10140682 -0.029045444 -0.02606515 -0.03973383
000320 89 78 b2 3d b2 cc da 3d 6e 7e f9 3d 5f 00 62 bd
       0.087143965 0.10683574 0.12182318 -0.055176135
000330 9d e9 2a bd 50 83 5d 3c 66 a8 8e 3d fc 17 d8 bc
       -0.041726697 0.013520077 0.06965713 -0.026378624
000340 c6 81 0e bd 5d 91 b5 3d 7f 04 f0 3b c1 3d 12 3d
       -0.03479173 0.088656165 0.0073247547 0.035703424
000350 0f bc bb bc 84 3a e8 bd 1d c2 bb bd 3c 26 74 bd
       -0.022916822 -0.11339286 -0.091678835 -0.059606776
000360 94 2e fc bc f4 83 1f 3d 88 fe 85 bc 25 00 42 bd
       -0.030783929 0.0389442 -0.016356722 -0.04736342
000370 b4 f6 ef 3d 01 7f 95 3d 0b 20 c8 3d 82 64 cc bc
       0.11716977 0.07299615 0.09771737 -0.02495027
000380 4f 32 39 bd ce 47 8a 3d 02 91 aa bd 90 a2 a6 bd
       -0.045213994 0.06751977 -0.08328439 -0.08136475
000390 86 f2 ad 3c fc 44 3b bd ee e2 37 bd ec 1f 90 3d
       0.021233808 -0.045720086 -0.04489415 0.070373386
0003a0 03 11 cc 3d e7 c4 45 3d 29 9c 3f 3b 71 2f a7 bd
       0.09964182 0.048283484 0.0029237366 -0.081633456
0003b0 61 16 97 bc da b5 8a 3d 58 9b 6c 3d 98 73 81 bc
       -0.018443288 0.06772967 0.057765335 -0.01580219
0003c0 f2 66 db bc 6d d3 e2 bd aa 12 71 bd ee cb a1 3d
       -0.026782487 -0.110754825 -0.05885569 0.079002246
0003d0 a4 d9 8e bd a1 d0 c7 3c d0 5b ca bc 50 02 73 3c
       -0.069751054 0.024391474 -0.024701983 0.014832094
0003e0 f2 83 ed bb 8d a6 6c 3c 29 96 9b 3c 5e d5 c7 3d
       -0.007248395 0.014444006 0.0189925 0.097574934
0003f0 96 23 f6 3d 99 56 8f bd 1c c1 ba bd aa 63 cd 3d
       0.12018506 -0.06998939 -0.09118864 0.10028775

2.bias f4 [8]
000000 29 40 14 3e 7e 76 c1 3b d7 30 94 3d b2 db f1 3c
       0.144776 0.005904018 0.07235878 0.029523704
000010 50 69 4a 3c bc 8b 08 3e fe f7 6a 3d 84 56 45 3c
       0.01235421 0.13334554 0.05736541 0.012044553
