Op_problems/problem_pooling/checkpoints/kkt_hardnet_checkpoint_epoch_950_loss_90.542800.pth (torch, 20835 bytes, 12 tensors)

nn.0.weight f4 [64, 4]
000000 18 3a ce 3e 40 a5 d1 3e cd 29 85 bd 55 7b df 3e
       0.40278697 0.40946388 -0.065021135 0.43648782
000010 9d f0 49 bd b4 9a 16 3d c1 cb c4 be 61 33 a2 3e
       -0.049301732 0.03676863 -0.38436702 0.31679824
000020 46 15 8a 3f 52 d8 db be f0 ab db 3e 63 77 92 3c
       1.0787742 -0.42938477 0.42904615 0.017879194
000030 33 db 63 3f ce bb 21 3d 04 e5 50 3e 86 67 11 be
       0.89006346 0.039485745 0.20399863 -0.14199647
000040 08 b2 0c 3f 97 e0 68 be 76 44 ca be df 44 3a 3e
       0.54959154 -0.22741924 -0.39505357 0.18190335
000050 ba 47 40 be 7b c7 03 bd 72 3b 99 be b5 a8 5b 3e
       -0.18777362 -0.03217266 -0.29928166 0.21451075
000060 2a 14 ca be 8c 09 6c be 6c 93 10 be fe ec 99 be
       -0.3946851 -0.23050517 -0.14118737 -0.30063623
000070 fa 82 02 3e 0f 11 29 bf 36 7d 10 3f 9f ef bf 3e
       0.12745276 -0.66041654 0.56441057 0.37487504
000080 20 df e4 3e 9a ad 2d 3b 8e 9d cd be 5d cb 3c 3e
       0.4470148 0.002650118 -0.40159267 0.18436952
000090 d8 d3 12 3d 4c 03 cd 3e 60 1e 95 3d e8 b7 3c be
       0.03584656 0.40041578 0.07281184 -0.1842953
0000a0 f0 2d d3 3e c3 f2 7e be b8 22 e4 3e 9f 21 07 3f
       0.41245985 -0.24897294 0.44557738 0.52785677
0000b0 d9 c3 5f 3e 7f 3b 7d be c3 f6 09 3f b2 08 6f 3e
       0.21852054 -0.24729727 0.53892154 0.23343161
0000c0 7a 01 82 3e 86 08 9c be a4 6a fd be 0c d1 45 be
       0.25391752 -0.30475253 -0.49495423 -0.19318026
0000d0 e3 b0 aa be b7 2a a7 3e 54 3e 88 be 92 18 f8 bd
       -0.3333808 0.32649776 -0.26610053 -0.121140614
0000e0 f9 9f 1d bf d5 b0 dd 3d c8 9e 13 3f 09 16 87 be
       -0.61572224 0.10824744 0.57664156 -0.26384
0000f0 34 24 2c be c4 0e 6e be 2a 12 00 3f c8 98 97 3e
       -0.16810685 -0.2324782 0.50027716 0.2960875
000100 9c 9e 66 3e 60 14 c3 3e 05 99 62 3f 0f 72 ad 3e
       0.22521442 0.38101482 0.8851474 0.33876082
000110 1d 37 2a bf 82 b0 8b be 9d 7c 22 3f 58 fd ce 3e
       -0.66490346 -0.27283102 0.63471395 0.4042766
000120 10 56 f6 3e 4e 45 d3 be 98 eb fd be fe 48 c8 be
       0.48112535 -0.41263813 -0.49593806 -0.3911819
000130 b8 a4 b4 be e6 b6 ba 3d 8a 06 c6 3d 3d 3f 8e 3e
       -0.3528192 0.09116916 0.09669216 0.27782622
000140 86 3e 52 be 32 c5 60 3a 80 85 85 3f 1a fd ea 3d
       -0.20531663 0.0008574306 1.0431366 0.114740565
000150 f9 ce 41 bf 92 56 10 bf d6 9c f7 3e 55 6b 2e 3e
       -0.7570644 -0.56382096 0.48361844 0.17033131
000160 8a 7f 68 be 5f 24 55 3e fb b7 fb 3d 63 92 d2 bd
       -0.22704902 0.20814656 0.12290951 -0.10281827
000170 82 9d 25 3f b1 92 12 3f 3e 42 6f be ed 06 41 be
       0.6469346 0.57255083 -0.23365113 -0.18850298
000180 d2 68 ea 3e f4 c3 2c be 2c 83 35 be 48 b4 f7 be
       0.45783097 -0.16871625 -0.1772582 -0.4837973
000190 aa d1 a3 3e 8a 31 0b 3f bf b1 2e 3e 38 dc 2c be
       0.31995898 0.54372466 0.17059992 -0.16880882
0001a0 40 28 40 3c 6e de ae be 86 30 d9 be 3a f8 8c be
       0.011728346 -0.34154075 -0.42419833 -0.27533132
0001b0 67 8c 00 bf 82 cd 09 bf 52 62 25 3f fd 2f 06 3f
       -0.50214237 -0.53829205 0.6460315 0.52416974
0001c0 1c c7 1d 3e 66 c4 ee be 54 22 a8 be 14 6c 2a be
       0.15407985 -0.46634215 -0.3283869 -0.16642791
0001d0 c0 1f a0 3d 86 42 e1 be 64 9b 5c be 58 42 99 be
       0.07818556 -0.43996066 -0.21543652 -0.2993343
0001e0 00 9e b5 3a 50 84 3e be f0 ea 0d bd 24 79 ad be
       0.0013856292 -0.1860516 -0.034647882 -0.33881485
0001f0 98 b7 af be d2 59 95 be 9c 41 2f be 50 0e ca be
       -0.34319758 -0.2917009 -0.17114872 -0.39464045
000200 76 e7 b8 3e 47 2c 54 be 87 72 fe 3e f8 41 3a 3e
       0.3611409 -0.20720015 0.49696752 0.18189228
000210 c3 22 9a 3e 31 f7 0a 3f 2f 50 81 3e 3f b4 30 bf
       0.30104646 0.54283434 0.25256488 -0.69025034
000220 fb 8b d4 3e 17 ad ef be 84 03 1b 3f 1c 87 85 3e
       0.41513047 -0.46811745 0.6055224 0.26079643
000230 ce c2 ae 3e 9d 6f bc bd 5d d9 66 3f d9 d6 0f 3e
       0.34133 -0.09200976 0.9017542 0.14046802
000240 03 0d 83 be 75 50 bc 3d 2e b0 98 3e e7 f9 ed 3e
       -0.25595865 0.091950335 0.29821914 0.46479723
000250 41 31 d8 3e 54 00 dc be 92 a7 bd 3d 3d 40 7e be
       0.42225078 -0.42969 0.09260477 -0.24829192
000260 44 8e dd bd e5 db fc 3d 4e 95 bf 3f 15 98 8d 3e
       -0.10818151 0.12346629 1.4967439 0.27655092
000270 bb 7e 13 3f f7 92 c4 3e 9a 8a 98 3e 9d 6d 3a be
       0.5761525 0.38393375 0.29793245 -0.18205877
000280 f8 df 8d 3f 77 fb e1 3e 77 e3 83 3e 4c c0 99 be
       1.1083975 0.44137165 0.2575948 -0.30029523
000290 50 70 88 3e 3e 8d 80 bd ed 27 7b bd 51 94 e1 3e
       0.26648188 -0.0627694 -0.061317373 0.4405847
0002a0 b0 4c e4 3d 86 a3 8d be 52 92 81 be 80 9b c3 bc
       0.111474395 -0.2766382 -0.25306946 -0.02387786
0002b0 c4 f0 8e 3e 54 d5 02 be 32 11 92 be ac 54 2f be
       0.27918065 -0.1277669 -0.28528744 -0.17122144
0002c0 55 b3 5c 3f a9 6e 03 3f 51 ac 29 3f 41 06 0c bf
       0.8621114 0.5134073 0.6627856 -0.5469704
0002d0 a7 3f ae 3e d2 55 ce 3e 7c d9 26 3e 41 bd 21 be
       0.34032938 0.4029985 0.16293901 -0.15794851
0002e0 66 10 1b 3f 30 49 fa 3e f7 21 af 3e 07 7b 35 bd
       0.605719 0.48883963 0.342056 -0.04430678
0002f0 08 94 07 be d0 18 5b 3d d0 e4 b4 bd 98 93 18 be
       -0.13240063 0.05349046 -0.08832705 -0.14900053
000300 5b d4 c0 3e 3f 60 f8 3e 64 42 92 bc 62 2a 24 be
       0.37662014 0.4851093 -0.017853923 -0.16031793
000310 c9 94 d5 39 ed b3 8d bd 68 6a 66 3e ba f4 38 3e
       0.0004073738 -0.06919084 0.22501528 0.18062106
000320 58 1f 50 bf a3 39 c4 be e5 b4 ca 3e a1 d3 c4 3e
       -0.81297827 -0.38325223 0.39591137 0.3844271
000330 a0 b9 cb bc 08 58 9a be 42 9f 9c be fa 50 e5 be
       -0.024868786 -0.30145288 -0.30590254 -0.44788343
000340 10 58 cf 3b 85 9d 69 3e 17 49 9f 3e 05 47 2f 3e
       0.0063276365 0.22813995 0.3111045 0.17116936
000350 01 97 3e bf 81 87 b4 be 4a 29 3b 3e cc 55 16 3f
       -0.74449164 -0.3525963 0.1827747 0.58724666
000360 0e 13 90 3f 3d 4b a8 3d d7 2f 02 3e 92 79 97 be
       1.1255815 0.082174756 0.12713562 -0.29584938
000370 71 6e 4d be 5a 93 f3 3e bf db 84 be 3d 8c fd bd
       -0.20061661 0.47573358 -0.25948903 -0.12380264
000380 6b d1 da be 90 32 87 3e fd 18 c2 3e b3 e8 b5 3d
       -0.42737898 0.26405764 0.3790969 0.088822745
000390 0b 15 1a be 9a d4 b1 be 5d 10 4d 3e d3 ab 1b 3f
       -0.1504709 -0.34732515 0.20025773 0.6080906
0003a0 5f 37 0e 3e 09 94 cc 3e 70 e2 37 bc fe 50 47 be
       0.1388831 0.39956692 -0.0112234205 -0.1946449
0003b0 80 71 a0 bb 86 b0 c2 be 6c 55 db be 02 73 ef be
       -0.0048963428 -0.38025302 -0.4283861 -0.46767431
0003c0 e4 97 51 3e 28 60 7b be 28 15 ce bd 50 54 93 be
       0.20468098 -0.245484 -0.10062629 -0.28775263
0003d0 d0 98 ba bd 86 2e b4 be 40 46 a7 be 00 d6 29 3e
       -0.09111178 -0.35191745 -0.32670784 0.16585541
0003e0 3b 42 3a 3f e2 ad 08 3f 08 7f 18 3e 31 fe 22 bf
       0.7275731 0.53390324 0.14892209 -0.63669115
0003f0 68 ac b4 bd d0 30 78 be 60 a4 1c be fc b5 f3 be
       -0.088219464 -0.2423737 -0.15297079 -0.4759978

nn.0.bias f4 [64]
000000 6e 1c de 3e 70 af 14 3d 66 82 f3 be 83 7b 32 3d
       0.43381065 0.036300123 -0.47560424 0.04357482
000010 a9 0d 20 3e 5c b9 89 3f 48 1d b8 3e 26 28 c0 3f
       0.15630211 1.0759692 0.3595984 1.5012252
000020 03 ef 1e 3f 3f e9 3c 3f 48 b7 6e bd 6b a8 f5 bf
       0.6208345 0.73793405 -0.05828026 -1.9192022
000030 90 c1 eb bd f0 24 55 40 95 37 b3 3f f5 3b 97 c0
       -0.115115285 3.3303795 1.4001337 -4.726069
000040 60 3a 63 c0 71 79 c0 bd d0 19 f2 3e 83 60 f6 be
       -3.550438 -0.09398163 0.47285318 -0.48120508
000050 31 93 4d be 18 c8 09 40 45 7b bc 3d df f9 cb 3d
       -0.2007568 2.1528378 0.09203199 0.099597685
000060 68 6e e8 bd db 22 6e 3e 30 20 33 bd d1 c3 87 c0
       -0.11349183 0.23255484 -0.04373187 -4.2426534
000070 fc 49 51 be f8 89 22 be 20 47 f3 be c8 0c d2 3e
       -0.20438379 -0.15872943 -0.47515202 0.41025376
000080 f0 80 0c bf 35 ee e8 3f 49 47 31 bc a8 02 41 be
       -0.54884243 1.8197695 -0.010820218 -0.1884867
000090 e4 c1 e2 bf a9 11 05 bf b8 56 8e 3f be 8d 93 3e
       -1.7715421 -0.5198007 1.1120214 0.28819078
0000a0 94 b0 fc 3f 42 2c 69 3e 70 80 2a be 84 a4 25 be
       1.9741387 0.2277079 -0.16650558 -0.16176039
0000b0 c3 d1 fe bc 3a d5 27 3e 97 23 25 bd 0c 26 75 be
       -0.031105882 0.16389933 -0.040317144 -0.23940295
0000c0 40 3b 17 bf 10 f1 06 3f bc 5d fb bf 64 ab 07 3e
       -0.59074783 0.5271158 -1.963798 0.13248974
0000d0 a0 ae 6f be 55 1c 89 3e 08 3d 42 3f 8f 9a 76 3f
       -0.23406458 0.26779428 0.75874376 0.9632959
0000e0 cb 1b 9e 3c 8e 3e dd 3e 16 8c ee 3c dc b2 06 3e
       0.019300362 0.43211788 0.029119533 0.13154167
0000f0 f4 a0 ab 3e 20 63 fc 3e d3 62 9b 3e 28 89 d4 3d
       0.33521235 0.49294376 0.30348834 0.10377723

nn.2.weight f4 [13, 64]
000000 82 23 68 3e ae d6 b9 c0 5d e6 17 40 b1 85 82 3f
       0.22669795 -5.807456 2.3734353 1.0197049
000010 26 12 e9 c0 62 d3 59 c0 ec f0 ae bd 6a f2 93 40
       -7.2834654 -3.4035268 -0.08542046 4.6233416
000020 b2 50 e6 c0 3b 14 fc bf ac 92 23 40 f4 28 bc 40
       -7.1973505 -1.9693674 2.5558271 5.879999
000030 0a b7 c2 bd a5 51 05 c1 1b 2f 78 c0 61 f9 ca 40
       -0.09507568 -8.332433 -3.877875 6.3429418
000040 d3 27 47 40 b8 b1 81 40 b4 f5 6c bd a9 fe bf 3e
       3.1118057 4.052944 -0.05785151 0.37498978
000050 63 ec 90 40 b1 3b 7c c0 59 dd 11 c0 0c 8e 72 c0
       4.528856 -3.9411433 -2.279135 -3.7899199
000060 7c f0 ce bd 1f a9 46 3e 24 41 f7 3d 17 30 aa 40
       -0.101044625 0.19400452 0.120729715 5.3183703
000070 42 e9 ab bd 30 36 f8 3c cc 1c 0d 3d d0 43 8c 3d
       -0.083941 0.030299276 0.03445129 0.06848872
000080 30 4c 4b 40 3f ce 15 c1 f2 b4 11 41 d5 c9 9e 40
       3.176525 -9.362853 9.106676 4.9621377
000090 d8 88 ad 3f 71 7a 82 3c 50 60 83 40 cf e8 a2 3e
       1.3557386 0.015927525 4.105507 0.31818244
0000a0 97 60 c1 3b 58 b3 7f 3f 50 cc e6 bd 20 f6 b6 3b
       0.005901407 0.9988303 -0.11269438 0.0055835396
0000b0 1d 66 5d bc b6 9a 12 bf 5f 75 df 3e ae 25 c2 bd
       -0.013513115 -0.5726732 0.43644235 -0.09479843
0000c0 3b b3 91 bf c1 40 e7 3f d4 91 59 40 1e b1 93 3d
       -1.1382822 1.8066636 3.3995256 0.07211517
0000d0 52 7c 1e 3f e3 35 04 40 54 31 c7 c0 35 99 c4 c0
       0.6190845 2.065789 -6.2247715 -6.143702
0000e0 7d 4a a1 3d ca 6f a6 40 6f 02 b4 be 00 09 eb bd
       0.07875536 5.201146 -0.35158107 -0.11476326
0000f0 5e 2a ab 3d 06 8e b4 bd 3d 3b 6f c1 88 a3 d8 3d
       0.0835769 -0.08816151 -14.951962 0.10578066
000100 10 c8 ef 3b 13 3c 56 3e d2 ff 07 bf 7a fd ea be
       0.0073175505 0.20921354 -0.53124726 -0.45896512
000110 e6 b1 a7 3e 3e ab 8b 3c f0 9c d1 bc b8 07 fe 3e
       0.32752913 0.017049428 -0.025587529 0.49615264
000120 5b 7a 27 3e 18 cc 82 bd c5 39 df 3d d4 26 04 3b
       0.16355269 -0.06386584 0.108996905 0.0020164745
000130 d2 ce cf bd ee 5e 99 bd ab 11 25 bc cc ac c4 bd
       -0.1014687 -0.074888095 -0.010075013 -0.09603271
000140 1a 43 8e 3a b9 70 84 3e a0 24 23 3c 7b 44 3c 3d
       0.0010853738 0.2586725 0.009957463 0.045963746
000150 41 42 78 be 03 e8 77 3f 01 f4 59 be e9 05 6e be
       -0.24244024 0.96838397 -0.21284486 -0.23244442
000160 5a 21 82 bd 91 fb 60 bd 78 0c 15 bd 58 fb 52 3e
       -0.063540176 -0.054927412 -0.036388844 0.20603693
000170 fa 13 f4 3d 60 57 32 3d c4 80 b6 3d a0 dd 77 bd
       0.11917873 0.04354036 0.08911279 -0.060514092
000180 13 6f 29 3d cb 09 00 be 53 fa 76 3f 37 9b 88 be
       0.041365694 -0.12503736 0.96475714 -0.2668092
000190 e8 e2 37 3d 09 43 83 bd 6e d7 e6 3c b0 f1 7c bd
       0.04489413 -0.0640927 0.028178897 -0.06175393
0001a0 50 b6 0c bd 8c e4 dc 3d c0 4a b2 bc 3a 20 ed bd
       -0.034353554 0.10785779 -0.02176416 -0.11578412
0001b0 86 d3 f4 be 58 e0 b4 bd 6b 4b b8 bc 98 73 81 bc
       -0.4781763 -0.08831853 -0.0224969 -0.01580219
0001c0 77 d5 34 be 49 ee 1b 3e b7 91 82 3e ee cb a1 3d
       -0.17659555 0.15227617 0.25501797 0.079002246
0001d0 fc 65 1b bd 89 ed b3 3e fc b7 54 bf 8a d3 c5 bd
       -0.037939057 0.35142162 -0.8309324 -0.096594885
0001e0 d0 9c 43 bd cb 7e 66 3e 6f 14 20 bd 5e d5 c7 3d
       -0.04775697 0.22509305 -0.039081987 0.097574934
0001f0 96 23 f6 3d 18 71 79 bd 28 86 b1 3e aa 63 cd 3d
       0.12018506 -0.06089887 0.34672666 0.10028775
000200 01 f4 b3 3d 38 a1 cf bd f9 4c 93 bd 43 32 0c 3e
       0.087867744 -0.10138172 -0.07192416 0.13691048
000210 10 99 ad be 8b de 67 bd b0 35 08 3d 82 d1 98 3d
       -0.3390584 -0.056608718 0.033254325 0.074618354
000220 a6 b3 b0 bd 08 aa c3 3d 19 74 ca 3c ea 11 7b 3d
       -0.08628015 0.09553915 0.024713563 0.06129638
000230 e0 e3 e7 bb 88 ef c1 3d 7e ee 24 be 29 c0 21 be
       -0.0070767254 0.09469515 -0.16106603 -0.1579596
000240 d0 45 8f be 66 b2 40 be 82 b8 d4 bd 62 88 a4 bd
       -0.2798295 -0.18818054 -0.103867546 -0.080338255
000250 32 4f 24 3f c6 59 47 3f 06 05 9b 3d 42 b3 db 3c
       0.6418334 0.7787136 0.075693175 0.026818875
000260 24 65 c1 3d 36 a0 c1 be bc db 8c bd 5f 5c 8a 3d
       0.09443119 -0.37817544 -0.068778485 0.067559
000270 a0 a7 84 bd 02 c4 ac bd c0 7f 23 bd 58 e5 d6 3c
       -0.064772844 -0.08435823 -0.039916754 0.026232406
000280 a3 20 f4 3d b2 56 b7 bb c1 84 33 3d 43 ff a1 3e
       0.119202875 -0.0055950517 0.043827776 0.31640062
000290 cc bf a1 bd 57 bd c5 bd 09 f2 f7 3e 26 56 0f bc
       -0.078979105 -0.09655254 0.48426846 -0.008748567
0002a0 95 24 4a 3c 3f 8d b8 3d 5c 24 19 3d 70 35 30 3d
       0.012337823 0.090113156 0.03738819 0.043019712
0002b0 c8 2c 06 3e c9 01 0c bc 3e 0c af bc 00 2f e1 3a
       0.1310302 -0.0085453475 -0.021368142 0.0017180145
0002c0 74 bb 7f 3c 2b 6a fa 3d df 77 63 bd 34 6e 58 bd
       0.015608657 0.12227281 -0.05553424 -0.052839473
0002d0 f6 0a 1b bd e7 58 12 3c a3 f9 da 3e 9d 06 a8 3c
       -0.03785225 0.008932329 0.42768583 0.020510966
0002e0 78 6e c0 3d 5d c1 44 3e 56 6e cb bd 7c 65 89 bd
       0.0939607 0.19214387 -0.09933154 -0.0670881
0002f0 08 fc e0 bc 78 bf bc bc 93 ba f6 3e 2e 00 eb bd
       -0.027463928 -0.023040518 0.4818922 -0.11474644
000300 67 b0 5b 3d ad e3 ea 3a 63 1a c9 3d 27 b3 0b bc
       0.053635027 0.0017920636 0.09819486 -0.0085266
000310 55 f7 cd bd 87 a3 05 3d 2e 1e c1 3d 65 54 0f bf
       -0.100569405 0.032626655 0.094295844 -0.5598815
000320 01 a5 57 bd b1 bb 4b bc 8e 39 66 3d b4 04 ad 3e
       -0.052647594 -0.012434886 0.056207232 0.3379265
000330 82 17 b9 3d 71 d0 44 bd 11 f9 54 be 03 e6 c6 3e
       0.09037687 -0.048050348 -0.20798136 0.3884736
000340 51 db 11 3e 52 05 bf 3e 40 0c 0c 3d 33 c7 d8 3c
       0.14243819 0.37308747 0.03419137 0.026462173
000350 50 c1 6c 3e 85 cb 81 bf 14 f5 1d 3d bb 1c a4 be
       0.23120618 -1.0140234 0.038563803 -0.3205317
000360 a2 c6 f0 bd 17 9e b1 be 48 54 ae bd bf e0 14 3f
       -0.11756636 -0.34690925 -0.08512169 0.58155435
000370 14 6a 9b bd 70 de 13 bc f0 44 e3 bc 88 39 b6 3c
       -0.07588592 -0.009025201 -0.027742833 0.02224423
000380 af 07 06 3e 77 e4 6d be 39 a9 4a 3f b4 6a 96 3e
       0.13088869 -0.23231684 0.79164463 0.29378283
000390 df 83 48 3e 65 a8 97 bb ee e1 0b 3e 9e e2 15 be
       0.19581555 -0.0046282285 0.13660404 -0.14637229
0003a0 0c 28 0a bf 17 b2 d1 3d 00 b6 df bc f2 a1 ad bd
       -0.53967357 0.10239046 -0.027308464 -0.08478154
0003b0 04 f6 94 be 97 65 9d bd 5d 43 42 3c 1a 55 fe 3d
       -0.29093945 -0.07685392 0.011856881 0.124185756
0003c0 45 61 bc b9 32 72 1f 3e 41 6f 3c 3e e4 36 dc bd
       -0.00035930626 0.15570906 0.18401815 -0.10752657
0003d0 92 19 f1 bc d1 aa 49 3e 6b d9 86 be 3f 44 1e be
       -0.029431138 0.19694068 -0.26337752 -0.15455721
0003e0 8a cb 59 bd 6a 8a 3f 3e 87 4e 94 bd 9c 5f fc bd
       -0.053172626 0.18705145 -0.072415404 -0.123229235
0003f0 d0 22 9d bd e4 3a 43 3d 95 b2 8a 3f 0c 4d 18 bd
       -0.076726556 0.047663584 1.0835749 -0.037182853

nn.2.bias f4 [13]
000000 e1 b3 11 c1 65 92 69 3f 5c 38 df 3e 6c e3 81 bf
       -9.106416 0.91239005 0.43597686 -1.0147529
000010 ec c2 a7 bd 20 96 af 3d 0a 64 c7 bd a6 ae e9 3d
       -0.08191475 0.08573556 -0.09735878 0.11410265
000020 70 bd 1e 3c ca 40 76 3d 21 d4 c6 3d 0a 3e da 3d
       0.00968872 0.06012038 0.09708429 0.10656364
000030 98 8f c7 bd
       -0.09744185

exp_avg f4 [64, 4]
000000 85 f7 88 bd a5 e0 1c c1 0c 3e b0 c0 f9 cc f8 c0
       -0.066878356 -9.804845 -5.507574 -7.775021
000010 01 ff 57 be 1a 91 9b 41 26 62 20 41 b9 bd 7b 41
       -0.2109337 19.44585 10.023962 15.733819
000020 59 69 f6 c0 24 10 25 c2 86 74 f6 c1 d3 66 1c c2
       -7.70036 -41.265762 -30.806896 -39.100414
000030 24 1c 3f be de 57 08 c1 72 d1 62 c1 b2 f6 82 3f
       -0.18663079 -8.521452 -14.176134 1.0231535
000040 97 c1 29 c0 9d 6e 0c c1 8e 3e 25 c0 1a 6d 4f c1
       -2.6524408 -8.777005 -2.581943 -12.964136
000050 85 5b 1a 3e b9 26 7e bf 28 a1 63 be 41 7f 69 bf
       0.15073974 -0.99277836 -0.22229445 -0.912098
000060 00 00 00 00 00 00 00 00 00 00 00 00 00 00 00 00
       0.0 0.0 0.0 0.0
000070 f9 b3 01 40 00 88 a4 40 e7 37 c7 40 0c a8 89 3f
       2.0266097 5.1416016 6.225574 1.0754409
000080 b1 ff 48 bf 73 ed 6d 41 1e 8b cd 40 14 69 3c 41
       -0.78515154 14.870471 6.423232 11.775654
000090 ba 46 97 3d 13 65 31 c1 9a b3 bd c0 b6 77 0b c1
       0.07386537 -11.087176 -5.928174 -8.716726
0000a0 4a 34 6e be 31 23 07 c0 4c 6a ba bf e9 34 fc bf
       -0.23262134 -2.111523 -1.4563689 -1.9703647
0000b0 23 98 8f be 8c 51 12 c1 47 2d bb c0 d9 89 d2 c0
       -0.2804576 -9.144909 -5.849277 -6.579327
0000c0 00 00 00 00 00 00 00 00 00 00 00 00 00 00 00 00
       0.0 0.0 0.0 0.0
0000d0 24 2c aa 3f 57 90 bf c0 8a ef 44 bf 1a c6 0c c0
       1.3294721 -5.9863696 -0.7692801 -2.1995912
0000e0 77 37 20 40 fa e7 bb 41 a6 4a 50 41 07 81 aa 41
       2.5033853 23.48827 13.018225 21.313002
0000f0 9a 25 17 bf e9 76 23 c0 33 f3 10 c0 e2 8c 95 bf
       -0.5904175 -2.5541327 -2.2648437 -1.1683619
000100 cc 62 89 bf 8f 6d 5a c0 f7 f8 03 c0 04 2e 52 c0
       -1.0733275 -3.412937 -2.0620706 -3.2840586
000110 22 64 5c be bb 20 8d 41 62 bf 05 41 6c 3b 65 41
       -0.21522573 17.640982 8.359224 14.327007
000120 00 00 00 00 00 00 00 00 00 00 00 00 00 00 00 00
       0.0 0.0 0.0 0.0
000130 ca 79 c3 be 7e e4 15 c0 15 2d ab bf de 01 11 c0
       -0.38178855 -2.342071 -1.3373133 -2.265739
000140 5a ad 28 3f 61 3d 1c c2 19 07 af c1 79 67 ea c1
       0.65889513 -39.05994 -21.878466 -29.300524
000150 08 43 48 3f 67 34 54 40 f3 0c 91 40 dc c7 07 40
       0.7822728 3.3156984 4.5328307 2.1215734
000160 3c b8 6a 3d 41 86 7a c1 b6 8c 05 c1 79 1e 3e c1
       0.057304606 -15.657777 -8.346853 -11.88244
000170 ef dc e5 be ec 7e b9 c1 a9 c4 34 c1 74 33 9b c1
       -0.4489512 -23.186974 -11.298013 -19.400124
000180 00 00 00 00 00 00 00 00 00 00 00 00 00 00 00 00
       0.0 0.0 0.0 0.0
000190 b5 78 a8 bf a3 31 43 3e 7e 51 a4 3f 5a 08 ea bf
       -1.3161837 0.19061904 1.283737 -1.8283799
0001a0 00 00 00 00 00 00 00 00 00 00 00 00 00 00 00 00
       0.0 0.0 0.0 0.0
0001b0 c2 12 16 3d 29 1c 46 bf d5 7b 09 c0 27 5f ee 3e
       0.036638983 -0.7738672 -2.148183 0.4655697
0001c0 00 00 00 00 00 00 00 00 00 00 00 00 00 00 00 00
       0.0 0.0 0.0 0.0
0001d0 00 00 00 00 00 00 00 00 00 00 00 00 00 00 00 00
       0.0 0.0 0.0 0.0
0001e0 00 00 00 00 00 00 00 00 00 00 00 00 00 00 00 00
       0.0 0.0 0.0 0.0
0001f0 00 00 00 00 00 00 00 00 00 00 00 00 00 00 00 00
       0.0 0.0 0.0 0.0
000200 67 0a de 3d c6 e7 4b c0 d0 bc 0b c0 c3 62 09 c0
       0.10841828 -3.1860213 -2.1833992 -2.146653
000210 16 de c7 bd b5 4e ef bf d2 a0 4e bf a3 98 89 bf
       -0.097591564 -1.8695894 -0.8071414 -1.0749706
000220 7d a3 ce bf 41 62 23 c1 e4 9f 07 c1 0b 92 e8 c0
       -1.6143643 -10.211488 -8.476536 -7.2678275
000230 87 5b 42 bf 07 16 4d c2 68 d1 e2 c1 3f ae 20 c2
       -0.7592091 -51.27151 -28.35225 -40.170162
000240 fc 0a 01 bf 3b 95 e3 c0 2a 1d 8b c0 70 61 b7 c0
       -0.50407386 -7.1119666 -4.34731 -5.730644
000250 04 00 00 00 04 00 00 00 04 00 00 00 04 00 00 00
       6e-45 6e-45 6e-45 6e-45
000260 b2 73 0b 3f b2 9d 9f c1 c9 12 38 c1 f8 20 71 c1
       0.5447341 -19.952 -11.504586 -15.070549
000270 4b 18 ff be 8a 68 3b c1 4c 3c bc c0 2b c8 20 c1
       -0.49823222 -11.713022 -5.8823605 -10.048869
000280 94 b0 01 bf b7 67 d4 c0 02 91 09 c0 94 7e e6 c0
       -0.5066006 -6.6376605 -2.1494756 -7.2029514
000290 9d 91 85 bd c9 44 d1 c0 78 63 82 c0 42 be a6 c0
       -0.06521914 -6.5396466 -4.074642 -5.210725
0002a0 00 00 00 00 00 00 00 00 00 00 00 00 00 00 00 00
       0.0 0.0 0.0 0.0
0002b0 00 00 00 00 00 00 00 00 00 00 00 00 00 00 00 00
       0.0 0.0 0.0 0.0
0002c0 fa 59 a5 3e a7 a0 36 c1 82 52 ae c0 28 19 02 c1
       0.3229521 -11.414222 -5.4475718 -8.131142
0002d0 08 67 a1 be 6b 80 26 c1 b4 5d aa c0 e2 a6 09 c1
       -0.3152392 -10.406352 -5.3239384 -8.603243
0002e0 d1 1b 10 bf f5 d9 5b c1 df f9 ec c0 d9 b8 36 c1
       -0.56292444 -13.740712 -7.405502 -11.420129
0002f0 00 00 00 00 00 00 00 00 00 00 00 00 00 00 00 00
       0.0 0.0 0.0 0.0
000300 6d 15 8c be 77 11 83 c1 b7 a4 0a c1 2f ef 4e c1
       -0.27360097 -16.383528 -8.665214 -12.933394
000310 15 33 46 bd 1a 42 d2 c0 50 52 86 c0 83 c8 a7 c0
       -0.04838856 -6.570569 -4.197548 -5.2432265
000320 90 4c 0b 40 30 29 06 42 00 03 71 41 1c 1b f1 41
       2.176548 33.540222 15.063232 30.138237
000330 00 00 00 00 00 00 00 00 00 00 00 00 00 00 00 00
       0.0 0.0 0.0 0.0
000340 be 44 df be 33 03 08 c1 d2 bc 8e c0 0d 61 e5 c0
       -0.43607134 -8.500781 -4.4605494 -7.168097
000350 58 89 92 3f 76 2b 0c 42 68 39 8e 41 4b 40 e8 41
       1.1448164 35.042442 17.77803 29.031393
000360 50 b8 69 bf 30 2a 87 c0 c1 24 11 c1 fc 31 8c c0
       -0.91296864 -4.2239 -9.071473 -4.3811016
000370 bb 59 d8 3d b8 d0 21 c1 15 81 92 c0 cf b4 04 c1
       0.1056399 -10.113457 -4.578257 -8.294143
000380 c2 96 13 3e f0 cb 90 c0 07 84 15 c0 87 80 5f c0
       0.14412978 -4.5248947 -2.3361833 -3.4922197
000390 9e 45 34 3f ec 4f 70 41 ba ad db 40 07 66 53 41
       0.7041873 15.019512 6.864957 13.212409
0003a0 84 b8 b0 be 77 a3 f9 bf c8 e3 45 bf a1 a7 fc bf
       -0.34515774 -1.950301 -0.7730069 -1.9738656
0003b0 00 00 00 00 00 00 00 00 00 00 00 00 00 00 00 00
       0.0 0.0 0.0 0.0
0003c0 00 00 00 00 00 00 00 00 00 00 00 00 00 00 00 00
       0.0 0.0 0.0 0.0
0003d0 00 00 00 00 00 00 00 00 00 00 00 00 00 00 00 00
       0.0 0.0 0.0 0.0
0003e0 5b 84 4b bd 45 ed 92 c0 76 47 b4 c0 9f 36 fc bf
       -0.04968677 -4.5914636 -5.6337233 -1.9704169
0003f0 00 00 00 00 00 00 00 00 00 00 00 00 00 00 00 00
       0.0 0.0 0.0 0.0

exp_avg_sq f4 [64, 4]
000000 6a bd 98 43 a8 40 70 46 96 58 29 45 6f 1e 6f 46
       305.4798 15376.164 2709.5366 15303.608
000010 11 47 92 44 2c a4 61 47 09 2d 17 46 7a df 64 47
       1170.2208 57764.17 9675.259 58591.477
000020 d9 4d 05 45 4e 07 1d 47 d6 62 3a 46 3a a6 23 47
       2132.8655 40199.305 11928.709 41894.227
000030 cb 30 92 45 9d 91 42 48 0f 7a 1b 47 de e2 39 48
       4678.099 199238.45 39802.06 190347.47
000040 94 5b 5b 43 93 8e 8a 45 8a 60 09 43 30 75 e1 45
       219.35773 4433.822 137.3771 7214.6484
000050 d7 b2 01 40 44 fa d9 42 60 8d 58 41 50 6e f3 42
       2.0265405 108.9888 13.534515 121.715454
000060 00 00 00 00 00 00 00 00 00 00 00 00 00 00 00 00
       0.0 0.0 0.0 0.0
000070 a9 02 89 43 a5 37 21 46 7c 12 3f 45 58 65 41 46
       274.02078 10317.911 3057.1553 12377.336
000080 2a 58 30 44 6d 9c e7 46 03 15 87 45 9f d3 f7 46
       705.37756 29646.213 4322.6265 31721.81
000090 75 ea c8 43 ae ea a0 46 da a8 62 45 15 cf 9f 46
       401.8317 20597.34 3626.5532 20455.541
0000a0 46 54 6e 41 c8 d4 39 44 6c 34 ff 42 bd 78 38 44
       14.895575 743.3247 127.60239 737.88654
0000b0 e0 a9 67 43 8c 4e 1f 46 c4 49 f3 44 3f ea 21 46
       231.66357 10195.637 1946.3052 10362.562
0000c0 00 00 00 00 00 00 00 00 00 00 00 00 00 00 00 00
       0.0 0.0 0.0 0.0
0000d0 1c c1 95 43 e5 21 86 46 e0 3a 25 45 d8 43 81 46
       299.50867 17168.947 2643.6797 16545.922
0000e0 89 dc 56 43 53 9d 92 46 10 df 98 45 7b 0d 76 46
       214.86147 18766.662 4891.883 15747.37
0000f0 60 27 82 41 61 f8 88 44 96 00 5e 43 7d 49 78 44
       16.269226 1095.7618 222.00229 993.14825
000100 18 45 c2 40 5c 1d eb 43 6b fc c0 42 fe c1 e9 43
       6.0709343 470.22937 96.493004 467.51556
000110 83 b7 6d 44 85 70 4a 47 e8 8b 0c 46 f0 fc 46 47
       950.8674 51824.52 8994.977 50940.938
000120 00 00 00 00 00 00 00 00 00 00 00 00 00 00 00 00
       0.0 0.0 0.0 0.0
000130 c0 91 b7 40 bf 97 9b 43 f6 cd 54 42 a2 43 98 43
       5.7365417 311.18552 53.201134 304.52838
000140 a3 e2 ab 45 08 54 86 48 13 0b 41 47 c9 30 86 48
       5500.3296 275104.25 49419.074 274822.28
000150 a4 35 f5 40 1b 54 72 44 74 4c 6b 44 af 5f ba 44
       7.662798 969.31415 941.1946 1490.9901
000160 b8 c6 33 44 1e 97 0c 47 81 94 c9 45 41 4a 0c 47
       719.105 35991.117 6450.563 35914.254
000170 4e 67 a0 44 10 3f 86 47 67 fa 38 46 f2 ef 83 47
       1283.2283 68734.125 11838.601 67551.89
000180 00 00 00 00 00 00 00 00 00 00 00 00 00 00 00 00
       0.0 0.0 0.0 0.0
000190 fe 71 0e 43 3a d1 ce 45 e7 cf a4 44 91 3a d4 45
       142.44528 6618.1533 1318.497 6791.321
0001a0 00 00 00 00 00 00 00 00 00 00 00 00 00 00 00 00
       0.0 0.0 0.0 0.0
0001b0 05 fd f3 41 81 7e 81 44 94 39 71 43 e6 a5 81 44
       30.498545 1035.9532 241.22491 1037.1843
0001c0 00 00 00 00 00 00 00 00 00 00 00 00 00 00 00 00
       0.0 0.0 0.0 0.0
0001d0 00 00 00 00 00 00 00 00 00 00 00 00 00 00 00 00
       0.0 0.0 0.0 0.0
0001e0 00 00 00 00 00 00 00 00 00 00 00 00 00 00 00 00
       0.0 0.0 0.0 0.0
0001f0 00 00 00 00 00 00 00 00 00 00 00 00 00 00 00 00
       0.0 0.0 0.0 0.0
000200 22 15 68 42 07 61 27 45 3a 5c fb 43 d5 78 29 45
       58.020638 2678.0642 502.72052 2711.552
000210 bf 48 2b 41 ff 59 2c 44 29 32 33 43 80 38 f8 43
       10.70526 689.4062 179.19594 496.4414
000220 a1 31 05 44 64 8b 99 46 0e 02 7c 45 22 d7 9c 46
       532.77545 19653.695 4032.1284 20075.566
000230 df 87 e1 45 b3 54 af 48 43 14 7a 47 36 d5 ae 48
       7216.984 359077.6 64020.26 358057.7
000240 6a ae bb 42 14 08 84 45 c3 da 3e 44 65 1c 85 45
       93.84065 4225.01 763.41815 4259.5493
000250 06 46 41 26 27 f1 8e 28 2e 82 bc 2a ea e8 c2 26
       6.7055226e-16 1.586975e-14 3.348584e-13 1.3524586e-15
000260 c3 7f d7 44 c6 93 a9 47 68 ec 71 46 53 44 a9 47
       1723.9926 86823.55 15483.102 86664.65
000270 9c ef 95 43 f3 73 7b 46 65 78 2c 45 8c a1 76 46
       299.87195 16092.987 2759.5247 15784.387
000280 f8 5b d0 42 1f 2c de 45 8f 85 8f 44 8e 2e cf 45
       104.17963 7109.515 1148.1737 6629.8193
000290 d2 05 24 43 85 e8 fd 45 23 67 b1 44 33 6e fd 45
       164.02274 8125.065 1419.223 8109.775
0002a0 00 00 00 00 00 00 00 00 00 00 00 00 00 00 00 00
       0.0 0.0 0.0 0.0
0002b0 00 00 00 00 00 00 00 00 00 00 00 00 00 00 00 00
       0.0 0.0 0.0 0.0
0002c0 cc 16 c2 43 10 f4 9f 46 04 8b 72 45 42 87 9a 46
       388.1781 20474.031 3880.6885 19779.629
0002d0 2c ca 77 43 0b 39 4a 46 bf b8 0c 45 b4 83 47 46
       247.78973 12942.261 2251.5466 12768.926
0002e0 d1 1f d4 43 64 d1 a8 46 9d 60 6b 45 3a 2c a7 46
       424.24857 21608.695 3766.0383 21398.113
0002f0 00 00 00 00 00 00 00 00 00 00 00 00 00 00 00 00
       0.0 0.0 0.0 0.0
000300 b1 8d 24 44 8e e8 01 47 e8 5f b8 45 fe 1e 01 47
       658.2139 33256.555 5899.9883 33054.992
000310 e8 c7 3e 43 d2 42 11 46 57 8b cc 44 af 62 11 46
       190.78088 9296.705 1636.3544 9304.671
000320 cb e0 8c 43 e7 93 cf 46 0e 93 ac 45 db 3a d9 46
       281.7562 26569.951 5522.382 27805.428
000330 00 00 00 00 00 00 00 00 00 00 00 00 00 00 00 00
       0.0 0.0 0.0 0.0
000340 0f fc 10 43 4f 0b ea 45 7a 70 a2 44 4f ee e6 45
       144.9846 7489.4136 1299.5149 7389.7886
000350 d2 f8 2b 45 fa d7 0a 48 1e 30 c2 46 1f 7a 09 48
       2751.5513 142175.9 24856.059 140776.48
000360 c8 4c fb 44 ef 34 4c 47 c3 2f 3b 46 a0 5f 37 47
       2010.3994 52276.934 11979.94 46943.625
000370 6b e4 9e 43 60 b3 85 46 58 36 37 45 ce 86 83 46
       317.78452 17113.688 2931.3965 16835.402
000380 bb 3e a7 42 50 df 89 45 40 5b 42 44 90 83 88 45
       83.62252 4411.914 777.4258 4368.4453
000390 69 34 c4 43 b6 64 a3 46 47 60 61 45 b7 49 a0 46
       392.40945 20914.355 3606.0173 20516.857
0003a0 ee ae f5 3f 9e 19 01 43 5e b8 b6 41 ae 5c f2 42
       1.9194009 129.10007 22.840023 121.181015
0003b0 00 00 00 00 00 00 00 00 00 00 00 00 00 00 00 00
       0.0 0.0 0.0 0.0
0003c0 00 00 00 00 00 00 00 00 00 00 00 00 00 00 00 00
       0.0 0.0 0.0 0.0
0003d0 00 00 00 00 00 00 00 00 00 00 00 00 00 00 00 00
       0.0 0.0 0.0 0.0
0003e0 70 8e bf 43 81 e1 54 46 a7 0d 46 45 f2 68 3d 46
       383.1128 13624.376 3168.8533 12122.236
0003f0 00 00 00 00 00 00 00 00 00 00 00 00 00 00 00 00
       0.0 0.0 0.0 0.0

exp_avg f4 [64]
000000 02 8b 89 bd 67 76 c3 3d d0 4b a1 be 68 ad a4 bd
       -0.06715967 0.09544068 -0.31503153 -0.08040887
000010 0f cb 89 bd a1 1c 34 bc 00 00 00 00 e3 5c 88 bc
       -0.067281835 -0.010993154 0.0 -0.016645854
000020 11 77 58 3d 4e 25 aa bd 3d 4a 20 bc 9b 65 d1 bc
       0.052847926 -0.083078966 -0.009783325 -0.025561145
000030 00 00 00 00 06 55 43 bd 73 9b 14 3e 3d 07 2a 3d
       0.0 -0.047688507 0.14512424 0.04151081
000040 3c 03 55 3c d9 65 0f 3e 00 00 00 00 29 db 38 bc
       0.013001259 0.14003696 0.0 -0.011282721
000050 fb ea 7e be d1 c9 f9 3c f8 87 ce bd f7 a2 28 be
       -0.24894325 0.030491741 -0.10084528 -0.16468416
000060 00 00 00 00 1f cf 80 3c 00 00 00 00 48 be c8 3c
       0.0 0.015723763 0.0 0.024504796
000070 00 00 00 00 00 00 00 00 00 00 00 00 00 00 00 00
       0.0 0.0 0.0 0.0
000080 65 0d 47 bc 78 d9 f7 bc 91 f0 8a bd c4 90 9b be
       -0.01214919 -0.030255064 -0.06784166 -0.30383885
000090 dd 69 03 bd 04 00 00 00 6a 06 0e be f5 96 9b bd
       -0.03208338 6e-45 -0.13869634 -0.07597152
0000a0 60 cd 7e bd 28 a1 49 bd 00 00 00 00 00 00 00 00
       -0.06220758 -0.049225956 0.0 0.0
0000b0 d7 e8 84 bd 0d 02 89 bd c4 17 ae bd 00 00 00 00
       -0.06489723 -0.06689844 -0.08500627 0.0
0000c0 b4 d1 ce bd 49 e4 42 bd 7b d7 5e 3e 00 00 00 00
       -0.100985914 -0.04758099 0.21761887 0.0
0000d0 5e b6 49 bd 6d 5f 63 3e ba af bc bd 0e 6c b7 bd
       -0.049246185 0.22204371 -0.09213205 -0.08956157
0000e0 ec 5b 09 bd 69 ab ca 3d 5a 0f 09 bc 00 00 00 00
       -0.03353493 0.09895975 -0.0083654765 0.0
0000f0 00 00 00 00 00 00 00 00 63 c1 09 be 00 00 00 00
       0.0 0.0 -0.13452677 0.0

exp_avg_sq f4 [64]
000000 37 62 23 3f 16 7c 14 40 f3 8d fc 3f 0e dd 02 41
       0.6382174 2.3200736 1.973082 8.178968
000010 42 95 77 3e 8f 50 91 3b 00 00 00 00 ce f0 0b 3f
       0.24178031 0.004434652 0.0 0.54664314
000020 dc c9 94 3f f5 84 5a 3f 4c 83 fe 3c 98 81 de 3e
       1.1624103 0.85359126 0.031068467 0.43458247
000030 00 00 00 00 56 bd 2b 3f 0a 70 46 3f 7f a6 5e 3d
       0.0 0.6708578 0.7751471 0.054358
000040 94 9a b1 3c e3 c6 08 40 00 00 00 00 23 2d 53 3c
       0.021680154 2.137139 0.0 0.012889179
000050 4b df 36 41 6c d5 10 3e 64 76 bf 3f 8a 4f 35 40
       11.429515 0.14143914 1.4958005 2.8329797
000060 00 00 00 00 a3 c4 8c 3e 00 00 00 00 b2 13 45 3d
       0.0 0.27493772 0.0 0.048114486
000070 00 00 00 00 00 00 00 00 00 00 00 00 00 00 00 00
       0.0 0.0 0.0 0.0
000080 54 cf e6 3d 4a f6 ec 3c 16 4f 5c 3f f9 fc 6e 41
       0.112700135 0.028926034 0.86058176 14.936761
000090 ae ba 36 3e 50 b5 44 24 05 91 66 40 8e 0a 2a 3f
       0.1784465 4.2654303e-17 3.6026013 0.66422355
0000a0 42 37 93 3e 1b 72 ac 3e 00 00 00 00 00 00 00 00
       0.28753096 0.33680806 0.0 0.0
0000b0 f3 49 55 3f 0a 22 09 3f a6 87 65 3f 00 00 00 00
       0.8331596 0.53567564 0.8966011 0.0
0000c0 46 cc b0 3f 4b 0d c6 3e 1a d8 9b 3f 00 00 00 00
       1.3812339 0.38682017 1.2175324 0.0
0000d0 0e fb 9e 3e 85 33 bc 40 64 55 09 40 2e 5d 34 3f
       0.31050915 5.881289 2.1458368 0.7045468
0000e0 ac ab 3a 3e 30 62 5d 3f fb 5c aa 3b 00 00 00 00
       0.1822955 0.8647795 0.0051990724 0.0
0000f0 00 00 00 00 00 00 00 00 b6 01 09 3f 00 00 00 00
       0.0 0.0 0.53518236 0.0

exp_avg f4 [13, 64]
000000 95 fe 37 be f5 a0 16 3c 12 43 90 bb f6 b0 54 bd
       -0.17968209 0.009193649 -0.0044025267 -0.051926576
000010 e2 fc 3e 3b b9 79 0d 3d 00 00 00 00 d9 3a b8 bb
       0.002914243 0.034539912 0.0 -0.0056222496
000020 2b b3 07 3c a7 f3 49 bd ca 47 08 be 3a 8d a4 bd
       0.008282463 -0.04930463 -0.13308635 -0.08034749
000030 00 00 00 00 ab 50 03 3d d4 fb d6 3c 1f 36 93 bd
       0.0 0.032059353 0.026243128 -0.07188057
000040 39 0c 87 be d5 04 57 bd 00 00 00 00 94 bd 6f bd
       -0.26376513 -0.052494843 0.0 -0.058530405
000050 05 39 03 be b7 53 38 3d 63 40 94 bc e4 8c 9e bd
       -0.1281472 0.04500171 -0.018097108 -0.077417165
000060 00 00 00 00 9e 74 e4 bd 00 00 00 00 86 e3 4c bd
       0.0 -0.111550555 0.0 -0.05002167
000070 00 00 00 00 00 00 00 00 00 00 00 00 00 00 00 00
       0.0 0.0 0.0 0.0
000080 af 99 a1 bd 49 e0 4b 3d 60 86 7c bd 84 0b 0c be
       -0.07890641 0.049774442 -0.061651587 -0.13676268
000090 46 26 03 be 04 00 00 80 90 63 72 be f7 3b e3 bd
       -0.12807569 -6e-45 -0.23670793 -0.11095422
0000a0 cf 15 01 be 4a 51 a3 bd 00 00 00 00 00 00 00 00
       -0.12605976 -0.07974489 0.0 0.0
0000b0 9c af dc bd 70 ef b3 bd b4 16 29 be 00 00 00 00
       -0.10775682 -0.087859035 -0.16512567 0.0
0000c0 cd 55 b2 bd 98 9d 3a bd ea 82 8b 3c 00 00 00 00
       -0.087077715 -0.04556045 0.017030198 0.0
0000d0 52 e1 e6 bd eb 25 67 bc 58 1a 5b bb 27 76 cb b9
       -0.11273445 -0.014108161 -0.003343245 -0.00038807208
0000e0 32 1e a6 bd c1 fb 7c bd ca cd 3f bd 00 00 00 00
       -0.08111228 -0.06176353 -0.046827115 0.0
0000f0 00 00 00 00 00 00 00 00 9d 0f f4 3c 00 00 00 00
       0.0 0.0 0.029792601 0.0
000100 91 6e 14 42 fe e7 96 40 84 49 76 40 19 fc 80 40
       37.107975 4.7158194 3.848237 4.0307736
000110 8e 27 03 bf 19 3e c0 3f 00 00 00 00 17 8b 29 40
       -0.5123223 1.5018951 0.0 2.6491144
000120 a0 f9 ab bf 38 a1 78 41 a7 c7 a1 41 5d d1 27 41
       -1.3435555 15.53936 20.222486 10.488614
000130 00 00 00 00 bf a6 de 40 12 72 fe 40 3c 67 3c 41
       0.0 6.9578547 7.9514246 11.775204
000140 ab 78 61 42 99 85 94 41 00 00 00 00 69 ea 8e 41
       56.36784 18.565233 0.0 17.864458
000150 4f 91 01 42 55 ca 7d 3e 2a 4d 1c 41 b9 fb 81 41
       32.391903 0.24784215 9.768839 16.247911
000160 00 00 00 00 0d 49 d4 41 00 00 00 00 ca 92 0b 41
       0.0 26.53567 0.0 8.723337
000170 00 00 00 00 00 00 00 00 00 00 00 00 00 00 00 00
       0.0 0.0 0.0 0.0
000180 3f f6 1d 41 3f 0b cc 40 46 02 aa 40 84 ab c9 41
       9.872619 6.376373 5.3127775 25.208748
000190 ac 93 f3 41 04 00 00 00 cd 51 67 42 2a 27 a9 41
       30.447105 6e-45 57.829884 21.144123
0001a0 e4 03 9a 41 39 c6 4a 41 00 00 00 00 00 00 00 00
       19.2519 12.673394 0.0 0.0
0001b0 33 e9 bb 41 ba d8 99 41 ae ad 04 42 00 00 00 00
       23.488867 19.230824 33.16961 0.0
0001c0 c2 bf 92 41 7a aa 1a 41 2c 12 a1 40 00 00 00 00
       18.343632 9.66662 5.0334682 0.0
0001d0 7d b7 d6 41 0d 74 19 41 37 8d 37 40 cc e0 49 41
       26.839594 9.590833 2.867994 12.617382
0001e0 e4 04 d8 41 48 e1 39 41 7a a4 4c 41 00 00 00 00
       27.002388 11.6175 12.790155 0.0
0001f0 00 00 00 00 00 00 00 00 2a 68 e5 40 00 00 00 00
       0.0 0.0 7.1689653 0.0
000200 38 b5 c1 c1 46 79 07 c0 f8 eb 46 c0 e8 19 9a bf
       -24.213486 -2.116777 -3.1081524 -1.2039156
000210 45 96 2c 3f d7 35 69 bf 00 00 00 00 82 44 13 c0
       0.67416793 -0.9109778 0.0 -2.3010564
000220 3a c1 3a 40 46 9b 2b c1 e3 03 54 c1 9a 5f e2 c0
       2.9180436 -10.725409 -13.250949 -7.07417
000230 00 00 00 00 c5 15 c0 c0 df b0 c0 c0 93 3e 09 c1
       0.0 -6.0026574 -6.0215907 -8.577777
000240 e9 11 1b c2 a3 dd 6e c1 00 00 00 00 c9 44 4f c1
       -38.76749 -14.929111 0.0 -12.954293
000250 77 f1 be c1 e0 01 7d be ba 36 eb c0 34 f9 16 c1
       -23.867903 -0.24707747 -7.3504305 -9.435841
000260 00 00 00 00 d6 eb 8d c1 00 00 00 00 0b 56 eb c0
       0.0 -17.740154 0.0 -7.3542533
000270 00 00 00 00 00 00 00 00 00 00 00 00 00 00 00 00
       0.0 0.0 0.0 0.0
000280 50 ce cd c0 87 70 5b c0 47 04 53 c0 4c 48 8c c1
       -6.4314346 -3.4287431 -3.297136 -17.535301
000290 39 2b ab c1 04 00 00 80 91 d9 26 c2 fa 4e 59 c1
       -21.396105 -6e-45 -41.712467 -13.581781
0002a0 c8 c9 33 c1 5a fc f7 c0 00 00 00 00 00 00 00 00
       -11.236763 -7.7495546 0.0 0.0
0002b0 f9 b6 70 c1 db be 49 c1 7d b2 ad c1 00 00 00 00
       -15.044671 -12.609096 -21.712152 0.0
0002c0 58 ad 39 c1 bc 58 db c0 49 27 a2 c0 00 00 00 00
       -11.60482 -6.854582 -5.0672956 0.0
0002d0 56 d9 94 c1 af f2 01 c1 4d 7a 87 bf 50 3a 0e c1
       -18.606121 -8.121749 -1.0584198 -8.889236
0002e0 b5 ae 9e c1 da 9b 05 c1 b7 2b 07 c1 00 00 00 00
       -19.835306 -8.35055 -8.448173 0.0
0002f0 00 00 00 00 00 00 00 00 61 18 75 c0 00 00 00 00
       0.0 0.0 -3.829613 0.0
000300 1f 9d bc c1 60 38 e1 bf d6 83 4f c0 95 0a 62 c0
       -23.57672 -1.7595329 -3.2424216 -3.5318959
000310 ca da dc 3e 80 c6 b5 be 00 00 00 00 bb 67 02 c0
       0.43135673 -0.35503006 0.0 -2.0375812
000320 26 54 f1 3f c0 7c 27 c1 56 59 62 c1 8b c3 04 c1
       1.8853805 -10.467957 -14.146811 -8.29774
000330 00 00 00 00 15 bf 7b c0 d0 16 cd c0 53 3d 0d c1
       0.0 -3.9335377 -6.4090347 -8.827472
000340 c5 2d 1c c2 6a 23 5a c1 00 00 00 00 eb 11 3a c1
       -39.044697 -13.633646 0.0 -11.6293745
000350 5d 5d c1 c1 e0 d0 87 be c6 cb d8 c0 41 9f 20 c1
       -24.170588 -0.26526546 -6.7748747 -10.03888
000360 00 00 00 00 70 a1 8f c1 00 00 00 00 9f 01 e2 c0
       0.0 -17.953827 0.0 -7.062698
000370 00 00 00 00 00 00 00 00 00 00 00 00 00 00 00 00
       0.0 0.0 0.0 0.0
000380 c8 f7 fa c0 81 8e a0 c0 34 63 92 c0 a6 e1 98 c1
       -7.8427467 -5.0173955 -4.5746098 -19.11018
000390 c1 16 a2 c1 04 00 00 80 ff fd 27 c2 ea 01 6e c1
       -20.26111 -6e-45 -41.998043 -14.875467
0003a0 7f a6 5b c1 dd c8 f6 c0 00 00 00 00 00 00 00 00
       -13.728148 -7.7120194 0.0 0.0
0003b0 88 ec 91 c1 86 88 52 c1 5e 9e b5 c1 00 00 00 00
       -18.240494 -13.158331 -22.702328 0.0
0003c0 1f 27 40 c1 11 b4 da c0 2e a8 70 c0 00 00 00 00
       -12.009551 -6.834481 -3.7602649 0.0
0003d0 41 0a 92 c1 16 89 c7 c0 eb c9 25 c0 4f 90 ef c0
       -18.255007 -6.235484 -2.590449 -7.486366
0003e0 df ba 94 c1 ac cc f3 c0 5f 73 07 c1 00 00 00 00
       -18.591246 -7.6187344 -8.465667 0.0
0003f0 00 00 00 00 00 00 00 00 59 00 ad c0 00 00 00 00
       0.0 0.0 -5.4062924 0.0

exp_avg_sq f4 [13, 64]
000000 80 ba 90 3e e3 7a 6f 3c aa a3 48 3d b3 48 d8 3c
       0.28267288 0.014616701 0.048984207 0.026401853
000010 36 f1 51 38 bf 13 3e 3b 00 00 00 00 4b a8 a2 3d
       5.005413e-05 0.0029003469 0.0 0.079422556
000020 08 51 7d 3b 67 fd 01 3d 57 ff 46 3e ce 41 e5 3d
       0.0038653035 0.031735804 0.19433342 0.11194192
000030 00 00 00 00 8f 40 63 3b ab 16 e9 3d b1 97 b9 3d
       0.0 0.003467593 0.11381277 0.09062136
000040 68 2b 50 3f 6e 2c 2d 3e 00 00 00 00 a0 5e 81 3d
       0.8131623 0.1691148 0.0 0.063168764
000050 9f 03 01 3f 83 8b 34 3d 20 22 70 3c 5c 4b 23 3d
       0.5039615 0.04407836 0.0146565735 0.03986679
000060 00 00 00 00 ce 1a e9 3d 00 00 00 00 3c 41 ea 3d
       0.0 0.11382066 0.0 0.11438224
000070 00 00 00 00 00 00 00 00 00 00 00 00 00 00 00 00
       0.0 0.0 0.0 0.0
000080 3e e6 d7 3d d0 b7 41 3d c5 e5 ea 3d db 52 c6 3e
       0.10541962 0.047294438 0.11469606 0.3873509
000090 1a 99 51 3e a6 74 86 28 99 8c a5 3f 09 5f ec 3d
       0.2046856 1.4927577e-14 1.2933532 0.11541564
0000a0 d1 fd ec 3d 46 13 76 3d 00 00 00 00 00 00 00 00
       0.11571849 0.060076974 0.0 0.0
0000b0 67 4d 87 3e 3f cc 8d 3d 37 8b 77 3e 00 00 00 00
       0.2642624 0.069237225 0.241742 0.0
0000c0 e1 bd 3b 3d 6d 95 1d 3d f2 87 0e 3d 00 00 00 00
       0.04583538 0.03847258 0.034797616 0.0
0000d0 fe c7 22 3e fd 47 14 3d c8 ca 5d 3c dc 25 87 3c
       0.15896603 0.036201466 0.013537116 0.016497545
0000e0 90 e5 19 3e 97 69 82 3d ee 24 bd 3c 00 00 00 00
       0.15028977 0.06367796 0.023088899 0.0
0000f0 00 00 00 00 00 00 00 00 0a 11 00 3d 00 00 00 00
       0.0 0.0 0.03126625 0.0
000100 dd f2 5f 48 a9 b9 23 46 dd 80 19 43 b4 31 73 45
       229323.45 10478.415 153.50337 3891.1064
000110 e7 1f c3 41 b0 08 4f 44 00 00 00 00 00 82 05 44
       24.390577 828.13574 0.0 534.03125
000120 61 e1 28 45 9a 8d 9e 46 2b 1c a2 47 f9 fd 78 46
       2702.0862 20294.8 83000.336 15935.493
000130 00 00 00 00 32 2c cd 44 76 7d ae 44 98 1f 7b 46
       0.0 1641.3811 1395.9207 16071.898
000140 5f d8 b0 48 d3 99 e1 46 00 00 00 00 9b 1c 23 47
       362178.97 28876.912 0.0 41756.605
000150 26 a8 a2 47 cb 70 e2 40 2f 1a 9b 45 11 6a 24 47
       83280.3 7.0762687 4963.273 42090.066
000160 00 00 00 00 2a a3 8c 47 00 00 00 00 54 26 10 46
       0.0 72006.33 0.0 9225.582
000170 00 00 00 00 00 00 00 00 00 00 00 00 00 00 00 00
       0.0 0.0 0.0 0.0
000180 3f 41 76 46 02 6c b2 44 12 3f 89 45 0f 33 83 47
       15760.312 1427.3752 4391.884 67174.12
000190 58 2b ed 47 ba e3 ae 29 8f 9c 98 48 3e 98 43 47
       121430.69 7.7666565e-14 312548.47 50072.242
0001a0 f4 a4 47 47 82 2c 2f 47 00 00 00 00 00 00 00 00
       51108.953 44844.508 0.0 0.0
0001b0 ad 6b 23 47 82 ce 1a 47 e8 3d 03 48 00 00 00 00
       41835.676 39630.508 134391.62 0.0
0001c0 da 95 1d 47 c8 13 50 46 d8 09 b6 44 00 00 00 00
       40341.85 13316.945 1456.3076 0.0
0001d0 0f 45 a4 47 2e 94 56 46 5d f8 3b 44 b5 b6 75 46
       84106.12 13733.045 751.8807 15725.677
0001e0 be f8 77 47 16 18 f4 46 1f 59 94 46 00 00 00 00
       63480.742 31244.043 18988.56 0.0
0001f0 00 00 00 00 00 00 00 00 15 21 38 45 00 00 00 00
       0.0 0.0 2946.0676 0.0
000200 ce 9d 6a 48 b5 52 2e 46 ed 37 13 43 b5 16 74 45
       240247.22 11156.677 147.21846 3905.4192
000210 e6 b1 d0 41 14 89 5f 44 00 00 00 00 7f 41 fd 43
       26.086864 894.14185 0.0 506.5117
000220 16 6d 32 45 25 06 a6 46 c6 0e a8 47 42 4d 7e 46
       2854.8179 21251.072 86045.55 16275.314
000230 00 00 00 00 ab 94 e0 44 99 fb b0 44 7e 46 81 46
       0.0 1796.6459 1415.8624 16547.246
000240 64 09 b8 48 9d a0 e9 46 00 00 00 00 95 44 2b 47
       376907.12 29904.307 0.0 43844.582
000250 53 c4 a7 47 f5 04 c1 40 de 9d a2 45 87 5c 2c 47
       85896.65 6.031855 5203.7334 44124.527
000260 00 00 00 00 1b d2 92 47 00 00 00 00 c8 aa 12 46
       0.0 75172.21 0.0 9386.695
000270 00 00 00 00 00 00 00 00 00 00 00 00 00 00 00 00
       0.0 0.0 0.0 0.0
000280 61 55 7b 46 6f 47 b7 44 cb df 87 45 b2 cd 86 47
       16085.345 1466.2323 4347.974 69019.39
000290 91 0a f8 47 99 8c 8f 29 71 01 9e 48 be da 4a 47
       126997.13 6.3748655e-14 323595.53 51930.742
0002a0 3c 2f 4e 47 ee 4c 37 47 00 00 00 00 00 00 00 00
       52783.234 46924.93 0.0 0.0
0002b0 15 7b 27 47 1e 49 21 47 98 9e 08 48 00 00 00 00
       42875.082 41289.117 139898.38 0.0
0002c0 fd dd 24 47 0b fa 57 46 77 6b b8 44 00 00 00 00
       42205.99 13822.511 1475.3583 0.0
0002d0 0f 6d ab 47 a9 20 61 46 03 97 39 44 a2 b8 82 46
       87770.12 14408.165 742.35956 16732.316
0002e0 26 9c 81 47 97 67 fe 46 ac 77 9b 46 00 00 00 00
       66360.3 32563.795 19899.836 0.0
0002f0 00 00 00 00 00 00 00 00 5c 07 3c 45 00 00 00 00
       0.0 0.0 3008.46 0.0
000300 15 85 d4 47 45 36 9b 45 c3 23 b0 42 c9 dc f8 44
       108810.164 4966.7837 88.06985 1990.8995
000310 4c 88 61 41 fd 61 c3 43 00 00 00 00 0b a0 8a 43
       14.095776 390.76553 0.0 277.25034
000320 b1 e0 a8 44 5d a7 13 46 e9 4a 1c 47 c8 a9 f2 45
       1351.0216 9449.841 40010.91 7765.2227
000330 00 00 00 00 8f 80 30 44 b8 24 1c 44 ce 3c f0 45
       0.0 706.0087 624.5737 7687.6006
000340 40 94 27 48 34 34 54 46 00 00 00 00 2c e1 98 46
       171601.0 13581.051 0.0 19568.586
000350 33 f6 19 47 d8 46 6a 40 f6 7e 0d 45 6a f5 9b 46
       39414.2 3.660574 2263.935 19962.707
000360 00 00 00 00 fc 7c 04 47 00 00 00 00 8c f6 8a 45
       0.0 33916.984 0.0 4446.8184
000370 00 00 00 00 00 00 00 00 00 00 00 00 00 00 00 00
       0.0 0.0 0.0 0.0
000380 b4 f6 f0 45 d0 cf 21 44 ca 78 0c 45 7f ff fb 46
       7710.838 647.2471 2247.5493 32255.748
000390 c4 f0 5f 47 4e 0b ac 2a ad 93 10 48 18 3f ba 46
       57328.766 3.0561182e-13 148046.7 23839.547
0003a0 b0 63 c0 46 d2 3a a8 46 00 00 00 00 00 00 00 00
       24625.844 21533.41 0.0 0.0
0003b0 e2 54 9c 46 c3 4d 92 46 c7 48 79 47 00 00 00 00
       20010.441 18726.88 63816.777 0.0
0003c0 69 ae 94 46 03 84 c6 45 14 68 28 44 00 00 00 00
       19031.205 6352.5015 673.6262 0.0
0003d0 14 22 1b 47 cf 75 c9 45 d2 32 c9 43 55 dc e0 45
       39714.08 6446.726 402.39703 7195.5415
0003e0 71 52 e7 46 06 5d 6a 46 23 b4 0a 46 00 00 00 00
       29609.22 14999.256 8877.034 0.0
0003f0 00 00 00 00 00 00 00 00 00 4a af 44 00 00 00 00
       0.0 0.0 1402.3125 0.0

exp_avg f4 [13]
000000 8b e5 4e 3b 8f ff 89 3e d3 80 95 be 68 cc 3c be
       0.0031569924 0.26952788 -0.29199848 -0.1843735
000010 37 be ab 3e 04 ab 75 13 4d 28 72 10 7f 52 d4 92
       0.3354356 3.1007665e-27 4.775713e-29 -1.3399418e-27
000020 49 d0 b5 94 c3 67 72 15 2d fe 68 15 80 63 52 08
       -1.8358483e-26 4.8953364e-26 4.7052536e-26 6.331154e-34
000030 e6 b3 34 88
       -5.437825e-34

exp_avg_sq f4 [13]
000000 e3 7c ba 38 eb 38 46 41 91 c3 4e 41 81 41 bb 40
       8.892433e-05 12.388896 12.922746 5.851746
000010 b1 57 4f 41 0b 26 16 00 71 4b 00 00 c7 2b 53 00
       12.958909 2.034028e-39 2.7063e-41 7.63805e-39
000020 c3 53 80 06 b6 0c a6 10 65 0c a6 10 f4 01 00 00
       4.8271325e-35 6.549504e-29 6.549455e-29 7e-43
000030 7c 01 00 00
       5.32e-43
