Op_problems/problem_pooling/checkpoints/kkt_hardnet_checkpoint_epoch_1100_loss_87.863365.pth (torch, 20857 bytes, 12 tensors)

nn.0.weight f4 [64, 4]
0	0x3ed0cfc9	0.40783527
1	0x3eced170	0.40394163
2	0xbd84a509	-0.064767905
3	0x3edd74dc	0.4325322
4	0xbcd309be	-0.025761481
5	0x3d366bc9	0.044536386
6	0xbeca2368	-0.39480138
7	0x3ea26549	0.317179
8	0x3f8a0273	1.0781997
9	0xbedd9e18	-0.43284678
10	0x3edaefaf	0.4276099
11	0x3cc2a19c	0.023758702
12	0x3f6852af	0.90751165
13	0x3d102058	0.035187095
14	0x3e4d17fa	0.20028678
15	0xbe0c0deb	-0.13677184
16	0x3f0d50c2	0.5520135
17	0xbe71986c	-0.235933
18	0xbed0fc85	-0.40817657
19	0x3e3f6da2	0.18694165
20	0xbe81ee31	-0.25377038
21	0xbd02f56e	-0.03197234
22	0xbed3ee4b	-0.4139274
23	0x3e8cdfcd	0.27514496
24	0xbeca142a	-0.3946851
25	0xbe6c098c	-0.23050517
26	0xbe10936c	-0.14118737
27	0xbe99ecfe	-0.30063623
28	0x3e0b6d71	0.13615967
29	0xbf29aef7	-0.662826
30	0x3f0d1a75	0.55118495
31	0x3ec2dece	0.3806061
32	0x3ef4b310	0.47792864
33	0x3c50aaea	0.012736062
34	0xbed762fc	-0.42067707
35	0x3e34fff1	0.17675759
36	0x3cf7fdab	0.030272326
37	0x3eca5ecb	0.39525446
38	0x3d8d7121	0.06906343
39	0xbe424bc7	-0.1897422
40	0x3ef6301e	0.48083586
41	0xbe8bd914	-0.27314055
42	0x3eea0f84	0.45714962
43	0x3f050e25	0.5197471
44	0x3e73c0e1	0.23804046
45	0xbe7dab61	-0.24772407
46	0x3f0b1974	0.54335713
47	0x3e71b297	0.23603283
48	0x3e82017a	0.25391752
49	0xbe9c0886	-0.30475253
50	0xbefd6aa4	-0.49495423
51	0xbe45d10c	-0.19318026
52	0xbeb55821	-0.354188
53	0x3eaf690f	0.3425984
54	0xbe8daf44	-0.2767278
55	0xbe02fe50	-0.12792325
56	0xbf1e6fc9	-0.6188932
57	0x3de6dcb5	0.11272565
58	0x3f15ce72	0.58518136
59	0xbe8a6a67	-0.27034304
60	0xbe2dc4d5	-0.16969617
61	0xbe73798e	-0.23776838
62	0x3efa2ad9	0.48860815
63	0x3e905442	0.28189284
64	0x3e7e613c	0.2484178
65	0x3ec5b078	0.38611197
66	0x3f62eda0	0.88643837
67	0x3eac6122	0.33667856
68	0xbf2bb600	-0.67074585
69	0xbe8da8fd	-0.2766799
70	0x3f2214ff	0.6331329
71	0x3ece2551	0.40262845
72	0x3ef65610	0.48112535
73	0xbed3454e	-0.41263813
74	0xbefdeb98	-0.49593806
75	0xbec848fe	-0.3911819
76	0xbeb57e21	-0.3544779
77	0x3d80491c	0.062639445
78	0x3daeaf2b	0.085295044
79	0x3e82137b	0.25405487
80	0xbe48adc4	-0.19597536
81	0xba5cd23c	-0.00084236613
82	0x3f85c13f	1.0449599
83	0x3de90e28	0.11379653
84	0xbf377112	-0.71656907
85	0xbf148058	-0.5800834
86	0x3ef9bb72	0.48775822
87	0x3e43facb	0.19138639
88	0xbe6a2247	-0.22864638
89	0x3e566003	0.20935063
90	0x3df01dfa	0.117244676
91	0xbdd22a06	-0.102619216
92	0x3f258e38	0.64670134
93	0x3f1310c0	0.57447433
94	0xbe701a27	-0.23447476
95	0xbe3fcd52	-0.18730667
96	0x3eea68d2	0.45783097
97	0xbe2cc3f4	-0.16871625
98	0xbe35832c	-0.1772582
99	0xbef7b448	-0.4837973
100	0x3ea9ba86	0.3315012
101	0x3f0c30bf	0.5476188
102	0x3e285de3	0.16442065
103	0xbe2ea86a	-0.17056432
104	0x3c402840	0.011728346
105	0xbeaede6e	-0.34154075
106	0xbed93086	-0.42419833
107	0xbe8cf83a	-0.27533132
108	0xbefc9c21	-0.49337867
109	0xbf0e9203	-0.55691546
110	0x3f2057c9	0.6263395
111	0x3f0b13fc	0.5432737
112	0x3e1dc71c	0.15407985
113	0xbeeec466	-0.46634215
114	0xbea82254	-0.3283869
115	0xbe2a6c14	-0.16642791
116	0x3da01fc0	0.07818556
117	0xbee14286	-0.43996066
118	0xbe5c9b64	-0.21543652
119	0xbe994258	-0.2993343
120	0x3ab59e00	0.0013856292
121	0xbe3e8450	-0.1860516
122	0xbd0deaf0	-0.034647882
123	0xbead7924	-0.33881485
124	0xbeafb798	-0.34319758
125	0xbe9559d2	-0.2917009
126	0xbe2f419c	-0.17114872
127	0xbeca0e50	-0.39464045
128	0x3ec734c7	0.38907453
129	0xbe58c323	-0.21168189
130	0x3efe49c6	0.4966566
131	0x3e3dab5f	0.18522404
132	0x3ef1d764	0.47234643
133	0x3f1901bc	0.5976827
134	0x3e9fbd95	0.31199327
135	0xbf4bc164	-0.79591966
136	0x3ef6ae74	0.48179972
137	0xbeeaf3d4	-0.4588915
138	0x3f172b6f	0.5905065
139	0x3e6e690d	0.23282261
140	0x3eb39966	0.3507797
141	0xbdbb9e11	-0.09161008
142	0x3f67b68e	0.9051293
143	0x3e1079e6	0.14109
144	0xbe82f5ec	-0.25578249
145	0x3db03238	0.086033285
146	0x3e99fd4f	0.30076072
147	0x3eec05c8	0.4609816
148	0x3ed83141	0.42225078
149	0xbedc0054	-0.42969
150	0x3dbda792	0.09260477
151	0xbe7e403d	-0.24829192
152	0xbdbcb0ce	-0.0921341
153	0x3df4e39f	0.11957478
154	0x3fc00935	1.500281
155	0x3e8d1499	0.27554777
156	0x3f170bc6	0.5900234
157	0x3ec36fdc	0.3817128
158	0x3e98870f	0.29790542
159	0xbe3cee9f	-0.18450402
160	0x3f94db97	1.1629514
161	0x3ee090e9	0.43860558
162	0x3e83e04d	0.25757065
163	0xbe9a3273	-0.30116615
164	0x3e8fa3aa	0.28054553
165	0xbd89d5d0	-0.067302346
166	0xbd20b186	-0.0392318
167	0x3edff425	0.43740955
168	0x3de44cb0	0.111474395
169	0xbe8da386	-0.2766382
170	0xbe819252	-0.25306946
171	0xbcc39b80	-0.02387786
172	0x3e8ef0c4	0.27918065
173	0xbe02d554	-0.1277669
174	0xbe921132	-0.28528744
175	0xbe2f54ac	-0.17122144
176	0x3f5c1401	0.85968024
177	0x3f04ca9f	0.51871675
178	0x3f242f56	0.6413473
179	0xbf0bfe27	-0.5468468
180	0x3eaf25ef	0.3420863
181	0x3ecc8f54	0.399531
182	0x3e232716	0.15932879
183	0xbe26c05d	-0.16284318
184	0x3f1d28e2	0.6139051
185	0x3ef959fb	0.48701462
186	0x3eb024dd	0.34403124
187	0xbd3b233c	-0.0456879
188	0xbe079408	-0.13240063
189	0x3d5b18d0	0.05349046
190	0xbdb4e4d0	-0.08832705
191	0xbe189398	-0.14900053
192	0x3ebf156a	0.37321025
193	0x3ef78024	0.4833995
194	0xbcaa608d	-0.020797992
195	0xbe28048b	-0.16407983
196	0x3c99c91f	0.01877266
197	0xbda0a464	-0.07843855
198	0x3e6d5f75	0.23180945
199	0x3e36c300	0.17847824
200	0xbf54921d	-0.8303545
201	0xbec12c31	-0.37729028
202	0x3ec8fbff	0.39254758
203	0x3ec5518e	0.38538784
204	0xbccbb9a0	-0.024868786
205	0xbe9a5808	-0.30145288
206	0xbe9c9f42	-0.30590254
207	0xbee550fa	-0.44788343
208	0x3c7704e2	0.015076848
209	0x3e65613a	0.2240037
210	0x3e9e6b5c	0.30941284
211	0x3e2a990f	0.1665995
212	0xbf415ab1	-0.7552901
213	0xbeb4d487	-0.35318395
214	0x3e40d2d9	0.18830432
215	0x3f15727e	0.58377826
216	0x3f92977b	1.1452478
217	0x3d9b682b	0.07588228
218	0x3dec5ef3	0.115415476
219	0xbe93bd68	-0.28855443
220	0xbe755b9d	-0.23960729
221	0x3eed6bc5	0.46371284
222	0xbe9e954a	-0.30973274
223	0xbe11c81b	-0.1423649
224	0xbed9b41a	-0.4252022
225	0x3e80ffc1	0.25195125
226	0x3ebceead	0.36900845
227	0x3d9d66f0	0.076856494
228	0xbe08d68e	-0.13363096
229	0xbeb1c34a	-0.34719306
230	0x3e65a6d2	0.22426918
231	0x3f1ab04d	0.60425264
232	0x3da80949	0.08204896
233	0x3ebfef40	0.3748722
234	0xbd923fb8	-0.0714106
235	0xbe6ddd77	-0.23229013
236	0xbba07180	-0.0048963428
237	0xbec2b086	-0.38025302
238	0xbedb556c	-0.4283861
239	0xbeef7302	-0.46767431
240	0x3e5197e4	0.20468098
241	0xbe7b6028	-0.245484
242	0xbdce1528	-0.10062629
243	0xbe935450	-0.28775263
244	0xbdba98d0	-0.09111178
245	0xbeb42e86	-0.35191745
246	0xbea74640	-0.32670784
247	0x3e29d600	0.16585541
248	0x3f420021	0.75781447
249	0x3f0d8c65	0.5529235
250	0x3e178997	0.1479858
251	0xbf290f27	-0.66038746
252	0xbdb4ac68	-0.088219464
253	0xbe7830d0	-0.2423737
254	0xbe1ca460	-0.15297079
255	0xbef3b5fc	-0.4759978

nn.0.bias f4 [64]
0	0x3ed96db1	0.424665
1	0x3ddba81b	0.10725423
2	0xbf07240b	-0.5278937
3	0x3cd7dd79	0.026350724
4	0x3e08039e	0.1328263
5	0x3faa93ec	1.3326392
6	0x3eb81d48	0.3595984
7	0x3fe645ec	1.7990088
8	0x3f2dd11b	0.67897195
9	0x3f431269	0.76199967
10	0xbe66c70f	-0.22536872
11	0xc006d523	-2.1067588
12	0xbdebc190	-0.115115285
13	0x405c4888	3.441927
14	0x3fb93d0f	1.4471759
15	0xc0b45463	-5.635301
16	0xc091ebc2	-4.560029
17	0xbe19b3ca	-0.1500999
18	0x3ef219d0	0.47285318
19	0xbf3e75c0	-0.7439842
20	0xbe5a6ecd	-0.2133133
21	0x401b31bb	2.4249103
22	0x3daf370c	0.08555421
23	0x3de733c7	0.112891726
24	0xbde86e68	-0.11349183
25	0x3dbf0e96	0.09328954
26	0xbd332030	-0.04373187
27	0xc097f0e4	-4.7481556
28	0xbe5149fc	-0.20438379
29	0xbe2289f8	-0.15872943
30	0xbef34720	-0.47515202
31	0x3ed20cc8	0.41025376
32	0xbf25ec4c	-0.64813685
33	0x401214f0	2.282528
34	0xbdb9e8fb	-0.090776406
35	0xbe68e1b1	-0.22742344
36	0xbff70f78	-1.9301596
37	0xbf0511a9	-0.5198007
38	0x3f8edd23	1.1161236
39	0x3e83dca9	0.25754288
40	0x4002c220	2.0430984
41	0x3e787b4e	0.24265787
42	0xbe2a8070	-0.16650558
43	0xbe25a484	-0.16176039
44	0xbd693ad4	-0.05694087
45	0x3e0a1de5	0.13487966
46	0xbdace247	-0.084415965
47	0xbe75260c	-0.23940295
48	0xbf1fa3dc	-0.62359405
49	0x3f0599b6	0.5218767
50	0xbffc889b	-1.9729189
51	0x3e07ab64	0.13248974
52	0xbe9bf9b8	-0.30463958
53	0x3e947ddb	0.2900227
54	0x3f4b4988	0.79409075
55	0x3f856aac	1.0423179
56	0x3d0a3abf	0.03374743
57	0x3ee5638c	0.4480251
58	0xbeac5d6e	-0.3366503
59	0x3e06b2dc	0.13154167
60	0x3eaba0f4	0.33521235
61	0x3efc6320	0.49294376
62	0x3f368ae2	0.7130567
63	0x3dd48928	0.10377723

nn.2.weight f4 [13, 64]
0	0x3ecbdfd2	0.398192
1	0xc0d34d22	-6.6031656
2	0x4011822f	2.2735708
3	0x3fa87b15	1.3162562
4	0xc112bc4e	-9.170973
5	0xc0be8597	-5.9538074
6	0xbdaef0ec	-0.08542046
7	0x40924050	4.5703506
8	0xc1088889	-8.533334
9	0xbffb3552	-1.9625647
10	0x4032cbba	2.7936845
11	0x40c4fd0b	6.155889
12	0xbdc2b70a	-0.09507568
13	0xc128d0de	-10.550993
14	0xc08a8f2a	-4.329976
15	0x40d69073	6.705133
16	0x40547c3d	3.320083
17	0x408170ff	4.0450435
18	0xbd6cf5b4	-0.05785151
19	0x3ed50142	0.41602522
20	0x4093771d	4.60829
21	0xc095111b	-4.658338
22	0xc01923a1	-2.3927996
23	0xc06c7a56	-3.6949668
24	0xbdcef07c	-0.101044625
25	0x3eb42e95	0.3519179
26	0x3df74124	0.120729715
27	0x40b1af7b	5.552671
28	0xbdabe942	-0.083941
29	0x3cf83630	0.030299276
30	0x3d0d1ccc	0.03445129
31	0x3d8c43d0	0.06848872
32	0x405b03d8	3.4221096
33	0xc1295818	-10.584007
34	0x411668c9	9.400582
35	0x40a3ce06	5.1188993
36	0x3fc0f923	1.507603
37	0x3c827a71	0.015927525
38	0x40860364	4.187914
39	0x3f08f3ba	0.534969
40	0x3e88dfa9	0.2673314
41	0x3f9944d1	1.1974126
42	0xbde6cc50	-0.11269438
43	0x3bb6f620	0.0055835396
44	0x3d359b5f	0.044337627
45	0xbec7f8bf	-0.39056966
46	0x3f24ca04	0.6437075
47	0xbdc225ae	-0.09479843
48	0xbf5f9f20	-0.8735218
49	0x3ff35194	1.9009271
50	0x403dc041	2.9648592
51	0x3d93b11e	0.07211517
52	0x3f3f854d	0.74812776
53	0x3ff2a3b8	1.8956213
54	0xc0d930d6	-6.7872114
55	0xc0e2b27c	-7.0842876
56	0x3db18ba6	0.08669214
57	0x40aa0b83	5.3139052
58	0xbe8c2266	-0.27369994
59	0xbdeb0900	-0.11476326
60	0x3dab2a5e	0.0835769
61	0xbdb48e06	-0.08816151
62	0xc18262c8	-16.298233
63	0x3dd8a388	0.10578066
64	0x3bfd1157	0.0077230143
65	0x3e49e7eb	0.19717376
66	0xbf0c6088	-0.54834795
67	0xbeebae3d	-0.4603137
68	0x3ea0a83c	0.31378353
69	0xbcdc65fd	-0.0269041
70	0xbcd19cf0	-0.025587529
71	0x3ef234e0	0.47305965
72	0x3e1ac24f	0.15113185
73	0xbd8434b5	-0.064553656
74	0x3deac043	0.11462452
75	0x3c1fd06f	0.009754284
76	0xbdcfced2	-0.1014687
77	0xbdde6e3c	-0.10860869
78	0xbc065f32	-0.008201407
79	0xbdcae56b	-0.09907039
80	0xba65a7b5	-0.0008760647
81	0x3e85bb41	0.26119426
82	0x3c2324a0	0.009957463
83	0x3d41da45	0.0473273
84	0xbe746dcf	-0.23870014
85	0x3f6e3f31	0.9306517
86	0xbe5830da	-0.21112385
87	0xbe6f0da6	-0.2334505
88	0xbd82215a	-0.063540176
89	0xbd7558c7	-0.059899118
90	0xbd150c78	-0.036388844
91	0x3e59fe5f	0.21288441
92	0x3df413fa	0.11917873
93	0x3d325760	0.04354036
94	0x3db680c4	0.08911279
95	0xbd77dda0	-0.060514092
96	0x3d515a8f	0.051111754
97	0xbe18fbcd	-0.14939804
98	0x3f71d324	0.944628
99	0xbe861233	-0.2618576
100	0x3d3bcae1	0.045847777
101	0xbd834309	-0.0640927
102	0x3cfd5bbf	0.030927537
103	0xbd7c157d	-0.06154393
104	0xbd0852d6	-0.033282124
105	0x3de7e94e	0.11323796
106	0xbcb24ac0	-0.02176416
107	0xbded203a	-0.11578412
108	0xbef691e7	-0.4815819
109	0xbdb61a6a	-0.08891757
110	0xbcba96c0	-0.022776961
111	0xbc817398	-0.01580219
112	0xbe379829	-0.17929138
113	0x3e24fabf	0.16111277
114	0x3e8d9a78	0.27656913
115	0x3da1cbee	0.079002246
116	0xbd16ca84	-0.036814228
117	0x3eb559fe	0.3542022
118	0xbf55f088	-0.83570147
119	0xbdc01db4	-0.093806654
120	0xbd3faef9	-0.046797726
121	0x3e6a3ae4	0.22874027
122	0xbd39b722	-0.045340665
123	0x3dc7d55e	0.097574934
124	0x3df62396	0.12018506
125	0xbd797118	-0.06089887
126	0x3ea1e90e	0.3162312
127	0x3dcd63aa	0.10028775
128	0x3db1182c	0.086471885
129	0xbde6d68c	-0.1127139
130	0xbdc51d2a	-0.09624703
131	0x3e08ef82	0.13372615
132	0xbec026a8	-0.37529492
133	0xbd65f188	-0.056138545
134	0x3d0835b0	0.033254325
135	0x3d8f534b	0.06998309
136	0xbdced7ec	-0.100997776
137	0x3db7ec97	0.08980673
138	0x3cdaaf7f	0.026695011
139	0x3d7ea703	0.062170994
140	0xbbe7e3e0	-0.0070767254
141	0x3df71335	0.1206421
142	0xbe42d21d	-0.19025464
143	0xbe237db6	-0.15965924
144	0xbe8f2fc4	-0.2796613
145	0xbe3bc121	-0.18335392
146	0xbdd4b882	-0.103867546
147	0xbdadf684	-0.08494285
148	0x3f2473d5	0.64239246
149	0x3f4af6fc	0.7928312
150	0x3d8200ed	0.06347833
151	0x3cb90c14	0.022588767
152	0x3dc16524	0.09443119
153	0xbec14851	-0.37750486
154	0xbd8cdbbc	-0.068778485
155	0x3d87aacf	0.06624376
156	0xbd84a7a0	-0.064772844
157	0xbdacc402	-0.08435823
158	0xbd237fc0	-0.039916754
159	0x3cd6e558	0.026232406
160	0x3dfa64da	0.12226267
161	0xbcaa647d	-0.02079987
162	0x3d4b7ce8	0.049679667
163	0x3ea34080	0.31885147
164	0xbda745e3	-0.08167627
165	0xbdc5bd57	-0.09655254
166	0x3ef89b91	0.48556188
167	0xbc1d9aaf	-0.009619399
168	0x3c72ae0a	0.014812002
169	0x3db427dc	0.08796665
170	0x3d19245c	0.03738819
171	0x3d303570	0.043019712
172	0x3e05cc19	0.13066138
173	0xbc3b5651	-0.011434154
174	0xbcb63e13	-0.022246396
175	0x3ae12f00	0.0017180145
176	0x3c336b86	0.010950929
177	0x3df80e56	0.12112109
178	0xbd80af2c	-0.062834114
179	0xbd586e34	-0.052839473
180	0xbd236e1d	-0.039899934
181	0x3c241bd8	0.010016404
182	0x3ec8f2ab	0.3924764
183	0x3be2bd77	0.0069195586
184	0x3db8e3d8	0.09027833
185	0x3e4a4fc7	0.19756995
186	0xbdd9f52c	-0.10642466
187	0xbd89657c	-0.0670881
188	0xbce0fc08	-0.027463928
189	0xbcbcbf78	-0.023040518
190	0x3efd4b77	0.49471638
191	0xbdeb002e	-0.11474644
192	0x3d5a8f6e	0.05335944
193	0x3c39adc3	0.011332932
194	0x3de327cd	0.11091576
195	0xbb9d302a	-0.0047970014
196	0xbdb836a7	-0.08994799
197	0x3d86c5ed	0.0658072
198	0x3dc11e2e	0.094295844
199	0xbf1f8af7	-0.6232142
200	0xbd5c3f5e	-0.05377137
201	0xbc81be7d	-0.015837902
202	0x3d687211	0.056749407
203	0x3eaebd00	0.3412857
204	0x3db91782	0.09037687
205	0xbd19578f	-0.037437018
206	0xbe4543d0	-0.1926415
207	0x3ece717a	0.4032095
208	0x3e165f51	0.14684798
209	0x3ec4afe0	0.38415432
210	0x3d0c0c40	0.03419137
211	0x3cea0c0e	0.028570201
212	0x3e705229	0.23468842
213	0xbf7388b7	-0.95130485
214	0x3d128712	0.035773344
215	0xbea760fa	-0.32691175
216	0xbdf0c6a2	-0.11756636
217	0xbeb04735	-0.34429327
218	0xbdae5448	-0.08512169
219	0x3f19f283	0.6013567
220	0xbd9b6a14	-0.07588592
221	0xbc13de70	-0.009025201
222	0xbce344f0	-0.027742833
223	0x3cb63988	0.02224423
224	0x3e05cc6f	0.13066266
225	0xbe6e07ca	-0.23245159
226	0x3f4ae3a9	0.7925363
227	0x3e975843	0.29559526
228	0x3e4b3be3	0.19847064
229	0xbb97a865	-0.0046282285
230	0x3e0e97e1	0.13925125
231	0xbe17c68b	-0.14821832
232	0xbf0b5784	-0.54430413
233	0x3dcc6cea	0.09981711
234	0xbcdfb600	-0.027308464
235	0xbdada1f2	-0.08478154
236	0xbe8f423c	-0.2798022
237	0xbda15eea	-0.078794315
238	0x3c3e687e	0.011621593
239	0x3dfe551a	0.124185756
240	0xbb1b3ee3	-0.0023688606
241	0x3e1d74a0	0.1537652
242	0x3e2e6935	0.17032321
243	0xbddc36e4	-0.10752657
244	0xbce957b2	-0.0284842
245	0x3e550575	0.20802863
246	0xbe89790c	-0.26850164
247	0xbe2a6161	-0.1663871
248	0xbd51c5b1	-0.051213924
249	0x3e44d505	0.19221886
250	0xbd995a48	-0.07487923
251	0xbdfc5f9c	-0.123229235
252	0xbd9d22d0	-0.076726556
253	0x3d433ae4	0.047663584
254	0x3f8a4460	1.0802116
255	0xbd184d0c	-0.037182853

nn.2.bias f4 [13]
0	0xc12c11db	-10.754359
1	0x3f7aba59	0.97940594
2	0x3ef920c1	0.48657802
3	0xbf899752	-1.0749304
4	0xbd80ae75	-0.06283275
5	0x3daf9620	0.08573556
6	0xbdc7640a	-0.09735878
7	0x3de9aea6	0.11410265
8	0x3c1ebd70	0.00968872
9	0x3d7640ca	0.06012038
10	0x3dc6d421	0.09708429
11	0x3dda3e0a	0.10656364
12	0xbdc78f98	-0.09744185

exp_avg f4 [64, 4]
0	0xc03aeffc	-2.9208975
1	0xc1bce963	-23.613958
2	0xc11897f1	-9.537095
3	0xc1a5ad94	-20.709755
4	0x40b1a966	5.5519285
5	0x424003d0	48.003723
6	0x41a0ddf3	20.108374
7	0x422dc3b4	43.441116
8	0xc0e0c195	-7.0236306
9	0xc212503c	-36.578354
10	0xc19b1d35	-19.389261
11	0xc1f7d447	-30.978651
12	0xc150a0c0	-13.039246
13	0xc2d24ecf	-105.15392
14	0xc21f2656	-39.787437
15	0xc2bf7e1c	-95.74631
16	0x3fa126c2	1.2589953
17	0x40a87c5b	5.26518
18	0x3f86f92d	1.0544792
19	0x40df780f	6.9834056
20	0x3d4b4520	0.04962647
21	0xc012bb3b	-2.2926776
22	0xbece255d	-0.4026288
23	0xc00fc250	-2.246235
24	0x00000000	0.0
25	0x00000000	0.0
26	0x00000000	0.0
27	0x00000000	0.0
28	0xbf5d738f	-0.86504453
29	0xc0e78c46	-7.235873
30	0xc0989a6c	-4.7688503
31	0xc11ab293	-9.668597
32	0x409a4701	4.8211675
33	0x4210f70c	36.241257
34	0x41728529	15.15751
35	0x420537c2	33.30445
36	0xc04d0fd5	-3.2040913
37	0xc1d2828a	-26.31374
38	0xc129fb1e	-10.623808
39	0xc1b6d2a9	-22.852861
40	0xbf310e77	-0.69162697
41	0xc0a62da7	-5.193073
42	0xc016de2c	-2.3573103
43	0xc09a0e3a	-4.8142366
44	0xc009a1a3	-2.1504905
45	0xc182076f	-16.25363
46	0xc0ac7a0b	-5.389898
47	0xc16a7bcf	-14.655227
48	0x00000000	0.0
49	0x00000000	0.0
50	0x00000000	0.0
51	0x00000000	0.0
52	0xc0aee3dd	-5.4653153
53	0xc22981e3	-42.376842
54	0xc187d68a	-16.979755
55	0xc21071f5	-36.111286
56	0x405bb443	3.4328773
57	0x41f96b48	31.177383
58	0x414b2783	12.697146
59	0x41d2005d	26.250177
60	0x3eaa981e	0.3331918
61	0x4083e944	4.122225
62	0x40482dd8	3.127798
63	0x404d81c5	3.2110455
64	0x3e51ccb8	0.2048825
65	0x4006831a	2.1017518
66	0x3f0d675a	0.55235827
67	0x3fb7f6d0	1.4372196
68	0x40aed3b4	5.4633427
69	0x4235f026	45.48452
70	0x41941391	18.509554
71	0x421d4286	39.314964
72	0x00000000	0.0
73	0x00000000	0.0
74	0x00000000	0.0
75	0x00000000	0.0
76	0xbe90cba0	-0.28280354
77	0xc0125425	-2.2863858
78	0xbfaff8ea	-1.3747838
79	0xc0083077	-2.127958
80	0xc1444f86	-12.269415
81	0xc2c4d8bc	-98.42331
82	0xc21533cd	-37.300587
83	0xc2ac268a	-86.07527
84	0xbf6fe472	-0.93707955
85	0xbf66da9c	-0.9017732
86	0xc04a0092	-3.1562848
87	0xbf333704	-0.7000582
88	0xc07c49b7	-3.9419992
89	0xc200febb	-32.24876
90	0xc145f3c1	-12.37201
91	0xc1df4ef1	-27.913546
92	0xc0cc881d	-6.3916154
93	0xc256a5a6	-53.661766
94	0xc1b38757	-22.441084
95	0xc23b2c1a	-46.793068
96	0x00000000	0.0
97	0x00000000	0.0
98	0x00000000	0.0
99	0x00000000	0.0
100	0x3f6f3df5	0.93453914
101	0x40d9ccf3	6.806268
102	0x3f84b396	1.0367305
103	0x40ba42d4	5.8206577
104	0x00000000	0.0
105	0x00000000	0.0
106	0x00000000	0.0
107	0x00000000	0.0
108	0xbdc9b943	-0.09849789
109	0x3df1fc37	0.11815684
110	0x3fc42c47	1.5326012
111	0xbf2a0e95	-0.664285
112	0x00000000	0.0
113	0x00000000	0.0
114	0x00000000	0.0
115	0x00000000	0.0
116	0x00000000	0.0
117	0x00000000	0.0
118	0x00000000	0.0
119	0x00000000	0.0
120	0x00000000	0.0
121	0x00000000	0.0
122	0x00000000	0.0
123	0x00000000	0.0
124	0x00000000	0.0
125	0x00000000	0.0
126	0x00000000	0.0
127	0x00000000	0.0
128	0xbf8ac9db	-1.0842851
129	0xc1036d02	-8.214113
130	0xc02eac0b	-2.7292507
131	0xc0ec419f	-7.3830104
132	0xbf6a7845	-0.91589767
133	0xc0cd05f2	-6.4069757
134	0xc06aa2f3	-3.6661956
135	0xc08ed549	-4.463536
136	0xc074158d	-3.8138154
137	0xc1cddbae	-25.732265
138	0xc13b5ceb	-11.710185
139	0xc1b26b15	-22.302286
140	0xc164d864	-14.30283
141	0xc2e640ba	-115.12642
142	0xc2344683	-45.06886
143	0xc2ca2639	-101.07465
144	0xbfb763fb	-1.4327387
145	0xc134035e	-11.250822
146	0xc093c29d	-4.6175065
147	0xc121b48c	-10.106579
148	0x00000004	6e-45
149	0x00000004	6e-45
150	0x00000004	6e-45
151	0x00000004	6e-45
152	0xc0e05c35	-7.0112557
153	0xc25fd351	-55.956364
154	0xc1ac3af7	-21.528791
155	0xc2447354	-49.112625
156	0xc04f5e0e	-3.2401156
157	0xc1d4a4e0	-26.580505
158	0xc1348835	-11.283254
159	0xc1ba66b1	-23.300142
160	0xc01cf5d2	-2.4525037
161	0xc1a68c78	-20.818588
162	0xc11fad93	-9.9798765
163	0xc191575d	-18.167658
164	0xbffce49c	-1.9757266
165	0xc17d8ef7	-15.847404
166	0xc0d90e51	-6.7829976
167	0xc15f69db	-13.963344
168	0x00000000	0.0
169	0x00000000	0.0
170	0x00000000	0.0
171	0x00000000	0.0
172	0x00000000	0.0
173	0x00000000	0.0
174	0x00000000	0.0
175	0x00000000	0.0
176	0xc073d588	-3.809908
177	0xc2036c5f	-32.85583
178	0xc13545e2	-11.329561
179	0xc1e6a4a4	-28.83039
180	0xc02fe607	-2.7484148
181	0xc1b4a44b	-22.580221
182	0xc1157475	-9.340932
183	0xc19d9dc0	-19.702026
184	0xc06832f3	-3.6281097
185	0xc1ebfa42	-29.497196
186	0xc144f79d	-12.310452
187	0xc1cfaaa1	-25.958315
188	0x00000000	0.0
189	0x00000000	0.0
190	0x00000000	0.0
191	0x00000000	0.0
192	0xc0886639	-4.2624784
193	0xc20b5570	-34.833435
194	0xc15cf21c	-13.809109
195	0xc1f2bd27	-30.34236
196	0xc00365de	-2.0530925
197	0xc18169d4	-16.176674
198	0xc0d62084	-6.691469
199	0xc166d853	-14.427814
200	0x3f49e5fb	0.7886655
201	0x41a55a15	20.668985
202	0x40da7a4a	6.827428
203	0x418f6d5a	17.928394
204	0x00000000	0.0
205	0x00000000	0.0
206	0x00000000	0.0
207	0x00000000	0.0
208	0xc0080f59	-2.1259367
209	0xc18a755e	-17.307308
210	0xc0e8b28b	-7.271795
211	0xc1738632	-15.220263
212	0x4113cf3c	9.238094
213	0x4294baec	74.36508
214	0x41ee462a	29.78426
215	0x428360ee	65.689316
216	0xc0dd3a90	-6.9133987
217	0xc2104cae	-36.074883
218	0xc17c0536	-15.751272
219	0xc1ee636f	-29.798552
220	0xc01c1a99	-2.4391234
221	0xc1a978a3	-21.183905
222	0xc0ffc92b	-7.9933066
223	0xc18f7ba3	-17.93537
224	0xbfc271cf	-1.5190982
225	0xc145b824	-12.357456
226	0xc09a28f2	-4.817498
227	0xc12b2285	-10.695928
228	0x40586cf3	3.3816497
229	0x41e380b5	28.437845
230	0x413ef83d	11.935605
231	0x41c8eb32	25.114841
232	0xbdf94214	-0.121708065
233	0xbf9ad6bb	-1.209678
234	0xbf49f582	-0.7889024
235	0xbf8625a4	-1.0480237
236	0x00000000	0.0
237	0x00000000	0.0
238	0x00000000	0.0
239	0x00000000	0.0
240	0x00000000	0.0
241	0x00000000	0.0
242	0x00000000	0.0
243	0x00000000	0.0
244	0x00000000	0.0
245	0x00000000	0.0
246	0x00000000	0.0
247	0x00000000	0.0
248	0xbfdd6383	-1.7295994
249	0xc18558e0	-16.668396
250	0xc0c26c14	-6.075693
251	0xc13c649e	-11.774565
252	0x00000000	0.0
253	0x00000000	0.0
254	0x00000000	0.0
255	0x00000000	0.0

exp_avg_sq f4 [64, 4]
0	0x43992392	306.2779
1	0x4676046b	15745.1045
2	0x452d0adc	2768.6787
3	0x46743a76	15630.615
4	0x448f0596	1144.1746
5	0x476130cb	57648.793
6	0x4615d95c	9590.34
7	0x47641e09	58398.035
8	0x44f5bf09	1965.9698
9	0x4711a8fb	37288.98
10	0x462d913a	11108.307
11	0x4717cd54	38861.33
12	0x4595b0be	4790.093
13	0x484ce226	209800.6
14	0x47222c29	41516.16
15	0x4843da60	200553.5
16	0x4352158a	210.08414
17	0x45895792	4394.9463
18	0x4306dd7f	134.86522
19	0x45df7855	7151.0415
20	0x41632257	14.195884
21	0x443e0b12	760.173
22	0x42bb9512	93.79115
23	0x4458f243	867.78534
24	0x00000000	0.0
25	0x00000000	0.0
26	0x00000000	0.0
27	0x00000000	0.0
28	0x43973d0c	302.47693
29	0x4632721f	11420.53
30	0x4551239f	3346.2263
31	0x46582b91	13834.892
32	0x4441ca23	775.1584
33	0x47016fac	33135.67
34	0x45962e74	4805.8066
35	0x470a5539	35413.223
36	0x43bb662a	374.79816
37	0x4699553b	19626.615
38	0x45576dbb	3446.8582
39	0x4697e5fe	19442.996
40	0x4171b7a5	15.107335
41	0x44412006	772.50037
42	0x4304ccc8	132.79993
43	0x443ea940	762.64453
44	0x436af612	234.96121
45	0x46257807	10590.007
46	0x44fc06ac	2016.2085
47	0x46280454	10753.082
48	0x00000000	0.0
49	0x00000000	0.0
50	0x00000000	0.0
51	0x00000000	0.0
52	0x440bb360	558.80273
53	0x46fce776	32371.73
54	0x459b6b5c	4973.42
55	0x46f3baa3	31197.318
56	0x435e164b	222.08708
57	0x46990da7	19590.826
58	0x459f9cae	5107.585
59	0x4680268d	16403.275
60	0x41890942	17.12952
61	0x44508112	834.0167
62	0x434c1133	204.06718
63	0x44453563	788.83417
64	0x406c6d3b	3.694167
65	0x4396eb22	301.83698
66	0x428a329e	69.09886
67	0x43962d5a	300.3543
68	0x445ac43e	875.0663
69	0x473e91d2	48785.82
70	0x4603c93c	8434.309
71	0x473acc79	47820.473
72	0x00000000	0.0
73	0x00000000	0.0
74	0x00000000	0.0
75	0x00000000	0.0
76	0x4089644c	4.2934933
77	0x437041f2	240.2576
78	0x4226bab0	41.682312
79	0x4369be7b	233.74406
80	0x45ad61e4	5548.2363
81	0x488a64bb	283429.84
82	0x47465d23	50781.137
83	0x488a052b	282665.34
84	0x40f017b3	7.502893
85	0x4472951f	970.33
86	0x4469ec42	935.6915
87	0x44c0e03b	1543.0072
88	0x441e0e67	632.22504
89	0x46fc0d46	32262.637
90	0x45b479df	5775.234
91	0x46fb1457	32138.17
92	0x449c5592	1250.6741
93	0x47857edb	68349.71
94	0x46372630	11721.547
95	0x4782c886	66961.05
96	0x00000000	0.0
97	0x00000000	0.0
98	0x00000000	0.0
99	0x00000000	0.0
100	0x42f23a10	121.1134
101	0x45b2a719	5716.887
102	0x448f86ec	1148.2163
103	0x45b870fa	5902.122
104	0x00000000	0.0
105	0x00000000	0.0
106	0x00000000	0.0
107	0x00000000	0.0
108	0x42267418	41.613373
109	0x44abc261	1374.0743
110	0x439ed070	317.62842
111	0x44b2efe5	1431.4967
112	0x00000000	0.0
113	0x00000000	0.0
114	0x00000000	0.0
115	0x00000000	0.0
116	0x00000000	0.0
117	0x00000000	0.0
118	0x00000000	0.0
119	0x00000000	0.0
120	0x00000000	0.0
121	0x00000000	0.0
122	0x00000000	0.0
123	0x00000000	0.0
124	0x00000000	0.0
125	0x00000000	0.0
126	0x00000000	0.0
127	0x00000000	0.0
128	0x425d5a96	55.338463
129	0x452361e9	2614.1194
130	0x43f46594	488.79358
131	0x45254398	2644.2246
132	0x40c477b6	6.139613
133	0x43c8c6c1	401.55276
134	0x42f30eb7	121.52874
135	0x438ea106	285.258
136	0x43e78b51	463.0884
137	0x467e8e54	16291.582
138	0x455bc554	3516.333
139	0x468199b5	16588.854
140	0x45e40977	7297.183
141	0x48b5274f	371002.47
142	0x4780e08a	65985.08
143	0x48b43f2b	369145.34
144	0x42bde267	94.94219
145	0x45889dcf	4371.726
146	0x44459146	790.2699
147	0x4589418f	4392.195
148	0x23912f91	1.5741077e-17
149	0x25d6c0f6	3.7253838e-16
150	0x280d9b50	7.86075e-15
151	0x24126a61	3.174881e-17
152	0x44db5df6	1754.9363
153	0x47b04977	90258.93
154	0x467add4b	16055.323
155	0x47afa208	89924.06
156	0x43972a32	302.32965
157	0x46813970	16540.719
158	0x4530cb79	2828.717
159	0x467cbd67	16175.351
160	0x42d68aa9	107.27082
161	0x45e5c2b8	7352.34
162	0x4493b8ed	1181.7789
163	0x45d6326c	6854.3027
164	0x4312cd5e	146.80222
165	0x45e841a5	7432.2056
166	0x44a1f9ad	1295.8024
167	0x45e70a08	7393.254
168	0x00000000	0.0
169	0x00000000	0.0
170	0x00000000	0.0
171	0x00000000	0.0
172	0x00000000	0.0
173	0x00000000	0.0
174	0x00000000	0.0
175	0x00000000	0.0
176	0x43e543cb	458.52963
177	0x46bfb03b	24536.115
178	0x4590590f	4619.1323
179	0x46b92f88	23703.766
180	0x437319da	243.10098
181	0x464a84e7	12961.226
182	0x450c87a8	2248.4785
183	0x464739a7	12750.413
184	0x43d8de8a	433.7386
185	0x46b03008	22552.016
186	0x45753113	3923.0671
187	0x46adf4f9	22266.486
188	0x00000000	0.0
189	0x00000000	0.0
190	0x00000000	0.0
191	0x00000000	0.0
192	0x4422d323	651.299
193	0x4703415d	33601.363
194	0x45b9d7c4	5946.9707
195	0x47022808	33320.03
196	0x4326c571	166.77126
197	0x4601a528	8297.289
198	0x44b62631	1457.1935
199	0x46016367	8280.851
200	0x439d34a9	314.4114
201	0x46edaf36	30423.605
202	0x45c3e0cc	6268.0996
203	0x46f7ea27	31733.076
204	0x00000000	0.0
205	0x00000000	0.0
206	0x00000000	0.0
207	0x00000000	0.0
208	0x4310b3bc	144.70209
209	0x45ee3f2a	7623.8955
210	0x44a50189	1320.048
211	0x45ea5c5e	7499.546
212	0x4525d8e4	2653.5557
213	0x4808eb56	140205.34
214	0x46bf1520	24458.562
215	0x480724a7	138386.61
216	0x44ea679f	1875.2382
217	0x473f6819	49000.098
218	0x462e69a2	11162.408
219	0x472b255a	43813.35
220	0x43691ff1	233.12477
221	0x464a2e97	12939.647
222	0x4507d25c	2173.1475
223	0x464595f4	12645.488
224	0x42a04324	80.131134
225	0x4586af8b	4309.943
226	0x443d5a30	757.4092
227	0x45851967	4259.1753
228	0x43b23070	356.37842
229	0x4697897b	19396.74
230	0x45505066	3333.025
231	0x469422f9	18961.486
232	0x3fc34ee3	1.5258449
233	0x42c907a5	100.51493
234	0x41938641	18.440554
235	0x42bda4d9	94.82197
236	0x00000000	0.0
237	0x00000000	0.0
238	0x00000000	0.0
239	0x00000000	0.0
240	0x00000000	0.0
241	0x00000000	0.0
242	0x00000000	0.0
243	0x00000000	0.0
244	0x00000000	0.0
245	0x00000000	0.0
246	0x00000000	0.0
247	0x00000000	0.0
248	0x43e1c2ed	451.52286
249	0x467ff890	16382.141
250	0x456f2ca4	3826.79
251	0x46618819	14434.024
252	0x00000000	0.0
253	0x00000000	0.0
254	0x00000000	0.0
255	0x00000000	0.0

exp_avg f4 [64]
0	0xbdf6cbb1	-0.1205057
1	0x3e6ce3e2	0.23133805
2	0xbe3493ec	-0.17634553
3	0xbf0c1acc	-0.5472839
4	0x3d5d7702	0.054068573
5	0xbca97792	-0.020686898
6	0x00000000	0.0
7	0xbe0ce4b9	-0.13759126
8	0x3e3c825b	0.18409102
9	0xbe106ac2	-0.14103225
10	0xbcbbdbc3	-0.022931939
11	0xbd3dc9a6	-0.046334885
12	0x00000000	0.0
13	0xbe780db0	-0.24223971
14	0x3e0e35e6	0.13887748
15	0x3da3a4e5	0.079904355
16	0x3d1f68e6	0.0389184
17	0x3e813226	0.25233573
18	0x00000000	0.0
19	0xbc22e5b6	-0.009942463
20	0xbef43cea	-0.47702724
21	0xbd905df6	-0.070491716
22	0xbe21fe50	-0.15819669
23	0xbe93de68	-0.2888062
24	0x00000000	0.0
25	0x3d16e57c	0.036839947
26	0x00000000	0.0
27	0x3d219cef	0.039456304
28	0x00000000	0.0
29	0x00000000	0.0
30	0x00000000	0.0
31	0x00000000	0.0
32	0xbcf753b7	-0.030191286
33	0xbd77d32a	-0.060504116
34	0xbe0c36e8	-0.1369282
35	0xbf0c3b94	-0.5477841
36	0xbd3516b4	-0.044211105
37	0x00000004	6e-45
38	0xbe903375	-0.2816426
39	0xbe0b527c	-0.13605684
40	0xbe036ec7	-0.12835227
41	0xbdb18298	-0.08667487
42	0x00000000	0.0
43	0x00000000	0.0
44	0xbe1ca12f	-0.15295862
45	0xbde89a18	-0.11357516
46	0xbe15d6bd	-0.14632697
47	0x00000000	0.0
48	0xbe2c7f49	-0.1684543
49	0xbdaea36f	-0.08527266
50	0x3dc526d9	0.0962655
51	0x00000000	0.0
52	0xbdaa2205	-0.0830727
53	0x3ebe78a3	0.37201414
54	0xbe3af646	-0.18258008
55	0xbdf79d19	-0.12090511
56	0xbd82d1d4	-0.06387678
57	0x3e19da1d	0.1502461
58	0xbb4bfc11	-0.0031125585
59	0x00000000	0.0
60	0x00000000	0.0
61	0x00000000	0.0
62	0xbe0e7cb4	-0.13914758
63	0x00000000	0.0

exp_avg_sq f4 [64]
0	0x3f2768e2	0.65394413
1	0x401444ac	2.3166914
2	0x3fea5642	1.8307574
3	0x410a1149	8.62922
4	0x3e746633	0.23867111
5	0x3cfdff55	0.03100554
6	0x00000000	0.0
7	0x3f1c47e0	0.6104717
8	0x3fa646d1	1.2990361
9	0x3f506066	0.8139709
10	0x3d03b58b	0.032155555
11	0x3ee85623	0.45378217
12	0x00000000	0.0
13	0x3fa263c5	1.2686697
14	0x3f4f5dac	0.81002307
15	0x3d3c8acf	0.046030816
16	0x3c765a14	0.015036125
17	0x4000a3bc	2.0099936
18	0x00000000	0.0
19	0x3c219bba	0.009863788
20	0x413cdb31	11.803514
21	0x3e0fbab3	0.14036064
22	0x3fac131c	1.3443332
23	0x4033f426	2.8117766
24	0x00000000	0.0
25	0x3e76fe58	0.24120462
26	0x00000000	0.0
27	0x3d8499b7	0.06474631
28	0x00000000	0.0
29	0x00000000	0.0
30	0x00000000	0.0
31	0x00000000	0.0
32	0x3de276d3	0.1105782
33	0x3c9da47a	0.019243468
34	0x3f37e513	0.71833915
35	0x41773d1c	15.452419
36	0x3e3d4ca6	0.1848627
37	0x2193c419	1.0013014e-18
38	0x40702238	3.7520885
39	0x3f2e55b3	0.68099517
40	0x3e972397	0.2951934
41	0x3e9dd480	0.30826187
42	0x00000000	0.0
43	0x00000000	0.0
44	0x3f804912	1.0022299
45	0x3f092f31	0.53587633
46	0x3f6f50ab	0.93482465
47	0x00000000	0.0
48	0x3fb2cef7	1.3969411
49	0x3eb0dbb2	0.34542614
50	0x3fb23fc5	1.3925711
51	0x00000000	0.0
52	0x3ea18f9e	0.31554884
53	0x40b98925	5.7979913
54	0x400109ef	2.0162313
55	0x3f07330a	0.52812254
56	0x3e368374	0.17823583
57	0x3f4ce94d	0.8004349
58	0x3b838517	0.0040136683
59	0x00000000	0.0
60	0x00000000	0.0
61	0x00000000	0.0
62	0x3f26f654	0.65219617
63	0x00000000	0.0

exp_avg f4 [13, 64]
0	0xbde0c393	-0.10974803
1	0x3b055831	0.0020346756
2	0x3d22aeaa	0.039717354
3	0x3ab27764	0.0013615903
4	0x3b55c5b9	0.0032619073
5	0x3d0643d7	0.03277954
6	0x00000000	0.0
7	0x3ce9a76f	0.028522221
8	0x3c602bc1	0.013682307
9	0xbbeb482f	-0.007180236
10	0xbd600836	-0.05469533
11	0xbc7c92f9	-0.0154159
12	0x00000000	0.0
13	0x3ce3ff5b	0.027831724
14	0x3da20f9c	0.079131335
15	0xbcc82b01	-0.024434568
16	0xbdbbc8cc	-0.09169158
17	0xbb1e5727	-0.0024160834
18	0x00000000	0.0
19	0xbd05d4f6	-0.0326738
20	0x3bb9cf56	0.0056704683
21	0x3d95fe74	0.07323924
22	0x3b6c645e	0.0036070566
23	0xbced80b8	-0.028992042
24	0x00000000	0.0
25	0xbd087bcc	-0.033321187
26	0x00000000	0.0
27	0xbc8c5a6d	-0.017132962
28	0x00000000	0.0
29	0x00000000	0.0
30	0x00000000	0.0
31	0x00000000	0.0
32	0xbc3e3b43	-0.011610809
33	0x3de866eb	0.11347755
34	0xb9fde2fe	-0.00048425043
35	0xbbf348b3	-0.007424438
36	0xbd8a742c	-0.06760439
37	0x80000004	-6e-45
38	0xbc9eb184	-0.019371755
39	0xbca7c5f6	-0.020480137
40	0xbca21113	-0.019783532
41	0xbd7aa1d6	-0.061189495
42	0x00000000	0.0
43	0x00000000	0.0
44	0x3cf4f834	0.029903509
45	0xbcaafc80	-0.020872355
46	0xbd50f248	-0.051012307
47	0x00000000	0.0
48	0xbd0f26b4	-0.03494902
49	0xbc518e7a	-0.012790317
50	0x3cbcd0d4	0.023048796
51	0x00000000	0.0
52	0xbd273ac5	-0.04082753
53	0xbcc82849	-0.024433272
54	0x3d039ed9	0.03213391
55	0x3cc4d033	0.024025058
56	0xbc8557aa	-0.016277153
57	0xbd36d7fc	-0.044639573
58	0xbb274b24	-0.0025526965
59	0x00000000	0.0
60	0x00000000	0.0
61	0x00000000	0.0
62	0x3daac86c	0.08339009
63	0x00000000	0.0
64	0x42a6d6fe	83.41991
65	0x418eb1dc	17.836845
66	0x3e76faa3	0.24119048
67	0x4125fc7f	10.374145
68	0x3efc4dfb	0.49278244
69	0x405b74d9	3.4290068
70	0x00000000	0.0
71	0xc01d792e	-2.4605212
72	0x40dcf467	6.9048343
73	0x41d7e026	26.984447
74	0x4227a25b	41.90855
75	0x41933f77	18.405989
76	0x00000000	0.0
77	0x411d6198	9.836327
78	0x4094db2e	4.6517553
79	0x41707857	15.02938
80	0x42d40a5a	106.02022
81	0x41beca30	23.848724
82	0x00000000	0.0
83	0x41dc7adc	27.55999
84	0x423f0f7b	47.765118
85	0xbe26396c	-0.16232842
86	0x415d182c	13.818401
87	0x42257237	41.361538
88	0x00000000	0.0
89	0x42514096	52.313072
90	0x00000000	0.0
91	0x40dfac25	6.9897637
92	0x00000000	0.0
93	0x00000000	0.0
94	0x00000000	0.0
95	0x00000000	0.0
96	0x4192b409	18.337908
97	0x4142baa1	12.170564
98	0x40879c24	4.23781
99	0x4229610f	42.344784
100	0x4266a26c	57.658615
101	0x00000004	6e-45
102	0x42bcd3c6	94.41362
103	0x42274835	41.820515
104	0x422f1b7e	43.776848
105	0x4208ca5a	34.19761
106	0x00000000	0.0
107	0x00000000	0.0
108	0x421e2592	39.53669
109	0x421423fb	37.035137
110	0x42866414	67.195465
111	0x00000000	0.0
112	0x421acb2c	38.69841
113	0x4188a40a	17.080097
114	0x3f1e1b67	0.6176056
115	0x00000000	0.0
116	0x4247d5f5	49.958942
117	0x416223fb	14.133784
118	0x40a44644	5.1335773
119	0x419f8955	19.942057
120	0x42268809	41.632847
121	0x41cfcb1c	25.974174
122	0x417d2ee5	15.823949
123	0x00000000	0.0
124	0x00000000	0.0
125	0x00000000	0.0
126	0x416bda72	14.740831
127	0x00000000	0.0
128	0xc2ace591	-86.44837
129	0xc18e1109	-17.758318
130	0xbf32b429	-0.6980615
131	0xc12cd826	-10.802771
132	0xbed5186d	-0.41620198
133	0xc0526f56	-3.2880454
134	0x00000000	0.0
135	0x400bba77	2.183256
136	0xc0d41755	-6.627848
137	0xc1e06394	-28.048622
138	0xc231aa40	-44.41626
139	0xc19f3b93	-19.904089
140	0x00000000	0.0
141	0xc1242457	-10.258872
142	0xc0af2fb6	-5.474574
143	0xc17e6b02	-15.901125
144	0xc2dddbd7	-110.929375
145	0xc1cf4a63	-25.911322
146	0x00000000	0.0
147	0xc1e54d05	-28.662607
148	0xc24d38eb	-51.305584
149	0xbe29f1b6	-0.16596112
150	0xc16746ba	-14.454767
151	0xc22a4067	-42.562893
152	0x00000000	0.0
153	0xc2598337	-54.37814
154	0x00000000	0.0
155	0xc0ff8e87	-7.9861484
156	0x00000000	0.0
157	0x00000000	0.0
158	0x00000000	0.0
159	0x00000000	0.0
160	0xc19f3bf3	-19.904272
161	0xc14cab96	-12.791891
162	0xc0944edd	-4.634627
163	0xc236018b	-45.501507
164	0xc27098f0	-60.149353
165	0x80000004	-6e-45
166	0xc2c9393e	-100.6118
167	0xc22f334d	-43.8001
168	0xc237ca8b	-45.947796
169	0xc20e1449	-35.51981
170	0x00000000	0.0
171	0x00000000	0.0
172	0xc226df2b	-41.717937
173	0xc21a4cb7	-38.574917
174	0xc28c4ff3	-70.15615
175	0x00000000	0.0
176	0xc21f8c5e	-39.887077
177	0xc191cdf9	-18.225573
178	0xbf96c9e0	-1.1780357
179	0x00000000	0.0
180	0xc2511e19	-52.279392
181	0xc170672b	-15.0251875
182	0xc0a4b017	-5.1464953
183	0xc1a3e309	-20.485857
184	0xc22ef227	-43.736477
185	0xc1dc28a8	-27.519852
186	0xc180ea70	-16.114471
187	0x00000000	0.0
188	0x00000000	0.0
189	0x00000000	0.0
190	0xc17481ce	-15.281691
191	0x00000000	0.0
192	0xc24cf2b1	-51.237003
193	0xc12f7601	-10.96631
194	0xbd7941da	-0.060853817
195	0xc0cdc760	-6.430588
196	0xbed64dee	-0.4185633
197	0xc001085c	-2.0161352
198	0x00000000	0.0
199	0x400c5dd7	2.1932275
200	0xc08463e2	-4.1371927
201	0xc18226b0	-16.26889
202	0xc1d1ab00	-26.208496
203	0xc139b8c5	-11.60761
204	0x00000000	0.0
205	0xc0b462ad	-5.6370454
206	0xc01eeab6	-2.4830756
207	0xc1180bc8	-9.502876
208	0xc28257cd	-65.171486
209	0xc16fdfa9	-14.992105
210	0x00000000	0.0
211	0xc187ae22	-16.960026
212	0xc1ebb3fe	-29.462887
213	0x3da5f2dd	0.08102963
214	0xc104c335	-8.297658
215	0xc1c838f2	-25.027805
216	0x00000000	0.0
217	0xc1fe95ac	-31.823082
218	0x00000000	0.0
219	0xc099d4f3	-4.807245
220	0x00000000	0.0
221	0x00000000	0.0
222	0x00000000	0.0
223	0x00000000	0.0
224	0xc1389c93	-11.538226
225	0xc0eb8fdd	-7.3613114
226	0xc015fbaf	-2.3434865
227	0xc1d1ec28	-26.24031
228	0xc20e3ab5	-35.55733
229	0x80000004	-6e-45
230	0xc268c004	-58.187515
231	0xc1cbcdd7	-25.475508
232	0xc1d54bea	-26.662067
233	0xc1a9bd51	-21.21744
234	0x00000000	0.0
235	0x00000000	0.0
236	0xc1c1de34	-24.233498
237	0xc1b3f3a1	-22.49396
238	0xc2244b3f	-41.073483
239	0x00000000	0.0
240	0xc1bb9c97	-23.45146
241	0xc12a01e9	-10.625466
242	0xbeade2ec	-0.3396219
243	0x00000000	0.0
244	0xc1f53ead	-30.655603
245	0xc11052c6	-9.020208
246	0xc04c2c15	-3.1901906
247	0xc13d6a1c	-11.838406
248	0xc1cb908a	-25.445576
249	0xc183285d	-16.394709
250	0xc115eac4	-9.369816
251	0x00000000	0.0
252	0x00000000	0.0
253	0x00000000	0.0
254	0xc10b6f21	-8.714631
255	0x00000000	0.0

exp_avg_sq f4 [13, 64]
0	0x3e876fb3	0.26452407
1	0x3c667de5	0.0140681015
2	0x3d2c526e	0.0420708
3	0x3cc486ec	0.023990117
4	0x381524b8	3.5558565e-05
5	0x3b7664b5	0.0037596647
6	0x00000000	0.0
7	0x3d8d47b8	0.06898445
8	0x3b554b1e	0.0032545994
9	0x3ceb655e	0.02873486
10	0x3e3b279c	0.18276829
11	0x3ddccf2a	0.10781701
12	0x00000000	0.0
13	0x3b3b6e47	0.0028599666
14	0x3ddc77aa	0.107650116
15	0x3d978045	0.07397512
16	0x3f496f56	0.7868551
17	0x3e248e64	0.16069943
18	0x00000000	0.0
19	0x3d34e1d6	0.044160686
20	0x3ef86207	0.4851229
21	0x3d241b89	0.040065322
22	0x3c60e306	0.013726002
23	0x3d1c68eb	0.038185995
24	0x00000000	0.0
25	0x3de3e0f4	0.11126891
26	0x00000000	0.0
27	0x3dc66548	0.096872866
28	0x00000000	0.0
29	0x00000000	0.0
30	0x00000000	0.0
31	0x00000000	0.0
32	0x3dcd1236	0.10013239
33	0x3d826371	0.06366623
34	0x3dc96486	0.098336264
35	0x3ebf30fb	0.37342057
36	0x3e47b8b4	0.19504052
37	0x25ca011f	3.5042174e-16
38	0x3fa1091c	1.2580905
39	0x3de53270	0.11191261
40	0x3dec20a9	0.11529667
41	0x3d6e8a38	0.058237284
42	0x00000000	0.0
43	0x00000000	0.0
44	0x3e75460b	0.239525
45	0x3d84e5b4	0.06489125
46	0x3e72e49c	0.2372002
47	0x00000000	0.0
48	0x3d2e6924	0.04258074
49	0x3d18a5c4	0.03726746
50	0x3d0654fc	0.03279589
51	0x00000000	0.0
52	0x3e1bccd7	0.15214859
53	0x3d122de0	0.03568828
54	0x3c34fa53	0.01104601
55	0x3c2bc4f0	0.010483965
56	0x3e0ad4de	0.13557765
57	0x3d8bcb93	0.06825938
58	0x3bd0ff3c	0.0063780826
59	0x00000000	0.0
60	0x00000000	0.0
61	0x00000000	0.0
62	0x3cfdf010	0.03099826
63	0x00000000	0.0
64	0x48606481	229778.02
65	0x46389c76	11815.115
66	0x430eb4d1	142.70631
67	0x4579d46e	3997.2769
68	0x41c61fed	24.765589
69	0x4499a474	1229.1392
70	0x00000000	0.0
71	0x440249e8	521.1548
72	0x4536dbfc	2925.749
73	0x4692d7a9	18795.83
74	0x4798fcfe	78329.984
75	0x46845a9b	16941.303
76	0x00000000	0.0
77	0x44eb1133	1880.5375
78	0x44bde774	1519.2329
79	0x4644a152	12584.33
80	0x48b3a685	367924.16
81	0x46dd868b	28355.271
82	0x00000000	0.0
83	0x46ecd961	30316.69
84	0x47a5f6ff	84973.99
85	0x40fbeaaf	7.872398
86	0x459af332	4958.3994
87	0x472a15ee	43541.93
88	0x00000000	0.0
89	0x47900414	73736.16
90	0x00000000	0.0
91	0x45fac3b8	8024.465
92	0x00000000	0.0
93	0x00000000	0.0
94	0x00000000	0.0
95	0x00000000	0.0
96	0x46809a00	16461.0
97	0x4500aaf4	2058.6846
98	0x45574d42	3444.8286
99	0x47879d35	69434.414
100	0x47ea9e09	120124.07
101	0x27036031	1.8232047e-15
102	0x489bd963	319179.1
103	0x47447ce2	50300.883
104	0x47502232	53282.195
105	0x473708cf	46856.81
106	0x00000000	0.0
107	0x00000000	0.0
108	0x4722ed3e	41709.242
109	0x47158b31	38283.19
110	0x48054dd0	136503.25
111	0x00000000	0.0
112	0x471a5ddb	39517.855
113	0x4647f1a9	12796.415
114	0x44c1438a	1546.1106
115	0x00000000	0.0
116	0x47a265c9	83147.57
117	0x4658f9f1	13886.485
118	0x442c9640	690.34766
119	0x462c7fb1	11039.923
120	0x47611360	57619.375
121	0x4705a4f7	34212.965
122	0x45ce9b73	6611.431
123	0x00000000	0.0
124	0x00000000	0.0
125	0x00000000	0.0
126	0x454cd5e5	3277.3684
127	0x00000000	0.0
128	0x486a8948	240165.12
129	0x4643fa28	12542.539
130	0x4306b33c	134.70013
131	0x457a60d7	4006.0525
132	0x41d35f12	26.421421
133	0x44a6ea70	1335.3262
134	0x00000000	0.0
135	0x43f59373	491.15195
136	0x4540e2cf	3086.1755
137	0x46998013	19648.037
138	0x479e0618	80908.19
139	0x4686e1b5	17264.854
140	0x00000000	0.0
141	0x45001b57	2049.7087
142	0x44c1e1eb	1551.0599
143	0x46499414	12901.02
144	0x48ba8cb2	382053.56
145	0x46e4c93a	29284.613
146	0x00000000	0.0
147	0x46f83038	31768.11
148	0x47aad75d	87470.73
149	0x40e1ee66	7.0603514
150	0x45a23ee9	5191.864
151	0x473200bd	45568.74
152	0x00000000	0.0
153	0x479610f2	76833.89
154	0x00000000	0.0
155	0x45fdd3c5	8122.471
156	0x00000000	0.0
157	0x00000000	0.0
158	0x00000000	0.0
159	0x00000000	0.0
160	0x4682f0c1	16760.377
161	0x45044b06	2116.689
162	0x45533598	3379.3496
163	0x478b121e	71204.234
164	0x47f4c1e9	125315.82
165	0x26d7aa81	1.4964837e-15
166	0x48a102c2	329750.06
167	0x474b64e0	52068.875
168	0x47568bef	54923.934
169	0x473ef2f7	48882.965
170	0x00000000	0.0
171	0x00000000	0.0
172	0x4726e2c1	42722.754
173	0x471b8223	39810.137
174	0x480a7c05	141808.08
175	0x00000000	0.0
176	0x47213797	41271.59
177	0x464ed457	13237.085
178	0x44c3ca01	1566.3126
179	0x00000000	0.0
180	0x47a9131e	86566.234
181	0x4662d0ff	14516.249
182	0x4429c731	679.11237
183	0x4637f88a	11774.135
184	0x476abdd8	60093.844
185	0x470accf7	35532.965
186	0x45d8fc2f	6943.523
187	0x00000000	0.0
188	0x00000000	0.0
189	0x00000000	0.0
190	0x45518c71	3352.7776
191	0x00000000	0.0
192	0x47d4d9fa	108979.95
193	0x45aec9e8	5593.2383
194	0x42a37473	81.72744
195	0x45000e3d	2048.89
196	0x41624a4b	14.143138
197	0x440ee22d	571.534
198	0x00000000	0.0
199	0x43883226	272.39178
200	0x44b5cab7	1454.3348
201	0x46089f77	8743.866
202	0x4713ed2c	37869.17
203	0x4601376d	8269.856
204	0x00000000	0.0
205	0x444a2056	808.50525
206	0x442a7425	681.81476
207	0x45bcc349	6040.4106
208	0x482a5363	174413.55
209	0x4650d14a	13364.322
210	0x00000000	0.0
211	0x465dc58e	14193.389
212	0x471d5ade	40282.867
213	0x4083c787	4.1181064
214	0x450d61c4	2262.1104
215	0x46a11ab9	20621.361
216	0x00000000	0.0
217	0x4707ad3b	34733.23
218	0x00000000	0.0
219	0x45738af9	3896.6858
220	0x00000000	0.0
221	0x00000000	0.0
222	0x00000000	0.0
223	0x00000000	0.0
224	0x45fc3eb0	8071.836
225	0x446c3423	944.81464
226	0x44dec948	1782.29
227	0x4702655e	33381.367
228	0x475d98bc	56728.734
229	0x28013d04	7.174169e-15
230	0x4813d4f4	151379.81
231	0x46bb2b2a	23957.582
232	0x46c8bded	25694.963
233	0x46afaab5	22485.354
234	0x00000000	0.0
235	0x00000000	0.0
236	0x469be337	19953.607
237	0x468d509b	18088.303
238	0x477d37bf	64823.746
239	0x00000000	0.0
240	0x4691861e	18627.059
241	0x45bf3758	6118.918
242	0x44339412	718.3136
243	0x00000000	0.0
244	0x4719706d	39280.426
245	0x45cc008e	6528.0693
246	0x43ba4572	372.54254
247	0x459c6aa5	5005.3306
248	0x46d204f1	26882.47
249	0x46805f32	16431.598
250	0x453ed1c0	3053.1094
251	0x00000000	0.0
252	0x00000000	0.0
253	0x00000000	0.0
254	0x44c2da32	1558.8186
255	0x00000000	0.0

exp_avg f4 [13]
0	0x3b6388e8	0.0034719054
1	0x3ee7f78d	0.45306054
2	0xbf14ffb9	-0.582027
3	0xbe8ffcee	-0.28122658
4	0x3f15d88d	0.58533555
5	0x14063edf	6.77767e-27
6	0x11a1b661	2.551372e-28
7	0x1155a5f8	1.685388e-28
8	0x12bff594	1.2114334e-27
9	0x1417f6e0	7.672239e-27
10	0x14303745	8.896629e-27
11	0x87c99ed3	-3.0336467e-34
12	0x858e3840	-1.3374279e-35

exp_avg_sq f4 [13]
0	0x38aefd4e	8.344148e-05
1	0x414bd2fe	12.739012
2	0x4153fb08	13.248787
3	0x40c0e611	6.0280843
4	0x4155314a	13.324533
5	0x0000851c	4.775e-41
6	0x000001f4	7e-43
7	0x0001f3d5	1.79306e-40
8	0x03c0cc0e	1.1331594e-36
9	0x0df978ba	1.5374874e-30
10	0x0df9781b	1.5374724e-30
11	0x000001f4	7e-43
12	0x0000017c	5.32e-43
