Op_problems/problem_pooling/checkpoints/kkt_hardnet_checkpoint_epoch_500_loss_95.096535.pth (torch, 20835 bytes, 12 tensors)

nn.0.weight f4 [64, 4]
000000 d2 31 cd 3e e7 f5 da 3e 3c 48 75 bd d8 7d e4 3e
       0.40077072 0.42765734 -0.05988334 0.4462726
000010 88 e1 fa bd 63 26 6b 3c ea d5 ad be 8a 8e a0 3e
       -0.12250048 0.014352414 -0.33952266 0.3135875
000020 42 00 88 3f f0 04 ce be df d7 e8 3e 99 ca a4 bc
       1.0625079 -0.40238142 0.45477197 -0.020116137
000030 74 21 56 3f d1 a9 21 3d 64 74 66 3e 3e b0 18 be
       0.83644795 0.03946859 0.22505337 -0.14910981
000040 70 2a 21 3f 63 6b 22 be 3e aa df be 15 5e ed 3d
       0.6295538 -0.15861277 -0.43684572 0.1159021
000050 ae 1c 6b 3d b5 8e d8 bc ee b7 ce bd 69 e1 55 3e
       0.057400398 -0.026435236 -0.100936756 0.20886768
000060 2a 14 ca be 8c 09 6c be 6c 93 10 be fe ec 99 be
       -0.3946851 -0.23050517 -0.14118737 -0.30063623
000070 36 de 54 be b2 a3 10 bf f2 d9 36 3f 1b e8 8e 3e
       -0.20787892 -0.5649978 0.7142631 0.27911457
000080 43 bc b2 3e 37 d4 e3 bc c0 7d a1 be ed 2e 4f 3e
       0.34909257 -0.027811153 -0.31541252 0.20232745
000090 f5 65 76 3d 8d 2c d2 3e 02 07 b5 3d 1b c5 2f be
       0.060155828 0.41049615 0.08839227 -0.17165034
0000a0 b1 f9 6e 3e ff ea 08 be f3 09 d0 3e 70 9c 0d 3f
       0.23337437 -0.13370894 0.4063259 0.5531683
0000b0 93 95 28 3e 72 75 68 be 59 20 05 3f ae a6 5d 3e
       0.16463308 -0.22701052 0.52002484 0.21645615
0000c0 7a 01 82 3e 86 08 9c be a4 6a fd be 0c d1 45 be
       0.25391752 -0.30475253 -0.49495423 -0.19318026
0000d0 66 54 a9 be 4a c9 61 3e f2 d3 6a bc a8 5f 96 bd
       -0.33072203 0.22049442 -0.014332758 -0.07342464
0000e0 a1 f4 2c bf 80 89 ab 3d c2 3d 0e 3f 9d d1 6b be
       -0.67560774 0.083758354 0.55562985 -0.2302918
0000f0 e8 3c 39 be 07 ba 48 be 67 85 02 3f ef 2f 9e 3e
       -0.1808964 -0.19602214 0.50984806 0.30895945
000100 6f 81 61 3e d9 42 be 3e 35 39 61 3f db bb b4 3e
       0.22022031 0.37160376 0.87977916 0.35299572
000110 27 0b 29 bf 76 a7 83 be 91 75 24 3f 9e 9b d1 3e
       -0.6603264 -0.257137 0.6424189 0.4093904
000120 10 56 f6 3e 4e 45 d3 be 98 eb fd be fe 48 c8 be
       0.48112535 -0.41263813 -0.49593806 -0.3911819
000130 2f b8 a2 be 99 80 25 3e 4c 95 15 3e 19 31 b3 3e
       -0.31781146 0.16162337 0.14607733 0.34998396
000140 6d 05 6c be f2 1b 47 3c df 5e 84 3f b2 ef e6 3d
       -0.23048945 0.012152659 1.0341452 0.11276187
000150 4f aa 36 bf 29 fb f4 be d5 f9 f7 3e 47 3b e7 3d
       -0.7135362 -0.4784787 0.48432794 0.11290603
000160 f6 70 56 be 92 32 4f 3e 35 ed 0f 3e a8 7c d2 bd
       -0.20941529 0.20234135 0.14055331 -0.102776825
000170 2d fd 29 3f 46 01 10 3f 40 cf 5d be 69 e1 42 be
       0.6640194 0.56251943 -0.21661091 -0.190313
000180 d2 68 ea 3e f4 c3 2c be 2c 83 35 be 48 b4 f7 be
       0.45783097 -0.16871625 -0.1772582 -0.4837973
000190 1a 55 9b 3e 49 ad 05 3f 73 72 2a 3e ca 2e 1a be
       0.30338365 0.5221754 0.16645221 -0.15056911
0001a0 40 28 40 3c 6e de ae be 86 30 d9 be 3a f8 8c be
       0.011728346 -0.34154075 -0.42419833 -0.27533132
0001b0 6e de 1d bf 15 ef d9 be 6d ce 2c 3f 9c da e9 3e
       -0.61667526 -0.42565218 0.6750248 0.45674598
0001c0 1c c7 1d 3e 66 c4 ee be 54 22 a8 be 14 6c 2a be
       0.15407985 -0.46634215 -0.3283869 -0.16642791
0001d0 c0 1f a0 3d 86 42 e1 be 64 9b 5c be 58 42 99 be
       0.07818556 -0.43996066 -0.21543652 -0.2993343
0001e0 00 9e b5 3a 50 84 3e be f0 ea 0d bd 24 79 ad be
       0.0013856292 -0.1860516 -0.034647882 -0.33881485
0001f0 98 b7 af be d2 59 95 be 9c 41 2f be 50 0e ca be
       -0.34319758 -0.2917009 -0.17114872 -0.39464045
000200 6a 46 98 3e 7f 5e 2f be db 99 fc 3e 85 a3 2a 3e
       0.29741222 -0.17125891 0.49336132 0.1666394
000210 cc 6b 38 3e 5c 9f bd 3e 61 9a aa 3b c9 c3 eb be
       0.18009871 0.37035644 0.0052063917 -0.4604781
000220 bb 94 96 3e a1 44 04 bf f9 7c 13 3f c2 c2 a5 3e
       0.29410347 -0.5166722 0.5761257 0.3237515
000230 73 b5 a4 3e fb 3c b9 bd 9d 0b 64 3f b6 a1 0a 3e
       0.32169685 -0.09044834 0.8908022 0.1353825
000240 62 f5 6d be 49 5c e0 3d c8 62 9f 3e 00 46 f3 3e
       -0.23238137 0.10955102 0.31130052 0.47514343
000250 41 31 d8 3e 54 00 dc be 92 a7 bd 3d 3d 40 7e be
       0.42225078 -0.42969 0.09260477 -0.24829192
000260 69 09 21 be 3b 0f 16 3e 46 95 bd 3f cb 6e 8c 3e
       -0.15726246 0.14654247 1.481118 0.27428278
000270 f8 1e 0e 3f ca 54 c7 3e d9 2a 96 3e 1f 13 32 be
       0.55516005 0.38931876 0.29329565 -0.17390107
000280 2e a9 7a 3f 90 22 e8 3e 65 ae 64 3e 0c 34 93 be
       0.979144 0.4533887 0.22332151 -0.28750646
000290 5c ad 78 3e db 26 3d bd 37 62 fc bd 81 2b e4 3e
       0.24284881 -0.046179634 -0.123234205 0.4456444
0002a0 b0 4c e4 3d 86 a3 8d be 52 92 81 be 80 9b c3 bc
       0.111474395 -0.2766382 -0.25306946 -0.02387786
0002b0 c4 f0 8e 3e 54 d5 02 be 32 11 92 be ac 54 2f be
       0.27918065 -0.1277669 -0.28528744 -0.17122144
0002c0 b5 cf 51 3f c9 be 00 3f 74 56 39 3f 62 c7 0d bf
       0.8195756 0.50291115 0.7239754 -0.5538236
0002d0 f4 42 b5 3e 63 04 d1 3e 17 e6 31 3e 37 4e 13 be
       0.35402644 0.4082366 0.17372929 -0.14385305
0002e0 ee c0 19 3f 08 27 fc 3e 14 64 ae 3e 4c 9d 24 bd
       0.6006001 0.49248528 0.3406073 -0.040189072
0002f0 08 94 07 be d0 18 5b 3d d0 e4 b4 bd 98 93 18 be
       -0.13240063 0.05349046 -0.08832705 -0.14900053
000300 9c 4f ce 3e 4e 48 f8 3e d8 0b b8 bb 24 59 1a be
       0.40295112 0.48492664 -0.0056166463 -0.15073067
000310 74 5c 22 bd 8a a5 11 bd 88 fb 5c 3e 70 20 3b 3e
       -0.03963895 -0.03555826 0.21580327 0.18274093
000320 b1 18 43 bf ec 70 c3 be a7 a7 da 3e 18 8f b6 3e
       -0.7620955 -0.3817209 0.42706034 0.35656047
000330 a0 b9 cb bc 08 58 9a be 42 9f 9c be fa 50 e5 be
       -0.024868786 -0.30145288 -0.30590254 -0.44788343
000340 7c f0 6d ba b7 c9 74 3e 31 df a0 3e 7b 7c 3d 3e
       -0.00090766675 0.23905073 0.31420282 0.18504517
000350 ce ea 3d bf cc 04 c3 be 73 49 cf 3d 19 f7 14 3f
       -0.7418641 -0.38089597 0.10121431 0.5818954
000360 7f 24 82 3f 72 48 08 3e ce 6a 0d 3e 81 9a a9 be
       1.0167388 0.13308886 0.13810274 -0.3312569
000370 5b be 04 be ee ac f0 3e b0 f8 4b be 79 d6 e2 bd
       -0.1296324 0.47006935 -0.19919086 -0.11076064
000380 a0 69 de be 67 0d 9c 3e ea c5 cb 3e 7f c3 f4 3d
       -0.4343996 0.30478975 0.39799434 0.119513504
000390 3e 43 5b be be 0f b3 be 8b b6 c6 3d 73 3f 1b 3f
       -0.2141237 -0.34972948 0.09702786 0.6064369
0003a0 37 1c ae 3e 96 29 e8 3e 1b de f4 3d 8f 47 2b bd
       0.340059 0.45344228 0.11956426 -0.04181629
0003b0 80 71 a0 bb 86 b0 c2 be 6c 55 db be 02 73 ef be
       -0.0048963428 -0.38025302 -0.4283861 -0.46767431
0003c0 e4 97 51 3e 28 60 7b be 28 15 ce bd 50 54 93 be
       0.20468098 -0.245484 -0.10062629 -0.28775263
0003d0 d0 98 ba bd 86 2e b4 be 40 46 a7 be 00 d6 29 3e
       -0.09111178 -0.35191745 -0.32670784 0.16585541
0003e0 78 9f 43 3f ae a1 ca 3e 77 ee a4 3d ed 7b f7 be
       0.76415205 0.39576477 0.08053296 -0.48336735
0003f0 68 ac b4 bd d0 30 78 be 60 a4 1c be fc b5 f3 be
       -0.088219464 -0.2423737 -0.15297079 -0.4759978

nn.0.bias f4 [64]
000000 ff 4e de 3e 63 83 17 be c0 63 5f be ec fb 10 3e
       0.43419644 -0.14796214 -0.21815395 0.141586
000010 85 ad 1c 3e 29 e3 84 3e 48 1d b8 3e 68 8e 36 3f
       0.15300567 0.2595456 0.3595984 0.71311045
000020 15 23 e5 3e 94 0a 27 3f 50 c2 9e 3e 35 9e 8e bf
       0.44753328 0.65250516 0.31007624 -1.1142031
000030 90 c1 eb bd e8 35 02 40 c3 33 95 3f df 19 16 c0
       -0.115115285 2.0345402 1.1656421 -2.345329
000040 7a 8c 88 bf d5 51 0a 3e d0 19 f2 3e cd 8d 3d 3d
       -1.066787 0.13507779 0.47285318 0.04627781
000050 4f fc f3 bd 93 55 a4 3f 8c 60 21 3e 83 04 7b 3b
       -0.119133584 1.2838615 0.15759486 0.003830225
000060 68 6e e8 bd cc cc bf 3e 30 20 33 bd 54 88 08 c0
       -0.11349183 0.37460935 -0.04373187 -2.1333208
000070 fc 49 51 be f8 89 22 be 20 47 f3 be c8 0c d2 3e
       -0.20438379 -0.15872943 -0.47515202 0.41025376
000080 ca 3f 02 be 4b 47 e4 3e 59 d3 0a 3e 53 1c f2 bc
       -0.12719646 0.44585642 0.13557185 -0.029554522
000090 f9 52 98 bf a9 11 05 bf 60 a8 8e 3f 51 e0 91 3e
       -1.1900321 -0.5198007 1.1145134 0.28491452
0000a0 9b 66 ae 3f 77 36 1a 3e 70 80 2a be 84 a4 25 be
       1.3625063 0.15059839 -0.16650558 -0.16176039
0000b0 0e 25 d0 3d 10 9a 47 3e 6f b0 5c 3d 0c 26 75 be
       0.101633176 0.19492364 0.053879198 -0.23940295
0000c0 cf 3b fc be 07 ec 0a 3f b4 47 de bf 64 ab 07 3e
       -0.4926438 0.542664 -1.7365632 0.13248974
0000d0 fd 33 91 bd 21 6b 29 3e ab e3 22 3f f3 87 34 3f
       -0.07089994 0.16544773 0.63628644 0.7051994
0000e0 6b e8 8e bd ec 4d d4 3e ad 40 1c 3f dc b2 06 3e
       -0.06977924 0.414657 0.6103619 0.13154167
0000f0 f4 a0 ab 3e 20 63 fc 3e e3 31 63 bf 28 89 d4 3d
       0.33521235 0.49294376 -0.88747996 0.10377723

nn.2.weight f4 [13, 64]
000000 49 0b 78 3b 8c 44 c5 bf 82 b7 29 40 b7 70 20 3e
       0.0037848523 -1.5411544 2.6518254 0.15667997
000010 26 aa 29 bf 10 17 79 3c ec f0 ae bd 32 57 82 40
       -0.6627525 0.015203252 -0.08542046 4.073144
000020 4e 13 9a bf 5a d3 8f bf 94 c7 b3 3f 8e 94 87 40
       -1.2037141 -1.1236374 1.4045281 4.236884
000030 0a b7 c2 bd 85 0d 34 bf f1 0b ff bf 0a 37 97 40
       -0.09507568 -0.7033313 -1.9925519 4.7254686
000040 9e a6 1c 40 15 83 58 40 b4 f5 6c bd 6a 48 a1 3e
       2.4476695 3.3830006 -0.05785151 0.3150056
000050 b8 d9 79 40 f3 02 df bf 8d d2 ab bf d7 44 2c c0
       3.9039135 -1.7422775 -1.342363 -2.6917017
000060 7c f0 ce bd 3b a9 aa 3e 24 41 f7 3d 48 8a 6b 40
       -0.101044625 0.33332238 0.120729715 3.680315
000070 42 e9 ab bd 30 36 f8 3c cc 1c 0d 3d d0 43 8c 3d
       -0.083941 0.030299276 0.03445129 0.06848872
000080 ea 37 dc 3f a1 f2 34 c0 91 66 e7 40 b7 b1 7e 40
       1.7204564 -2.827309 7.2312703 3.9795969
000090 48 a2 48 3f 71 7a 82 3c 2e ac 63 40 01 c9 95 bd
       0.7837262 0.015927525 3.557384 -0.07313729
0000a0 c7 4e cc be 08 94 0d 3f 50 cc e6 bd 20 f6 b6 3b
       -0.39903852 0.55304 -0.11269438 0.0055835396
0000b0 70 7d 1f 3d b5 2e 1f bf 19 a1 00 3d ae 25 c2 bd
       0.038937986 -0.62180644 0.031403635 -0.09479843
0000c0 f5 84 7c bf 52 c8 8e 3f 43 51 51 40 1e b1 93 3d
       -0.98640376 1.1154883 3.2705848 0.07211517
0000d0 be 29 8c 3e 25 e5 e5 3f 50 21 6f c0 e2 7b 21 c0
       0.27375597 1.7960554 -3.7364082 -2.5231862
0000e0 40 26 0a 3e 1a 87 7c 40 b7 a0 de bd 00 09 eb bd
       0.13491154 3.945746 -0.10870498 -0.11476326
0000f0 5e 2a ab 3d 06 8e b4 bd ce e4 18 c1 88 a3 d8 3d
       0.0835769 -0.08816151 -9.5558605 0.10578066
000100 f5 d3 10 3c 4a 99 70 3e 8a f0 e4 be ca 8d e6 be
       0.008839597 0.23495975 -0.44714767 -0.4503005
000110 6e a7 88 3e f6 b2 07 3d f0 9c d1 bc f4 79 08 3f
       0.2669024 0.033129655 -0.025587529 0.53311086
000120 43 19 19 3e b1 37 6d bd a2 62 c6 3d d9 6c 91 bc
       0.14951043 -0.05791444 0.096867815 -0.017752098
000130 d2 ce cf bd 11 a5 83 ba 2c d5 2b bd 25 ec 9d bd
       -0.1014687 -0.00100437 -0.041951343 -0.077110566
000140 8b b0 27 3c c8 33 84 3e a0 24 23 3c 20 68 40 3d
       0.010234962 0.25820756 0.009957463 0.0469743
000150 ef b2 7d be 57 b4 6f 3f 44 14 56 be ad c5 68 be
       -0.24775289 0.9363455 -0.20906168 -0.22731657
000160 5a 21 82 bd da d9 18 bd 78 0c 15 bd 7b 6e 50 3e
       -0.063540176 -0.037317134 -0.036388844 0.20354645
000170 fa 13 f4 3d 60 57 32 3d c4 80 b6 3d a0 dd 77 bd
       0.11917873 0.04354036 0.08911279 -0.060514092
000180 9a f4 65 3c f2 03 82 3d 96 1d 82 3f 80 d4 8e be
       0.014035368 0.06348409 1.0165279 -0.278965
000190 31 40 42 3d 09 43 83 bd 2c 9b c6 3c 4e 96 76 bd
       0.0474245 -0.0640927 0.024243914 -0.060201935
0001a0 d6 16 1e bd f0 d4 b6 3d c0 4a b2 bc 3a 20 ed bd
       -0.038595997 0.08927333 -0.02176416 -0.11578412
0001b0 a2 70 f3 be 0a 51 ab bd 9b 52 9a bc 98 73 81 bc
       -0.4754687 -0.08365066 -0.018838217 -0.01580219
0001c0 82 21 29 be 31 8e 06 3e af 48 20 3e ee cb a1 3d
       -0.16516688 0.13140179 0.15652727 0.079002246
0001d0 f6 3d 17 bd ce 6a b5 3e df 68 50 bf 8d fa c1 bd
       -0.036924325 0.35433048 -0.8141002 -0.09471617
0001e0 7d 98 32 bd 13 d7 5a 3e 2d 25 01 bd 5e d5 c7 3d
       -0.043602455 0.21371107 -0.031529594 0.097574934
0001f0 96 23 f6 3d 18 71 79 bd 1a 8d 02 3f aa 63 cd 3d
       0.12018506 -0.06089887 0.50996554 0.10028775
000200 a4 3b be 3d a8 66 87 bd 63 8e f6 3d fc de 06 3e
       0.09288719 -0.06611377 0.12038877 0.13171
000210 96 e3 31 be 04 eb 56 bd b0 35 08 3d 74 32 8b 3c
       -0.17371973 -0.052470222 0.033254325 0.016991831
000220 0b 06 23 bd 83 4c fa 3d 58 0f 77 3c 7b 03 44 3d
       -0.039800685 0.12221625 0.015079342 0.04785488
000230 e0 e3 e7 bb f1 8a 00 3d 6e 06 be bc 92 0f 31 be
       -0.0070767254 0.031382505 -0.023196425 -0.17291096
000240 f6 fe 8f be 6b 13 5a be 82 b8 d4 bd b9 28 92 bd
       -0.28124207 -0.2129647 -0.103867546 -0.071366735
000250 f4 ab 23 3f f5 35 0c 3f 7e b4 fa 3d 98 e7 4d 3d
       0.63934255 0.5476983 0.122414574 0.050269693
000260 24 65 c1 3d cf c0 be be bc db 8c bd b8 57 23 3d
       0.09443119 -0.37256476 -0.068778485 0.039878577
000270 a0 a7 84 bd 02 c4 ac bd c0 7f 23 bd 58 e5 d6 3c
       -0.064772844 -0.08435823 -0.039916754 0.026232406
000280 7b 5e d1 3d 44 06 a7 bd 55 28 62 3a 4c f7 9c 3e
       0.10223099 -0.08155492 0.0008627226 0.30657423
000290 81 8b 96 bd 57 bd c5 bd c7 cf f5 3e 9f f6 e0 3a
       -0.07350827 -0.09655254 0.48010084 0.0017163343
0002a0 10 0f 8a 3c 85 91 c1 3d 5c 24 19 3d 70 35 30 3d
       0.016852885 0.09451584 0.03738819 0.043019712
0002b0 74 c4 16 3e 7b 00 fe 3b 01 cb 62 bc 00 2f e1 3a
       0.14723378 0.007751522 -0.013842345 0.0017180145
0002c0 b5 e3 1d 3d a5 a6 f8 3d 88 36 8e bc 34 6e 58 bd
       0.038547236 0.1214116 -0.017359987 -0.052839473
0002d0 82 ff fb bc 1e 43 b5 bc ba 96 0a 3f 1e 07 76 3d
       -0.030761484 -0.02212673 0.5413624 0.06006538
0002e0 43 27 da 3d f5 bd 27 3e 35 5b ab bd 7c 65 89 bd
       0.1065202 0.16381057 -0.08367006 -0.0670881
0002f0 08 fc e0 bc 78 bf bc bc 70 88 b8 3e 2e 00 eb bd
       -0.027463928 -0.023040518 0.36041594 -0.11474644
000300 d7 47 50 3d f1 8f 58 bd 18 bd b5 3b 17 dd 14 bc
       0.05084976 -0.05287165 0.0055462234 -0.009085915
000310 51 34 03 be 9c 55 9c bc 2e 1e c1 3d 86 0d 4e be
       -0.12812926 -0.01908379 0.094295844 -0.20122346
000320 01 85 7c bd cb b9 43 bb 83 15 75 3d 1a bd b1 3e
       -0.06165028 -0.002986538 0.05983497 0.34714586
000330 82 17 b9 3d 36 a2 9f bd e6 02 84 be c4 86 b5 3e
       0.09037687 -0.07794611 -0.2578346 0.3545438
000340 4a e7 08 3e e3 3d b5 3e 40 0c 0c 3d 36 80 95 3c
       0.1336948 0.35398778 0.03419137 0.018249612
000350 08 db 71 3e 6c 62 72 bf 7d 2e 46 3d b1 0b 9e be
       0.2361871 -0.9468143 0.04838418 -0.30868295
000360 a2 c6 f0 bd 2d d5 b4 be 48 54 ae bd 72 7c 0b 3f
       -0.11756636 -0.3531889 -0.08512169 0.54486763
000370 14 6a 9b bd 70 de 13 bc f0 44 e3 bc 88 39 b6 3c
       -0.07588592 -0.009025201 -0.027742833 0.02224423
000380 e6 e8 1c 3e 0f b0 23 be b2 02 55 3f 16 fa 9c 3e
       0.15323219 -0.1598513 0.8320724 0.3065955
000390 dd cd 3e 3e 65 a8 97 bb 72 ea 0f 3e 09 24 09 be
       0.18633218 -0.0046282285 0.14054278 -0.13392653
0003a0 62 c7 03 bf 26 83 db 3d 00 b6 df bc f2 a1 ad bd
       -0.5147611 0.10718374 -0.027308464 -0.08478154
0003b0 c7 03 9a be 79 b4 8c bd bb d3 81 3c 1a 55 fe 3d
       -0.30081007 -0.0687036 0.015848031 0.124185756
0003c0 1a c0 d5 3a 9b b0 2c 3e b2 bf a0 3e e4 36 dc bd
       0.0016307861 0.16864245 0.31396252 -0.10752657
0003d0 f3 b0 fb bc 18 0e 08 3e 2f 07 87 be 91 97 15 be
       -0.030724024 0.13286626 -0.26372668 -0.14608599
0003e0 51 15 6d bd 5d f1 2d 3e b9 fa 8e bd 9c 5f fc bd
       -0.057881657 0.16986604 -0.06981415 -0.123229235
0003f0 d0 22 9d bd e4 3a 43 3d 54 24 89 3f 0c 4d 18 bd
       -0.076726556 0.047663584 1.0714211 -0.037182853

nn.2.bias f4 [13]
000000 5e ed 57 c0 64 03 1e 3f b1 0a 83 3e 86 45 31 bf
       -3.3738627 0.61723924 0.25594094 -0.6924671
000010 92 5c d3 bd 20 96 af 3d 0a 64 c7 bd a6 ae e9 3d
       -0.10320391 0.08573556 -0.09735878 0.11410265
000020 70 bd 1e 3c 07 41 76 3d 3f d4 c6 3d 0a 3e da 3d
       0.00968872 0.06012061 0.097084515 0.10656364
000030 98 8f c7 bd
       -0.09744185

exp_avg f4 [64, 4]
000000 43 fc 87 3f a3 3a bc 40 2e 74 99 3f 0c c8 a2 40
       1.0623859 5.882158 1.198858 5.08692
000010 43 00 43 c0 e9 3e 5a c1 5e 49 3a c0 7c 18 3d c1
       -3.046891 -13.640359 -2.910728 -11.818478
000020 cf 9e b5 40 a1 80 e3 41 77 73 30 41 c9 d6 bd 41
       5.675636 28.437807 11.02819 23.729876
000030 e7 bb 8b 40 22 ca b8 41 2e 0a f5 40 42 0d b1 41
       4.3666873 23.098698 7.6574926 22.131474
000040 b2 b7 1f c0 a2 86 51 c1 8d d1 4b c0 fb 05 85 c1
       -2.4955869 -13.095369 -3.184665 -16.62792
000050 27 b0 32 be d7 bd 9d be f4 32 8c be d7 86 54 be
       -0.1745001 -0.308089 -0.27382624 -0.20754562
000060 00 00 00 00 00 00 00 00 00 00 00 00 00 00 00 00
       0.0 0.0 0.0 0.0
000070 6f d2 92 bf 5c 49 47 3f d6 3f bb 3d c0 39 85 3f
       -1.1470469 0.7784631 0.09143035 1.0408249
000080 b6 dd ec bf f6 fc 0d c1 e4 bf c5 bf 66 56 e9 c0
       -1.8505161 -8.874258 -1.5449185 -7.2917967
000090 82 d5 bc 3f c8 71 f8 40 90 99 e3 3f 4e 10 e1 40
       1.4752657 7.7638893 1.7781239 7.0332403
0000a0 80 03 96 3c 10 eb 73 3f cf 53 39 be 66 df fb 3e
       0.018312216 0.9528055 -0.18098377 0.49193877
0000b0 2c a6 a8 3f 1f ef c0 40 3f 63 d9 3f c6 bc 81 40
       1.3175712 6.0291896 1.6983413 4.0542936
0000c0 00 00 00 00 00 00 00 00 00 00 00 00 00 00 00 00
       0.0 0.0 0.0 0.0
0000d0 9e 77 e6 bc 63 eb 4b 3e cb d7 71 bd 39 2d cc 3e
       -0.02813321 0.19914012 -0.059043687 0.39878252
0000e0 00 c0 33 be 29 cb 98 c0 28 96 e3 bf c0 5a db bf
       -0.17553711 -4.7748 -1.7780199 -1.713707
0000f0 20 b4 c8 3d 2a c0 a6 bf 71 30 e2 3e 3f 56 15 c0
       0.09799981 -1.3027394 0.44177583 -2.333389
000100 f4 8b 93 be aa 14 a8 bf ab e5 fe be bd a5 b8 bf
       -0.28817713 -1.3131306 -0.49784598 -1.4425579
000110 3d a3 0e c0 50 cf 42 c1 6a b1 23 c0 6f 8f 3e c1
       -2.2287133 -12.175613 -2.5577035 -11.910018
000120 00 00 00 00 00 00 00 00 00 00 00 00 00 00 00 00
       0.0 0.0 0.0 0.0
000130 01 1f c0 bc ab 42 f6 3e bf 10 36 be 00 c4 e3 3e
       -0.023452284 0.4809774 -0.17779826 0.44485474
000140 9b f9 a8 40 ef 4b d7 41 3a 5f cf 40 31 e5 b2 41
       5.2804694 26.912077 6.4803743 22.36191
000150 c7 58 50 3e ff d0 03 3f 1c 45 46 be c5 57 19 40
       0.20346366 0.5149078 -0.193623 2.395982
000160 e4 a5 1b 40 e2 4f 39 41 0e 0d 4c 40 af 0a 27 41
       2.4320002 11.582003 3.1882968 10.440108
000170 06 5f 11 40 4e 0d 4e 41 b9 94 2f 40 02 31 47 41
       2.2714248 12.878248 2.7434523 12.449465
000180 00 00 00 00 00 00 00 00 00 00 00 00 00 00 00 00
       0.0 0.0 0.0 0.0
000190 9e df b6 bf 3f 09 a6 c0 1d 87 12 c0 e5 a2 64 c0
       -1.4286993 -5.1886287 -2.2894967 -3.5724423
0001a0 00 00 00 00 00 00 00 00 00 00 00 00 00 00 00 00
       0.0 0.0 0.0 0.0
0001b0 61 79 14 3e c2 07 b0 be 7d c3 e4 3e ca a7 00 c0
       0.14499427 -0.3438092 0.44680396 -2.010241
0001c0 00 00 00 00 00 00 00 00 00 00 00 00 00 00 00 00
       0.0 0.0 0.0 0.0
0001d0 00 00 00 00 00 00 00 00 00 00 00 00 00 00 00 00
       0.0 0.0 0.0 0.0
0001e0 00 00 00 00 00 00 00 00 00 00 00 00 00 00 00 00
       0.0 0.0 0.0 0.0
0001f0 00 00 00 00 00 00 00 00 00 00 00 00 00 00 00 00
       0.0 0.0 0.0 0.0
000200 c9 b8 34 3f 90 48 58 40 50 f8 6b 3f 81 9d 16 40
       0.7059446 3.3794289 0.9217577 2.3533633
000210 00 22 b8 be 0e 65 27 c0 70 ea be bf e7 ef dd bf
       -0.3596344 -2.615543 -1.4915295 -1.7338837
000220 e0 e0 03 3e e9 00 8a 3f 1b 72 10 c0 72 86 fd 3f
       0.12878752 1.0781528 -2.2569644 1.9806654
000230 f9 01 bc 40 09 58 f4 41 5a d9 dc 40 fc 85 cf 41
       5.875241 30.542986 6.901532 25.940422
000240 43 dd 1a 3f 95 3b 46 40 03 47 30 3f ac f9 1a 40
       0.6049387 3.0973866 0.68858355 2.4214888
000250 04 00 00 00 04 00 00 00 04 00 00 00 04 00 00 00
       6e-45 6e-45 6e-45 6e-45
000260 ef dd 24 40 52 41 66 41 86 f7 39 40 5f b6 37 41
       2.5760458 14.390947 2.9057326 11.482024
000270 4d 74 6e 3f b0 91 c1 40 93 53 53 3f 33 f2 b6 40
       0.9314621 6.049034 0.825494 5.7170653
000280 8c 5a 26 be 58 60 1e 40 cf 02 6e bf aa ef 4c 40
       -0.16245478 2.4746304 -0.92973036 3.202128
000290 52 ad 4c 3f ea 27 98 40 70 58 45 3f 97 08 79 40
       0.79951966 4.7548723 0.7708807 3.8911493
0002a0 00 00 00 00 00 00 00 00 00 00 00 00 00 00 00 00
       0.0 0.0 0.0 0.0
0002b0 00 00 00 00 00 00 00 00 00 00 00 00 00 00 00 00
       0.0 0.0 0.0 0.0
0002c0 4c fb cb 3f 83 d7 d4 40 73 e6 29 40 8c 82 af 40
       1.5936065 6.6513076 2.6546905 5.484686
0002d0 82 c9 85 3f 32 b1 ba 40 5b 50 94 3f ff b9 af 40
       1.045212 5.8341303 1.1587023 5.4914546
0002e0 7b c0 98 3f bb aa de 40 7c 0d 9c 3f 50 57 c8 40
       1.193374 6.958341 1.2191615 6.2606583
0002f0 00 00 00 00 00 00 00 00 00 00 00 00 00 00 00 00
       0.0 0.0 0.0 0.0
000300 cb fc f5 3f 59 48 19 41 7c 83 18 40 fd 51 0c 41
       1.9217771 9.580163 2.3830252 8.770017
000310 26 00 5d 3f 81 3e a7 40 55 b9 5d 3f c1 48 81 40
       0.8632835 5.22638 0.8661092 4.040131
000320 23 d2 05 bd 5a 4b 16 c0 c5 23 b0 3d 90 ae 29 c0
       -0.032671105 -2.348349 0.086005725 -2.6512794
000330 00 00 00 00 00 00 00 00 00 00 00 00 00 00 00 00
       0.0 0.0 0.0 0.0
000340 51 81 2b 3f b8 aa 82 40 84 50 26 3f ab a3 6f 40
       0.66994196 4.0833397 0.6496661 3.7443645
000350 4e 3b 76 c0 82 9a a3 c1 22 60 bd c0 24 3f 91 c1
       -3.8473697 -20.450443 -5.917985 -18.15583
000360 81 74 22 40 93 c9 b8 41 3c 54 31 41 4c ea 68 41
       2.5383608 23.098425 11.083065 14.557201
000370 cb 92 a8 3f 4b 5a e8 40 ed 56 df 3f f2 a2 e2 40
       1.3169798 7.261022 1.7448403 7.082391
000380 3c 82 14 3f e5 a1 52 40 9e 99 2f 3f 9c ee 3a 40
       0.5801122 3.2911313 0.68593776 2.9208136
000390 30 b6 cb bf 86 07 15 c1 b3 29 22 c0 1a 5a 10 c1
       -1.5914974 -9.314337 -2.533795 -9.021997
0003a0 47 0f fc bb fa f7 bd 3e b3 7f df bd 05 ac 1a 3f
       -0.007692251 0.37103254 -0.109130286 0.6041873
0003b0 00 00 00 00 00 00 00 00 00 00 00 00 00 00 00 00
       0.0 0.0 0.0 0.0
0003c0 00 00 00 00 00 00 00 00 00 00 00 00 00 00 00 00
       0.0 0.0 0.0 0.0
0003d0 00 00 00 00 00 00 00 00 00 00 00 00 00 00 00 00
       0.0 0.0 0.0 0.0
0003e0 97 d7 78 3f c3 83 ea 3f b7 0f f0 3f 6c 95 19 40
       0.97203964 1.832146 1.8754796 2.399745
0003f0 00 00 00 00 00 00 00 00 00 00 00 00 00 00 00 00
       0.0 0.0 0.0 0.0

exp_avg_sq f4 [64, 4]
000000 79 d3 a3 43 f9 92 70 46 92 ab 1e 45 65 63 74 46
       327.65213 15396.743 2538.7231 15640.849
000010 77 24 c7 44 24 b7 8f 47 61 f3 37 46 66 2f 93 47
       1593.1395 73582.28 11772.845 75358.8
000020 71 12 ed 44 92 85 0d 47 8a 7c 26 46 a3 2c 15 47
       1896.5763 36229.57 10655.135 38188.637
000030 01 e1 92 45 46 e1 37 48 a6 9b 0a 47 25 d2 32 48
       4700.1255 188293.1 35483.65 183112.58
000040 da 49 80 43 d9 7e 9b 45 94 a0 14 43 99 52 f1 45
       256.57697 4975.856 148.62726 7722.3247
000050 f0 fb a8 3f 0a 79 9e 42 21 16 80 41 c1 27 9b 42
       1.3201885 79.236404 16.010805 77.577644
000060 00 00 00 00 00 00 00 00 00 00 00 00 00 00 00 00
       0.0 0.0 0.0 0.0
000070 bb 76 40 43 94 d4 28 46 1f ae 4a 45 28 11 38 46
       192.46379 10805.145 3242.8826 11780.289
000080 b0 9d 01 44 12 a7 ac 46 7d 03 4f 45 5b 92 b5 46
       518.46387 22099.535 3312.218 23241.178
000090 b8 96 09 44 41 fb cc 46 15 5d 87 45 8b c4 cf 46
       550.355 26237.627 4331.6353 26594.271
0000a0 23 70 6e 41 d2 26 2d 44 47 b0 dd 42 50 0f 30 44
       14.902377 692.60657 110.84429 704.23926
0000b0 85 00 8e 43 5c 3f 35 46 32 69 01 45 a2 8d 3b 46
       284.00406 11599.84 2070.5747 12003.408
0000c0 00 00 00 00 00 00 00 00 00 00 00 00 00 00 00 00
       0.0 0.0 0.0 0.0
0000d0 2d e0 a9 3f 64 e7 bd 42 45 61 75 41 02 a0 b1 42
       1.3271538 94.951935 15.336247 88.812515
0000e0 bc 14 00 43 f4 2e 32 46 42 a5 3a 45 76 a4 17 46
       128.081 11403.738 2986.3286 9705.115
0000f0 9a 7a 9f 42 84 36 a1 45 79 61 4d 44 8a aa 9a 45
       79.739456 5158.8145 821.523 4949.3174
000100 60 b4 bc 41 c2 28 b1 44 01 b0 7c 43 0a 21 b0 44
       23.588074 1417.2737 252.68752 1409.0325
000110 bc 39 b4 44 ae 04 8e 47 73 a1 39 46 f1 a8 8e 47
       1441.8042 72713.36 11880.362 73041.88
000120 00 00 00 00 00 00 00 00 00 00 00 00 00 00 00 00
       0.0 0.0 0.0 0.0
000130 25 b5 ae 40 00 28 95 43 ea 05 42 42 e3 80 93 43
       5.4596124 298.3125 48.505775 295.00693
000140 51 6b c2 45 c9 15 8d 48 d1 2a 3e 47 fa a4 8f 48
       6221.4146 288942.28 48682.816 294183.8
000150 3d 2b 62 41 d8 cf 9d 44 f2 54 94 44 47 ad d4 44
       14.135556 1262.4951 1186.6545 1701.4149
000160 e5 04 8b 44 d2 81 4a 47 df bb 07 46 b6 f6 4d 47
       1112.153 51841.82 8686.968 52726.71
000170 dd 06 c9 44 8e 26 9d 47 26 a4 4b 46 9b d5 9d 47
       1608.2145 80461.11 13033.037 80811.21
000180 00 00 00 00 00 00 00 00 00 00 00 00 00 00 00 00
       0.0 0.0 0.0 0.0
000190 22 96 6a 43 20 9f 1c 46 cc 88 e9 44 8a 98 21 46
       234.58646 10023.781 1868.2749 10342.135
0001a0 00 00 00 00 00 00 00 00 00 00 00 00 00 00 00 00
       0.0 0.0 0.0 0.0
0001b0 18 93 bb 41 5d 71 d8 44 27 1b 94 43 e6 6c c2 44
       23.446823 1731.5426 296.21213 1555.4031
0001c0 00 00 00 00 00 00 00 00 00 00 00 00 00 00 00 00
       0.0 0.0 0.0 0.0
0001d0 00 00 00 00 00 00 00 00 00 00 00 00 00 00 00 00
       0.0 0.0 0.0 0.0
0001e0 00 00 00 00 00 00 00 00 00 00 00 00 00 00 00 00
       0.0 0.0 0.0 0.0
0001f0 00 00 00 00 00 00 00 00 00 00 00 00 00 00 00 00
       0.0 0.0 0.0 0.0
000200 80 25 c1 42 1f 37 81 45 ac 16 35 44 28 24 85 45
       96.57324 4134.89 724.35425 4260.5195
000210 2c 8c 99 3f f8 41 df 42 16 bb 09 42 f4 54 60 42
       1.1995902 111.628845 34.4327 56.082962
000220 ed 71 2d 44 b5 fa b4 46 81 7b 8c 45 32 c2 c3 46
       693.7801 23165.354 4495.438 25057.098
000230 a6 3c 01 46 ec ed ba 48 e7 9f 79 47 ca 40 be 48
       8271.162 382831.38 63903.902 389638.3
000240 79 50 af 42 c7 34 65 45 09 11 1a 44 90 7c 6c 45
       87.65717 3667.2986 616.2662 3783.7852
000250 85 f9 63 2e 3d 9b a8 30 ee 5a de 32 d5 e7 e5 2e
       5.1835442e-11 1.226773e-09 2.5885551e-08 1.0454896e-10
000260 ee b9 ed 44 ac af ad 47 03 7c 68 46 5b bf b0 47
       1901.8103 88927.34 14879.003 90494.71
000270 3c 0e bb 43 ab 9a 92 46 2a 02 3d 45 06 29 93 46
       374.1112 18765.334 3024.1353 18836.512
000280 98 ed 11 43 d0 f3 11 46 d0 7e b6 44 78 bc 0b 46
       145.9281 9340.953 1459.9629 8943.117
000290 3a ca 77 43 ff 07 33 46 39 07 eb 44 d8 6e 36 46
       247.78995 11457.999 1880.2257 11675.711
0002a0 00 00 00 00 00 00 00 00 00 00 00 00 00 00 00 00
       0.0 0.0 0.0 0.0
0002b0 00 00 00 00 00 00 00 00 00 00 00 00 00 00 00 00
       0.0 0.0 0.0 0.0
0002c0 e0 b7 e0 43 8b 78 ad 46 42 51 7b 45 17 39 a9 46
       449.43652 22204.271 4021.0786 21660.545
0002d0 dc 6e 9d 43 9c e6 6f 46 c1 92 1c 45 cd fe 71 46
       314.8661 15353.652 2505.172 15487.7
0002e0 0a da ed 43 7b 31 b1 46 9a 0f 67 45 9d 5e b3 46
       475.70343 22680.74 3696.975 22959.307
0002f0 00 00 00 00 00 00 00 00 00 00 00 00 00 00 00 00
       0.0 0.0 0.0 0.0
000300 49 fe 43 44 17 74 10 47 8f d1 bf 45 d7 89 12 47
       783.9732 36980.09 6138.195 37513.84
000310 e2 3f 93 43 50 d4 50 46 37 eb 09 45 ff 69 55 46
       294.49908 13365.078 2206.701 13658.499
000320 ee 9b 04 42 3f bf 39 45 3c 2b 0f 44 08 40 38 45
       33.152275 2971.953 572.67554 2948.002
000330 00 00 00 00 00 00 00 00 00 00 00 00 00 00 00 00
       0.0 0.0 0.0 0.0
000340 01 6f 1f 43 ba 0b f2 45 2a 1b 9d 44 6b 24 f4 45
       159.43361 7745.466 1256.8489 7812.5522
000350 36 fa 7e 45 e0 63 42 48 5c 87 fa 46 da 41 49 48
       4079.6382 199055.5 32067.68 206087.4
000360 12 b9 6d 45 fd e2 cc 47 05 b1 ab 46 84 2e ba 47
       3803.567 104901.98 21976.51 95325.03
000370 9c 0b ff 43 8f 8f c6 46 dd c2 80 45 eb a0 c7 46
       510.0907 25415.78 4120.358 25552.459
000380 74 8d b4 42 b3 94 8b 45 de c7 38 44 8f c0 8c 45
       90.276276 4466.5874 739.1229 4504.07
000390 db 27 28 44 03 04 02 47 be 3e a8 45 0b c9 02 47
       672.62274 33284.01 5383.843 33481.043
0003a0 5e c7 32 40 40 f5 36 43 54 2f f2 41 76 33 2e 43
       2.7934184 182.95801 30.27311 174.20102
0003b0 00 00 00 00 00 00 00 00 00 00 00 00 00 00 00 00
       0.0 0.0 0.0 0.0
0003c0 00 00 00 00 00 00 00 00 00 00 00 00 00 00 00 00
       0.0 0.0 0.0 0.0
0003d0 00 00 00 00 00 00 00 00 00 00 00 00 00 00 00 00
       0.0 0.0 0.0 0.0
0003e0 4b dc 97 42 a6 cb 48 45 d6 a9 2b 44 37 5a 1d 45
       75.93026 3212.728 686.6537 2517.6384
0003f0 00 00 00 00 00 00 00 00 00 00 00 00 00 00 00 00
       0.0 0.0 0.0 0.0

exp_avg f4 [64]
000000 70 b7 28 3d 34 2a 04 be 81 a6 39 3e 8c 46 5d 3e
       0.041190565 -0.12906724 0.18129922 0.21608943
000010 ca 81 d7 bd 05 8e fa bb 00 00 00 00 86 6e 57 bd
       -0.10522802 -0.0076463246 0.0 -0.052595638
000020 09 2b 8d bd 5b 17 50 3d 6e f0 9f 3b c3 45 e1 3d
       -0.06892974 0.050803524 0.0048809564 0.10999634
000030 00 00 00 00 dc b9 62 bc 3f 21 6e bd a4 47 aa 3d
       0.0 -0.013838258 -0.058137175 0.083144456
000040 14 e2 01 3d 7e f5 53 bd 00 00 00 00 cc 94 20 3b
       0.031709746 -0.05174779 0.0 0.0024502752
000050 82 3a 7e 3e 56 ec df bc 05 4f dc 3d 6b 7f 92 3d
       0.24827006 -0.027334373 0.10757259 0.07153209
000060 00 00 00 00 b5 2b 70 bd 00 00 00 00 54 09 5c 3d
       0.0 -0.058635432 0.0 0.053719833
000070 00 00 00 00 00 00 00 00 00 00 00 00 00 00 00 00
       0.0 0.0 0.0 0.0
000080 83 b6 3a 3d 05 13 d7 bc 87 53 90 3c c5 79 9a 3e
       0.045584213 -0.026254186 0.017617954 0.30171028
000090 dc 4d 38 3d 04 00 00 00 3b e2 e1 3d 63 91 05 3d
       0.044996127 6e-45 0.11029478 0.032609355
0000a0 54 32 46 bd af 2d f9 3c 00 00 00 00 00 00 00 00
       -0.04838784 0.030417291 0.0 0.0
0000b0 0f 53 94 3d 53 a9 26 3d bc 24 59 3d 00 00 00 00
       0.07242405 0.040688824 0.05301355 0.0
0000c0 88 cc af 3d 99 b1 15 3d b1 1e 34 3c 00 00 00 00
       0.08583933 0.036546323 0.0109936455 0.0
0000d0 9d 94 04 3d ed 57 3a be c4 17 09 3e 09 8c 06 3d
       0.03236829 -0.18197604 0.13387972 0.03284839
0000e0 22 e0 93 3c b9 e4 82 bd 18 4b b8 3a 00 00 00 00
       0.01805121 -0.06391282 0.0014060466 0.0
0000f0 00 00 00 00 00 00 00 00 a7 b4 e1 3a 00 00 00 00
       0.0 0.0 0.0017219976 0.0

exp_avg_sq f4 [64]
000000 30 63 21 3f 96 6e 3c 40 99 d9 e3 3f 84 99 f2 40
       0.63041973 2.9442496 1.780078 7.5812397
000010 58 85 86 3e 3d ec 4c 3b 00 00 00 00 72 9c 09 3f
       0.26273608 0.0031268739 0.0 0.5375434
000020 87 e9 5e 3f 5f 46 89 3f 4d 70 ea 3c 95 af f9 3e
       0.87075084 1.07246 0.028618002 0.4876677
000030 00 00 00 00 0f 9d 85 3b 08 fd ee 3e 55 34 62 3e
       0.0 0.0040775607 0.46677423 0.22090276
000040 05 ca 73 3d 37 93 3d 40 00 00 00 00 5a a9 48 3c
       0.059518833 2.9621103 0.0 0.012247408
000050 cd 22 3d 41 e3 dd 34 3e c0 ce 07 40 5d f2 51 40
       11.820996 0.17662768 2.121994 3.2804177
000060 00 00 00 00 09 64 d1 3e 00 00 00 00 bf 21 98 3d
       0.0 0.40896633 0.0 0.074283116
000070 00 00 00 00 00 00 00 00 00 00 00 00 00 00 00 00
       0.0 0.0 0.0 0.0
000080 ef e5 2e 3e 84 5f a3 3b 70 46 85 3f 2c 3f 7b 41
       0.170799 0.0049857516 1.0412121 15.702923
000090 3c ff 1c 3e da 06 68 2c f8 a2 68 40 e2 34 44 3f
       0.15331739 3.2972986e-12 3.6349468 0.7664319
0000a0 1d 5f c3 3e 0f 6e f0 3e 00 00 00 00 00 00 00 00
       0.38158503 0.46958968 0.0 0.0
0000b0 c8 f3 61 3f be ad 20 3f 62 07 6e 3f 00 00 00 00
       0.88262606 0.6276511 0.92980015 0.0
0000c0 91 cc c1 3f a7 90 0c 3f aa de 05 3e 00 00 00 00
       1.5140554 0.5490822 0.13073221 0.0
0000d0 2b 72 a2 3e db cc 02 41 f8 c9 83 40 7c af 84 3f
       0.31727728 8.175014 4.1184044 1.0366054
0000e0 a7 18 3a 3e 1e 27 ae 3f d8 f2 f1 3b 00 00 00 00
       0.18173467 1.3605688 0.0073836856 0.0
0000f0 00 00 00 00 00 00 00 00 5b 34 fa 3d 00 00 00 00
       0.0 0.0 0.12217017 0.0

exp_avg f4 [13, 64]
000000 8f 16 92 bd 2a 41 38 3d e8 12 55 b9 2a ad 80 bc
       -0.07133209 0.04498402 -0.00020320306 -0.015707571
000010 19 0b 02 3c e5 c7 0d bc 00 00 00 00 97 d3 5b bd
       0.007937216 -0.008653616 0.0 -0.053668585
000020 7e f4 2a 3d f3 70 b3 3c 9d 14 0f be 36 8e d9 bd
       0.041737072 0.021904444 -0.13972707 -0.10622828
000030 00 00 00 00 01 88 1f 3d 9b 63 82 3d e5 7b e4 bd
       0.0 0.038948063 0.063666545 -0.111564435
000040 38 f2 26 be 3e 1a e2 bd 00 00 00 00 bd 9d 63 bd
       -0.16303337 -0.110401616 0.0 -0.055570353
000050 6f 5e fe bd 35 2c 2b 3d 2e ce 3b 3c e4 ca 2e 3d
       -0.124203555 0.041790206 0.011462731 0.04267396
000060 00 00 00 00 68 72 a5 b8 00 00 00 00 07 da 0b be
       0.0 -7.889123e-05 0.0 -0.1365739
000070 00 00 00 00 00 00 00 00 00 00 00 00 00 00 00 00
       0.0 0.0 0.0 0.0
000080 00 d9 c2 bd 27 0b 77 3d b1 30 f0 bd d2 98 09 be
       -0.09514046 0.06031337 -0.11728037 -0.13437203
000090 b8 7d d4 bd 04 00 00 80 81 b8 46 be e5 38 b9 bc
       -0.103755414 -6e-45 -0.1940632 -0.022610137
0000a0 a8 b1 02 bc 89 7e 50 bd 00 00 00 00 00 00 00 00
       -0.007976927 -0.050901923 0.0 0.0
0000b0 81 8e ea 3b 59 f2 c7 bb b9 8d 4e bd 00 00 00 00
       0.007158101 -0.006101888 -0.050428126 0.0
0000c0 8c d2 27 3c 0c 73 45 bd c7 07 66 bd 00 00 00 00
       0.010243069 -0.04820542 -0.05615976 0.0
0000d0 d4 b2 7b bd 3c 57 55 bd 96 36 3a 3d 98 8a 86 3d
       -0.06144984 -0.052085146 0.045462213 0.065694034
0000e0 74 dc 2e bd cc ab b8 bd c8 25 4e bc 00 00 00 00
       -0.04269071 -0.09017143 -0.01258225 0.0
0000f0 00 00 00 00 00 00 00 00 d3 82 bd 3d 00 00 00 00
       0.0 0.0 0.09253468 0.0
000100 26 c6 da c1 a2 17 9d c0 9b 63 bb 3e 51 82 91 c0
       -27.346752 -4.909135 0.3659943 -4.547158
000110 33 f8 c6 bd 64 6c 8f c0 00 00 00 00 3a 23 0a 40
       -0.09715309 -4.4819813 0.0 2.1584
000120 98 3a 9a c0 74 46 12 c1 10 e7 82 c1 c9 af 8d c0
       -4.8196526 -9.1422 -16.362823 -4.427708
000130 00 00 00 00 18 46 45 c0 19 d6 38 c0 30 7c 9d c0
       0.0 -3.0824032 -2.8880675 -4.9214096
000140 8a 87 ec c1 ab 96 96 c0 00 00 00 00 ea 02 5a c1
       -29.566181 -4.705892 0.0 -13.625711
000150 36 37 31 c1 0b 86 6b 3d 16 4f 50 c0 28 a5 65 c1
       -11.075979 0.05750088 -3.254827 -14.352821
000160 00 00 00 00 f9 48 72 c1 00 00 00 00 13 07 3c bf
       0.0 -15.142816 0.0 -0.73448294
000170 00 00 00 00 00 00 00 00 00 00 00 00 00 00 00 00
       0.0 0.0 0.0 0.0
000180 35 27 b8 c0 08 5f 1a bf b3 46 95 3f 77 b8 30 c1
       -5.754786 -0.60301256 1.1662201 -11.045035
000190 c1 7c 88 c1 04 00 00 00 02 3e c3 c1 ab 8a 56 c1
       -17.060915 6e-45 -24.405277 -13.4088545
0001a0 19 21 6d c1 33 39 37 c1 00 00 00 00 00 00 00 00
       -14.8205805 -11.451465 0.0 0.0
0001b0 03 44 4a c1 6b e5 45 c1 d2 43 a6 c1 00 00 00 00
       -12.641604 -12.36851 -20.783115 0.0
0001c0 4c 82 4f c1 88 30 ba c0 73 e5 c5 3f 00 00 00 00
       -12.969311 -5.818424 1.5460647 0.0
0001d0 d4 6b 70 c1 1f 69 1c be bc 8d 4d c0 da 28 0e c1
       -15.026325 -0.15274476 -3.2117758 -8.884974
0001e0 88 42 51 c1 0d 96 b1 c0 79 73 80 c1 00 00 00 00
       -13.078743 -5.5495667 -16.056383 0.0
0001f0 00 00 00 00 00 00 00 00 7e c4 49 c0 00 00 00 00
       0.0 0.0 -3.152618 0.0
000200 b1 bc bb 41 8c a5 a0 40 88 9d 87 be c9 90 47 40
       23.467134 5.0202084 -0.26487374 3.118212
000210 65 ca 05 3d aa ca 75 40 00 00 00 00 50 3e 1c c0
       0.03266372 3.8404946 0.0 -2.4413033
000220 33 76 89 40 48 20 01 41 61 d4 49 41 e2 41 20 40
       4.2956786 8.070381 12.61435 2.5040212
000230 00 00 00 00 ef 46 39 40 75 8a 18 40 df 7b 5a 40
       0.0 2.8949544 2.3834507 3.4138105
000240 9e 6b bf 41 f8 84 34 40 00 00 00 00 20 39 3b 41
       23.927547 2.8206158 0.0 11.701447
000250 0b 2e f6 40 cd ad b9 be 90 2c 3d 40 7f 5a 4d 41
       7.6931205 -0.36265412 2.9558449 12.834594
000260 00 00 00 00 18 53 50 41 00 00 00 00 23 d4 01 bf
       0.0 13.020287 0.0 -0.5071432
000270 00 00 00 00 00 00 00 00 00 00 00 00 00 00 00 00
       0.0 0.0 0.0 0.0
000280 86 e7 5f 40 8f 9f 43 3e f2 89 f0 bf 75 0c eb 40
       3.498506 0.19103836 -1.8792098 7.3452706
000290 f7 ac 65 41 04 00 00 80 39 8d 90 41 39 93 2f 41
       14.354728 -6e-45 18.068956 10.973443
0002a0 e4 9c 3e 41 09 f8 18 41 00 00 00 00 00 00 00 00
       11.913303 9.560555 0.0 0.0
0002b0 59 23 18 41 d1 fb 27 41 8f 24 8a 41 00 00 00 00
       9.50863 10.498979 17.26785 0.0
0002c0 c9 80 38 41 34 c3 8c 40 5a c2 e3 bf 00 00 00 00
       11.531442 4.3988285 -1.7793686 0.0
0002d0 71 05 48 41 80 58 da bd b3 dc 26 40 75 6e 07 41
       12.501328 -0.10661411 2.6072204 8.464467
0002e0 34 16 32 41 d0 53 83 40 0a 6f 5b 41 00 00 00 00
       11.130421 4.103981 13.714609 0.0
0002f0 00 00 00 00 00 00 00 00 01 a2 e9 3f 00 00 00 00
       0.0 0.0 1.8252565 0.0
000300 af 8e 8d 41 98 d3 2c 40 04 a4 b8 3d d2 f6 5e 40
       17.69467 2.7004147 0.090156585 3.4838147
000310 27 be 00 3c ef 36 25 40 00 00 00 00 aa 52 52 bf
       0.007857836 2.5814779 0.0 -0.82157385
000320 43 6c 3c 40 2b 20 d2 40 d7 52 22 41 79 b1 2d 40
       2.9441078 6.5664268 10.145225 2.713957
000330 00 00 00 00 8c 53 0d 40 af a9 0b 40 7e 76 32 40
       0.0 2.2082243 2.1822317 2.7884822
000340 3c 78 9c 41 5a 01 1d 40 00 00 00 00 69 8f 08 41
       19.558708 2.4532075 0.0 8.535012
000350 76 06 f0 40 37 a3 4a 3d c0 5a 1a 40 12 31 22 41
       7.5007887 0.04947206 2.411789 10.13698
000360 00 00 00 00 0b 16 2a 41 00 00 00 00 ef ac af be
       0.0 10.630382 0.0 -0.34311625
000370 00 00 00 00 00 00 00 00 00 00 00 00 00 00 00 00
       0.0 0.0 0.0 0.0
000380 4b 63 6f 40 65 70 75 3f c4 be c8 be 71 83 ef 40
       3.7404354 0.95874625 -0.39208043 7.484795
000390 37 5a 2a 41 04 00 00 80 3e d6 82 41 0c 35 19 41
       10.647025 -6e-45 16.35461 9.575451
0003a0 19 07 2d 41 b1 9b da 40 00 00 00 00 00 00 00 00
       10.814233 6.8315053 0.0 0.0
0003b0 d1 81 16 41 a6 06 0c 41 57 22 65 41 00 00 00 00
       9.406693 8.751623 14.320884 0.0
0003c0 be ed 11 41 00 42 69 40 e3 52 aa bf 00 00 00 00
       9.120543 3.6446533 -1.3306545 0.0
0003d0 3f 36 1e 41 78 cc 81 bf 20 6e 3a 40 cd a1 c5 40
       9.888244 -1.0140524 2.9129715 6.176001
0003e0 d5 70 0a 41 c1 6f 1e 40 d7 a1 30 41 00 00 00 00
       8.652547 2.475571 11.039512 0.0
0003f0 00 00 00 00 00 00 00 00 97 8b 59 40 00 00 00 00
       0.0 0.0 3.399145 0.0

exp_avg_sq f4 [13, 64]
000000 e9 8f bd 3e 29 36 8d 3c 48 f8 60 3d 9f 57 f2 3c
       0.37023857 0.01723774 0.05492428 0.029582797
000010 ef 90 62 3a 36 b4 51 3c 00 00 00 00 d2 74 06 3e
       0.00086428126 0.012799313 0.0 0.13130501
000020 53 82 1c 3c 49 31 57 3d 54 e0 8a 3e 0a 50 ea 3d
       0.009552556 0.052537236 0.27124274 0.114410475
000030 00 00 00 00 c0 a1 c7 3c ec 1b d4 3d 48 eb 01 3e
       0.0 0.02436912 0.10356888 0.12687409
000040 43 3c 70 3f 50 77 47 3e 00 00 00 00 a0 e2 25 3e
       0.9384195 0.19479108 0.0 0.16199732
000050 aa 26 06 3f 32 e3 2d 3d 0d ab a3 3c 50 0c 5c 3d
       0.52402747 0.042453 0.019979024 0.05372268
000060 00 00 00 00 cf 30 08 3e 00 00 00 00 14 39 20 3e
       0.0 0.13299869 0.0 0.15646774
000070 00 00 00 00 00 00 00 00 00 00 00 00 00 00 00 00
       0.0 0.0 0.0 0.0
000080 fe a9 f4 3d 1f 21 8b 3b d4 06 ce 3d e8 65 ca 3e
       0.11946486 0.0042458917 0.10059896 0.39530873
000090 d8 24 8b 3e 9f 98 9e 30 80 2b b0 3f a2 e2 07 3e
       0.27176547 1.153939e-09 1.3763275 0.13270047
0000a0 ab 1c ec 3d 12 f6 86 3d 00 00 00 00 00 00 00 00
       0.115289055 0.06589903 0.0 0.0
0000b0 4a 01 a0 3e 70 ab bf 3d 81 a3 91 3e 00 00 00 00
       0.31250983 0.09358871 0.28445056 0.0
0000c0 d2 8c 8b 3d 88 65 43 3d e1 71 5a 3d 00 00 00 00
       0.06813969 0.04770425 0.05333126 0.0
0000d0 1c f9 4d 3e 6d 0a ac 3c 2f 20 90 3c 8c 92 0b 3d
       0.20114559 0.021001065 0.017593471 0.034075305
0000e0 f4 9e 64 3e f3 e7 3f 3d 56 c2 20 3e 00 00 00 00
       0.22326261 0.046852063 0.15699133 0.0
0000f0 00 00 00 00 00 00 00 00 54 27 8c 3c 00 00 00 00
       0.0 0.0 0.017108597 0.0
000100 18 88 80 48 b4 0f 0e 46 6a ba 2c 43 dc 0f 6e 45
       263232.75 9091.926 172.72818 3808.9912
000110 2f 3f d4 41 70 ea 0e 46 00 00 00 00 e8 d1 4e 44
       26.530851 9146.609 0.0 827.2798
000120 30 35 61 45 ca 77 cd 46 a8 4d f6 47 16 03 75 46
       3603.3242 26299.895 126107.31 15680.771
000130 00 00 00 00 7d 88 eb 45 2c b5 69 44 18 e4 ce 46
       0.0 7537.061 934.8308 26482.047
000140 1a 97 bd 48 45 31 05 47 00 00 00 00 39 b8 b5 47
       388280.8 34097.27 0.0 93040.445
000150 e3 73 a4 47 97 c4 07 41 e5 4d a2 45 d5 a9 2f 47
       84199.77 8.485496 5193.737 44969.832
000160 00 00 00 00 94 7e 8f 47 00 00 00 00 9e 69 65 46
       0.0 73469.16 0.0 14682.404
000170 00 00 00 00 00 00 00 00 00 00 00 00 00 00 00 00
       0.0 0.0 0.0 0.0
000180 37 62 96 46 24 b8 87 41 e6 06 51 45 e0 5e 7f 47
       19249.107 16.964912 3344.4312 65374.875
000190 5d fd 0c 48 2c 4a ce 31 e0 f8 9d 48 d7 54 54 47
       144373.45 6.0038214e-09 323527.0 54356.84
0001a0 8f e6 46 47 92 4a 39 47 00 00 00 00 00 00 00 00
       50918.56 47434.57 0.0 0.0
0001b0 48 73 25 47 a2 14 39 47 df aa 0c 48 00 00 00 00
       42355.28 47380.633 144043.48 0.0
0001c0 7f f5 37 47 96 bd 88 46 f4 d9 1a 45 00 00 00 00
       47093.496 17502.793 2477.622 0.0
0001d0 c0 1e bd 47 f6 bd d2 45 c0 7b 47 44 6e f1 ad 46
       96829.5 6743.745 797.9336 22264.715
0001e0 61 c0 ae 47 b9 00 b3 46 9c e8 b1 47 00 00 00 00
       89472.76 22912.361 91089.22 0.0
0001f0 00 00 00 00 00 00 00 00 f9 01 bb 44 00 00 00 00
       0.0 0.0 1496.0616 0.0
000200 58 4f 87 48 b4 07 18 46 99 2b 25 43 11 2a 70 45
       277114.75 9729.926 165.1703 3842.6292
000210 88 3a e4 41 2a f3 16 46 00 00 00 00 93 a7 49 44
       28.52858 9660.791 0.0 806.61835
000220 a0 43 6e 45 88 33 d8 46 dd d1 00 48 be 19 7c 46
       3812.2266 27673.766 131911.45 16134.436
000230 00 00 00 00 5e 6d fa 45 9c ba 6e 44 09 24 d7 46
       0.0 8013.671 954.9158 27538.018
000240 44 6c c6 48 8c ec 0a 47 00 00 00 00 82 81 bf 47
       406370.12 35564.547 0.0 98051.016
000250 fb c3 aa 47 d1 cf f0 40 6a ed aa 45 13 eb 38 47
       87431.96 7.525368 5469.677 47339.074
000260 00 00 00 00 ff a2 96 47 00 00 00 00 48 17 6d 46
       0.0 77125.99 0.0 15173.82
000270 00 00 00 00 00 00 00 00 00 00 00 00 00 00 00 00
       0.0 0.0 0.0 0.0
000280 03 f2 9a 46 ef ab 89 41 99 43 50 45 10 fc 83 47
       19833.006 17.208952 3332.2249 67576.125
000290 3a 32 14 48 9b 52 a9 31 63 9c a4 48 f7 8e 5d 47
       151752.9 4.9279385e-09 337123.1 56718.965
0002a0 a0 e6 4e 47 30 07 43 47 00 00 00 00 00 00 00 00
       52966.625 49927.188 0.0 0.0
0002b0 13 76 2a 47 54 e2 41 47 14 3e 13 48 00 00 00 00
       43638.074 49634.33 150776.31 0.0
0002c0 8f 5e 41 47 25 09 8f 46 52 08 1f 45 00 00 00 00
       49502.56 18308.572 2544.52 0.0
0002d0 98 77 c6 47 cc e1 de 45 a7 ca 46 44 7f 11 b9 46
       101615.19 7132.2246 795.16644 23688.748
0002e0 25 c0 b7 47 29 f2 bb 46 0a d3 ba 47 00 00 00 00
       94080.29 24057.08 95654.08 0.0
0002f0 00 00 00 00 00 00 00 00 9d d9 be 44 00 00 00 00
       0.0 0.0 1526.8004 0.0
000300 32 2b f6 47 d0 a2 87 45 28 fc c8 42 33 37 f6 44
       126038.39 4340.3516 100.49249 1969.725
000310 38 0b 73 41 d9 d9 89 45 00 00 00 00 22 8a ce 43
       15.190239 4411.231 0.0 413.07916
000320 c5 db e1 44 d5 5c 41 46 cd 91 6d 47 05 c7 ef 45
       1806.8678 12375.208 60817.8 7672.8774
000330 00 00 00 00 dd 07 57 45 b6 00 cf 43 92 53 46 46
       0.0 3440.4915 414.00555 12692.893
000340 dc 15 35 48 18 88 7b 46 00 00 00 00 68 1f 2c 47
       185431.44 16098.023 0.0 44063.406
000350 28 69 1c 47 76 b4 95 40 27 0c 15 45 54 a1 a8 46
       40041.156 4.678279 2384.7595 21584.664
000360 00 00 00 00 12 5e 08 47 00 00 00 00 d8 0e da 45
       0.0 34910.07 0.0 6977.8555
000370 00 00 00 00 00 00 00 00 00 00 00 00 00 00 00 00
       0.0 0.0 0.0 0.0
000380 d6 4e 13 46 a8 f9 f9 40 bd ab d7 44 5a 0d f7 46
       9427.709 7.8117256 1725.3668 31622.676
000390 f9 37 86 47 0d ef ca 32 3c 89 16 48 c5 e3 cb 46
       68719.945 2.3624603e-08 154148.94 26097.885
0003a0 e1 05 c1 46 14 8a b3 46 00 00 00 00 00 00 00 00
       24706.94 22981.04 0.0 0.0
0003b0 53 56 9f 46 a8 95 b0 46 15 c9 86 47 00 00 00 00
       20395.162 22602.828 69010.164 0.0
0003c0 5c 71 af 46 cb e5 02 46 24 5d 8f 44 00 00 00 00
       22456.68 8377.448 1146.9106 0.0
0003d0 90 03 34 47 8f a2 45 45 84 0e d5 43 1f db 21 46
       46083.562 3162.16 426.1134 10358.78
0003e0 2e 4d 24 47 2c 41 2d 46 6d a9 29 47 00 00 00 00
       42061.18 11088.293 43433.426 0.0
0003f0 00 00 00 00 00 00 00 00 eb 4b 39 44 00 00 00 00
       0.0 0.0 741.1862 0.0

exp_avg f4 [13]
000000 55 49 ac 3b c7 7b bd be a4 51 0f 3e 3d 97 8a 3e
       0.0052577653 -0.37008497 0.13995987 0.2706851
000010 1c 6d 32 be e5 9b 5f 22 56 4e 7c 20 2e 03 fd 22
       -0.17424434 3.0304665e-18 2.137115e-19 6.8579154e-18
000020 a1 ad f2 a3 52 7c 0f 28 9b 86 0f 28 ec 9f 55 1a
       -2.6311227e-17 7.965052e-15 7.9672825e-15 4.417655e-23
000030 49 35 ec 1a
       9.76934e-23

exp_avg_sq f4 [13]
000000 5a 06 e4 38 56 87 4e 41 3f 9d 58 41 b8 25 c5 40
       0.0001087307 12.908041 13.53839 6.1608543
000010 66 e6 5b 41 31 9a 2c 06 45 bf 5b 02 c3 fa 5c 07
       13.74375 3.2462886e-35 1.6144471e-37 1.6624653e-34
000020 71 50 4b 09 bb 23 8e 11 1d 38 8e 11 05 00 00 00
       2.447306e-33 2.242567e-28 2.2438232e-28 7e-45
000030 18 00 00 00
       3.4e-44
