Op_problems/problem_pooling/checkpoints/kkt_hardnet_checkpoint_epoch_600_loss_93.414337.pth (torch, 20835 bytes, 12 tensors)

nn.0.weight f4 [64, 4]
0.39808923 0.42344943 -0.061625306 0.44470868 -0.10588096 0.018780798 -0.34869096 0.3131152
1.070079 -0.41560206 0.4428734 -0.0009492686 0.85060906 0.042610295 0.21767908 -0.14923172
0.59957033 -0.17962225 -0.42561767 0.13692202 0.08521454 -0.06356549 -0.11579312 0.18546411
-0.3946851 -0.23050517 -0.14118737 -0.30063623 -0.06569091 -0.59687835 0.65794927 0.32126865
0.367003 -0.025782894 -0.33678114 0.1983828 0.052695703 0.40902945 0.084596895 -0.1741645
0.26798084 -0.16655642 0.41505843 0.5522426 0.17153314 -0.2347067 0.5277421 0.2215936
0.25391752 -0.30475253 -0.49495423 -0.19318026 -0.27740964 0.23190528 -0.14579184 -0.101617806
-0.65945 0.09375425 0.55895007 -0.24052273 -0.18070443 -0.2061823 0.51799935 0.30723304
0.2190732 0.37240493 0.8890686 0.34977624 -0.65671396 -0.2617931 0.64139146 0.40914324
0.48112535 -0.41263813 -0.49593806 -0.3911819 -0.32632872 0.14499195 0.13423693 0.3345867
-0.22836849 0.008850664 1.0370988 0.1138096 -0.71180975 -0.50125384 0.48555028 0.13751648
-0.21598543 0.2047887 0.13714065 -0.102923654 0.65621626 0.5661735 -0.22076483 -0.19017862
0.45783097 -0.16871625 -0.1772582 -0.4837973 0.30694905 0.5283081 0.16961667 -0.15667191
0.011728346 -0.34154075 -0.42419833 -0.27533132 -0.577532 -0.45717642 0.67629284 0.47757483
0.15407985 -0.46634215 -0.3283869 -0.16642791 0.07818556 -0.43996066 -0.21543652 -0.2993343
0.0013856292 -0.1860516 -0.034647882 -0.33881485 -0.34319758 -0.2917009 -0.17114872 -0.39464045
0.30333388 -0.18664435 0.49504927 0.16628516 0.057130534 0.43421018 0.060714304 -0.48847407
0.32007948 -0.5001456 0.6017087 0.3044677 0.3220925 -0.09102626 0.8940473 0.13680811
-0.24124216 0.10539803 0.30787906 0.473755 0.42225078 -0.42969 0.09260477 -0.24829192
-0.14894977 0.13960686 1.4855309 0.27617767 0.5546619 0.3887282 0.29451865 -0.1759636
0.9989752 0.45127043 0.23114885 -0.29087105 0.24530444 -0.05128698 -0.11447387 0.4463101
0.111474395 -0.2766382 -0.25306946 -0.02387786 0.27918065 -0.1277669 -0.28528744 -0.17122144
0.8322056 0.5056589 0.71337444 -0.5509579 0.34653163 0.40822867 0.17134869 -0.14741
0.5975349 0.49218994 0.34063336 -0.041032694 -0.13240063 0.05349046 -0.08832705 -0.14900053
0.39306518 0.4861368 -0.008224059 -0.1533693 -0.03351599 -0.04423939 0.21671835 0.18446462
-0.770177 -0.38688433 0.40273207 0.3803022 -0.024868786 -0.30145288 -0.30590254 -0.44788343
-0.0042500584 0.23714367 0.3140667 0.18170504 -0.74134547 -0.37465444 0.124796264 0.5826173
1.0519549 0.11899535 0.1346445 -0.32021537 -0.14352545 0.47364014 -0.20680536 -0.112478435
-0.43598467 0.29494596 0.3948245 0.11300953 -0.20026284 -0.3489409 0.12070823 0.611312
0.2927524 0.44726866 0.09664352 -0.079489574 -0.0048963428 -0.38025302 -0.4283861 -0.46767431
0.20468098 -0.245484 -0.10062629 -0.28775263 -0.09111178 -0.35191745 -0.32670784 0.16585541
0.7226185 0.44697177 0.11847949 -0.52900684 -0.088219464 -0.2423737 -0.15297079 -0.4759978
00000000: 5ad2 cb3e 5dce d83e d16a 7cbd dbb0 e33e
00000010: 1ed8 d8bd 30da 993c 9f87 b2be a350 a03e
00000020: 59f8 883f cbc9 d4be 4dc0 e23e 56d8 78ba
00000030: 84c1 593f 2288 2e3d 44e7 5e3e 33d0 18be
00000040: 717d 193f e5ee 37be 8fea d9be 4935 0c3e
00000050: f684 ae3d a02e 82bd f124 edbd 4eea 3d3e
00000060: 2a14 cabe 8c09 6cbe 6c93 10be feec 99be
00000070: f588 86bd 05cd 18bf 5d6f 283f 537d a43e
00000080: d1e7 bb3e a636 d3bc 946e acbe dc24 4b3e
00000090: 73d7 573d 4f6c d13e 2341 ad3d 2e58 32be
000000a0: c934 893e c48d 2abe 8a82 d43e c55f 0d3f
000000b0: 62a6 2f3e f456 70be 1b1a 073f 6fe9 623e
000000c0: 7a01 823e 8608 9cbe a46a fdbe 0cd1 45be
000000d0: a308 8ebe 9478 6d3e 754a 15be ff1c d0bd
000000e0: b7d1 28bf 3a02 c03d 5a17 0f3f 974b 76be
000000f0: 950a 39be 7421 53be 9b9b 043f a64d 9d3e
00000100: ba54 603e dcab be3e 009a 633f df15 b33e
00000110: 681e 28bf bf09 86be 3b32 243f 397b d13e
00000120: 1056 f63e 4e45 d3be 98eb fdbe fe48 c8be
00000130: 8f14 a7be c578 143e 6875 093e f34e ab3e
00000140: 6ed9 69be 6002 113c a7bf 843f 0215 e93d
00000150: 2a39 36bf 2c52 00bf 0c9a f83e 1fd1 0c3e
00000160: 492b 5dbe 21b4 513e 996e 0c3e a3c9 d2bd
00000170: cafd 273f bff0 103f 2d10 62be 2fbe 42be
00000180: d268 ea3e f4c3 2cbe 2c83 35be 48b4 f7be
00000190: 6d28 9d3e 333f 073f feaf 2d3e 9a6e 20be
000001a0: 4028 403c 6ede aebe 8630 d9be 3af8 8cbe
000001b0: 23d9 13bf 0713 eabe 8721 2d3f b084 f43e
000001c0: 1cc7 1d3e 66c4 eebe 5422 a8be 146c 2abe
000001d0: c01f a03d 8642 e1be 649b 5cbe 5842 99be
000001e0: 009e b53a 5084 3ebe f0ea 0dbd 2479 adbe
000001f0: 98b7 afbe d259 95be 9c41 2fbe 500e cabe
00000200: 944e 9b3e b21f 3fbe 1977 fd3e a846 2a3e
00000210: b501 6a3d cc50 de3e 90af 783d 4619 fabe
00000220: 75e1 a33e 8b09 00bf 9509 1a3f 31e3 9b3e
00000230: 4fe9 a43e fa6b babd 49e0 643f 6d17 0c3e
00000240: 2f08 77be ecda d73d 53a2 9d3e 0490 f23e
00000250: 4131 d83e 5400 dcbe 92a7 bd3d 3d40 7ebe
00000260: 4a86 18be 1af5 0e3e e025 be3f 2967 8d3e
00000270: 53fe 0d3f 6207 c73e 26cb 963e cd2f 34be
00000280: d7bc 7f3f eb0c e73e 49b2 6c3e 0ded 94be
00000290: 1631 7b3e 4c12 52bd 4771 eabd c282 e43e
000002a0: b04c e43d 86a3 8dbe 5292 81be 809b c3bc
000002b0: c4f0 8e3e 54d5 02be 3211 92be ac54 2fbe
000002c0: 6d0b 553f dd72 013f b59f 363f 940b 0dbf
000002d0: 986c b13e 5903 d13e 0876 2f3e a6f2 16be
000002e0: 0cf8 183f 5200 fc3e 7f67 ae3e e611 28bd
000002f0: 0894 07be d018 5b3d d0e4 b4bd 9893 18be
00000300: d73f c93e ece6 f83e 34be 06bc d70c 1dbe
00000310: 1048 09bd 5d34 35bd 6aeb 5d3e 4be4 3c3e
00000320: 522a 45bf b415 c6be e632 ce3e f8b6 c23e
00000330: a0b9 cbbc 0858 9abe 429f 9cbe fa50 e5be
00000340: 1344 8bbb cad5 723e 5acd a03e e310 3a3e
00000350: d1c8 3dbf b5d2 bfbe 2f95 ff3d 6826 153f
00000360: 75a6 863f d6b3 f33d 3fe0 093e 45f3 a3be
00000370: 56f8 12be f680 f23e c9c4 53be 185b e6bd
00000380: 6239 dfbe 2803 973e 7026 ca3e 8a71 e73d
00000390: b411 4dbe 62a8 b2be e035 f73d f17e 1c3f
000003a0: a4e3 953e 6600 e53e 0aed c53d 6ecb a2bd
000003b0: 8071 a0bb 86b0 c2be 6c55 dbbe 0273 efbe
000003c0: e497 513e 2860 7bbe 2815 cebd 5054 93be
000003d0: d098 babd 862e b4be 4046 a7be 00d6 293e
000003e0: 87fd 383f 7cd9 e43e 60a5 f23d fe6c 07bf
000003f0: 68ac b4bd d030 78be 60a4 1cbe fcb5 f3be

nn.0.bias f4 [64]
0.44487622 -0.11268761 -0.29245284 0.116891876 0.15944488 0.37721854 0.3595984 0.8476045
0.47778833 0.6777439 0.27340788 -1.3240414 -0.115115285 2.6368318 1.2255845 -2.8348672
-1.5506333 0.06914145 0.47285318 -0.021568563 -0.1390423 1.4848493 0.14063576 0.041798893
-0.11349183 0.38894615 -0.04373187 -2.6302974 -0.20438379 -0.15872943 -0.47515202 0.41025376
-0.23770384 0.7568717 0.115666926 -0.065075904 -1.3295408 -0.5198007 1.1179364 0.3100366
1.5755304 0.17448553 -0.16650558 -0.16176039 0.06971378 0.20327772 0.047552988 -0.23940295
-0.5103443 0.54791653 -1.8700606 0.13248974 -0.08937944 0.18146534 0.6620585 0.7697225
-0.03438463 0.40697476 0.5539217 0.13154167 0.33521235 0.49294376 -0.64248085 0.10377723
00000000: d1c6 e33e c3c8 e6bd 61bc 95be 0265 ef3d
00000010: 8545 233e ca22 c13e 481d b83e 9cfc 583f
00000020: aca0 f43e a080 2d3f 1efc 8b3e 307a a9bf
00000030: 90c1 ebbd dac1 2840 f4df 9c3f 776e 35c0
00000040: 277b c6bf 089a 8d3d d019 f23e 8eb0 b0bc
00000050: 1b61 0ebe 8b0f be3f d202 103e 5135 2b3d
00000060: 686e e8bd f323 c73e 3020 33bd cb56 28c0
00000070: fc49 51be f889 22be 2047 f3be c80c d23e
00000080: a368 73be 58c2 413f c8e2 ec3d 8446 85bd
00000090: 652e aabf a911 05bf 8a18 8f3f 1ebd 9e3e
000000a0: fbaa c93f 56ac 323e 7080 2abe 84a4 25be
000000b0: 19c6 8e3d 0928 503e ecc6 423d 0c26 75be
000000c0: eda5 02bf 4244 0c3f 255e efbf 64ab 073e
000000d0: 910c b7bd 0dd2 393e aa7c 293f 890c 453f
000000e0: e6d6 0cbd ff5e d03e d0cd 0d3f dcb2 063e
000000f0: f4a0 ab3e 2063 fc3e a079 24bf 2889 d43d

nn.2.weight f4 [13, 64]
0.007494493 -2.632177 2.6156404 0.33045453 -1.6939378 -0.28097266 -0.08542046 4.328164
-2.5414848 -1.4698563 1.7400639 4.758149 -0.09507568 -1.822005 -2.4732733 5.207871
2.6126842 3.6874118 -0.05785151 0.34230715 4.1220117 -2.2220159 -1.6475341 -3.2060325
-0.101044625 0.18370432 0.120729715 4.2254486 -0.083941 0.030299276 0.03445129 0.06848872
2.1724472 -4.9622397 7.891006 4.2963686 0.9505527 0.015927525 3.741582 -0.052645385
-0.41676843 0.65901685 -0.11269438 0.0055835396 -0.03198932 -0.7135098 0.07156081 -0.09479843
-1.2062924 1.3535349 3.594382 0.07211517 0.35162783 2.0229664 -4.4528646 -3.510933
0.1184476 4.4399867 -0.22553574 -0.11476326 0.0835769 -0.08816151 -11.049563 0.10578066
0.008905227 0.23051856 -0.5083945 -0.45528427 0.28628945 0.0374457 -0.025587529 0.515991
0.16357943 -0.06193309 0.10053737 -0.011669704 -0.1014687 -0.0054595005 -0.029548865 -0.08018222
0.007987706 0.2581255 0.009957463 0.046412338 -0.24809887 0.9552233 -0.21497095 -0.22923437
-0.063540176 -0.042741776 -0.036388844 0.20441777 0.11917873 0.04354036 0.08911279 -0.060514092
0.021278402 -0.028177457 0.99299204 -0.2763335 0.04691411 -0.0640927 0.02417748 -0.061780296
-0.03858522 0.09557845 -0.02176416 -0.11578412 -0.47473168 -0.08616573 -0.020341262 -0.01580219
-0.16909748 0.13622724 0.19432469 0.079002246 -0.03773161 0.3544836 -0.81624115 -0.09851594
-0.04633967 0.2203761 -0.033681568 0.097574934 0.12018506 -0.06089887 0.4440537 0.10028775
0.09174142 -0.071491025 0.075394794 0.13616693 -0.19355516 -0.05225249 0.033254325 0.03681475
-0.049289655 0.114804246 0.017636266 0.05178072 -0.0070767254 0.027015263 -0.0669918 -0.16808541
-0.2810055 -0.20539476 -0.103867546 -0.07242135 0.6398308 0.61649555 0.11077469 0.04280763
0.09443119 -0.37522358 -0.068778485 0.050356723 -0.064772844 -0.08435823 -0.039916754 0.026232406
0.106320776 -0.023255993 0.024885904 0.30860898 -0.0741386 -0.09655254 0.4809619 -0.0023735124
0.013113911 0.09456731 0.03738819 0.043019712 0.13701054 0.0026367225 -0.016574541 0.0017180145
0.0317609 0.12237074 -0.035707504 -0.052839473 -0.032441832 -0.006435374 0.50495017 0.05093468
0.103705786 0.1723607 -0.08716405 -0.0670881 -0.027463928 -0.023040518 0.41473338 -0.11474644
0.05187157 -0.035529055 0.027792947 -0.008474004 -0.11382872 -0.012438269 0.094295844 -0.29146108
-0.06268188 -0.004721853 0.05920198 0.3440519 0.09037687 -0.0822809 -0.25694278 0.36148414
0.13552591 0.35813436 0.03419137 0.020679135 0.23471002 -1.0358386 0.046846937 -0.31121728
-0.11756636 -0.35168484 -0.08512169 0.5531388 -0.07588592 -0.009025201 -0.027742833 0.02224423
0.1471927 -0.23951405 0.8236822 0.30275562 0.1889803 -0.0046282285 0.139338 -0.13703623
-0.52111095 0.10754151 -0.027308464 -0.08478154 -0.30352873 -0.070484616 0.014904781 0.124185756
0.0015981904 0.16585538 0.26729506 -0.10752657 -0.030127224 0.15654182 -0.28368035 -0.14625408
-0.056172695 0.1765913 -0.07019123 -0.123229235 -0.076726556 0.047663584 1.0812111 -0.037182853
00000000: 5d94 f53b 9775 28c0 a766 2740 5631 a93e
00000010: f4d2 d8bf a6db 8fbe ecf0 aebd 5280 8a40
00000020: b0a7 22c0 4024 bcbf 6aba de3f c242 9840
00000030: 0ab7 c2bd 7637 e9bf 1c4a 1ec0 e1a6 a640
00000040: 3836 2740 8efe 6b40 b4f5 6cbd e242 af3e
00000050: 85e7 8340 8235 0ec0 66e2 d2bf a32f 4dc0
00000060: 7cf0 cebd fc1c 3c3e 2441 f73d e036 8740
00000070: 42e9 abbd 3036 f83c cc1c 0d3d d043 8c3d
00000080: 6009 0b40 abca 9ec0 1f83 fc40 da7b 8940
00000090: 6c57 733f 717a 823c 1476 6f40 b0a2 57bd
000000a0: ac62 d5be 54b5 283f 50cc e6bd 20f6 b63b
000000b0: 3c07 03bd 94a8 36bf 798e 923d ae25 c2bd
000000c0: ca67 9abf a240 ad3f 5b0a 6640 1eb1 933d
000000d0: 9008 b43e 4878 0140 de7d 8ec0 20b3 60c0
000000e0: a894 f23d 5f14 8e40 d7f2 66be 0009 ebbd
000000f0: 5e2a ab3d 068e b4bd 03cb 30c1 88a3 d83d
00000100: 3be7 113c 0f0d 6c3e 2426 02bf 051b e9be
00000110: 8894 923e aa60 193d f09c d1bc fc17 043f
00000120: 5e81 273e 8dad 7dbd 89e6 cd3d 4932 3fbc
00000130: d2ce cfbd 9ce5 b2bb 7610 f2bc 9336 a4bd
00000140: dede 023c 0729 843e a024 233c dd1a 3e3d
00000150: a10d 7ebe 8489 743f 5821 5cbe 6abc 6abe
00000160: 5a21 82bd 0012 2fbd 780c 15bd e452 513e
00000170: fa13 f43d 6057 323d c480 b63d a0dd 77bd
00000180: 0b50 ae3c 69d4 e6bc ba34 7e3f 967b 8dbe
00000190: 0329 403d 0943 83bd da0f c63c 560d 7dbd
000001a0: 890b 1ebd a2be c33d c04a b2bc 3a20 edbd
000001b0: 0810 f3be a977 b0bd b8a2 a6bc 9873 81bc
000001c0: e427 2dbe 277f 0b3e 0dfd 463e eecb a13d
000001d0: 768c 1abd e07e b53e 2ef5 50bf bac2 c9bd
000001e0: aace 3dbd 46aa 613e aff5 09bd 5ed5 c73d
000001f0: 9623 f63d 1871 79bd 025b e33e aa63 cd3d
00000200: ede2 bb3d e369 92bd 9668 9a3d 586f 0b3e
00000210: 5333 46be b506 56bd b035 083d 10cb 163d
00000220: f3e3 49bd 7d1e eb3d ee79 903c 0518 543d
00000230: e0e3 e7bb 1d4f dd3c ff32 89bd 951e 2cbe
00000240: f4df 8fbe 0153 52be 82b8 d4bd a551 94bd
00000250: f4cb 233f a7d2 1d3f d7dd e23d 0e57 2f3d
00000260: 2465 c13d 4e1d c0be bcdb 8cbd da42 4e3d
00000270: a0a7 84bd 02c4 acbd c07f 23bd 58e5 d63c
00000280: b5be d93d 5a83 bebc 86dd cb3c ff01 9e3e
00000290: fad5 97bd 57bd c5bd a340 f63e ee8c 1bbb
000002a0: bbdb 563c 81ac c13d 5c24 193d 7035 303d
000002b0: 7e4c 0c3e ddcc 2c3b 55c7 87bc 002f e13a
000002c0: b817 023d 839d fa3d 0842 12bd 346e 58bd
000002d0: bae1 04bd d4df d2bb 6a44 013f e2a0 503d
000002e0: b363 d43d 537f 303e 1183 b2bd 7c65 89bd
000002f0: 08fc e0bc 78bf bcbc ef57 d43e 2e00 ebbd
00000300: 4977 543d ea86 11bd 09ae e33c 8dd6 0abc
00000310: 081f e9bd e2c9 4bbc 2e1e c13d 633a 95be
00000320: 5c5f 80bd c6b9 9abb c67d 723d 9227 b03e
00000330: 8217 b93d e382 a8bd 018e 83be 7314 b93e
00000340: 4ec7 0a3e 635d b73e 400c 0c3d 4a67 a93c
00000350: d357 703e 5c96 84bf 93e2 3f3d df57 9fbe
00000360: a2c6 f0bd 0910 b4be 4854 aebd 819a 0d3f
00000370: 146a 9bbd 70de 13bc f044 e3bc 8839 b63c
00000380: afb9 163e 2c43 75be d6dc 523f c902 9b3e
00000390: 0d84 413e 65a8 97bb 9fae 0e3e 3a53 0cbe
000003a0: 8767 05bf b93e dc3d 00b6 dfbc f2a1 adbd
000003b0: 1e68 9bbe 3d5a 90bd 2f33 743c 1a55 fe3d
000003c0: 5f7a d13a fed5 293e e6da 883e e436 dcbd
000003d0: 5ecd f6bc 804c 203e 8d3e 91be a1c3 15be
000003e0: 5715 66bd 5ad4 343e 6bc0 8fbd 9c5f fcbd
000003f0: d022 9dbd e43a 433d 2065 8a3f 0c4d 18bd

nn.2.bias f4 [13]
-4.747667 0.6936793 0.3061289 -0.78389513 -0.11353648 0.08573556 -0.09735878 0.11410265
0.00968872 0.06012062 0.097084515 0.10656364 -0.09744185
00000000: e3ec 97c0 f794 313f edbc 9c3e 5aad 48bf
00000010: d085 e8bd 2096 af3d 0a64 c7bd a6ae e93d
00000020: 70bd 1e3c 0a41 763d 3fd4 c63d 0a3e da3d
00000030: 988f c7bd

exp_avg f4 [64, 4]
2.2579842 15.170086 5.6900263 13.947796 -5.3031573 -33.901264 -12.304125 -31.20009
3.795856 19.53651 12.205553 10.857735 8.8709755 54.652733 22.445839 47.8775
-1.3797653 -4.329857 -2.6395848 -5.4301314 0.072423175 1.486725 0.66349304 1.3442978
0.0 0.0 0.0 0.0 -2.2851129 -5.5608063 -2.609025 -6.423492
-3.6951227 -25.494425 -10.270128 -24.020449 2.9084256 18.791315 7.0076466 17.390038
0.4587309 4.529421 1.7316858 3.987047 1.8426565 10.293725 4.366225 9.489923
0.0 0.0 0.0 0.0 0.1305037 1.260016 0.75462466 1.2449858
-2.4756331 -14.2530775 -5.9862113 -10.240812 -0.64957875 -7.0102363 -1.8259032 -6.084768
0.103283 1.8969891 1.5535655 2.1439312 -4.7205667 -31.252268 -11.424858 -28.761688
0.0 0.0 0.0 0.0 0.49707997 4.552885 1.9165748 4.2713647
9.174755 56.754673 20.98222 51.797775 0.45779708 2.4100056 1.0837137 3.095809
4.1636453 24.956675 9.555789 23.359943 5.591171 38.294132 15.104694 35.301693
0.0 0.0 0.0 0.0 -0.5711552 1.1575737 1.074281 1.2850515
0.0 0.0 0.0 0.0 -0.60209554 -5.938837 -1.9721942 -5.5266685
0.0 0.0 0.0 0.0 0.0 0.0 0.0 0.0
0.0 0.0 0.0 0.0 0.0 0.0 0.0 0.0
0.8692633 4.8088794 1.8532757 4.2576656 0.64810055 5.0487156 1.5839643 4.8362308
3.588551 27.312021 11.29274 28.596552 11.532013 74.50338 28.678476 68.8149
1.3742768 9.294345 3.9015424 8.806475 6e-45 6e-45 6e-45 6e-45
4.812782 31.442652 11.260825 28.20984 2.749643 20.093435 7.718662 18.516369
1.821062 17.464996 6.349852 15.587687 1.7636623 12.408558 4.5158315 11.343964
0.0 0.0 0.0 0.0 0.0 0.0 0.0 0.0
2.5402303 13.52634 5.5542817 12.079837 2.4730823 16.876118 6.513993 15.689233
3.0443048 21.388998 8.339377 19.850523 0.0 0.0 0.0 0.0
3.7576807 23.783522 9.223027 22.255833 1.8507415 13.171156 4.8766274 11.924938
-1.003326 -8.1162815 -1.9123626 -9.475478 0.0 0.0 0.0 0.0
1.8825523 13.476418 5.303204 12.508116 -9.083454 -63.325756 -26.181633 -56.449135
5.1179757 34.224957 16.213255 25.86086 3.0512288 20.261435 7.9357486 18.766918
1.1832502 7.74387 2.7566812 6.9975367 -3.872938 -26.831099 -11.021142 -24.8652
0.4542973 3.916425 1.6816701 3.7403765 0.0 0.0 0.0 0.0
0.0 0.0 0.0 0.0 0.0 0.0 0.0 0.0
-0.2619366 -7.926074 -3.7255912 -3.2249463 0.0 0.0 0.0 0.0
00000000: d082 1040 acb8 7241 b214 b640 2c2a 5f41
00000010: 77b3 a9c0 e59a 07c2 b2dd 44c1 c999 f9c1
00000020: 4eef 7240 c64a 9c41 f249 4341 48b9 2d41
00000030: 84ef 0d41 669c 5a42 1491 b341 8f82 3f42
00000040: 269c b0bf 308e 8ac0 f5ee 28c0 a3c3 adc0
00000050: 9a52 943d 014d be3f aeda 293f f311 ac3f
00000060: 0000 0000 0000 0000 0000 0000 0000 0000
00000070: 4a3f 12c0 20f2 b1c0 44fa 26c0 3f8d cdc0
00000080: e47c 6cc0 95f4 cbc1 7252 24c1 e129 c0c1
00000090: a523 3a40 9d54 9641 a43e e040 cc1e 8b41
000000a0: c7de ea3e 04f1 9040 e1a7 dd3f c72b 7f40
000000b0: 2bdc eb3f 19b3 2441 1db8 8b40 b9d6 1741
000000c0: 0000 0000 0000 0000 0000 0000 0000 0000
000000d0: c3a2 053e 3448 a13f 152f 413f b25b 9f3f
000000e0: c670 1ec0 9b0c 64c1 0b8f bfc0 5eda 23c1
000000f0: cb4a 26bf db53 e0c0 32b7 e9bf 6bb6 c2c0
00000100: 0a86 d33d 8ad0 f23f 3cdb c63f 2b36 0940
00000110: e20e 97c0 a504 fac1 38cc 36c1 f017 e6c1
00000120: 0000 0000 0000 0000 0000 0000 0000 0000
00000130: 4481 fe3e 3cb1 9140 5352 f53f 05af 8840
00000140: cccb 1241 c904 6342 96db a741 ec30 4f42
00000150: 6164 ea3e 883d 1a40 21b7 8a3f bc21 4640
00000160: 953c 8540 45a7 c741 83e4 1841 2ae1 ba41
00000170: dfea b240 312d 1942 d4ac 7141 ef34 0d42
00000180: 0000 0000 0000 0000 0000 0000 0000 0000
00000190: 3a37 12bf 602b 943f 0a82 893f 917c a43f
000001a0: 0000 0000 0000 0000 0000 0000 0000 0000
000001b0: ef22 1abf f40a bec0 dc70 fcbf 78da b0c0
000001c0: 0000 0000 0000 0000 0000 0000 0000 0000
000001d0: 0000 0000 0000 0000 0000 0000 0000 0000
000001e0: 0000 0000 0000 0000 0000 0000 0000 0000
000001f0: 0000 0000 0000 0000 0000 0000 0000 0000
00000200: 0a88 5e3f 57e2 9940 2338 ed3f cc3e 8840
00000210: ebe9 253f 148f a140 58bf ca3f 67c2 9a40
00000220: d2aa 6540 057f da41 10af 3441 bdc5 e441
00000230: 2083 3841 bb01 9542 856d e541 3ba1 8942
00000240: 4de8 af3f a3b5 1441 dfb2 7940 52e7 0c41
00000250: 0400 0000 0400 0000 0400 0000 0400 0000
00000260: 4f02 9a40 8d8a fb41 572c 3441 c1ad e141
00000270: 27fa 2f40 5bbf a041 47ff f640 8621 9441
00000280: 8f18 e93f 50b8 8b41 fd31 cb40 2a67 7941
00000290: b0bf e13f 7489 4641 b181 9040 e080 3541
000002a0: 0000 0000 0000 0000 0000 0000 0000 0000
000002b0: 0000 0000 0000 0000 0000 0000 0000 0000
000002c0: 2293 2240 e36b 5841 adbc b140 0347 4141
000002d0: fb46 1e40 4a02 8741 a172 d040 1907 7b41
000002e0: e4d5 4240 ab1c ab41 176e 0541 dfcd 9e41
000002f0: 0000 0000 0000 0000 0000 0000 0000 0000
00000300: d77d 7040 a744 be41 8591 1341 f20b b241
00000310: 19e5 ec3f 0ebd 5241 550d 9c40 8ccc 3e41
00000320: fd6c 80bf 4adc 01c1 4cc8 f4bf 8f9b 17c1
00000330: 0000 0000 0000 0000 0000 0000 0000 0000
00000340: 79f7 f03f 689f 5741 d9b3 a940 3e21 4841
00000350: d455 11c1 934d 7dc2 fc73 d1c1 eacb 61c2
00000360: 75c6 a340 5be6 0842 bfb4 8141 0be3 ce41
00000370: 5547 4340 6b17 a241 a7f1 fd40 a622 9641
00000380: be74 973f c8cd f740 776d 3040 d2eb df40
00000390: 37de 77c0 17a6 d6c1 9956 30c1 eeeb c6c1
000003a0: a899 e83e b5a6 7a40 f740 d73f 5462 6f40
000003b0: 0000 0000 0000 0000 0000 0000 0000 0000
000003c0: 0000 0000 0000 0000 0000 0000 0000 0000
000003d0: 0000 0000 0000 0000 0000 0000 0000 0000
000003e0: 8e1c 86be 66a2 fdc0 1670 6ec0 8565 4ec0
000003f0: 0000 0000 0000 0000 0000 0000 0000 0000

exp_avg_sq f4 [64, 4]
303.32178 15021.507 2503.5505 15156.575 1374.2314 66898.945 10742.548 68190.086
1855.0233 34829.46 10259.217 37040.71 4600.4976 192278.25 36669.062 186194.22
220.20987 4459.865 138.28894 7045.098 1.279631 80.72927 16.05473 79.912796
0.0 0.0 0.0 0.0 246.38205 11305.165 3274.588 12621.056
565.98584 25043.258 3704.4485 26420.043 498.25128 25039.607 4175.388 25208.307
12.91736 630.6023 102.4841 634.8722 246.02194 10694.542 1941.4304 11017.6
0.0 0.0 0.0 0.0 0.9661622 77.649956 12.212148 69.67361
161.44868 14787.177 3781.786 12541.882 56.614223 3889.1624 631.92206 3640.7378
18.169231 1167.8154 211.56381 1154.8685 1242.8419 65916.555 10862.573 65685.92
0.0 0.0 0.0 0.0 5.7934294 320.6708 52.69165 314.39948
5758.3867 282951.62 48181.195 286384.2 13.26568 1246.7979 1214.628 1682.8699
998.3822 49167.156 8327.909 49705.117 1443.4948 75774.65 12392.786 75474.8
0.0 0.0 0.0 0.0 201.71376 9275.63 1755.3602 9539.216
0.0 0.0 0.0 0.0 18.504795 1234.1348 233.466 1073.3386
0.0 0.0 0.0 0.0 0.0 0.0 0.0 0.0
0.0 0.0 0.0 0.0 0.0 0.0 0.0 0.0
77.16421 3507.623 624.3009 3597.6743 5.9292192 486.0899 110.20162 314.3318
738.41364 26209.06 5210.145 27729.09 7562.479 369680.12 62396.137 373841.28
83.94939 3719.5378 634.1367 3813.3445 4.2497373e-12 1.00576915e-10 2.1222224e-09 8.571448e-12
1768.1742 87396.21 14779.854 88389.72 335.04117 17613.143 2866.6562 17522.318
127.002815 8405.904 1329.7288 7901.472 210.42418 10243.8125 1698.9056 10366.159
0.0 0.0 0.0 0.0 0.0 0.0 0.0 0.0
365.37527 19173.09 3492.322 18623.35 284.05872 14554.05 2398.5781 14566.925
435.5552 21823.014 3596.634 21921.674 0.0 0.0 0.0 0.0
716.2103 35618.273 5974.283 35894.41 252.87424 12105.159 2021.4229 12289.175
87.369965 8208.642 1685.7253 8611.966 0.0 0.0 0.0 0.0
148.52025 7561.8813 1241.065 7566.4663 3456.4026 176312.88 28826.225 179953.61
2622.0796 72302.19 15676.773 65232.38 460.76392 24089.809 3932.8647 24033.627
89.07947 4627.7803 773.215 4637.2646 576.51624 29963.09 4891.7207 29870.232
2.7261286 180.09813 30.416817 168.9688 0.0 0.0 0.0 0.0
0.0 0.0 0.0 0.0 0.0 0.0 0.0 0.0
154.24481 5225.7793 1223.1724 4711.1113 0.0 0.0 0.0 0.0
00000000: 30a9 9743 07b6 6a46 cf78 1c45 4dd2 6c46
00000010: 68c7 ab44 79a9 8247 31da 2746 0b2f 8547
00000020: bfe0 e744 760d 0847 de4c 2046 b6b0 1047
00000030: fbc3 8f45 90c5 3b48 103d 0f47 8ed4 3548
00000040: ba35 5c43 ec5e 8b45 f849 0a43 c928 dc45
00000050: f3ca a33f 6375 a142 1670 8041 5ad3 9f42
00000060: 0000 0000 0000 0000 0000 0000 0000 0000
00000070: ce61 7643 a9a4 3046 68a9 4c45 3934 4546
00000080: 187f 0d44 84a6 c346 2d87 6745 1668 ce46
00000090: 2a20 f943 379f c346 1b7b 8245 9df0 c446
000000a0: 82ad 4e41 8ca6 1d44 dcf7 cc42 d2b7 1e44
000000b0: 9e05 7643 2b1a 2746 c6ad f244 6626 2c46
000000c0: 0000 0000 0000 0000 0000 0000 0000 0000
000000d0: 6856 773f c74c 9b42 f564 4341 e358 8b42
000000e0: dd72 2143 b50c 6746 935c 6c45 87f7 4346
000000f0: f774 6242 9912 7345 03fb 1d44 ce8b 6345
00000100: 965a 9141 18fa 9144 5690 5343 cb5b 9044
00000110: f15a 9b44 47be 8047 4bba 2946 f64a 8047
00000120: 0000 0000 0000 0000 0000 0000 0000 0000
00000130: c663 b940 dd55 a043 40c4 5242 2233 9d43
00000140: 18f3 b345 f428 8a48 3235 3c47 06d6 8b48
00000150: 3a40 5441 88d9 9b44 19d4 9744 d65b d244
00000160: 7698 7944 280f 4047 a31f 0246 1e29 4247
00000170: d56f b444 53ff 9347 25a3 4146 6669 9347
00000180: 0000 0000 0000 0000 0000 0000 0000 0000
00000190: b9b6 4943 85ee 1046 876b db44 dd0c 1546
000001a0: 0000 0000 0000 0000 0000 0000 0000 0000
000001b0: d209 9441 5044 9a44 4c77 6943 d62a 8644
000001c0: 0000 0000 0000 0000 0000 0000 0000 0000
000001d0: 0000 0000 0000 0000 0000 0000 0000 0000
000001e0: 0000 0000 0000 0000 0000 0000 0000 0000
000001f0: 0000 0000 0000 0000 0000 0000 0000 0000
00000200: 1354 9a42 f839 5b45 4213 1c44 cada 6045
00000210: 2abc bd40 820b f343 3b67 dc42 782a 9d43
00000220: 799a 3844 1fc2 cc46 29d1 a245 2ea2 d846
00000230: d553 ec45 0482 b448 23bc 7347 298a b648
00000240: 16e6 a742 9b78 6845 c088 1e44 8355 6e45
00000250: 3b86 952c c52b dd2e 88d6 1131 5fca 162d
00000260: 9305 dd44 1bb2 aa47 6aef 6646 dca2 ac47
00000270: 4585 a743 499a 8946 802a 3345 a3e4 8846
00000280: 7101 fe42 9e57 0346 5237 a644 c7eb f645
00000290: 976c 5243 400f 2046 fb5c d444 a3f8 2146
000002a0: 0000 0000 0000 0000 0000 0000 0000 0000
000002b0: 0000 0000 0000 0000 0000 0000 0000 0000
000002c0: 09b0 b643 2eca 9546 2745 5a45 b37e 9146
000002d0: 8407 8e43 3368 6346 40e9 1545 b39b 6346
000002e0: 11c7 d943 077e aa46 25ca 6045 5943 ab46
000002f0: 0000 0000 0000 0000 0000 0000 0000 0000
00000300: 760d 3344 4622 0b47 44b2 ba45 6936 0c47
00000310: cedf 7c43 a324 3d46 88ad fc44 b304 4046
00000320: 6cbd ae42 9142 0046 36b7 d244 dd8f 0646
00000330: 0000 0000 0000 0000 0000 0000 0000 0000
00000340: 2f85 1443 0d4f ec45 1422 9b44 bb73 ec45
00000350: 7106 5845 382e 2c48 7334 e146 67bc 2f48
00000360: 46e1 2345 1837 8d47 18f3 7446 61d0 7e47
00000370: c861 e643 9e33 bc46 d6cd 7545 41c3 bb46
00000380: b028 b242 3e9e 9045 c34d 4144 1eea 9045
00000390: 0a21 1044 2e16 ea46 c4dd 9845 775c e946
000003a0: e478 2e40 1f19 3443 a455 f341 03f8 2843
000003b0: 0000 0000 0000 0000 0000 0000 0000 0000
000003c0: 0000 0000 0000 0000 0000 0000 0000 0000
000003d0: 0000 0000 0000 0000 0000 0000 0000 0000
000003e0: ac3e 1a43 3c4e a345 84e5 9844 e438 9345
000003f0: 0000 0000 0000 0000 0000 0000 0000 0000

exp_avg f4 [64]
0.08687603 -0.22693583 0.1770348 0.34217456 -0.035763443 0.0051427474 0.0 -0.08291371
-0.18842165 0.09975799 0.030098615 0.12874225 0.0 -0.008975036 -0.085648865 0.058499295
0.06534747 -0.13928793 0.0 0.030944247 0.37292406 -0.017224438 0.16194953 0.20455939
0.0 0.0055841603 0.0 0.02195866 0.0 0.0 0.0 0.0
0.048104413 0.003774455 0.18434832 0.5165807 0.081548676 6e-45 0.18546616 0.11218222
0.047714274 0.067648605 0.0 0.0 0.09555296 0.09878396 0.13265145 0.0
0.15312628 0.07684114 -0.020993136 0.0 0.086614616 -0.39570564 0.18252413 0.093106575
0.03866925 -0.15492743 0.025539817 0.0 0.0 0.0 -0.08636776 0.0
00000000: 0fec b13d de61 68be 9c48 353e 8131 af3e
00000010: b07c 12bd 7e84 a83b 0000 0000 aace a9bd
00000020: 9bf1 40be eb4d cc3d 5f91 f63c 02d5 033e
00000030: 0000 0000 080c 13bc ac68 afbd f59c 6f3d
00000040: e5d4 853d 7fa1 0ebe 0000 0000 ca7e fd3c
00000050: e7ef be3e 441a 8dbc 19d6 253e 0478 513e
00000060: 0000 0000 55fb b63b 0000 0000 a6e2 b33c
00000070: 0000 0000 0000 0000 0000 0000 0000 0000
00000080: 2209 453d d95c 773b cec5 3c3e a23e 043f
00000090: fe02 a73d 0400 0000 d7ea 3d3e cbbf e53d
000000a0: 0b70 433d 5a8b 8a3d 0000 0000 0000 0000
000000b0: 45b1 c33d 3f4f ca3d c8d5 073e 0000 0000
000000c0: 23cd 1c3e e35e 9d3d ccf9 abbc 0000 0000
000000d0: 0163 b13d ee99 cabe 9be7 3a3e a9ae be3d
000000e0: a663 1e3d 4ca5 1ebe e138 d13c 0000 0000
000000f0: 0000 0000 0000 0000 95e1 b0bd 0000 0000

exp_avg_sq f4 [64]
0.61636466 2.6699176 1.7532498 7.783458 0.23791263 0.0031101236 0.0 0.564145
0.9807829 1.0252614 0.026104804 0.4526579 0.0 0.0033192777 0.6045304 0.16802229
0.04927264 2.6869092 0.0 0.013089849 11.610998 0.18181266 2.0171082 3.0923395
0.0 0.37947875 0.0 0.054599922 0.0 0.0 0.0 0.0
0.145721 0.017910395 1.1630237 15.20554 0.15605481 2.7032914e-13 3.582908 0.71973544
0.34124106 0.42053863 0.0 0.0 0.76518095 0.59572256 0.8959726 0.0
1.4614481 0.49854997 0.37496334 0.0 0.31021953 7.2286015 2.8833473 0.9818927
0.18874362 1.2241075 0.00721131 0.0 0.0 0.0 0.20843416 0.0
00000000: 13ca 1d3f eedf 2a40 7d6a e03f 1712 f940
00000010: 5e9f 733e 37d3 4b3b 0000 0000 cf6b 103f
00000020: 9714 7b3f c43b 833f bed9 d53c c7c2 e73e
00000030: 0000 0000 3d88 593b 81c2 1a3f 090e 2c3e
00000040: 1cd2 493d 52f6 2b40 0000 0000 ce76 563c
00000050: a6c6 3941 192d 3a3e 4d18 0140 e4e8 4540
00000060: 0000 0000 0a4b c23e 0000 0000 2ba4 5f3d
00000070: 0000 0000 0000 0000 0000 0000 0000 0000
00000080: e337 153e d2b8 923c f6dd 943f e449 7341
00000090: d5cc 1f3e 892e 982a 5d4e 6540 9540 383f
000000a0: 26b7 ae3e d750 d73e 0000 0000 0000 0000
000000b0: e6e2 433f 4681 183f 765e 653f 0000 0000
000000c0: bb10 bb3f f141 ff3e 32fb bf3e 0000 0000
000000d0: 18d5 9e3e b450 e740 c388 3840 525d 7b3f
000000e0: 0246 413e 8eaf 9c3f da4c ec3b 0000 0000
000000f0: 0000 0000 0000 0000 c46f 553e 0000 0000

exp_avg f4 [13, 64]
0.28786922 0.098118305 0.044312686 0.049434755 0.007280311 0.037254557 0.0 0.034102622
0.067168005 0.13039888 0.1727326 0.05664927 0.0 0.062804244 0.12763858 0.07083112
0.38997328 0.120030575 0.0 0.16979475 0.21573822 0.06813934 0.07231872 0.15022315
0.0 0.19771078 0.0 0.04638861 0.0 0.0 0.0 0.0
0.065623656 0.09910918 0.015212148 0.16715997 0.21370246 -6e-45 0.40466815 0.16360065
0.16240309 0.10931239 0.0 0.0 0.213202 0.15313573 0.24799514 0.0
0.1435145 0.07837294 0.029985746 0.0 0.19791123 0.047845095 0.06947311 0.13862245
0.2091429 0.06409815 0.17696024 0.0 0.0 0.0 0.13130015 0.0
-58.849823 -10.709345 -1.5463209 -8.868736 0.30838072 -5.531989 0.0 -0.30945528
-5.974039 -19.416885 -37.5729 -13.539492 0.0 -3.0371146 -1.2743602 -15.568967
-71.317535 -17.59118 0.0 -30.295334 -32.382996 -0.19166325 -8.438919 -27.379704
0.0 -33.137615 0.0 -9.478303 0.0 0.0 0.0 0.0
-14.4660225 -2.2193382 -4.800314 -29.7247 -41.22678 6e-45 -64.47431 -28.959166
-29.915928 -24.503695 0.0 0.0 -27.631512 -26.380318 -45.75361 0.0
-26.583202 -14.271333 -0.9993453 0.0 -35.218475 -6.296186 -5.0102563 -17.832117
-32.02983 -16.110329 -30.739626 0.0 0.0 0.0 -7.9284596 0.0
50.459473 9.852015 0.90410197 6.9408307 -0.33360973 4.623768 0.0 -1.1169523
5.15358 17.155212 30.153126 9.900482 0.0 2.873489 0.43326157 12.120319
59.430626 13.152493 0.0 25.775097 25.443039 -0.2476111 7.4979672 24.520153
0.0 28.750238 0.0 6.183788 0.0 0.0 0.0 0.0
10.614496 1.9423417 2.4885457 22.911476 34.71767 -6e-45 51.661446 24.537306
25.183413 20.455383 0.0 0.0 22.80503 22.778027 38.870987 0.0
23.60436 11.392846 -0.211236 0.0 29.686714 4.4503603 4.101811 16.439337
27.225025 12.4607 26.643698 0.0 0.0 0.0 6.6306005 0.0
36.928844 6.5207167 0.9561248 5.506392 -0.32126936 3.3831398 0.0 0.9587931
3.5073173 12.103155 23.804787 8.687634 0.0 1.8051374 0.22797447 9.896135
44.85698 11.214599 0.0 19.008362 20.513819 0.10165303 5.248907 17.053137
0.0 20.690638 0.0 6.1855664 0.0 0.0 0.0 0.0
9.277325 1.29747 3.6486561 18.897858 25.927467 -6e-45 40.7592 18.169329
18.777342 15.395599 0.0 0.0 16.83574 16.5078 28.711496 0.0
16.573994 9.048916 0.8244716 0.0 22.127422 3.877795 3.0950015 11.022398
20.081839 10.232881 19.204216 0.0 0.0 0.0 5.055648 0.0
00000000: 9863 933e 40f2 c83d 3881 353d 197c 4a3d
00000010: ad8f ee3b 3c98 183d 0000 0000 31af 0b3d
00000020: 618f 893d 4987 053e d1e0 303e 1109 683d
00000030: 0000 0000 839f 803d b0b3 023e e80f 913d
00000040: 94aa c73e 97d2 f53d 0000 0000 adde 2d3e
00000050: 7bea 5c3e a38c 8b3d d61b 943d 19d4 193e
00000060: 0000 0000 b274 4a3e 0000 0000 fc01 3e3d
00000070: 0000 0000 0000 0000 0000 0000 0000 0000
00000080: b265 863d c1f9 ca3d 603c 793c fc2b 2b3e
00000090: d1d4 5a3e 0400 0080 aa30 cf3e ee86 273e
000000a0: ff4c 263e 2ddf df3d 0000 0000 0000 0000
000000b0: a051 5a3e 9dcf 1c3e 70f2 7d3e 0000 0000
000000c0: 77f5 123e fe81 a03d aba4 f53c 0000 0000
000000d0: 3ea9 4a3e 38f9 433d eb47 8e3d 0bf3 0d3e
000000e0: 8e29 563e e445 833d 1135 353e 0000 0000
000000f0: 0000 0000 0000 0000 8c73 063e 0000 0000
00000100: 3866 6bc2 7a59 2bc1 d8ed c5bf 58e6 0dc1
00000110: 14e4 9d3e 0e06 b1c0 0000 0000 ec70 9ebe
00000120: 542b bfc0 c855 9bc1 a64a 16c2 c2a1 58c1
00000130: 0000 0000 1660 42c0 3c1e a3bf 7d1a 79c1
00000140: 94a2 8ec2 bdba 8cc1 0000 0000 d85c f2c1
00000150: 3088 01c2 5f43 44be d005 07c1 a209 dbc1
00000160: 0000 0000 eb8c 04c2 0000 0000 21a7 17c1
00000170: 0000 0000 0000 0000 0000 0000 0000 0000
00000180: d474 67c1 a309 0ec0 2c9c 99c0 30cc edc1
00000190: 39e8 24c2 0400 0000 d9f2 80c2 5fac e7c1
000001a0: d253 efc1 9107 c4c1 0000 0000 0000 0000
000001b0: 560d ddc1 e40a d3c1 b203 37c2 0000 0000
000001c0: 66aa d4c1 6157 64c1 18d5 7fbf 0000 0000
000001d0: b8df 0cc2 5b7a c9c0 0554 a0c0 2da8 8ec1
000001e0: 8c1e 00c2 f4e1 80c1 c1ea f5c1 0000 0000
000001f0: 0000 0000 0000 0000 f1b5 fdc0 0000 0000
00000200: 80d6 4942 daa1 1d41 3a73 673f 491b de40
00000210: e5ce aabe e8f5 9340 0000 0000 4bf8 8ebf
00000220: 21ea a440 e03d 8941 9a39 f141 6068 1e41
00000230: 0000 0000 3ee7 3740 76d4 dd3e d4ec 4141
00000240: f6b8 6d42 9c70 5241 0000 0000 6633 ce41
00000250: 588b cb41 c48d 7dbe 59ef ef40 4629 c441
00000260: 0000 0000 7d00 e641 0000 0000 97e1 c540
00000270: 0000 0000 0000 0000 0000 0000 0000 0000
00000280: fad4 2941 a79e f83f 5544 1f40 b44a b741
00000290: e5de 0a42 0400 0080 52a5 4e42 674c c441
000002a0: a177 c941 a0a4 a341 0000 0000 0000 0000
000002b0: b470 b641 6639 b641 e47b 1b42 0000 0000
000002c0: bbd5 bc41 1949 3641 404e 58be 0000 0000
000002d0: 647e ed41 5a69 8e40 0942 8340 c383 8341
000002e0: dacc d941 075f 4741 4b26 d541 0000 0000
000002f0: 0000 0000 0000 0000 e12d d440 0000 0000
00000300: 23b7 1342 b6a9 d040 98c4 743f 5d34 b040
00000310: 6b7d a4be 5d85 5840 0000 0000 7773 753f
00000320: e377 6040 86a6 4141 3470 be41 8d00 0b41
00000330: 0000 0000 be0e e73f 2472 693e 9256 1e41
00000340: 8c6d 3342 ff6e 3341 0000 0000 2011 9841
00000350: 4d1c a441 772f d03d 0cf7 a740 d36c 8841
00000360: 0000 0000 6d86 a541 0000 0000 29f0 c540
00000370: 0000 0000 0000 0000 0000 0000 0000 0000
00000380: ec6f 1441 7f13 a63f 9583 6940 d02e 9741
00000390: 746b cf41 0400 0080 6c09 2342 c95a 9141
000003a0: ff37 9641 6054 7641 0000 0000 0000 0000
000003b0: 98af 8641 f90f 8441 25b1 e541 0000 0000
000003c0: 8a97 8441 5cc8 1041 9210 533f 0000 0000
000003d0: f604 b141 cb2d 7840 8114 4640 be5b 3041
000003e0: 9ba7 a041 e1b9 2341 3ca2 9941 0000 0000
000003f0: 0000 0000 0000 0000 dec7 a140 0000 0000

exp_avg_sq f4 [13, 64]
0.34670353 0.01671096 0.05585982 0.030896397 0.00015404398 0.0053792037 0.0 0.12287302
0.006251073 0.04620715 0.2541057 0.118375815 0.0 0.0057337033 0.11291025 0.12393909
0.94010735 0.19387442 0.0 0.13221967 0.542162 0.048184447 0.019154504 0.050059814
0.0 0.13119504 0.0 0.15340763 0.0 0.0 0.0 0.0
0.1167369 0.011290368 0.11356099 0.4120485 0.25549942 9.4605886e-11 1.4075266 0.13228098
0.11905286 0.064903095 0.0 0.0 0.3209333 0.08897152 0.27988672 0.0
0.060983546 0.046110734 0.03891974 0.0 0.1920397 0.02222286 0.01672052 0.029634822
0.2037854 0.051096793 0.11408766 0.0 0.0 0.0 0.024818845 0.0
251866.4 9923.448 142.4379 3625.0168 23.331568 3672.6345 0.0 794.0907
3219.6646 24705.533 113311.72 14927.591 0.0 1657.4641 1054.2969 23475.22
377383.94 32755.098 0.0 78895.42 82824.11 9.364584 5192.717 43578.06
0.0 72446.59 0.0 13513.874 0.0 0.0 0.0 0.0
16268.903 225.65974 3568.789 64513.91 137358.8 4.9222354e-10 316803.6 52430.926
50196.133 45894.97 0.0 0.0 41958.234 44897.496 139618.83 0.0
44790.49 16382.648 1391.6677 0.0 92712.23 7472.165 673.87854 21349.61
82266.82 24953.553 69891.21 0.0 0.0 0.0 2083.0337 0.0
263619.53 10530.351 135.70541 3645.3008 24.943493 3861.2854 0.0 761.69763
3389.6453 25861.22 117749.125 15255.072 0.0 1779.4191 1068.2101 24232.22
392622.88 33912.793 0.0 82654.86 85462.77 8.085773 5437.5967 45662.64
0.0 75636.6 0.0 13834.929 0.0 0.0 0.0 0.0
16639.06 235.16515 3525.8801 66300.42 143492.42 4.0401751e-10 328091.25 54429.527
51965.785 48002.48 0.0 0.0 43041.24 46791.312 145358.5 0.0
46847.633 17025.57 1404.2377 0.0 96717.56 7816.9443 667.3467 22595.428
85971.04 25994.66 73042.58 0.0 0.0 0.0 2125.5244 0.0
119955.766 4715.5244 82.52081 1856.0819 13.217587 1780.2487 0.0 403.9433
1602.415 11554.844 54500.836 7289.4824 0.0 729.9719 469.0843 11236.896
179443.05 15464.963 0.0 37220.215 39290.543 5.399246 2376.439 20740.992
0.0 34228.844 0.0 6457.2764 0.0 0.0 0.0 0.0
7959.008 95.62413 1838.1782 31083.582 65123.492 1.9368642e-09 150462.19 25015.787
24179.398 22120.613 0.0 0.0 20080.629 21284.117 66504.35 0.0
21208.545 7819.4346 647.26654 0.0 43929.344 3515.8271 357.3437 9869.557
38537.56 12039.23 33110.883 0.0 0.0 0.0 998.8225 0.0
00000000: 2083 b13e 6ce5 883c 44cd 643d 711a fd3c
00000010: de86 2139 0844 b03b 0000 0000 daa4 fb3d
00000020: cdd5 cc3b b543 3d3d 241a 823e 056f f23d
00000030: 0000 0000 cae1 bb3b 7d3d e73d c7d3 fd3d
00000040: e0aa 703f 0487 463e 0000 0000 9864 073e
00000050: 21cb 0a3f 0e5d 453d e8e9 9c3c 850b 4d3d
00000060: 0000 0000 fe57 063e 0000 0000 e416 1d3e
00000070: 0000 0000 0000 0000 0000 0000 0000 0000
00000080: c113 ef3d 3cfb 383c aa92 e83d 05f8 d23e
00000090: d2d0 823e 610a d02e d529 b43f aa74 073e
000000a0: fcd1 f33d eaeb 843d 0000 0000 0000 0000
000000b0: 5f51 a43e b336 b63d 504d 8f3e 0000 0000
000000c0: e2c9 793d 9cde 3c3d 4e6a 1f3d 0000 0000
000000d0: 0ea6 443e b70c b63c 79f9 883c bac4 f23c
000000e0: 1fad 503e df4a 513d cba6 e93d 0000 0000
000000f0: 0000 0000 0000 0000 e450 cb3c 0000 0000
00000100: 9af6 7548 cb0d 1b46 1a70 0e43 4590 6245
00000110: 0da7 ba41 278a 6545 0000 0000 ce85 4644
00000120: a23a 4945 1103 c146 dc4f dd47 5d3e 6946
00000130: 0000 0000 da2e cf44 80c9 8344 7166 b746
00000140: fe44 b848 32e6 ff46 0000 0000 b617 9a47
00000150: 0ec4 a147 56d5 1541 bc45 a245 0f3a 2a47
00000160: 0000 0000 4c7f 8d47 0000 0000 7f27 5346
00000170: 0000 0000 0000 0000 0000 0000 0000 0000
00000180: 9d33 7e46 e5a8 6143 a00c 5f45 e901 7c47
00000190: b323 0648 274d 0730 73b0 9a48 edce 4c47
000001a0: 2214 4447 f846 3347 0000 0000 0000 0000
000001b0: 3ce6 2347 7f61 2f47 b558 0848 0000 0000
000001c0: 7df6 2e47 98fa 7f46 5ef5 ad44 0000 0000
000001d0: 1d14 b547 5281 e945 3a78 2844 38cb a646
000001e0: 69ad a047 1bf3 c246 9b81 8847 0000 0000
000001f0: 0000 0000 0000 0000 8a30 0245 0000 0000
00000200: 71b8 8048 6789 2446 96b4 0743 d0d4 6345
00000210: 468c c741 9154 7145 0000 0000 a66c 3e44
00000220: 53da 5345 710a ca46 90fa e547 4a5c 6e46
00000230: 0000 0000 696d de44 b986 8544 7150 bd46
00000240: dcb5 bf48 cb78 0447 0000 0000 6e6f a147
00000250: 63eb a647 545f 0141 c6ec a945 a45e 3247
00000260: 0000 0000 4dba 9347 0000 0000 b72b 5846
00000270: 0000 0000 0000 0000 0000 0000 0000 0000
00000280: 1ffe 8146 472a 6b43 155e 5c45 367e 8147
00000290: 1b21 0c48 691c de2f 6833 a048 879d 5447
000002a0: c9fd 4a47 7b82 3b47 0000 0000 0000 0000
000002b0: 3d21 2847 50c7 3647 a0f3 0d48 0000 0000
000002c0: a2ff 3647 2403 8546 9b87 af44 0000 0000
000002d0: c8e6 bc47 8e47 f445 30d6 2644 db86 b046
000002e0: 85e9 a747 5215 cb46 4aa9 8e47 0000 0000
000002f0: 0000 0000 0000 0000 64d8 0445 0000 0000
00000300: e249 ea47 325c 9345 a80a a542 9f02 e844
00000310: 3d7b 5341 f587 de44 0000 0000 bef8 c943
00000320: 484d c844 608b 3446 d6e4 5447 dccb e345
00000330: 0000 0000 347e 3644 ca8a ea43 9693 2f46
00000340: c33c 2f48 daa3 7146 0000 0000 3764 1147
00000350: 8b7a 1947 a0c6 ac40 0687 1445 fc09 a246
00000360: 0000 0000 d8b4 0547 0000 0000 36ca c945
00000370: 0000 0000 0000 0000 0000 0000 0000 0000
00000380: 10b8 f845 8e3f bf42 b4c5 e544 2ad7 f246
00000390: 7e63 7e47 ad19 0531 8cef 1248 936f c346
000003a0: cce6 bc46 3ad1 ac46 0000 0000 0000 0000
000003b0: 42e1 9c46 3c48 a646 2de4 8147 0000 0000
000003c0: 17b1 a546 7a5b f445 0fd1 2144 0000 0000
000003d0: 5899 2b47 3cbd 5b45 feab b243 3a36 1a46
000003e0: 8f89 1647 ec1c 3c46 e256 0147 0000 0000
000003f0: 0000 0000 0000 0000 a4b4 7944 0000 0000

exp_avg f4 [13]
0.009225269 -0.52765536 0.26456112 0.3519726 -0.48241445 -4.9283996e-26 -4.6629352e-27 -9.697459e-26
-3.9183264e-26 -5.4335704e-23 -5.43759e-23 4.2753376e-32 2.1617104e-31
00000000: 9525 173c 6c14 07bf 8e74 873e c135 b43e
00000010: 07ff f6be e30a 7495 c8b7 b893 f318 f095
00000020: b006 4295 2c60 839a 0d79 839a fcfc 5d0b
00000030: 934d 8c0c

exp_avg_sq f4 [13]
0.00010662348 12.649578 13.180711 6.010423 13.199192 2.672158e-36 1.3302098e-38 1.3685796e-35
2.0196403e-34 2.3619531e-29 2.363029e-29 7e-45 3.5e-44
00000000: 0c9b df38 ac64 4a41 31e4 5241 6355 c040
00000010: e42f 5341 7352 6304 d6d8 9000 4888 9105
00000020: 663a 8607 cf87 ef0f bea3 ef0f 0500 0000
00000030: 1900 0000
