Op_problems/problem_pooling/checkpoints/kkt_hardnet_checkpoint_epoch_750_loss_92.089059.pth (torch, 20835 bytes, 12 tensors)

nn.0.weight f4 [64, 4]
000000 8c ad cc 3e 26 ab d5 3e 88 21 82 bd f7 46 e2 3e
       0.39976156 0.41732138 -0.06354052 0.44194767
000010 e0 ec a6 bd 7a ce d1 3c 4e 7d ba be 02 ea a0 3e
       -0.08150649 0.025611151 -0.36423725 0.31428534
000020 f3 a6 89 3f f4 e2 d8 be 88 0e df 3e c6 c5 36 3c
       1.0754074 -0.42360651 0.43565774 0.011155551
000030 eb b4 5d 3f 6b f0 32 3d 4b a9 56 3e f5 fb 17 be
       0.86604184 0.04368631 0.20963018 -0.14842208
000040 7e 3f 12 3f b0 73 55 be 68 44 cd be 94 b6 23 3e
       0.5712813 -0.20844913 -0.40091252 0.15987617
000050 f5 72 6b 3d 61 85 71 bd d2 82 05 be 63 02 3e 3e
       0.05748268 -0.05896509 -0.13038185 0.18555598
000060 2a 14 ca be 8c 09 6c be 6c 93 10 be fe ec 99 be
       -0.3946851 -0.23050517 -0.14118737 -0.30063623
000070 9e a4 6f 3d 29 9a 22 bf 4e de 19 3f 55 6f b6 3e
       0.0585066 -0.6351648 0.60104835 0.35631815
000080 6d 27 cf 3e 5f f9 87 bc d0 47 bd be 9f ed 42 3e
       0.40459767 -0.016598402 -0.3696885 0.19035958
000090 5e 3f 3b 3d 80 f9 cf 3e b2 06 a2 3d f8 d2 35 be
       0.04571473 0.4062004 0.07911433 -0.1775626
0000a0 9d d1 a8 3e 03 67 56 be 52 55 dc 3e 23 d7 0a 3f
       0.32972422 -0.20937733 0.43033844 0.5423452
0000b0 b4 56 44 3e 49 24 78 be de 8f 08 3f a2 2e 69 3e
       0.191737 -0.24232592 0.53344524 0.22771695
0000c0 7a 01 82 3e 86 08 9c be a4 6a fd be 0c d1 45 be
       0.25391752 -0.30475253 -0.49495423 -0.19318026
0000d0 09 31 90 be 0e 62 95 3e 98 95 73 be b4 31 e8 bd
       -0.2816241 0.29176372 -0.23787534 -0.11337605
0000e0 79 83 23 bf e5 41 ce 3d 27 91 10 3f a6 de 80 be
       -0.63872486 0.10071162 0.56471485 -0.25169867
0000f0 d8 97 36 be 17 1b 5f be 80 a9 03 3f e2 69 9b 3e
       -0.17831361 -0.21787678 0.5143051 0.3035422
000100 1d d3 57 3e 79 fb c0 3e b5 1d 64 3f 15 1c b1 3e
       0.21076627 0.37691858 0.8910783 0.34591737
000110 da a4 28 bf ec e4 88 be 7a 82 23 3f a2 0a d0 3e
       -0.65876544 -0.26737154 0.63870966 0.40633112
000120 10 56 f6 3e 4e 45 d3 be 98 eb fd be fe 48 c8 be
       0.48112535 -0.41263813 -0.49593806 -0.3911819
000130 2c 11 ae be 2f 79 fa 3d 1f 48 f3 3d 57 4b 9f 3e
       -0.33997476 0.12230145 0.118789904 0.31112167
000140 4c 3b 5f be 62 0e 9e 3b ae 1d 85 3f 73 d2 eb 3d
       -0.21799964 0.004823492 1.0399683 0.115147494
000150 5f 5f 3c bf 60 91 0a bf d8 a0 f4 3e 17 95 25 3e
       -0.73583025 -0.54128075 0.47778964 0.16170155
000160 5a b0 63 be 18 a9 53 3e 9a f4 05 3e 2f db d2 bd
       -0.22235242 0.20669973 0.1308159 -0.10295712
000170 ad 87 26 3f 74 db 11 3f b1 01 6a be 47 21 41 be
       0.65050775 0.56975484 -0.22852208 -0.1886035
000180 d2 68 ea 3e f4 c3 2c be 2c 83 35 be 48 b4 f7 be
       0.45783097 -0.16871625 -0.1772582 -0.4837973
000190 8c 30 9d 3e 86 40 09 3f 4a f1 30 3e 47 f9 25 be
       0.307011 0.5361408 0.17279544 -0.16208373
0001a0 40 28 40 3c 6e de ae be 86 30 d9 be 3a f8 8c be
       0.011728346 -0.34154075 -0.42419833 -0.27533132
0001b0 4f 5e 05 bf 0b 90 ff be 56 4d 2a 3f b5 1b ff 3e
       -0.5209703 -0.49914584 0.66524255 0.49825826
0001c0 1c c7 1d 3e 66 c4 ee be 54 22 a8 be 14 6c 2a be
       0.15407985 -0.46634215 -0.3283869 -0.16642791
0001d0 c0 1f a0 3d 86 42 e1 be 64 9b 5c be 58 42 99 be
       0.07818556 -0.43996066 -0.21543652 -0.2993343
0001e0 00 9e b5 3a 50 84 3e be f0 ea 0d bd 24 79 ad be
       0.0013856292 -0.1860516 -0.034647882 -0.33881485
0001f0 98 b7 af be d2 59 95 be 9c 41 2f be 50 0e ca be
       -0.34319758 -0.2917009 -0.17114872 -0.39464045
000200 9a 3b a7 3e 0c 53 4b be f7 08 fe 3e e6 64 31 3e
       0.3266266 -0.19855899 0.49616215 0.17323646
000210 88 1c fa 3d 25 37 f8 3e c4 f3 24 3e d5 fd 11 bf
       0.12212473 0.48479572 0.16108614 -0.5702794
000220 b7 f7 b6 3e 92 17 f7 be d2 a5 1d 3f 8f 02 91 3e
       0.35735866 -0.4826017 0.61581147 0.28322265
000230 e9 e6 a8 3e d2 68 bb bd e1 c3 65 3f ee a7 0e 3e
       0.3298867 -0.09150852 0.8975201 0.13931248
000240 62 2b 7f be e5 df cc 3d dd dd 9a 3e ee f6 f0 3e
       -0.24918893 0.10003642 0.30247393 0.47063392
000250 41 31 d8 3e 54 00 dc be 92 a7 bd 3d 3d 40 7e be
       0.42225078 -0.42969 0.09260477 -0.24829192
000260 cb 32 05 be 96 45 06 3e a9 d6 be 3f cf fa 8d 3e
       -0.13007657 0.13112482 1.4909259 0.27730414
000270 a6 b7 0f 3f ee 28 c6 3e d5 cf 97 3e 1a ee 35 be
       0.561396 0.38703102 0.2965075 -0.1776661
000280 89 14 85 3f 46 5f e4 3e 21 86 7b 3e 65 8b 96 be
       1.0396892 0.44603938 0.24562885 -0.29403225
000290 ce fd 81 3e 98 eb 6f bd 2b d1 c3 bd 4e 8b e3 3e
       0.2538895 -0.05857429 -0.0956138 0.4444222
0002a0 b0 4c e4 3d 86 a3 8d be 52 92 81 be 80 9b c3 bc
       0.111474395 -0.2766382 -0.25306946 -0.02387786
0002b0 c4 f0 8e 3e 54 d5 02 be 32 11 92 be ac 54 2f be
       0.27918065 -0.1277669 -0.28528744 -0.17122144
0002c0 47 da 59 3f c4 63 02 3f 29 d7 30 3f c2 d7 0b bf
       0.8509869 0.5093348 0.6907831 -0.54626095
0002d0 b8 04 af 3e f6 64 d0 3e b1 b6 2b 3e 41 a7 1a be
       0.34183288 0.40702027 0.1676891 -0.15102865
0002e0 9d 6b 19 3f c1 83 fb 3e 5b 9d ae 3e 5a 72 2a bd
       0.5992983 0.49123958 0.34104428 -0.04161296
0002f0 08 94 07 be d0 18 5b 3d d0 e4 b4 bd 98 93 18 be
       -0.13240063 0.05349046 -0.08832705 -0.14900053
000300 68 de c4 3e 36 4d f9 3e cb f8 51 bc 28 3f 1f be
       0.38450933 0.4869172 -0.0128156645 -0.15551436
000310 6d 4c 97 bc c6 1c 66 bd 8c 0b 61 3e 94 21 3c 3e
       -0.01846906 -0.056179784 0.21977061 0.18372184
000320 d9 a8 4a bf ef e3 c5 be 2e d6 cb 3e 7a 73 c5 3e
       -0.7916389 -0.38650462 0.39811844 0.38564664
000330 a0 b9 cb bc 08 58 9a be 42 9f 9c be fa 50 e5 be
       -0.024868786 -0.30145288 -0.30590254 -0.44788343
000340 4f 62 f7 ba 81 58 6f 3e 29 5f a0 3e 59 60 36 3e
       -0.0018873903 0.23373605 0.313226 0.17810191
000350 2e 89 3b bf a8 c1 b4 be 73 7e 2c 3e ed 54 17 3f
       -0.73256195 -0.35303998 0.16845112 0.5911396
000360 c4 8a 8b 3f 49 74 d0 3d 2e 4d 04 3e 08 9b 9d be
       1.0901723 0.1017843 0.12920067 -0.30782342
000370 23 0b 29 be 20 07 f4 3e d5 e0 66 be a3 28 ed bd
       -0.16508155 0.47661686 -0.22546704 -0.115800165
000380 d6 f6 dc be 60 ea 8f 3e d7 22 c7 3e 3f 4d d4 3d
       -0.4315707 0.281085 0.38893768 0.10366296
000390 24 23 36 be e4 b8 b1 be df 6a 25 3e f6 6a 1c 3f
       -0.17786843 -0.34711373 0.1615405 0.6110071
0003a0 b4 24 60 3e 70 a8 dd 3e 3c c7 62 3d 95 6d 01 be
       0.21889001 0.4329257 0.055365786 -0.12639458
0003b0 80 71 a0 bb 86 b0 c2 be 6c 55 db be 02 73 ef be
       -0.0048963428 -0.38025302 -0.4283861 -0.46767431
0003c0 e4 97 51 3e 28 60 7b be 28 15 ce bd 50 54 93 be
       0.20468098 -0.245484 -0.10062629 -0.28775263
0003d0 d0 98 ba bd 86 2e b4 be 40 46 a7 be 00 d6 29 3e
       -0.09111178 -0.35191745 -0.32670784 0.16585541
0003e0 aa 64 34 3f ff f5 fc 3e ce 1c 15 3e 02 38 17 bf
       0.704661 0.4940643 0.1456177 -0.59069836
0003f0 68 ac b4 bd d0 30 78 be 60 a4 1c be fc b5 f3 be
       -0.088219464 -0.2423737 -0.15297079 -0.4759978

nn.0.bias f4 [64]
000000 57 a1 e4 3e b1 67 59 bd 4f c0 c4 be 3e 18 a6 3d
       0.44654343 -0.053077403 -0.3842797 0.081100926
000010 45 ba 27 3e ff c3 24 3f 48 1d b8 3e 7f fd 8c 3f
       0.1637965 0.64361566 0.3595984 1.1014861
000020 61 af 08 3f 8f 1e 35 3f f3 97 1e 3e e5 48 ce bf
       0.53392607 0.70749754 0.15487652 -1.6115996
000030 90 c1 eb bd 78 30 47 40 6f 4e a7 3f 1f f0 66 c0
       -0.115115285 3.1123333 1.3070811 -3.6084058
000040 75 05 16 c0 bd 4a 50 bc d0 19 f2 3e 3d 84 3d be
       -2.344083 -0.0127131315 0.47285318 -0.18507476
000050 1e 67 2d be 94 6d e3 3f 4f d9 eb 3d bd 75 9f 3d
       -0.16933867 1.7767816 0.11516058 0.07786129
000060 68 6e e8 bd 34 d4 b9 3e 30 20 33 bd b7 dd 59 c0
       -0.11349183 0.3629471 -0.04373187 -3.4041574
000070 fc 49 51 be f8 89 22 be 20 47 f3 be c8 0c d2 3e
       -0.20438379 -0.15872943 -0.47515202 0.41025376
000080 53 5d c6 be 2c aa 9e 3f e4 d6 91 3d c7 67 f7 bd
       -0.38743076 1.2395682 0.07121065 -0.12080341
000090 43 13 c4 bf a9 11 05 bf 1e d0 8e 3f 35 0b a3 3e
       -1.5318378 -0.5198007 1.1157262 0.31844488
0000a0 7d ed e7 3f 73 17 4d 3e 70 80 2a be 84 a4 25 be
       1.8119351 0.20028476 -0.16650558 -0.16176039
0000b0 25 79 ba 3c 32 20 4a 3e d0 c7 9b 3c 0c 26 75 be
       0.022762844 0.19738844 0.019016176 -0.23940295
0000c0 db e4 0a bf d9 ce 0a 3f 3d 49 f8 bf 64 ab 07 3e
       -0.54255456 0.54221874 -1.939735 0.13248974
0000d0 b5 bc 0f be 7e 36 6a 3e db 81 33 3f 1e 66 5b 3f
       -0.1403683 0.2287235 0.7012002 0.85702693
0000e0 75 f8 12 bb ca 42 d3 3e 16 64 ca 3e dc b2 06 3e
       -0.0022425924 0.41261894 0.39529485 0.13154167
0000f0 f4 a0 ab 3e 20 63 fc 3e 31 45 86 be 28 89 d4 3d
       0.33521235 0.49294376 -0.26224664 0.10377723

nn.2.weight f4 [13, 64]
000000 df 47 7f 3d a7 96 85 c0 f6 af 21 40 d9 71 1b 3f
       0.0623244 -4.17464 2.5263648 0.6072059
000010 99 17 83 c0 25 dd 85 bf ec f0 ae bd ac a6 91 40
       -4.0966306 -1.0458113 -0.08542046 4.5515957
000020 28 ed 95 c0 83 62 e7 bf dd 49 09 40 ad fd aa 40
       -4.6851997 -1.8076938 2.1451333 5.3434663
000030 0a b7 c2 bd 67 31 98 c0 c9 b6 48 c0 3c a5 b8 40
       -0.09507568 -4.7560306 -3.1361563 5.77017
000040 bd 24 35 40 ea 1a 7c 40 b4 f5 6c bd 86 4f b5 3e
       2.8303673 3.9391427 -0.05785151 0.35412234
000050 fe f9 8a 40 c4 35 3d c0 8e 0a 00 c0 f5 62 69 c0
       4.3430166 -2.9564066 -2.0006442 -3.6466649
000060 7c f0 ce bd 74 5f ca 3d 24 41 f7 3d 98 23 9a 40
       -0.101044625 0.098814875 0.120729715 4.816845
000070 42 e9 ab bd 30 36 f8 3c cc 1c 0d 3d d0 43 8c 3d
       -0.083941 0.030299276 0.03445129 0.06848872
000080 25 5e 2c 40 80 52 e8 c0 8c e4 08 41 4a 9a 94 40
       2.6932461 -7.260071 8.555798 4.643834
000090 1c 2f 92 3f 71 7a 82 3c c3 b7 7b 40 79 83 72 3d
       1.1420627 0.015927525 3.933091 0.059207413
0000a0 90 de 9b be 2e 1e 4a 3f 50 cc e6 bd 20 f6 b6 3b
       -0.3044324 0.789523 -0.11269438 0.0055835396
0000b0 40 0c 86 bd 4d d4 3a bf 72 c6 42 3e ae 25 c2 bd
       -0.06545305 -0.72980195 0.19021013 -0.09479843
0000c0 f8 34 a8 bf 79 d4 cc 3f f6 85 6d 40 1e b1 93 3d
       -1.3141165 1.6002342 3.7113013 0.07211517
0000d0 3d 9f ea 3e 34 b1 0a 40 96 41 aa c0 c1 73 98 c0
       0.45824614 2.1670656 -5.320506 -4.76413
0000e0 f9 64 b4 3d 8d c9 9c 40 dc 41 af be 00 09 eb bd
       0.088083215 4.8996034 -0.34229934 -0.11476326
0000f0 5e 2a ab 3d 06 8e b4 bd 6a 5a 4e c1 88 a3 d8 3d
       0.0835769 -0.08816151 -12.897074 0.10578066
000100 5a 77 ec 3b 26 41 63 3e ef ae 08 bf de 70 e9 be
       0.0072163763 0.22192821 -0.5339193 -0.45593923
000110 dd fa a2 3e c2 1b 2b 3d f0 9c d1 bc 29 9e 03 3f
       0.31832018 0.04177452 -0.025587529 0.5141321
000120 6c f8 30 3e 6a 56 83 bd 6e 2b d4 3d e7 c9 ab bb
       0.17282265 -0.064129665 0.10359846 -0.0052425745
000130 d2 ce cf bd 9b 2d 0e bd 46 5b 80 bc a6 74 b2 bd
       -0.1014687 -0.03471146 -0.015668523 -0.08713655
000140 79 b7 8f 3b 0e f7 83 3e a0 24 23 3c c7 3e 38 3d
       0.0043858853 0.25774425 0.009957463 0.044981744
000150 3f 11 7c be 56 a7 7d 3f 82 22 5d be 33 72 6d be
       -0.24615954 0.9908346 -0.21595195 -0.23188095
000160 5a 21 82 bd 44 96 48 bd 78 0c 15 bd e0 19 51 3e
       -0.063540176 -0.04897143 -0.036388844 0.20420027
000170 fa 13 f4 3d 60 57 32 3d c4 80 b6 3d a0 dd 77 bd
       0.11917873 0.04354036 0.08911279 -0.060514092
000180 f8 53 fa 3c 5a 15 a0 bd df b1 7a 3f 50 56 8b be
       0.030557618 -0.078165725 0.9792766 -0.2721429
000190 05 2b 38 3d 09 43 83 bd 9c cc cf 3c ad 77 7f bd
       0.0449629 -0.0640927 0.02536612 -0.06236999
0001a0 5c 52 17 bd 08 22 ce 3d c0 4a b2 bc 3a 20 ed bd
       -0.03694378 0.10065085 -0.02176416 -0.11578412
0001b0 0a 4e f2 be 04 3e b4 bd 28 8f b4 bc 98 73 81 bc
       -0.47325164 -0.08800891 -0.022040918 -0.01580219
0001c0 dc b2 31 be 79 ce 11 3e 26 86 69 3e ee cb a1 3d
       -0.17353386 0.1423892 0.2280508 0.079002246
0001d0 ab e6 1e bd 73 91 b3 3e 05 63 51 bf 60 0e ce bd
       -0.0387942 0.35071906 -0.81791717 -0.100613356
0001e0 6c f1 45 bd e3 8a 63 3e 9e 0c 15 bd 5e d5 c7 3d
       -0.04832594 0.2222095 -0.036388986 0.097574934
0001f0 96 23 f6 3d 18 71 79 bd cf 72 c8 3e aa 63 cd 3d
       0.12018506 -0.06089887 0.39150092 0.10028775
000200 be a8 b8 3d 10 a7 ac bd c5 88 57 3b d2 4b 0e 3e
       0.0901656 -0.08430302 0.0032887917 0.1389611
000210 48 95 87 be 6e e9 67 bd b0 35 08 3d 68 10 74 3d
       -0.2648108 -0.0566191 0.033254325 0.05958596
000220 e9 ca 86 bd f6 1e d7 3d 7f db af 3c 67 ca 6b 3d
       -0.06581671 0.10503952 0.021466969 0.057566073
000230 e0 e3 e7 bb 43 ca 5d 3d de b4 e6 bd 49 db 25 be
       -0.0070767254 0.05414797 -0.112649664 -0.16196932
000240 21 92 8f be 61 7a 49 be 82 b8 d4 bd 77 35 9a bd
       -0.28041175 -0.1967559 -0.103867546 -0.07529729
000250 55 03 24 3f 3f 48 34 3f 4e df bf 3d c1 c7 0d 3d
       0.64067584 0.7042274 0.09368764 0.03461433
000260 24 65 c1 3d c6 4e c1 be bc db 8c bd 9e 5e 7d 3d
       0.09443119 -0.37755412 -0.068778485 0.061857812
000270 a0 a7 84 bd 02 c4 ac bd c0 7f 23 bd 58 e5 d6 3c
       -0.064772844 -0.08435823 -0.039916754 0.026232406
000280 6d 06 e8 3d 25 33 07 bb b4 c1 1c 3d 89 f4 9f 3e
       0.113293506 -0.002062985 0.038270667 0.31241253
000290 fd 4c 9b bd 57 bd c5 bd 07 fe f6 3e c9 ce c7 bb
       -0.07583044 -0.09655254 0.48240682 -0.0060976488
0002a0 9b 84 3b 3c 11 44 bf 3d 5c 24 19 3d 70 35 30 3d
       0.01144519 0.093391545 0.03738819 0.043019712
0002b0 45 78 05 3e d2 10 52 bb d1 47 9d bc 00 2f e1 3a
       0.1303416 -0.0032053483 -0.019199284 0.0017180145
0002c0 c5 52 c1 3c 1e 11 fc 3d 57 f6 45 bd 34 6e 58 bd
       0.023599038 0.12307952 -0.04833063 -0.052839473
0002d0 1d d7 0e bd 8c bf 90 3b 26 18 ee 3e 74 6e 18 3d
       -0.034873117 0.0044173654 0.465028 0.03721471
0002e0 6f f9 ca 3d 09 77 3b 3e b8 34 bd bd 7c 65 89 bd
       0.09910857 0.18307127 -0.09238571 -0.0670881
0002f0 08 fc e0 bc 78 bf bc bc fc 57 ea 3e 2e 00 eb bd
       -0.027463928 -0.023040518 0.45770252 -0.11474644
000300 a7 3d 5b 3d cd 39 9e bc 79 76 64 3d 7a ca 11 bc
       0.053525593 -0.019314671 0.055777047 -0.008898372
000310 16 2a e0 bd 94 6b e1 bb 2e 1e c1 3d 4d 6b de be
       -0.10945527 -0.0068792794 0.094295844 -0.4344124
000320 c4 5f 83 bd 88 d5 ea bb a3 d1 6c 3d dc de ad 3e
       -0.0641475 -0.007166568 0.057817113 0.3395909
000330 82 17 b9 3d 6e 4a 96 bd 1e 87 77 be 42 68 be 3e
       0.09037687 -0.07338415 -0.24172637 0.37188917
000340 59 c6 0d 3e a3 c7 b9 3e 40 0c 0c 3d 9d 57 c1 3c
       0.13845195 0.36285123 0.03419137 0.023601348
000350 91 82 6d 3e 97 c3 8b bf 6f c2 32 3d ef 77 a0 be
       0.23194338 -1.0919064 0.043642458 -0.31341502
000360 a2 c6 f0 bd b9 b2 b2 be 48 54 ae bd 72 11 10 3f
       -0.11756636 -0.3490198 -0.08512169 0.5627662
000370 14 6a 9b bd 70 de 13 bc f0 44 e3 bc 88 39 b6 3c
       -0.07588592 -0.009025201 -0.027742833 0.02224423
000380 42 93 0d 3e 96 e0 78 be 17 b4 4d 3f c1 45 98 3e
       0.13825706 -0.24304423 0.8035292 0.29740718
000390 9c 02 45 3e 65 a8 97 bb a6 9c 0c 3e b3 43 10 be
       0.19239277 -0.0046282285 0.13731632 -0.14088325
0003a0 7e 73 07 bf f0 29 d9 3d 00 b6 df bc f2 a1 ad bd
       -0.529106 0.10603702 -0.027308464 -0.08478154
0003b0 ac 47 9a be cc c0 94 bd 43 0c 65 3c 1a 55 fe 3d
       -0.30132806 -0.072633356 0.013979974 0.124185756
0003c0 9e e3 08 3b e8 f4 24 3e 49 e2 60 3e e4 36 dc bd
       0.0020887624 0.1610905 0.21961321 -0.10752657
0003d0 23 b6 f1 bc dc d7 36 3e 3a 95 8e be 93 5b 16 be
       -0.029505795 0.17855781 -0.27848226 -0.1468337
0003e0 a7 81 5f bd ac ca 39 3e 97 57 90 bd 9c 5f fc bd
       -0.054567005 0.1814372 -0.070479564 -0.123229235
0003f0 d0 22 9d bd e4 3a 43 3d 1a a2 8b 3f 0c 4d 18 bd
       -0.076726556 0.047663584 1.0908844 -0.037182853

nn.2.bias f4 [13]
000000 c2 ae d6 c0 9f 36 4c 3f 4b 64 bc 3e 5c bb 66 bf
       -6.7088327 0.79770845 0.36795267 -0.9012964
000010 25 ea df bd 20 96 af 3d 0a 64 c7 bd a6 ae e9 3d
       -0.109333314 0.08573556 -0.09735878 0.11410265
000020 70 bd 1e 3c 0a 41 76 3d 3f d4 c6 3d 0a 3e da 3d
       0.00968872 0.06012062 0.097084515 0.10656364
000030 98 8f c7 bd
       -0.09744185

exp_avg f4 [64, 4]
000000 b4 5b 81 3e 45 e3 97 40 a8 10 ee 3f 8e 2a 60 40
       0.25265276 4.746493 1.8598833 3.5025973
000010 12 0d 11 bf 08 d9 9e c0 56 d6 ab bf d3 f9 32 c0
       -0.5666057 -4.963993 -1.3424785 -2.796498
000020 bf 5f bb c0 ea a5 e0 c1 9d 3f 87 c1 3a 51 d7 c1
       -5.8554378 -28.081013 -16.906061 -26.914661
000030 5a 0c c5 3e 4e fd 82 41 ad 82 07 41 b7 7c 2b 41
       0.38485986 16.373684 8.469403 10.717948
000040 8b 91 de 3e 1b 3c 22 3f ce 22 af 3e 23 b4 4e bf
       0.43470415 0.63372964 0.3420624 -0.80743617
000050 39 c2 12 bb 90 42 48 3f 5e 84 a3 3e 72 d7 5d 3f
       -0.0022393598 0.78226566 0.31936926 0.8665687
000060 00 00 00 00 00 00 00 00 00 00 00 00 00 00 00 00
       0.0 0.0 0.0 0.0
000070 a2 86 54 3e 7a 0e 0c c0 95 a0 d0 3f 67 57 2b c0
       0.20754483 -2.1883836 1.6299006 -2.6772096
000080 17 f8 31 be e0 65 3e c0 84 8a a8 bf 9c 59 cd bf
       -0.17379795 -2.974968 -1.3167272 -1.6042972
000090 c8 10 fa 3e 21 f3 c9 40 07 99 23 40 87 8a 9c 40
       0.48840928 6.310929 2.556215 4.89191
0000a0 64 87 91 bd 1e 52 c2 3f 92 48 00 3f e5 b3 90 3f
       -0.07105902 1.518131 0.50110734 1.13049
0000b0 ec f5 2a bf 55 ff 65 c0 b8 10 c9 bf 9a e4 96 c0
       -0.66781497 -3.5937092 -1.5708227 -4.7154055
0000c0 00 00 00 00 00 00 00 00 00 00 00 00 00 00 00 00
       0.0 0.0 0.0 0.0
0000d0 d1 1e a4 3e a8 15 83 40 14 2d 25 40 3a 50 84 40
       0.3205476 4.0963936 2.5808764 4.1347933
0000e0 81 27 33 c0 0e f9 7b c1 59 e1 c3 c0 48 56 46 c1
       -2.7992861 -15.748304 -6.1212583 -12.396065
0000f0 15 b5 a8 bf 3f 86 3a c1 14 a7 9b c0 20 2e 34 c1
       -1.3180262 -11.657775 -4.8641453 -11.261261
000100 0c fd 51 bf 06 1d 8d c0 a0 6e 01 c0 a0 fd 7b c0
       -0.82026744 -4.409793 -2.022377 -3.937355
000110 3c da a6 bf 4c 7c 63 c1 b8 c7 ba c0 9f 7c 3d c1
       -1.303535 -14.217846 -5.8368797 -11.842925
000120 00 00 00 00 00 00 00 00 00 00 00 00 00 00 00 00
       0.0 0.0 0.0 0.0
000130 53 33 b7 bd df d3 84 3f f3 97 a4 3e 31 7f 76 3f
       -0.08945336 1.0377158 0.32147178 0.9628783
000140 d7 22 61 3f 1f 35 61 41 b9 b8 b4 40 f4 d8 04 41
       0.87943786 14.075469 5.647549 8.302967
000150 a4 e5 ad 3f fa 56 7c 41 64 41 58 41 8b 8c 97 41
       1.3585706 15.7712345 13.5159645 18.943624
000160 d0 ad bf 3e 97 cd a1 40 4a b3 04 40 38 60 4e 40
       0.37437296 5.0563464 2.073443 3.2246227
000170 2d 2f 8f 3f e1 c8 70 41 e4 97 d1 40 d0 fb 46 41
       1.1186272 15.049043 6.5497913 12.436478
000180 00 00 00 00 00 00 00 00 00 00 00 00 00 00 00 00
       0.0 0.0 0.0 0.0
000190 24 a4 a5 bd bc ae 2b 40 23 b3 5f 3f fc 4a 6b 40
       -0.08087948 2.68254 0.87382716 3.6764517
0001a0 00 00 00 00 00 00 00 00 00 00 00 00 00 00 00 00
       0.0 0.0 0.0 0.0
0001b0 46 65 7a bf 21 97 06 c1 44 4b 61 c0 32 13 09 c1
       -0.9781078 -8.411897 -3.5202188 -8.567186
0001c0 00 00 00 00 00 00 00 00 00 00 00 00 00 00 00 00
       0.0 0.0 0.0 0.0
0001d0 00 00 00 00 00 00 00 00 00 00 00 00 00 00 00 00
       0.0 0.0 0.0 0.0
0001e0 00 00 00 00 00 00 00 00 00 00 00 00 00 00 00 00
       0.0 0.0 0.0 0.0
0001f0 00 00 00 00 00 00 00 00 00 00 00 00 00 00 00 00
       0.0 0.0 0.0 0.0
000200 90 a5 fb bd 3e 0b df be a5 98 f5 bd 56 14 97 bf
       -0.12287438 -0.43563265 -0.11992005 -1.1803081
000210 24 1c cf 3e c9 51 95 40 1d 57 d3 3f 52 70 93 40
       0.40451157 4.6662335 1.651096 4.607461
000220 9a c3 ab be 61 12 00 41 48 2d 28 40 97 b5 0b 41
       -0.3354767 8.004487 2.6277637 8.731833
000230 5f 26 c5 3e 8d 65 73 41 b6 d2 b9 40 13 df 12 41
       0.38505837 15.212293 5.8069715 9.1794615
000240 2e 99 b3 be cb bd ea be 06 f4 aa be db 6c 6d bf
       -0.35077804 -0.45847926 -0.333893 -0.92744225
000250 04 00 00 00 04 00 00 00 04 00 00 00 04 00 00 00
       6e-45 6e-45 6e-45 6e-45
000260 b1 09 2e 3f 39 2d 27 41 c4 5e 85 40 c9 e6 dd 40
       0.6798354 10.448541 4.167818 6.934422
000270 3d 7f cc 3e 34 22 f2 40 5b 21 3c 40 f5 13 ca 40
       0.39940825 7.566675 2.9395359 6.314936
000280 c8 74 84 3f 08 8b 5a 41 32 7f ad 40 3a b9 4a 41
       1.0348139 13.658943 5.421777 12.670221
000290 48 96 11 3e 42 f8 6f 40 4a 81 9f 3f a5 75 36 40
       0.14217484 3.7495275 1.2461331 2.8509305
0002a0 00 00 00 00 00 00 00 00 00 00 00 00 00 00 00 00
       0.0 0.0 0.0 0.0
0002b0 00 00 00 00 00 00 00 00 00 00 00 00 00 00 00 00
       0.0 0.0 0.0 0.0
0002c0 a3 62 c6 3e 2e 65 2d 40 38 8e 05 40 41 b1 17 3f
       0.3874713 2.7093005 2.0868053 0.59254843
0002d0 b0 e1 9c 3e f1 0c ad 40 f6 da 07 40 c8 23 8b 40
       0.30640936 5.4078298 2.1227393 4.348118
0002e0 73 2c 2e 3e e6 ce bc 40 2a d3 0e 40 b3 ee 91 40
       0.17009144 5.900256 2.2316384 4.560388
0002f0 00 00 00 00 00 00 00 00 00 00 00 00 00 00 00 00
       0.0 0.0 0.0 0.0
000300 38 2f 9b 3e 92 8c b2 40 24 59 0d 40 63 64 7c 40
       0.30309463 5.5796595 2.2085657 3.943627
000310 d4 f9 a2 3d b9 44 6c 40 f2 e6 b0 3f f4 6c 22 40
       0.07957807 3.6916945 1.3820479 2.5379
000320 c1 5f 13 c0 df 19 87 c1 66 03 cc c0 43 7b 72 c1
       -2.3027194 -16.887632 -6.375415 -15.155093
000330 00 00 00 00 00 00 00 00 00 00 00 00 00 00 00 00
       0.0 0.0 0.0 0.0
000340 70 f6 cb 3d 59 2e 73 40 5a ca b6 3f 35 01 40 40
       0.099591136 3.7997038 1.4280503 3.0000737
000350 9e 09 7a bf bb be 8d c1 e7 01 08 c1 d6 c4 46 c1
       -0.97670925 -17.71813 -8.500464 -12.423056
000360 1e 6b e8 be b5 3d 6e 41 ba eb e7 40 0a 19 f2 40
       -0.45394224 14.890065 7.247525 7.5655565
000370 70 4b 50 3f 58 2a 0c 41 fb 08 83 40 e9 c8 f1 40
       0.8136511 8.760338 4.0948462 7.555775
000380 23 48 a3 3e ec c3 62 40 60 cb b9 3f 58 59 30 40
       0.31890973 3.5432081 1.451519 2.755453
000390 4b 71 f3 be d8 5c 02 c1 46 1f 68 c0 55 c5 cd c0
       -0.47547373 -8.147667 -3.6269088 -6.4303384
0003a0 c3 44 af 3c 78 fe a9 3f 5f 53 f7 3e 14 21 ad 3f
       0.021395093 1.3280783 0.48305795 1.352572
0003b0 00 00 00 00 00 00 00 00 00 00 00 00 00 00 00 00
       0.0 0.0 0.0 0.0
0003c0 00 00 00 00 00 00 00 00 00 00 00 00 00 00 00 00
       0.0 0.0 0.0 0.0
0003d0 00 00 00 00 00 00 00 00 00 00 00 00 00 00 00 00
       0.0 0.0 0.0 0.0
0003e0 7b b8 d2 3e 5a 58 71 3f cd b8 e7 3f 6d 92 8e 40
       0.41156372 0.9427544 1.8103272 4.4553742
0003f0 00 00 00 00 00 00 00 00 00 00 00 00 00 00 00 00
       0.0 0.0 0.0 0.0

exp_avg_sq f4 [64, 4]
000000 78 22 a1 43 1a c7 78 46 a4 44 2b 45 ba 2c 79 46
       322.2693 15921.775 2740.29 15947.182
000010 1b 71 a7 44 02 8f 7c 47 26 30 26 46 77 97 80 47
       1339.5345 64655.008 10636.037 65838.93
000020 5b 2a 10 45 78 27 27 47 ca 83 40 46 4f 08 2f 47
       2306.6472 42791.47 12320.947 44808.31
000030 42 c5 97 45 bc ba 45 48 f4 ea 1b 47 92 69 3d 48
       4856.657 202474.94 39914.953 193958.28
000040 67 ba 54 43 d8 98 84 45 96 9b 00 43 dc 76 d7 45
       212.72813 4243.1055 128.60776 6894.8574
000050 38 f6 a0 3f 51 b6 9b 42 40 46 78 41 80 bd 9d 42
       1.257514 77.85609 15.517151 78.87012
000060 00 00 00 00 00 00 00 00 00 00 00 00 00 00 00 00
       0.0 0.0 0.0 0.0
000070 b2 24 8c 43 74 01 2f 46 27 d3 4d 45 5f 5a 49 46
       280.28668 11200.363 3293.197 12886.593
000080 92 2f 2c 44 de cb e0 46 8b c8 81 45 a8 69 f1 46
       688.7433 28773.934 4153.068 30900.828
000090 15 8d ef 43 54 d3 bb 46 0d 5f 81 45 ce bb bb 46
       479.1022 24041.664 4139.8813 24029.902
0000a0 c8 a2 72 41 17 61 3a 44 30 5d fa 42 88 d9 39 44
       15.1647415 745.517 125.18201 743.3989
0000b0 45 04 73 43 83 a3 23 46 dc af f3 44 6f e4 27 46
       243.01668 10472.878 1949.4956 10745.108
0000c0 00 00 00 00 00 00 00 00 00 00 00 00 00 00 00 00
       0.0 0.0 0.0 0.0
0000d0 fc f8 62 42 9b f1 49 45 12 de f2 43 10 dd 42 45
       56.74315 3231.1003 485.73492 3117.8164
0000e0 e6 5a 55 43 7b 7b 91 46 1d 45 95 45 cf 3a 74 46
       213.35507 18621.74 4776.639 15630.702
0000f0 b1 73 09 42 11 a2 19 45 8e bb d2 43 21 cb 0c 45
       34.36298 2458.1292 421.46527 2252.6956
000100 24 c8 34 41 9b 38 44 44 99 13 18 43 99 0b 42 44
       11.298862 784.88446 152.07655 776.1812
000110 55 2f 90 44 85 39 6f 47 c6 a6 22 46 d7 a2 6c 47
       1153.4791 61241.52 10409.693 60578.84
000120 00 00 00 00 00 00 00 00 00 00 00 00 00 00 00 00
       0.0 0.0 0.0 0.0
000130 1b 07 e4 40 4b b6 c0 43 2d 8a 81 42 e2 e9 bb 43
       7.1258674 385.42416 64.769875 375.8272
000140 20 9e b6 45 78 c3 8b 48 10 22 44 47 29 a0 8c 48
       5843.7656 286235.75 50210.062 288001.28
000150 59 7a 1d 41 61 d4 87 44 e4 50 86 44 9d e9 c9 44
       9.84237 1086.6368 1074.5278 1615.3004
000160 83 2c 64 44 fc f3 2e 47 a8 e1 f4 45 4d bc 2f 47
       912.6955 44787.984 7836.207 44988.3
000170 b1 a5 b4 44 66 00 94 47 ca 56 47 46 ec 47 92 47
       1445.1779 75776.8 12757.697 74895.84
000180 00 00 00 00 00 00 00 00 00 00 00 00 00 00 00 00
       0.0 0.0 0.0 0.0
000190 8a 71 2b 43 a9 91 f3 45 d6 1d be 44 dc 59 fb 45
       171.44351 7794.2075 1520.9324 8043.2324
0001a0 00 00 00 00 00 00 00 00 00 00 00 00 00 00 00 00
       0.0 0.0 0.0 0.0
0001b0 fc 5c 9c 41 81 1e 5c 44 a9 08 3c 43 f4 fd 47 44
       19.545403 880.4766 188.03383 799.968
0001c0 00 00 00 00 00 00 00 00 00 00 00 00 00 00 00 00
       0.0 0.0 0.0 0.0
0001d0 00 00 00 00 00 00 00 00 00 00 00 00 00 00 00 00
       0.0 0.0 0.0 0.0
0001e0 00 00 00 00 00 00 00 00 00 00 00 00 00 00 00 00
       0.0 0.0 0.0 0.0
0001f0 00 00 00 00 00 00 00 00 00 00 00 00 00 00 00 00
       0.0 0.0 0.0 0.0
000200 54 e5 88 42 b1 08 41 45 56 69 0d 44 b4 37 45 45
       68.44791 3088.5432 565.6459 3155.4814
000210 66 9c 2f 41 3c 83 43 44 4b e2 39 43 20 f1 08 44
       10.975683 782.05054 185.88396 547.7676
000220 5c b0 39 44 5e 3c d7 46 1b f8 ac 45 0f 9a dc 46
       742.7556 27550.184 5535.013 28237.03
000230 10 6d f0 45 ca 41 b7 48 ef 23 7f 47 76 02 b8 48
       7693.633 375310.3 65315.934 376851.7
000240 f1 5c be 42 8e 0a 84 45 b3 f2 39 44 05 0b 86 45
       95.181526 4225.3193 743.7922 4289.3774
000250 a1 a4 e0 29 67 24 26 2c eb 1a 5b 2e a6 8b 62 2a
       9.976157e-14 2.3610226e-12 4.9818743e-11 2.0121283e-13
000260 b1 ce e2 44 00 c7 ae 47 20 8b 73 46 b5 b0 af 47
       1814.4591 89486.0 15586.781 89953.414
000270 41 be a7 43 cf d7 89 46 92 1d 39 45 84 f1 87 46
       335.48636 17643.904 2961.8481 17400.758
000280 e7 7c f6 42 5f 52 ff 45 0d c5 a3 44 3b 4a ee 45
       123.24395 8170.2964 1310.1578 7625.279
000290 f8 33 49 43 90 ed 18 46 0c a8 d0 44 a1 a7 19 46
       201.203 9787.391 1669.2515 9833.907
0002a0 00 00 00 00 00 00 00 00 00 00 00 00 00 00 00 00
       0.0 0.0 0.0 0.0
0002b0 00 00 00 00 00 00 00 00 00 00 00 00 00 00 00 00
       0.0 0.0 0.0 0.0
0002c0 2e be ac 43 e6 3a 8c 46 db 77 51 45 d0 d1 87 46
       345.48578 17949.45 3351.491 17384.906
0002d0 0e 25 8d 43 2b c1 61 46 c1 a2 19 45 68 1a 60 46
       282.2895 14448.292 2458.172 14342.602
0002e0 03 8e e2 43 98 2f b1 46 00 56 71 45 39 7a b0 46
       453.10947 22679.797 3861.375 22589.111
0002f0 00 00 00 00 00 00 00 00 00 00 00 00 00 00 00 00
       0.0 0.0 0.0 0.0
000300 b7 fc 34 44 07 2b 0c 47 25 3a c2 45 1f 3d 0c 47
       723.94867 35883.027 6215.268 35901.12
000310 d7 dd 6d 43 af ff 31 46 bb 31 f5 44 ae 4c 33 46
       237.86656 11391.921 1961.5541 11475.17
000320 d4 91 4c 43 a0 36 95 46 d0 7c 73 45 85 46 9d 46
       204.56964 19099.312 3895.8008 20131.26
000330 00 00 00 00 00 00 00 00 00 00 00 00 00 00 00 00
       0.0 0.0 0.0 0.0
000340 d9 3c 1d 43 83 a9 f9 45 ae 49 a9 44 4d b0 f7 45
       157.23769 7989.189 1354.3025 7926.0376
000350 64 21 4b 45 61 41 20 48 ca 14 db 46 1e dc 1f 48
       3250.087 164101.52 28042.395 163696.47
000360 bb a0 07 45 a4 8e 60 47 ea 06 48 46 99 4c 49 47
       2170.0457 57486.64 12801.729 51532.598
000370 76 dc d8 43 d8 4e b1 46 76 05 6e 45 38 8f af 46
       433.72235 22695.422 3808.3413 22471.61
000380 c0 a4 ba 42 a8 b1 96 45 34 ab 4f 44 56 24 96 45
       93.32178 4822.207 830.67505 4804.542
000390 6b bf fc 43 77 b5 cd 46 19 ae 8a 45 9b 39 cb 46
       505.49545 26330.732 4437.762 26012.803
0003a0 bc f4 2d 40 bc d9 33 43 db c7 f4 41 d1 68 27 43
       2.7180624 179.85052 30.597586 167.40944
0003b0 00 00 00 00 00 00 00 00 00 00 00 00 00 00 00 00
       0.0 0.0 0.0 0.0
0003c0 00 00 00 00 00 00 00 00 00 00 00 00 00 00 00 00
       0.0 0.0 0.0 0.0
0003d0 00 00 00 00 00 00 00 00 00 00 00 00 00 00 00 00
       0.0 0.0 0.0 0.0
0003e0 3b 98 96 43 5c 0b 1d 46 a0 5f 14 45 ff 13 0e 46
       301.1893 10050.84 2373.9766 9092.999
0003f0 00 00 00 00 00 00 00 00 00 00 00 00 00 00 00 00
       0.0 0.0 0.0 0.0

exp_avg f4 [64]
000000 2a d7 89 3c 55 72 f7 bc 67 18 53 be 7f 6e 9d 3d
       0.016826231 -0.030205885 -0.20614778 0.07687091
000010 3d d6 0b ba d0 58 fd 3a 00 00 00 00 f8 bd 09 bd
       -0.0005334353 0.0019328836 0.0 -0.033628434
000020 30 97 ef bc 2f 04 85 3c 14 04 4f 3c a3 9e 19 3c
       -0.029246897 0.016237346 0.01263525 0.009376201
000030 00 00 00 00 97 ba 2e 3c 51 06 9e bd b0 49 d4 bb
       0.0 0.010664604 -0.077160485 -0.006478511
000040 6b 09 7a 3c 90 fa 1a bd 00 00 00 00 92 57 33 3c
       0.0152610345 -0.03783661 0.0 0.010946171
000050 24 24 57 3d 9a c2 11 3e 19 58 8b 3c 3a 70 7b 3d
       0.0525247 0.14234391 0.017009782 0.061386324
000060 00 00 00 00 9b 40 18 3d 00 00 00 00 c7 86 98 bc
       0.0 0.037170988 0.0 -0.018618954
000070 00 00 00 00 00 00 00 00 00 00 00 00 00 00 00 00
       0.0 0.0 0.0 0.0
000080 47 13 4f 3b 47 ef 95 3b 59 52 71 3d 8a b8 ae 3d
       0.0031597184 0.004575643 0.058916423 0.08531292
000090 b9 93 29 3c 04 00 00 00 8a e6 07 3d fa ce 15 3d
       0.010350161 6e-45 0.033178844 0.03657434
0000a0 06 74 60 3d 13 3c 20 3c 00 00 00 00 00 00 00 00
       0.05479815 0.009779948 0.0 0.0
0000b0 b4 ba 15 3c 6c c1 ca 3c 13 29 00 3d 00 00 00 00
       0.009138752 0.024750434 0.03128917 0.0
0000c0 eb 7b d0 3c c7 8e 55 3c aa 0a 9e bd 00 00 00 00
       0.025449714 0.013034529 -0.07716878 0.0
0000d0 77 dd c2 3c 66 81 c8 bd cc 81 19 3d a7 e9 c2 3c
       0.023787243 -0.09790306 0.0374773 0.023793055
0000e0 62 e7 34 3c 99 97 19 bd 18 2c 44 3c 00 00 00 00
       0.011041494 -0.03749809 0.011973403 0.0
0000f0 00 00 00 00 00 00 00 00 11 77 6c bd 00 00 00 00
       0.0 0.0 -0.057730738 0.0

exp_avg_sq f4 [64]
000000 89 00 29 3f 88 a9 26 40 3e 39 06 40 03 5b 04 41
       0.6601644 2.6040974 2.0972438 8.27222
000010 ee 27 6c 3e 17 df 4d 3b 00 00 00 00 e5 47 16 3f
       0.23062107 0.003141349 0.0 0.5870345
000020 a9 07 91 3f a1 e4 7e 3f 39 03 fe 3c 33 42 e5 3e
       1.1330463 0.9956761 0.031007396 0.44777068
000030 00 00 00 00 25 bf 01 3e 33 ae 43 3f 78 d5 e0 3d
       0.0 0.12670572 0.7643768 0.10978216
000040 58 15 0f 3d 63 82 21 40 00 00 00 00 7e 29 82 3c
       0.034932464 2.5235832 0.0 0.015888926
000050 9a 47 3e 41 98 27 29 3e 2b 3c ee 3f f2 62 47 40
       11.892481 0.1651901 1.8612112 3.1154141
000060 00 00 00 00 24 74 a7 3e 00 00 00 00 c2 ea 27 3d
       0.0 0.32705796 0.0 0.040995367
000070 00 00 00 00 00 00 00 00 00 00 00 00 00 00 00 00
       0.0 0.0 0.0 0.0
000080 8b 2d 05 3e 98 47 fd 3c 33 7a 99 3f e9 a3 79 41
       0.13005655 0.030917928 1.1990417 15.602517
000090 14 98 36 3e a7 a2 e4 27 69 8c 6d 40 58 03 3a 3f
       0.1783145 6.345906e-15 3.711695 0.7266135
0000a0 98 9f a9 3e 7e 19 cf 3e 00 00 00 00 00 00 00 00
       0.33129573 0.40449136 0.0 0.0
0000b0 5b b7 3a 3f 44 d6 18 3f 95 6d 70 3f 00 00 00 00
       0.7293603 0.59701943 0.9391721 0.0
0000c0 80 9a be 3f 26 60 f2 3e 24 6b 60 3f 00 00 00 00
       1.48909 0.4733898 0.87663484 0.0
0000d0 a7 2b a9 3e af 2e d9 40 ab e6 14 40 f3 55 6e 3f
       0.33041117 6.7869487 2.3265789 0.930999
0000e0 de e2 4b 3e 47 ee 8a 3f a8 f0 ed 3b 00 00 00 00
       0.19910762 1.0853966 0.0072613545 0.0
0000f0 00 00 00 00 00 00 00 00 a6 be cf 3e 00 00 00 00
       0.0 0.0 0.4057514 0.0

exp_avg f4 [13, 64]
000000 30 c9 62 be 2a 09 20 3c c0 1f 8f 3c 81 df 14 bd
       -0.2214706 0.00976781 0.017471194 -0.036345962
000010 c0 a2 bd 3b 79 02 94 bb 00 00 00 00 b2 51 84 bb
       0.0057872236 -0.0045168963 0.0 -0.004038059
000020 fe 26 a0 3c ce cd 3c bd cb 15 2e be 3d 56 b4 bd
       0.019549843 -0.04609471 -0.17000501 -0.08805511
000030 00 00 00 00 ef 05 26 3d 1b 60 7c 3d 03 a6 be bd
       0.0 0.040533002 0.06161509 -0.09309008
000040 47 cd 94 be ad 51 a3 bd 00 00 00 00 38 51 cb bd
       -0.29062864 -0.07974563 0.0 -0.099276006
000050 07 72 08 be 1b bd 81 3d fd 42 71 bc 23 8b 8b bd
       -0.13324748 0.06334897 -0.014725444 -0.068136476
000060 00 00 00 00 f9 51 d9 bd 00 00 00 00 31 23 a3 bd
       0.0 -0.10611338 0.0 -0.079656966
000070 00 00 00 00 00 00 00 00 00 00 00 00 00 00 00 00
       0.0 0.0 0.0 0.0
000080 41 3c aa bd c4 52 a1 3d bf a7 87 bd 4c 88 0f be
       -0.08312274 0.078771144 -0.06623792 -0.14016837
000090 37 26 2c be 04 00 00 80 43 e4 81 be 1e d8 d0 bd
       -0.16811453 -6e-45 -0.25369462 -0.10197471
0000a0 2a a3 d5 bd 23 dc c9 bd 00 00 00 00 00 00 00 00
       -0.10431512 -0.09856441 0.0 0.0
0000b0 09 70 90 bd 2e 6b ad bd 8d 22 2c be 00 00 00 00
       -0.07052619 -0.084677085 -0.16810055 0.0
0000c0 91 e0 ae bd 31 76 6f bd 7f a1 3e bb 00 00 00 00
       -0.085389264 -0.058462325 -0.0029087958 0.0
0000d0 e2 f5 05 be 34 eb 4d bd a4 55 9a 3c da 53 99 bb
       -0.13082078 -0.050273135 0.018839665 -0.0046791853
0000e0 e8 3e cd bd 1d 7c c0 bd 44 7a 9a bd 00 00 00 00
       -0.10021764 -0.09398673 -0.075428516 0.0
0000f0 00 00 00 00 00 00 00 00 81 48 83 3d 00 00 00 00
       0.0 0.0 0.064103134 0.0
000100 04 ca 6d c0 e9 06 3a 3f 2a c5 d9 3f 68 be 80 bf
       -3.715455 0.72666794 1.7013295 -1.0058107
000110 38 92 ba bd ad 7d ea 3e 00 00 00 00 a7 b4 55 40
       -0.0910992 0.45799008 0.0 3.3391511
000120 06 c8 8b 3f af 54 33 c0 5a b4 75 bf 1c 04 89 be
       1.0920417 -2.8020437 -0.9597832 -0.26760948
000130 00 00 00 00 1e cb c2 be 59 28 83 3e 3b 5c 03 be
       0.0 -0.3804559 0.2561672 -0.12828152
000140 0b f8 ab c0 f7 f5 ee be 00 00 00 00 a5 66 e6 bf
       -5.3740287 -0.4667203 0.0 -1.8000075
000150 ee f0 47 c0 2a f6 0e 3f f8 e0 d3 bf 54 cc 4e c0
       -3.1240802 0.55844367 -1.655303 -3.2312212
000160 00 00 00 00 27 2d 6f c0 00 00 00 00 0e 01 76 3f
       0.0 -3.7371309 0.0 0.9609536
000170 00 00 00 00 00 00 00 00 00 00 00 00 00 00 00 00
       0.0 0.0 0.0 0.0
000180 9c ca ef be fe a5 d7 bf 24 35 d7 3f 81 be 0d c0
       -0.46834266 -1.6847532 1.6813092 -2.2147524
000190 49 5b 18 c0 04 00 00 00 5f 2f b3 c0 ab eb 52 c0
       -2.3805716 6e-45 -5.5995326 -3.295634
0001a0 f2 02 5f c0 9d 1d 0c bf 00 00 00 00 00 00 00 00
       -3.4845548 -0.54732686 0.0 0.0
0001b0 f2 3a a5 c0 6e 66 46 c0 54 be 8b c0 00 00 00 00
       -5.1634455 -3.1000018 -4.3669834 0.0
0001c0 72 99 46 c0 22 3c 39 bf c8 48 f0 3f 00 00 00 00
       -3.1031156 -0.7235738 1.8772211 0.0
0001d0 92 54 38 c0 df 8e 86 3f 57 12 8c 3f c8 d4 2f c0
       -2.8801618 1.0512351 1.0943097 -2.7473621
0001e0 24 81 4d c0 93 0c 59 3f e1 c9 3e c0 00 00 00 00
       -3.211007 0.8478481 -2.9810717 0.0
0001f0 00 00 00 00 00 00 00 00 6a 1e b3 bf 00 00 00 00
       0.0 0.0 -1.3993657 0.0
000200 33 71 9c 41 ed 88 27 40 9b c4 9d bf fc 69 46 40
       19.555273 2.6177323 -1.2325624 3.1002188
000210 bf b7 69 3e fd a6 80 3f 00 00 00 00 a9 b5 26 c0
       0.22824 1.0050961 0.0 -2.6048377
000220 af d5 ec 3e 7b d9 01 41 18 03 27 41 22 5c 87 40
       0.46256778 8.115596 10.438255 4.2299967
000230 00 00 00 00 ce 36 a0 3f ac ee ac 3f 9b f8 9c 40
       0.0 1.2516725 1.3510337 4.9053473
000240 56 16 cf 41 38 44 c0 40 00 00 00 00 c8 28 1b 41
       25.885906 6.0083275 0.0 9.697456
000250 0c 37 4e 41 c7 8a 40 bf c6 af 8a 40 61 b9 22 41
       12.888439 -0.7521176 4.3339567 10.1702585
000260 00 00 00 00 5f 26 51 41 00 00 00 00 ca 18 13 40
       0.0 13.071868 0.0 2.298388
000270 00 00 00 00 00 00 00 00 00 00 00 00 00 00 00 00
       0.0 0.0 0.0 0.0
000280 9d 69 89 40 77 c5 4a 40 57 58 41 3f 9c 0a 2a 41
       4.2941422 3.1683023 0.7552542 10.62759
000290 4d fa 63 41 04 00 00 80 65 d9 c1 41 d1 f9 30 41
       14.248609 -6e-45 24.23115 11.06099
0002a0 01 97 2f 41 7d f6 db 40 00 00 00 00 00 00 00 00
       10.974366 6.873839 0.0 0.0
0002b0 4e d0 4a 41 fe 95 23 41 a3 fc 86 41 00 00 00 00
       12.675856 10.224119 16.873358 0.0
0002c0 7d 8c 25 41 a6 35 90 40 b3 30 55 bf 00 00 00 00
       10.346799 4.506549 -0.83277434 0.0
0002d0 4d 29 4d 41 4b 25 1b 40 e6 e0 eb 3d 01 6f ec 40
       12.822583 2.4241512 0.11517505 7.3885503
0002e0 ff 08 47 41 b0 7f 82 40 37 4f 1e 41 00 00 00 00
       12.439696 4.078087 9.89434 0.0
0002f0 00 00 00 00 00 00 00 00 60 07 5f 40 00 00 00 00
       0.0 0.0 3.4848251 0.0
000300 7f 45 9e c0 5e 42 fe bf 81 95 b7 bf 12 ee e8 be
       -4.9459834 -1.9864004 -1.43425 -0.45494133
000310 97 67 89 bc 26 af 87 bf 00 00 00 00 4e 20 01 c0
       -0.016773028 -1.0600326 0.0 -2.0175967
000320 85 0f c4 bf f5 76 03 bf b2 39 7f c0 23 fe da bf
       -1.5317236 -0.5135339 -3.9878964 -1.7108806
000330 00 00 00 00 d7 9b 86 be 33 60 85 bf e0 90 ff bf
       0.0 -0.2629077 -1.0419983 -1.9966087
000340 c6 49 ba c0 64 fb 11 c0 00 00 00 00 4c d3 19 c0
       -5.8215055 -2.2809687 0.0 -2.4035215
000350 2c b4 1b c0 c3 b9 ae be 33 f4 ef bc 67 18 8c bf
       -2.4328718 -0.341261 -0.029291248 -1.0944947
000360 00 00 00 00 0f 64 e2 bf 00 00 00 00 94 41 04 c0
       0.0 -1.7686785 0.0 -2.0665026
000370 00 00 00 00 00 00 00 00 00 00 00 00 00 00 00 00
       0.0 0.0 0.0 0.0
000380 24 e3 cb bf 8c a8 05 3f e2 5c e6 bf 38 61 23 c0
       -1.5928693 0.5221031 -1.7997096 -2.5528088
000390 f0 53 75 c0 04 00 00 80 51 fd 9f c0 65 24 b5 bf
       -3.8332481 -6e-45 -4.9996724 -1.4151732
0003a0 7c 73 a8 bf 32 9d 2e c0 00 00 00 00 00 00 00 00
       -1.3160243 -2.7283444 0.0 0.0
0003b0 b1 e9 00 bf c7 89 98 bf 05 d5 38 c0 00 00 00 00
       -0.50356585 -1.1917046 -2.8880017 0.0
0003c0 3d 7b 97 bf 33 a4 ac bf a4 ad bb bf 00 00 00 00
       -1.1834484 -1.348761 -1.4662366 0.0
0003d0 22 2b 2a c0 da f6 13 c0 29 21 a8 bf c0 c2 a2 be
       -2.6588826 -2.3119416 -1.313512 -0.31789207
0003e0 70 4b 00 c0 90 14 3c c0 82 05 94 bf 00 00 00 00
       -2.0046043 -2.938755 -1.1564181 0.0
0003f0 00 00 00 00 00 00 00 00 03 81 c2 3d 00 00 00 00
       0.0 0.0 0.09497263 0.0

exp_avg_sq f4 [13, 64]
000000 b0 68 9f 3e 55 d7 74 3c ab 32 59 3d 9a 37 f0 3c
       0.31134558 0.014943917 0.053026836 0.029323388
000010 27 31 90 38 be b8 6d 3b 00 00 00 00 dc 52 c7 3d
       6.8756104e-05 0.0036273445 0.0 0.09732601
000020 45 d8 98 3b 96 51 26 3d 72 69 68 3e 8c 22 f3 3d
       0.004664453 0.04060515 0.22696474 0.11871824
000030 00 00 00 00 6a 54 85 3b b7 61 f2 3d ad b3 e8 3d
       0.0 0.004068901 0.11835044 0.113623954
000040 d9 da 69 3f be 18 41 3e 00 00 00 00 ce 65 c9 3d
       0.9134956 0.18857095 0.0 0.09833871
000050 99 1a 0c 3f b5 63 38 3d a6 48 93 3c a4 5e 35 3d
       0.54728085 0.045016963 0.017978977 0.04427971
000060 00 00 00 00 bc 65 02 3e 00 00 00 00 c7 4a 0e 3e
       0.0 0.12734121 0.0 0.13895713
000070 00 00 00 00 00 00 00 00 00 00 00 00 00 00 00 00
       0.0 0.0 0.0 0.0
000080 7b 48 e8 3d 99 de e5 3c a0 aa f9 3d 04 0e d5 3e
       0.113419496 0.028060244 0.12190747 0.41612256
000090 84 72 6f 3e 4e 47 1c 2c 56 87 b4 3f 67 b5 04 3e
       0.23383528 2.2208515e-12 1.4103801 0.12959825
0000a0 85 c1 fa 3d bc 2f 75 3d 00 00 00 00 00 00 00 00
       0.12243942 0.059859976 0.0 0.0
0000b0 6b e7 9e 3e 30 24 a9 3d f5 18 8a 3e 00 00 00 00
       0.31035933 0.08258855 0.26972166 0.0
0000c0 cb c2 5d 3d 73 48 32 3d a9 fb 13 3d 00 00 00 00
       0.054140847 0.043526124 0.036128674 0.0
0000d0 56 c4 39 3e d1 37 08 3d 2e 3f 77 3c be eb be 3c
       0.18141302 0.033256356 0.015090747 0.02330577
0000e0 14 a5 3d 3e 94 a1 67 3d 9f e6 8b 3d 00 00 00 00
       0.18520004 0.056550577 0.06831097 0.0
0000f0 00 00 00 00 00 00 00 00 d6 0c 01 3d 00 00 00 00
       0.0 0.0 0.031506382 0.0
000100 ac 6e 72 48 88 4f 1d 46 92 52 1b 43 1f 2d 74 45
       248250.69 10067.883 155.32254 3906.82
000110 46 e6 be 41 9f 6e 1d 45 00 00 00 00 7a 7d 1c 44
       23.862438 2518.9138 0.0 625.9606
000120 96 71 2b 45 0b 40 b8 46 b5 13 c5 47 23 13 76 46
       2743.099 23584.021 100903.414 15748.784
000130 00 00 00 00 20 f2 9e 44 15 d1 9c 44 e1 69 a3 46
       0.0 1271.5664 1254.5338 20916.94
000140 3b b0 ba 48 65 13 f8 46 00 00 00 00 87 c5 76 47
       382337.84 31753.697 0.0 63173.527
000150 b2 3f a7 47 c1 f2 df 40 1f 76 a4 45 cb 01 2d 47
       85631.39 6.998383 5262.765 44289.793
000160 00 00 00 00 97 7b 91 47 00 00 00 00 ba 14 36 46
       0.0 74487.18 0.0 11653.182
000170 00 00 00 00 00 00 00 00 00 00 00 00 00 00 00 00
       0.0 0.0 0.0 0.0
000180 79 11 78 46 2a 13 58 44 22 8f 89 45 5f 95 84 47
       15876.368 864.29944 4401.8916 67882.74
000190 d6 c2 02 48 52 46 4b 2d 51 3d 9e 48 40 85 4f 47
       133899.34 1.1554828e-11 324074.53 53125.25
0001a0 84 1c 4c 47 bc 09 33 47 00 00 00 00 00 00 00 00
       52252.516 45833.734 0.0 0.0
0001b0 af 17 2d 47 3c 0c 2c 47 3d 2e 0a 48 00 00 00 00
       44311.684 44044.234 141496.95 0.0
0001c0 1f c8 2c 47 e5 8f 71 46 65 fb b2 44 00 00 00 00
       44232.12 15459.974 1431.8561 0.0
0001d0 fe f6 b2 47 ff 48 4c 46 1c 8b 44 44 39 ff 9c 46
       91629.984 13074.249 786.1736 20095.611
0001e0 97 4d 94 47 87 37 e3 46 e5 77 36 47 00 00 00 00
       75931.18 29083.764 46711.895 0.0
0001f0 00 00 00 00 00 00 00 00 2f 74 24 45 00 00 00 00
       0.0 0.0 2631.2615 0.0
000200 a6 24 7e 48 34 8f 27 46 5d 68 15 43 82 c4 75 45
       260242.6 10723.801 149.40767 3932.2817
000210 d8 96 cc 41 14 dc 25 45 00 00 00 00 4d 8c 15 44
       25.573654 2653.755 0.0 598.1922
000220 ac 0a 35 45 f4 39 c1 46 b5 d7 cc 47 cf d9 7b 46
       2896.667 24732.977 104879.414 16118.452
000230 00 00 00 00 87 e2 ad 44 e7 33 a1 44 97 d5 a8 46
       0.0 1391.079 1289.622 21610.795
000240 98 91 c2 48 57 b6 00 47 00 00 00 00 74 8a 81 47
       398476.75 32950.34 0.0 66324.91
000250 1e f3 ac 47 9c b9 c8 40 bb be ac 45 72 8e 35 47
       88550.234 6.2726574 5527.8413 46478.445
000260 00 00 00 00 08 21 98 47 00 00 00 00 c6 44 3a 46
       0.0 77890.06 0.0 11921.193
000270 00 00 00 00 00 00 00 00 00 00 00 00 00 00 00 00
       0.0 0.0 0.0 0.0
000280 d9 c2 7d 46 84 b8 62 44 fd 71 88 45 cc 85 88 47
       16240.712 906.88306 4366.2485 69899.59
000290 67 dd 08 48 1d d9 26 2d a1 2e a4 48 38 b3 57 47
       140149.61 9.484216e-12 336245.03 55219.22
0002a0 9f 66 53 47 3d 84 3b 47 00 00 00 00 00 00 00 00
       54118.62 48004.24 0.0 0.0
0002b0 19 f4 31 47 ce 91 33 47 3e 12 10 48 00 00 00 00
       45556.098 45969.805 147528.97 0.0
0002c0 a0 fd 34 47 c6 4d 7b 46 9a ab b5 44 00 00 00 00
       46333.625 16083.443 1453.3625 0.0
0002d0 86 03 bb 47 7a 5b 56 46 48 e4 42 44 f2 b7 a6 46
       95751.05 13718.869 779.5669 21339.973
0002e0 f3 45 9b 47 1d 11 ed 46 f4 16 3f 47 00 00 00 00
       79499.9 30344.557 48918.953 0.0
0002f0 00 00 00 00 00 00 00 00 bd d0 28 45 00 00 00 00
       0.0 0.0 2701.0461 0.0
000300 8d 08 e6 47 2f d9 94 45 d4 48 b2 42 79 53 f9 44
       117777.1 4763.148 89.14224 1994.6085
000310 d1 2c 59 41 92 a5 98 44 00 00 00 00 f0 85 a0 43
       13.5734415 1221.1741 0.0 321.0464
000320 23 8b aa 44 9d b2 2b 46 70 62 3d 47 f4 ae ef 45
       1364.348 10988.653 48482.438 7669.869
000330 00 00 00 00 40 a7 08 44 a7 19 0b 44 ce 18 1c 46
       0.0 546.6133 556.4008 9990.201
000340 b7 e8 30 48 35 94 69 46 00 00 00 00 e5 c6 e7 46
       181154.86 14949.052 0.0 29667.447
000350 be 40 1e 47 8d e9 6d 40 9d 1c 16 45 4c 00 a4 46
       40512.742 3.7173798 2401.7883 20992.148
000360 00 00 00 00 fd fe 08 47 00 00 00 00 14 ac ae 45
       0.0 35070.99 0.0 5589.51
000370 00 00 00 00 00 00 00 00 00 00 00 00 00 00 00 00
       0.0 0.0 0.0 0.0
000380 62 64 f2 45 95 8b be 43 bc a8 0c 45 72 a5 fe 46
       7756.548 381.09048 2250.546 32594.723
000390 ff 0d 77 47 e2 f7 47 2e 13 e0 15 48 7f 69 c5 46
       63245.996 4.5467526e-11 153472.3 25268.748
0003a0 d2 31 c4 46 5b ed ab 46 00 00 00 00 00 00 00 00
       25112.91 22006.678 0.0 0.0
0003b0 75 56 a5 46 e9 8a a2 46 ad 2e 83 47 00 00 00 00
       21163.229 20805.455 67165.35 0.0
0003c0 25 fc a2 46 bf 1c e6 45 05 01 26 44 00 00 00 00
       20862.072 7363.5933 664.0159 0.0
0003d0 a4 01 29 47 5e 3b c0 45 71 5a d1 43 bb 52 10 46
       43265.64 6151.421 418.70657 9236.683
0003e0 4f 75 0a 47 96 57 5a 46 9a b8 ab 46 00 00 00 00
       35445.31 13973.896 21980.3 0.0
0003f0 00 00 00 00 00 00 00 00 e7 b9 9c 44 00 00 00 00
       0.0 0.0 1253.8094 0.0

exp_avg f4 [13]
000000 02 bb 6c 3b 74 63 90 bd d4 69 3f 3d 49 10 1f bb
       0.0036122208 -0.07050219 0.046731785 -0.0024271181
000010 f9 84 ea bd c8 7c 24 97 18 05 b3 95 f4 f7 a3 97
       -0.11451144 -5.3148754e-25 -7.230556e-26 -1.059622e-24
000020 d0 43 06 98 f1 e4 ca 1c 1b cc ca 1c 43 77 90 8f
       -1.735333e-24 1.3426419e-21 1.3419999e-21 -1.4245434e-29
000030 6e 49 9a 0f
       1.5213857e-29

exp_avg_sq f4 [13]
000000 39 3d d6 38 d8 08 4f 41 10 0a 58 41 0e cd c3 40
       0.00010215719 12.939659 13.502457 6.118781
000010 34 dd 5a 41 49 c3 aa 01 74 66 03 00 92 a5 da 02
       13.679005 6.272836e-38 3.1226e-40 3.2127254e-37
000020 95 a9 c9 04 1f ef 33 0d fc 03 34 0d 05 00 00 00
       4.741061e-36 5.5446465e-31 5.547158e-31 7e-45
000030 19 00 00 00
       3.5e-44
