Op_problems/problem_pooling/checkpoints/kkt_hardnet_checkpoint_epoch_400_loss_98.339622.pth (torch, 20835 bytes, 12 tensors)

nn.0.weight f4 [64, 4]
0.40496528 0.43098018 -0.05872659 0.4481235 -0.14533915 0.0037069467 -0.34742948 0.3093246
1.0382569 -0.3954562 0.4748607 -0.026444696 0.8224816 0.038015235 0.22427183 -0.14709747
0.6403184 -0.13878894 -0.4644043 0.10334284 0.031075615 -0.003051044 -0.12741147 0.23748785
-0.3946851 -0.23050517 -0.14118737 -0.30063623 -0.2711915 -0.5281816 0.7650324 0.24083455
0.32750323 -0.035073724 -0.30260867 0.20752652 0.06623299 0.41116542 0.09123864 -0.16855015
0.21940812 -0.10252978 0.39831036 0.5505374 0.16657159 -0.21688555 0.51188374 0.21345162
0.25391752 -0.30475253 -0.49495423 -0.19318026 -0.31680903 0.25759697 0.025578082 -0.027926156
-0.6217943 0.07748371 0.5604253 -0.23289673 -0.17351826 -0.18269859 0.5017644 0.30902907
0.21603076 0.37857527 0.86971116 0.35046032 -0.66112596 -0.25123033 0.64272636 0.4080202
0.48112535 -0.41263813 -0.49593806 -0.3911819 -0.31182754 0.18207574 0.15645069 0.36086032
-0.23007399 0.014740259 1.0307982 0.1124723 -0.69118565 -0.46180326 0.48314014 0.11166214
-0.20471305 0.19888109 0.143575 -0.10157272 0.6676587 0.55873805 -0.21126959 -0.1886056
0.45783097 -0.16871625 -0.1772582 -0.4837973 0.28898227 0.5201598 0.16457629 -0.14652991
0.011728346 -0.34154075 -0.42419833 -0.27533132 -0.61545175 -0.39677528 0.6678629 0.43308702
0.15407985 -0.46634215 -0.3283869 -0.16642791 0.07818556 -0.43996066 -0.21543652 -0.2993343
0.0013856292 -0.1860516 -0.034647882 -0.33881485 -0.34319758 -0.2917009 -0.17114872 -0.39464045
0.30333412 -0.15777759 0.49243924 0.16839088 -0.06601949 0.31759724 -0.009737473 -0.45839453
0.24546777 -0.5200594 0.55827594 0.34071836 0.32254976 -0.09036764 0.8873096 0.1344716
-0.22050901 0.11377578 0.31356415 0.4752209 0.42225078 -0.42969 0.09260477 -0.24829192
-0.16105917 0.15299718 1.4758404 0.27260476 0.5537776 0.38968158 0.29242665 -0.1714848
0.9535939 0.45534277 0.21751326 -0.28524226 0.24441674 -0.043028787 -0.1329701 0.44440717
0.111474395 -0.2766382 -0.25306946 -0.02387786 0.27918065 -0.1277669 -0.28528744 -0.17122144
0.8000859 0.5015884 0.7333109 -0.55517465 0.35882688 0.4077319 0.17612779 -0.13961485
0.6030338 0.4924019 0.3403641 -0.039263252 -0.13240063 0.05349046 -0.08832705 -0.14900053
0.41047102 0.4830311 -0.0032625785 -0.14715573 -0.039191034 -0.028206715 0.2138822 0.18039781
-0.71089435 -0.33592367 0.4754313 0.35399437 -0.024868786 -0.30145288 -0.30590254 -0.44788343
0.0011545438 0.24081556 0.31470206 0.18863851 -0.74735045 -0.3775242 0.085966334 0.58374786
0.9861414 0.146001 0.14790232 -0.33526722 -0.122407824 0.46740708 -0.18965457 -0.10749518
-0.43177667 0.3142221 0.40127248 0.12743856 -0.21655357 -0.34733292 0.07947755 0.6004532
0.35760766 0.465745 0.14302365 -0.004855695 -0.0048963428 -0.38025302 -0.4283861 -0.46767431
0.20468098 -0.245484 -0.10062629 -0.28775263 -0.09111178 -0.35191745 -0.32670784 0.16585541
0.8360916 0.36887962 0.0016016368 -0.44564614 -0.088219464 -0.2423737 -0.15297079 -0.4759978
00000000: 9c57 cf3e 6fa9 dc3e 4b8b 70bd 7270 e53e
00000010: c9d3 14be 3ff0 723b 47e2 b1be cb5f 9e3e
00000020: 9ae5 843f 3c79 cabe f120 f33e 8ca2 d8bc
00000030: 278e 523f ddb5 1b3d 84a7 653e b8a0 16be
00000040: e8eb 233f b01e 0ebe 67c6 edbe 69a5 d33d
00000050: 4a92 fe3c 06f4 47bb 2778 02be 0430 733e
00000060: 2a14 cabe 8c09 6cbe 6c93 10be feec 99be
00000070: 9dd9 8abe e936 07bf 2ad9 433f 559d 763e
00000080: 81ae a73e 77a9 0fbd 86ef 9abe d581 543e
00000090: 29a5 873d 4684 d23e 53db ba3d 6998 2cbe
000000a0: 86ac 603e 22fb d1bd 56ef cb3e 05f0 0c3f
000000b0: be91 2a3e 3f17 5ebe d00a 033f 1093 5a3e
000000c0: 7a01 823e 8608 9cbe a46a fdbe 0cd1 45be
000000d0: cb34 a2be c0e3 833e 2089 d13c 65c5 e4bc
000000e0: e92d 1fbf c8af 9e3d 0878 0f3f 7b7c 6ebe
000000f0: c5ae 31be 5715 3bbe a273 003f 0f39 9e3e
00000100: 2b37 5d3e 9ed4 c13e 64a5 5e3f 896f b33e
00000110: 8d3f 29bf 43a1 80be b789 243f 06e8 d03e
00000120: 1056 f63e 4e45 d3be 98eb fdbe fe48 c8be
00000130: dca7 9fbe 1072 3a3e 9c34 203e afc2 b83e
00000140: 8498 6bbe 2181 713c 32f1 833f e157 e63d
00000150: 8bf1 30bf 7a71 ecbe 255e f73e 1faf e43d
00000160: 4ca0 51be 7ca7 4b3e 5305 133e 5c05 d0bd
00000170: aeeb 2a3f 7509 0f3f 0e57 58be d421 41be
00000180: d268 ea3e f4c3 2cbe 2c83 35be 48b4 f7be
00000190: 7cf5 933e 3129 053f b086 283e f00b 16be
000001a0: 4028 403c 6ede aebe 8630 d9be 3af8 8cbe
000001b0: 3f8e 1dbf 2126 cbbe 10f9 2a3f 95bd dd3e
000001c0: 1cc7 1d3e 66c4 eebe 5422 a8be 146c 2abe
000001d0: c01f a03d 8642 e1be 649b 5cbe 5842 99be
000001e0: 009e b53a 5084 3ebe f0ea 0dbd 2479 adbe
000001f0: 98b7 afbe d259 95be 9c41 2fbe 500e cabe
00000200: 9c4e 9b3e 7390 21be ff20 fc3e a96e 2c3e
00000210: 3a35 87bd 1b9c a23e ec89 1fbc b0b2 eabe
00000220: e75b 7b3e 9d22 05bf 2ceb 0e3f a372 ae3e
00000230: 3e25 a53e ab12 b9bd b926 633f ecb2 093e
00000240: 1dcd 61be 4703 e93d 7b8b a03e 2750 f33e
00000250: 4131 d83e 5400 dcbe 92a7 bd3d 3d40 7ebe
00000260: b2ec 24be 4bab 1c3e 57e8 bc3f da92 8b3e
00000270: 5ec4 0d3f 5884 c73e f2b8 953e b699 2fbe
00000280: bb1e 743f b022 e93e ccbb 5e3e 460b 92be
00000290: 6248 7a3e f43e 30bd 5029 08be 5689 e33e
000002a0: b04c e43d 86a3 8dbe 5292 81be 809b c3bc
000002b0: c4f0 8e3e 54d5 02be 3211 92be ac54 2fbe
000002c0: 6ed2 4c3f 1968 003f 43ba 3b3f ed1f 0ebf
000002d0: 28b8 b73e 3cc2 d03e d85a 343e 32f7 0ebe
000002e0: 6c60 1a3f 1a1c fc3e 3444 ae3e 81d2 20bd
000002f0: 0894 07be d018 5b3d d0e4 b4bd 9893 18be
00000300: 4229 d23e da4f f73e fcd0 55bb feaf 16be
00000310: c786 20bd c511 e7bc ef03 5b3e 34ba 383e
00000320: 2cfd 35bf 30fe abbe bb6b f33e c03e b53e
00000330: a0b9 cbbc 0858 9abe 429f 9cbe fa50 e5be
00000340: 1054 973a 5b98 763e a120 a13e 742a 413e
00000350: 5c52 3fbf da4a c1be 1e0f b03d 8070 153f
00000360: c373 7c3f 4981 153e b573 173e 25a8 abbe
00000370: f4b0 fabd fb4f ef3e cf34 42be 6f26 dcbd
00000380: d511 ddbe b8e1 a03e 9673 cd3e 417f 023e
00000390: 38c0 5dbe 9fd5 b1be 20c5 a23d 4db7 193f
000003a0: 5a18 b73e 2176 ee3e cb74 123e 861c 9fbb
000003b0: 8071 a0bb 86b0 c2be 6c55 dbbe 0273 efbe
000003c0: e497 513e 2860 7bbe 2815 cebd 5054 93be
000003d0: d098 babd 862e b4be 4046 a7be 00d6 293e
000003e0: 190a 563f cadd bc3e 03ee d13a bb2b e4be
000003f0: 68ac b4bd d030 78be 60a4 1cbe fcb5 f3be

nn.0.bias f4 [64]
0.42263484 -0.19214876 -0.12886105 0.17475262 0.16212998 0.12556547 0.3595984 0.5992094
0.41678184 0.6295938 0.3164517 -0.89783555 -0.115115285 1.5467507 1.0747762 -1.8760376
-0.60979813 0.20266925 0.47285318 0.091454566 -0.096840434 1.1025362 0.17927049 -0.034697942
-0.11349183 0.34275335 -0.04373187 -1.6625872 -0.20438379 -0.15872943 -0.47515202 0.41025376
-0.018975798 0.2926096 0.16180089 0.008356048 -1.0444111 -0.5198007 1.1101081 0.25252515
1.1202253 0.1270689 -0.16650558 -0.16176039 0.13520968 0.18461348 0.057473313 -0.23940295
-0.47134745 0.53556895 -1.4326348 0.13248974 -0.058387604 0.15665162 0.6390465 0.64964116
-0.11444076 0.42240623 0.6545856 0.13154167 0.33521235 0.49294376 -1.035452 0.10377723
00000000: 9863 d83e a5c2 44be 27f4 03be 5af2 323e
00000010: 6705 263e 3c94 003e 481d b83e ca65 193f
00000020: 6e64 d53e 0f2d 213f f505 a23e 8dd8 65bf
00000030: 90c1 ebbd edfb c53f 4492 893f 0022 f0bf
00000040: bb1b 1cbf 8788 4f3e d019 f23e 884c bb3d
00000050: 4754 c6bd e81f 8d3f af92 373e 6e1f 0ebd
00000060: 686e e8bd 5e7d af3e 3020 33bd a8cf d4bf
00000070: fc49 51be f889 22be 2047 f3be c80c d23e
00000080: 2273 9bbc edd0 953e 22af 253e cee7 083c
00000090: 43af 85bf a911 05bf 0618 8e3f fa4a 813e
000000a0: 8b63 8f3f 5a1e 023e 7080 2abe 84a4 25be
000000b0: 6874 0a3e 510b 3d3e 2369 6b3d 0c26 75be
000000c0: 7454 f1be 0c1b 093f 9460 b7bf 64ab 073e
000000d0: d727 6fbd 4869 203e 8d98 233f e24e 263f
000000e0: eb5f eabd a145 d83e ec92 273f dcb2 063e
000000f0: f4a0 ab3e 2063 fc3e b189 84bf 2889 d43d

nn.2.weight f4 [13, 64]
0.028240714 -0.5954847 2.640529 0.04852138 -0.24626441 0.1088488 -0.08542046 3.723936
-0.39237916 -0.64459234 1.018122 3.58741 -0.09507568 -0.19739154 -1.4375372 4.133545
2.288622 2.9345605 -0.05785151 0.2752616 3.6388428 -1.2763774 -0.9143627 -1.9594462
-0.101044625 0.6228987 0.120729715 2.9591117 -0.083941 0.030299276 0.03445129 0.06848872
1.1920909 -0.7989175 6.3207335 3.5974767 0.58880365 0.015927525 3.3417249 0.018804729
-0.21163094 0.39561975 -0.11269438 0.0055835396 0.23296835 -0.40259826 0.07072148 -0.09479843
-0.61569107 0.8179004 2.6126506 0.07211517 0.21107502 1.3013656 -2.8082001 -1.4458297
0.16972171 3.2111127 0.055908795 -0.11476326 0.0835769 -0.08816151 -7.6821404 0.10578066
0.008402908 0.24434352 -0.37433088 -0.43540296 0.2448761 0.027374247 -0.025587529 0.5475745
0.1434701 -0.05196306 0.09180944 -0.026601508 -0.1014687 0.00075026526 -0.03984277 -0.07747935
0.011807448 0.2540961 0.009957463 0.04635634 -0.24854816 0.926266 -0.20167993 -0.22234884
-0.063540176 -0.030471768 -0.036388844 0.19637583 0.11917873 0.04354036 0.08911279 -0.060514092
0.0055004624 0.13945016 1.0467197 -0.28270027 0.046511892 -0.0640927 0.023395225 -0.056931105
-0.035621434 0.08157685 -0.02176416 -0.11578412 -0.47570267 -0.07959472 -0.016548 -0.01580219
-0.15928805 0.12493935 0.12094696 0.079002246 -0.036599696 0.34374622 -0.8132064 -0.08858761
-0.041341085 0.20180014 -0.029006112 0.097574934 0.12018506 -0.06089887 0.59973 0.10028775
0.09400094 -0.06630302 0.18462786 0.12151841 -0.18196633 -0.05150512 0.033254325 0.0033003977
-0.037695605 0.12718815 0.013793076 0.045996692 -0.0070767254 0.0346812 -0.003772706 -0.17664687
-0.28180656 -0.21965034 -0.103867546 -0.07055141 0.63848126 0.48017722 0.13039097 0.056087572
0.09443119 -0.37137938 -0.068778485 0.031684164 -0.064772844 -0.08435823 -0.039916754 0.026232406
0.10006 -0.12819612 -0.03840648 0.3050091 -0.07279495 -0.09655254 0.47896644 0.004698274
0.019718708 0.09557117 0.03738819 0.043019712 0.15811083 0.01142398 -0.0118218055 0.0017180145
0.04373147 0.121140055 0.00036224426 -0.052839473 -0.02950063 -0.03708366 0.57773083 0.06618822
0.10826448 0.15778978 -0.081548296 -0.0670881 -0.027463928 -0.023040518 0.27602792 -0.11474644
0.049573597 -0.07472578 0.01631054 -0.013710781 -0.12088223 -0.023741778 0.094295844 -0.114481136
-0.06408752 -0.00276935 0.060312632 0.35016665 0.09037687 -0.07668295 -0.27890486 0.34757045
0.13131721 0.3493068 0.03419137 0.015381327 0.23640981 -0.8751617 0.047484368 -0.3072119
-0.11756636 -0.35586777 -0.08512169 0.5359213 -0.07588592 -0.009025201 -0.027742833 0.02224423
0.15882109 0.049856722 0.8373478 0.309842 0.18324801 -0.0046282285 0.14083551 -0.13188645
-0.50942105 0.10673529 -0.027308464 -0.08478154 -0.29787493 -0.068043225 0.015991524 0.124185756
0.00054896047 0.17112 0.33924386 -0.10752657 -0.032058544 0.11490724 -0.21448228 -0.1476473
-0.060882647 0.16272566 -0.07016287 -0.123229235 -0.076726556 0.047663584 1.0725967 -0.037182853
00000000: 1259 e73c af71 18bf 6dfe 2840 5bbe 463d
00000010: bd2c 7cbe 1fec de3d ecf0 aebd f854 6e40
00000020: ece5 c8be 0104 25bf d251 823f 2098 6540
00000030: 0ab7 c2bd 0221 4abe 3801 b8bf 0046 8440
00000040: c878 1240 d7cf 3b40 b4f5 6cbd 17ef 8c3e
00000050: cde2 6840 5660 a3bf ad13 6abf 22cf fabf
00000060: 7cf0 cebd 4a76 1f3f 2441 f73d 1662 3d40
00000070: 42e9 abbd 3036 f83c cc1c 0d3d d043 8c3d
00000080: 6f96 983f db85 4cbf 7343 ca40 0f3d 6640
00000090: d6bb 163f 717a 823c d2de 5540 600c 9a3c
000000a0: c8b5 58be ac8e ca3e 50cc e6bd 20f6 b63b
000000b0: 418f 6e3e 5c21 cebe 6cd6 903d ae25 c2bd
000000c0: ee9d 1dbf ec61 513f ab35 2740 1eb1 933d
000000d0: 0d24 583e 2693 a63f 8db9 33c0 f310 b9bf
000000e0: 87cb 2d3e df82 4d40 9f00 653d 0009 ebbd
000000f0: 5e2a ab3d 068e b4bd 18d4 f5c0 88a3 d83d
00000100: 5aac 093c 3035 7a3e 4ca8 bfbe 23ed debe
00000110: cdc0 7a3e f53f e03c f09c d1bc d82d 0c3f
00000120: d3e9 123e 38d7 54bd 9606 bc3d 68eb d9bc
00000130: d2ce cfbd 73ad 443a 2c32 23bd 7ead 9ebd
00000140: 0774 413c e218 823e a024 233c 25e0 3d3d
00000150: 6983 7ebe c51f 6d3f 2f85 4ebe 6aaf 63be
00000160: 5a21 82bd ee9f f9bc 780c 15bd bf16 493e
00000170: fa13 f43d 6057 323d c480 b63d a0dd 77bd
00000180: 393d b43b 06cc 0e3e e9fa 853f 17be 90be
00000190: 4183 3e3d 0943 83bd 58a7 bf3c 9730 69bd
000001a0: c8e7 11bd c311 a73d c04a b2bc 3a20 edbd
000001b0: 4d8f f3be 8e02 a3bd ac8f 87bc 9873 81bc
000001c0: 681c 23be 34e0 ff3d 0ab3 f73d eecb a13d
000001d0: 90e9 15bd 81ff af3e 4b2e 50bf 6c6d b5bd
000001e0: 4555 29bd b2a4 4e3e 3a9e edbc 5ed5 c73d
000001f0: 9623 f63d 1871 79bd e887 193f aa63 cd3d
00000200: 9183 c03d e1c9 87bd 160f 3d3e a5de f83d
00000210: 6255 3abe 08f7 52bd b035 083d 7c4b 583b
00000220: b566 1abd 9c3d 023e 5bfc 613c 0767 3c3d
00000230: e0e3 e7bb e00d 0e3d 813f 77bb ebe2 34be
00000240: f348 90be 05ec 60be 82b8 d4bd 427d 90bd
00000250: 8273 233f cad9 f53e 3685 053e 15bc 653d
00000260: 2465 c13d 7025 bebe bcdb 8cbd 41c7 013d
00000270: a0a7 84bd 02c4 acbd c07f 23bd 58e5 d63c
00000280: 42ec cc3d d845 03be 1d50 1dbd 272a 9c3e
00000290: 8515 95bd 57bd c5bd 173b f53e fbf3 993b
000002a0: 2189 a13c d1ba c33d 5c24 193d 7035 303d
000002b0: cee7 213e a52b 3b3c 3fb0 41bc 002f e13a
000002c0: c51f 333d 4718 f83d 9aeb bd39 346e 58bd
000002d0: 4eab f1bc 09e5 17bd 2be6 133f b18d 873d
000002e0: c5b9 dd3d a593 213e cb02 a7bd 7c65 89bd
000002f0: 08fc e0bc 78bf bcbc 8853 8d3e 2e00 ebbd
00000300: af0d 4b3d d409 99bd ae9d 853c 2fa3 60bc
00000310: 1a91 f7bd 1e7e c2bc 2e1e c13d 1675 eabd
00000320: 5140 83bd fc7d 35bb 610a 773d 0b49 b33e
00000330: 8217 b93d f30b 9dbd 9ecc 8ebe c1f4 b13e
00000340: 0578 063e 57d8 b23e 400c 0c3d f601 7c3c
00000350: 6a15 723e 990a 60bf f87e 423d e14a 9dbe
00000360: a2c6 f0bd 4d34 b6be 4854 aebd 2332 093f
00000370: 146a 9bbd 70de 13bc f044 e3bc 8839 b63c
00000380: ffa1 223e 9036 4c3d 6d5c 563f 9ca3 9e3e
00000390: 5ea5 3b3e 65a8 97bb 2f37 103e 3e0d 07be
000003a0: 6b69 02bf 0898 da3d 00b6 dfbc f2a1 adbd
000003b0: 1083 98be 3f5a 8bbd a800 833c 1a55 fe3d
000003c0: 1de8 0f3a 153a 2f3e 5fb1 ad3e e436 dcbd
000003d0: d24f 03bd 7d54 eb3d 3ea1 5bbe db30 17be
000003e0: 1560 79bd 8ea1 263e 8db1 8fbd 9c5f fcbd
000003f0: d022 9dbd e43a 433d d94a 893f 0c4d 18bd

nn.2.bias f4 [13]
-1.9453472 0.5327639 0.20307417 -0.5869481 -0.08957131 0.08573556 -0.09735878 0.11410265
0.00968872 0.060120642 0.09708454 0.10656364 -0.09744185
00000000: 2301 f9bf 3763 083f adf2 4f3e 3b42 16bf
00000010: 2a71 b7bd 2096 af3d 0a64 c7bd a6ae e93d
00000020: 70bd 1e3c 1041 763d 42d4 c63d 0a3e da3d
00000030: 988f c7bd

exp_avg f4 [64, 4]
-1.2671098 -14.638262 -3.0134058 -13.035112 1.8243818 30.142195 6.010415 27.18063
-1.6981392 0.31250957 5.7403316 3.6281605 -3.5568578 -26.779205 -4.162929 -21.473614
1.3194349 6.0213275 0.34862533 7.013524 -0.5293414 -2.5287302 -1.3177564 -2.183422
0.0 0.0 0.0 0.0 -3.3158662 -9.962129 -6.761445 -14.494908
0.8032384 15.527531 3.4234753 14.805997 -1.6265055 -19.46195 -3.9276905 -17.128885
-0.6053227 -4.230821 -1.4255923 -4.0372396 1.044336 0.31361693 3.278374 -0.49828893
0.0 0.0 0.0 0.0 -0.50576013 -3.52572 -1.3617121 -3.075768
-0.29662254 1.1333414 -1.0031716 0.044505805 3.3030288 24.152266 8.916419 20.734459
0.30552047 5.679914 1.2284507 4.82042 3.849666 40.445328 9.748284 35.0553
0.0 0.0 0.0 0.0 -0.694785 -4.1090274 -1.6363528 -3.6505957
-2.4267397 -47.319424 -5.2802205 -42.90991 0.18978766 -0.30548045 -0.87759525 -0.14841981
-1.2319142 -21.904713 -2.660199 -19.127972 -4.5111594 -43.78536 -10.686511 -38.16351
0.0 0.0 0.0 0.0 -2.067518 -4.6232834 -5.2349253 -3.7010932
0.0 0.0 0.0 0.0 2.6944313 18.869781 7.3480806 15.685869
0.0 0.0 0.0 0.0 0.0 0.0 0.0 0.0
0.0 0.0 0.0 0.0 0.0 0.0 0.0 0.0
0.40052348 -1.5973382 1.2238351 -1.760912 -0.15274002 -1.6678 -1.1177062 -0.80776554
-4.267313 -13.700775 -5.902373 -11.397052 -4.281316 -61.68812 -9.35318 -55.2771
-0.31450987 -4.6217227 -0.429305 -4.2103047 6e-45 6e-45 6e-45 6e-45
-1.972409 -29.007214 -4.6401234 -26.773237 -2.511781 -22.287859 -6.149777 -19.592894
-4.3423944 -29.720947 -11.225456 -26.122066 -1.2073753 -13.119847 -2.8864608 -11.816917
0.0 0.0 0.0 0.0 0.0 0.0 0.0 0.0
-0.61449254 -13.432725 -0.6277343 -12.297885 -1.7044908 -17.295013 -4.103965 -15.100316
-2.1116173 -20.61511 -4.9883046 -18.193956 0.0 0.0 0.0 0.0
-1.6002283 -21.28005 -3.6633923 -18.549164 -1.1322887 -12.888316 -2.6219814 -11.822322
1.6043158 13.815806 5.154832 11.079695 0.0 0.0 0.0 0.0
-1.3801416 -12.822093 -3.2710536 -11.278155 4.932236 56.381184 9.324644 50.994553
0.73154056 22.61931 13.793756 20.896444 -2.4831076 -24.321081 -5.8443294 -21.208065
-0.66876626 -8.067006 -1.6932408 -7.1833954 3.0254154 27.828276 6.500507 24.229525
-0.67244786 -4.07516 -1.6268369 -3.4654913 0.0 0.0 0.0 0.0
0.0 0.0 0.0 0.0 0.0 0.0 0.0 0.0
4.1698637 26.905825 9.730296 23.61999 0.0 0.0 0.0 0.0
00000000: a730 a2bf 5236 6ac1 a4db 40c0 d28f 50c1
00000010: 5885 e93f 3723 f141 5255 c040 ee71 d941
00000020: a05c d9bf 4101 a03e ccb0 b740 c833 6840
00000030: 8fa3 63c0 d03b d6c1 b736 85c0 f6c9 abc1
00000040: 3ee3 a83f b7ae c040 057f b23e ca6e e040
00000050: eb82 07bf b7d6 21c0 3eac a8bf 30bd 0bc0
00000060: 0000 0000 0000 0000 0000 0000 0000 0000
00000070: 2737 54c0 e164 1fc1 c25d d8c0 25eb 67c1
00000080: 08a1 4d3f c470 7841 381a 5b40 5de5 6c41
00000090: 5531 d0bf 13b2 9bc1 485f 7bc0 f507 89c1
000000a0: 6ef6 1abf e362 87c0 cf79 b6bf 1131 81c0
000000b0: cdac 853f 6692 a03e e1d0 5140 ba1f ffbe
000000c0: 0000 0000 0000 0000 0000 0000 0000 0000
000000d0: 7f79 01bf 65a5 61c0 954c aebf 62d9 44c0
000000e0: e9de 97be 5511 913f ed67 80bf b84b 363d
000000f0: d364 5340 d737 c141 a7a9 0e41 2ce0 a541
00000100: 2e6d 9c3e dbc1 b540 df3d 9d3f e140 9a40
00000110: ee60 7640 04c8 2142 f9f8 1b41 a138 0c42
00000120: 0000 0000 0000 0000 0000 0000 0000 0000
00000130: 6edd 31bf 277d 83c0 0274 d1bf 5ca3 69c0
00000140: b44f 1bc0 1747 3dc2 91f7 a8c0 bfa3 2bc2
00000150: b257 423e ef67 9cbe 15aa 60bf 5dfb 17be
00000160: 5daf 9dbf da3c afc1 b340 2ac0 1606 99c1
00000170: 6b5b 90c0 3524 2fc2 f3fb 2ac1 6fa7 18c2
00000180: 0000 0000 0000 0000 0000 0000 0000 0000
00000190: 3752 04c0 f0f1 93c0 8284 a7c0 b6de 6cc0
000001a0: 0000 0000 0000 0000 0000 0000 0000 0000
000001b0: 9071 2c40 50f5 9641 7a23 eb40 52f9 7a41
000001c0: 0000 0000 0000 0000 0000 0000 0000 0000
000001d0: 0000 0000 0000 0000 0000 0000 0000 0000
000001e0: 0000 0000 0000 0000 0000 0000 0000 0000
000001f0: 0000 0000 0000 0000 0000 0000 0000 0000
00000200: 6a11 cd3e 9475 ccbf a1a6 9c3f 9065 e1bf
00000210: e167 1cbe 787a d5bf ff10 8fbf b9c9 4ebf
00000220: d48d 88c0 6036 5bc1 3de0 bcc0 535a 36c1
00000230: 8a00 89c0 a3c0 76c2 a0a6 15c1 c01b 5dc2
00000240: 7007 a1be 27e5 93c0 ddcd dbbe d1ba 86c0
00000250: 0400 0000 0400 0000 0400 0000 0400 0000
00000260: e677 fcbf c60e e8c1 e47b 94c0 972f d6c1
00000270: 05c1 20c0 894d b2c1 f9ca c4c0 3fbe 9cc1
00000280: e5f4 8ac0 80c4 edc1 789b 33c1 fef9 d0c1
00000290: 468b 9abf e5ea 51c1 c6bb 38c0 1812 3dc1
000002a0: 0000 0000 0000 0000 0000 0000 0000 0000
000002b0: 0000 0000 0000 0000 0000 0000 0000 0000
000002c0: 624f 1dbf 71ec 56c1 32b3 20bf 23c4 44c1
000002d0: c12c dabf 305c 8ac1 ae53 83c0 e59a 71c1
000002e0: bd24 07c0 bfeb a4c1 31a0 9fc0 398d 91c1
000002f0: 0000 0000 0000 0000 0000 0000 0000 0000
00000300: 48d4 ccbf 8b3d aac1 0575 6ac0 b064 94c1
00000310: d6ee 90bf 8b36 4ec1 8bce 27c0 3b28 3dc1
00000320: 385a cd3f 8b0d 5d41 62f4 a440 6e46 3141
00000330: 0000 0000 0000 0000 0000 0000 0000 0000
00000340: 7ba8 b0bf 4b27 4dc1 f158 51c0 5373 34c1
00000350: e1d4 9d40 5586 6142 be31 1541 6cfa 4b42
00000360: 3e46 3b3f 59f4 b441 39b3 5c41 eb2b a741
00000370: 3ceb 1ec0 9391 c2c1 bf04 bbc0 1eaa a9c1
00000380: 4434 2bbf 7512 01c1 1dbc d8bf 60de e5c0
00000390: 68a0 4140 4fa0 de41 2704 d040 11d6 c141
000003a0: 8b25 2cbf b667 82c0 313c d0bf 9cca 5dc0
000003b0: 0000 0000 0000 0000 0000 0000 0000 0000
000003c0: 0000 0000 0000 0000 0000 0000 0000 0000
000003d0: 0000 0000 0000 0000 0000 0000 0000 0000
000003e0: 866f 8540 213f d741 4baf 1b41 bdf5 bc41
000003f0: 0000 0000 0000 0000 0000 0000 0000 0000

exp_avg_sq f4 [64, 4]
346.5712 16740.74 2709.7756 17017.9 1833.9514 87202.01 13617.727 89379.41
2126.1003 43143.094 12476.085 45456.81 4250.3 170975.47 32066.447 165774.19
302.5969 6004.8267 183.73628 9186.248 1.4486408 93.60821 16.634922 91.227295
0.0 0.0 0.0 0.0 176.57825 10271.394 3101.572 10945.966
462.137 20215.127 2993.5388 21293.613 568.35504 27825.512 4509.835 28223.428
19.254253 906.5661 142.56366 923.4437 330.77148 14244.244 2478.8562 14733.286
0.0 0.0 0.0 0.0 1.4928596 102.529396 16.04349 95.95281
121.08202 10484.823 2772.5183 8880.941 107.622574 6696.0107 1031.3583 6464.3145
30.278158 1809.6365 311.57135 1806.1475 1613.795 83105.555 13331.762 83566.61
0.0 0.0 0.0 0.0 5.4766493 294.6204 47.325943 292.1978
6528.2437 313158.28 51828.137 319086.25 16.392694 1541.0735 1387.858 2063.2307
1152.5398 55427.188 9120.334 56410.69 1732.1478 88399.805 14068.059 88862.11
0.0 0.0 0.0 0.0 268.99225 12055.134 2197.904 12469.222
0.0 0.0 0.0 0.0 32.351345 2348.338 381.08902 2133.7014
0.0 0.0 0.0 0.0 0.0 0.0 0.0 0.0
0.0 0.0 0.0 0.0 0.0 0.0 0.0 0.0
123.16411 5539.819 947.8818 5707.479 0.10677125 13.966411 7.0573545 4.567783
457.2044 15367.31 2951.4988 16747.293 8831.942 421471.47 69072.03 429258.12
89.68109 3874.4885 637.2717 3999.3113 6.3225464e-10 1.49634e-08 3.1573487e-07 1.2752169e-09
1991.2888 95999.586 15783.928 97767.94 403.41568 20584.736 3259.2642 20682.064
172.44067 10747.755 1654.4159 10325.963 295.77808 14079.016 2265.8235 14357.592
0.0 0.0 0.0 0.0 0.0 0.0 0.0 0.0
548.8079 27699.621 4944.1455 26971.797 331.6209 16541.855 2649.9731 16698.389
502.58875 24518.428 3922.759 24838.268 0.0 0.0 0.0 0.0
814.3477 39530.98 6440.2676 40127.6 339.93878 15897.842 2577.5806 16255.194
34.298065 2456.7441 395.53864 2314.2964 0.0 0.0 0.0 0.0
168.34895 8355.476 1331.1168 8433.844 4653.9106 231938.2 36742.05 239982.28
5072.0312 149219.9 31142.336 135100.19 526.1664 26764.453 4259.791 26925.521
87.08703 4435.4346 721.2499 4473.8154 720.0514 36273.527 5745.5166 36541.047
2.7350583 174.65991 29.097168 166.7631 0.0 0.0 0.0 0.0
0.0 0.0 0.0 0.0 0.0 0.0 0.0 0.0
148.48349 6906.464 1305.002 5356.3706 0.0 0.0 0.0 0.0
00000000: 1d49 ad43 7bc9 8246 695c 2945 cdf3 8446
00000010: 723e e544 0151 aa47 e8c6 5446 b491 ae47
00000020: 9be1 0445 1887 2847 57f0 4246 cf90 3147
00000030: 66d2 8445 def7 2648 e584 fa46 8ce3 2148
00000040: 674c 9743 9da6 bb45 7dbc 3743 fe88 0f46
00000050: 106d b93f 6737 bb42 5214 8541 6074 b642
00000060: 0000 0000 0000 0000 0000 0000 0000 0000
00000070: 0894 3043 937d 2046 27d9 4145 dd07 2b46
00000080: 8911 e743 41ee 9d46 9f18 3b45 3a5b a646
00000090: b916 0e44 0663 d946 aeee 8c45 db7e dc46
000000a0: b608 9a41 3ba4 6244 4c90 0e43 66dc 6644
000000b0: c062 a543 fa90 5e46 b3ed 1a45 2535 6646
000000c0: 0000 0000 0000 0000 0000 0000 0000 0000
000000d0: 0616 bf3f 0d0f cd42 1159 8041 d7e7 bf42
000000e0: ff29 f242 4bd3 2346 4b48 2d45 c4c3 0a46
000000f0: c23e d742 1640 d145 77eb 8044 8402 ca45
00000100: ab39 f241 5e34 e244 22c9 9b43 b8c4 e144
00000110: 71b9 c944 c750 a247 0c4f 5046 4e37 a347
00000120: 0000 0000 0000 0000 0000 0000 0000 0000
00000130: b640 af40 694f 9343 c44d 3d42 5219 9243
00000140: f301 cc45 c9e8 9848 2374 4a47 c8cd 9b48
00000150: 3d24 8341 5aa2 c044 757b ad44 b1f3 0045
00000160: 4611 9044 3083 5847 5681 0e46 b15a 5c47
00000170: bb84 d844 e7a7 ac47 3cd0 5b46 0e8f ad47
00000180: 0000 0000 0000 0000 0000 0000 0000 0000
00000190: 027f 8643 895c 3c46 775e 0945 e3d4 4246
000001a0: 0000 0000 0000 0000 0000 0000 0000 0000
000001b0: c767 0142 68c5 1245 658b be43 395b 0545
000001c0: 0000 0000 0000 0000 0000 0000 0000 0000
000001d0: 0000 0000 0000 0000 0000 0000 0000 0000
000001e0: 0000 0000 0000 0000 0000 0000 0000 0000
000001f0: 0000 0000 0000 0000 0000 0000 0000 0000
00000200: 0654 f642 8d1e ad45 6ff8 6c44 d55b b245
00000210: e3aa da3d 6b76 5f41 d9d5 e140 472b 9240
00000220: 2a9a e443 3d1d 7046 fb77 3845 96d6 8246
00000230: c5ff 0946 efcb cd48 04e8 8647 4499 d148
00000240: b85c b342 d127 7245 6451 1f44 fbf4 7945
00000250: f7ca 2d30 dd88 8032 4582 a934 b543 af30
00000260: 3ee9 f844 cb7f bb47 b69f 7646 f8f3 be47
00000270: 35b5 c943 79d1 a046 3ab4 4b45 2194 a146
00000280: d070 2c43 05ef 2746 4fcd ce44 da57 2146
00000290: 98e3 9343 10fc 5b46 2d9d 0d45 5e56 6046
000002a0: 0000 0000 0000 0000 0000 0000 0000 0000
000002b0: 0000 0000 0000 0000 0000 0000 0000 0000
000002c0: b533 0944 3e67 d846 2a81 9a45 98b7 d246
000002d0: 7acf a543 b63b 8146 929f 2545 c774 8246
000002e0: 5c4b fb43 db8c bf46 252c 7545 890c c246
000002f0: 0000 0000 0000 0000 0000 0000 0000 0000
00000300: 4196 4b44 fb6a 1a47 2442 c945 9abf 1c47
00000310: 2af8 a943 5e67 7846 4a19 2145 c7fc 7d46
00000320: 3831 0942 e88b 1945 f2c4 c543 bea4 1045
00000330: 0000 0000 0000 0000 0000 0000 0000 0000
00000340: 5559 2843 e78d 0246 bd63 a644 60c7 0346
00000350: 496f 9145 8d80 6248 0d86 0f47 925b 6a48
00000360: 4080 9e45 fab8 1148 ac4c f346 0cef 0348
00000370: a68a 0344 e818 d146 541e 8545 0b5b d246
00000380: 8f2c ae42 7a9b 8a45 fe4f 3444 86ce 8b45
00000390: 4a03 3444 87b1 0d47 228c b345 0cbd 0e47
000003a0: 320b 2f40 f0a8 2e43 00c7 e841 5bc3 2643
000003b0: 0000 0000 0000 0000 0000 0000 0000 0000
000003c0: 0000 0000 0000 0000 0000 0000 0000 0000
000003d0: 0000 0000 0000 0000 0000 0000 0000 0000
000003e0: c67b 1443 b6d3 d745 1020 a344 f762 a745
000003f0: 0000 0000 0000 0000 0000 0000 0000 0000

exp_avg f4 [64]
-0.08099572 0.12532464 0.084481314 -0.08018689 0.06352379 -0.022002988 0.0 -0.14074811
0.06976304 -0.110290706 -0.027749075 0.087332465 0.0 -0.035913028 -0.03470646 0.246696
0.076938 0.26510224 0.0 -0.026567217 -0.18123855 -0.048930492 -0.08607006 -0.26623023
0.0 -0.0632211 0.0 0.17524213 0.0 0.0 0.0 0.0
0.020416029 -0.013038903 -0.091519095 -0.23269117 0.0009245097 6e-45 -0.14530988 -0.13893808
-0.2528825 -0.07569195 0.0 0.0 -0.036647238 -0.097309195 -0.11183006 0.0
-0.09429883 -0.0710768 0.12172677 0.0 -0.06923983 0.26904047 0.13347909 -0.15388617
-0.05092051 0.15587148 -0.025867328 0.0 0.0 0.0 0.141005 0.0
00000000: 16e1 a5bd 1a55 003e 8a04 ad3d 0639 a4bd
00000010: c318 823d 9c3f b4bc 0000 0000 4620 10be
00000020: eddf 8e3d 18e0 e1bd 0752 e3bc 5ddb b23d
00000030: 0000 0000 8a19 13bd 5c28 0ebd e09d 7c3e
00000040: ac91 9d3d 7bbb 873e 0000 0000 7ea3 d9bc
00000050: 9996 39be 576b 48bd 8045 b0bd 544f 88be
00000060: 0000 0000 107a 81bd 0000 0000 ac72 333e
00000070: 0000 0000 0000 0000 0000 0000 0000 0000
00000080: 843f a73c 1fa1 55bc 5d6e bbbd 9846 6ebe
00000090: cc5a 723a 0400 0000 1dcc 14be c945 0ebe
000000a0: d179 81be 6204 9bbd 0000 0000 0000 0000
000000b0: 6a1b 16bd 0b4a c7bd 2907 e5bd 0000 0000
000000c0: bf1f c1bd b790 91bd e34b f93d 0000 0000
000000d0: 9dcd 8dbd acbf 893e beae 083e 5694 1dbe
000000e0: 0692 50bd c69c 1f3e b8e7 d3bc 0000 0000
000000f0: 0000 0000 0000 0000 9d63 103e 0000 0000

exp_avg_sq f4 [64]
0.686007 3.4797225 2.1140234 6.892436 0.31408313 0.0037685856 0.0 0.511638
0.7995861 1.1385493 0.037407957 0.59772754 0.0 0.0043621836 0.42906392 0.28385186
0.07578129 3.389011 0.0 0.012113298 12.831474 0.20843466 2.2714794 3.607392
0.0 0.49521464 0.0 0.09911638 0.0 0.0 0.0 0.0
0.22889155 0.0009958305 0.6960909 17.30168 0.16179399 4.0218304e-11 3.9306881 0.8412525
0.4410201 0.57661784 0.0 0.0 1.1022103 0.6765915 1.0053726 0.0
1.6197355 0.6534527 0.10139095 0.0 0.34230155 9.524718 5.8556004 1.0925399
0.18078844 1.4809687 0.007089877 0.0 0.0 0.0 0.2517829 0.0
00000000: 289e 2f3f c6b3 5e40 294c 0740 d68e dc40
00000010: 81cf a03e 60fa 763b 0000 0000 b5fa 023f
00000020: adb1 4c3f fcbb 913f 1639 193d ac04 193f
00000030: 0000 0000 a6f0 8e3b 44ae db3e 0855 913e
00000040: 3933 9b3d 8ee5 5840 0000 0000 db76 463c
00000050: b84d 4d41 e56f 553e eb5f 1140 83df 6640
00000060: 0000 0000 c68c fd3e 0000 0000 87fd ca3d
00000070: 0000 0000 0000 0000 0000 0000 0000 0000
00000080: 8c62 6a3e 8786 823a 0333 323f d769 8a41
00000090: 53ad 253e c9e1 302e 6590 7b40 535c 573f
000000a0: 63cd e13e 3a9d 133f 0000 0000 0000 0000
000000b0: 3a15 8d3f 1a35 2d3f 0db0 803f 0000 0000
000000c0: 7e53 cf3f ad48 273f 0fa6 cf3d 0000 0000
000000d0: 2642 af3e 3f65 1841 1461 bb40 59d8 8b3f
000000e0: 9b20 393e 6290 bd3f 3352 e83b 0000 0000
000000f0: 0000 0000 0000 0000 b0e9 803e 0000 0000

exp_avg f4 [13, 64]
0.20842402 0.09517695 0.029129248 0.037987553 0.01019005 0.044007998 0.0 -0.024791589
0.06935335 0.13532706 0.0578629 -0.02660217 0.0 0.0994284 0.11317208 -0.012639768
0.2239074 -0.0021560597 0.0 0.11646109 0.07800136 0.054001056 0.06685115 0.17725503
0.0 0.1792232 0.0 -0.063213125 0.0 0.0 0.0 0.0
-0.0046983417 0.030228015 -0.08749426 0.038425587 0.10715964 -6e-45 0.18271393 0.1382766
0.15165961 0.05400576 0.0 0.0 0.19300172 0.14029105 0.19216138 0.0
0.15029895 0.028834607 -0.056161016 0.0 0.12597989 -0.020020882 0.092087865 0.16133615
0.14717185 -0.029720305 0.17859538 0.0 0.0 0.0 0.12130067 0.0
36.913174 11.427075 -1.5027755 -0.8807267 0.46793097 8.733629 0.0 -4.568583
6.038049 12.081429 17.532164 -0.5356594 0.0 10.093697 -2.2452366 4.376673
32.35881 4.8709326 0.0 21.85819 6.3916483 -0.13561016 4.86599 18.044493
0.0 18.460737 0.0 -0.7452623 0.0 0.0 0.0 0.0
0.5683402 -0.09507858 -4.0551763 3.003893 23.508747 6e-45 19.695652 11.9868965
11.007654 15.09131 0.0 0.0 3.051951 13.556704 21.82255 0.0
16.355265 5.925882 -1.5023923 0.0 18.500504 4.6385984 -0.15843767 16.114573
19.012096 7.553059 21.368332 0.0 0.0 0.0 1.6707762 0.0
-56.220547 -13.715301 1.1902819 -2.4039545 -0.68428105 -12.362913 0.0 3.410086
-8.03747 -18.736803 -32.024765 -5.255421 0.0 -14.526737 0.07559342 -11.125265
-57.718296 -12.656351 0.0 -33.65885 -19.4705 -0.26325104 -7.8309827 -26.224731
0.0 -29.387106 0.0 -4.3165174 0.0 0.0 0.0 0.0
-7.294377 -0.1136356 1.6870621 -14.870397 -37.9182 -6e-45 -44.58171 -22.042358
-21.076305 -22.933466 0.0 0.0 -13.494266 -22.608637 -37.403927 0.0
-24.816002 -11.447258 -0.79812336 0.0 -30.882935 -7.3394156 -1.7729505 -21.58479
-30.977728 -12.785656 -34.181774 0.0 0.0 0.0 -4.3587885 0.0
-15.752085 -6.507004 1.8023648 1.9199274 -0.34676185 -4.4391785 0.0 4.190461
-3.299504 -4.5029016 -5.997041 2.26721 0.0 -4.446487 1.9284085 -0.46483022
-10.418211 -0.6393685 0.0 -9.326866 1.0225395 0.17804603 -1.6277707 -7.5257564
0.0 -6.776827 0.0 1.7925694 0.0 0.0 0.0 0.0
1.98239 0.11249212 4.0438666 2.552475 -9.445018 -6e-45 -2.8285973 -3.1143634
-2.3843226 -7.021219 0.0 0.0 2.4344888 -4.503744 -7.168323 0.0
-6.387413 -1.7883375 1.422803 0.0 -6.757112 -2.6263638 1.2544364 -7.5814714
-7.108346 -3.7265792 -8.063871 0.0 0.0 0.0 0.69927174 0.0
00000000: 1b6d 553e 22ec c23d 76a0 ee3c d698 1b3d
00000010: 2bf4 263c bb41 343d 0000 0000 bb17 cbbc
00000020: 2109 8e3d 2d93 0a3e a601 6d3d cbec d9bc
00000030: 0000 0000 1ea1 cb3d c3c6 e73d 0817 4fbc
00000040: fb47 653e ae4c 0dbb 0000 0000 2783 ee3d
00000050: 2dbf 9f3d 3630 5d3d 41e9 883d 5882 353e
00000060: 0000 0000 4986 373e 0000 0000 e275 81bd
00000070: 0000 0000 0000 0000 0000 0000 0000 0000
00000080: 8cf4 99bb bea0 f73c 3130 b3bd 2664 1d3d
00000090: 8376 db3d 0400 0080 5c19 3b3e 6298 0d3e
000000a0: a84c 1b3e 2535 5d3d 0000 0000 0000 0000
000000b0: 3ea2 453e 75a8 0f3e f4c5 443e 0000 0000
000000c0: f8e7 193e 8e36 ec3c 1809 66bd 0000 0000
000000d0: df00 013e d502 a4bc 9098 bc3d 4e35 253e
000000e0: 38b4 163e ff77 f3bc b5e1 363e 0000 0000
000000f0: 0000 0000 0000 0000 7c6c f83d 0000 0000
00000100: 17a7 1342 4dd5 3641 f35a c0bf 4e77 61bf
00000110: a694 ef3e f2bc 0b41 0000 0000 d531 92c0
00000120: b337 c140 884d 4141 df41 8c41 f920 09bf
00000130: 0000 0000 c87f 2141 f5b1 0fc0 b50d 8c40
00000140: 6c6f 0142 aede 9b40 0000 0000 93dd ae41
00000150: 6288 cc40 64dd 0abe 31b6 9b40 1f5b 9041
00000160: 0000 0000 97af 9341 0000 0000 83c9 3ebf
00000170: 0000 0000 0000 0000 0000 0000 0000 0000
00000180: be7e 113f 8fb8 c2bd 01c4 81c0 c83f 4040
00000190: ea11 bc41 0400 0000 b290 9d41 54ca 3f41
000001a0: 5a1f 3041 0176 7141 0000 0000 0000 0000
000001b0: 2a53 4340 42e8 5841 9594 ae41 0000 0000
000001c0: 95d7 8241 d3a0 bd40 644e c0bf 0000 0000
000001d0: 0801 9441 666f 9440 7c3d 22be a5ea 8041
000001e0: c618 9841 a9b2 f140 58f2 aa41 0000 0000
000001f0: 0000 0000 0000 0000 ffdb d53f 0000 0000
00000200: d7e1 60c2 df71 5bc1 285b 983f 64da 19c0
00000210: 0b2d 2fbf 7ece 45c1 0000 0000 d93e 5a40
00000220: 7a99 00c1 f9e4 95c1 5c19 00c2 692c a8c0
00000230: 0000 0000 846d 68c1 b9d0 9a3d 1601 32c1
00000240: 89df 66c2 6a80 4ac1 0000 0000 aaa2 06c2
00000250: 96c3 9bc1 d7c8 86be 6997 fac0 40cc d1c1
00000260: 0000 0000 cb18 ebc1 0000 0000 e920 8ac0
00000270: 0000 0000 0000 0000 0000 0000 0000 0000
00000280: 896b e9c0 c8b9 e8bd a7f1 d73f 25ed 6dc1
00000290: 3dac 17c2 0400 0080 ac53 32c2 c056 b0c1
000002a0: 469c a8c1 bd77 b7c1 0000 0000 0000 0000
000002b0: 83e8 57c1 7dde b4c1 9f9d 15c2 0000 0000
000002c0: 2c87 c6c1 f827 37c1 d051 4cbf 0000 0000
000002d0: 4010 f7c1 7edc eac0 0bf0 e2bf a6ad acc1
000002e0: 63d2 f7c1 0c92 4cc1 23ba 08c2 0000 0000
000002f0: 0000 0000 0000 0000 327b 8bc0 0000 0000
00000300: 8a08 7cc1 6039 d0c0 e4b3 e63f 2ec0 f53f
00000310: c58a b1be c00d 8ec0 0000 0000 4218 8640
00000320: 132b 53c0 c517 90c0 c3e7 bfc0 f819 1140
00000330: 0000 0000 9f49 8ec0 17d6 f63f 3afe edbe
00000340: feb0 26c1 a7ad 23bf 0000 0000 d83a 15c1
00000350: 93e2 823f b351 363e ca5a d0bf ffd2 f0c0
00000360: 0000 0000 c4db d8c0 0000 0000 ea72 e53f
00000370: 0000 0000 0000 0000 0000 0000 0000 0000
00000380: f5be fd3f 4562 e63d 5b67 8140 c05b 2340
00000390: cb1e 17c1 0400 0080 bd07 35c0 bb51 47c0
000003a0: be98 18c0 d3ad e0c0 0000 0000 0000 0000
000003b0: aace 1b40 ac1e 90c0 e762 e5c0 0000 0000
000003c0: b065 ccc0 3ee8 e4bf 691e b63f 0000 0000
000003d0: 433a d8c0 5816 28c0 5f91 a03f 6a9b f2c0
000003e0: 9277 e3c0 4680 6ec0 9e05 01c1 0000 0000
000003f0: 0000 0000 0000 0000 7903 333f 0000 0000

exp_avg_sq f4 [13, 64]
0.60287887 0.041291196 0.049549814 0.0274218 0.009317404 0.027522 0.0 0.12819138
0.049878493 0.08035915 0.32340273 0.10458016 0.0 0.15302789 0.08928323 0.12252709
0.9103778 0.1830217 0.0 0.28947932 0.47053716 0.031469196 0.021076147 0.06530293
0.0 0.13967258 0.0 0.14452799 0.0 0.0 0.0 0.0
0.13084131 0.0030555145 0.08669976 0.35351118 0.35879382 1.4075013e-08 1.2629596 0.13367076
0.11483344 0.097115666 0.0 0.0 0.29161668 0.104288176 0.3033089 0.0
0.109358504 0.05365462 0.074816 0.0 0.25837573 0.025039487 0.018856337 0.051221397
0.3183678 0.04413745 0.311366 0.0 0.0 0.0 0.013363748 0.0
290821.3 8506.559 229.60532 3693.3447 29.467422 13723.446 0.0 1014.7768
3835.7598 29752.488 147822.89 17736.043 0.0 23515.318 868.33594 31428.375
423792.6 37985.957 0.0 117206.08 91176.17 8.680632 5605.1924 49204.09
0.0 79639.35 0.0 15731.621 0.0 0.0 0.0 0.0
23388.135 0.50980407 3354.2314 69630.95 161196.17 7.323085e-08 350949.3 59403.19
54142.285 51259.145 0.0 0.0 44736.73 52823.016 156625.92 0.0
52198.055 19788.65 6872.3853 0.0 107776.5 7544.2886 879.3546 25555.01
104748.19 22742.426 124639.85 0.0 0.0 0.0 1164.7627 0.0
306648.44 9104.824 221.20409 3751.3381 32.62488 14531.313 0.0 986.5964
4071.8901 31353.293 154984.33 18308.957 0.0 24943.283 877.9 32750.479
444306.03 39632.98 0.0 123624.76 94805.33 7.6915135 5901.3877 51904.19
0.0 83761.32 0.0 16254.514 0.0 0.0 0.0 0.0
24201.016 1.074084 3355.329 72135.57 169620.98 6.010783e-08 366275.7 62144.78
56521.688 54048.01 0.0 0.0 46244.69 55451.02 164290.94 0.0
54977.754 20735.736 7112.823 0.0 113271.06 7967.7183 882.1082 27183.746
110254.5 23903.861 131148.88 0.0 0.0 0.0 1193.3453 0.0
138255.22 4030.8909 128.11691 1889.6572 16.609934 6553.658 0.0 498.05734
1904.9127 13911.568 70673.81 8591.842 0.0 10832.737 389.0775 14939.125
200853.78 17815.506 0.0 55162.812 43038.8 4.666911 2562.0227 23435.1
0.0 37550.855 0.0 7415.555 0.0 0.0 0.0 0.0
11332.801 0.48827246 1704.6733 33401.316 76218.01 2.8815822e-07 165958.95 28287.398
26023.057 24656.658 0.0 0.0 21338.328 25011.37 74460.06 0.0
24711.52 9400.323 3187.1409 0.0 50936.855 3521.6287 462.69763 11833.803
48951.203 10942.279 59004.723 0.0 0.0 0.0 581.7883 0.0
00000000: 4556 1a3f f520 293d bff4 4a3d afa3 e03c
00000010: 06a8 183c d175 e13c 0000 0000 9a44 033e
00000020: 644d 4c3d 5793 a43d 0b95 a53e 1f2e d63d
00000030: 0000 0000 58b3 1c3e 20da b63d 7cef fa3d
00000040: 850e 693f 0a6a 3b3e 0000 0000 a236 943e
00000050: 3fea f03e d8e5 003d e2a7 ac3c 8bbd 853d
00000060: 0000 0000 5406 0f3e 0000 0000 25ff 133e
00000070: 0000 0000 0000 0000 0000 0000 0000 0000
00000080: 44fb 053e 073f 483b a58f b13d 6bff b43e
00000090: d3b3 b73e 90ce 7132 a9a8 a13f fde0 083e
000000a0: cb2d eb3d 94e4 c63d 0000 0000 0000 0000
000000b0: c84e 953e 0a95 d53d 4e4b 9b3e 0000 0000
000000c0: 5af7 df3d f2c4 5b3d 2239 993d 0000 0000
000000d0: d349 843e 9c1f cd3c 9b78 9a3c 87cd 513d
000000e0: 1b01 a33e 79c9 343d 5d6b 9f3e 0000 0000
000000f0: 0000 0000 0000 0000 9ff3 5a3c 0000 0000
00000100: aa00 8e48 3cea 0446 f69a 6543 84d5 6645
00000110: 48bd eb41 c96d 5646 0000 0000 b7b1 7d44
00000120: 28bc 6f45 fa70 e846 b95b 1048 1690 8a46
00000130: 0000 0000 a3b6 b746 8015 5944 c088 f546
00000140: 13ee ce48 f561 1447 0000 0000 0aeb e447
00000150: 1614 b247 dee3 0a41 8a29 af45 1734 4047
00000160: 0000 0000 ad8b 9b47 0000 0000 7cce 7546
00000170: 0000 0000 0000 0000 0000 0000 0000 0000
00000180: 45b8 b646 8582 023f b4a3 5145 7aff 8747
00000190: 0b6b 1d48 1643 9d33 aa5c ab48 310b 6847
000001a0: 497e 5347 253b 4847 0000 0000 0000 0000
000001b0: bbc0 2e47 0457 4e47 7bf4 1848 0000 0000
000001c0: 0ee6 4b47 4d99 9a46 15c3 d645 0000 0000
000001d0: 4080 d247 4fc2 eb45 b2d6 5b44 05a6 c746
000001e0: 1896 cc47 daac b146 ed6f f347 0000 0000
000001f0: 0000 0000 0000 0000 6898 9144 0000 0000
00000200: 0ebb 9548 4c43 0e46 3f34 5d43 6975 6a45
00000210: e17f 0242 410d 6346 0000 0000 2ba6 7644
00000220: 3e7e 7e45 96f2 f446 155a 1748 ea09 8f46
00000230: 0000 0000 91de c246 9a79 5b44 f5dc ff46
00000240: 41f2 d848 fbd0 1a47 0000 0000 6174 f147
00000250: aa2a b947 e120 f640 1a6b b845 31c0 4a47
00000260: 0000 0000 a998 a347 0000 0000 0efa 7d46
00000270: 0000 0000 0000 0000 0000 0000 0000 0000
00000280: 0812 bd46 967b 893f 44b5 5145 c9e3 8c47
00000290: 3fa5 2548 a114 8133 76d8 b248 c8c0 7247
000002a0: b0c9 5c47 0320 5347 0000 0000 0000 0000
000002b0: b1a4 3447 059b 5847 bc70 2048 0000 0000
000002c0: c1c1 5647 79ff a146 9646 de45 0000 0000
000002d0: 883b dd47 bffd f845 ed86 5c44 7e5f d446
000002e0: 4057 d747 b9bf ba46 3813 0048 0000 0000
000002f0: 0000 0000 0000 0000 0d2b 9544 0000 0000
00000300: ce03 0748 41ee 7b45 ee1d 0043 0835 ec44
00000310: 25e1 8441 44cd cc45 0000 0000 5707 f943
00000320: 351d ee44 465e 5946 e808 8a47 5e3f 0646
00000330: 0000 0000 f342 2946 ec89 c243 806c 6946
00000340: 7225 4448 032f 8b46 0000 0000 d07a 5747
00000350: cd1e 2847 5657 9540 5d20 2045 3316 b746
00000360: 0000 0000 dbae 1247 0000 0000 71bc e745
00000370: 0000 0000 0000 0000 0000 0000 0000 0000
00000380: 3413 3146 d9fe f93e 8c15 d544 5179 0247
00000390: 01dd 9447 2ab4 9a34 bd11 2248 ccfe dc46
000003a0: 1d4e cb46 51a1 c046 0000 0000 0000 0000
000003b0: a8b4 a646 bd66 c346 086e 9147 0000 0000
000003c0: 0a0f c146 4be1 1246 4132 4745 0000 0000
000003d0: dbf8 4647 0f1a 5c45 4c59 e743 36e7 3846
000003e0: 3437 3f47 1ef9 2a46 b97c 6647 0000 0000
000003f0: 0000 0000 0000 0000 7472 1144 0000 0000

exp_avg f4 [13]
0.008161354 0.04706525 -0.41631103 0.059341278 0.48629332 5.7044635e-27 -6.51229e-29 1.3155944e-25
2.646203e-26 3.8697627e-26 3.9839288e-26 7.595974e-35 -3.1433713e-34
00000000: 33b7 053c 7ec7 403d b826 d5be d70f 733d
00000010: 70fb f83e 22fa e113 2e1b a590 dadc 2216
00000020: 9c08 0315 129f 3f15 4c46 4515 85ef c906
00000030: b1e9 d087

exp_avg_sq f4 [13]
0.000117440184 14.076546 14.792194 6.6736317 15.110519 0.0 0.0 6.1831e-41
2.6106954e-36 1.9084e-41 2.0871e-41 0.0 0.0
00000000: 384a f638 8839 6141 d4ac 6c41 648e d540
00000010: b0c4 7141 0000 0000 0000 0000 5cac 0000
00000020: e917 5e04 3335 0000 2e3a 0000 0000 0000
00000030: 0000 0000
