Op_problems/problem_pooling/checkpoints/kkt_hardnet_checkpoint_epoch_50_loss_305.087914.pth (torch, 20835 bytes, 12 tensors)

nn.0.weight f4 [64, 4]
0	0x3ef82fe6	0.48474044
1	0x3edb37ab	0.4281591
2	0xbdcada71	-0.09904946
3	0x3eef8ca9	0.46787003
4	0xbea4a5e9	-0.3215783
5	0xbc84fc01	-0.016233446
6	0xbebcc317	-0.36867592
7	0x3e5dff10	0.2167933
8	0x3f136604	0.5757754
9	0xbea21f3d	-0.31664458
10	0x3f0ba0a1	0.54541975
11	0x3e234903	0.1594582
12	0x3eb43d89	0.35203198
13	0x3d641cd1	0.055691544
14	0x3e5c4764	0.21511608
15	0xbddaf577	-0.1069135
16	0x3e6b28bc	0.22964758
17	0xbcc99356	-0.024606388
18	0xbeaa865a	-0.33305627
19	0x3d5965da	0.05307565
20	0x3c611a2b	0.013739149
21	0x3bbdc860	0.005791709
22	0xbe4045a0	-0.1877656
23	0x3eae5dfb	0.34056076
24	0xbeca142a	-0.3946851
25	0xbe6c098c	-0.23050517
26	0xbe10936c	-0.14118737
27	0xbe99ecfe	-0.30063623
28	0x3d48820c	0.048952147
29	0xbeb9882f	-0.36236712
30	0x3f30da33	0.69082946
31	0x3dbf7252	0.09347977
32	0x3e9f6e40	0.31138802
33	0xbcd3e054	-0.025863804
34	0xbe46dc7b	-0.19420044
35	0x3e43163f	0.19051455
36	0x3df3b509	0.11899764
37	0x3ece714c	0.40320814
38	0x3d82c79a	0.06385727
39	0xbe1efdc8	-0.15526497
40	0x3ebd9eec	0.3703531
41	0xbd85e308	-0.065374434
42	0x3e7003a6	0.23438892
43	0x3f01b4af	0.50666326
44	0x3e893fa4	0.26806366
45	0xbe6cbf9f	-0.23119973
46	0x3eaf9d20	0.34299564
47	0x3e1c58a1	0.15268184
48	0x3e82017a	0.25391752
49	0xbe9c0886	-0.30475253
50	0xbefd6aa4	-0.49495423
51	0xbe45d10c	-0.19318026
52	0xbea8085f	-0.32818887
53	0x3ed07fd6	0.4072253
54	0x3e10c653	0.14138155
55	0x3e3c018a	0.18359962
56	0x3e3e9f6e	0.18615505
57	0x3db43a0e	0.088001356
58	0x3edba0de	0.4289617
59	0xbea1b3e1	-0.3158255
60	0xbe3bfb2d	-0.18357535
61	0xbe20f8af	-0.15719865
62	0x3ec81163	0.39075765
63	0x3e342274	0.17591268
64	0x3d98effb	0.07467648
65	0x3e93bec6	0.28856486
66	0x3f23f8cb	0.640515
67	0x3e31e1ed	0.1737134
68	0xbf219662	-0.6312009
69	0xbe616f71	-0.22015168
70	0x3f1ad731	0.60484606
71	0x3e9f2b64	0.31087792
72	0x3ef65610	0.48112535
73	0xbed3454e	-0.41263813
74	0xbefdeb98	-0.49593806
75	0xbec848fe	-0.3911819
76	0xbe877550	-0.2645669
77	0x3e656a10	0.22403741
78	0x3e208f40	0.15679646
79	0x3ed872eb	0.42275175
80	0xbe3ad62d	-0.18245764
81	0xbdb174d8	-0.08664864
82	0x3f374dd2	0.7160312
83	0x3d9ef1a8	0.07760936
84	0x3e574ff1	0.21026589
85	0xbe64dd25	-0.22349985
86	0x3e66a523	0.22523932
87	0xbed9b5c8	-0.425215
88	0xbe5a904c	-0.21344107
89	0x3e1ced3f	0.15324877
90	0x3df4cacb	0.11952742
91	0xbde4dd9c	-0.11175081
92	0x3f181df6	0.59420717
93	0x3eef1783	0.46697626
94	0xbe9a77c8	-0.3016951
95	0xbe33e5a8	-0.17568076
96	0x3eea68d2	0.45783097
97	0xbe2cc3f4	-0.16871625
98	0xbe35832c	-0.1772582
99	0xbef7b448	-0.4837973
100	0x3d52e396	0.051486574
101	0x3ed8ae7d	0.42320624
102	0x3e093ce1	0.1340213
103	0xbe3cd61e	-0.18441054
104	0x3c402840	0.011728346
105	0xbeaede6e	-0.34154075
106	0xbed93086	-0.42419833
107	0xbe8cf83a	-0.27533132
108	0xbef19f7d	-0.47191992
109	0xbe8bae9d	-0.27281657
110	0x3f0fb06b	0.5612857
111	0x3e7a2cbe	0.2443113
112	0x3e1dc71c	0.15407985
113	0xbeeec466	-0.46634215
114	0xbea82254	-0.3283869
115	0xbe2a6c14	-0.16642791
116	0x3da01fc0	0.07818556
117	0xbee14286	-0.43996066
118	0xbe5c9b64	-0.21543652
119	0xbe994258	-0.2993343
120	0x3ab59e00	0.0013856292
121	0xbe3e8450	-0.1860516
122	0xbd0deaf0	-0.034647882
123	0xbead7924	-0.33881485
124	0xbeafb798	-0.34319758
125	0xbe9559d2	-0.2917009
126	0xbe2f419c	-0.17114872
127	0xbeca0e50	-0.39464045
128	0x3ed287cf	0.4111924
129	0xbdf3acf5	-0.11898223
130	0x3ee0d0cb	0.43909296
131	0x3e226ae2	0.15861085
132	0xbef98bc2	-0.4873944
133	0x3e9c1202	0.3048249
134	0xbe0106ae	-0.12600204
135	0xbe55efa7	-0.20892201
136	0x3dce2f83	0.10067656
137	0xbeca88a1	-0.39557365
138	0x3ee881e7	0.45411608
139	0x3e333cd4	0.17503673
140	0x3ead643d	0.33865538
141	0xbe50bbd6	-0.20384154
142	0x3f2fd679	0.68686634
143	0x3df9acc5	0.12191156
144	0xbd60b65c	-0.05486141
145	0x3de602d8	0.11231011
146	0x3e6bb418	0.23017919
147	0x3ee07099	0.43835905
148	0x3ed83141	0.42225078
149	0xbedc0054	-0.42969
150	0x3dbda792	0.09260477
151	0xbe7e403d	-0.24829192
152	0xbe73d35b	-0.23811094
153	0xbd8a7e77	-0.067624025
154	0x3f6bc4d6	0.9209722
155	0x3db2d3de	0.08731817
156	0x3eede4a1	0.46463493
157	0x3e986b5a	0.29769403
158	0x3e5b783e	0.21432588
159	0xbe3aea13	-0.18253355
160	0x3f4304bf	0.76179117
161	0x3eb20641	0.34770396
162	0x3e38b945	0.18039425
163	0xbea1f653	-0.31633243
164	0x3eb45a43	0.35225114
165	0xbd308816	-0.04309853
166	0xbe46b3e2	-0.19404557
167	0x3ee7bd52	0.45261627
168	0x3de44cb0	0.111474395
169	0xbe8da386	-0.2766382
170	0xbe819252	-0.25306946
171	0xbcc39b80	-0.02387786
172	0x3e8ef0c4	0.27918065
173	0xbe02d554	-0.1277669
174	0xbe921132	-0.28528744
175	0xbe2f54ac	-0.17122144
176	0xbbafb64e	-0.0053623086
177	0x3ef0efc1	0.47057918
178	0x3f327897	0.69715255
179	0xbf073a7d	-0.5282362
180	0x3ea07d76	0.3134572
181	0x3ea52c1d	0.32260218
182	0x3ddab5e2	0.10679223
183	0xbe01847f	-0.126482
184	0x3f227982	0.63466656
185	0x3ecefe3e	0.40428346
186	0x3e7ca60e	0.2467272
187	0xbd1950cb	-0.037430566
188	0xbe079408	-0.13240063
189	0x3d5b18d0	0.05349046
190	0xbdb4e4d0	-0.08832705
191	0xbe189398	-0.14900053
192	0x3ee3ee02	0.44517523
193	0x3ee06049	0.4382346
194	0xbd1175e3	-0.035512816
195	0xbdce0946	-0.100603625
196	0x3dcd7c8f	0.10033523
197	0xbc703716	-0.014661571
198	0x3e0b9b00	0.13633347
199	0x3e27066f	0.16311048
200	0xbf02c6ee	-0.5108479
201	0xbe51cf18	-0.20489156
202	0x3ed0eda9	0.4080632
203	0x3e764245	0.24048717
204	0xbccbb9a0	-0.024868786
205	0xbe9a5808	-0.30145288
206	0xbe9c9f42	-0.30590254
207	0xbee550fa	-0.44788343
208	0xbcf5bfb9	-0.029998647
209	0x3e501990	0.20322251
210	0x3e9cc027	0.3061535
211	0x3e706d99	0.23479308
212	0xbf28049f	-0.6563205
213	0xbec35880	-0.38153458
214	0xbdfb631a	-0.122747615
215	0x3eeeb679	0.4662359
216	0x3e0e1089	0.13873495
217	0x3dc7bdb5	0.097529806
218	0x3e8a7617	0.2704322
219	0xbe808500	-0.2510147
220	0xbe1c04da	-0.15236226
221	0x3edae22a	0.42750674
222	0xbe41de9d	-0.18932576
223	0xbd87620b	-0.06610497
224	0xbee5d32c	-0.44887674
225	0x3eabc6ab	0.3355001
226	0x3ec8c0d3	0.39209613
227	0x3e2d92e4	0.16950566
228	0xbdfbd40e	-0.122963056
229	0xbed3fa46	-0.4140188
230	0xbe4ca3e9	-0.19984402
231	0x3ef5ada5	0.47984043
232	0x3e820247	0.25392362
233	0x3edb58dd	0.42841235
234	0x3e70106d	0.23443766
235	0x3df9de10	0.12200558
236	0xbba07180	-0.0048963428
237	0xbec2b086	-0.38025302
238	0xbedb556c	-0.4283861
239	0xbeef7302	-0.46767431
240	0x3e5197e4	0.20468098
241	0xbe7b6028	-0.245484
242	0xbdce1528	-0.10062629
243	0xbe935450	-0.28775263
244	0xbdba98d0	-0.09111178
245	0xbeb42e86	-0.35191745
246	0xbea74640	-0.32670784
247	0x3e29d600	0.16585541
248	0xbe44669a	-0.19179764
249	0x3e8239a6	0.25434607
250	0xbe6514c4	-0.22371203
251	0xbeca2072	-0.3947788
252	0xbdb4ac68	-0.088219464
253	0xbe7830d0	-0.2423737
254	0xbe1ca460	-0.15297079
255	0xbef3b5fc	-0.4759978

nn.0.bias f4 [64]
0	0x3e93f44a	0.28897315
1	0xbed9ae76	-0.42515916
2	0x3e974252	0.29542786
3	0x3e4f83f9	0.20265187
4	0x3e8d7f34	0.2763611
5	0xbeb9b597	-0.36271355
6	0x3eb81d48	0.3595984
7	0x3d14597f	0.036218163
8	0x3dfb7ef2	0.12280072
9	0x3ef3e8a7	0.47638437
10	0xbca1a737	-0.019733055
11	0x3c631f32	0.013862418
12	0xbdebc190	-0.115115285
13	0xbed52475	-0.41629377
14	0x3e963b62	0.2934218
15	0xbe7edff7	-0.24890123
16	0x3f2dcf94	0.67894864
17	0x3f11d9a4	0.5697272
18	0x3ef219d0	0.47285318
19	0xbdebdcdc	-0.11516735
20	0xbdf4a2e8	-0.119451344
21	0x3d513606	0.05107691
22	0x3e92f958	0.2870586
23	0xbeca2c61	-0.39486983
24	0xbde86e68	-0.11349183
25	0xbd47f526	-0.048817776
26	0xbd332030	-0.04373187
27	0xbe2471ea	-0.1605908
28	0xbe5149fc	-0.20438379
29	0xbe2289f8	-0.15872943
30	0xbef34720	-0.47515202
31	0x3ed20cc8	0.41025376
32	0x3ed37a64	0.41304314
33	0xbd76a6fc	-0.060217842
34	0x3dd35ddf	0.10320639
35	0x3dd9eb9f	0.10640644
36	0xbee9963d	-0.45622435
37	0xbf0511a9	-0.5198007
38	0x3f2a29b2	0.6646987
39	0xbe248eda	-0.16070119
40	0xbe13ea64	-0.14444882
41	0xbc88d1a7	-0.016701533
42	0xbe2a8070	-0.16650558
43	0xbe25a484	-0.16176039
44	0x3e85004d	0.25976792
45	0xbd458202	-0.04821969
46	0xbdef7dcd	-0.116939165
47	0xbe75260c	-0.23940295
48	0xbecf250b	-0.4045795
49	0x3ede02ad	0.43361416
50	0xbe568058	-0.20947397
51	0x3e07ab64	0.13248974
52	0xbe2de3d0	-0.16981435
53	0x3c9647d0	0.01834479
54	0x3f077f3d	0.52928525
55	0x3e90247d	0.28152838
56	0xbedbb6a4	-0.4291278
57	0x3ead2cc6	0.33823222
58	0x3ef298aa	0.47382098
59	0x3e06b2dc	0.13154167
60	0x3eaba0f4	0.33521235
61	0x3efc6320	0.49294376
62	0xbe0b8761	-0.13625862
63	0x3dd48928	0.10377723

nn.2.weight f4 [13, 64]
0	0x3be951a6	0.007120329
1	0x3c8c2c5b	0.017110994
2	0x3f1a7f2e	0.6035031
3	0x3de99c88	0.11406809
4	0xbd332ae5	-0.04374208
5	0x3cc9df9c	0.024642758
6	0xbdaef0ec	-0.08542046
7	0x3eee9e87	0.46605322
8	0xbd3c18cd	-0.04592209
9	0x3d736363	0.059420954
10	0x3e4df1eb	0.20111816
11	0x3eb51a48	0.35371614
12	0xbdc2b70a	-0.09507568
13	0xbc0c90ec	-0.008579474
14	0x3dcce725	0.10005025
15	0x3f6d0a37	0.9259371
16	0x3f63d585	0.8899768
17	0x3eca2922	0.39484507
18	0xbd6cf5b4	-0.05785151
19	0x3da8afda	0.08236666
20	0x3faf2f53	1.3686317
21	0x3c6dde0a	0.01451827
22	0x3cc67e17	0.024230046
23	0x3e65e941	0.2245226
24	0xbdcef07c	-0.101044625
25	0x3f7a5e9b	0.97800606
26	0x3df74124	0.120729715
27	0x3d2b6b89	0.0418506
28	0xbdabe942	-0.083941
29	0x3cf83630	0.030299276
30	0x3d0d1ccc	0.03445129
31	0x3d8c43d0	0.06848872
32	0x3e3b1649	0.1827022
33	0x3e0882e6	0.13331184
34	0x3f7ebb63	0.9950468
35	0x3f8a7863	1.0817989
36	0x3e2f0476	0.17091545
37	0x3c827a71	0.015927525
38	0x3f8bc459	1.0919296
39	0x3e99c6e0	0.30034542
40	0x3eb0ea3f	0.34553716
41	0x3d0d165a	0.034445144
42	0xbde6cc50	-0.11269438
43	0x3bb6f620	0.0055835396
44	0x3f16de66	0.58933103
45	0x3e27f1fa	0.164009
46	0x3e2f4c80	0.17119026
47	0xbdc225ae	-0.09479843
48	0xbcb4f762	-0.022090618
49	0x3df0bb2e	0.11754452
50	0x3e608623	0.21926169
51	0x3d93b11e	0.07211517
52	0x3ce6218f	0.028092174
53	0x3cf1e1bc	0.029526584
54	0x3eb607c2	0.35552794
55	0x3d919072	0.07107629
56	0x3df009be	0.11720608
57	0x3e5ebe52	0.21752289
58	0x3e458a29	0.19290985
59	0xbdeb0900	-0.11476326
60	0x3dab2a5e	0.0835769
61	0xbdb48e06	-0.08816151
62	0x3c79858e	0.015229596
63	0x3dd8a388	0.10578066
64	0xbb58a33a	-0.0033056275
65	0x3e235af3	0.15952663
66	0xbe95a061	-0.29223922
67	0xbd64b7c9	-0.055839334
68	0x3d91d707	0.07121091
69	0xbd62dc11	-0.055385653
70	0xbcd19cf0	-0.025587529
71	0x3d888f3f	0.06667947
72	0x3da9aff0	0.082855105
73	0x3d4df2f7	0.050280537
74	0x3cdb3dea	0.026762921
75	0xbe2bc8de	-0.16775844
76	0xbdcfced2	-0.1014687
77	0x3c62ae3b	0.013835485
78	0x3dbc7f82	0.09204008
79	0xbe2ab5f9	-0.1667098
80	0x3c8fe288	0.017564073
81	0x3e02b6e3	0.12765078
82	0x3c2324a0	0.009957463
83	0x3c7af385	0.015316849
84	0xbe79ba1c	-0.24387401
85	0xbcf867bd	-0.030322904
86	0xbddcad66	-0.107752606
87	0xbda14472	-0.07874383
88	0xbd82215a	-0.063540176
89	0x3df16180	0.11786175
90	0xbd150c78	-0.036388844
91	0x3c7dd907	0.015493638
92	0x3df413fa	0.11917873
93	0x3d325760	0.04354036
94	0x3db680c4	0.08911279
95	0xbd77dda0	-0.060514092
96	0xbd740c29	-0.05958191
97	0x3dc6f385	0.097144164
98	0x3f0a98fb	0.5413968
99	0xbea52bcf	-0.32259986
100	0x3ba90ced	0.0051590116
101	0xbd834309	-0.0640927
102	0x3cc1c678	0.023654208
103	0x3d85d980	0.065356255
104	0x3e2f91da	0.17145482
105	0xbb97b375	-0.0046295472
106	0xbcb24ac0	-0.02176416
107	0xbded203a	-0.11578412
108	0xbe7409fe	-0.23831937
109	0x3c777300	0.015103102
110	0x3d21f718	0.039542288
111	0xbc817398	-0.01580219
112	0xbd829374	-0.06375781
113	0x3d707a86	0.058710597
114	0xbd2a4971	-0.041573945
115	0x3da1cbee	0.079002246
116	0xbd3dfc1b	-0.046383005
117	0x3cbe8f58	0.023261711
118	0x3cad531f	0.0211578
119	0x3ba25586	0.004954043
120	0xbd11065e	-0.035406463
121	0xbd805343	-0.06265881
122	0xbbae3500	-0.0053163767
123	0x3dc7d55e	0.097574934
124	0x3df62396	0.12018506
125	0xbd797118	-0.06089887
126	0xbd3fe168	-0.046845824
127	0x3dcd63aa	0.10028775
128	0x3dd9f719	0.10642833
129	0xbd88cfa1	-0.06680227
130	0x3e3ed1f6	0.18634781
131	0xbda1170b	-0.07865723
132	0xbd69b49a	-0.057057
133	0xbc990af4	-0.01868198
134	0x3d0835b0	0.033254325
135	0x3e0f649c	0.14003223
136	0xbbb615c4	-0.005556794
137	0x3e0878f3	0.13327388
138	0x3ca6ddef	0.020369498
139	0x3d4e1fd7	0.050323334
140	0xbbe7e3e0	-0.0070767254
141	0x3d188ff5	0.037246663
142	0xbd882d47	-0.06649261
143	0xbe45869e	-0.19289634
144	0xbe9694b7	-0.29410335
145	0xbe839def	-0.2570643
146	0xbdd4b882	-0.103867546
147	0xbd87f699	-0.06638832
148	0x3f126614	0.5718701
149	0x3c94836c	0.018129073
150	0x3dfcdff2	0.12347402
151	0x3db376bb	0.087628804
152	0x3dc16524	0.09443119
153	0xbed246d9	-0.41069677
154	0xbd8cdbbc	-0.068778485
155	0xbcc9a848	-0.024616376
156	0xbd84a7a0	-0.064772844
157	0xbdacc402	-0.08435823
158	0xbd237fc0	-0.039916754
159	0x3cd6e558	0.026232406
160	0x3dbbce66	0.09170227
161	0xbd1d18fb	-0.0383539
162	0xbddc2dce	-0.10750924
163	0x3e891f82	0.2678185
164	0xbd89c1d9	-0.06726427
165	0xbdc5bd57	-0.09655254
166	0x3eddb008	0.43298364
167	0xbc431bbd	-0.011908469
168	0xbbec7ef6	-0.0072172834
169	0x3df76f99	0.120818324
170	0x3d19245c	0.03738819
171	0x3d303570	0.043019712
172	0x3e0f00a3	0.13965087
173	0x3c720182	0.014770867
174	0xbc186b53	-0.009302932
175	0x3ae12f00	0.0017180145
176	0x3d80ee9a	0.0629551
177	0x3dfc66bf	0.12324285
178	0xbd162392	-0.036655016
179	0xbd586e34	-0.052839473
180	0xbcdadad0	-0.026715666
181	0xbdb46247	-0.088078074
182	0xbd92ecc8	-0.07174069
183	0x3da7c956	0.08192699
184	0x3dd7e303	0.10541346
185	0x3e02d0ec	0.1277501
186	0xbd9fab91	-0.077963956
187	0xbd89657c	-0.0670881
188	0xbce0fc08	-0.027463928
189	0xbcbcbf78	-0.023040518
190	0xbd1bf453	-0.038074803
191	0xbdeb002e	-0.11474644
192	0x3d42edef	0.047590192
193	0xbda93764	-0.08262518
194	0x3e48e6d8	0.1961931
195	0xbe333890	-0.17502046
196	0x3e075736	0.13216862
197	0xbd356c9a	-0.044293024
198	0x3dc11e2e	0.094295844
199	0x3e9461c8	0.2898085
200	0x3ad7315f	0.0016417912
201	0x3cfa80b6	0.030578952
202	0x3d1e27b8	0.038612098
203	0x3eae3f0c	0.34032476
204	0x3db91782	0.09037687
205	0xbdce5baa	-0.10076077
206	0xbe001972	-0.12509707
207	0x3e7e7f93	0.24853353
208	0x3db66c69	0.08907396
209	0x3e5f14c8	0.21785271
210	0x3d0c0c40	0.03419137
211	0xbcbcb5de	-0.02303594
212	0x3e083a71	0.13303544
213	0x3e69c432	0.22828749
214	0x3d272cdf	0.040814277
215	0xbe5b07cd	-0.21389695
216	0xbdf0c6a2	-0.11756636
217	0xbec7d586	-0.39030093
218	0xbdae5448	-0.08512169
219	0x3eaeb9e0	0.34126186
220	0xbd9b6a14	-0.07588592
221	0xbc13de70	-0.009025201
222	0xbce344f0	-0.027742833
223	0x3cb63988	0.02224423
224	0x3e16432e	0.14674065
225	0xbda0a7e5	-0.07844523
226	0x3f32129f	0.69559664
227	0x3e90d2ea	0.28285915
228	0x3e11d35b	0.14240782
229	0xbb97a865	-0.0046282285
230	0x3d8bc2ed	0.068242885
231	0xbdcf321e	-0.10116981
232	0xbed95771	-0.42449525
233	0x3dceed5e	0.10103868
234	0xbcdfb600	-0.027308464
235	0xbdada1f2	-0.08478154
236	0xbec8763c	-0.39152706
237	0xbd2b2685	-0.041784782
238	0x3cebfc30	0.028806776
239	0x3dfe551a	0.124185756
240	0x3d213af7	0.039362874
241	0x3e1e44dc	0.15455955
242	0x3e253f2b	0.16137378
243	0xbddc36e4	-0.10752657
244	0xbd70310f	-0.058640536
245	0xbdc43f47	-0.09582382
246	0xbeb23714	-0.34807646
247	0xbdfc49f6	-0.123187944
248	0xbdcdeff6	-0.100555345
249	0x3d117aa0	0.035517335
250	0xbd977045	-0.073944606
251	0xbdfc5f9c	-0.123229235
252	0xbd9d22d0	-0.076726556
253	0x3d433ae4	0.047663584
254	0xbc5815db	-0.0131888045
255	0xbd184d0c	-0.037182853

nn.2.bias f4 [13]
0	0x3e1be0b5	0.15222438
1	0x3d47a879	0.048744652
2	0xbd78dc6c	-0.060757086
3	0x3cb68185	0.022278557
4	0x3dce1355	0.10062281
5	0x3daf9620	0.08573556
6	0xbdc7640a	-0.09735878
7	0x3de9aea6	0.11410265
8	0x3c1ebd70	0.00968872
9	0x3d764110	0.060120642
10	0x3dc6d442	0.09708454
11	0x3dda3e0a	0.10656364
12	0xbdc78f98	-0.09744185

exp_avg f4 [64, 4]
0	0x3ee077ad	0.43841305
1	0x3f25f39c	0.64824843
2	0xbfc067e4	-1.5031705
3	0x40011022	2.0166097
4	0xbf44b29f	-0.76835054
5	0xc0170837	-2.3598764
6	0x4009c461	2.152611
7	0xc08a777f	-4.327087
8	0x3f8f6b8e	1.1204698
9	0x40762e0f	3.8465612
10	0xc0dfda1e	-6.9953756
11	0x41209159	10.035485
12	0xbe7bfde2	-0.24608567
13	0xbf867cfb	-1.0506891
14	0xbf0af718	-0.54283285
15	0xbf28a805	-0.6588138
16	0xbe5476f5	-0.20748504
17	0xbffd7ec8	-1.9804316
18	0x3be28450	0.0069127455
19	0xc08409d0	-4.126198
20	0x3d4e71f2	0.050401635
21	0xbf25c427	-0.6475243
22	0xbfb4f278	-1.4136496
23	0x3fa56caa	1.2923787
24	0x00000000	0.0
25	0x00000000	0.0
26	0x00000000	0.0
27	0x00000000	0.0
28	0x3e6098b5	0.21933253
29	0xc049d66b	-3.153712
30	0xc045212d	-3.08015
31	0xc106aed3	-8.417682
32	0xbdd7369c	-0.10508463
33	0xbf8ec908	-1.11551
34	0x3e8b9193	0.27259502
35	0xbf88fbd9	-1.0701858
36	0x3ea7403e	0.326662
37	0x3ec277d8	0.3798206
38	0xbf81ba73	-1.0135025
39	0x3f6ea483	0.93219775
40	0x3d90c9f7	0.07069772
41	0xbfdda7dd	-1.7316853
42	0xbfcef004	-1.6166997
43	0xbf184835	-0.5948518
44	0x3f4ea6a0	0.80723
45	0x3ffdb241	1.9820024
46	0xc058e7f0	-3.3891563
47	0x4071cfa3	3.7782981
48	0x00000000	0.0
49	0x00000000	0.0
50	0x00000000	0.0
51	0x00000000	0.0
52	0xbde3bd93	-0.11120143
53	0x3e8023f7	0.2502744
54	0x3e6d7e56	0.23192725
55	0x3e8d892b	0.27643713
56	0xbcc337ad	-0.02383026
57	0xbf890dd7	-1.0707349
58	0xbf1fe6c7	-0.62461513
59	0xbf5cf2bb	-0.8630788
60	0xbf039691	-0.5140162
61	0xc0629a04	-3.5406504
62	0xbfd1b033	-1.6381897
63	0xc0bd6f32	-5.9198236
64	0xbf7a1232	-0.97684014
65	0xc10ad627	-8.677283
66	0xc020be92	-2.5116315
67	0xc103a66b	-8.228129
68	0xbf489109	-0.78346306
69	0xc09b5a5c	-4.85478
70	0x3fe9c18f	1.8262194
71	0xc108a344	-8.53986
72	0x00000000	0.0
73	0x00000000	0.0
74	0x00000000	0.0
75	0x00000000	0.0
76	0xbe1a0eb2	-0.15044668
77	0xc00a2cee	-2.1589923
78	0xbf732623	-0.94980067
79	0xbf4f8118	-0.81056356
80	0x3fc481e5	1.5352141
81	0x408c5481	4.3853154
82	0xc0d917c3	-6.7841506
83	0x4099bad8	4.804058
84	0xb785c61a	-1.5947084e-05
85	0xbbc654eb	-0.0060526035
86	0xbd29467d	-0.04132699
87	0xbac3cd10	-0.0014938433
88	0xbe8f059a	-0.2793396
89	0xbf9fe7a5	-1.2492567
90	0xbf9692a3	-1.17635
91	0xc0633ec0	-3.550705
92	0x3e1af447	0.15132247
93	0xbead76c8	-0.33879685
94	0xc0471a73	-3.1109893
95	0x40a5989a	5.174878
96	0x00000000	0.0
97	0x00000000	0.0
98	0x00000000	0.0
99	0x00000000	0.0
100	0xc0101d7b	-2.2517993
101	0xc1492033	-12.570361
102	0xbf9f159f	-1.2428473
103	0xc1389fc9	-11.53901
104	0x00000000	0.0
105	0x00000000	0.0
106	0x00000000	0.0
107	0x00000000	0.0
108	0xbde1da87	-0.11028009
109	0xc0164d8d	-2.3484833
110	0x3efc2b74	0.49251902
111	0xc0a738f9	-5.2257047
112	0x00000000	0.0
113	0x00000000	0.0
114	0x00000000	0.0
115	0x00000000	0.0
116	0x00000000	0.0
117	0x00000000	0.0
118	0x00000000	0.0
119	0x00000000	0.0
120	0x00000000	0.0
121	0x00000000	0.0
122	0x00000000	0.0
123	0x00000000	0.0
124	0x00000000	0.0
125	0x00000000	0.0
126	0x00000000	0.0
127	0x00000000	0.0
128	0x3ed3514e	0.41272968
129	0x3fa18140	1.2617569
130	0xbf9356d5	-1.1510874
131	0x3f6658db	0.8997933
132	0xbd396287	-0.04525998
133	0xbf0bf6dd	-0.5467356
134	0xbea9d221	-0.33168128
135	0xbdc92538	-0.09821552
136	0xbf8ca049	-1.0986415
137	0xc05cd99a	-3.4507813
138	0xc0a9a141	-5.3009343
139	0xc1288545	-10.5325365
140	0x3fa83ede	1.3144186
141	0x4014928b	2.3214443
142	0xc11ed6e1	-9.927461
143	0x4116c6a7	9.423499
144	0x3debcc09	0.11513526
145	0xc015e91a	-2.3423524
146	0xbfd7fc3e	-1.6873853
147	0xbf8b29e7	-1.0872163
148	0x00000004	6e-45
149	0x00000004	6e-45
150	0x00000004	6e-45
151	0x00000004	6e-45
152	0x3f50b25a	0.8152214
153	0x3f7d55f1	0.9895926
154	0xc089a63c	-4.3015423
155	0x3f20a13c	0.62746024
156	0xbea53daf	-0.32273623
157	0xc060a12d	-3.5098374
158	0xbfd75ff5	-1.6826159
159	0xbff460ee	-1.909208
160	0xbf8a1300	-1.0787048
161	0xc154a728	-13.29081
162	0xc0798ad2	-3.899098
163	0xc17ac7c1	-15.673768
164	0x3f1a0bd5	0.60174304
165	0x3e84e404	0.25955212
166	0xc018ce57	-2.387594
167	0x401c481b	2.441901
168	0x00000000	0.0
169	0x00000000	0.0
170	0x00000000	0.0
171	0x00000000	0.0
172	0x00000000	0.0
173	0x00000000	0.0
174	0x00000000	0.0
175	0x00000000	0.0
176	0xbf8fff91	-1.1249868
177	0x40ac684f	5.387733
178	0x3f8d9e0c	1.1063857
179	0x40b63f0f	5.6951976
180	0xbd5def3a	-0.054183222
181	0xbfc82025	-1.563481
182	0xbfabd414	-1.3424096
183	0xbe9cf29e	-0.30653852
184	0x3d9d7ba4	0.07689598
185	0xc02c9eba	-2.697188
186	0xc00cacea	-2.1980538
187	0xbee0d11e	-0.43909544
188	0x00000000	0.0
189	0x00000000	0.0
190	0x00000000	0.0
191	0x00000000	0.0
192	0x3ed233d9	0.41055182
193	0x3f79c011	0.97558695
194	0xbfc0924a	-1.5044644
195	0x40232d03	2.5496223
196	0x3f0fd183	0.56179065
197	0xbf001e7b	-0.5004651
198	0xc00817dc	-2.1264563
199	0x3f5c691d	0.8609789
200	0xbe0e23c9	-0.13880838
201	0xbf6da183	-0.9282457
202	0xbe2e6955	-0.17032368
203	0xc01d74f3	-2.460263
204	0x00000000	0.0
205	0x00000000	0.0
206	0x00000000	0.0
207	0x00000000	0.0
208	0x3c468fec	0.012119275
209	0xbf70638f	-0.93901914
210	0xbfb48f41	-1.4106218
211	0x3f8e98fc	1.1140437
212	0xbedc5105	-0.43030563
213	0xc000b4d5	-2.011037
214	0x400f0dbc	2.2352133
215	0xc0c1ac6e	-6.0522985
216	0xbf4b5120	-0.7942066
217	0xbf3e7a18	-0.7440505
218	0xbeccac22	-0.39975077
219	0x3f495cd8	0.78657293
220	0x3d6b5327	0.057452347
221	0xbf15ff8e	-0.5859307
222	0xbfd1dcaa	-1.6395466
223	0x3faf5d96	1.3700435
224	0x3c6e71e1	0.014553518
225	0x3f8c6838	1.0969305
226	0xbee7744f	-0.45205924
227	0x3f8bf75f	1.0934867
228	0x3f864a92	1.0491507
229	0xbe908ab4	-0.28230822
230	0x3d1095d3	0.035299134
231	0xc05754a2	-3.3645406
232	0xbeb77905	-0.35834518
233	0xc01803e7	-2.3752382
234	0xbf453d78	-0.7704692
235	0xbfc68717	-1.5509976
236	0x00000000	0.0
237	0x00000000	0.0
238	0x00000000	0.0
239	0x00000000	0.0
240	0x00000000	0.0
241	0x00000000	0.0
242	0x00000000	0.0
243	0x00000000	0.0
244	0x00000000	0.0
245	0x00000000	0.0
246	0x00000000	0.0
247	0x00000000	0.0
248	0x38ba5076	8.884158e-05
249	0x3bbb5fb3	0.0057181953
250	0x3bbc7da2	0.0057522813
251	0x38bd01e5	9.012575e-05
252	0x00000000	0.0
253	0x00000000	0.0
254	0x00000000	0.0
255	0x00000000	0.0

exp_avg_sq f4 [64, 4]
0	0x42c699c7	99.30035
1	0x45ad384a	5543.036
2	0x44399f19	742.4859
3	0x45b431e0	5766.2344
4	0x4285d257	66.91082
5	0x44eb9b30	1884.8496
6	0x43130bb3	147.0457
7	0x4535177f	2897.4685
8	0x43965dfc	300.73425
9	0x4582db5d	4187.4204
10	0x43efa8ad	479.31778
11	0x4600c5ab	8241.417
12	0x42f829e0	124.08179
13	0x45e2c78b	7256.943
14	0x449a69ef	1235.3104
15	0x45d1b48b	6710.568
16	0x41c6e170	24.860077
17	0x4484d906	1062.782
18	0x42705589	60.08353
19	0x44909d14	1156.9087
20	0x4212f13a	36.735573
21	0x44cf5a05	1658.8131
22	0x4370ede2	240.92923
23	0x44e4259c	1825.1753
24	0x00000000	0.0
25	0x00000000	0.0
26	0x00000000	0.0
27	0x00000000	0.0
28	0x3eb5f7f4	0.35540736
29	0x41a7bf9c	20.96856
30	0x4135353d	11.325498
31	0x41f074b2	30.05698
32	0x414d202d	12.820355
33	0x4403b5e0	526.8418
34	0x42e52747	114.57671
35	0x4404f518	531.8296
36	0x432ff7a7	175.96739
37	0x4634204f	11528.077
38	0x44dc51bc	1762.5542
39	0x462a7bd9	10910.962
40	0x417e5f66	15.898291
41	0x44332d74	716.7102
42	0x42bf231b	95.568565
43	0x44310124	708.0178
44	0x4330846f	176.51732
45	0x453ad9f3	2989.6218
46	0x44078aac	542.16675
47	0x458ddc94	4539.5723
48	0x00000000	0.0
49	0x00000000	0.0
50	0x00000000	0.0
51	0x00000000	0.0
52	0x422814cd	42.020313
53	0x4509a909	2202.5647
54	0x43aa3cd7	340.4753
55	0x450405e6	2112.3687
56	0x41ef5a01	29.918947
57	0x4415e17e	599.5233
58	0x434c7b4d	204.48164
59	0x441c849c	626.072
60	0x432d0355	173.01302
61	0x462d9ad1	11110.704
62	0x4502e77a	2094.4673
63	0x46183da5	9743.411
64	0x420d51ab	35.329754
65	0x45164c8f	2404.785
66	0x43825c97	260.72336
67	0x4542a55a	3114.3345
68	0x43201257	160.07164
69	0x460d02f7	9024.741
70	0x44b8f8c9	1479.7745
71	0x4615beae	9583.67
72	0x00000000	0.0
73	0x00000000	0.0
74	0x00000000	0.0
75	0x00000000	0.0
76	0x4250e11d	52.219837
77	0x455902f3	3472.1843
78	0x43fa24f9	500.28885
79	0x455afc8d	3503.7844
80	0x41e9869d	29.19073
81	0x448dde13	1134.9398
82	0x434358ec	195.34735
83	0x44f0a180	1925.0469
84	0x3c4628c8	0.012094684
85	0x3f4d39c9	0.801663
86	0x3f6b80bb	0.919933
87	0x3cf9d3a2	0.030496422
88	0x4301b249	129.69643
89	0x4610cd7c	9267.371
90	0x4499d7ab	1230.7396
91	0x461b87ee	9953.982
92	0x4352dd07	210.86339
93	0x463b40b6	11984.178
94	0x44dc929f	1764.5819
95	0x46367fe0	11679.969
96	0x00000000	0.0
97	0x00000000	0.0
98	0x00000000	0.0
99	0x00000000	0.0
100	0x43d3fe79	423.98807
101	0x46708e79	15395.618
102	0x45174732	2420.4497
103	0x46798c44	15971.066
104	0x00000000	0.0
105	0x00000000	0.0
106	0x00000000	0.0
107	0x00000000	0.0
108	0x43286081	168.37697
109	0x462be61e	11001.529
110	0x45000601	2048.3752
111	0x4615f434	9597.051
112	0x00000000	0.0
113	0x00000000	0.0
114	0x00000000	0.0
115	0x00000000	0.0
116	0x00000000	0.0
117	0x00000000	0.0
118	0x00000000	0.0
119	0x00000000	0.0
120	0x00000000	0.0
121	0x00000000	0.0
122	0x00000000	0.0
123	0x00000000	0.0
124	0x00000000	0.0
125	0x00000000	0.0
126	0x00000000	0.0
127	0x00000000	0.0
128	0x432b92a2	171.57278
129	0x4629a094	10856.145
130	0x44b7384d	1465.7594
131	0x462f17af	11205.921
132	0x410e0802	8.876955
133	0x44086d3b	545.7067
134	0x42dab5eb	109.35531
135	0x43f35613	486.67245
136	0x413ff613	11.997577
137	0x441f85b5	638.0892
138	0x4348abf6	200.67172
139	0x442c0fcc	688.2468
140	0x44002c82	512.69543
141	0x45d28af2	6737.368
142	0x4461d349	903.30133
143	0x46492b0c	12874.762
144	0x424620c9	49.532017
145	0x4508b51c	2187.3193
146	0x439934cc	306.41248
147	0x450f866a	2296.401
148	0x36867410	4.0070227e-06
149	0x38c6e10d	9.483295e-05
150	0x3b03239c	0.0020010239
151	0x37079782	8.081903e-06
152	0x402f6a94	2.74088
153	0x43340bd8	180.04626
154	0x41e52bf6	28.646465
155	0x4394d1a8	297.63794
156	0x422acab2	42.697945
157	0x450fbdd8	2299.8652
158	0x43e0357d	448.41788
159	0x44fdab66	2029.3562
160	0x43c34f84	390.62122
161	0x468d53e6	18089.95
162	0x455872e1	3463.18
163	0x466f2ae7	15306.726
164	0x4315d078	149.81433
165	0x45d892cb	6930.349
166	0x44614138	901.01904
167	0x45ebe7df	7548.984
168	0x00000000	0.0
169	0x00000000	0.0
170	0x00000000	0.0
171	0x00000000	0.0
172	0x00000000	0.0
173	0x00000000	0.0
174	0x00000000	0.0
175	0x00000000	0.0
176	0x414fbb68	12.9832535
177	0x444d9f20	822.4863
178	0x4347af7f	199.68553
179	0x44431131	780.2686
180	0x416eace3	14.917209
181	0x446b38cc	940.88745
182	0x4332c4be	178.76852
183	0x444d8674	822.1008
184	0x41c5ce10	24.725616
185	0x449590f0	1196.5293
186	0x433b0732	187.0281
187	0x44a0a5c1	1285.1798
188	0x00000000	0.0
189	0x00000000	0.0
190	0x00000000	0.0
191	0x00000000	0.0
192	0x422ebd3a	43.68479
193	0x4506a6d0	2154.4258
194	0x438be607	279.7971
195	0x45266ff0	2662.996
196	0x431ce336	156.88754
197	0x46058c93	8547.144
198	0x449f96eb	1276.7162
199	0x46029a87	8358.632
200	0x42051652	33.271797
201	0x4511bc9d	2331.7883
202	0x43eb217f	470.2617
203	0x44f8c7ed	1990.2477
204	0x00000000	0.0
205	0x00000000	0.0
206	0x00000000	0.0
207	0x00000000	0.0
208	0x426d0f06	59.26467
209	0x4566a8e3	3690.5554
210	0x4413e49f	591.5722
211	0x455e2e0a	3554.8774
212	0x42362813	45.539135
213	0x44e71b0d	1848.8453
214	0x431c4a48	156.29016
215	0x4527c578	2684.3418
216	0x425cbfdf	55.187374
217	0x442aca4b	683.1608
218	0x43a1cb05	323.5861
219	0x445e84fc	890.0779
220	0x42d5db1f	106.92797
221	0x45c233ca	6214.4736
222	0x4461d73a	903.3629
223	0x45b48893	5777.072
224	0x42eb25d5	117.57389
225	0x45de8871	7121.055
226	0x44502f44	832.7385
227	0x45e6df22	7387.8916
228	0x43b9d12e	371.63422
229	0x46b5b898	23260.297
230	0x452d06e7	2768.4314
231	0x46b30d45	22918.635
232	0x424d6905	51.35256
233	0x4545e2b8	3166.17
234	0x43f3d746	487.68182
235	0x4542e856	3118.521
236	0x00000000	0.0
237	0x00000000	0.0
238	0x00000000	0.0
239	0x00000000	0.0
240	0x00000000	0.0
241	0x00000000	0.0
242	0x00000000	0.0
243	0x00000000	0.0
244	0x00000000	0.0
245	0x00000000	0.0
246	0x00000000	0.0
247	0x00000000	0.0
248	0x3b697475	0.0035622392
249	0x3f5847a5	0.8448432
250	0x3f029a83	0.51017016
251	0x3df2fd41	0.118647106
252	0x00000000	0.0
253	0x00000000	0.0
254	0x00000000	0.0
255	0x00000000	0.0

exp_avg f4 [64]
0	0x3aebd275	0.0017991798
1	0xbcb94806	-0.022617351
2	0x3d3c4aca	0.045969762
3	0xbc80f45b	-0.015741518
4	0xbca5da37	-0.020245655
5	0xbb3848a7	-0.0028119476
6	0x00000000	0.0
7	0xbd3f59c0	-0.04671645
8	0xbc1d20ad	-0.00959031
9	0xbbd2d710	-0.006434329
10	0xbc3a764b	-0.011380742
11	0x3d2d01d2	0.042238064
12	0x00000000	0.0
13	0xbc1ace2f	-0.009448572
14	0xbc411c3f	-0.01178652
15	0x3c114e85	0.008868818
16	0xbd13ad10	-0.036053717
17	0xbbf81ec4	-0.007572027
18	0x00000000	0.0
19	0xbc3e4267	-0.011612511
20	0x3a66e8f7	0.0008808518
21	0xba009eaa	-0.0004906455
22	0xbc91c527	-0.017794205
23	0xbc8f25fc	-0.017474167
24	0x00000000	0.0
25	0xbdc4e6d8	-0.096143425
26	0x00000000	0.0
27	0x3c00f715	0.007871409
28	0x00000000	0.0
29	0x00000000	0.0
30	0x00000000	0.0
31	0x00000000	0.0
32	0x3c6f110c	0.014591467
33	0xbb766a5e	-0.003760002
34	0xbd575c8a	-0.052578487
35	0x3d0ac4fd	0.03387927
36	0x391ab4e7	0.00014753976
37	0x00000004	6e-45
38	0xbcd5933d	-0.026071185
39	0xbd0afb68	-0.033931166
40	0xbe199a13	-0.15000181
41	0x3b588dd2	0.0033043516
42	0x00000000	0.0
43	0x00000000	0.0
44	0x3c3b1b18	0.011420034
45	0xbc7d2684	-0.015451077
46	0xbc82a02b	-0.015945515
47	0x00000000	0.0
48	0x3c170798	0.009218119
49	0xbaec9992	-0.0018051139
50	0x3bfbe3a6	0.00768705
51	0x00000000	0.0
52	0xbbb9abbe	-0.005666225
53	0xbcd5cc65	-0.02609844
54	0xbbb45928	-0.0055037923
55	0xbc9db453	-0.019251024
56	0xbbf2e384	-0.007412376
57	0xbc168d71	-0.009188996
58	0xbc87c93a	-0.016575444
59	0x00000000	0.0
60	0x00000000	0.0
61	0x00000000	0.0
62	0x38743819	5.822638e-05
63	0x00000000	0.0

exp_avg_sq f4 [64]
0	0x3e69e4c7	0.22841178
1	0x3dc67977	0.09691136
2	0x3e95d4b4	0.29263842
3	0x3e96442b	0.29348883
4	0x3d255115	0.04036053
5	0x3d9059c4	0.070483714
6	0x00000000	0.0
7	0x3adabde5	0.0016688673
8	0x3cbea5bf	0.023272393
9	0x3eef4aed	0.4673685
10	0x3ceef5a9	0.029169874
11	0x3e3b719a	0.18305054
12	0x00000000	0.0
13	0x3db72893	0.08943286
14	0x3d0ebede	0.034849994
15	0x3ee38a08	0.44441247
16	0x3dc91f23	0.09820392
17	0x3eca8fb2	0.39562756
18	0x00000000	0.0
19	0x3e1280b3	0.14306907
20	0x3d9b53cb	0.075843416
21	0x38f7c195	0.00011813935
22	0x3ebe6dc7	0.37193128
23	0x3efa6a66	0.489093
24	0x00000000	0.0
25	0x3f200452	0.6250659
26	0x00000000	0.0
27	0x3edd5601	0.43229678
28	0x00000000	0.0
29	0x00000000	0.0
30	0x00000000	0.0
31	0x00000000	0.0
32	0x3ee21bec	0.44161928
33	0x3cb94cdd	0.02261966
34	0x3d03bb16	0.03216084
35	0x3eef18d7	0.4669864
36	0x3dbaf4ca	0.09128721
37	0x3488d7ca	2.548898e-07
38	0x3c3bceab	0.011462848
39	0x3dc109a4	0.09425667
40	0x3f372095	0.7153409
41	0x3e95bc14	0.29245055
42	0x00000000	0.0
43	0x00000000	0.0
44	0x3d0d6098	0.034515947
45	0x3d21b693	0.039480757
46	0x3d5088f4	0.05091186
47	0x00000000	0.0
48	0x3dcb225e	0.099186644
49	0x3eb46c85	0.35239044
50	0x3dc2f4f5	0.09519378
51	0x00000000	0.0
52	0x3e1e2382	0.15443233
53	0x3dc028ce	0.09382783
54	0x3d50b9ac	0.05095832
55	0x3e7a9588	0.24471104
56	0x3e8d8626	0.2764141
57	0x3f6235a0	0.88363075
58	0x3e063b14	0.13108474
59	0x00000000	0.0
60	0x00000000	0.0
61	0x00000000	0.0
62	0x3891fc4d	6.9611335e-05
63	0x00000000	0.0

exp_avg f4 [13, 64]
0	0xc0996114	-4.7931004
1	0xbe00d1c2	-0.12580016
2	0xbf9e2683	-1.2355503
3	0xbf1156b6	-0.56772935
4	0xbb533248	-0.0032226015
5	0xbfacd314	-1.3501916
6	0x00000000	0.0
7	0xbf43d2d8	-0.764936
8	0xbf0f9f73	-0.56102675
9	0xbfc10824	-1.5080609
10	0xc058058f	-3.3753393
11	0xbf55cca5	-0.8351539
12	0x00000000	0.0
13	0xc05500ab	-3.3281658
14	0xbea63aeb	-0.32466826
15	0xbf9abc52	-1.2088721
16	0xc08df703	-4.436403
17	0xc002c0ff	-2.0430295
18	0x00000000	0.0
19	0xc072efa8	-3.7958775
20	0xc0001e86	-2.001863
21	0xbbe7235a	-0.007053775
22	0xbed615c7	-0.4181349
23	0xbf681e53	-0.9067127
24	0x00000000	0.0
25	0xbfcc4db5	-1.5961214
26	0x00000000	0.0
27	0xbfaaf093	-1.3354667
28	0x00000000	0.0
29	0x00000000	0.0
30	0x00000000	0.0
31	0x00000000	0.0
32	0xbfebe4f2	-1.8429244
33	0xbd55ce53	-0.05219872
34	0xbee3b061	-0.44470504
35	0xbff0d6f7	-1.8815602
36	0xc0689fe4	-3.634759
37	0x80000004	-6e-45
38	0xc03010d2	-2.7510266
39	0xbfb894bc	-1.442039
40	0xbf85942c	-1.0435843
41	0xbff494e8	-1.9107943
42	0x00000000	0.0
43	0x00000000	0.0
44	0xbfd2cd6d	-1.6468941
45	0xbfbc3a92	-1.4705374
46	0xc03f8ae6	-2.9928527
47	0x00000000	0.0
48	0xbfecb176	-1.8491657
49	0xbfa7b26a	-1.3101323
50	0xbf96cde1	-1.1781579
51	0x00000000	0.0
52	0xc04f56a6	-3.2396636
53	0xbe29bd9f	-0.16576241
54	0xbe48ea10	-0.19620538
55	0xbf98f71e	-1.1950414
56	0xc063e0d3	-3.5605972
57	0xbe2c6b94	-0.16837913
58	0xc07099c4	-3.759385
59	0x00000000	0.0
60	0x00000000	0.0
61	0x00000000	0.0
62	0x37520fdc	1.2520668e-05
63	0x00000000	0.0
64	0xc1552a50	-13.32283
65	0xc07a671e	-3.9125438
66	0x4035e3e4	2.8420343
67	0x3f388dc4	0.7209132
68	0xbff65af6	-1.9246509
69	0xc0cb1a1f	-6.3469386
70	0x00000000	0.0
71	0x3f89a49d	1.0753361
72	0xc082afb1	-4.0839467
73	0xbff32b1e	-1.8997533
74	0xc0d14cd7	-6.54063
75	0x3fb4bc55	1.4119974
76	0x00000000	0.0
77	0xc0c773cf	-6.232887
78	0x3f4221a0	0.7583256
79	0x3fa0598c	1.2527328
80	0xc031e706	-2.7797256
81	0x3fb4ea1d	1.4133946
82	0x00000000	0.0
83	0xc1002e03	-8.011233
84	0x406bc65a	3.6839814
85	0xbd2e16bf	-0.04250216
86	0xbeb022be	-0.34401506
87	0xc095ec21	-4.6850743
88	0x00000000	0.0
89	0xbf90840b	-1.1290296
90	0x00000000	0.0
91	0x40308746	2.7582564
92	0x00000000	0.0
93	0x00000000	0.0
94	0x00000000	0.0
95	0x00000000	0.0
96	0x3f049c3d	0.518009
97	0xbfb098a4	-1.3796582
98	0x3f18c97e	0.5968245
99	0x40590919	3.3911803
100	0xc0db816b	-6.859548
101	0x00000004	6e-45
102	0x4088b512	4.2721033
103	0x3e07df39	0.13268746
104	0x3f398fe6	0.72485197
105	0xc1019318	-8.098412
106	0x00000000	0.0
107	0x00000000	0.0
108	0xbea10d75	-0.3145558
109	0xbfb5bea4	-1.4198804
110	0xc0599e7c	-3.400298
111	0x00000000	0.0
112	0xc07f17f6	-3.9858375
113	0xbff22d01	-1.8919984
114	0x3fadb0ff	1.356964
115	0x00000000	0.0
116	0xc08a8395	-4.3285623
117	0xbf1e58ec	-0.61854434
118	0x3f1fa341	0.6235848
119	0xc09199db	-4.550031
120	0xc070f18b	-3.7647426
121	0xc04bef21	-3.1864703
122	0xc0baf5f7	-5.842525
123	0x00000000	0.0
124	0x00000000	0.0
125	0x00000000	0.0
126	0x3b17c004	0.0023155222
127	0x00000000	0.0
128	0x41496d6c	12.589214
129	0x403048e9	2.75445
130	0xc01e3a89	-2.4723227
131	0x3e33b454	0.17549258
132	0x3fda688b	1.7063154
133	0x40a88e42	5.2673655
134	0x00000000	0.0
135	0xbf9b309e	-1.2124212
136	0x40684a42	3.6295323
137	0x40231100	2.5479126
138	0x40b846c7	5.75864
139	0xbfb06a88	-1.3782511
140	0x00000000	0.0
141	0x40b35a83	5.604799
142	0xbf849233	-1.0357116
143	0xbfd22a23	-1.6419109
144	0x4038cff2	2.887692
145	0xc027b461	-2.6203845
146	0x00000000	0.0
147	0x40d7ba24	6.7414722
148	0xc0632187	-3.5489213
149	0xbafcdb9f	-0.0019291526
150	0x3f062276	0.52396333
151	0x40b75943	5.729646
152	0x00000000	0.0
153	0x3ff2f8fa	1.8982232
154	0x00000000	0.0
155	0xc06c9367	-3.6964967
156	0x00000000	0.0
157	0x00000000	0.0
158	0x00000000	0.0
159	0x00000000	0.0
160	0xbe4f304b	-0.20233266
161	0x3fc42778	1.5324545
162	0xbf330b14	-0.6993878
163	0xc03abe35	-2.9178593
164	0x40bb8554	5.8600254
165	0x80000004	-6e-45
166	0xc084821a	-4.1408815
167	0x3f93e188	1.1553202
168	0x3fc3bac9	1.5291377
169	0x40e1ffbb	7.062467
170	0x00000000	0.0
171	0x00000000	0.0
172	0x400b0186	2.171968
173	0x40127243	2.288224
174	0x40910de3	4.532945
175	0x00000000	0.0
176	0x409c6609	4.8874555
177	0x3fcf3d2c	1.6190543
178	0xc013e5b8	-2.310896
179	0x00000000	0.0
180	0x407d8245	3.961076
181	0xbf1af62f	-0.60531896
182	0xbf5e93c8	-0.86944246
183	0x408e7228	4.451435
184	0x404e17bb	3.2201984
185	0x3fd5c2db	1.670009
186	0x40c0fb21	6.0306554
187	0x00000000	0.0
188	0x00000000	0.0
189	0x00000000	0.0
190	0xba33265d	-0.00068340247
191	0x00000000	0.0
192	0x3ffb2f87	1.9623879
193	0x400c1e5e	2.1893535
194	0xbf7f4ca1	-0.997263
195	0x3e2bbd44	0.16771418
196	0x3f63cf17	0.8898787
197	0x3f92470a	1.1427929
198	0x00000000	0.0
199	0xbfdc03e4	-1.7188687
200	0x3fd7506b	1.6821417
201	0xbd34068f	-0.043951567
202	0x3ed7b1ca	0.4212783
203	0xbf280708	-0.6563573
204	0x00000000	0.0
205	0xbf6ab99d	-0.91689473
206	0x3fd3abb3	1.6536773
207	0xbfd50589	-1.6642314
208	0xbff2cad4	-1.8968148
209	0xc048e4e3	-3.1389701
210	0x00000000	0.0
211	0xbf178d32	-0.5919982
212	0xc0434e2b	-3.051646
213	0xbcca039e	-0.024659928
214	0xbec6df40	-0.388422
215	0x3ff768f8	1.9328909
216	0x00000000	0.0
217	0xbf026b40	-0.509449
218	0x00000000	0.0
219	0xc03e2cab	-2.9714763
220	0x00000000	0.0
221	0x00000000	0.0
222	0x00000000	0.0
223	0x00000000	0.0
224	0xbf1fea88	-0.6246724
225	0xbf8f3004	-1.1186528
226	0xc0095ca1	-2.1462786
227	0xbfe701dd	-1.8047444
228	0xbef3f555	-0.4764811
229	0x80000004	-6e-45
230	0xc0718b32	-3.7741208
231	0xbca4d15e	-0.020119365
232	0x3d8c9a51	0.06865371
233	0x3ff795b5	1.9342562
234	0x00000000	0.0
235	0x00000000	0.0
236	0x3bc336dc	0.0059574675
237	0x3e200b85	0.15629394
238	0x3ec8f59f	0.39249894
239	0x00000000	0.0
240	0x3f779b46	0.96721303
241	0xbdb333b4	-0.08750096
242	0xc01aae51	-2.4168894
243	0x00000000	0.0
244	0xbf65df42	-0.8979379
245	0x400f7994	2.2417955
246	0x3fa9435c	1.3223681
247	0x3edd6459	0.43240622
248	0xc0073ad9	-2.1129668
249	0x40336051	2.8027537
250	0xbdc4b9c5	-0.09605745
251	0x00000000	0.0
252	0x00000000	0.0
253	0x00000000	0.0
254	0xb7dedcdf	-2.6567313e-05
255	0x00000000	0.0

exp_avg_sq f4 [13, 64]
0	0x44b983ba	1484.1165
1	0x43320e78	178.05652
2	0x3fa81e2e	1.313421
3	0x41b538ba	22.652699
4	0x4268ae1d	58.170033
5	0x428f4a63	71.64529
6	0x00000000	0.0
7	0x3da9365d	0.08262322
8	0x438bd207	279.64084
9	0x431115bf	145.08495
10	0x43957c16	298.96942
11	0x3f73ac90	0.95185184
12	0x00000000	0.0
13	0x442e8820	698.12695
14	0x404e73d0	3.2258186
15	0x3f3727bd	0.7154501
16	0x41330b7e	11.190306
17	0x40bbdc63	5.8706527
18	0x00000000	0.0
19	0x442cad6b	690.70966
20	0x3fc06a41	1.5032426
21	0x3ca62de5	0.020285556
22	0x40dc81ce	6.8908453
23	0x40a96159	5.2931333
24	0x00000000	0.0
25	0x3fbb2ff9	1.4624015
26	0x00000000	0.0
27	0x40e598a0	7.174881
28	0x00000000	0.0
29	0x00000000	0.0
30	0x00000000	0.0
31	0x00000000	0.0
32	0x42e7d1b3	115.90957
33	0x4133537b	11.207881
34	0x3dcec2b8	0.100957334
35	0x3fdf43ab	1.7442526
36	0x440c1a33	560.40936
37	0x38bb1254	8.920269e-05
38	0x400bbfb2	2.1835752
39	0x411c2682	9.759401
40	0x3fb2b8c1	1.3962632
41	0x435d30d1	221.19069
42	0x00000000	0.0
43	0x00000000	0.0
44	0x401e9814	2.478032
45	0x420ccc70	35.199646
46	0x42ebfebf	117.99755
47	0x00000000	0.0
48	0x435b3ff0	219.24976
49	0x424118b2	48.274117
50	0x415ab501	13.66919
51	0x00000000	0.0
52	0x43be1f79	380.24588
53	0x41c997a8	25.19905
54	0x3d805180	0.06265545
55	0x42710876	60.258263
56	0x441537a2	596.86926
57	0x3f89b487	1.0758218
58	0x44367df7	729.9682
59	0x00000000	0.0
60	0x00000000	0.0
61	0x00000000	0.0
62	0x3ad485e0	0.0016214214
63	0x00000000	0.0
64	0x46eb4d17	30118.545
65	0x44825588	1042.6729
66	0x43996c8b	306.848
67	0x442b4d1a	685.2047
68	0x434782b4	199.51056
69	0x45134e55	2356.8958
70	0x00000000	0.0
71	0x404b0665	3.1722653
72	0x45325ef4	2853.9346
73	0x458a1e0e	4419.757
74	0x4617cbc3	9714.94
75	0x42bec837	95.391045
76	0x00000000	0.0
77	0x466d340f	15181.015
78	0x44515e22	837.4708
79	0x4326ebeb	166.92155
80	0x45686299	3718.1624
81	0x444cba31	818.90924
82	0x00000000	0.0
83	0x463ab068	11948.102
84	0x428bfe6f	69.99694
85	0x3efaa1b4	0.48951495
86	0x441b172f	620.36224
87	0x449c2ee2	1249.4651
88	0x00000000	0.0
89	0x440430c7	528.76215
90	0x00000000	0.0
91	0x43b762d3	366.77206
92	0x00000000	0.0
93	0x00000000	0.0
94	0x00000000	0.0
95	0x00000000	0.0
96	0x4584fbbe	4255.468
97	0x439c47ba	312.56036
98	0x40a3f79a	5.123975
99	0x43b54b6f	362.58932
100	0x4618254d	9737.325
101	0x39f35420	0.0004641125
102	0x42c2b6bf	97.356926
103	0x44b589c6	1452.3054
104	0x44582ba1	864.6817
105	0x45bbc6a4	6008.83
106	0x00000000	0.0
107	0x00000000	0.0
108	0x4356c617	214.77379
109	0x451990d4	2457.0518
110	0x45b2dbdb	5723.482
111	0x00000000	0.0
112	0x45bed918	6107.1367
113	0x44ede353	1903.1039
114	0x439cfad8	313.95972
115	0x00000000	0.0
116	0x46005626	8213.537
117	0x43c40852	392.065
118	0x41efc9cb	29.973532
119	0x44f796d9	1980.714
120	0x46657df8	14687.492
121	0x44928862	1172.262
122	0x465bc52c	14065.293
123	0x00000000	0.0
124	0x00000000	0.0
125	0x00000000	0.0
126	0x3dd6278a	0.1045676
127	0x00000000	0.0
128	0x48ae075a	356410.8
129	0x46b0faea	22653.457
130	0x433cc2bc	188.76068
131	0x456a7494	3751.2861
132	0x45b9a359	5940.4185
133	0x464fa8d4	13290.207
134	0x00000000	0.0
135	0x403419f9	2.8140852
136	0x474ceee3	52462.887
137	0x472a4d57	43597.34
138	0x47adf42f	89064.37
139	0x430d0d14	141.05109
140	0x00000000	0.0
141	0x4832d51c	183124.44
142	0x445d7d22	885.9552
143	0x43155fd5	149.37434
144	0x45a0a468	5140.551
145	0x44a3e928	1311.2861
146	0x00000000	0.0
147	0x480d366d	144601.7
148	0x42acce8d	86.40342
149	0x3e1138bd	0.141818
150	0x455a593e	3493.5776
151	0x459d2fe4	5029.9863
152	0x00000000	0.0
153	0x44321f5d	712.49005
154	0x00000000	0.0
155	0x440a441d	553.0643
156	0x00000000	0.0
157	0x00000000	0.0
158	0x00000000	0.0
159	0x00000000	0.0
160	0x47135c6e	37724.43
161	0x456405aa	3648.354
162	0x404606c5	3.0941632
163	0x436beaeb	235.91765
164	0x47e3bb8a	116599.08
165	0x39c7b978	0.00038094423
166	0x42c46843	98.203636
167	0x452afcd0	2735.8008
168	0x447a0a36	1000.15955
169	0x47545762	54359.383
170	0x00000000	0.0
171	0x00000000	0.0
172	0x4386b3a1	269.40335
173	0x466b9fee	15079.982
174	0x46f2006a	30976.207
175	0x00000000	0.0
176	0x4776dcc4	63196.766
177	0x468b0ff2	17799.973
178	0x45005430	2053.2617
179	0x00000000	0.0
180	0x47a5d6cf	84909.62
181	0x4517bd22	2427.8208
182	0x41b4107a	22.508045
183	0x46992408	19602.016
184	0x481fa152	163461.28
185	0x4551fb33	3359.7
186	0x481b791f	159204.48
187	0x00000000	0.0
188	0x00000000	0.0
189	0x00000000	0.0
190	0x3d0218eb	0.031762045
191	0x00000000	0.0
192	0x47562f8c	54831.547
193	0x444fad9f	830.7128
194	0x43c60db8	396.10718
195	0x43b6c3cc	365.52966
196	0x43319f9e	177.6235
197	0x455c7171	3527.09
198	0x00000000	0.0
199	0x4043f120	3.061592
200	0x4591fdbe	4671.718
201	0x45fbbcf4	8055.619
202	0x4691348b	18586.271
203	0x42f23ed1	121.12269
204	0x00000000	0.0
205	0x46e67508	29498.516
206	0x448f3680	1145.7031
207	0x43a86290	336.77002
208	0x45cce3b8	6556.465
209	0x44e5f065	1839.5123
210	0x00000000	0.0
211	0x46973d65	19358.697
212	0x428e372d	71.107765
213	0x3e1398b5	0.14413722
214	0x44a4b75c	1317.73
215	0x4533eb27	2878.697
216	0x00000000	0.0
217	0x444c4cb8	817.1987
218	0x00000000	0.0
219	0x444d51a5	821.2757
220	0x00000000	0.0
221	0x00000000	0.0
222	0x00000000	0.0
223	0x00000000	0.0
224	0x45e422b2	7300.337
225	0x44218f59	646.2398
226	0x40608236	3.5079474
227	0x43dc36a1	440.4268
228	0x46674231	14800.548
229	0x3aef5eaf	0.0018262471
230	0x42b731a6	91.59697
231	0x44f0fdf7	1927.9364
232	0x4497c90c	1214.2827
233	0x4620261a	10249.525
234	0x00000000	0.0
235	0x00000000	0.0
236	0x4380463e	256.54877
237	0x458e0734	4544.9004
238	0x46112eae	9291.67
239	0x00000000	0.0
240	0x4638a724	11817.785
241	0x457d14fa	4049.311
242	0x43f8e1ad	497.7631
243	0x00000000	0.0
244	0x464e1f70	13191.859
245	0x437cac46	252.67294
246	0x4225cb54	41.448563
247	0x45986731	4876.899
248	0x46d67bd8	27453.922
249	0x44f17c42	1931.883
250	0x46a23ba1	20765.814
251	0x00000000	0.0
252	0x00000000	0.0
253	0x00000000	0.0
254	0x3bd62201	0.0065348153
255	0x00000000	0.0

exp_avg f4 [13]
0	0xbd2896bc	-0.041159377
1	0xbdf35785	-0.118819274
2	0x3bd2a5ed	0.0064284713
3	0x3da739cb	0.0816532
4	0x3d0bee2a	0.034162678
5	0x9340ec5b	-2.435034e-27
6	0x1309763c	1.7350125e-27
7	0x1498d0a2	1.5430369e-26
8	0x964c57b1	-1.6506659e-25
9	0x94fa09f7	-2.524748e-26
10	0x95119c60	-2.9405875e-26
11	0x898c3d6b	-3.376153e-33
12	0x098b0268	3.3465296e-33

exp_avg_sq f4 [13]
0	0x3d843255	0.064549126
1	0x3fc8b47f	1.5680083
2	0x417df507	15.872321
3	0x401dcd97	2.4656732
4	0x40c45a3e	6.136016
5	0x00000000	0.0
6	0x00000000	0.0
7	0x00000000	0.0
8	0x00000000	0.0
9	0x00000000	0.0
10	0x00000000	0.0
11	0x00000000	0.0
12	0x00000000	0.0
