Op_problems/problem_pooling/checkpoints/kkt_hardnet_checkpoint_epoch_250_loss_106.284145.pth (torch, 20857 bytes, 12 tensors)

nn.0.weight f4 [64, 4]
0.4259028 0.4342632 -0.056704972 0.45407462 -0.1915059 0.005205487 -0.34463507 0.31121638
0.9089449 -0.3901888 0.5466805 0.0116875535 0.7933619 0.052128002 0.14250511 -0.14496017
0.60546285 -0.106456004 -0.5498648 0.10647142 0.058791034 0.014792305 -0.16014194 0.28272387
-0.3946851 -0.23050517 -0.14118737 -0.30063623 -0.26485115 -0.46995997 0.8536952 0.13833897
0.28791326 -0.042768694 -0.28935948 0.21269584 0.085989475 0.41066805 0.0944778 -0.16202202
0.24340047 -0.061977472 0.3944562 0.5596846 0.19170013 -0.19647951 0.50334924 0.20895077
0.25391752 -0.30475253 -0.49495423 -0.19318026 -0.30255634 0.34745696 0.08444269 0.07718766
-0.37352905 0.036498714 0.5754744 -0.26801443 -0.1627433 -0.14576097 0.494877 0.30015373
0.22569811 0.39558834 0.865589 0.34859484 -0.67144716 -0.23491816 0.6418002 0.40413508
0.48112535 -0.41263813 -0.49593806 -0.3911819 -0.25939313 0.20413047 0.18462217 0.39991957
-0.2153238 0.019433774 1.0258925 0.1124714 -0.48280326 -0.48794752 0.45328873 0.13023542
-0.18760449 0.19151513 0.14844465 -0.09979741 0.6839885 0.5465799 -0.2029214 -0.18212987
0.45783097 -0.16871625 -0.1772582 -0.4837973 0.26555008 0.51004237 0.16768046 -0.13734518
0.011728346 -0.34154075 -0.42419833 -0.27533132 -0.64228964 -0.34219998 0.6502046 0.37442675
0.15407985 -0.46634215 -0.3283869 -0.16642791 0.07818556 -0.43996066 -0.21543652 -0.2993343
0.0013856292 -0.1860516 -0.034647882 -0.33881485 -0.34319758 -0.2917009 -0.17114872 -0.39464045
0.33122838 -0.13782404 0.49368843 0.17191677 -0.4029118 0.24725929 -0.05552423 -0.34784052
0.09889434 -0.53018826 0.50234103 0.35849646 0.33932686 -0.091942385 0.8838092 0.13472567
-0.18056633 0.12011285 0.3206822 0.48115802 0.42225078 -0.42969 0.09260477 -0.24829192
-0.15021174 0.16589165 1.4666953 0.2713335 0.56830037 0.38409233 0.2940225 -0.16362114
0.93972814 0.443149 0.21417223 -0.27485046 0.26460585 -0.040387895 -0.14864984 0.4463899
0.111474395 -0.2766382 -0.25306946 -0.02387786 0.27918065 -0.1277669 -0.28528744 -0.17122144
0.7459855 0.50729614 0.738794 -0.5566503 0.37904832 0.40205908 0.1815087 -0.13038708
0.6230406 0.4877815 0.3422406 -0.033696752 -0.13240063 0.05349046 -0.08832705 -0.14900053
0.43287715 0.4765386 0.0015602657 -0.1404259 -0.01912661 -0.017427426 0.21106699 0.18173198
-0.6690571 -0.2667214 0.48883644 0.34391305 -0.024868786 -0.30145288 -0.30590254 -0.44788343
0.022772517 0.23687561 0.32030302 0.19890375 -0.76042974 -0.36724523 0.04024653 0.58711416
0.8836706 0.16340478 0.18409052 -0.34071368 -0.10431106 0.45967755 -0.1788399 -0.098717175
-0.41448364 0.32930434 0.40714315 0.14178647 -0.24330616 -0.3438182 0.023842202 0.58324766
0.40980354 0.4649479 0.19671541 0.06932143 -0.0048963428 -0.38025302 -0.4283861 -0.46767431
0.20468098 -0.245484 -0.10062629 -0.28775263 -0.09111178 -0.35191745 -0.32670784 0.16585541
0.84370935 0.35804778 -0.09606221 -0.4204585 -0.088219464 -0.2423737 -0.15297079 -0.4759978
00000000: ef0f da3e bf57 de3e 7943 68bd 787c e83e
00000010: 1f1a 44be ca92 aa3b 0274 b0be c157 9f3e
00000020: 9db0 683f d4c6 c7be 41f3 0b3f 277d 3f3c
00000030: c419 4b3f 2c84 553d dcec 113e 7070 14be
00000040: 9dff 1a3f 9b05 dabd f1c3 0cbf b00d da3d
00000050: dece 703d 6d5b 723c 40fc 23be 2fc1 903e
00000060: 2a14 cabe 8c09 6cbe 6c93 10be feec 99be
00000070: 929a 87be 989e f0be c58b 5a3f bba8 0d3e
00000080: 5e69 933e 3a2e 2fbd ed26 94be f0cc 593e
00000090: 401b b03d 1543 d23e 947d c13d 1ae9 25be
000000a0: f93d 793e 17dc 7dbd 2af6 c93e 7d47 0f3f
000000b0: 0a4d 443e ed31 49be 7fdb 003f 31f7 553e
000000c0: 7a01 823e 8608 9cbe a46a fdbe 0cd1 45be
000000d0: aae8 9abe e1e5 b13e 4af0 ac3d 9014 9e3d
000000e0: 333f bfbe ad7f 153d 4a52 133f 3039 89be
000000f0: 2ea6 26be 5d42 15be 8560 fd3e c0ad 993e
00000100: 681d 673e 8e8a ca3e 3e97 5d3f 067b b23e
00000110: f6e3 2bbf 638e 70be 054d 243f cbea ce3e
00000120: 1056 f63e 4e45 d3be 98eb fdbe fe48 c8be
00000130: 2dcf 84be 9407 513e 980d 3d3e 42c2 cc3e
00000140: d87d 5cbe 9433 9f3c 7250 833f 6857 e63d
00000150: fd31 f7be 42d4 f9be 7615 e83e 6f5c 053e
00000160: 641b 40be 8b1c 443e e001 183e 9662 ccbd
00000170: df19 2f3f a9ec 0b3f a1ca 4fbe 4180 3abe
00000180: d268 ea3e f4c3 2cbe 2c83 35be 48b4 f7be
00000190: 2ef6 873e 2392 023f 6db4 2b3e 37a4 0cbe
000001a0: 4028 403c 6ede aebe 8630 d9be 3af8 8cbe
000001b0: 186d 24bf d634 afbe cf73 263f ddb4 bf3e
000001c0: 1cc7 1d3e 66c4 eebe 5422 a8be 146c 2abe
000001d0: c01f a03d 8642 e1be 649b 5cbe 5842 99be
000001e0: 009e b53a 5084 3ebe f0ea 0dbd 2479 adbe
000001f0: 98b7 afbe d259 95be 9c41 2fbe 500e cabe
00000200: c496 a93e bf21 0dbe bbc4 fc3e f30a 303e
00000210: 754a cebe 8a31 7d3e 606d 63bd 2718 b2be
00000220: 1e89 ca3d 6bba 07bf 6c99 003f d98c b73e
00000230: 40bc ad3e 4a4c bcbd 5241 623f 87f5 093e
00000240: 61e6 38be bafd f53d 7530 a43e 585a f63e
00000250: 4131 d83e 5400 dcbe 92a7 bd3d 3d40 7ebe
00000260: 1bd1 19be 80df 293e acbc bb3f 39ec 8a3e
00000270: 227c 113f c0a7 c43e 1e8a 963e 4d8c 27be
00000280: 0692 703f 6de4 e23e f74f 5b3e 33b9 8cbe
00000290: 6b7a 873e c76d 25bd aa37 18be 388d e43e
000002a0: b04c e43d 86a3 8dbe 5292 81be 809b c3bc
000002b0: c4f0 8e3e 54d5 02be 3211 92be ac54 2fbe
000002c0: e8f8 3e3f 29de 013f 9b21 3d3f a280 0ebf
000002d0: 9f12 c23e b0da cd3e 6bdd 393e 3184 05be
000002e0: 977f 1f3f 7fbe f93e 293a af3e 9b05 0abd
000002f0: 0894 07be d018 5b3d d0e4 b4bd 9893 18be
00000300: 13a2 dd3e defc f33e d481 cc3a cfcb 0fbe
00000310: 69af 9cbc f6c3 8ebc f221 583e f317 3a3e
00000320: 5347 2bbf b58f 88be c548 fa3e 5f15 b03e
00000330: a0b9 cbbc 0858 9abe 429f 9cbe fa50 e5be
00000340: 6e8d ba3c 858f 723e c2fe a33e 6dad 4b3e
00000350: 86ab 42bf 9107 bcbe 8cd9 243d 1d4d 163f
00000360: 3d38 623f 9553 273e 3a82 3c3e 0672 aebe
00000370: 09a1 d5bd db5a eb3e cf21 37be 3b2c cabd
00000380: 3337 d4be 949a a83e 1175 d03e 7930 113e
00000390: 4025 79be f008 b0be b950 c33c b84f 153f
000003a0: c5d1 d13e a70d ee3e c46f 493e 65f8 8d3d
000003b0: 8071 a0bb 86b0 c2be 6c55 dbbe 0273 efbe
000003c0: e497 513e 2860 7bbe 2815 cebd 5054 93be
000003d0: d098 babd 862e b4be 4046 a7be 00d6 293e
000003e0: 56fd 573f 0a52 b73e 44bc c4bd 5646 d7be
000003f0: 68ac b4bd d030 78be 60a4 1cbe fcb5 f3be

nn.0.bias f4 [64]
0.42038828 -0.26976603 0.09110612 0.25958708 0.2175206 -0.066299826 0.3595984 0.38122717
0.3309602 0.61415786 0.29783484 -0.5412213 -0.115115285 0.5346823 0.85114443 -1.1695994
0.021171723 0.30045524 0.47285318 0.09453365 -0.0368375 0.7226921 0.2437574 -0.08830164
-0.11349183 0.22771788 -0.04373187 -0.94088143 -0.20438379 -0.15872943 -0.47515202 0.41025376
0.16621372 0.042571303 0.20200817 0.08925768 -0.7826089 -0.5198007 1.1232697 0.19961108
0.69300485 0.106603585 -0.16650558 -0.16176039 0.2178348 0.17966945 0.07228714 -0.23940295
-0.41510472 0.5436788 -0.89961666 0.13248974 -0.04093849 0.111989416 0.70314693 0.57412696
-0.19106413 0.40230802 0.65484065 0.13154167 0.33521235 0.49294376 -0.977692 0.10377723
00000000: 223d d73e c61e 8abe d895 ba3d 99e8 843e
00000010: b8bd 5e3e 34c8 87bd 481d b83e 3530 c33e
00000020: 9e73 a93e 7339 1d3f cf7d 983e 7b8d 0abf
00000030: 90c1 ebbd f0e0 083f 9ae4 593f 6fb5 95bf
00000040: 5270 ad3c 45d5 993e d019 f23e dc9a c13d
00000050: ebe2 16bd 5902 393f 8a9b 793e 7dd7 b4bd
00000060: 686e e8bd e02e 693e 3020 33bd 9bdd 70bf
00000070: fc49 51be f889 22be 2047 f3be c80c d23e
00000080: ee33 2a3e 3f5f 2e3d 3bdb 4e3e bbcc b63d
00000090: 0f59 48bf a911 05bf 4dc7 8f3f d966 4c3e
000000a0: c468 313f fb52 da3d 7080 2abe 84a4 25be
000000b0: 1610 5f3e 45fb 373e 480b 943d 0c26 75be
000000c0: 9b88 d4be 892e 0b3f 474d 66bf 64ab 073e
000000d0: 1eaf 27bd b55a e53d 7001 343f fcf9 123f
000000e0: 51a6 43be 51fb cd3e a3a3 273f dcb2 063e
000000f0: f4a0 ab3e 2063 fc3e 064a 7abf 2889 d43d

nn.2.weight f4 [13, 64]
0.119901665 -0.0547239 2.3627157 0.17418206 -0.07584937 0.22956535 -0.08542046 2.9575691
-0.053505268 -0.0032286881 0.5824559 2.4202054 -0.09507568 0.07417095 -0.48207897 3.1066015
2.1688771 1.9892375 -0.05785151 0.25597784 3.1922374 -0.73227155 -0.118291534 -0.38108787
-0.101044625 1.4602187 0.120729715 1.5328901 -0.083941 0.030299276 0.03445129 0.06848872
0.5662342 0.07889735 4.326659 2.953787 0.40349773 0.015927525 3.022228 0.5076575
0.5977668 0.2385193 -0.11269438 0.0055835396 0.907586 0.18887661 0.34982964 -0.09479843
-0.05966459 0.4542935 1.2907734 0.07211517 0.21034092 0.33666027 -0.9785058 -0.15230854
0.25183976 1.5601487 0.292849 -0.11476326 0.0835769 -0.08816151 -4.3032746 0.10578066
0.009920309 0.26541826 -0.29018143 -0.3535393 0.2896366 0.019247476 -0.025587529 0.57075304
0.13440438 -0.03841548 0.083653115 -0.047488075 -0.1014687 0.008417771 0.008860815 -0.08099791
0.014517526 0.24541822 0.009957463 0.047813565 -0.25208616 0.9152986 -0.18509206 -0.20900209
-0.063540176 -0.016112635 -0.036388844 0.17783283 0.11917873 0.04354036 0.08911279 -0.060514092
-0.013407926 0.18042383 1.1322545 -0.29370895 0.046281315 -0.0640927 0.020826787 -0.050872695
-0.02986837 0.07011427 -0.02176416 -0.11578412 -0.4686359 -0.07106249 -0.011680412 -0.01580219
-0.14623803 0.1141281 0.104294494 0.079002246 -0.034743994 0.31568655 -0.7390929 -0.07020901
-0.035052173 0.17618398 -0.023637317 0.097574934 0.12018506 -0.06089887 0.70466626 0.10028775
0.09716063 -0.06886903 0.24440387 0.049205504 -0.19425985 -0.04394715 0.033254325 -0.020755265
-0.02625107 0.13330235 0.014122788 0.045388255 -0.0070767254 0.036766205 0.015303096 -0.18266574
-0.28257307 -0.23126118 -0.103867546 -0.069455214 0.63591146 0.42113784 0.13698252 0.06650429
0.09443119 -0.36988232 -0.068778485 0.01675229 -0.064772844 -0.08435823 -0.039916754 0.026232406
0.099737465 -0.080957554 -0.19664057 0.30365613 -0.071519785 -0.09655254 0.47685468 0.010156543
0.026995724 0.10047728 0.03738819 0.043019712 0.17170572 0.017215787 -0.007881616 0.0017180145
0.051925246 0.12197085 -0.011299045 -0.052839473 -0.027466685 -0.05993002 0.55548954 0.07340079
0.10937393 0.1507239 -0.07838265 -0.0670881 -0.027463928 -0.023040518 0.21546319 -0.11474644
0.04949656 -0.09458227 0.09084325 -0.07429962 -0.17588013 -0.02619593 0.094295844 0.020035792
-0.05060225 -0.00018911135 0.06200722 0.35538104 0.09037687 -0.07887537 -0.33029062 0.33665994
0.12881194 0.33967263 0.03419137 0.011415527 0.23597953 -0.66838485 0.046187386 -0.30139014
-0.11756636 -0.35841992 -0.08512169 0.51850283 -0.07588592 -0.009025201 -0.027742833 0.02224423
0.16882785 -0.049977917 0.80957043 0.3158461 0.1788522 -0.0046282285 0.14156279 -0.12599142
-0.4968389 0.108462654 -0.027308464 -0.08478154 -0.30067337 -0.0645995 0.018382685 0.124185756
0.0014694042 0.17593968 0.32144335 -0.10752657 -0.033340234 0.096690066 -0.19765903 -0.14872995
-0.06595625 0.15266646 -0.06915336 -0.123229235 -0.076726556 0.047663584 1.1622161 -0.037182853
00000000: 018f f53d 2b26 60bd bc36 1740 c85c 323e
00000010: ea56 9bbd 2e13 6b3e ecf0 aebd d048 3d40
00000020: 5728 5bbd 6698 53bb d41b 153f a5e4 1a40
00000030: 0ab7 c2bd f0e6 973d 0ed3 f6be 8fd2 4640
00000040: e2ce 0a40 569f fe3f b4f5 6cbd 870f 833e
00000050: 9e4d 4c40 2676 3bbf d542 f2bd f31d c3be
00000060: 7cf0 cebd 72e8 ba3f 2441 f73d be35 c43f
00000070: 42e9 abbd 3036 f83c cc1c 0d3d d043 8c3d
00000080: b9f4 103f ef94 a13d fe73 8a40 d90a 3d40
00000090: 4197 ce3e 717a 823c 2f6c 4140 d8f5 013f
000000a0: 3f07 193f 673e 743e 50cc e6bd 20f6 b63b
000000b0: 8e57 683f df68 413e df1c b33e ae25 c2bd
000000c0: db62 74bd 2899 e83e 1038 a53f 1eb1 933d
000000d0: 9c63 573e bc5e ac3e 5b7f 7abf c5f6 1bbe
000000e0: 24f1 803e f4b2 c73f 4ef0 953e 0009 ebbd
000000f0: 5e2a ab3d 068e b4bd 6db4 89c0 88a3 d83d
00000100: cb88 223c e7e4 873e a992 94be 1a03 b5be
00000110: 404b 943e e2ac 9d3c f09c d1bc df1c 123f
00000120: 4da1 093e 8d59 1dbd 5352 ab3d db82 42bd
00000130: d2ce cfbd b1ea 093c f42c 113c 3be2 a5bd
00000140: ebda 6d3c ea4e 7b3e a024 233c 28d8 433d
00000150: 7011 81be 0251 6a3f c688 3dbe a504 56be
00000160: 5a21 82bd a5fe 83bc 780c 15bd cf19 363e
00000170: fa13 f43d 6057 323d c480 b63d a0dd 77bd
00000180: ebac 5bbc 06c1 383e b7ed 903f 0561 96be
00000190: 7a91 3d3d 0943 83bd f09c aa3c e35f 50bd
000001a0: 83ae f4bc 1298 8f3d c04a b2bc 3a20 edbd
000001b0: 0bf1 efbe 3689 91bd 335f 3fbc 9873 81bc
000001c0: 6cbf 15be febb e93d 5a98 d53d eecb a13d
000001d0: b84f 0ebd aba1 a13e 3135 3dbf bec9 8fbd
000001e0: de92 0fbd 9369 343e 0ca3 c1bc 5ed5 c73d
000001f0: 9623 f63d 1871 79bd 0265 343f aa63 cd3d
00000200: 27fc c63d 350b 8dbd 0245 7a3e b68b 493d
00000210: 0eec 46be ed01 34bd b035 083d f206 aabc
00000220: 7c0c d7bc 6980 083e 4463 673c 09e9 393d
00000230: e0e3 e7bb 2998 163d d6b9 7a3c ba0c 3bbe
00000240: 6bad 90be bbcf 6cbe 82b8 d4bd 893e 8ebd
00000250: 18cb 223f 619f d73e 2545 0c3e 6733 883d
00000260: 2465 c13d 3761 bdbe bcdb 8cbd 193c 893c
00000270: a0a7 84bd 02c4 acbd c07f 23bd 58e5 d63c
00000280: 2843 cc3d 13cd a5bd 255c 49be d178 9b3e
00000290: f778 92bd 57bd c5bd 4c26 f43e a167 263c
000002a0: 2326 dd3c 08c7 cd3d 5c24 193d 7035 303d
000002b0: a0d3 2f3e 1f08 8d3c e521 01bc 002f e13a
000002c0: 91af 543d dacb f93d a11f 39bc 346e 58bd
000002d0: d001 e1bc 2e79 75bd 9034 0e3f 2753 963d
000002e0: 70ff df3d 5e57 1a3e 1587 a0bd 7c65 89bd
000002f0: 08fc e0bc 78bf bcbc 62a2 5c3e 2e00 ebbd
00000300: e8bc 4a3d 59b4 c1bd 070c ba3d 662a 98bd
00000310: ec19 34be d998 d6bc 2e1e c13d 1a22 a43c
00000320: 4e44 4fbd 314c 46b9 48fb 7d3d 81f4 b53e
00000330: 8217 b93d 6989 a1bd da1b a9be b15e ac3e
00000340: 47e7 033e 92e9 ad3e 400c 0c3d 3108 3b3c
00000350: 9ea4 713e 451b 2bbf fc2e 3d3d cf4f 9abe
00000360: a2c6 f0bd d182 b7be 4854 aebd 9abc 043f
00000370: 146a 9bbd 70de 13bc f044 e3bc 8839 b63c
00000380: 35e1 2c3e a5b5 4cbd 0240 4f3f 94b6 a13e
00000390: 0825 373e 65a8 97bb d6f5 103e e503 01be
000003a0: ab61 febe ab21 de3d 00b6 dfbc f2a1 adbd
000003b0: dcf1 99be be4c 84bd 4997 963c 1a55 fe3d
000003c0: 0699 c03a 8829 343e 3994 a43e e436 dcbd
000003d0: c58f 08bd 7105 c63d 2167 4abe aa4c 18be
000003e0: 1214 87bd 9954 1c3e 47a0 8dbd 9c5f fcbd
000003f0: d022 9dbd e43a 433d 7fc3 943f 0c4d 18bd

nn.2.bias f4 [13]
-0.20855421 0.37002417 0.13484453 -0.36693427 -0.07225522 0.08573556 -0.09735878 0.11410265
0.00968872 0.060120642 0.09708454 0.10656364 -0.09744185
00000000: 3c8f 55be cf73 bd3e af14 0a3e cfde bbbe
00000010: 8bfa 93bd 2096 af3d 0a64 c7bd a6ae e93d
00000020: 70bd 1e3c 1041 763d 42d4 c63d 0a3e da3d
00000030: 988f c7bd

exp_avg f4 [64, 4]
-0.9356841 2.7095113 -0.19383411 2.445765 1.23904 -12.73442 -4.6517043 -13.242872
-5.9024134 -4.040145 -1.9003983 -3.3588521 -3.1352067 3.7835498 -4.7985773 1.0187988
2.1795566 16.983078 2.119155 20.531395 -0.12000237 -0.26136023 -0.07404308 -0.48455483
0.0 0.0 0.0 0.0 0.63335544 0.18530001 2.4822066 -5.2437105
0.43439075 -7.0697155 -2.5375159 -6.5035286 -1.0868398 3.4719229 -0.010436544 3.4432764
-0.34965286 0.41375497 -0.39704594 -0.23469014 -0.95501214 6.0115557 -0.07161373 5.2309437
0.0 0.0 0.0 0.0 0.011801625 -0.17542066 0.026840312 -0.24867842
1.1868933 4.127039 3.6799326 3.264492 0.6053496 2.2801583 0.34205726 1.744205
0.20278062 -0.9268425 -0.13681178 -1.5559411 1.8175704 -4.603117 -0.67593277 -6.1388035
0.0 0.0 0.0 0.0 -0.15752608 -0.58194077 -0.22127663 -0.8766878
-3.6781719 17.221516 0.30482352 16.520622 1.8790611 5.367091 5.703721 5.383431
-1.4119377 6.168434 0.5125721 6.8154244 -1.9057155 4.153678 0.5227088 5.0332127
0.0 0.0 0.0 0.0 0.74896383 -5.7564783 0.14357303 -5.8025446
0.0 0.0 0.0 0.0 -0.05346301 1.7682035 -0.7802057 0.26232803
0.0 0.0 0.0 0.0 0.0 0.0 0.0 0.0
0.0 0.0 0.0 0.0 0.0 0.0 0.0 0.0
-0.61532956 3.4910612 -0.042476963 3.2034652 -0.00032053134 0.84068274 0.45949963 0.6023538
-1.8436443 -7.45727 -3.1013424 -11.384933 -4.5326715 16.813627 0.14810005 16.45928
-0.5458762 1.2493762 -0.32455418 0.8362612 6e-45 6e-45 6e-45 6e-45
-2.163888 9.334184 -0.4857094 7.690916 -0.9853173 1.7668314 0.013505017 1.7356787
-0.62721664 -1.5647202 0.028635018 -1.6936742 -1.0061902 2.5421414 -0.49149293 1.9034418
0.0 0.0 0.0 0.0 0.0 0.0 0.0 0.0
-1.2918048 8.556134 1.480862 9.240767 -0.8370928 2.1648784 0.13887763 2.3345075
-1.1465089 2.3155973 -0.19729277 2.1162083 0.0 0.0 0.0 0.0
-1.2553762 4.4403663 0.35804266 4.963924 -1.1000365 2.8240883 -0.6664566 1.9033753
0.18343914 0.9227025 -0.41114023 -0.04592057 0.0 0.0 0.0 0.0
-0.6326571 1.2353696 0.020963822 1.2726779 2.64307 -21.568459 -9.684089 -17.64132
-6.995875 -3.7207084 -3.69968 -7.4231963 -1.0003392 2.1837618 0.16404584 2.420518
-0.3471397 1.7083691 0.14214392 1.6954745 1.1549301 -3.216068 -1.9880397 -3.2810326
-0.02951727 -0.48594356 0.101862185 -0.42259994 0.0 0.0 0.0 0.0
0.0 0.0 0.0 0.0 0.0 0.0 0.0 0.0
0.0885185 -3.2225177 -2.7411828 -1.537662 0.0 0.0 0.0 0.0
00000000: fe88 6fbf a268 2d40 737c 46be 6a87 1c40
00000010: dd98 9e3f 2fc0 4bc1 c3da 94c0 cee2 53c1
00000020: 92e0 bcc0 de48 81c0 4040 f3bf 6ff7 56c0
00000030: 3aa7 48c0 ae25 7240 f28d 99c0 0068 823f
00000040: db7d 0b40 58dd 8741 3ca0 0740 4c40 a441
00000050: cdc3 f5bd 02d1 85be e6a3 97bd 9217 f8be
00000060: 0000 0000 0000 0000 0000 0000 0000 0000
00000070: 9523 223f 49bf 3d3e 79dc 1e40 7acc a7c0
00000080: 7768 de3e 1c3b e2c0 a966 22c0 e81c d0c0
00000090: 911d 8bbf fc33 5e40 0afe 2abc a45e 5c40
000000a0: b305 b3be b1d7 d33e 9b49 cbbe 9d52 70be
000000b0: ad7b 74bf aa5e c040 38aa 92bd e463 a740
000000c0: 0000 0000 0000 0000 0000 0000 0000 0000
000000d0: 9a5b 413c 79a1 33be 37e0 db3c 8ea5 7ebe
000000e0: 1fec 973f b410 8440 0484 6b40 70ed 5040
000000f0: 31f8 1a3f 1dee 1140 2122 af3e 1c42 df3f
00000100: b9a5 4f3e 8d45 6dbf 6318 0cbe 1429 c7bf
00000110: 26a6 e83f bc4c 93c0 ee09 2dbf 1471 c4c0
00000120: 0000 0000 0000 0000 0000 0000 0000 0000
00000130: 844e 21be 12fa 14bf 5796 62be 9d6e 60bf
00000140: 2b67 6bc0 aac5 8941 d411 9c3e 3c2a 8441
00000150: 1385 f03f 36bf ab40 e284 b640 1145 ac40
00000160: 60ba b4bf d063 c540 ed37 033f f517 da40
00000170: 7cee f3bf eeea 8440 3ed0 053f 1410 a140
00000180: 0000 0000 0000 0000 0000 0000 0000 0000
00000190: 18bc 3f3f 1235 b8c0 cf04 133e 72ae b9c0
000001a0: 0000 0000 0000 0000 0000 0000 0000 0000
000001b0: 07fc 5abd 7e54 e23f 90bb 47bf dc4f 863e
000001c0: 0000 0000 0000 0000 0000 0000 0000 0000
000001d0: 0000 0000 0000 0000 0000 0000 0000 0000
000001e0: 0000 0000 0000 0000 0000 0000 0000 0000
000001f0: 0000 0000 0000 0000 0000 0000 0000 0000
00000200: 3d86 1dbf 8c6d 5f40 53fc 2dbd 9305 4d40
00000210: fd0c a8b9 fc36 573f 8943 eb3e dc33 1a3f
00000220: 89fc ebbf f5a1 eec0 657c 46c0 b028 36c1
00000230: a50b 91c0 4f82 8641 8aa7 173e 9bac 8341
00000240: 8bbe 0bbf 8feb 9f3f f72b a6be 3715 563f
00000250: 0400 0000 0400 0000 0400 0000 0400 0000
00000260: 247d 0ac0 d158 1541 e7ae f8be fc1b f640
00000270: c13d 7cbf 8827 e23f 2644 5d3c b82a de3f
00000280: 4591 20bf c048 c8bf fc93 ea3c 51ca d8bf
00000290: d7ca 80bf 72b2 2240 f6a4 fbbe fba3 f33f
000002a0: 0000 0000 0000 0000 0000 0000 0000 0000
000002b0: 0000 0000 0000 0000 0000 0000 0000 0000
000002c0: dc59 a5bf ede5 0841 e38c bd3f 2eda 1341
000002d0: b74b 56bf 5e8d 0a40 f035 0e3e 9268 1540
000002e0: cec0 92bf bf32 1440 1e07 4abe f56f 0740
000002f0: 0000 0000 0000 0000 0000 0000 0000 0000
00000300: 2bb0 a0bf 7b17 8e40 5e51 b73e 77d8 9e40
00000310: ffcd 8cbf ddbd 3440 e69c 2abf cda1 f33f
00000320: 78d7 3b3e 3b36 6c3f f980 d2be 3517 3cbd
00000330: 0000 0000 0000 0000 0000 0000 0000 0000
00000340: d1f5 21bf 9720 9e3f 52bc ab3c 1ce7 a23f
00000350: 0f28 2940 348c acc1 07f2 1ac1 6c21 8dc1
00000360: 35de dfc0 1620 6ec0 8fc7 6cc0 d38a edc0
00000370: 1d0b 80bf c1c2 0b40 a2fb 273e c4e9 1a40
00000380: 4bbc b1be d7ab da3f 2d8e 113e 4f05 d93f
00000390: c0d4 933f 0fd4 4dc0 1678 febf 70fc 51c0
000003a0: 34ce f1bc 98cd f8be 1f9d d03d 055f d8be
000003b0: 0000 0000 0000 0000 0000 0000 0000 0000
000003c0: 0000 0000 0000 0000 0000 0000 0000 0000
000003d0: 0000 0000 0000 0000 0000 0000 0000 0000
000003e0: 3049 b53d bb3d 4ec0 8a6f 2fc0 1cd2 c4bf
000003f0: 0000 0000 0000 0000 0000 0000 0000 0000

exp_avg_sq f4 [64, 4]
240.67647 15210.147 2298.862 15702.925 1483.1426 91320.16 13595.377 95017.83
2027.1572 72115.56 18044.238 77316.15 1008.2195 46254.285 8242.317 44451.383
264.9172 7465.3105 154.3246 11614.932 4.4438467 316.96954 45.961613 322.0766
0.0 0.0 0.0 0.0 201.50893 14165.484 4062.3083 14848.739
197.10368 11160.399 1595.535 11863.174 361.46594 23045.518 3494.0183 23728.416
18.682526 1170.7261 171.59193 1208.8519 293.57574 16302.354 2652.0735 17138.871
0.0 0.0 0.0 0.0 0.96535003 49.22959 9.09348 45.92302
66.15325 6708.8433 1945.019 5660.498 107.882805 8098.1504 1181.0361 7999.273
33.840084 2388.0894 385.94708 2438.1206 1237.9817 82491.49 12396.626 84329.06
0.0 0.0 0.0 0.0 3.489847 242.17456 37.599823 242.46341
4572.85 283580.3 43999.137 293516.03 12.698929 509.38812 482.60394 754.0609
737.79315 46026.39 7108.251 47595.95 1222.6506 81274.71 12077.015 82949.41
0.0 0.0 0.0 0.0 248.71689 13729.33 2361.3176 14521.127
0.0 0.0 0.0 0.0 41.382698 3053.6016 484.78818 2877.7227
0.0 0.0 0.0 0.0 0.0 0.0 0.0 0.0
0.0 0.0 0.0 0.0 0.0 0.0 0.0 0.0
126.47005 7338.807 1173.3868 7674.299 0.06593972 14.551605 3.100113 8.738443
137.25247 8160.382 2051.0527 9036.638 6301.6597 391538.44 60009.15 405040.66
57.02813 3246.3108 498.5298 3399.4321 2.6933348e-08 6.374223e-07 1.3449961e-05 5.4322857e-08
1382.9379 86369.43 13300.19 89304.945 281.59973 18726.336 2770.1318 19075.932
155.53305 11441.92 1681.1384 11169.543 251.14516 15750.776 2371.0105 16323.877
0.0 0.0 0.0 0.0 0.0 0.0 0.0 0.0
411.9364 26313.986 4489.5356 25859.154 220.35626 14340.338 2146.5159 14685.212
337.66962 21630.64 3227.0996 22230.072 0.0 0.0 0.0 0.0
536.5491 33910.805 5167.4956 34962.195 270.21317 16619.994 2518.09 17258.484
44.53266 3372.2546 496.7335 3315.382 0.0 0.0 0.0 0.0
114.12333 7440.565 1104.9999 7613.8555 3460.9087 224578.1 33415.37 235601.36
2498.5913 106060.484 22176.203 94031.625 324.6819 21633.904 3216.6436 22082.64
50.836235 3344.7532 508.41214 3415.2588 467.27252 30720.334 4521.749 31565.205
2.210763 145.7668 25.003143 142.49956 0.0 0.0 0.0 0.0
0.0 0.0 0.0 0.0 0.0 0.0 0.0 0.0
82.37149 3048.301 568.962 2309.7563 0.0 0.0 0.0 0.0
00000000: 2dad 7043 97a8 6d46 cbad 0f45 b35b 7546
00000010: 9064 b944 145c b247 826d 5446 ea94 b947
00000020: 0865 fd44 c8d9 8c47 7af8 8c46 1302 9747
00000030: 0c0e 7c44 49ae 3447 45c9 0046 62a3 2d47
00000040: 6775 8443 7c4a e945 1953 1a43 ba7b 3546
00000050: fe33 8e40 1a7c 9e43 b1d8 3742 ce09 a143
00000060: 0000 0000 0000 0000 0000 0000 0000 0000
00000070: 4982 4943 f055 5d46 efe4 7d45 f502 6846
00000080: 8b1a 4543 9961 2e46 1f71 c744 b25c 3946
00000090: a4bb b443 090b b446 4b60 5a45 d560 b946
000000a0: d075 9541 3c57 9244 8997 2b43 431b 9744
000000b0: b2c9 9243 6ab9 7e46 2dc1 2545 bee5 8546
000000c0: 0000 0000 0000 0000 0000 0000 0000 0000
000000d0: 2e21 773f 1aeb 4442 e57e 1141 2cb1 3742
000000e0: 774e 8442 bfa6 d145 9c20 f344 fce3 b045
000000f0: ffc3 d742 3411 fd45 28a1 9344 2ffa f945
00000100: 3f5c 0742 6e41 1545 3af9 c043 ee61 1845
00000110: 6abf 9a44 bf1d a147 81b2 4146 88b4 a447
00000120: 0000 0000 0000 0000 0000 0000 0000 0000
00000130: a759 5f40 b02c 7243 3866 1642 a276 7243
00000140: cde6 8e45 8a77 8a48 23df 2b47 8151 8f48
00000150: d02e 4b41 aeb1 fe43 4e4d f143 e683 3c44
00000160: c372 3844 64ca 3347 0222 de45 f3eb 3947
00000170: d2d4 9844 5bbd 9e47 0fb4 3c46 b402 a247
00000180: 0000 0000 0000 0000 0000 0000 0000 0000
00000190: 86b7 7843 5285 5646 1595 1345 82e4 6246
000001a0: 0000 0000 0000 0000 0000 0000 0000 0000
000001b0: e287 2542 a0d9 3e45 e364 f243 90db 3345
000001c0: 0000 0000 0000 0000 0000 0000 0000 0000
000001d0: 0000 0000 0000 0000 0000 0000 0000 0000
000001e0: 0000 0000 0000 0000 0000 0000 0000 0000
000001f0: 0000 0000 0000 0000 0000 0000 0000 0000
00000200: aaf0 fc42 7556 e545 61ac 9244 64d2 ef45
00000210: 670b 873d 60d3 6841 4068 4640 aad0 0b41
00000220: a240 0943 0e03 ff45 d830 0045 8d32 0d46
00000230: 47ed c445 4e2e bf48 2669 6a47 15c6 c548
00000240: ce1c 6442 f9e4 4a45 d043 f943 ea76 5445
00000250: 0f5b e732 541b 2b35 25a7 6137 9d50 6933
00000260: 03de ac44 b7b0 a847 c3d0 4f46 796c ae47
00000270: c4cc 8c43 ac4c 9246 1c22 2d45 dd07 9546
00000280: 7688 1b43 aec7 3246 6e24 d244 2c86 2e46
00000290: 2925 7b43 1b1b 7646 2b30 1445 820f 7f46
000002a0: 0000 0000 0000 0000 0000 0000 0000 0000
000002b0: 0000 0000 0000 0000 0000 0000 0000 0000
000002c0: dcf7 cd43 f993 cd46 494c 8c45 4f06 ca46
000002d0: 345b 5c43 5a11 6046 4128 0645 d974 6546
000002e0: b6d5 a843 48fd a846 98b1 4945 25ac ad46
000002f0: 0000 0000 0000 0000 0000 0000 0000 0000
00000300: 2423 0644 ce76 0447 f77b a145 3292 0847
00000310: 491b 8743 fdd7 8146 7161 1d45 f8d4 8646
00000320: 7221 3242 13c4 5245 e35d f843 1d36 4f45
00000330: 0000 0000 0000 0000 0000 0000 0000 0000
00000340: 253f e442 8584 e845 ff1f 8a44 d8ee ed45
00000350: 8a4e 5845 8650 5b48 5f87 0247 5714 6648
00000360: 7629 1c45 3e26 cf47 6840 ad46 d0a7 b747
00000370: 4857 a243 cf03 a946 4c0a 4945 4885 ac46
00000380: 4e58 4b42 0d0c 5145 c134 fe43 2474 5545
00000390: e2a2 e943 ab00 f046 fe4d 8d45 699a f646
000003a0: 247d 0d40 4dc4 1143 7006 c841 e37f 0e43
000003b0: 0000 0000 0000 0000 0000 0000 0000 0000
000003c0: 0000 0000 0000 0000 0000 0000 0000 0000
000003d0: 0000 0000 0000 0000 0000 0000 0000 0000
000003e0: 34be a442 d184 3e45 913d 0e44 1a5c 1045
000003f0: 0000 0000 0000 0000 0000 0000 0000 0000

exp_avg f4 [64]
-0.012967093 -0.081836365 0.004404118 -0.011492976 0.12986863 -0.009063516 0.0 -0.026498718
-0.04742226 -0.016339127 -0.010842232 0.08367403 0.0 -0.018245818 0.007963167 0.13249236
0.05199915 0.06970998 0.0 -0.008580094 0.042551443 0.028189505 0.022424255 -0.054737076
0.0 -0.033933897 0.0 0.07396141 0.0 0.0 0.0 0.0
0.027862446 0.0054577575 -0.06437541 0.05861531 0.019867698 6e-45 -0.010807242 -0.030417858
-0.10680469 -0.01736307 0.0 0.0 0.04738099 -0.011865082 -0.014078148 0.0
0.0092677325 -0.014313429 0.055307567 0.0 -0.008751547 -0.08226256 -0.07629866 -0.036802087
-0.012765826 0.0010674732 -0.0043209703 0.0 0.0 0.0 0.011733865 0.0
00000000: ee73 54bc d399 a7bd 6b50 903b 094d 3cbc
00000010: 48fc 043e 247f 14bc 0000 0000 d713 d9bc
00000020: d83d 42bd a2d9 85bc 9ea3 31bc 4a5d ab3d
00000030: 0000 0000 4178 95bc f177 023c 14ac 073e
00000040: 10fd 543d 1bc4 8e3d 0000 0000 8693 0cbc
00000050: 6c4a 2e3d aded e63c 12b3 b73c fc33 60bd
00000060: 0000 0000 45fe 0abd 0000 0000 1479 973d
00000070: 0000 0000 0000 0000 0000 0000 0000 0000
00000080: c93f e43c fdd6 b23b 41d7 83bd 9b16 703d
00000090: 95c1 a23c 0400 0000 dc10 31bc df2e f9bc
000000a0: 6bbc dabd ff3c 8ebc 0000 0000 0000 0000
000000b0: 9212 423d c365 42bc 08a8 66bc 0000 0000
000000c0: b0d7 173c df82 6abc 308a 623d 0000 0000
000000d0: a662 0fbc 4679 a8bd 7942 9cbd c9bd 16bd
000000e0: c127 51bc 75ea 8b3a ed96 8dbb 0000 0000
000000f0: 0000 0000 0000 0000 663f 403c 0000 0000

exp_avg_sq f4 [64]
0.61788535 3.6670048 3.2639797 1.8094496 0.40034825 0.012951328 0.0 0.65287733
0.4449581 0.9350905 0.04766636 0.6770103 0.0 0.0024224222 0.2809279 0.3445957
0.10024975 3.3465364 0.0 0.009834169 11.525961 0.06914897 1.871147 3.2897773
0.0 0.5653601 0.0 0.12991494 0.0 0.0 0.0 0.0
0.30065995 0.0005260986 0.37811285 15.92362 0.13379115 1.7132531e-09 3.507127 0.758161
0.47169128 0.640719 0.0 0.0 1.0361029 0.5810095 0.87755847 0.0
1.3770581 0.6768877 0.13978678 0.0 0.30155066 9.17023 3.956775 0.87710744
0.13527744 1.2447286 0.005936581 0.0 0.0 0.0 0.11038922 0.0
00000000: bc2d 1e3f 35b0 6a40 0be5 5040 0b9c e73f
00000010: 72fa cc3e cf31 543c 0000 0000 f822 273f
00000020: 8cd1 e33e 1762 6f3f cd3d 433d 8c50 2d3f
00000030: 0000 0000 80c1 1e3b c8d5 8f3e d96e b03e
00000040: be4f cd3d a72d 5640 0000 0000 7f1f 213c
00000050: 566a 3841 fa9d 8d3d bf81 ef3f b68b 5240
00000060: 0000 0000 71bb 103f 0000 0000 6c08 053e
00000070: 0000 0000 0000 0000 0000 0000 0000 0000
00000080: 1af0 993e e1e9 093a 0298 c13e 26c7 7e41
00000090: 8c00 093e bc77 eb30 c574 6040 d716 423f
000000a0: 8581 f13e 2906 243f 0000 0000 0000 0000
000000b0: 059f 843f 0abd 143f aca7 603f 0000 0000
000000c0: 7143 b03f 8348 2d3f 4424 0f3e 0000 0000
000000d0: d964 9a3e 43b9 1241 cd3b 7d40 1d8a 603f
000000e0: 2b86 0a3e 4453 9f3f a787 c23b 0000 0000
000000f0: 0000 0000 0000 0000 be13 e23d 0000 0000

exp_avg f4 [13, 64]
0.19485164 0.074912414 -0.064352326 0.023961859 0.015095859 0.037928615 0.0 -0.08558669
0.052639034 0.15000509 -0.0029118643 -0.08254686 0.0 0.13848546 0.07888711 -0.062471237
0.1447167 -0.08391855 0.0 0.095258035 -0.01644787 0.0028881046 0.06554801 0.20575736
0.0 0.1839526 0.0 -0.13568664 0.0 0.0 0.0 0.0
-0.056743056 0.012084413 -0.15501134 -0.053207748 0.05694456 -6e-45 0.043791607 0.1304042
0.1525663 0.026829742 0.0 0.0 0.16975263 0.14237165 0.17462388 0.0
0.17105353 0.0011530442 -0.103670284 0.0 0.091630794 -0.040866252 0.08557539 0.18243383
0.12056716 -0.062290106 0.18024853 0.0 0.0 0.0 0.10779668 0.0
-16.495419 -5.950301 4.675438 5.3931065 0.7904662 -5.9932666 0.0 3.7605045
-1.2753327 -4.0052257 -11.997219 -2.1525161 0.0 -9.355446 3.4105675 -5.9137306
-16.871786 -9.026515 0.0 -14.118118 -7.0142355 -0.070267074 -2.4633844 -2.957583
0.0 -5.7311735 0.0 -6.26317 0.0 0.0 0.0 0.0
-2.0196283 -0.058691397 1.5489024 -3.259101 -14.466419 6e-45 -14.617401 -2.498671
0.30935353 -8.064428 0.0 0.0 4.344064 -3.8064241 -7.204139 0.0
-4.043338 -4.686884 -6.4163127 0.0 -9.751202 -9.019271 4.958451 -6.0280747
-11.8198395 -7.8543315 -9.389728 0.0 0.0 0.0 2.3169658 0.0
10.894339 5.1099806 -3.910316 -5.453578 -0.59484124 4.096649 0.0 -4.6250663
0.56722724 3.4382474 5.532574 -0.9909423 0.0 7.357698 -3.0540955 2.3373065
8.977335 4.2838306 0.0 9.482956 2.1606271 0.12865898 2.2074437 2.9514053
0.0 4.3034806 0.0 2.4314969 0.0 0.0 0.0 0.0
-1.2855295 0.032018214 -3.8964603 -1.3841205 9.054252 -6e-45 5.791618 0.95808345
-1.2294272 4.6213512 0.0 0.0 -4.5025263 2.5295224 4.0050936 0.0
3.4427814 2.2061784 3.241807 0.0 6.0034494 5.3496757 -4.5660367 5.9741325
8.347189 3.831326 5.965235 0.0 0.0 0.0 -1.903712 0.0
9.074804 4.343553 -3.1997938 -4.233528 -0.4843282 3.3247297 0.0 -2.408798
0.97474986 2.8338764 4.5885787 -0.9807225 0.0 5.9121346 -2.291315 1.5344826
7.1303873 3.2993402 0.0 7.6125884 1.3828694 0.19160609 1.698206 2.517966
0.0 3.4880457 0.0 1.5406662 0.0 0.0 0.0 0.0
-1.0291426 0.018716935 -1.6292527 -1.2587942 7.0737014 -6e-45 4.4991703 0.79011136
-0.78571737 3.885993 0.0 0.0 -4.7103915 2.0495772 3.2455385 0.0
2.7097592 1.8663495 2.2245185 0.0 4.7560616 4.3785815 -3.5415206 4.936941
6.460105 3.2373912 4.968537 0.0 0.0 0.0 -0.94231176 0.0
00000000: 3087 473e ae6b 993d 27cb 83bd a94b c43c
00000010: 9f54 773c 095b 1b3d 0000 0000 1348 afbd
00000020: 079c 573d ef9a 193e fad4 3ebb 540e a9bd
00000030: 0000 0000 22cf 0d3e 918f a13d d7e1 7fbd
00000040: 9d30 143e 7ddd abbd 0000 0000 a516 c33d
00000050: afbd 86bc 5b46 3d3b 093e 863d 0fb2 523e
00000060: 0000 0000 125e 3c3e 0000 0000 70f1 0abe
00000070: 0000 0000 0000 0000 0000 0000 0000 0000
00000080: 686b 68bd b4fd 453c 4bbb 1ebe 5ef0 59bd
00000090: b33e 693d 0400 0080 d45e 333d ae88 053e
000000a0: 573a 1c3e 0cca db3c 0000 0000 0000 0000
000000b0: a2d3 2d3e e0c9 113e 9ad0 323e 0000 0000
000000c0: a828 2f3e be21 973a 1651 d4bd 0000 0000
000000d0: eda8 bb3d 5f63 27bd 2642 af3d efcf 3a3e
000000e0: eaeb f63d e923 7fbd 1293 383e 0000 0000
000000f0: 0000 0000 0000 0000 81c4 dc3d 0000 0000
00000100: 9ef6 83c1 de68 bec0 309d 9540 5494 ac40
00000110: fe5b 4a3f d7c8 bfc0 0000 0000 1bac 7040
00000120: 1a3e a3bf cf2a 80c0 9cf4 3fc1 d3c2 09c0
00000130: 0000 0000 e8af 15c1 bd46 5a40 483d bdc0
00000140: 6bf9 86c1 9b6c 10c1 0000 0000 d0e3 61c1
00000150: 9e74 e0c0 2fe8 8fbd 17a8 1dc0 0a49 3dc0
00000160: 0000 0000 c665 b7c0 0000 0000 e36b c8c0
00000170: 0000 0000 0000 0000 0000 0000 0000 0000
00000180: 9741 01c0 6466 70bd 6f42 c63f 1c95 50c0
00000190: 7476 67c1 0400 0000 e0e0 69c1 3aea 1fc0
000001a0: 9663 9e3e e607 01c1 0000 0000 0000 0000
000001b0: 9302 8b40 749c 73c0 4f88 e6c0 0000 0000
000001c0: 0663 81c0 f4fa 95c0 6f52 cdc0 0000 0000
000001d0: ec04 1cc1 ef4e 10c1 a1ab 9e40 fde5 c0c0
000001e0: 101e 3dc1 af56 fbc0 533c 16c1 0000 0000
000001f0: 0000 0000 0000 0000 2b49 1440 0000 0000
00000200: 364f 2e41 f684 a340 9e42 7ac0 b683 aec0
00000210: 8447 18bf c017 8340 0000 0000 8b00 94c0
00000220: ce35 113f 3f0c 5c40 d90a b140 65ae 7dbf
00000230: 0000 0000 4372 eb40 4d76 43c0 6e96 1540
00000240: 2aa3 0f41 2415 8940 0000 0000 30ba 1741
00000250: b747 0a40 2ebf 033e c246 0d40 d3e3 3c40
00000260: 0000 0000 1db6 8940 0000 0000 a59d 1b40
00000270: 0000 0000 0000 0000 0000 0000 0000 0000
00000280: 3b8c a4bf 8825 033d 9b5f 79c0 dc2a b1bf
00000290: 37de 1041 0400 0080 ef54 b940 f544 753f
000002a0: df5d 9dbf 1ce2 9340 0000 0000 0000 0000
000002b0: b214 90c0 b2e3 2140 ba29 8040 0000 0000
000002c0: 8856 5c40 0732 0d40 c479 4f40 0000 0000
000002d0: 421c c040 8b30 ab40 f91c 92c0 182c bf40
000002e0: 168e 0541 7234 7540 35e3 be40 0000 0000
000002f0: 0000 0000 0000 0000 d6ac f3bf 0000 0000
00000300: 6632 1141 63fe 8a40 6cc9 4cc0 1079 87c0
00000310: def9 f7be 5fc8 5440 0000 0000 bf29 1ac0
00000320: 3589 793f 3b5e 3540 a3d5 9240 a110 7bbf
00000330: 0000 0000 3530 bd40 e8a4 12c0 ed69 c43f
00000340: 222c e440 6428 5340 0000 0000 539a f340
00000350: dd01 b13f 6334 443e d05e d93f 5b26 2140
00000360: 0000 0000 243c 5f40 0000 0000 8d34 c53f
00000370: 0000 0000 0000 0000 0000 0000 0000 0000
00000380: f2ba 83bf 4254 993c 5a8b d0bf 2b20 a1bf
00000390: c35b e240 0400 0080 34f9 8f40 bd44 4a3f
000003a0: c624 49bf 1cb4 7840 0000 0000 0000 0000
000003b0: 87bb 96c0 462c 0340 e7b6 4f40 0000 0000
000003c0: b26c 2d40 8ae4 ee3f 835e 0e40 0000 0000
000003d0: a831 9840 571d 8c40 46a8 62c0 6cfb 9d40
000003e0: 2eb9 ce40 6b31 4f40 41fe 9e40 0000 0000
000003f0: 0000 0000 0000 0000 583b 71bf 0000 0000

exp_avg_sq f4 [13, 64]
10.548017 1.2086152 0.09161259 0.16742097 0.39117756 0.52597404 0.0 0.13000102
1.8865709 1.0624896 2.4402587 0.12117559 0.0 4.901807 0.08811656 0.1604474
1.2295922 0.26220858 0.0 4.99506 0.48718056 0.019581394 0.069559366 0.1285085
0.0 0.1922269 0.0 0.1950349 0.0 0.0 0.0 0.0
0.9221689 0.07555533 0.06900034 0.3726727 4.175755 5.9957813e-07 1.3719507 0.22850575
0.14529136 1.581635 0.0 0.0 0.32067105 0.37077096 1.1730969 0.0
1.5904905 0.3884114 0.19491966 0.0 2.8439062 0.18905862 0.027756654 0.47041622
4.352717 0.03976048 5.2968483 0.0 0.0 0.0 0.010286649 0.0
272841.25 8194.889 929.12256 1420.4214 44.51007 23049.258 0.0 1210.3853
3462.8286 28384.2 157420.94 18075.602 0.0 72969.055 322.16925 35120.59
393817.97 39134.953 0.0 142399.67 82441.28 3.0150487 5197.859 41734.344
0.0 68638.26 0.0 14146.634 0.0 0.0 0.0 0.0
24719.227 2.1693904 1344.9718 59285.65 160369.06 3.1195482e-06 319123.0 51373.582
41562.84 48947.02 0.0 0.0 35805.867 47696.24 138676.2 0.0
46829.63 20526.805 13202.531 0.0 101512.01 6779.9165 636.57117 25218.13
109271.445 13619.756 148224.64 0.0 0.0 0.0 232.26514 0.0
291887.78 8985.108 911.4477 1460.5836 87.10004 24643.152 0.0 1188.8446
4034.3677 30398.494 166775.4 18791.707 0.0 78837.45 319.2019 36873.133
415777.47 41108.95 0.0 152095.94 86268.51 2.607163 5530.1094 44390.426
0.0 72730.55 0.0 14716.89 0.0 0.0 0.0 0.0
25984.334 24.627207 1340.2766 61751.137 170607.28 2.560533e-06 335279.16 54131.72
43678.418 52297.977 0.0 0.0 37269.867 50516.074 146660.03 0.0
50067.3 21768.207 13847.759 0.0 107921.57 7227.7603 640.0876 27144.68
116808.44 14420.564 157993.2 0.0 0.0 0.0 239.64474 0.0
123322.516 3719.0134 484.43063 699.01166 24.040842 10431.265 0.0 586.34674
1647.202 12643.77 71428.29 8302.664 0.0 32428.424 153.18405 15870.859
177231.67 17574.312 0.0 63874.85 37074.555 1.842443 2278.569 18826.639
0.0 30692.186 0.0 6396.189 0.0 0.0 0.0 0.0
11369.416 4.445483 665.8184 27035.469 72185.16 1.2275203e-05 143523.11 23177.383
18903.676 22369.205 0.0 0.0 16136.755 21428.453 62529.92 0.0
21063.95 9286.138 5906.7017 0.0 45662.12 3098.8804 315.00833 11151.364
48783.766 6335.3657 66661.914 0.0 0.0 0.0 116.54764 0.0
00000000: adc4 2841 e7b3 9a3f 629f bb3d 6770 2b3e
00000010: 6d48 c83e 3ca6 063f 0000 0000 fd1e 053e
00000020: 287b f13f a9ff 873f 332d 1c40 e82a f83d
00000030: 0000 0000 9adb 9c40 7476 b43d 534c 243e
00000040: 4763 9d3f 3440 863e 0000 0000 88d7 9f40
00000050: bb6f f93e 2969 a03c 2475 8e3d bb97 033e
00000060: 0000 0000 21d7 443e 0000 0000 3bb7 473e
00000070: 0000 0000 0000 0000 0000 0000 0000 0000
00000080: 4313 6c3f c1bc 9a3d 0d50 8d3d f5ce be3e
00000090: c99f 8540 b2f2 2035 159c af3f 69fd 693e
000000a0: 42c7 143e 0473 ca3f 0000 0000 0000 0000
000000b0: ff2e a43e b1d5 bd3e 0a28 963f 0000 0000
000000c0: 3195 cb3f dcdd c63e 0599 473e 0000 0000
000000d0: 8f02 3640 9598 413e ec61 e33c 65da f03e
000000e0: 7549 8b40 e3db 223d c87f a940 0000 0000
000000f0: 0000 0000 0000 0000 5589 283c 0000 0000
00000100: 2839 8548 8e0b 0046 d847 6844 7c8d b144
00000110: 500a 3242 8412 b446 0000 0000 544c 9744
00000120: 426d 5845 66c0 dd46 3cbb 1948 3437 8d46
00000130: 0000 0000 8784 8e47 aa15 a143 9730 0947
00000140: 3f4b c048 f4de 1847 0000 0000 eb0f 0b48
00000150: a404 a147 8ff6 4040 df6e a245 5806 2347
00000160: 0000 0000 210f 8647 0000 0000 890a 5d46
00000170: 0000 0000 0000 0000 0000 0000 0000 0000
00000180: 741e c146 4bd7 0a40 191f a844 a695 6747
00000190: 449c 1c48 6e59 5136 60d2 9b48 95ad 4847
000001a0: d75a 2247 0533 3f47 0000 0000 0000 0000
000001b0: dedd 0b47 3d50 3a47 0d6d 0748 0000 0000
000001c0: a1ed 3647 9c5d a046 204a 4e46 0000 0000
000001d0: 0144 c647 55df d345 8e24 1f44 4304 c546
000001e0: b96b d547 06cf 5446 29c0 1048 0000 0000
000001f0: 0000 0000 0000 0000 e043 6843 0000 0000
00000200: f985 8e48 6f64 0c46 a7dc 6344 ad92 b644
00000210: 3833 ae42 4e86 c046 0000 0000 079b 9444
00000220: e225 7c45 fd7c ed46 dadd 2248 6acf 9246
00000230: 0000 0000 bafa 9947 d899 9f43 2209 1047
00000240: 2f04 cb48 f394 2047 0000 0000 fc87 1448
00000250: 417e a847 c2db 2640 e0d0 ac45 6d66 2d47
00000260: 0000 0000 460d 8e47 0000 0000 8ff3 6546
00000270: 0000 0000 0000 0000 0000 0000 0000 0000
00000280: ab00 cb46 8504 c541 da88 a744 2337 7147
00000290: d29b 2648 9fd5 2b36 e5b5 a348 b873 5347
000002a0: 6b9e 2a47 fa49 4c47 0000 0000 0000 0000
000002b0: de95 1147 1354 4547 0239 0f48 0000 0000
000002c0: 4d93 4347 6a10 aa46 095f 5846 0000 0000
000002d0: c9c8 d247 15de e145 9b05 2044 5c11 d446
000002e0: 3824 e447 4252 6146 4d4a 1a48 0000 0000
000002f0: 0000 0000 0000 0000 0ea5 6f43 0000 0000
00000300: 42dd f047 3770 6845 1f37 f243 bfc0 2e44
00000310: a553 c041 0ffd 2246 0000 0000 3196 1244
00000320: 77e6 cd44 148f 4546 2582 8b47 a8ba 0146
00000330: 0000 0000 d958 fd46 1e2f 1943 70fb 7746
00000340: eb13 2d48 a04c 8946 0000 0000 da82 7947
00000350: 8ed2 1047 2cd5 eb3f 1b69 0e45 4715 9346
00000360: 0000 0000 5fc8 ef46 0000 0000 83e1 c745
00000370: 0000 0000 0000 0000 0000 0000 0000 0000
00000380: aaa5 3146 6641 8e40 6174 2644 f036 d346
00000390: 94fc 8c47 98f1 4d37 c728 0c48 c412 b546
000003a0: 5aaf 9346 69c2 ae46 0000 0000 0000 0000
000003b0: 0523 7c46 e868 a746 ec41 7447 0000 0000
000003c0: e68f a446 8d18 1146 9d95 b845 0000 0000
000003d0: 1f5e 3247 16ae 4145 1181 9d43 753d 2e46
000003e0: c48f 3e47 edfa c545 f532 8247 0000 0000
000003f0: 0000 0000 0000 0000 6418 e942 0000 0000

exp_avg f4 [13]
0.0074674645 -0.1821167 -0.11406182 0.14434709 0.097475454 -8.827268e-27 1.2093869e-28 -3.2373646e-27
7.4892673e-26 -1.2847413e-27 1.5795236e-27 1.538037e-34 -3.6757576e-35
00000000: a2b1 f43b cd7c 3abe 3e99 e9bd b9cf 133e
00000010: 36a1 c73d 91d7 2e94 d94e 1911 c73e 8093
00000020: df6c b915 4c93 cb92 1749 fa12 b070 4c07
00000030: d26f 4386

exp_avg_sq f4 [13]
0.0005500857 12.810067 13.676587 5.78151 13.824759 0.0 0.0 2.12e-43
7e-43 7e-43 7e-43 0.0 0.0
00000000: a033 103a 09f6 4c41 4dd3 5a41 2102 b940
00000010: 3632 5d41 0000 0000 0000 0000 9700 0000
00000020: f401 0000 f401 0000 f401 0000 0000 0000
00000030: 0000 0000
