Op_problems/problem_pooling/checkpoints/mlp_checkpoint_epoch_550_loss_65.615554.pth (torch, 20659 bytes, 12 tensors)

nn.0.weight f4 [64, 4]
000000 2c 0f 07 3f 3f 06 f0 3e 6c 1c f9 bd 88 8c 01 3f
       0.52757525 0.46879765 -0.12163624 0.5060506
000010 83 d3 52 be 80 c1 83 bc a5 b5 b0 be da 1f 61 3e
       -0.20588498 -0.016083479 -0.34513584 0.21984807
000020 8c 6e 4e 3e 26 18 00 bf e6 45 c6 3e ec 11 93 3e
       0.20159358 -0.5003685 0.38725203 0.2872461
000030 d4 d2 70 3e aa a5 b5 3d fb c7 65 3d 44 8c 3c be
       0.23517925 0.088694885 0.05609892 -0.18412882
000040 e0 64 5f 3e d0 83 60 bd e2 0c a8 be 3b c3 01 bc
       0.21815825 -0.054813206 -0.3282233 -0.007920082
000050 6a 85 2a bd 32 1d 92 bc 57 11 6a be f8 87 a3 3e
       -0.04163114 -0.017836187 -0.22858177 0.31939673
000060 2a 14 ca be 8c 09 6c be 6c 93 10 be fe ec 99 be
       -0.3946851 -0.23050517 -0.14118737 -0.30063623
000070 7b 2f b8 be 68 c9 fe be 59 ea 0d 3f 14 55 7b be
       -0.35973725 -0.49763036 0.5543571 -0.24544173
000080 5b ec ad 3e fc 3e 63 bd 01 63 d0 bd 0f a9 0d 3e
       0.33969387 -0.05547999 -0.101751335 0.13834022
000090 41 8e 4e 3e 5a 0d e1 3e c3 63 7f 3d 29 7f fd bd
       0.20171453 0.439555 0.062351 -0.123777695
0000a0 1f 61 8d 3e 85 70 0d be 48 99 06 3e 42 2d d3 3e
       0.2761316 -0.13812454 0.1314441 0.41245466
0000b0 4d d3 96 3d a3 2b b4 be 44 ea 85 3e 6b 38 60 3e
       0.07364521 -0.35189542 0.26155293 0.21896522
0000c0 7a 01 82 3e 86 08 9c be a4 6a fd be 0c d1 45 be
       0.25391752 -0.30475253 -0.49495423 -0.19318026
0000d0 b1 48 83 be f2 7a b9 3e 53 15 6d 3d 05 75 3e 3e
       -0.25641397 0.36226612 0.057881664 0.18599327
0000e0 13 14 b5 3d 85 aa 58 3e 47 3a f5 3e c3 19 54 be
       0.088417195 0.21158798 0.47896025 -0.20712952
0000f0 dd c4 96 be 26 8a 81 be 81 63 a3 3e fd 3b 81 3e
       -0.2944707 -0.2530071 0.31911853 0.2524108
000100 2b a3 67 be 4b 57 01 3d f5 91 17 3f f7 64 ad bc
       -0.22620837 0.03157739 0.5920709 -0.021166308
000110 db 1b 1e bf 59 cc 8d be 87 98 29 3f 14 70 9e 3e
       -0.61761254 -0.27694967 0.66248363 0.30944884
000120 10 56 f6 3e 4e 45 d3 be 98 eb fd be fe 48 c8 be
       0.48112535 -0.41263813 -0.49593806 -0.3911819
000130 7c 73 ef be 76 b3 51 bd 9c 2b 05 bd 2a 05 27 3e
       -0.46767795 -0.051196538 -0.032512292 0.16310564
000140 da a9 d3 3c 61 c6 b1 be e8 69 92 3e 47 70 5a 3e
       0.025837827 -0.34721664 0.28596425 0.21331893
000150 33 d8 cf 3d a0 3c 32 be ea 83 29 3e bf 4c f9 be
       0.101486586 -0.17405939 0.16554227 -0.48691365
000160 a1 17 0a be 7b 9d 45 3e 5f 80 b6 3d 8f b3 98 bd
       -0.13485576 0.19298355 0.089112036 -0.07456123
000170 df be 16 3f 5e 1a 00 3f da 35 8b be cc 81 12 be
       0.58884996 0.50040233 -0.27189523 -0.14307326
000180 d2 68 ea 3e f4 c3 2c be 2c 83 35 be 48 b4 f7 be
       0.45783097 -0.16871625 -0.1772582 -0.4837973
000190 6d 05 be 3e 5d 61 b1 3e 47 82 0b bd 98 cf b0 be
       0.37113515 0.34644595 -0.03405979 -0.3453338
0001a0 40 28 40 3c 6e de ae be 86 30 d9 be 3a f8 8c be
       0.011728346 -0.34154075 -0.42419833 -0.27533132
0001b0 f5 ab cf be 4b de 8e be 95 74 0d 3f 8b b7 93 3e
       -0.4056088 -0.2790397 0.55256015 0.2885097
0001c0 1c c7 1d 3e 66 c4 ee be 54 22 a8 be 14 6c 2a be
       0.15407985 -0.46634215 -0.3283869 -0.16642791
0001d0 c0 1f a0 3d 86 42 e1 be 64 9b 5c be 58 42 99 be
       0.07818556 -0.43996066 -0.21543652 -0.2993343
0001e0 00 9e b5 3a 50 84 3e be f0 ea 0d bd 24 79 ad be
       0.0013856292 -0.1860516 -0.034647882 -0.33881485
0001f0 98 b7 af be d2 59 95 be 9c 41 2f be 50 0e ca be
       -0.34319758 -0.2917009 -0.17114872 -0.39464045
000200 88 a2 e7 3e 8a ce fe bd cc 3f c0 3e 45 b9 26 3e
       0.4524119 -0.12441738 0.37548673 0.16281612
000210 8b 35 d7 be ec 5b a7 3e c2 9e bd bd a9 e5 2b be
       -0.42033038 0.32687318 -0.09258796 -0.16786827
000220 39 8a 27 3f e3 13 13 bf 8d 2e 9d 3e e2 c3 00 be
       0.65445286 -0.5745222 0.30699578 -0.12574723
000230 be 9b 63 3e 0f 57 cc be b2 12 fe 3e ed 42 2a 3e
       0.2222738 -0.3991017 0.49623638 0.16627093
000240 4b 43 8f be 3e 3c 1a bd 90 f6 03 3e 8d b8 7b 3e
       -0.27981028 -0.037655108 0.12887025 0.2458212
000250 41 31 d8 3e 54 00 dc be 92 a7 bd 3d 3d 40 7e be
       0.42225078 -0.42969 0.09260477 -0.24829192
000260 c5 51 60 bf 41 a4 2b bd 8b 9f dc 3e c4 aa ad be
       -0.8762477 -0.04190469 0.43090472 -0.33919346
000270 40 cc e5 3e 32 96 84 3e 71 36 54 3e 42 4c 3b be
       0.44882393 0.2589584 0.20723893 -0.18290809
000280 d0 91 13 3f 90 8c cc 3e d5 83 3b bc 1d 71 de be
       0.5764437 0.3995099 -0.011445005 -0.43445674
000290 c2 77 bd 3e 3f f1 cf 3b 29 14 5d be 20 67 f6 3e
       0.3700543 0.0063458974 -0.21589722 0.48125553
0002a0 b0 4c e4 3d 86 a3 8d be 52 92 81 be 80 9b c3 bc
       0.111474395 -0.2766382 -0.25306946 -0.02387786
0002b0 c4 f0 8e 3e 54 d5 02 be 32 11 92 be ac 54 2f be
       0.27918065 -0.1277669 -0.28528744 -0.17122144
0002c0 e2 1b 46 3f f3 f4 c5 bd 16 7e f8 3e 14 7a 02 bf
       0.77386296 -0.09665861 0.48533696 -0.50967526
0002d0 b0 5d 8a 3e a1 88 89 3e 8e 9d 78 3d 8e 15 3c be
       0.27024603 0.26862052 0.06069713 -0.18367597
0002e0 f4 a9 02 3f f4 03 a3 3e 7a ed 60 3e 91 8b 60 be
       0.5104058 0.31838953 0.2196559 -0.2192824
0002f0 08 94 07 be d0 18 5b 3d d0 e4 b4 bd 98 93 18 be
       -0.13240063 0.05349046 -0.08832705 -0.14900053
000300 43 d8 eb 3e 41 07 f6 3e 88 be 7f bd 14 21 88 bd
       0.46063432 0.4805241 -0.062437564 -0.06646934
000310 3d 36 0e 3e e0 87 b1 3c b4 56 08 3e d8 c1 35 3e
       0.13887878 0.021671236 0.13314325 0.17749727
000320 af 75 e2 be 4b 87 73 be c3 ef cb 3e b3 4a 57 3e
       -0.4423041 -0.23782079 0.3983136 0.21024589
000330 a0 b9 cb bc 08 58 9a be 42 9f 9c be fa 50 e5 be
       -0.024868786 -0.30145288 -0.30590254 -0.44788343
000340 47 66 64 be 78 c5 17 3d 8d 51 0f 3e 9a c9 9c 3d
       -0.2230464 0.037053555 0.13995953 0.0765564
000350 59 26 2e bf 8f df 0c bf d5 3c fa 3d af e5 0b 3f
       -0.68027264 -0.55028623 0.12218634 0.54647344
000360 96 bf e1 3e 35 c1 10 3e 3a b2 24 3e da d8 8a be
       0.4409148 0.14136203 0.16083613 -0.2711857
000370 00 27 08 be 04 40 df 3e 8f c9 5e be 97 85 46 bd
       -0.13296127 0.43603528 -0.21756576 -0.048467245
000380 80 76 b5 be 91 30 a8 3e fb b9 94 3e 73 e4 4c 3e
       -0.3544197 0.32849553 0.29048142 0.20009021
000390 84 26 23 be 58 8f 9c be 36 4d f6 bd 33 bd 17 3f
       -0.15932661 -0.30578113 -0.120264456 0.5927307
0003a0 8d 07 d7 bb a4 ce 49 3e 82 a9 89 3d 6b cf c4 bd
       -0.0065621794 0.19707733 0.06721784 -0.09609874
0003b0 80 71 a0 bb 86 b0 c2 be 6c 55 db be 02 73 ef be
       -0.0048963428 -0.38025302 -0.4283861 -0.46767431
0003c0 e4 97 51 3e 28 60 7b be 28 15 ce bd 50 54 93 be
       0.20468098 -0.245484 -0.10062629 -0.28775263
0003d0 d0 98 ba bd 86 2e b4 be 40 46 a7 be 00 d6 29 3e
       -0.09111178 -0.35191745 -0.32670784 0.16585541
0003e0 44 dd 98 3e fe e2 8b 3e 8a c0 c0 3d 5c 82 0b bf
       0.29856312 0.2732162 0.09411724 -0.5449579
0003f0 68 ac b4 bd d0 30 78 be 60 a4 1c be fc b5 f3 be
       -0.088219464 -0.2423737 -0.15297079 -0.4759978

nn.0.bias f4 [64]
000000 13 23 f8 3d de b7 d5 bd 23 41 e2 3e 70 f1 8a 3e
       0.12116065 -0.104354605 0.4419032 0.27137327
000010 d9 7f 61 3e c0 b4 c4 be 48 1d b8 3e f0 68 04 3f
       0.22021426 -0.3841915 0.3595984 0.5172262
000020 ee 0a c9 bc bb b3 9a 3e 0e c4 24 be 54 76 62 3e
       -0.024541344 0.30215248 -0.16090414 0.22115451
000030 90 c1 eb bd 4d 2e c3 be f5 3b 1f 3f 87 2f 29 be
       -0.115115285 -0.38121262 0.6220086 -0.16522036
000040 dc 6d 18 3f 89 65 28 3f d0 19 f2 3e 28 8f 42 be
       0.5954263 0.6577993 0.47285318 -0.18999922
000050 64 69 61 be 0d 72 31 3e d8 12 ab 3d 09 29 db be
       -0.2201286 0.17328663 0.083532035 -0.42804745
000060 68 6e e8 bd bd 86 ff 3e 30 20 33 bd 52 32 ac be
       -0.11349183 0.49907485 -0.04373187 -0.3363214
000070 fc 49 51 be f8 89 22 be 20 47 f3 be c8 0c d2 3e
       -0.20438379 -0.15872943 -0.47515202 0.41025376
000080 be 40 3a 3d 6a e5 06 be 9f 43 30 be 44 14 aa bd
       0.0454719 -0.13173452 -0.17213295 -0.083046466
000090 8e 8c 4e bf a9 11 05 bf 91 e4 3d 3e 0d e6 fb 3c
       -0.8068322 -0.5198007 0.18544222 0.030749345
0000a0 de 8c 5a 3e a4 66 39 be 70 80 2a be 84 a4 25 be
       0.21342799 -0.1810556 -0.16650558 -0.16176039
0000b0 f7 22 a2 3c 88 d9 25 be 8a 3c ca be 0c 26 75 be
       0.019792063 -0.16196263 -0.39499313 -0.23940295
0000c0 f0 be 1c bf 81 b3 73 3e eb 2f 22 be 64 ab 07 3e
       -0.6122885 0.23798944 -0.15838592 0.13248974
0000d0 78 2a 90 be 81 4e 9e be 3d 9c 09 3f 0c 70 6a 3e
       -0.281574 -0.3091927 0.53754026 0.22894305
0000e0 ae 30 d4 be e8 a6 bb 3e 2d 10 10 3f dc b2 06 3e
       -0.4144339 0.36650777 0.5627468 0.13154167
0000f0 f4 a0 ab 3e 20 63 fc 3e 7c 16 91 be 28 89 d4 3d
       0.33521235 0.49294376 -0.28337467 0.10377723

nn.2.weight f4 [13, 64]
000000 b3 a0 49 bd f5 35 cc 3a 7f de e3 3b 22 bc 5f bb
       -0.04922552 0.0015580045 0.006954014 -0.0034139236
000010 fa 7b 34 bd 29 d7 da bc ec f0 ae bd 69 a6 b4 3a
       -0.044063546 -0.026713924 -0.08542046 0.0013782504
000020 c3 65 80 bd 11 9e 53 3c c9 73 cf 3d bc 18 b8 bc
       -0.062694095 0.012916104 0.10129506 -0.022472732
000030 0a b7 c2 bd b9 f4 68 bd cb b6 ca 3b 27 2b 9a bd
       -0.09507568 -0.05687401 0.0061863414 -0.07527762
000040 da 3a a1 bc 25 7a 04 3d b4 f5 6c bd f8 22 92 3a
       -0.019681383 0.03234305 -0.05785151 0.0011149338
000050 76 e8 40 3c 0f 3b 6a 3c bd 1e 21 bc 55 9e f0 bc
       0.011774173 0.014296307 -0.009833989 -0.029372374
000060 7c f0 ce bd 49 c2 62 3c 24 41 f7 3d a2 3f 32 be
       -0.101044625 0.0138402665 0.120729715 -0.17407086
000070 42 e9 ab bd 30 36 f8 3c cc 1c 0d 3d d0 43 8c 3d
       -0.083941 0.030299276 0.03445129 0.06848872
000080 75 14 a1 3d fe 7b 80 3c 00 91 d7 3b c2 a1 3d bb
       0.0786523 0.015684124 0.0065785646 -0.0028935526
000090 60 70 d9 3d 71 7a 82 3c 95 07 9a 3c 15 fb 15 3d
       0.10617137 0.015927525 0.018802444 0.036616404
0000a0 90 e8 c1 bc fd 7a 90 bc 50 cc e6 bd 20 f6 b6 3b
       -0.023670465 -0.01763677 -0.11269438 0.0055835396
0000b0 da b2 10 3c c4 7d eb 3c 3e 6d 5d 3c ae 25 c2 bd
       0.008831704 0.028746493 0.013514815 -0.09479843
0000c0 94 85 bb bd ee 3c 09 3d 7b 9b 67 ba 1e b1 93 3d
       -0.091563374 0.033505373 -0.0008835119 0.07211517
0000d0 de d2 24 bd 45 aa e3 3b 2c ae 5c 3b b2 c6 18 3d
       -0.04024016 0.006947788 0.003367315 0.037298866
0000e0 7f 1d 7a 3d 2d df 97 3d 98 6b 0b 3e 00 09 eb bd
       0.061063286 0.07415614 0.13615263 -0.11476326
0000f0 5e 2a ab 3d 06 8e b4 bd 18 10 8b bd 88 a3 d8 3d
       0.0835769 -0.08816151 -0.06790179 0.10578066
000100 64 e7 4e ba 1d 50 d4 3c bd 4a 0d bf a5 76 f8 bc
       -0.0007892756 0.025917107 -0.55192167 -0.030330012
000110 00 2f 59 3d b0 e9 ee bd f0 9c d1 bc a9 04 27 be
       0.05302334 -0.11665666 -0.025587529 -0.16310371
000120 6e 6e d1 3c 18 c0 e4 3d 64 ac 2d 3d b8 bc c1 be
       0.025565352 0.111694515 0.042400733 -0.37839293
000130 d2 ce cf bd ae a3 65 3c ee 44 20 3e 9f 40 8f bd
       -0.1014687 0.014016075 0.15651295 -0.06994747
000140 8b 2e 21 3e 82 f4 50 3e a0 24 23 3c 23 0c 23 bc
       0.15740411 0.20405772 0.009957463 -0.009951624
000150 bd bb be be 1b 22 2c bc 5b f1 68 bb 24 f4 7c bd
       -0.37252608 -0.010506178 -0.003554425 -0.06175627
000160 5a 21 82 bd 71 e3 ed 3e 78 0c 15 bd 0c 14 e3 3d
       -0.063540176 0.46462587 -0.036388844 0.11087808
000170 fa 13 f4 3d 60 57 32 3d c4 80 b6 3d a0 dd 77 bd
       0.11917873 0.04354036 0.08911279 -0.060514092
000180 ed b0 f3 3c 4a 49 8f bc ef ea be 3e 12 90 9d be
       0.02974745 -0.017491002 0.37288615 -0.3077398
000190 24 fe f7 3c 09 43 83 bd f7 48 ce bc 05 b4 48 3e
       0.03027255 -0.0640927 -0.025181277 0.19599922
0001a0 64 f1 03 3f 36 7b 15 bd c0 4a b2 bc 3a 20 ed bd
       0.5154021 -0.036494456 -0.02176416 -0.11578412
0001b0 e2 ab 82 3e 30 a5 d5 3d c4 9e 11 3e 98 73 81 bc
       0.2552176 0.10431898 0.1422072 -0.01580219
0001c0 e4 29 63 bc 4e 01 d6 3d 40 49 c7 3c ee cb a1 3d
       -0.013864968 0.104494676 0.02432692 0.079002246
0001d0 78 45 26 bc 85 f4 a5 3e fd 05 c9 3d 2c 0d 9c 3b
       -0.010148399 0.32413116 0.09815595 0.0047623124
0001e0 dd 73 44 bc 8f a2 1b be fa 22 4c 3c 5e d5 c7 3d
       -0.011990515 -0.1519873 0.012459511 0.097574934
0001f0 96 23 f6 3d 18 71 79 bd 53 43 be bd aa 63 cd 3d
       0.12018506 -0.06089887 -0.09290185 0.10028775
000200 6f 21 4b 3e 19 9f a6 bc bf a4 0f 3f 1a de ae 3c
       0.19836973 -0.020339536 0.5611076 0.02134614
000210 b3 23 54 bd b3 f9 cb 3d b0 35 08 3d 69 03 d8 3d
       -0.051791858 0.09959736 0.033254325 0.105475254
000220 be 93 8a 3d aa 04 52 3e b1 38 d1 3d 5e e1 81 3e
       0.06766461 0.20509592 0.10215891 0.25367254
000230 e0 e3 e7 bb b9 a3 fb 3d 25 41 ad bc 93 6c 9d be
       -0.0070767254 0.12287087 -0.021149227 -0.30746898
000240 83 97 1d be ad a4 88 be 82 b8 d4 bd 44 80 86 3b
       -0.15389828 -0.26688138 -0.103867546 0.004104646
000250 20 b3 05 3f d9 3f 47 bd 10 1f 27 3e cc 70 a7 3e
       0.5222645 -0.048644874 0.16320443 0.32703245
000260 24 65 c1 3d e0 42 0e bf bc db 8c bd c5 71 e0 bd
       0.09443119 -0.55570793 -0.068778485 -0.109592
000270 a0 a7 84 bd 02 c4 ac bd c0 7f 23 bd 58 e5 d6 3c
       -0.064772844 -0.08435823 -0.039916754 0.026232406
000280 8b bf 0c 3e e8 d1 a7 3d 59 b2 21 bf 77 e6 98 3e
       0.13744943 0.08194333 -0.6316276 0.2986333
000290 6f 2f 26 bc 57 bd c5 bd 8b 8f 92 bd 9b 0a b6 3d
       -0.010143145 -0.09655254 -0.07156285 0.088887416
0002a0 c0 d3 97 be 3e 16 64 3e 5c 24 19 3d 70 35 30 3d
       -0.2965374 0.2227411 0.03738819 0.043019712
0002b0 64 7f 6d be 02 d1 ad 3d 78 ff 8e 3d 00 2f e1 3a
       -0.23193127 0.08487131 0.069823205 0.0017180145
0002c0 c3 7f 1b 3e a1 bc 43 3e 22 e1 96 bd 34 6e 58 bd
       0.15185456 0.19114925 -0.073671594 -0.052839473
0002d0 38 a5 c0 3c 23 12 e4 be 17 dc 11 be 5a 50 46 3e
       0.023516282 -0.44545087 -0.14244114 0.19366589
0002e0 13 55 33 3e 84 a0 80 3e 26 8d 09 39 7c 65 89 bd
       0.17512922 0.25122464 0.0001311792 -0.0670881
0002f0 08 fc e0 bc 78 bf bc bc b5 3b 82 bc 2e 00 eb bd
       -0.027463928 -0.023040518 -0.015897611 -0.11474644
000300 52 a1 3a 3d c4 93 c9 bd 73 e6 fd 3e b0 b9 34 3d
       0.045564003 -0.09842637 0.4958988 0.044122398
000310 50 c6 d0 3d ea 8f d4 bd 2e 1e c1 3d f5 b4 39 3e
       0.10194075 -0.10379012 0.094295844 0.18135436
000320 2f a2 91 3c cd 03 98 3d 11 29 01 3c a5 11 01 3f
       0.01777753 0.074226 0.007883326 0.5041755
000330 82 17 b9 3d 40 e1 90 bd 86 db 9f bc 19 cd 2d 3e
       0.09037687 -0.07074213 -0.019513857 0.1697277
000340 9e c3 ac 3d bc bf 23 3e 40 0c 0c 3d 32 3b c9 bb
       0.084357485 0.1599111 0.03419137 -0.00614109
000350 58 9f b1 3e 79 ef bf bd 05 3b 90 3d f4 12 fa bd
       0.34691882 -0.09371848 0.07042507 -0.12210646
000360 a2 c6 f0 bd 49 95 e8 be 48 54 ae bd 1f 84 86 3e
       -0.11756636 -0.45426396 -0.08512169 0.26272675
000370 14 6a 9b bd 70 de 13 bc f0 44 e3 bc 88 39 b6 3c
       -0.07588592 -0.009025201 -0.027742833 0.02224423
000380 0b 6d ee 3d 0d 7e a1 3d 12 ea 63 be 0e f6 9f 3e
       0.11641892 0.078853704 -0.2225726 0.31242412
000390 5d 6f d9 3d 65 a8 97 bb d7 e0 c6 3d d1 6c 26 3b
       0.10616944 -0.0046282285 0.097108535 0.002539445
0003a0 71 23 d6 be 10 cc 55 3d 00 b6 df bc f2 a1 ad bd
       -0.41823915 0.052196562 -0.027308464 -0.08478154
0003b0 d3 d9 51 be 29 c6 4d 3c 99 a5 61 3d 1a 55 fe 3d
       -0.2049325 0.012559452 0.055089567 0.124185756
0003c0 c8 f2 93 3d 16 ba fb 3d fd 29 bb bb e4 36 dc bd
       0.07224041 0.122913525 -0.0057117925 -0.10752657
0003d0 78 17 81 bd 84 a9 db be 67 60 94 bd b5 9f 9c bd
       -0.063033044 -0.42902768 -0.0724495 -0.07647649
0003e0 c3 62 a2 bd c3 c7 d1 bb a7 04 24 bd 9c 5f fc bd
       -0.079289936 -0.0064019873 -0.0400435 -0.123229235
0003f0 d0 22 9d bd e4 3a 43 3d 76 69 98 3e 0c 4d 18 bd
       -0.076726556 0.047663584 0.2976796 -0.037182853

nn.2.bias f4 [13]
000000 87 7a 80 3f 37 28 38 3e 36 d4 e8 bd cf 8e 97 be
       1.0037392 0.17984091 -0.11368601 -0.29601142
000010 4c 85 5a 3e 20 96 af 3d 0a 64 c7 bd a6 ae e9 3d
       0.21339911 0.08573556 -0.09735878 0.11410265
000020 70 bd 1e 3c 10 41 76 3d 42 d4 c6 3d 0a 3e da 3d
       0.00968872 0.060120642 0.09708454 0.10656364
000030 98 8f c7 bd
       -0.09744185

exp_avg f4 [64, 4]
000000 2f b0 e6 be 87 86 38 c0 ec 6a 5e bf 3c a4 02 c0
       -0.45056292 -2.883211 -0.868819 -2.041274
000010 2c f5 46 3e 7b 3d 6c 3f ff cd 0a 3d 64 e3 e0 3e
       0.19429463 0.9228131 0.03388786 0.43923485
000020 a6 d7 85 3f 1c cb 48 41 62 3f b0 40 61 99 83 41
       1.0456436 12.549587 5.507737 16.449892
000030 66 58 6e be c9 1a b8 bf 39 2f 28 bf d2 84 7b bf
       -0.23275909 -1.4383174 -0.65697056 -0.9824954
000040 04 00 00 00 04 00 00 00 04 00 00 00 04 00 00 00
       6e-45 6e-45 6e-45 6e-45
000050 fd 5f 66 be 18 49 b7 bf 29 6a db be 22 16 86 bf
       -0.22497554 -1.4319181 -0.4285443 -1.0475504
000060 00 00 00 00 00 00 00 00 00 00 00 00 00 00 00 00
       0.0 0.0 0.0 0.0
000070 f3 4a 35 3b 07 f1 5c 3d 19 30 16 3d 94 09 90 3c
       0.0027663081 0.0539408 0.036666963 0.017582692
000080 16 67 f8 bc 35 6d 40 be 10 4c 9c bd 75 34 ff bd
       -0.030322593 -0.18791659 -0.07631695 -0.12461177
000090 a0 db 9a be a6 c4 ec bf ce 64 0a bf d9 05 ae bf
       -0.30245686 -1.8497512 -0.54060066 -1.3595535
0000a0 55 77 11 be e4 3c 5b bf 05 51 7e be 9c 17 26 bf
       -0.14205678 -0.85639787 -0.24835594 -0.64879775
0000b0 5e 54 ba 3e f7 cf a4 40 c6 3e 0b 40 49 a1 f8 40
       0.36392492 5.1503863 2.1757064 7.769688
0000c0 00 00 00 00 00 00 00 00 00 00 00 00 00 00 00 00
       0.0 0.0 0.0 0.0
0000d0 47 f7 0f bd f5 78 8b bc b8 2b 2b 3d ae d5 ec bd
       -0.03514793 -0.01702545 0.04178974 -0.11564194
0000e0 2e dd bc 3e f5 08 13 40 82 79 46 3f 8b b9 bb 3f
       0.36887497 2.2974217 0.77529156 1.4665998
0000f0 9c 4a 51 3f 95 dd ab 40 04 35 db 3f 55 b2 7f 40
       0.8175447 5.3707986 1.7125554 3.9952595
000100 01 b9 8b 3e 40 cc d6 3f cd c3 05 3f d8 4b 90 3f
       0.27289584 1.6781082 0.52251893 1.1273146
000110 d1 7a 85 3f 63 29 e5 40 4b 51 14 40 09 af 9f 40
       1.0428106 7.161302 2.3174617 4.9901166
000120 00 00 00 00 00 00 00 00 00 00 00 00 00 00 00 00
       0.0 0.0 0.0 0.0
000130 24 91 78 bd 2f 43 f3 be 57 8a 0f be 2a 0e b7 be
       -0.060685292 -0.47512195 -0.14017616 -0.35752994
000140 d2 87 13 3f 01 a7 0f 41 00 54 94 40 1a 13 32 41
       0.5762912 8.978272 4.635254 11.129663
000150 f5 ae 10 b9 e7 99 a2 ba a0 aa 54 bb 2b 92 1e b9
       -0.00013798087 -0.0012405486 -0.0032450333 -0.00015122506
000160 8c a6 86 be d3 f3 d1 bf bc 19 f2 be a7 f2 90 bf
       -0.2629894 -1.6402534 -0.4728526 -1.1324052
000170 3c 8b 90 bf 91 ff eb c0 82 c8 13 c0 d0 88 ac c0
       -1.1292491 -7.374947 -2.309113 -5.3917007
000180 00 00 00 00 00 00 00 00 00 00 00 00 00 00 00 00
       0.0 0.0 0.0 0.0
000190 34 fa 7d 40 8a 78 06 42 62 1b 52 41 25 d5 f5 41
       3.9683962 33.617714 13.131685 30.729074
0001a0 00 00 00 00 00 00 00 00 00 00 00 00 00 00 00 00
       0.0 0.0 0.0 0.0
0001b0 90 5b 0a 3f 3b aa 65 40 2a 9d 95 3f 49 90 2c 40
       0.54045963 3.588515 1.1688588 2.6963065
0001c0 00 00 00 00 00 00 00 00 00 00 00 00 00 00 00 00
       0.0 0.0 0.0 0.0
0001d0 00 00 00 00 00 00 00 00 00 00 00 00 00 00 00 00
       0.0 0.0 0.0 0.0
0001e0 00 00 00 00 00 00 00 00 00 00 00 00 00 00 00 00
       0.0 0.0 0.0 0.0
0001f0 00 00 00 00 00 00 00 00 00 00 00 00 00 00 00 00
       0.0 0.0 0.0 0.0
000200 61 17 70 bd 78 42 94 be a6 c7 30 bd b1 4c 1a be
       -0.058616046 -0.28956962 -0.04315915 -0.15068318
000210 bd 5c 09 bf 0a b9 69 c0 fc f0 b0 bf 5b 91 39 c0
       -0.5365713 -3.651919 -1.3823543 -2.8994968
000220 2a 8c ce 3a 7e 45 6d 3c 17 de 2b 3d 7a 0a eb 3a
       0.0015758325 0.0144819 0.04195985 0.0017932199
000230 74 90 62 3f 66 1f e7 40 5f 7c 40 40 a5 ed 1e 41
       0.8850167 7.222583 3.007591 9.933019
000240 63 21 c9 bd 2e b6 43 bf 57 63 83 be 6e 82 e8 be
       -0.09820821 -0.7644986 -0.25661728 -0.4541201
000250 04 00 00 00 04 00 00 00 04 00 00 00 04 00 00 00
       6e-45 6e-45 6e-45 6e-45
000260 aa ce 1a bd 1a 7c 06 bf e6 c0 cf be 2a 65 9a be
       -0.037794746 -0.52533114 -0.40576857 -0.30155307
000270 66 28 37 be dc 55 90 bf 5d b0 b2 be a4 e2 79 bf
       -0.17886505 -1.1276202 -0.3490018 -0.9761145
000280 a8 e7 3a 40 a6 c2 c0 41 8d 74 15 41 ac ac ac 41
       2.9203892 24.095043 9.340955 21.584312
000290 17 ed 15 bf 32 f0 76 c0 4e 6a 94 bf 69 56 2b c0
       -0.58564895 -3.8584104 -1.1594942 -2.677149
0002a0 00 00 00 00 00 00 00 00 00 00 00 00 00 00 00 00
       0.0 0.0 0.0 0.0
0002b0 00 00 00 00 00 00 00 00 00 00 00 00 00 00 00 00
       0.0 0.0 0.0 0.0
0002c0 22 f9 1e 3e 6a eb 0d 3f 3a 84 09 3f 0e 06 c1 3e
       0.15524724 0.5543734 0.53717387 0.37699932
0002d0 98 25 08 be e9 7d 52 bf 6f 66 79 be 70 97 30 bf
       -0.13295591 -0.82223374 -0.24355482 -0.68981075
0002e0 4d 30 72 be 29 27 cd bf 5f b1 01 bf 5b d2 9c bf
       -0.23651238 -1.6027576 -0.5066127 -1.2251695
0002f0 00 00 00 00 00 00 00 00 00 00 00 00 00 00 00 00
       0.0 0.0 0.0 0.0
000300 94 33 e0 be 42 d0 37 c0 bf 0c 61 bf 8d 64 fe bf
       -0.4378935 -2.872086 -0.87910074 -1.9874436
000310 da 96 c1 be a8 8a 1b c0 9c 39 3c bf 7e 72 db bf
       -0.37810403 -2.430338 -0.73525405 -1.7144315
000320 88 c0 46 3e cb ab dd 3f 11 31 15 3f a4 c2 79 3f
       0.19409382 1.7318052 0.58277994 0.97562623
000330 00 00 00 00 00 00 00 00 00 00 00 00 00 00 00 00
       0.0 0.0 0.0 0.0
000340 d7 6c e7 bd 3b 45 35 bf 1e 62 61 be 52 a8 0d bf
       -0.113000564 -0.7080876 -0.22010085 -0.5533496
000350 75 f5 5d bf 2a 82 37 c1 6b b6 b0 c0 c3 1f 6c c1
       -0.8670266 -11.469278 -5.522268 -14.757754
000360 1a 8f 07 3f 2b 9f 66 40 6a a2 be 3f 57 d2 2c 40
       0.5295273 3.6034648 1.4893315 2.7003381
000370 b7 3d e4 be db fe 32 c0 6d 67 59 bf 26 3a 07 c0
       -0.44578335 -2.7968051 -0.8492344 -2.112924
000380 4b a8 d4 bd 27 d6 de be 36 e5 9c bd 71 08 d7 be
       -0.10383662 -0.4352276 -0.07660906 -0.41998628
000390 bf 0b 07 3e a3 c9 1f 3f 33 c9 c9 3d 30 31 18 3f
       0.13188075 0.6241705 0.09852829 0.59450054
0003a0 bc 66 b5 bb 1f 30 c4 bc 7a f4 44 bc e2 df 80 bd
       -0.0055359285 -0.023948727 -0.012021178 -0.06292702
0003b0 00 00 00 00 00 00 00 00 00 00 00 00 00 00 00 00
       0.0 0.0 0.0 0.0
0003c0 00 00 00 00 00 00 00 00 00 00 00 00 00 00 00 00
       0.0 0.0 0.0 0.0
0003d0 00 00 00 00 00 00 00 00 00 00 00 00 00 00 00 00
       0.0 0.0 0.0 0.0
0003e0 47 45 80 be 45 f6 0a c0 74 a7 d6 bf 1a 75 9d bf
       -0.25052854 -2.171281 -1.6769853 -1.2301362
0003f0 00 00 00 00 00 00 00 00 00 00 00 00 00 00 00 00
       0.0 0.0 0.0 0.0

exp_avg_sq f4 [64, 4]
000000 d6 b4 cd 40 85 fe de 43 16 e9 af 42 b6 ef d5 43
       6.4283247 445.98843 87.955246 427.87274
000010 e5 89 0b 40 0c c4 32 43 76 52 db 41 c1 d4 44 43
       2.1802914 178.76581 27.415264 196.83107
000020 1e 36 2e 43 db d2 f4 45 e8 41 10 45 29 e7 15 46
       174.2114 7834.357 2308.1191 9593.79
000030 4e 50 a7 3e 11 d0 3f 41 8d ae 76 40 8b 34 f1 40
       0.32678455 11.988297 3.8544037 7.537664
000040 14 12 b0 38 55 e5 70 3b 26 79 68 39 4e 1f 6e 3b
       8.395701e-05 0.0036757786 0.00022170375 0.0036334577
000050 bc 5d c0 3f 44 2c ce 42 ac 36 9a 41 12 e3 c7 42
       1.5028605 103.08646 19.276695 99.9435
000060 00 00 00 00 00 00 00 00 00 00 00 00 00 00 00 00
       0.0 0.0 0.0 0.0
000070 cd 2e 2b 3b b5 4b a3 3e e6 19 1d 3f f3 a9 8f 3d
       0.0026120425 0.31893697 0.6136764 0.07014837
000080 37 74 a9 3d 2d 9a aa 40 c5 b6 5b 3f 38 1a a2 40
       0.08274119 5.3313203 0.8582576 5.0657005
000090 9c f6 49 40 d6 ea 59 43 81 dd 25 42 cb 4f 4e 43
       3.1556768 217.91733 41.466312 206.31169
0000a0 d9 11 2c 3f eb 9a 38 42 c0 8a 08 41 34 95 2c 42
       0.67214733 46.151287 8.5338745 43.145706
0000b0 b5 c4 9a 42 df a9 77 45 38 b9 8d 44 26 c4 97 45
       77.38419 3962.617 1133.7881 4856.5186
0000c0 00 00 00 00 00 00 00 00 00 00 00 00 00 00 00 00
       0.0 0.0 0.0 0.0
0000d0 c3 f2 04 3f a0 ae 0b 42 2d 7a b5 40 06 5d fa 41
       0.51932925 34.920532 5.671164 31.295422
0000e0 8f 6b a7 40 09 4a b5 43 30 09 94 42 f3 53 ad 43
       5.2318797 362.5784 74.017944 346.65585
0000f0 57 0f a8 41 e1 de b5 44 ae 61 88 43 1a 42 ab 44
       21.00749 1454.965 272.76312 1370.0657
000100 43 51 2e 40 14 59 3d 43 09 f4 16 42 38 4a 34 43
       2.7237098 189.34796 37.738316 180.28992
000110 8d 6a 0e 42 0b a0 1b 45 15 08 f6 43 9e 25 15 45
       35.604053 2490.0027 492.06314 2386.351
000120 00 00 00 00 00 00 00 00 00 00 00 00 00 00 00 00
       0.0 0.0 0.0 0.0
000130 66 83 cd 3d c9 4f 23 41 b2 7e f5 3f 85 a1 25 41
       0.10034828 10.206979 1.9179289 10.3519335
000140 61 07 d9 42 7a 7b c1 45 ad 56 de 44 27 e9 e5 45
       108.51441 6191.4346 1778.7086 7357.144
000150 f1 e4 07 35 f0 80 48 38 84 43 8a 39 67 0e 34 35
       5.062457e-07 4.78038e-05 0.00026371714 6.7076184e-07
000160 9e 06 46 40 3f 98 56 43 91 0a 2b 42 a9 4d 4e 43
       3.094154 214.59471 42.76032 206.30336
000170 a7 c8 0c 42 c5 8f 18 45 47 d6 ec 43 00 de 11 45
       35.19595 2440.9856 473.67404 2333.875
000180 00 00 00 00 00 00 00 00 00 00 00 00 00 00 00 00
       0.0 0.0 0.0 0.0
000190 9f b6 65 43 ad 1f 58 46 39 d0 32 45 8d 04 34 46
       229.71336 13831.919 2861.014 11521.138
0001a0 00 00 00 00 00 00 00 00 00 00 00 00 00 00 00 00
       0.0 0.0 0.0 0.0
0001b0 2c 4a f7 40 e3 43 05 44 50 fd c7 42 31 27 fb 43
       7.727804 533.0607 99.99475 502.30618
0001c0 00 00 00 00 00 00 00 00 00 00 00 00 00 00 00 00
       0.0 0.0 0.0 0.0
0001d0 00 00 00 00 00 00 00 00 00 00 00 00 00 00 00 00
       0.0 0.0 0.0 0.0
0001e0 00 00 00 00 00 00 00 00 00 00 00 00 00 00 00 00
       0.0 0.0 0.0 0.0
0001f0 00 00 00 00 00 00 00 00 00 00 00 00 00 00 00 00
       0.0 0.0 0.0 0.0
000200 d6 8c e6 3e b2 36 f6 41 69 4f c7 40 60 58 ec 41
       0.45029324 30.776707 6.2284436 29.543152
000210 70 55 63 40 5c ed 91 43 61 23 68 42 98 39 89 43
       3.5520897 291.85437 58.03455 274.44995
000220 c1 10 2f 39 d5 c1 39 3c a8 2d 89 3d 7b f7 18 3b
       0.00016695542 0.011337717 0.06698161 0.002334087
000230 cc 61 a3 42 ca e5 81 45 12 20 94 44 f7 cc 87 45
       81.69101 4156.7236 1185.0022 4345.6206
000240 92 73 49 3f e0 1e 5a 42 f3 30 2b 41 2d f9 51 42
       0.7869197 54.53015 10.6994505 52.493336
000250 5f 8d 82 2d b8 1b c1 2f f9 aa fe 31 67 a8 03 2e
       1.484207e-11 3.512619e-10 7.4118103e-09 2.9935523e-11
000260 a0 f2 e4 3b bb ac a4 3f 94 6e 61 3f 65 65 f6 3e
       0.006986931 1.2865213 0.88059354 0.48124233
000270 e1 2f ac 3f d7 aa b5 42 85 70 70 41 a9 19 a4 42
       1.3452111 90.83367 15.027471 82.05012
000280 b1 7f 0c 43 81 bc f8 45 1b 28 d3 44 23 98 c9 45
       140.4988 7959.563 1689.2533 6451.017
000290 2e 46 32 41 da 28 41 44 e6 e5 17 43 8e 66 3a 44
       11.142134 772.6383 151.89804 745.6024
0002a0 00 00 00 00 00 00 00 00 00 00 00 00 00 00 00 00
       0.0 0.0 0.0 0.0
0002b0 00 00 00 00 00 00 00 00 00 00 00 00 00 00 00 00
       0.0 0.0 0.0 0.0
0002c0 4b ac 7e 3f 9d 31 32 42 c5 d6 e7 41 ea 9c 80 41
       0.9948165 44.54845 28.979868 16.076618
0002d0 6e 4c 30 3f da 9a 3b 42 f8 34 03 41 e6 a3 2b 42
       0.6886662 46.901222 8.200432 42.910057
0002e0 32 49 cf 3f 62 5e e0 42 6c 01 a9 41 f4 d2 d4 42
       1.6194212 112.18434 21.125694 106.41202
0002f0 00 00 00 00 00 00 00 00 00 00 00 00 00 00 00 00
       0.0 0.0 0.0 0.0
000300 01 58 d0 40 de 42 e2 43 d7 6b b4 42 a9 23 da 43
       6.5107427 452.5224 90.210625 436.2786
000310 a8 e1 9d 40 c1 33 ab 43 a9 73 86 42 46 2c a4 43
       4.933796 342.40433 67.2259 328.3459
000320 b6 5e 5f 40 cc ad 83 43 16 76 5c 42 d3 db 7c 43
       3.4901557 263.3578 55.11532 252.85869
000330 00 00 00 00 00 00 00 00 00 00 00 00 00 00 00 00
       0.0 0.0 0.0 0.0
000340 b9 88 c4 3e 67 b1 d3 41 73 a8 9a 40 3f b5 c5 41
       0.3838556 26.461622 4.8330626 24.7135
000350 08 d1 56 42 f9 b0 cf 45 13 bb ab 44 ae 61 05 46
       53.704132 6646.1216 1373.8461 8536.42
000360 34 2e 76 41 03 a2 35 44 52 50 3d 43 9a 79 0e 44
       15.38628 726.53143 189.31375 569.9
000370 83 ab b7 40 e1 34 c6 43 f6 db 95 42 72 4b bb 43
       5.7396865 396.41312 74.92961 374.58942
000380 09 bf 53 3f ec ae 5e 42 04 a5 13 41 e4 a0 47 42
       0.8271337 55.670822 9.227787 49.90712
000390 b4 8e b5 3e 9f d2 c5 41 7e 62 84 40 d3 3d c7 41
       0.35460436 24.727842 4.137023 24.905188
0003a0 87 f2 d4 3d 12 6c e0 40 8b f2 a5 3f ef 2e d1 40
       0.10397821 7.013192 1.2964643 6.536979
0003b0 00 00 00 00 00 00 00 00 00 00 00 00 00 00 00 00
       0.0 0.0 0.0 0.0
0003c0 00 00 00 00 00 00 00 00 00 00 00 00 00 00 00 00
       0.0 0.0 0.0 0.0
0003d0 00 00 00 00 00 00 00 00 00 00 00 00 00 00 00 00
       0.0 0.0 0.0 0.0
0003e0 fe 9c c3 3f 36 58 c0 42 51 c7 53 42 fb a3 fc 41
       1.5282285 96.17229 52.944645 31.580069
0003f0 00 00 00 00 00 00 00 00 00 00 00 00 00 00 00 00
       0.0 0.0 0.0 0.0

exp_avg f4 [64]
000000 49 5c 50 bc 80 30 d7 39 97 31 b0 3d 0f ad 17 bc
       -0.012717315 0.0004104413 0.086032085 -0.009257569
000010 04 00 00 00 f3 aa e3 bb 00 00 00 00 33 e6 25 b9
       6e-45 -0.006947869 0.0 -0.00015821382
000020 6d 40 50 ba 63 b3 02 bc 94 77 7d bb 12 e1 e7 3c
       -0.00079441705 -0.007977339 -0.003867601 0.028305564
000030 00 00 00 00 9d b2 f2 b8 fa b8 1b 3c a0 9e e0 3c
       0.0 -0.000115727285 0.009504551 0.027419388
000040 69 0d e2 3b 7e 93 0c 3d 00 00 00 00 1c fa f0 ba
       0.0068985713 0.034320347 0.0 -0.0018385085
000050 81 eb 56 3d 8c 51 26 b8 04 9f cf bb 96 d2 14 bd
       0.052470688 -3.965343e-05 -0.006336095 -0.036333643
000060 00 00 00 00 da 42 29 3e 00 00 00 00 6a 45 a0 3c
       0.0 0.16529408 0.0 0.01956435
000070 00 00 00 00 00 00 00 00 00 00 00 00 00 00 00 00
       0.0 0.0 0.0 0.0
000080 cc db 25 3a 74 55 96 bc a0 75 02 3a c9 04 58 3d
       0.0006327003 -0.018351294 0.0004976634 0.05273894
000090 12 1c 41 bb 04 00 00 00 10 09 8e bb 99 21 de bb
       -0.0029466194 6e-45 -0.0043345764 -0.0067789075
0000a0 8a b0 f4 3d fd b2 88 bc 00 00 00 00 00 00 00 00
       0.11947735 -0.01668691 0.0 0.0
0000b0 f0 6b ed 3b 76 b5 8f bb 4b a8 07 bc 00 00 00 00
       0.007245533 -0.0043856455 -0.00827987 0.0
0000c0 c5 d7 4d bc da 76 2a bc 5c 24 e7 3b 00 00 00 00
       -0.0125636505 -0.010404313 0.007053895 0.0
0000d0 29 ad 84 bb a7 cd 87 bd 0c 03 af 3c 59 e8 61 bc
       -0.0040489626 -0.06631022 0.021363758 -0.013788306
0000e0 d9 06 ec ba 9c bb 8c 3b 14 ef 33 ba 00 00 00 00
       -0.0018007412 0.0042948257 -0.00068639335 0.0
0000f0 00 00 00 00 00 00 00 00 ea 15 90 bc 00 00 00 00
       0.0 0.0 -0.017588574 0.0

exp_avg_sq f4 [64]
000000 07 66 92 3c 50 11 de 3b 0a ab cc 3e bd d9 14 3a
       0.017870916 0.006776966 0.39974242 0.00056781975
000010 e8 0f 0a 34 d8 c5 83 3b 00 00 00 00 00 64 b0 38
       1.2858038e-07 0.0040213875 0.0 8.4109604e-05
000020 82 6a 59 39 5e 7e 0f 3c cd 2f f3 3a f5 87 4b 3e
       0.0002073441 0.008758156 0.0018553674 0.19876082
000030 00 00 00 00 2b 12 b8 3a e6 3e 6b 3c 0f c6 6f 3d
       0.0 0.00140435 0.014358258 0.058538493
000040 4d 18 f7 3b 6c 53 cc 3d 00 00 00 00 22 1d d2 39
       0.0075407387 0.09976849 0.0 0.00040076027
000050 d5 05 9d 3e 7c a9 2d 33 41 9e 0c 3c 9e 38 c8 3d
       0.30668512 4.0433846e-08 0.008582653 0.09776424
000060 00 00 00 00 65 71 01 3f 00 00 00 00 67 b4 af 3c
       0.0 0.5056365 0.0 0.021448327
000070 00 00 00 00 00 00 00 00 00 00 00 00 00 00 00 00
       0.0 0.0 0.0 0.0
000080 d9 78 a0 3a 9d 39 3a 3c c9 d7 13 37 cb 12 42 3e
       0.0012243047 0.011366275 8.812124e-06 0.18952481
000090 ef 15 0f 3b 61 df 84 2b b9 8f f1 38 bd 88 70 3b
       0.0021833142 9.441164e-13 0.00011518546 0.0036702596
0000a0 d3 a7 94 3e 3f b2 fb 3c 00 00 00 00 00 00 00 00
       0.2903429 0.030724643 0.0 0.0
0000b0 82 2a 81 3b 4a 6c f7 3a 59 6d 94 3b 00 00 00 00
       0.003941835 0.0018876877 0.004529637 0.0
0000c0 c1 6f 94 3c 0a 17 61 3c e1 f5 2c 3c 00 00 00 00
       0.018119695 0.013738403 0.010556669 0.0
0000d0 e6 f5 8b 3a 50 50 9d 3e 85 f3 e5 3c 05 59 82 3c
       0.0010678142 0.30725336 0.02807022 0.015911588
0000e0 49 ac 12 3b 44 6a 82 3a 0f 27 92 39 00 00 00 00
       0.0022380522 0.0009949883 0.0002787639 0.0
0000f0 00 00 00 00 00 00 00 00 15 c2 ed 3b 00 00 00 00
       0.0 0.0 0.0072558024 0.0

exp_avg f4 [13, 64]
000000 c9 5f 5f be 90 e9 ac bb 2b f0 7b b9 02 ef 84 bb
       -0.21813883 -0.0052768663 -0.00024026695 -0.0040568123
000010 04 00 00 00 c6 fd 0f bd 00 00 00 00 0b 3d 8d 3a
       6e-45 -0.035154127 0.0 0.0010775639
000020 4e bd 2d bc 3a 93 c8 bd 46 b1 8c bd 1f 40 80 ba
       -0.010604216 -0.09793706 -0.0686975 -0.0009784735
000030 00 00 00 00 cf ce 05 be 73 7f 8e bd ea 1d 8e bc
       0.0 -0.13067172 -0.06957903 -0.017348249
000040 f4 96 8b bd f5 92 68 bd 00 00 00 00 73 24 3a bc
       -0.068159014 -0.056780774 0.0 -0.011361229
000050 4f e3 6a ba 66 e5 3e 38 e5 fe 29 bd b8 85 9e bd
       -0.0008960263 4.5513174e-05 -0.041502852 -0.077403486
000060 00 00 00 00 1c 7d e8 bc 00 00 00 00 7b 38 2d bd
       0.0 -0.02837997 0.0 -0.042290192
000070 00 00 00 00 00 00 00 00 00 00 00 00 00 00 00 00
       0.0 0.0 0.0 0.0
000080 c8 c1 59 bd 2b ce e2 bc 82 1a bf b8 8b 03 a5 bb
       -0.05316332 -0.0276862 -9.112527e-05 -0.0050358227
000090 1e ae 45 bd 04 00 00 80 c4 46 c5 ba 59 9b 79 bd
       -0.048261754 -6e-45 -0.0015050997 -0.060939167
0000a0 dd cf 0f bd cb f1 ae bd 00 00 00 00 00 00 00 00
       -0.035110343 -0.08542212 0.0 0.0
0000b0 93 0a e9 ba 67 5f 2d bd 3c 94 90 bd 00 00 00 00
       -0.0017779641 -0.04232731 -0.070595235 0.0
0000c0 37 0c e0 bd 61 a7 74 bd 57 28 8d bc 00 00 00 00
       -0.1093983 -0.059729937 -0.01723115 0.0
0000d0 98 e7 13 bd f0 89 25 bc 20 7a 8b bc a5 ec 96 bd
       -0.036109537 -0.010103688 -0.017026007 -0.07369355
0000e0 02 15 19 be 6a ea ed bc 69 21 1f bd 00 00 00 00
       -0.1494942 -0.029042441 -0.03885022 0.0
0000f0 00 00 00 00 00 00 00 00 65 69 71 bb 00 00 00 00
       0.0 0.0 -0.0036836502 0.0
000100 d1 e2 04 41 27 8e 16 3d ff ef d2 be 8b 05 e8 3d
       8.305375 0.03675666 -0.41198727 0.11329182
000110 04 00 00 00 8a f3 8c 3f 00 00 00 00 7b cb a0 3c
       6e-45 1.1011822 0.0 0.019628277
000120 87 95 fe 3e 29 db 82 40 c0 81 04 40 97 af b6 be
       0.49723455 4.089253 2.0704193 -0.3568084
000130 00 00 00 00 02 b9 94 40 81 14 22 40 e1 9e 9d be
       0.0 4.647584 2.5325015 -0.30785277
000140 4d c8 e2 3f f1 67 fd 3e 00 00 00 00 d7 c8 74 bd
       1.7717377 0.49493363 0.0 -0.05976185
000150 34 c3 bc be f2 17 cf 3a f8 25 c4 3f 97 f6 80 40
       -0.36867678 0.0015799983 1.5324087 4.0301013
000160 00 00 00 00 ab 8e 99 3f 00 00 00 00 02 21 77 3e
       0.0 1.1996664 0.0 0.24133685
000170 00 00 00 00 00 00 00 00 00 00 00 00 00 00 00 00
       0.0 0.0 0.0 0.0
000180 41 07 d0 3f e0 2f ac 3f c8 1c 14 3b e7 a0 cf be
       1.6252214 1.345211 0.0022600163 -0.40552446
000190 73 c5 94 3f 04 00 00 00 6c aa 04 3d 5d a7 2d 40
       1.1622757 6e-45 0.03238909 2.71334
0001a0 7a 4b a5 3f be bc 3e 40 00 00 00 00 00 00 00 00
       1.2913659 2.98027 0.0 0.0
0001b0 ba 02 08 3e 5a 81 04 40 c6 b9 4a 40 00 00 00 00
       0.1328229 2.070395 3.1675887 0.0
0001c0 01 5a 99 40 fd f9 fc 3f eb a4 c6 be 00 00 00 00
       4.792237 1.976379 -0.38797697 0.0
0001d0 f5 81 79 3f 0c 89 7a bf 13 52 f0 3e 86 45 4b 40
       0.97463924 -0.97865367 0.46937618 3.1761184
0001e0 aa a8 9f 40 2c ab 85 3e ff 8d cc 3f 00 00 00 00
       4.989339 0.26107156 1.5980834 0.0
0001f0 00 00 00 00 00 00 00 00 c0 c9 93 3d 00 00 00 00
       0.0 0.0 0.07216215 0.0
000200 bb 18 2a c1 77 ed 34 be 74 b9 d4 3e 16 da e0 bd
       -10.631038 -0.1766871 0.4154774 -0.109790966
000210 04 00 00 80 de 66 d3 bf 00 00 00 00 cd bd 50 bc
       -6e-45 -1.6515768 0.0 -0.0127405645
000220 47 e9 4c bf 27 ec 99 c0 f9 a5 3b c0 f7 c5 b3 3e
       -0.8004345 -4.810077 -2.9320052 0.35111973
000230 00 00 00 00 c6 91 b5 c0 b7 73 2a c0 64 4d 7e 3e
       0.0 -5.6740446 -2.6633127 0.2483421
000240 9e 97 f4 bf 55 22 1f bf 00 00 00 00 90 37 ba bb
       -1.910877 -0.6216176 0.0 -0.005682893
000250 6f ae ba 3e 73 d9 42 bb 29 db db bf 9b 0b 9c c0
       0.36461207 -0.002973166 -1.7176257 -4.8764167
000260 00 00 00 00 b3 dd a2 bf 00 00 00 00 32 39 bc be
       0.0 -1.2723907 0.0 -0.36762387
000270 00 00 00 00 00 00 00 00 00 00 00 00 00 00 00 00
       0.0 0.0 0.0 0.0
000280 b7 da 08 c0 8f ea ac bf 57 6f 6b bb 66 71 de 3e
       -2.1383493 -1.3509082 -0.0035924518 0.4344589
000290 90 a2 c8 bf 04 00 00 80 36 80 09 3c 58 b4 46 c0
       -1.567461 -6e-45 0.008392384 -3.1047573
0002a0 67 2d ae bf 02 a5 85 c0 00 00 00 00 00 00 00 00
       -1.3607606 -4.1763926 0.0 0.0
0002b0 5d 61 95 bd f3 10 15 c0 8a a1 68 c0 00 00 00 00
       -0.07293961 -2.3291595 -3.6348596 0.0
0002c0 3a b6 b9 c0 74 a4 23 c0 11 29 c6 3e 00 00 00 00
       -5.8034945 -2.5569124 0.38703206 0.0
0002d0 0b 75 94 bf 0f 1b 72 3f cc 87 ec be d3 eb 71 c0
       -1.1598219 0.9457254 -0.46197355 -3.7800186
0002e0 5c e8 c0 c0 19 6c 52 bf 92 a9 e4 bf 00 00 00 00
       -6.028364 -0.82196194 -1.7864249 0.0
0002f0 00 00 00 00 00 00 00 00 ad eb a0 bc 00 00 00 00
       0.0 0.0 -0.019643629 0.0
000300 49 22 f2 c0 58 61 06 bb a0 e6 d5 3e 48 63 03 be
       -7.566685 -0.0020504799 0.41777515 -0.12830842
000310 04 00 00 00 b5 ad 6d bf 00 00 00 00 ca 59 ee bc
       6e-45 -0.9284318 0.0 -0.02909555
000320 8d 61 cb be 95 af 77 c0 91 5d e5 bf 7d 40 b7 3e
       -0.39722863 -3.8700917 -1.7919179 0.35791388
000330 00 00 00 00 62 5a 8a c0 47 85 1a c0 8d 4a a8 3e
       0.0 -4.323533 -2.4143846 0.32869378
000340 1b cf d8 bf 3c 00 e2 be 00 00 00 00 01 dc 68 3d
       -1.6938204 -0.44140804 0.0 0.056850437
000350 a5 f5 b9 3e 38 8d 69 b9 2d 55 bd bf 20 ca 71 c0
       0.36320224 -0.0002227322 -1.4791619 -3.7779617
000360 00 00 00 00 19 dd 96 bf 00 00 00 00 7f 80 4e be
       0.0 -1.1786224 0.0 -0.20166205
000370 00 00 00 00 00 00 00 00 00 00 00 00 00 00 00 00
       0.0 0.0 0.0 0.0
000380 35 f3 bb bf 47 9a a7 bf 9f ab 4b ba a0 74 d1 3e
       -1.4683596 -1.3093957 -0.0007769409 0.4090929
000390 b8 76 84 bf 04 00 00 80 75 2b 60 bd 8b 4d 26 c0
       -1.034873 -6e-45 -0.054728944 -2.5984828
0003a0 d1 8b a2 bf 7d 17 25 c0 00 00 00 00 00 00 00 00
       -1.2698919 -2.5795586 0.0 0.0
0003b0 36 e0 18 be cd f0 fe bf d7 24 42 c0 00 00 00 00
       -0.1492928 -1.9917237 -3.0334985 0.0
0003c0 05 78 8f c0 3e 68 e5 bf 00 50 d5 3e 00 00 00 00
       -4.483401 -1.7922437 0.41662598 0.0
0003d0 e8 b6 6a bf 19 b6 74 3f 33 cc f3 be 7a 2e 3f c0
       -0.9168534 0.9559036 -0.4761673 -2.9872117
0003e0 0a 4b 95 c0 a5 4c 8d bd 63 24 c5 bf 00 00 00 00
       -4.66541 -0.068993844 -1.5401729 0.0
0003f0 00 00 00 00 00 00 00 00 fb a2 b4 bd 00 00 00 00
       0.0 0.0 -0.088201486 0.0

exp_avg_sq f4 [13, 64]
000000 f4 0b d3 40 f0 dc a0 3c 87 04 31 3b 87 af 61 3a
       6.595209 0.019636601 0.0027010755 0.00086092245
000010 b0 ed 61 39 ae 3f 81 3e 00 00 00 00 6d ec ec 38
       0.00021546218 0.25243896 0.0 0.00011297395
000020 7a 30 61 3d fe ae 82 3f f2 ba 6c 3f 8a c1 ba 3a
       0.05497787 1.0209653 0.92472756 0.0014248353
000030 00 00 00 00 41 c0 0b 40 84 95 b5 3e e9 32 39 3d
       0.0 2.1836092 0.35465634 0.045214567
000040 7b 34 c4 3e d5 9e a5 3e 00 00 00 00 fd 5a 17 3d
       0.3832129 0.32347742 0.0 0.036952008
000050 91 61 d9 3a 72 55 a6 36 46 63 25 3e eb cd 39 3f
       0.0016584863 4.9571327e-06 0.16151151 0.7257983
000060 00 00 00 00 81 03 0a 3d 00 00 00 00 21 47 4c 3e
       0.0 0.033694748 0.0 0.19949009
000070 00 00 00 00 00 00 00 00 00 00 00 00 00 00 00 00
       0.0 0.0 0.0 0.0
000080 40 57 f4 3e ea 6a 3f 3d 25 d3 57 37 4f 5a e7 3b
       0.47722816 0.04673282 1.28641595e-05 0.007060326
000090 30 12 d0 3e c5 a4 b5 2f e1 a5 25 3a c3 5d bc 3e
       0.40638876 3.3040784e-10 0.00063189684 0.36790285
0000a0 62 50 2f 3d dc e6 9e 3f 00 00 00 00 00 00 00 00
       0.04280127 1.2414203 0.0 0.0
0000b0 89 8d ba 3a f1 1c 38 3e aa 2c fd 3e 00 00 00 00
       0.0014232855 0.1797979 0.49448138 0.0
0000c0 5b 43 b8 3f 5f 5c ff 3e 0f 64 14 3d 00 00 00 00
       1.4395555 0.4987516 0.036228236 0.0
0000d0 e8 72 65 3e c8 b0 b2 3b 34 ec 34 3c f0 84 18 3f
       0.22407115 0.005453203 0.011042643 0.59577847
0000e0 0c 52 26 40 3d 1f 8f 3e 00 d1 a0 3e 00 00 00 00
       2.5987577 0.2795352 0.31409454 0.0
0000f0 00 00 00 00 00 00 00 00 6a d8 5d 3a 00 00 00 00
       0.0 0.0 0.0008462729 0.0
000100 b9 8f c4 45 ac 58 a7 41 90 1c f5 40 c1 49 0f 3f
       6289.9653 20.918297 7.6597366 0.55971915
000110 cc 4d 1b 3a f4 34 80 43 00 00 00 00 59 35 10 3d
       0.00059243734 256.4137 0.0 0.035207126
000120 e4 bf 47 42 8d 72 6a 44 f4 7f 6c 44 3f 2f 88 40
       49.937393 937.78986 945.99927 4.2557673
000130 00 00 00 00 7c ac 05 45 ea d2 b7 43 fe e1 9f 42
       0.0 2138.7803 367.64777 79.94139
000140 06 da de 43 d3 b7 e5 43 00 00 00 00 33 04 1c 42
       445.7033 459.43613 0.0 39.0041
000150 5b 1f a4 40 e5 f5 3c 39 1d 19 1e 43 ad 00 18 44
       5.1288276 0.0001802068 158.0981 608.01056
000160 00 00 00 00 19 48 c0 41 00 00 00 00 93 96 90 43
       0.0 24.035204 0.0 289.17636
000170 00 00 00 00 00 00 00 00 00 00 00 00 00 00 00 00
       0.0 0.0 0.0 0.0
000180 d4 bf f7 43 9a 1d 3f 42 85 e5 c5 39 a5 65 71 41
       495.49866 47.778908 0.00037745773 15.087316
000190 d1 0c da 43 98 44 ec 30 bb 95 9c 3e 12 67 a8 43
       436.10013 1.7190755e-09 0.30582985 336.80524
0001a0 ac a6 f1 41 aa 31 97 44 00 00 00 00 00 00 00 00
       30.206383 1209.552 0.0 0.0
0001b0 13 d0 2a 3f 36 bb 1c 43 ac 7f e0 43 00 00 00 00
       0.66723746 156.7313 448.99744 0.0
0001c0 86 ee a1 44 69 f8 f9 43 29 53 94 42 00 00 00 00
       1295.4539 499.9407 74.16242 0.0
0001d0 de a1 68 43 7f 35 6d 41 fb 14 0a 41 5c 3a 07 44
       232.6323 14.825561 8.630122 540.91187
0001e0 89 ab 23 45 48 69 a4 43 aa b3 8e 43 00 00 00 00
       2618.721 328.8225 285.40363 0.0
0001f0 00 00 00 00 00 00 00 00 f8 15 c7 3e 00 00 00 00
       0.0 0.0 0.38883948 0.0
000200 31 40 e9 45 1d 1c c0 41 fb 81 01 41 12 fe 23 3f
       7464.024 24.013727 8.0942335 0.64059556
000210 04 37 b3 3c eb 80 96 43 00 00 00 00 69 14 01 3d
       0.02187682 301.00717 0.0 0.031513605
000220 f6 8b 6d 42 b8 c6 8b 44 a4 c6 8a 44 be 26 8f 40
       59.38668 1118.21 1110.2075 4.4734793
000230 00 00 00 00 d2 09 1e 45 ac 62 d6 43 64 f5 af 42
       0.0 2528.6138 428.77087 87.97928
000240 c2 4a 00 44 9e 58 01 44 00 00 00 00 dd 93 32 42
       513.1681 517.38464 0.0 44.644398
000250 62 2d ac 40 1e 4d f8 38 95 ac 3a 43 d8 e8 37 44
       5.38054 0.00011839926 186.67415 735.6382
000260 00 00 00 00 dd 6c eb 41 00 00 00 00 ce 69 a2 43
       0.0 29.428156 0.0 324.8266
000270 00 00 00 00 00 00 00 00 00 00 00 00 00 00 00 00
       0.0 0.0 0.0 0.0
000280 fa df 10 44 10 80 5f 42 0f 61 85 39 de 39 82 41
       579.49963 55.87506 0.0002544005 16.278255
000290 6d 58 fe 43 d9 ed c1 30 a2 79 ae 3e c2 4f c8 43
       508.69083 1.4110199e-09 0.34077173 400.6231
0002a0 f8 c7 13 42 8c bf b2 44 00 00 00 00 00 00 00 00
       36.945282 1429.9858 0.0 0.0
0002b0 60 d3 36 3f f4 c4 3b 43 a2 ac 05 44 00 00 00 00
       0.7141628 187.76935 534.6974 0.0
0002c0 05 c2 c1 44 ac 27 13 44 1e 3d a1 42 00 00 00 00
       1550.0631 588.6199 80.61937 0.0
0002d0 8e 2a 88 43 ee f2 77 41 86 13 22 41 59 b1 21 44
       272.33246 15.496809 10.129766 646.77106
0002e0 bb a1 40 45 3a c9 bc 43 eb 5d aa 43 00 00 00 00
       3082.1082 377.57208 340.73373 0.0
0002f0 00 00 00 00 00 00 00 00 5f 12 e3 3e 00 00 00 00
       0.0 0.0 0.44349954 0.0
000300 24 82 cb 45 4b 4b ae 41 e3 25 f7 40 2d 61 13 3f
       6512.2676 21.786764 7.723375 0.57570153
000310 72 8a 0a 3a 52 00 85 43 00 00 00 00 8d e2 27 3d
       0.0005284912 266.0025 0.0 0.04098754
000320 27 c5 4f 42 87 63 72 44 08 54 74 44 d9 49 89 40
       51.94253 969.5551 977.313 4.2902646
000330 00 00 00 00 8d 21 0a 45 b5 6f bc 43 c8 ae a2 42
       0.0 2210.097 376.8727 81.34137
000340 12 10 e4 43 81 89 ea 43 00 00 00 00 ba 2a 20 42
       456.12555 469.07425 0.0 40.041725
000350 58 8a a5 40 4a e8 74 39 da e6 22 43 8f f7 1d 44
       5.1731377 0.00023356188 162.90176 631.8681
000360 00 00 00 00 c4 8f c6 41 00 00 00 00 d1 8d 93 43
       0.0 24.820198 0.0 295.10794
000370 00 00 00 00 00 00 00 00 00 00 00 00 00 00 00 00
       0.0 0.0 0.0 0.0
000380 0c 06 ff 43 dc 6c 44 42 3f 5d fc 39 4f 48 74 41
       510.04724 49.106308 0.0004813466 15.267653
000390 ef b9 e0 43 a3 6c e8 31 99 3f a4 3e 16 95 ad 43
       449.4526 6.7644392e-09 0.3207977 347.16473
0003a0 f3 7a f9 41 1a be 9c 44 00 00 00 00 00 00 00 00
       31.185034 1253.9407 0.0 0.0
0003b0 3f ad 35 3f ac c8 21 43 5f 74 e7 43 00 00 00 00
       0.7096748 161.78387 462.90915 0.0
0003c0 e0 b4 a7 44 94 13 01 44 e9 69 96 42 00 00 00 00
       1341.6523 516.3059 75.206856 0.0
0003d0 6b 87 6f 43 6c 2c 6f 41 a0 f4 0d 41 e8 30 0c 44
       239.52898 14.948345 8.872223 560.76416
0003e0 4d df 28 45 d9 e3 a9 43 1b 51 93 43 00 00 00 00
       2701.9563 339.78006 294.63364 0.0
0003f0 00 00 00 00 00 00 00 00 46 f4 cf 3e 00 00 00 00
       0.0 0.0 0.40616053 0.0

exp_avg f4 [13]
000000 aa 2f c5 ba b3 8a 30 3d 64 27 5e bd 11 4b 14 bd
       -0.0015044112 0.043101024 -0.054236785 -0.0362044
000010 1d b5 8c 3d 00 00 00 00 00 00 00 00 00 00 00 00
       0.06870482 0.0 0.0 0.0
000020 00 00 00 00 00 00 00 00 00 00 00 00 00 00 00 00
       0.0 0.0 0.0 0.0
000030 00 00 00 00
       0.0

exp_avg_sq f4 [13]
000000 91 f0 96 39 db 8f 87 3e e8 2d a2 3e 85 7e 8c 3e
       0.00028789465 0.2647694 0.3167565 0.27440277
000010 4b a1 8e 3e 00 00 00 00 00 00 00 00 00 00 00 00
       0.27857432 0.0 0.0 0.0
000020 00 00 00 00 00 00 00 00 00 00 00 00 00 00 00 00
       0.0 0.0 0.0 0.0
000030 00 00 00 00
       0.0
