Op_problems/problem_pooling/checkpoints/mlp_checkpoint_epoch_200_loss_65.820146.pth (torch, 20659 bytes, 12 tensors)

nn.0.weight f4 [64, 4]
00000000: d4fd 043f c4c8 f93e f518 b7bd 3c94 053f
00000010: 7dec a9be 3632 c3bb 1016 99be f93c 6c3e
00000020: ccde 9d3e e6ac fabe cde8 bb3e ee12 883e
00000030: a3dd 953e 850c bb3c 0f8e 373e 3bd2 04be
00000040: 2c53 643e 6706 57bd 73fa a7be d3f5 9bbb
00000050: 620b 61bd 6889 523b 52fd 69be 25e9 b03e
00000060: 2a14 cabe 8c09 6cbe 6c93 10be feec 99be
00000070: 776b 8fbe d83a 05bf 1589 0d3f 9b21 ddbd
00000080: 63cc d23e c493 b23c adfd d0bd 018b 7f3e
00000090: 9b2b 3d3e adce eb3e 2194 bb3d 75be d8bd
000000a0: ee59 a63e 55f6 51bd a115 6a3e 3ad8 fe3e
000000b0: 255c c23d d556 acbe c67d 803e cf4e 543e
000000c0: 7a01 823e 8608 9cbe a46a fdbe 0cd1 45be
000000d0: b7fb 77be f7b3 ec3e 863e 313e 1792 8b3e
000000e0: df35 793e 9efd 483e 8293 043f 7a45 69be
000000f0: 47d4 9dbe 19b7 7abe 5080 ac3e 0748 7e3e
00000100: edba 3ebe b04a 383d 1ddc 223f cd67 09bd
00000110: ec7c 20bf 461f 8abe 7ad3 2a3f 3edc 9e3e
00000120: 1056 f63e 4e45 d3be 98eb fdbe fe48 c8be
00000130: 811c c1be 6ecc 1c3e 01ae 063e e375 b43e
00000140: f52b 0d3d ea23 a8be 5c11 a33e e58e 373e
00000150: 92b2 3b3e 1a0f 62be b5b9 333e 2236 e6be
00000160: 182c 0dbe bd86 5d3e d509 ff3d 5297 6cbd
00000170: 0a65 103f 7bbe fb3e 8ded 94be 7a2c 1dbe
00000180: d268 ea3e f4c3 2cbe 2c83 35be 48b4 f7be
00000190: 9347 b33e 4536 ac3e 9ebb a9bb 9acd adbe
000001a0: 4028 403c 6ede aebe 8630 d9be 3af8 8cbe
000001b0: 082b dabe 7b5c 89be c217 123f 2a5b 913e
000001c0: 1cc7 1d3e 66c4 eebe 5422 a8be 146c 2abe
000001d0: c01f a03d 8642 e1be 649b 5cbe 5842 99be
000001e0: 009e b53a 5084 3ebe f0ea 0dbd 2479 adbe
000001f0: 98b7 afbe d259 95be 9c41 2fbe 500e cabe
00000200: b1f8 f73e 44c1 5ebd 2bdb e43e 8c26 5d3e
00000210: 50aa d9be 2112 a93e 192c 5bbd 36d9 22be
00000220: 0387 e93d 0360 07bf 8e0d 903e 35c2 03be
00000230: 6cb8 773e 285b c0be 3d43 0a3f 1593 023e
00000240: d4bb 31be ca42 453d dc12 523e a18b aa3e
00000250: 4131 d83e 5400 dcbe 92a7 bd3d 3d40 7ebe
00000260: db94 debe 26aa 7dbe 3850 fe3e 2ee7 bdbe
00000270: cc36 e73e 2b7e 8c3e d86f 823e 62a5 4abe
00000280: b3d4 2d3f f92c be3e fd3f 9fbc 6d05 d6be
00000290: dea6 ba3e 040d 7a3c c5ff 3bbe dfcd fc3e
000002a0: b04c e43d 86a3 8dbe 5292 81be 809b c3bc
000002b0: c4f0 8e3e 54d5 02be 3211 92be ac54 2fbe
000002c0: fca8 233f f60f df3c 0067 ce3e 651f 19bf
000002d0: 0a39 993e f33c a23e 7f75 073e 9e5c 20be
000002e0: f329 0b3f c297 b33e 8f89 863e 8e3e 48be
000002f0: 0894 07be d018 5b3d d0e4 b4bd 9893 18be
00000300: 50eb ee3e 301a 013f 4842 e5bc a624 3cbd
00000310: 11cf 053e fb47 183d 1853 1f3e baf4 443e
00000320: e723 09bf a8dd 68be 260d bc3e 5c00 733e
00000330: a0b9 cbbc 0858 9abe 429f 9cbe fa50 e5be
00000340: 3736 14be 09d5 133e 7d4b 883e 3a59 3c3e
00000350: 6c34 3abf 7d4c 04bf 6d9f 7f3d 75f2 093f
00000360: c60f e53e 6406 163e 5ad8 273e 2fda 8bbe
00000370: e1b8 1abe 3e59 e63e 25ee 49be aa11 1fbd
00000380: 6062 bfbe 9174 ca3e 9921 cb3e 2b57 803e
00000390: 1a53 893d 7437 90be 5b05 d4bd 680f 1d3f
000003a0: 09e3 273e 749c b63e a810 5d3e dd2d 7e3d
000003b0: 8071 a0bb 86b0 c2be 6c55 dbbe 0273 efbe
000003c0: e497 513e 2860 7bbe 2815 cebd 5054 93be
000003d0: d098 babd 862e b4be 4046 a7be 00d6 293e
000003e0: 7e3c 95bd f18d 9d3e 3d1d 303c 79aa 00bf
000003f0: 68ac b4bd d030 78be 60a4 1cbe fcb5 f3be
0.5194981 0.48785985 -0.08940307 0.5217931 -0.3318824 -0.0059569133 -0.29899645 0.23070134
0.30834043 -0.48960036 0.3670105 0.26576942 0.29270658 0.022833118 0.17925285 -0.12970822
0.22297353 -0.05249634 -0.32808265 -0.004759529 -0.054942496 0.0032125358 -0.2285054 0.34552875
-0.3946851 -0.23050517 -0.14118737 -0.30063623 -0.28011677 -0.52042913 0.55287296 -0.10797425
0.4117156 0.021798976 -0.10204635 0.2495537 0.18473665 0.4605612 0.09159113 -0.10583202
0.32490486 -0.05126031 0.22859813 0.49774343 0.094902314 -0.33659998 0.25095958 0.20733188
0.25391752 -0.30475253 -0.49495423 -0.19318026 -0.24217115 0.46231052 0.17309007 0.27259895
0.24336956 0.19627997 0.5178758 -0.2278041 -0.30826017 -0.24483909 0.33691645 0.24832164
-0.18625994 0.044993103 0.63617116 -0.033546258 -0.62690616 -0.26976985 0.6672894 0.31027406
0.48112535 -0.41263813 -0.49593806 -0.3911819 -0.3771706 0.15312359 0.13152315 0.3524619
0.03446575 -0.328399 0.31849182 0.17925604 0.18329838 -0.22076073 0.1755131 -0.44963175
-0.13786352 0.2163343 0.12453047 -0.057761498 0.56404173 0.49168763 -0.29087487 -0.15348998
0.45783097 -0.16871625 -0.1772582 -0.4837973 0.35015544 0.33635154 -0.0051798364 -0.33945924
0.011728346 -0.34154075 -0.42419833 -0.27533132 -0.42610955 -0.2682837 0.570675 0.28389865
0.15407985 -0.46634215 -0.3283869 -0.16642791 0.07818556 -0.43996066 -0.21543652 -0.2993343
0.0013856292 -0.1860516 -0.034647882 -0.33881485 -0.34319758 -0.2917009 -0.17114872 -0.39464045
0.48431924 -0.05438353 0.44698462 0.21596736 -0.4251275 0.33021644 -0.05350885 -0.15903172
0.114027046 -0.5288088 0.2813534 -0.12867053 0.24191445 -0.37569547 0.5400885 0.1275142
-0.17356807 0.0481594 0.20515007 0.33309653 0.42225078 -0.42969 0.09260477 -0.24829192
-0.43472943 -0.24771938 0.49670577 -0.3709044 0.45158994 0.2744001 0.25475955 -0.19789651
0.6790268 0.37143686 -0.019439692 -0.41801015 0.36455435 0.015261892 -0.18359287 0.49375817
0.111474395 -0.2766382 -0.25306946 -0.02387786 0.27918065 -0.1277669 -0.28528744 -0.17122144
0.63929725 0.02722929 0.40312958 -0.5981353 0.2992633 0.31687126 0.13228415 -0.1566033
0.54360884 0.3507672 0.26276824 -0.19555113 -0.13240063 0.05349046 -0.08832705 -0.14900053
0.46663904 0.50430584 -0.027985707 -0.04593339 0.13067271 0.03717802 0.15559042 0.19233981
-0.5357041 -0.22740805 0.3672878 0.23730606 -0.024868786 -0.30145288 -0.30590254 -0.44788343
-0.14473806 0.14436735 0.26620093 0.18393412 -0.7273624 -0.5167921 0.0624079 0.53885585
0.44738597 0.14650875 0.16391125 -0.27314898 -0.15109588 0.4498996 -0.19719751 -0.038835205
-0.37379742 0.39542058 0.3967407 0.25066504 0.067053035 -0.28167307 -0.10352584 0.61351633
0.16395201 0.3566624 0.21588385 0.062055457 -0.0048963428 -0.38025302 -0.4283861 -0.46767431
0.20468098 -0.245484 -0.10062629 -0.28775263 -0.09111178 -0.35191745 -0.32670784 0.16585541
-0.072869286 0.30772355 0.010749158 -0.5026012 -0.088219464 -0.2423737 -0.15297079 -0.4759978

nn.0.bias f4 [64]
00000000: 9e05 8b3e 760c a6be f6e0 bf3e 68a9 553e
00000010: 167a 643e 74e6 bdbe 481d b83e 0c7d c43a
00000020: 915c 063e 3fef f23e aaae ba3b 1422 563d
00000030: 90c1 ebbd 4b39 b2be cae8 f33e 474a 41be
00000040: 9399 033f 3453 1c3f d019 f23e 689d 13be
00000050: 6a5f 93be 9043 f03c 99d8 863e 1fb8 cdbe
00000060: 686e e8bd b630 9c3d 3020 33bd e815 89be
00000070: fc49 51be f889 22be 2047 f3be c80c d23e
00000080: e2d7 d23e 63f4 cb3d b2b4 acbc b108 77ba
00000090: e3ca 0ebf a911 05bf e62f a93e 2f02 42bd
000000a0: 72e8 2fbe f19e f6bc 7080 2abe 84a4 25be
000000b0: 2804 723d c9e2 94bd 2a6c 91be 0c26 75be
000000c0: 3756 e5be da46 d13e 04b4 40be 64ab 073e
000000d0: baf4 5dbe a5a0 f3bc 90d4 f73e 5372 903e
000000e0: 902a b4be 12e2 053f cad6 013f dcb2 063e
000000f0: f4a0 ab3e 2063 fc3e 2f6d 0cbe 2889 d43d
0.27152723 -0.32431382 0.3747632 0.20865405 0.22312197 -0.37089884 0.3595984 0.001499088
0.13121249 0.47448155 0.005697091 0.052278593 -0.115115285 -0.34809336 0.4763854 -0.18875991
0.5140621 0.6106446 0.47285318 -0.14415514 -0.28783733 0.029329091 0.26337126 -0.40179536
-0.11349183 0.076264784 -0.04373187 -0.26774526 -0.20438379 -0.15872943 -0.47515202 0.41025376
0.4118033 0.099587224 -0.021082256 -0.00094235974 -0.5577833 -0.5198007 0.33044356 -0.047365364
-0.17178515 -0.030105086 -0.16650558 -0.16176039 0.059085995 -0.07269818 -0.28402835 -0.23940295
-0.4479234 0.40874368 -0.1881867 0.13248974 -0.21675387 -0.029739687 0.4840436 0.28212222
-0.35188723 0.5229808 0.5071837 0.13154167 0.33521235 0.49294376 -0.13713525 0.10377723

nn.2.weight f4 [13, 64]
00000000: 440a 6cbd 727a 773c 44eb 893c 551a 293d
00000010: 2d68 34bd c062 6abd ecf0 aebd 7a7f 20bc
00000020: 56de 86bd a275 bbbb db20 d33d a616 e0bc
00000030: 0ab7 c2bd 593b 9bbd 33f0 56ba c240 a3bd
00000040: 3856 3fbd 1efd b1bb b4f5 6cbd 5f99 3b3c
00000050: b2ee 613c c38e 833c 7e7e 4bbd 58fe c2bc
00000060: 7cf0 cebd a0d3 1b3b 2441 f73d 8970 3dbe
00000070: 42e9 abbd 3036 f83c cc1c 0d3d d043 8c3d
00000080: 526a ba3d 32a9 0f3e 60c7 3c3d 0074 68bc
00000090: 1b15 c13d 717a 823c 876c cf3c 2b9c 483d
000000a0: 5ab9 78bd 825f 03bd 50cc e6bd 20f6 b63b
000000b0: eb0e bd3a abe9 fd3c 9d4a c73c ae25 c2bd
000000c0: eca4 c4bd 08bb cc3c 9894 8e3d 1eb1 933d
000000d0: 3052 68bd 9a24 293d 2044 00bc cb26 f5ba
000000e0: 36d2 263d 2be3 a23d 7a10 fe3d 0009 ebbd
000000f0: 5e2a ab3d 068e b4bd 2661 7ebd 88a3 d83d
00000100: 1b50 d9bb d0be 613d f183 f7be 2fb4 6cbc
00000110: d643 593d 29fd f4bd f09c d1bc 8828 1abe
00000120: 4c76 5e3d 0ec4 c33d 279b 133d 995a b8be
00000130: d2ce cfbd c1c6 ab3c 8186 513e 6fe2 80bd
00000140: 3c5f 153e c58f 4c3e a024 233c 561f 053c
00000150: 3e64 c3be fa4d 0fbd 87a9 2cbd c692 9bbd
00000160: 5a21 82bd 933a ea3e 780c 15bd 0b2e d53d
00000170: fa13 f43d 6057 323d c480 b63d a0dd 77bd
00000180: fb37 143b 5821 633d 62a4 683e 1698 a0be
00000190: 4845 fa3b 0943 83bd 3bca 833d 45cb 453e
000001a0: 49a1 003f b894 30bd c04a b2bc 3a20 edbd
000001b0: ed26 473e 8eeb b53d abb9 ee3d 9873 81bc
000001c0: df16 eebc ae6b aa3d ebb8 d4bc eecb a13d
000001d0: 78ca bbbc c7c4 573e 918e 2a3e 3193 88bb
000001e0: 3eae 61bc d34c 02be 44a6 a63c 5ed5 c73d
000001f0: 9623 f63d 1871 79bd e58f 40be aa63 cd3d
00000200: 812d 2f3e 4434 14bd 492f f73e 2ba1 82bd
00000210: dd2f 54bd ec8c b23d b035 083d 144c 113e
00000220: b7d8 2d3d a5a6 443e 5a13 ad3d 69e5 383e
00000230: e0e3 e7bb dd6d c63d 41f4 82bd cab6 b7be
00000240: b2a3 35be 2139 93be 82b8 d4bd a308 48bc
00000250: 4cec 003f 5bf4 7ebd 5132 353e bbba 9c3e
00000260: 2465 c13d c2df 10bf bcdb 8cbd 771d 0ebe
00000270: a0a7 84bd 02c4 acbd c07f 23bd 58e5 d63c
00000280: 9da3 013e 865d f43c 9a2e e1be bcc8 b53e
00000290: 6c35 a6bc 57bd c5bd 0b71 05be 7f42 a03d
000002a0: a4dd 8bbe 0b01 4d3e 5c24 193d 7035 303d
000002b0: 50e6 59be 1165 b23d 8b98 7e3d 002f e13a
000002c0: 8005 053e 6ee3 3b3e 819d a4bd 346e 58bd
000002d0: 8c4e bf3c e5b1 82be d859 94be 67f1 3a3e
000002e0: 3484 213e dfae 523e bfd4 ecbc 7c65 89bd
000002f0: 08fc e0bc 78bf bcbc eaa5 2c3e 2e00 ebbd
00000300: 3c6d 4c3d d6c0 c8bd 98f4 dd3e 66cc 89bd
00000310: 1818 d13d ef30 c7bd 2e1e c13d 1b56 053e
00000320: 68f0 39bb 94b6 a53d 6e11 263c 52df fb3e
00000330: 8217 b93d 3a18 aebd ef33 3bbd a2cf 173e
00000340: 93d5 ad3d ebc5 183e 400c 0c3d 9823 09bd
00000350: 1c8c ab3e f08a c63d 4758 c13d e4bd e6bd
00000360: a2c6 f0bd e25f dcbe 4854 aebd 0e30 803e
00000370: 146a 9bbd 70de 13bc f044 e3bc 8839 b63c
00000380: 1435 083e 1ce6 d83c 0b01 3bbe 730d a83e
00000390: 8321 fc3d 65a8 97bb ba5e 913d f92e 80bc
000003a0: 5710 d5be d9c0 853d 00b6 dfbc f2a1 adbd
000003b0: ed5a ffbd 9124 333c b9b3 813d 1a55 fe3d
000003c0: a2f2 a63d 281a 0d3e d0ea 703d e436 dcbd
000003d0: 268d 7ebd 3c7e a6be e85d ffbd 9223 90bd
000003e0: 1a62 b4bd fb19 b3bc ccbc 66bd 9c5f fcbd
000003f0: d022 9dbd e43a 433d 4e75 a63e 0c4d 18bd
-0.057626978 0.015104877 0.016835816 0.041284878 -0.044044662 -0.05722308 -0.08542046 -0.009796018
-0.06585376 -0.00572081 0.10309001 -0.02735455 -0.09507568 -0.07579679 -0.00081992446 -0.07971336
-0.046713084 -0.0054317852 -0.05785151 0.011450141 0.01378982 0.016059285 -0.04968118 -0.023802921
-0.101044625 0.0023777261 0.120729715 -0.1849996 -0.083941 0.030299276 0.03445129 0.06848872
0.0910231 0.14029387 0.046088576 -0.014187813 0.09427854 0.015927525 0.025320305 0.04897706
-0.06072364 -0.032073505 -0.11269438 0.0055835396 0.0014424002 0.03099521 0.02432757 -0.09479843
-0.09601769 0.024991527 0.06961936 0.07211517 -0.056719005 0.04129467 -0.007828742 -0.0018703578
0.040727817 0.07953485 0.124054864 -0.11476326 0.0835769 -0.08816151 -0.062104367 0.10578066
-0.006631864 0.055113614 -0.4834285 -0.014447256 0.05304321 -0.11962349 -0.025587529 -0.15054524
0.054312035 0.09558879 0.036036637 -0.3600662 -0.1014687 0.020968797 0.20461465 -0.06293189
0.1458711 0.19976719 0.009957463 0.008125147 -0.38162416 -0.034986474 -0.04215386 -0.07596354
-0.063540176 0.45747814 -0.036388844 0.104091726 0.11917873 0.04354036 0.08911279 -0.060514092
0.0022616375 0.05545172 0.22718957 -0.31366032 0.0076376535 -0.0640927 0.06435057 0.19315822
0.502461 -0.04311058 -0.02176416 -0.11578412 0.19448443 0.08882819 0.11656507 -0.01580219
-0.02906364 0.083213195 -0.025967082 0.079002246 -0.022923693 0.21071158 0.16655947 -0.004167937
-0.013774453 -0.12724619 0.020342954 0.097574934 0.12018506 -0.06089887 -0.18804891 0.10028775
0.17107202 -0.036182657 0.48278263 -0.063783966 -0.05180346 0.08718285 0.033254325 0.14189178
0.042443004 0.19204195 0.08450957 0.18056263 -0.0070767254 0.096889235 -0.06394244 -0.35881644
-0.17738226 -0.28754523 -0.103867546 -0.01220909 0.5036056 -0.062244754 0.17694975 0.30611214
0.09443119 -0.5659143 -0.068778485 -0.13878427 -0.064772844 -0.08435823 -0.039916754 0.026232406
0.1266007 0.029829752 -0.43980867 0.3550471 -0.020289145 -0.09655254 -0.13031404 0.07825183
-0.27317536 0.20019929 0.03738819 0.043019712 -0.21279263 0.08710683 0.062157195 0.0017180145
0.1299038 0.18348476 -0.08037854 -0.052839473 0.023352884 -0.25526348 -0.28974795 0.1825615
0.15773088 0.2057452 -0.028910039 -0.0670881 -0.027463928 -0.023040518 0.16860166 -0.11474644
0.04990886 -0.098024055 0.43350673 -0.06728439 0.10209674 -0.0972613 0.094295844 0.13021128
-0.0028372053 0.08091465 0.0101359915 0.49193817 0.09037687 -0.085007146 -0.045703825 0.148253
0.08488002 0.1491925 0.03419137 -0.03348121 0.33505332 0.09694469 0.09440666 -0.112666875
-0.11756636 -0.43041903 -0.08512169 0.25036663 -0.07588592 -0.009025201 -0.027742833 0.02224423
0.13301498 0.026476912 -0.18262117 0.3282276 0.12311079 -0.0046282285 0.07098146 -0.015647398
-0.4161403 0.065309234 -0.027308464 -0.08478154 -0.124685146 0.010934011 0.063331075 0.124185756
0.08151747 0.13779509 0.058817685 -0.10752657 -0.06214633 -0.32518184 -0.12469083 -0.070380345
-0.08807774 -0.021862974 -0.056332394 -0.123229235 -0.076726556 0.047663584 0.3251137 -0.037182853

nn.2.bias f4 [13]
00000000: 29bb 0c3f d04f aa3d 2a82 22bd 7ebc c7bd
00000010: 0894 373e 2096 af3d 0a64 c7bd a6ae e93d
00000020: 70bd 1e3c 1041 763d 42d4 c63d 0a3e da3d
00000030: 988f c7bd
0.54973084 0.08316004 -0.039674915 -0.09752749 0.17927563 0.08573556 -0.09735878 0.11410265
0.00968872 0.060120642 0.09708454 0.10656364 -0.09744185

exp_avg f4 [64, 4]
00000000: a8f7 d83e 638b 3540 f132 c63f 65ab 3440
00000010: 910c bebc ebf4 80bf 4bb3 3cbf 1467 64bf
00000020: f510 933f d0d5 7840 eea3 d83f 1952 8340
00000030: 8573 83bd 25c3 0cbf dc86 83be 203a 0dbf
00000040: 4bfd 4d3b 1aee 233c bef3 1c39 3653 5e3c
00000050: 6966 8a3e fab0 e93f 42ca 6c3f 0ce6 e83f
00000060: 0000 0000 0000 0000 0000 0000 0000 0000
00000070: 3a6c a4b9 a8f9 1dbd 8e73 37bd 9c5a e13b
00000080: a49e 9fbd ac3a f3be 5ca2 a8be c518 f2be
00000090: 47ff aa3e 273b 1240 23b5 9b3f da5e 1040
000000a0: 5fff 1d3e 687c 8a3f b0b3 0c3f 9543 873f
000000b0: 7f39 803f 775a e140 4240 6740 b4f1 da40
000000c0: 0000 0000 0000 0000 0000 0000 0000 0000
000000d0: 01d1 87bc 206b 253c 5834 0bbe 14fe 9cbc
000000e0: 73db ecbe e358 62c0 484c f2bf 0341 5ec0
000000f0: cedb 89bf 5d55 eec0 ce26 72c0 fbb8 e8c0
00000100: e670 abbe b8b3 10c0 77de 91bf 5c38 13c0
00000110: 2567 97bf 36ac ffc0 1e42 88c0 e43b fcc0
00000120: 0000 0000 0000 0000 0000 0000 0000 0000
00000130: 915c 273d 03e5 ab3e e99d 0b3e 7a30 a03e
00000140: acf0 a03f 9cd5 cd40 03de 7140 e466 b140
00000150: 7e64 a039 746b 743a 674c 533b 68b7 9339
00000160: 7704 d83e 51b5 2f40 0a12 c83f 1bcc 3040
00000170: 4539 943f 0482 fa40 accf 8040 db7c f440
00000180: 0000 0000 0000 0000 0000 0000 0000 0000
00000190: 3a29 32c0 40cb 83c1 ef88 fec0 a97e 80c1
000001a0: 0000 0000 0000 0000 0000 0000 0000 0000
000001b0: 1554 27bf 002a 92c0 ffec 10c0 580e 8ec0
000001c0: 0000 0000 0000 0000 0000 0000 0000 0000
000001d0: 0000 0000 0000 0000 0000 0000 0000 0000
000001e0: 0000 0000 0000 0000 0000 0000 0000 0000
000001f0: 0000 0000 0000 0000 0000 0000 0000 0000
00000200: 4f2a 033e 249f 3d3f 1b99 fe3e b6b5 483f
00000210: a55a 873c 7c78 303e 2ead 943d 3667 173e
00000220: 1add 0ebb db43 0dbc fe34 eebc 7f12 12bb
00000230: a8b0 1f40 05f8 5141 c1b1 d940 f7a8 3241
00000240: b33a 163e 3f99 633f 2a2d 1b3f 567b 693f
00000250: 0400 0000 0400 0000 0400 0000 0400 0000
00000260: 1610 253b 8a4e 1abb 0c48 123c 1922 603c
00000270: b1e5 2b3e aae5 a63f 2e46 163f da7c 953f
00000280: 9c5c fdbf 5a75 85c1 2983 d3c0 f216 80c1
00000290: 1e1e 193f daca 8040 be73 1340 744d 7e40
000002a0: 0000 0000 0000 0000 0000 0000 0000 0000
000002b0: 0000 0000 0000 0000 0000 0000 0000 0000
000002c0: 8239 803d 8454 d83e 2b99 603e 96c7 bb3d
000002d0: aea1 4a3e e57c b63f e464 353f 5868 b03f
000002e0: f256 983e ffa7 0440 501a 8e3f a96c 0140
000002f0: 0000 0000 0000 0000 0000 0000 0000 0000
00000300: 8fd5 df3e 940e 3840 2a1a d03f 8047 3840
00000310: eaf4 e43e dfd7 3e40 598e d53f 57c6 3d40
00000320: 66d4 9fbe 5d8e 0cc0 9dcb 90bf 15fc 06c0
00000330: 0000 0000 0000 0000 0000 0000 0000 0000
00000340: 5e5d 363e dc76 a23f 3448 203f 7321 9e3f
00000350: 3ab3 953e 0633 c4be 4aea c0bf 4ece 29bf
00000360: f217 84bf eff8 95c0 1cf4 23c0 7887 8ec0
00000370: e775 f73e af06 5840 02d6 da3f 2972 5340
00000380: ee61 c63d 3407 403f d2fe 8a3e a30c 383f
00000390: adff 80be 8edf f6bf 0b65 8cbf 0cd8 e8bf
000003a0: 6a2f c0bd 9d1f 0cbf fa4d bebe f8ca 12bf
000003b0: 0000 0000 0000 0000 0000 0000 0000 0000
000003c0: 0000 0000 0000 0000 0000 0000 0000 0000
000003d0: 0000 0000 0000 0000 0000 0000 0000 0000
000003e0: 100f fcbd 8ff0 95be 0a34 01bf 7b3d 81ba
000003f0: 0000 0000 0000 0000 0000 0000 0000 0000
0.42376447 2.8366325 1.5484296 2.822961 -0.023199352 -1.0074743 -0.7371108 -0.89219785
1.148955 3.88805 1.6925027 4.1037717 -0.06418518 -0.54985267 -0.25688827 -0.55166817
0.0031431492 0.010005498 0.0001496812 0.013569644 0.27031258 1.8257134 0.9249612 1.8195205
0.0 0.0 0.0 0.0 -0.00031361153 -0.03856817 -0.044787936 0.0068772566
-0.0779393 -0.475057 -0.3293637 -0.47284523 0.33397886 2.2848604 1.2164654 2.2557893
0.15429448 1.0819216 0.5496168 1.0567499 1.0017546 7.042293 3.613297 6.842005
0.0 0.0 0.0 0.0 -0.016579153 0.010096341 -0.13594186 -0.019164123
-0.46261176 -3.5366752 -1.8929529 -3.472718 -1.0770204 -7.4479203 -3.7836185 -7.2725806
-0.33484572 -2.2609692 -1.1396016 -2.300315 -1.1828352 -7.989772 -4.258071 -7.882311
0.0 0.0 0.0 0.0 0.040859763 0.3357316 0.13634457 0.31286985
1.2573447 6.4323254 3.7791755 5.54381 0.0003059245 0.0009323873 0.0032241584 0.00028174673
0.42190906 2.7454417 1.5630505 2.7624576 1.1579977 7.828371 4.0253506 7.640241
0.0 0.0 0.0 0.0 -2.7837663 -16.474243 -7.9542155 -16.061846
0.0 0.0 0.0 0.0 -0.65362674 -4.567627 -2.264465 -4.439251
0.0 0.0 0.0 0.0 0.0 0.0 0.0 0.0
0.0 0.0 0.0 0.0 0.0 0.0 0.0 0.0
0.12809108 0.74070954 0.49726185 0.7840227 0.016522715 0.17233461 0.07259594 0.14785466
-0.0021799267 -0.008622135 -0.029078003 -0.0022288857 2.4951572 13.123052 6.8029485 11.166251
0.1467083 0.8890571 0.6061579 0.9120382 6e-45 6e-45 6e-45 6e-45
0.002518659 -0.0023545348 0.00892831 0.0136800045 0.16786839 1.3038838 0.58700836 1.1678727
-1.9793887 -16.6823 -6.6097608 -16.011204 0.5981158 4.024762 2.3039393 3.9734774
0.0 0.0 0.0 0.0 0.0 0.0 0.0 0.0
0.06260969 0.4225198 0.21933429 0.09168927 0.19788238 1.4256865 0.7085707 1.3781843
0.29753834 2.0727537 1.110178 2.022257 0.0 0.0 0.0 0.0
0.4371762 2.8758898 1.6257985 2.879364 0.44718105 2.9819257 1.6684066 2.9652307
-0.31216735 -2.1961892 -1.1312138 -2.1091359 0.0 0.0 0.0 0.0
0.17809054 1.2692523 0.62610173 1.2353958 0.29238302 -0.38320178 -1.5071499 -0.6633042
-1.0319808 -4.6866374 -2.5617743 -4.4540367 0.4833214 3.375408 1.709656 3.3038428
0.09686647 0.7501099 0.27147537 0.7189428 -0.25195065 -1.9286973 -1.0968336 -1.8190932
-0.093840435 -0.5473574 -0.37168866 -0.57340956 0.0 0.0 0.0 0.0
0.0 0.0 0.0 0.0 0.0 0.0 0.0 0.0
-0.123075604 -0.29285094 -0.5047003 -0.0009860242 0.0 0.0 0.0 0.0

exp_avg_sq f4 [64, 4]
00000000: 7a30 ef40 20cf fa43 5d32 bc42 9552 f143
00000010: ede6 e440 a215 1344 f478 c042 8427 1b44
00000020: b2e3 0143 ae54 9245 2c06 ac44 36ad b245
00000030: c9f1 5740 2bae 4643 d86f 1842 a791 3543
00000040: 4b0e 083f 1751 ba41 d2d9 b33f f020 b841
00000050: 61df 1740 dd57 1d43 1248 e841 62cc 1743
00000060: 0000 0000 0000 0000 0000 0000 0000 0000
00000070: e118 4f3b df78 863e cb01 f03e ae92 ed3d
00000080: a247 133f f8b4 1e42 43ed 0241 9740 1942
00000090: a05a c940 8a91 d243 e125 9542 b7ca c843
000000a0: 5f2d 413f 02b7 4042 b724 1041 43a2 3142
000000b0: c6d2 5442 46bb 1d45 a5ab 2f44 624f 4245
000000c0: 0000 0000 0000 0000 0000 0000 0000 0000
000000d0: 3f1a 6c3f f0d2 6342 1326 2041 8498 5242
000000e0: 759f 5641 0ff7 6744 274d 3d43 7c80 5b44
000000f0: 952c d341 cf3b e444 750d b143 0e5a d944
00000100: 609f 6840 c672 7b43 19d2 4742 61ce 6e43
00000110: 074c 2442 918d 3245 3879 0c44 19be 2a45
00000120: 0000 0000 0000 0000 0000 0000 0000 0000
00000130: 3a81 673f d009 7d42 b860 1141 ddc9 8242
00000140: 5d1b c342 3c9c b645 1e4b d744 9174 cd45
00000150: 9242 9339 a377 993c b585 b43c b862 3b3a
00000160: 4596 1741 610f 2644 c897 f542 227c 2544
00000170: 1865 1342 8818 1e45 c919 f443 076c 1745
00000180: 0000 0000 0000 0000 0000 0000 0000 0000
00000190: 1915 5d43 f5f4 4e46 2446 2b45 29de 2c46
000001a0: 0000 0000 0000 0000 0000 0000 0000 0000
000001b0: b040 1941 b675 2444 c34c fb42 1614 1c44
000001c0: 0000 0000 0000 0000 0000 0000 0000 0000
000001d0: 0000 0000 0000 0000 0000 0000 0000 0000
000001e0: 0000 0000 0000 0000 0000 0000 0000 0000
000001f0: 0000 0000 0000 0000 0000 0000 0000 0000
00000200: a251 5640 fa23 6c43 3afe 1b42 f2d9 7543
00000210: 5baf 723e 13ed 8c41 92c5 6540 37b3 8641
00000220: 4d0c 2638 389d 9b3b 36ba 003d a8a0 683a
00000230: 0d45 0343 83d5 d745 b8fb f144 dcc3 d945
00000240: 7c63 1140 eaa9 1643 9231 db41 8b87 1043
00000250: 2d00 ca33 7a65 1536 8105 4538 10b6 4b34
00000260: 4dee 893a 9d1b 993d 9f11 e93d 1f9c c13c
00000270: 74a1 193f a284 2142 58a3 e940 c75c 0d42
00000280: ea41 0c43 ca74 da45 4610 ba44 e4e4 b145
00000290: 75aa 6c41 3d72 7944 c962 3e43 a23a 6f44
000002a0: 0000 0000 0000 0000 0000 0000 0000 0000
000002b0: 0000 0000 0000 0000 0000 0000 0000 0000
000002c0: f4ec b33e dc2e 8d41 562b 3041 ebf9 bf40
000002d0: 9568 553f 5208 6342 4dd3 2d41 f143 5542
000002e0: 6a24 1540 96b6 2043 f338 fc41 c1b0 1a43
000002f0: 0000 0000 0000 0000 0000 0000 0000 0000
00000300: 4416 f440 61f9 0344 7512 ce42 1e5e 0044
00000310: 2653 1d41 a292 2544 b16e fa42 7b83 1d44
00000320: 3a35 0040 2b25 1343 1bf4 ea41 9dfb 0843
00000330: 0000 0000 0000 0000 0000 0000 0000 0000
00000340: dde7 ad3f ae22 c042 b2a1 8741 6f89 b842
00000350: 2b7c 9341 ebfd 2245 e14a 0144 2f26 5445
00000360: 505b 8642 b7f4 4545 1413 4f44 13fb 1945
00000370: cceb d640 26b1 da43 069a a042 b338 ce43
00000380: 15c4 0440 e225 f142 8822 5e41 634b f442
00000390: 17b5 3a40 8263 4243 8c84 0842 b4b4 3d43
000003a0: c270 dc3f ef1b e842 06c5 a241 feb2 e242
000003b0: 0000 0000 0000 0000 0000 0000 0000 0000
000003c0: 0000 0000 0000 0000 0000 0000 0000 0000
000003d0: 0000 0000 0000 0000 0000 0000 0000 0000
000003e0: de72 203f da66 a142 abeb 1f42 b395 bc41
000003f0: 0000 0000 0000 0000 0000 0000 0000 0000
7.4746675 501.61816 94.098366 482.64517 7.153189 588.338 96.23624 620.61743
129.88943 4682.585 1376.1929 5717.6514 3.3741324 198.68034 38.109222 181.56895
0.5314681 23.289595 1.4050848 23.016083 2.373009 157.34322 29.03519 151.79837
0.0 0.0 0.0 0.0 0.0031600522 0.26264092 0.46876368 0.116002426
0.5753118 39.676727 8.182925 38.313076 6.2923126 421.13702 74.57398 401.5837
0.75459856 48.17872 9.008964 44.40846 53.205833 2523.7046 702.68195 3108.9614
0.0 0.0 0.0 0.0 0.9222755 56.955994 10.009295 52.64894
13.41393 927.8603 189.30138 878.00757 26.396769 1825.869 354.10513 1738.8142
3.6347275 251.44833 49.955173 238.80617 41.074245 2856.848 561.89404 2731.881
0.0 0.0 0.0 0.0 0.9043156 63.259583 9.086113 65.394264
97.553444 5843.5293 1722.3474 6574.571 0.00028087624 0.018733805 0.022036413 0.0007148194
9.474187 664.2403 122.79645 661.9396 36.848724 2529.5332 488.20145 2422.7517
0.0 0.0 0.0 0.0 221.08241 13245.239 2740.3838 11063.54
0.0 0.0 0.0 0.0 9.578293 657.83923 125.649925 624.31384
0.0 0.0 0.0 0.0 0.0 0.0 0.0 0.0
0.0 0.0 0.0 0.0 0.0 0.0 0.0 0.0
3.3487325 236.14053 38.99827 245.85135 0.23699705 17.615759 3.5901837 16.837507
3.958894e-05 0.0047489665 0.031427585 0.00088740373 131.26973 6906.689 1935.8662 6968.4824
2.271697 150.66373 27.399204 144.52946 9.40639e-08 2.2261797e-06 4.6973586e-05 1.8972082e-07
0.001052329 0.0747597 0.11380314 0.023634015 0.6001198 40.379524 7.3011894 35.340603
140.25748 6990.5986 1488.5085 5692.6113 14.7916155 997.785 190.38588 956.91614
0.0 0.0 0.0 0.0 0.0 0.0 0.0 0.0
0.35141718 17.64788 11.01058 5.9992576 0.83362705 56.758125 10.864087 53.31635
2.3303475 160.71323 31.527807 154.69044 0.0 0.0 0.0 0.0
7.627718 527.89655 103.03605 513.4706 9.8328 662.29114 125.216194 630.0544
2.0032487 147.14519 29.369192 136.98286 0.0 0.0 0.0 0.0
1.3586384 96.06773 16.953953 92.268425 18.435629 2607.8699 517.17 3394.3865
67.178345 3167.2947 828.2981 2463.6921 6.716284 437.38397 80.30083 412.44296
2.074468 120.57399 13.8834305 122.14724 2.9173028 194.3887 34.12944 189.70587
1.7221911 116.05456 20.346203 113.349594 0.0 0.0 0.0 0.0
0.0 0.0 0.0 0.0 0.0 0.0 0.0 0.0
0.62675273 80.70088 39.980145 23.573095 0.0 0.0 0.0 0.0

exp_avg f4 [64]
00000000: 13f7 9b3c 9f47 f4bb 651d 4b3c 0d71 83bb
00000010: f7be 9b38 fb02 313c 0000 0000 baa1 35ba
00000020: ac93 1dbb 4fe1 7f3c 30af cc3b 16d3 d13c
00000030: 0000 0000 6eca 0c38 89a4 babc 8bbb 31bd
00000040: 79aa 62bc 99e5 42bd 0000 0000 374c ad3a
00000050: 2f11 d63c 5ee9 9a37 bcda 9d3c 91fb 3b3d
00000060: 0000 0000 63d4 11be 0000 0000 8116 bfbc
00000070: 0000 0000 0000 0000 0000 0000 0000 0000
00000080: 229d d53b 0336 bd39 280c 81b9 061a 8c3d
00000090: 166e c93b 0400 0000 3989 1a38 2786 da3b
000000a0: d3c3 e4bd 126a e03c 0000 0000 0000 0000
000000b0: 121a 013b d7e7 0c3c df61 533c 0000 0000
000000c0: f41f a23c 252e a63c e128 51bc 0000 0000
000000d0: c1d3 ed3b 376a 893c 35b5 d5bc 38dd a43c
000000e0: 305b 853b 5ec8 25bc 65e5 a8bb 0000 0000
000000f0: 0000 0000 0000 0000 97c1 44ba 0000 0000
0.019038713 -0.007454827 0.012397145 -0.0040112794 7.426546e-05 0.010803933 0.0 -0.0006928701
-0.0024044318 0.015617683 0.00624647 0.025613349 0.0 3.356713e-05 -0.022783535 -0.043391746
-0.013834589 -0.047582243 0.0 0.0013221566 0.02613124 1.84669e-05 0.01926934 0.04589421
0.0 -0.14241175 0.0 -0.02332616 0.0 0.0 0.0 0.0
0.006518976 0.0003608913 -0.00024613854 0.06840901 0.0061471565 6e-45 3.684426e-05 0.0066688242
-0.11170163 0.027394328 0.0 0.0 0.0019699377 0.008600197 0.012901752 0.0
0.019790627 0.020285675 -0.012766094 0.0 0.007257909 0.01677428 -0.026087383 0.020125017
0.0040697083 -0.010118572 -0.005154299 0.0 0.0 0.0 -0.0007505654 0.0

exp_avg_sq f4 [64]
00000000: 076e a33c aa2c b63c 9aaf 743e 9a7c 043c
00000010: 8d87 553a ea07 c93b 0000 0000 cb4d 8438
00000020: 6388 cf3a c421 8b3c b360 f43a f77a 003e
00000030: 0000 0000 cd13 123b acb9 153d b7fc 943d
00000040: 2a3b 233c 8ba2 e83d 0000 0000 bbde 2e3b
00000050: de71 913e 4421 4036 2c41 da3c 5d28 cd3d
00000060: 0000 0000 9c5e f73e 0000 0000 fcd5 d73c
00000070: 0000 0000 0000 0000 0000 0000 0000 0000
00000080: 537e 203c 02a2 413a 0fc7 9a36 852d 9e3e
00000090: 320e c33b 3d97 cd31 bd12 8337 2cdc d63a
000000a0: 4fc5 823e 038b 213d 0000 0000 0000 0000
000000b0: f7da c33a 6e25 153b 5e5a d23b 0000 0000
000000c0: 7915 ad3c e3ef d73c f4c7 c03b 0000 0000
000000d0: 244b 823b ab5b f93d 74d3 fa3d a99d 8c3c
000000e0: 598c 973b 68e6 ff3b aa60 9b3b 0000 0000
000000f0: 0000 0000 0000 0000 1ea2 b23b 0000 0000
0.019949926 0.022238094 0.23895112 0.008086348 0.0008145504 0.0061349766 0.0 6.3087406e-05
0.0015833493 0.016983874 0.0018644541 0.12546907 0.0 0.0022289634 0.036554024 0.07274764
0.009962836 0.113591276 0.0 0.002668305 0.28407186 2.8629593e-06 0.026642404 0.10017464
0.0 0.4831437 0.0 0.026347153 0.0 0.0 0.0 0.0
0.009795743 0.0007386507 4.612731e-06 0.30894104 0.00595262 5.983479e-09 1.5625143e-05 0.0016392521
0.2554116 0.039439213 0.0 0.0 0.0014942576 0.0022757906 0.006419464 0.0
0.021128403 0.026359504 0.0058832113 0.0 0.0039762426 0.121756874 0.12247363 0.017165022
0.004624885 0.007809449 0.004741748 0.0 0.0 0.0 0.005451455 0.0

exp_avg f4 [13, 64]
00000000: da12 36be 29d3 083b 3b78 57bc 20a8 ff3b
00000010: f1e2 3338 9d5d 1bbd 0000 0000 04d4 aa3b
00000020: 59d1 58bd e923 81bd fa34 dcbd 909c 2dbc
00000030: 0000 0000 96c7 fdbd 522f febc 1cda c2bc
00000040: cc91 2bbd f2d3 57bd 0000 0000 4abc b5bd
00000050: abb0 eabb ec80 f838 f821 f0bc 3793 08bd
00000060: 0000 0000 3b02 123b 0000 0000 ba55 21bd
00000070: 0000 0000 0000 0000 0000 0000 0000 0000
00000080: 16f2 99bd 09d9 cbbb 20d9 fb39 294f 34bc
00000090: aaf5 99bd 0400 0080 c272 173c cf2c f6bc
000000a0: cd6c 3eb9 5a13 b9bd 0000 0000 0000 0000
000000b0: 03ac 8b3c 7372 06bd a93b 2ebd 0000 0000
000000c0: 99fc 91bd 15a1 6dbd c7e9 5bbb 0000 0000
000000d0: 63a8 8dbd aa26 32bc a544 eb3b bdb2 3cbd
000000e0: 9ad3 f9bd 9996 68bd 1782 b1bd 0000 0000
000000f0: 0000 0000 0000 0000 0379 0c3c 0000 0000
00000100: b3fc 05c1 1a1f 3a3e d193 8fbd 8e07 60be
00000110: 58ef e8b8 b8cd d2bf 0000 0000 da44 483c
00000120: 9f45 0cc0 c5b9 61c0 f6e5 a6c0 741c 52bd
00000130: 0000 0000 ecf3 cac0 5159 1bc0 ddf4 a0bf
00000140: 410b 3bc0 e4ce 33c0 0000 0000 3bdf 86c0
00000150: c9a6 6ebd 6070 f7ba 4329 ddbf 7306 00c0
00000160: 0000 0000 56b5 c0be 0000 0000 712d 16c0
00000170: 0000 0000 0000 0000 0000 0000 0000 0000
00000180: aab4 85c0 f885 f7be a6ca 21bb 6322 e5be
00000190: 4190 77c0 0400 0000 b0ec 0c3d c734 1bc0
000001a0: 112a babe 0292 6fc0 0000 0000 0000 0000
000001b0: fe70 063e 844f 14c0 5f8d 4dc0 0000 0000
000001c0: 144b 83c0 e843 36c0 77cc 9abf 0000 0000
000001d0: 9a38 71c0 34e1 62be cf26 82be 9366 09c0
000001e0: b313 d3c0 a036 10c0 dd65 92c0 0000 0000
000001f0: 0000 0000 0000 0000 9b3d 633d 0000 0000
00000200: 9d4a 5b41 ecb1 8b3d f30f 083e 8dc7 9f3e
00000210: 5caf cab8 8290 3640 0000 0000 f81f d8bc
00000220: 3ab7 6540 aa1c b940 999b 0141 8291 d03d
00000230: 0000 0000 e328 2541 4b10 6c40 1d8f d33f
00000240: 9f41 8640 f8a2 7840 0000 0000 0f4e d940
00000250: 3583 0c3e 8c49 2e3b 8cd7 3140 851e 6840
00000260: 0000 0000 2e39 4f3f 0000 0000 85a2 4c40
00000270: 0000 0000 0000 0000 0000 0000 0000 0000
00000280: eed2 c640 69ed 883f 9b7e 6d3b 9b1c 273f
00000290: 3720 c240 0400 0080 c69f 4bbd 497f 7040
000002a0: d953 623f 2647 c440 0000 0000 0000 0000
000002b0: 0e27 1cbe acc3 6d40 f482 a040 0000 0000
000002c0: d359 d940 1eb3 8d40 24f1 c53f 0000 0000
000002d0: 3d04 bd40 c999 f23e e371 cc3e 7930 7740
000002e0: 3101 2841 e9ab 6740 95b8 ea40 0000 0000
000002f0: 0000 0000 0000 0000 07d6 49bd 0000 0000
00000300: 4a45 d240 27d6 b5be 9cf3 b33d 62ac 4c3e
00000310: 58af 813a 2170 923f 0000 0000 82e5 f4bb
00000320: 7d6b d83f 8149 3440 b606 8940 9d9b 883d
00000330: 0000 0000 93e0 a140 ad09 1240 8f75 973f
00000340: ec06 2b40 e950 2640 0000 0000 3d8a 5840
00000350: e1b4 a13d c2fd 083b 9ed5 b53f 5131 b33f
00000360: 0000 0000 5e44 913e 0000 0000 fefb 0a40
00000370: 0000 0000 0000 0000 0000 0000 0000 0000
00000380: b46e 6540 4ca8 9c3e f01e b53a fbff f33e
00000390: 87c0 4a40 0400 0080 ce53 21bd 016a 0340
000003a0: 6230 673e 73f0 3840 0000 0000 0000 0000
000003b0: b8d2 2fbe 3c6c f23f 284f 2b40 0000 0000
000003c0: 723b 4d40 7ea9 1640 03f4 973f 0000 0000
000003d0: 0b65 4740 bc38 353e 2cd5 5a3e 6517 c73f
000003e0: 6e70 ac40 4007 da3f 54ad 6d40 0000 0000
000003f0: 0000 0000 0000 0000 157e 93bd 0000 0000
-0.17780629 0.0020877814 -0.013151224 0.0078020245 4.288828e-05 -0.037931073 0.0 0.0052132625
-0.052934024 -0.063056774 -0.10752292 -0.010596409 0.0 -0.123915836 -0.031028423 -0.023785643
-0.04188709 -0.05269236 0.0 -0.08873804 -0.0071621737 0.00011849575 -0.029313073 -0.03334352
0.0 0.0022279161 0.0 -0.039388396 0.0 0.0 0.0 0.0
-0.07516877 -0.006220941 0.0004803622 -0.011005201 -0.0751756 -6e-45 0.009243669 -0.030050663
-0.00018160343 -0.09036894 0.0 0.0 0.017049795 -0.03282399 -0.042537365 0.0
-0.07128257 -0.058014948 -0.003355609 0.0 -0.06916883 -0.010873476 0.007179814 -0.046068896
-0.12198563 -0.056784246 -0.08667391 0.0 0.0 0.0 0.008573773 0.0
-8.374194 0.18175927 -0.070106156 -0.21877882 -0.00011107203 -1.646903 0.0 0.012223447
-2.1917493 -3.5269635 -5.2155714 -0.051296666 0.0 -6.3422756 -2.4273264 -1.2574726
-2.922562 -2.8095026 0.0 -4.21475 -0.058264527 -0.0018878095 -1.7278217 -2.0003936
0.0 -0.37638348 0.0 -2.3465235 0.0 0.0 0.0 0.0
-4.1783037 -0.48344398 -0.0024687438 -0.44752797 -3.8681796 6e-45 0.03440541 -2.4250963
-0.3636022 -3.7432866 0.0 0.0 0.1312904 -2.3173532 -3.2117536 0.0
-4.102915 -2.8478947 -1.2093648 0.0 -3.7690797 -0.2215622 -0.25420234 -2.1468856
-6.5961547 -2.253334 -4.5749345 0.0 0.0 0.0 0.055478673 0.0
13.705716 0.06821045 0.13287334 0.31206933 -9.664774e-05 2.85257 0.0 -0.026382431
3.5893083 5.784749 8.100488 0.101840034 0.0 10.322482 3.6884944 1.652805
4.1955104 3.8849468 0.0 6.7907786 0.13721927 0.002659413 2.778781 3.6268628
0.0 0.80946624 0.0 3.1974194 0.0 0.0 0.0 0.0
6.2132483 1.0697452 0.0036238793 0.65278023 6.0664325 -6e-45 -0.04971292 3.7577689
0.8840919 6.133685 0.0 0.0 -0.15249273 3.7150679 5.0159855 0.0
6.792215 4.428115 1.5464215 0.0 5.9067674 0.47382954 0.3993064 3.8623335
10.500291 3.6198676 7.335032 0.0 0.0 0.0 -0.049276378 0.0
6.570958 -0.35514948 0.08786699 0.19987634 0.0009894175 1.1440469 0.0 -0.0074736485
1.6907803 2.8169863 4.282069 0.06670306 0.0 5.058664 2.2818406 1.1832751
2.6722975 2.5986884 0.0 3.3834374 0.07895828 0.0020903205 1.4205816 1.3999425
0.0 0.28372473 0.0 2.1716304 0.0 0.0 0.0 0.0
3.5848818 0.3059715 0.0013818424 0.47656235 3.168001 -6e-45 -0.039386563 2.053345
0.2257705 2.8896759 0.0 0.0 -0.17170227 1.893928 2.6767063 0.0
3.2067533 2.354095 1.1871341 0.0 3.1155422 0.17697424 0.21370381 1.5554014
5.3887243 1.7033463 3.713704 0.0 0.0 0.0 -0.072017826 0.0

exp_avg_sq f4 [13, 64]
00000000: f8a0 3942 3b5c 8740 6a5e 883c 2006 0a3f
00000010: a0c9 ae3f 47b1 1440 0000 0000 fef6 433a
00000020: d776 f040 070f b040 6cda 2941 0a7a 8c3c
00000030: 0000 0000 221b b941 4ca9 2f3f 5d3f c13d
00000040: 823a 4d3f 7b70 2e3f 0000 0000 32f5 9741
00000050: e5ed 813b e92b f639 a81c 223f 9f9b 8c3f
00000060: 0000 0000 1c26 833d 0000 0000 19bc 073f
00000070: 0000 0000 0000 0000 0000 0000 0000 0000
00000080: b1c1 9040 92a7 e23e a856 6837 4702 b73c
00000090: 944f 7241 ce86 0c36 82e2 6a3a 18ad 6e3f
000000a0: 622f ad3d c6fb f040 0000 0000 0000 0000
000000b0: f64c ca3c 29d8 d93f 44fb 8240 0000 0000
000000c0: d0e2 0141 9069 0b40 f706 d33e 0000 0000
000000d0: 1c37 2d41 5eb0 193f cfd1 be3c 8f58 2640
000000e0: 3927 a341 9ef7 783f 458f a241 0000 0000
000000f0: 0000 0000 0000 0000 dac1 3a3a 0000 0000
00000100: e512 f345 5062 5e42 a41b c440 a114 9841
00000110: 844c 7040 3874 e543 0000 0000 155a 913d
00000120: 905c 1e44 a0ab a844 2613 2045 5902 8140
00000130: 0000 0000 f216 9245 8b68 c643 e939 c742
00000140: 9904 0f44 8d98 0544 0000 0000 5725 0745
00000150: 788d b140 423c 363c 5cf3 9b43 00e3 0444
00000160: 0000 0000 e6cd e841 0000 0000 b923 ad43
00000170: 0000 0000 0000 0000 0000 0000 0000 0000
00000180: 4154 9e44 2158 f442 ffbf 9239 4e18 ac41
00000190: 2fe5 c644 55c9 3637 75f8 a23d fc5f dc43
000001a0: db10 0242 716e c444 0000 0000 0000 0000
000001b0: f166 c33f 3f54 0d44 4b30 6444 0000 0000
000001c0: cfae e944 463e 3344 633f f942 0000 0000
000001d0: 10ec b744 0854 9641 c924 2741 6e90 3b44
000001e0: f8d0 8d45 d67c 2944 ab3c 1145 0000 0000
000001f0: 0000 0000 0000 0000 bdc3 1c3e 0000 0000
00000200: 8206 6646 b80c 0b44 5e63 d940 eb1f b842
00000210: dca5 0a43 2171 1d44 0000 0000 33a4 cd3d
00000220: de8f d944 a405 0945 64d3 8245 e306 bc40
00000230: 0000 0000 6ea4 0046 867c ce43 d15e cc42
00000240: 26bb 1344 fd6e 0a44 0000 0000 05ce 9c45
00000250: f2d9 b640 1029 5d3b 609a b943 0ab1 1044
00000260: 0000 0000 aafe f241 0000 0000 d505 b443
00000270: 0000 0000 0000 0000 0000 0000 0000 0000
00000280: e725 fd44 88e7 4143 874c 8d39 f502 b241
00000290: 5374 7645 1608 1637 a19b d83d 3b84 ed43
000002a0: 499d 0542 71b7 1e45 0000 0000 0000 0000
000002b0: d5dc 963f fc14 4a44 9a3d b244 0000 0000
000002c0: e591 4045 20dc 8244 866f 2643 0000 0000
000002d0: f037 4345 6609 7d42 35bc 2f41 990f 8544
000002e0: e7a4 f145 0c70 2d44 06cb ac45 0000 0000
000002f0: 0000 0000 0000 0000 dc56 3f3e 0000 0000
00000300: 7526 e945 a629 4e42 a5c3 c240 671f 2041
00000310: 4f5c 5640 6841 dc43 0000 0000 1bc1 913d
00000320: fa66 1744 9db1 9f44 9471 1a45 2843 8340
00000330: 0000 0000 a6cd 8b45 036a be43 8410 c342
00000340: f479 0a44 d4cb 0244 0000 0000 8339 0145
00000350: a0f8 ae40 a30f 503b 489e 9443 a7bd 0044
00000360: 0000 0000 85be de41 0000 0000 e4e6 a943
00000370: 0000 0000 0000 0000 0000 0000 0000 0000
00000380: b555 9744 2b64 e642 4a0b ca39 73b8 a841
00000390: 7ccd bd44 2dd0 3338 93cd 9f3d a993 d043
000003a0: 9fd6 f041 4042 bd44 0000 0000 0000 0000
000003b0: 2731 3e3f b5f7 0444 ce4a 5644 0000 0000
000003c0: 4d6f de44 1ae3 2c44 ebe2 f642 0000 0000
000003d0: 5ea7 ae44 2559 9041 c418 2141 d930 3444
000003e0: 4c8a 8745 6a78 2444 ac38 0845 0000 0000
000003f0: 0000 0000 0000 0000 cf55 0d3e 0000 0000
46.407196 4.2300086 0.016646583 0.53915596 1.3655281 2.3233202 0.0 0.00074754644
7.514507 5.5018344 10.615826 0.017148037 0.0 23.138248 0.686177 0.09435914
0.801674 0.6814038 0.0 18.994724 0.003965127 0.00046953492 0.63324976 1.0984992
0.0 0.06403753 0.0 0.5302139 0.0 0.0 0.0 0.0
4.523644 0.4426847 1.3848454e-05 0.022339953 15.144428 2.0940092e-06 0.0008960144 0.9323287
0.08456303 7.530734 0.0 0.0 0.024694901 1.7019092 4.093172 0.0
8.117874 2.178318 0.4121625 0.0 10.825954 0.6003474 0.023293404 2.5991552
20.394152 0.97252834 20.319956 0.0 0.0 0.0 0.0007124223 0.0
7778.362 55.59601 6.128374 19.010073 3.7546701 458.90796 0.0 0.0709726
633.4463 1349.3633 2561.1968 4.0315366 0.0 4674.868 396.81674 99.613106
572.07184 534.3836 0.0 2162.3337 5.548519 0.011122765 311.90125 531.5469
0.0 29.100536 0.0 346.27908 0.0 0.0 0.0 0.0
1266.6329 122.17213 0.00027990338 21.511868 1591.162 1.0894922e-05 0.07957546 440.74988
32.51646 1571.4513 0.0 0.0 1.526579 565.31635 912.7546 0.0
1869.4628 716.973 124.6238 0.0 1471.377 18.79103 10.446481 750.2567
4538.121 677.95056 2323.7917 0.0 0.0 0.0 0.15309043 0.0
14721.627 556.1987 6.79338 92.06234 138.64789 629.76764 0.0 0.10041084
1740.4958 2192.3525 4186.424 5.8758407 0.0 8233.107 412.97284 102.18519
590.9242 553.7342 0.0 5017.7524 5.7141047 0.00337464 371.20605 578.76624
0.0 30.374348 0.0 360.04556 0.0 0.0 0.0 0.0
2025.1844 193.90442 0.00026950633 22.251444 3943.2703 8.942579e-06 0.10576559 475.03305
33.4036 2539.465 0.0 0.0 1.1786143 808.3279 1425.925 0.0
3081.1184 1046.8789 166.43564 0.0 3123.496 63.25918 10.983449 1064.4874
7732.613 693.75073 5529.378 0.0 0.0 0.0 0.18685478 0.0
7460.807 51.540672 6.0863824 10.007667 3.349384 440.511 0.0 0.0711691
605.609 1277.5504 2471.0986 4.101948 0.0 4473.706 380.82822 97.53226
553.9055 523.1848 0.0 2067.5945 5.4678497 0.0031747601 297.23657 514.9633
0.0 27.843027 0.0 339.80383 0.0 0.0 0.0 0.0
1210.6783 115.19564 0.00038536853 21.090063 1518.4214 4.2870804e-05 0.07802882 417.1536
30.104795 1514.0703 0.0 0.0 0.7429375 531.8704 857.1688 0.0
1779.4781 691.54846 123.4432 0.0 1397.2302 18.043528 10.068546 720.76324
4337.287 657.8815 2179.542 0.0 0.0 0.0 0.13802265 0.0

exp_avg f4 [13]
00000000: 80b7 03bc bdc7 4dbd e0f8 ac3d 0419 4e3d
00000010: 31ec 98bd 0000 0000 0000 0000 0000 0000
00000020: 0000 0000 0000 0000 0000 0000 0000 0000
00000030: 0000 0000
-0.008039355 -0.050239313 0.08445907 0.050316826 -0.07466925 0.0 0.0 0.0
0.0 0.0 0.0 0.0 0.0

exp_avg_sq f4 [13]
00000000: 2bf5 083b e71e 9b3e b0de 1d3f 2dda 933e
00000010: fd71 af3e 0000 0000 0000 0000 0000 0000
00000020: 0000 0000 0000 0000 0000 0000 0000 0000
00000030: 0000 0000
0.0020898085 0.30297014 0.6166792 0.28877392 0.34266654 0.0 0.0 0.0
0.0 0.0 0.0 0.0 0.0
