Op_problems/problem_pooling/checkpoints/mlp_checkpoint_epoch_250_loss_65.746293.pth (torch, 20659 bytes, 12 tensors)

nn.0.weight f4 [64, 4]
0	0x3f042ffd	0.51635724
1	0x3ef8f096	0.48621053
2	0xbdc0dcdc	-0.094171256
3	0x3f04fc3f	0.51947397
4	0xbea5e3dc	-0.32400405
5	0xbba3bbca	-0.0049967514
6	0xbe9a88b7	-0.3018243
7	0x3e68fddb	0.22753088
8	0x3e90edcf	0.28306434
9	0xbefb49b0	-0.49079657
10	0x3ebee6d3	0.3728548
11	0x3e8b1fb7	0.27172634
12	0x3e8bdcd6	0.27316922
13	0x3c979769	0.018504815
14	0x3e30be62	0.17260125
15	0xbe0bbc24	-0.13645989
16	0x3e5f64e0	0.21815825
17	0xbd6083d0	-0.054813206
18	0xbea80ce2	-0.3282233
19	0xbc01c33b	-0.007920082
20	0xbd749bbd	-0.059718836
21	0xbafb04a9	-0.0019151169
22	0xbe73d184	-0.23810393
23	0x3ead540b	0.33853182
24	0xbeca142a	-0.3946851
25	0xbe6c098c	-0.23050517
26	0xbe10936c	-0.14118737
27	0xbe99ecfe	-0.30063623
28	0xbeadd9bc	-0.3395518
29	0xbf0421b0	-0.51613903
30	0x3f0c5758	0.54820776
31	0xbe3e68ef	-0.18594716
32	0x3ecfd133	0.40589294
33	0x3c0849de	0.008318393
34	0xbddb5d3a	-0.10711141
35	0x3e72ef43	0.23724084
36	0x3e3b8ee4	0.18316227
37	0x3eeace4a	0.4586051
38	0x3db309aa	0.08742078
39	0xbddd6b07	-0.108114295
40	0x3ea17a08	0.31538415
41	0xbd7d9bfb	-0.061916333
42	0x3e5d05e4	0.21584278
43	0x3ef9291e	0.48664182
44	0x3dab2f6e	0.08358656
45	0xbeaef199	-0.341687
46	0x3e803312	0.25038964
47	0x3e58a1d1	0.21155478
48	0x3e82017a	0.25391752
49	0xbe9c0886	-0.30475253
50	0xbefd6aa4	-0.49495423
51	0xbe45d10c	-0.19318026
52	0xbe752c0f	-0.23942588
53	0x3ee60a01	0.44929507
54	0x3e242a16	0.1603168
55	0x3e866a49	0.26252964
56	0x3e641ef0	0.22277427
57	0x3e4ada42	0.19809821
58	0x3f038b0f	0.5138406
59	0xbe67196a	-0.22568288
60	0xbe9d0f18	-0.30675578
61	0xbe7c6adf	-0.24650143
62	0x3eab7506	0.3348772
63	0x3e7e684c	0.24844474
64	0xbe3fbf25	-0.1872526
65	0x3d2d37fe	0.042289726
66	0x3f21bd59	0.63179547
67	0xbd019ef2	-0.031645723
68	0xbf1fa8dc	-0.62367034
69	0xbe8af371	-0.27138856
70	0x3f2ac4e5	0.6670669
71	0x3e9ee13b	0.31031212
72	0x3ef65610	0.48112535
73	0xbed3454e	-0.41263813
74	0xbefdeb98	-0.49593806
75	0xbec848fe	-0.3911819
76	0xbec828df	-0.39093682
77	0x3e0a2961	0.13492347
78	0x3de7c81d	0.113174655
79	0x3eaba550	0.3352456
80	0x3d19990d	0.037499476
81	0xbea9e950	-0.33185816
82	0x3e9c2f67	0.30504915
83	0x3e458eee	0.19292805
84	0x3e2cc854	0.16873294
85	0xbe55f492	-0.20894077
86	0x3e44fb19	0.19236411
87	0xbee8b55a	-0.4545086
88	0xbe1203c6	-0.14259252
89	0x3e5c1de4	0.21495777
90	0x3df4eb08	0.11958891
91	0xbd74b9c2	-0.059747465
92	0x3f108936	0.5645937
93	0x3efcbf0c	0.49364507
94	0xbe931da5	-0.28733554
95	0xbe1ae4f1	-0.15126397
96	0x3eea68d2	0.45783097
97	0xbe2cc3f4	-0.16871625
98	0xbe35832c	-0.1772582
99	0xbef7b448	-0.4837973
100	0x3eb3616b	0.35035262
101	0x3eadd143	0.33948717
102	0xbc8b7403	-0.017023092
103	0xbeae6cc7	-0.34067366
104	0x3c402840	0.011728346
105	0xbeaede6e	-0.34154075
106	0xbed93086	-0.42419833
107	0xbe8cf83a	-0.27533132
108	0xbed9bc43	-0.42526445
109	0xbe8a6779	-0.27032068
110	0x3f1173b7	0.5681719
111	0x3e9158d2	0.28388077
112	0x3e1dc71c	0.15407985
113	0xbeeec466	-0.46634215
114	0xbea82254	-0.3283869
115	0xbe2a6c14	-0.16642791
116	0x3da01fc0	0.07818556
117	0xbee14286	-0.43996066
118	0xbe5c9b64	-0.21543652
119	0xbe994258	-0.2993343
120	0x3ab59e00	0.0013856292
121	0xbe3e8450	-0.1860516
122	0xbd0deaf0	-0.034647882
123	0xbead7924	-0.33881485
124	0xbeafb798	-0.34319758
125	0xbe9559d2	-0.2917009
126	0xbe2f419c	-0.17114872
127	0xbeca0e50	-0.39464045
128	0x3ef21798	0.47283626
129	0xbd6f89dc	-0.058481082
130	0x3ee0b49a	0.43887788
131	0x3e58ac86	0.21159562
132	0xbed987d4	-0.4248644
133	0x3ea2cfcd	0.31799164
134	0xbd9b6a67	-0.07588654
135	0xbe29bd4a	-0.16576114
136	0x3e897a85	0.26851287
137	0xbf0b8744	-0.54503274
138	0x3e97e2fe	0.2966537
139	0xbdee7ffe	-0.11645506
140	0x3e6f0b5f	0.23344181
141	0xbec397b8	-0.3820169
142	0x3f068351	0.5254412
143	0x3e0c9bb2	0.13731268
144	0xbe434ac1	-0.19071485
145	0x3d25c6ff	0.04047298
146	0x3e491611	0.19637324
147	0x3ea5c9e1	0.32380584
148	0x3ed83141	0.42225078
149	0xbedc0054	-0.42969
150	0x3dbda792	0.09260477
151	0xbe7e403d	-0.24829192
152	0xbf0b793b	-0.5448186
153	0xbe451990	-0.19248033
154	0x3efa21df	0.48853967
155	0xbec83360	-0.39101696
156	0x3eeae31b	0.45876393
157	0x3e8a5430	0.27017355
158	0x3e7e09ae	0.2480838
159	0xbe46b05d	-0.19403215
160	0x3f21f064	0.6325743
161	0x3ec509e2	0.38484102
162	0xbcc89ead	-0.024489725
163	0xbed6cd15	-0.4195334
164	0x3eb90a79	0.36140803
165	0x3c75f6d1	0.015012459
166	0xbe40d91a	-0.18832818
167	0x3efbbd33	0.49167785
168	0x3de44cb0	0.111474395
169	0xbe8da386	-0.2766382
170	0xbe819252	-0.25306946
171	0xbcc39b80	-0.02387786
172	0x3e8ef0c4	0.27918065
173	0xbe02d554	-0.1277669
174	0xbe921132	-0.28528744
175	0xbe2f54ac	-0.17122144
176	0x3f39b51d	0.7254198
177	0xbb668853	-0.003517647
178	0x3ed2d5cd	0.41178742
179	0xbf1223b8	-0.5708575
180	0x3e96feb4	0.29491198
181	0x3e9d5c42	0.3073445
182	0x3dfaf847	0.122543864
183	0xbe2a0594	-0.1660369
184	0x3f09c229	0.5381189
185	0x3eb0a2c2	0.34499174
186	0x3e839060	0.25696087
187	0xbe4f03f0	-0.20216346
188	0xbe079408	-0.13240063
189	0x3d5b18d0	0.05349046
190	0xbdb4e4d0	-0.08832705
191	0xbe189398	-0.14900053
192	0x3eec2db3	0.46128616
193	0x3f0091ae	0.5022229
194	0xbd07647a	-0.033054806
195	0xbd47ff6e	-0.04882758
196	0x3e0269db	0.12735693
197	0x3d13e9bf	0.03611159
198	0x3e1bde7b	0.15221588
199	0x3e42f107	0.19037257
200	0xbf0722e8	-0.5278764
201	0xbe6c5b7e	-0.23081776
202	0x3ebc4f1c	0.36779106
203	0x3e6d4f2d	0.23174734
204	0xbccbb9a0	-0.024868786
205	0xbe9a5808	-0.30145288
206	0xbe9c9f42	-0.30590254
207	0xbee550fa	-0.44788343
208	0xbe1b0bd4	-0.15141231
209	0x3e08bf83	0.13354306
210	0x3e81e54d	0.25370255
211	0x3e312902	0.173008
212	0xbf393e39	-0.7236057
213	0xbf05bc65	-0.5224059
214	0x3d94ad17	0.07259577
215	0x3f0b1d21	0.5434132
216	0x3ee2b9fc	0.4428252
217	0x3e15f7f6	0.14645371
218	0x3e230e59	0.15923442
219	0xbe8ae4da	-0.27127725
220	0xbe1a2ef4	-0.15056974
221	0x3ee54dc8	0.44785905
222	0xbe4eff2a	-0.20214525
223	0xbd28b3b9	-0.041187022
224	0xbebe7436	-0.37198037
225	0x3ec6a86a	0.38800365
226	0x3ec41cc0	0.38303185
227	0x3e7b3533	0.24532013
228	0x3d2aa217	0.041658487
229	0xbe92f407	-0.28701803
230	0xbde01810	-0.109420896
231	0x3f1ba0df	0.60792345
232	0x3e1f0cae	0.1553218
233	0x3eaff7c8	0.3436873
234	0x3e52ff2c	0.20605153
235	0x3d4f0d10	0.050549567
236	0xbba07180	-0.0048963428
237	0xbec2b086	-0.38025302
238	0xbedb556c	-0.4283861
239	0xbeef7302	-0.46767431
240	0x3e5197e4	0.20468098
241	0xbe7b6028	-0.245484
242	0xbdce1528	-0.10062629
243	0xbe935450	-0.28775263
244	0xbdba98d0	-0.09111178
245	0xbeb42e86	-0.35191745
246	0xbea74640	-0.32670784
247	0x3e29d600	0.16585541
248	0x3c239aec	0.009985667
249	0x3e9991fe	0.29994196
250	0x3d024461	0.031803492
251	0xbf03fc76	-0.515571
252	0xbdb4ac68	-0.088219464
253	0xbe7830d0	-0.2423737
254	0xbe1ca460	-0.15297079
255	0xbef3b5fc	-0.4759978

nn.0.bias f4 [64]
0	0x3e794c46	0.24345502
1	0xbe997f3f	-0.29979894
2	0x3ecffb97	0.40621635
3	0x3e5dec2c	0.21672124
4	0x3e617fd9	0.22021426
5	0xbec4467b	-0.38335022
6	0x3eb81d48	0.3595984
7	0x3d65bf1f	0.05609047
8	0x3df2c4ea	0.118539646
9	0x3ee49fc1	0.44653133
10	0xbc1487ed	-0.00906561
11	0x3d98efe4	0.074676305
12	0xbdebc190	-0.115115285
13	0xbeb13141	-0.3460789
14	0x3f00b8b9	0.50281864
15	0xbe4135b0	-0.18868136
16	0x3f0724a2	0.5279027
17	0x3f1e2470	0.6177435
18	0x3ef219d0	0.47285318
19	0xbe0dace8	-0.1383549
20	0xbe923796	-0.28558034
21	0x3d942fc1	0.07235671
22	0x3e6c28c6	0.23062429
23	0xbecfb347	-0.40566465
24	0xbde86e68	-0.11349183
25	0x3e15feb9	0.1464795
26	0xbd332030	-0.04373187
27	0xbe949c52	-0.29025513
28	0xbe5149fc	-0.20438379
29	0xbe2289f8	-0.15872943
30	0xbef34720	-0.47515202
31	0x3ed20cc8	0.41025376
32	0x3ebb66f1	0.36601976
33	0x3dc79f4b	0.097471796
34	0xbd4309b1	-0.047616664
35	0xbc3e3f01	-0.011611701
36	0xbf17ae76	-0.5925058
37	0xbf0511a9	-0.5198007
38	0x3eaf7a95	0.3427321
39	0xbbfefe45	-0.007781776
40	0xbdef59b2	-0.1168703
41	0xbd681784	-0.05666305
42	0xbe2a8070	-0.16650558
43	0xbe25a484	-0.16176039
44	0x3d924ed9	0.07143945
45	0xbdb1a45f	-0.086739294
46	0xbe9ad831	-0.30243066
47	0xbe75260c	-0.23940295
48	0xbef5f354	-0.48037207
49	0x3ec2a916	0.38019627
50	0xbe44bd4d	-0.19212838
51	0x3e07ab64	0.13248974
52	0xbe63044d	-0.2216961
53	0xbd93cf82	-0.07217313
54	0x3efd00ec	0.49414766
55	0x3e8c0c0a	0.27352935
56	0xbeb4140b	-0.35171542
57	0x3efec09a	0.49756318
58	0x3f09a16c	0.53761935
59	0x3e06b2dc	0.13154167
60	0x3eaba0f4	0.33521235
61	0x3efc6320	0.49294376
62	0xbe3037f3	-0.17208843
63	0x3dd48928	0.10377723

nn.2.weight f4 [13, 64]
0	0xbd68b6a4	-0.056814805
1	0x3c2a0983	0.010378244
2	0xbc1ba353	-0.009499389
3	0x3ceb1681	0.028697254
4	0xbd347bfa	-0.044063546
5	0xbd685f22	-0.05673135
6	0xbdaef0ec	-0.08542046
7	0xbbef95cc	-0.0073115584
8	0xbd88b833	-0.06675758
9	0xbb20c696	-0.002453243
10	0x3dd1c594	0.10242763
11	0xbcf4b53e	-0.02987158
12	0xbdc2b70a	-0.09507568
13	0xbd96c4c7	-0.07361751
14	0x3b318e15	0.0027092744
15	0xbda08c19	-0.078392215
16	0xbd2bc492	-0.04193551
17	0x3b97fc0f	0.004638202
18	0xbd6cf5b4	-0.05785151
19	0x3c637159	0.013882005
20	0x3cbeca37	0.023289783
21	0x3d2d2903	0.04227544
22	0xbd2a3e7c	-0.041563496
23	0xbcdf7ca4	-0.027281113
24	0xbdcef07c	-0.101044625
25	0x3842b38a	4.6420413e-05
26	0x3df74124	0.120729715
27	0xbe3b3468	-0.1828171
28	0xbdabe942	-0.083941
29	0x3cf83630	0.030299276
30	0x3d0d1ccc	0.03445129
31	0x3d8c43d0	0.06848872
32	0x3db7888b	0.089615904
33	0x3e016fae	0.12640259
34	0x3cb41fbf	0.021987794
35	0xbbb7def3	-0.0056112944
36	0x3dc2353a	0.094828084
37	0x3c827a71	0.015927525
38	0x3d05a856	0.03263124
39	0x3d3c183f	0.04592156
40	0xbd7683fa	-0.060184456
41	0xbd016deb	-0.031598967
42	0xbde6cc50	-0.11269438
43	0x3bb6f620	0.0055835396
44	0x3c071d35	0.00824671
45	0x3cfb5da4	0.0306843
46	0x3cb2718c	0.021782659
47	0xbdc225ae	-0.09479843
48	0xbdc62efd	-0.09676931
49	0x3cdde51b	0.027086785
50	0x3d0582cf	0.032595452
51	0x3d93b11e	0.07211517
52	0xbd61ece4	-0.055157557
53	0x3d46acb8	0.04850456
54	0xbc3eaefc	-0.011638399
55	0x3b9840b0	0.004646383
56	0x3d31625c	0.043306693
57	0x3d9d989f	0.07695126
58	0x3e00e086	0.12585649
59	0xbdeb0900	-0.11476326
60	0x3dab2a5e	0.0835769
61	0xbdb48e06	-0.08816151
62	0xbd8f0ad8	-0.0698449
63	0x3dd8a388	0.10578066
64	0xbbc4d3c8	-0.0060066916
65	0x3d3e48b6	0.04645606
66	0xbf00d784	-0.5032885
67	0xbcb936d4	-0.022609152
68	0x3d592f00	0.05302334
69	0xbdf277d3	-0.11839261
70	0xbcd19cf0	-0.025587529
71	0xbe26497a	-0.16238967
72	0x3d571cb9	0.052517626
73	0x3dc5dd7c	0.096613854
74	0x3d1ce049	0.038299832
75	0xbec4399c	-0.38325202
76	0xbdcfced2	-0.1014687
77	0x3c9fdd5b	0.01951473
78	0x3e49f841	0.19723608
79	0xbd7fbdd0	-0.06243688
80	0x3e16cb75	0.1472605
81	0x3e4e0d7d	0.20122333
82	0x3c2324a0	0.009957463
83	0x3bf8e890	0.007596083
84	0xbeca8195	-0.39551988
85	0xbceea5c4	-0.029131778
86	0xbd206efb	-0.03916834
87	0xbd99de84	-0.075131446
88	0xbd82215a	-0.063540176
89	0x3eec0a5f	0.46101663
90	0xbd150c78	-0.036388844
91	0x3dd93449	0.10605676
92	0x3df413fa	0.11917873
93	0x3d325760	0.04354036
94	0x3db680c4	0.08911279
95	0xbd77dda0	-0.060514092
96	0x3be670db	0.0070324964
97	0x3d29ee8b	0.041487258
98	0x3e9ff6ed	0.31243077
99	0xbe9a58e4	-0.30145943
100	0x3c207402	0.009793283
101	0xbd834309	-0.0640927
102	0x3d4d470e	0.05011659
103	0x3e465a89	0.19370474
104	0x3f012a44	0.5045512
105	0xbd2913e1	-0.041278724
106	0xbcb24ac0	-0.02176416
107	0xbded203a	-0.11578412
108	0x3e4c3558	0.19942224
109	0x3db9fe5a	0.09081717
110	0x3df52c16	0.11971299
111	0xbc817398	-0.01580219
112	0xbce54c89	-0.027990596
113	0x3db18cda	0.086694434
114	0xbca26217	-0.019822164
115	0x3da1cbee	0.079002246
116	0xbcb0f42a	-0.021600801
117	0x3e78f0be	0.24310586
118	0x3e201fae	0.15637085
119	0xbba934c0	-0.005163759
120	0xbc650b9c	-0.013979819
121	0xbe01fc1d	-0.1269383
122	0x3ca0a240	0.019608617
123	0x3dc7d55e	0.097574934
124	0x3df62396	0.12018506
125	0xbd797118	-0.06089887
126	0xbe2856d3	-0.16439371
127	0x3dcd63aa	0.10028775
128	0x3e321558	0.17390954
129	0xbce29675	-0.027659634
130	0x3f01300d	0.50463945
131	0xbd43bbc9	-0.047786508
132	0xbd5423b3	-0.051791858
133	0x3db4dc88	0.088311255
134	0x3d0835b0	0.033254325
135	0x3e252f33	0.16131286
136	0x3d3f987d	0.046776284
137	0x3e46b409	0.19404615
138	0x3db02741	0.08601237
139	0x3e527462	0.20552209
140	0xbbe7e3e0	-0.0070767254
141	0x3dcdbafc	0.1004543
142	0xbd6e7495	-0.05821665
143	0xbeb57890	-0.35443544
144	0xbe32f72b	-0.174771
145	0xbe926bfc	-0.2859801
146	0xbdd4b882	-0.103867546
147	0xbc20c478	-0.009812467
148	0x3f031109	0.5119787
149	0xbd989cf8	-0.074518144
150	0x3e348cdf	0.17631863
151	0x3e9e2264	0.30885613
152	0x3dc16524	0.09443119
153	0xbf132a8f	-0.57486814
154	0xbd8cdbbc	-0.068778485
155	0xbe0be9cd	-0.13663407
156	0xbd84a7a0	-0.064772844
157	0xbdacc402	-0.08435823
158	0xbd237fc0	-0.039916754
159	0x3cd6e558	0.026232406
160	0x3e02167e	0.12703893
161	0x3d1e3e4c	0.03863363
162	0xbf058cb3	-0.52167815
163	0x3ead5988	0.3385737
164	0xbc9d14c6	-0.019174945
165	0xbdc5bd57	-0.09655254
166	0xbe069546	-0.13142881
167	0x3da3fb9f	0.08006977
168	0xbe93a715	-0.2883841
169	0x3e4eeb96	0.20207056
170	0x3d19245c	0.03738819
171	0x3d303570	0.043019712
172	0xbe4e505b	-0.2014784
173	0x3db3e4ad	0.08783851
174	0x3d814eb7	0.06313842
175	0x3ae12f00	0.0017180145
176	0x3e07bb74	0.13255101
177	0x3e3c57c2	0.18392852
178	0xbda4f091	-0.08053697
179	0xbd586e34	-0.052839473
180	0x3cc87dba	0.024474014
181	0xbe98fde5	-0.29881206
182	0xbe78d89d	-0.24301381
183	0x3e3d84a4	0.1850763
184	0x3e2402e4	0.16016728
185	0x3e5616e7	0.20907174
186	0xbcd1af8d	-0.025596404
187	0xbd89657c	-0.0670881
188	0xbce0fc08	-0.027463928
189	0xbcbcbf78	-0.023040518
190	0x3e008c81	0.12553598
191	0xbdeb002e	-0.11474644
192	0x3d4a142d	0.049335647
193	0xbdb8dcbf	-0.09026479
194	0x3ee73cc7	0.45163557
195	0xbd59243e	-0.05301308
196	0x3dd0c650	0.10194075
197	0xbdc93251	-0.0982405
198	0x3dc11e2e	0.094295844
199	0x3e12bca7	0.14329778
200	0xbafe20d3	-0.0019388444
201	0x3da5468a	0.08070095
202	0x3c08c247	0.008347101
203	0x3f030f62	0.5119535
204	0x3db91782	0.09037687
205	0xbda95143	-0.082674526
206	0xbd30bfbc	-0.043151602
207	0x3e19f6f6	0.15035614
208	0x3dadab43	0.08479931
209	0x3e1989ad	0.14993925
210	0x3d0c0c40	0.03419137
211	0xbd041d80	-0.032254696
212	0x3eb280da	0.3486393
213	0x3d6d1b9f	0.05788767
214	0x3dbe46f1	0.09290875
215	0xbde7d41c	-0.113197535
216	0xbdf0c6a2	-0.11756636
217	0xbee0757d	-0.43839636
218	0xbdae5448	-0.08512169
219	0x3e80a0e4	0.2512275
220	0xbd9b6a14	-0.07588592
221	0xbc13de70	-0.009025201
222	0xbce344f0	-0.027742833
223	0x3cb63988	0.02224423
224	0x3e045bc1	0.12925626
225	0x3d23029b	0.039797407
226	0xbe72074a	-0.23635593
227	0x3ea07f39	0.31347063
228	0x3df95a01	0.1217537
229	0xbb97a865	-0.0046282285
230	0x3d8ae594	0.0678207
231	0xbc63bcb9	-0.013899975
232	0xbed46f6e	-0.41491264
233	0x3d804535	0.062632
234	0xbcdfb600	-0.027308464
235	0xbdada1f2	-0.08478154
236	0xbdf9a5a7	-0.12189799
237	0x3c2c022a	0.010498563
238	0x3d7d1118	0.06178388
239	0x3dfe551a	0.124185756
240	0x3da5c9ff	0.08095168
241	0x3e0a1f6e	0.13488552
242	0x3d524421	0.051334504
243	0xbddc36e4	-0.10752657
244	0xbd7ecadc	-0.06220518
245	0xbeb5d45d	-0.35513583
246	0xbdeb053f	-0.1147561
247	0xbd8db6f8	-0.06919664
248	0xbdb15c15	-0.086601414
249	0xbcb6ebf6	-0.022329312
250	0xbd60a2c3	-0.05484272
251	0xbdfc5f9c	-0.123229235
252	0xbd9d22d0	-0.076726556
253	0x3d433ae4	0.047663584
254	0x3ea04fda	0.31310922
255	0xbd184d0c	-0.037182853

nn.2.bias f4 [13]
0	0x3f372529	0.71541077
1	0x3dd2f298	0.10300177
2	0xbd58fba2	-0.05297435
3	0xbe0e42dc	-0.13892692
4	0x3e3aebd5	0.18254025
5	0x3daf9620	0.08573556
6	0xbdc7640a	-0.09735878
7	0x3de9aea6	0.11410265
8	0x3c1ebd70	0.00968872
9	0x3d764110	0.060120642
10	0x3dc6d442	0.09708454
11	0x3dda3e0a	0.10656364
12	0xbdc78f98	-0.09744185

exp_avg f4 [64, 4]
0	0xbe9deaa4	-0.3084308
1	0xc0800325	-4.000384
2	0xbf77c39c	-0.9678285
3	0xc08fb25d	-4.490523
4	0x3ea84c20	0.3287058
5	0x409960c3	4.7930617
6	0x3fb05250	1.377512
7	0x40a45370	5.1351852
8	0xbf09723c	-0.5368993
9	0xc11de64b	-9.868724
10	0xc0a2c5de	-5.0866537
11	0xc145fc18	-12.374046
12	0x3cbb711e	0.022881087
13	0x3d9924ce	0.07477723
14	0x3d7bd229	0.06147972
15	0x3d978538	0.07398456
16	0x01a2a422	5.974492e-38
17	0x02811aeb	1.8970297e-37
18	0x001f428f	2.870777e-39
19	0x02af1cc9	2.573046e-37
20	0xbe3a4ed7	-0.18194138
21	0xc0162b48	-2.3463917
22	0xbf21b484	-0.6316607
23	0xc0222602	-2.5335698
24	0x00000000	0.0
25	0x00000000	0.0
26	0x00000000	0.0
27	0x00000000	0.0
28	0x3c5006cd	0.012696934
29	0x3ddd2638	0.10798305
30	0x3e0db73d	0.13839431
31	0x3d3239bb	0.043512087
32	0x3d616ad4	0.05503352
33	0x3f5e540f	0.86847013
34	0x3e327b50	0.17429852
35	0x3f811f4b	1.0087675
36	0xbe65d500	-0.22444534
37	0xc037e922	-2.8736043
38	0xbf3595ce	-0.7093171
39	0xc04dfb02	-3.2184453
40	0xbda084ff	-0.07837867
41	0xbf876c1e	-1.057987
42	0xbe82a94e	-0.25519794
43	0xbf97096b	-1.1799749
44	0xbee2f720	-0.44329166
45	0xc0db182c	-6.8467007
46	0xc0531a92	-3.2984967
47	0xc10ddbe5	-8.866185
48	0x00000000	0.0
49	0x00000000	0.0
50	0x00000000	0.0
51	0x00000000	0.0
52	0x3ce876b0	0.028376907
53	0x3f19ef99	0.6013122
54	0x3db2bfb5	0.087279715
55	0x3f420f39	0.7580448
56	0x3ec8aaf5	0.3919293
57	0x409497c9	4.6435285
58	0x3fa66aa8	1.3001299
59	0x40a3dd1e	5.120742
60	0x3f04aa16	0.5182203
61	0x40f50490	7.656807
62	0x3ff0ca3d	1.8811718
63	0x410962be	8.586607
64	0x3e6831cf	0.2267525
65	0x404a4646	3.1605392
66	0x3f616419	0.8804336
67	0x4056f389	3.3586142
68	0x3f3539b2	0.7079116
69	0x4122f85b	10.185634
70	0x401d3e7c	2.4569387
71	0x413717d5	11.443318
72	0x00000000	0.0
73	0x00000000	0.0
74	0x00000000	0.0
75	0x00000000	0.0
76	0x3b8896e0	0.0041683763
77	0x39b15970	0.00033826707
78	0x3cb366c0	0.021899581
79	0xbcb3f1ac	-0.021965824
80	0xbf0e906f	-0.5568914
81	0xc0496cd8	-3.1472683
82	0xbf301091	-0.6877528
83	0xc0d3ed92	-6.6227503
84	0xb817c97b	-3.618885e-05
85	0xbb087d8b	-0.0020826783
86	0xbb85d4e8	-0.0040842183
87	0xb8a8f489	-8.0564125e-05
88	0xbeab4b6d	-0.33455983
89	0xc08ae0a8	-4.339924
90	0xbf869873	-1.0515274
91	0xc09ba680	-4.8640747
92	0xbf390cdb	-0.7228524
93	0xc11a2016	-9.6328335
94	0xc014afb6	-2.3232245
95	0xc12e392e	-10.88896
96	0x00000000	0.0
97	0x00000000	0.0
98	0x00000000	0.0
99	0x00000000	0.0
100	0x3f9886ab	1.1916097
101	0x414f306e	12.949324
102	0x4046e7ce	3.1078982
103	0x41540580	13.251343
104	0x00000000	0.0
105	0x00000000	0.0
106	0x00000000	0.0
107	0x00000000	0.0
108	0x3e962c3f	0.29330632
109	0x408fba63	4.4915023
110	0x3f8a1d1c	1.0790133
111	0x40a0f796	5.030223
112	0x00000000	0.0
113	0x00000000	0.0
114	0x00000000	0.0
115	0x00000000	0.0
116	0x00000000	0.0
117	0x00000000	0.0
118	0x00000000	0.0
119	0x00000000	0.0
120	0x00000000	0.0
121	0x00000000	0.0
122	0x00000000	0.0
123	0x00000000	0.0
124	0x00000000	0.0
125	0x00000000	0.0
126	0x00000000	0.0
127	0x00000000	0.0
128	0xbe0faeee	-0.14031574
129	0xbfe58c15	-1.7933375
130	0xbeeae9e0	-0.45881557
131	0xbffc7aa2	-1.9724925
132	0xbd91426f	-0.07092749
133	0xbf495a8e	-0.786538
134	0xbe2a8a45	-0.16654308
135	0xbf67cb6b	-0.90544766
136	0xb98a79d6	-0.00026412186
137	0x3aac3cec	0.0013140715
138	0x3a8ba5d9	0.0010654285
139	0xb99b911c	-0.0002967202
140	0xbeeaab83	-0.45833978
141	0x4040426c	3.004054
142	0x4024f3d1	2.5773814
143	0xbf8c17af	-1.0944728
144	0xbde59f6c	-0.11212048
145	0xbfd84082	-1.6894686
146	0xbeb16b7b	-0.34652314
147	0xbffd215c	-1.9775805
148	0x00000004	6e-45
149	0x00000004	6e-45
150	0x00000004	6e-45
151	0x00000004	6e-45
152	0x3c43981d	0.011938122
153	0x3d9851a6	0.07437448
154	0x3dd24d56	0.10268657
155	0x3d18cb90	0.037303507
156	0xbc70f61d	-0.0147071155
157	0xbe860010	-0.26171923
158	0xbcbe9a06	-0.023266803
159	0xbec5afcd	-0.38610688
160	0x3f78238a	0.9692923
161	0x40ef8d34	7.4859867
162	0x3ff30377	1.8985432
163	0x4102ef42	8.183413
164	0xbede1f14	-0.43383086
165	0xc0b7b54f	-5.7408824
166	0xbfb83858	-1.4392195
167	0xc0cbbbae	-6.36666
168	0x00000000	0.0
169	0x00000000	0.0
170	0x00000000	0.0
171	0x00000000	0.0
172	0x00000000	0.0
173	0x00000000	0.0
174	0x00000000	0.0
175	0x00000000	0.0
176	0xbe4907b3	-0.19631843
177	0xbf8884b7	-1.0665501
178	0xbf685dd8	-0.90768194
179	0xbf16b084	-0.5886309
180	0xbdacbd30	-0.08434522
181	0xbf90d03a	-1.1313546
182	0xbe85412b	-0.26026282
183	0xbfa57f49	-1.2929469
184	0xbe12b02f	-0.14325021
185	0xc0016ee9	-2.0223944
186	0xbede3ec7	-0.4340727
187	0xc016f236	-2.3585334
188	0x00000000	0.0
189	0x00000000	0.0
190	0x00000000	0.0
191	0x00000000	0.0
192	0xbea9852e	-0.3310942
193	0xc08b553f	-4.354156
194	0xbf83b507	-1.028962
195	0xc09d8a6e	-4.923148
196	0xbe9d016b	-0.30665144
197	0xc081f0fc	-4.060667
198	0xbf7735ee	-0.96566665
199	0xc092f937	-4.5929217
200	0x3dee3c23	0.11632564
201	0x400be719	2.18598
202	0x3f024636	0.50888383
203	0x402210c2	2.5322728
204	0x00000000	0.0
205	0x00000000	0.0
206	0x00000000	0.0
207	0x00000000	0.0
208	0xbda8091a	-0.08204861
209	0xbf8c6e3e	-1.0971143
210	0xbe778755	-0.24172719
211	0xbfa0924d	-1.2544647
212	0x3f808b24	1.0042462
213	0x412f7447	10.965888
214	0x400b7ce6	2.1794982
215	0x4163457f	14.204467
216	0x3e987d50	0.29783106
217	0x40195435	2.3957646
218	0x3f579f36	0.8422731
219	0x40358bda	2.8366609
220	0xbe945c41	-0.28976634
221	0xc0724695	-3.785558
222	0xbf691403	-0.9104616
223	0xc087d027	-4.244159
224	0xbd69280d	-0.05692296
225	0xbf0c6d6d	-0.5485447
226	0xbe495def	-0.19664739
227	0xbf0232b7	-0.50858635
228	0x3de6bccc	0.11266479
229	0x3fd9e4bf	1.7022933
230	0x3ed36678	0.41289115
231	0x3ffd06cf	1.9767703
232	0x3dd5e029	0.10443146
233	0x3fa65dbf	1.2997359
234	0x3ea663a4	0.32497895
235	0x3fbb147b	1.4615625
236	0x00000000	0.0
237	0x00000000	0.0
238	0x00000000	0.0
239	0x00000000	0.0
240	0x00000000	0.0
241	0x00000000	0.0
242	0x00000000	0.0
243	0x00000000	0.0
244	0x00000000	0.0
245	0x00000000	0.0
246	0x00000000	0.0
247	0x00000000	0.0
248	0x3ed1d3b7	0.40981838
249	0x4087535f	4.228927
250	0x404c574b	3.192828
251	0x40108cb5	2.258588
252	0x00000000	0.0
253	0x00000000	0.0
254	0x00000000	0.0
255	0x00000000	0.0

exp_avg_sq f4 [64, 4]
0	0x40d7b78d	6.741156
1	0x43dfcea0	447.61426
2	0x42af4f05	87.654335
3	0x43d61936	428.19696
4	0x40ba4688	5.82111
5	0x43ecf22c	473.89197
6	0x429c02be	78.005356
7	0x43f91c40	498.2207
8	0x43199d17	153.61363
9	0x45afcc8a	5625.5674
10	0x44d1f640	1679.6953
11	0x45d69dc5	6867.721
12	0x3f7fc871	0.99915224
13	0x42695c45	58.340107
14	0x4134d554	11.302082
15	0x4254ca03	53.197277
16	0x3e1c02b9	0.15235414
17	0x40d57335	6.6703134
18	0x3ecdfcb5	0.40231863
19	0x40d2fe0c	6.5935116
20	0x4005231e	2.0802684
21	0x4308bcc8	136.73743
22	0x41cef138	25.867783
23	0x4303a3e6	131.64023
24	0x00000000	0.0
25	0x00000000	0.0
26	0x00000000	0.0
27	0x00000000	0.0
28	0x3b05b322	0.002040096
29	0x3e47ec99	0.19523849
30	0x3ebc24d6	0.36746854
31	0x3d8cdb91	0.068778165
32	0x3ee60b06	0.44930285
33	0x41f43ad0	30.528717
34	0x40c44dbc	6.134489
35	0x41ebe0ef	29.48483
36	0x408c20a8	4.3789864
37	0x43913fad	290.49747
38	0x425bb95f	54.931026
39	0x438a1e0d	276.23477
40	0x3f254ed9	0.64573437
41	0x4227b98a	41.93119
42	0x4100af13	8.042743
43	0x421cbcab	39.184246
44	0x42838e92	65.77846
45	0x4548d7a5	3213.4778
46	0x4465f656	919.849
47	0x45762989	3938.596
48	0x00000000	0.0
49	0x00000000	0.0
50	0x00000000	0.0
51	0x00000000	0.0
52	0x3f1f71b4	0.6228287
53	0x42231c4a	40.777626
54	0x40ec06c4	7.375826
55	0x421898ee	38.149345
56	0x414c4716	12.767355
57	0x4455b3f0	854.8115
58	0x433019b6	176.10043
59	0x444a4de7	809.2172
60	0x41e2dd41	28.358034
61	0x44edbf01	1901.9689
62	0x43b8810a	369.00812
63	0x44e116ad	1800.7086
64	0x4071ad7e	3.7762141
65	0x437cb648	252.71204
66	0x424a5fc7	50.593533
67	0x436e954a	238.58316
68	0x422b2385	42.784687
69	0x453472e4	2887.1807
70	0x440f57f1	573.3741
71	0x452c0ba1	2752.7268
72	0x00000000	0.0
73	0x00000000	0.0
74	0x00000000	0.0
75	0x00000000	0.0
76	0x3e8f9a43	0.2804738
77	0x419c430a	19.532734
78	0x40357709	2.8353903
79	0x419ff29a	19.993458
80	0x42ce0ecc	103.0289
81	0x45b9429a	5928.325
82	0x44df3e54	1785.9478
83	0x45d401fd	6784.2485
84	0x38ae9428	8.324563e-05
85	0x3bb6bd9f	0.005576804
86	0x3bef9ab8	0.007312145
87	0x3958cebd	0.00020676381
88	0x41020ed0	8.128616
89	0x44091043	548.2541
90	0x42d63b1c	107.11545
91	0x4404ec56	531.69275
92	0x421a3744	38.55397
93	0x4520eb6e	2574.7144
94	0x43fbd8f3	503.69492
95	0x45197542	2455.3286
96	0x00000000	0.0
97	0x00000000	0.0
98	0x00000000	0.0
99	0x00000000	0.0
100	0x4375a574	245.6463
101	0x465bae8e	14059.639
102	0x4535f3c1	2911.2346
103	0x4635b55f	11629.343
104	0x00000000	0.0
105	0x00000000	0.0
106	0x00000000	0.0
107	0x00000000	0.0
108	0x411f0a2a	9.939981
109	0x4426078d	664.118
110	0x42fed870	127.42273
111	0x441cb33a	626.8004
112	0x00000000	0.0
113	0x00000000	0.0
114	0x00000000	0.0
115	0x00000000	0.0
116	0x00000000	0.0
117	0x00000000	0.0
118	0x00000000	0.0
119	0x00000000	0.0
120	0x00000000	0.0
121	0x00000000	0.0
122	0x00000000	0.0
123	0x00000000	0.0
124	0x00000000	0.0
125	0x00000000	0.0
126	0x00000000	0.0
127	0x00000000	0.0
128	0x3ffc7c91	1.9725515
129	0x43061a8d	134.10371
130	0x41c3e4d0	24.486725
131	0x430566d7	133.40172
132	0x3e126ee7	0.14300118
133	0x412767d6	10.462851
134	0x40064016	2.0976615
135	0x411c97fd	9.7871065
136	0x388e6601	6.790087e-05
137	0x3bd17c1c	0.006392969
138	0x3d347f91	0.04406697
139	0x3a66f79b	0.00088107
140	0x42e94460	116.633545
141	0x45b68966	5841.175
142	0x44d2ff0d	1687.9703
143	0x45b952d3	5930.353
144	0x3febcd1f	1.8421973
145	0x42f60deb	123.02718
146	0x41bded86	23.740978
147	0x42ec4891	118.14173
148	0x32e75b0f	2.6933348e-08
149	0x352b1b54	6.374223e-07
150	0x3761a725	1.3449961e-05
151	0x3369509d	5.4322857e-08
152	0x3a326d05	0.00068064063
153	0x3d66d02b	0.05635087
154	0x3d936934	0.071978
155	0x3c76e977	0.015070311
156	0x3f34049f	0.7031955
157	0x423b5105	46.82912
158	0x40fd10ca	7.9082994
159	0x42264e51	41.57648
160	0x4315a84d	149.65742
161	0x45e8d6cb	7450.849
162	0x44c545fa	1578.1868
163	0x45bbac46	6005.534
164	0x41584468	13.516701
165	0x4460bf0e	898.9852
166	0x43308063	176.50151
167	0x4457701c	861.7517
168	0x00000000	0.0
169	0x00000000	0.0
170	0x00000000	0.0
171	0x00000000	0.0
172	0x00000000	0.0
173	0x00000000	0.0
174	0x00000000	0.0
175	0x00000000	0.0
176	0x3ee496e4	0.4464637
177	0x41a43308	20.524918
178	0x414d6f73	12.839709
179	0x40dd99b2	6.9250116
180	0x3f5adc7e	0.85492694
181	0x4263e0b7	56.969448
182	0x412cddec	10.80418
183	0x4255aa7d	53.416492
184	0x4016560f	2.3490026
185	0x431e087f	158.03319
186	0x41f82cc3	31.021856
187	0x431755e9	151.33559
188	0x00000000	0.0
189	0x00000000	0.0
190	0x00000000	0.0
191	0x00000000	0.0
192	0x40f6da68	7.714161
193	0x440179e1	517.90436
194	0x42ce3328	103.099915
195	0x43f91b0c	498.2113
196	0x410084ea	8.03245
197	0x4405c8e7	535.1391
198	0x42d1d9de	104.92552
199	0x43ff5f3f	510.7441
200	0x400a3cf6	2.1599708
201	0x431e8f4d	158.55977
202	0x41ff012c	31.875572
203	0x43152c70	149.17358
204	0x00000000	0.0
205	0x00000000	0.0
206	0x00000000	0.0
207	0x00000000	0.0
208	0x3f5baacc	0.8580749
209	0x426a23b7	58.534878
210	0x412d0290	10.813126
211	0x425f0337	55.75314
212	0x41c0c20f	24.094755
213	0x4559cc43	3484.7664
214	0x442f12ff	700.2968
215	0x458ca42a	4500.5205
216	0x4257167f	53.77197
217	0x451d4e98	2516.912
218	0x44244d91	657.212
219	0x44f3f9c9	1951.8058
220	0x40cd7c4c	6.421423
221	0x43d2d6b9	421.67752
222	0x42a1864f	80.76232
223	0x43c7354a	398.41632
224	0x3f5d3360	0.8640652
225	0x42510a98	52.260345
226	0x40dd20ef	6.91027
227	0x424acb67	50.698635
228	0x4010603a	2.2558732
229	0x43183d7d	152.24019
230	0x41de12bb	27.759146
231	0x4314ec26	148.92245
232	0x3f79a18a	0.97512114
233	0x4282e2cb	65.442955
234	0x4144471a	12.267359
235	0x427d5ba2	63.339485
236	0x00000000	0.0
237	0x00000000	0.0
238	0x00000000	0.0
239	0x00000000	0.0
240	0x00000000	0.0
241	0x00000000	0.0
242	0x00000000	0.0
243	0x00000000	0.0
244	0x00000000	0.0
245	0x00000000	0.0
246	0x00000000	0.0
247	0x00000000	0.0
248	0x3f7ef7de	0.99596965
249	0x42b4dc54	90.43033
250	0x423f4e2f	47.82635
251	0x41d5b498	26.71318
252	0x00000000	0.0
253	0x00000000	0.0
254	0x00000000	0.0
255	0x00000000	0.0

exp_avg f4 [64]
0	0xbcb33ae6	-0.02187867
1	0x3ce610f0	0.028084248
2	0xbdbc766a	-0.09202273
3	0x395e486c	0.00021198549
4	0x000f540e	1.407686e-39
5	0xbc702666	-0.014657592
6	0x00000000	0.0
7	0x3a9f3598	0.001214671
8	0x3badfd4a	0.0053097354
9	0xbc7aa397	-0.015297792
10	0xbbcb8cd9	-0.0062118587
11	0xbd802e02	-0.06258775
12	0x00000000	0.0
13	0x3b4c31b1	0.0031157548
14	0x3cc02564	0.02345533
15	0x3d3b5bba	0.045741774
16	0x3c928fd2	0.017890844
17	0x3d745bb9	0.059657786
18	0x00000000	0.0
19	0xba0e40e7	-0.00054265413
20	0xbd0be307	-0.034152057
21	0xb895d348	-7.144228e-05
22	0xbcbde137	-0.02317868
23	0xbd68f3b4	-0.05687304
24	0x00000000	0.0
25	0x3cd49377	0.025949223
26	0x00000000	0.0
27	0x3cefd90b	0.029278299
28	0x00000000	0.0
29	0x00000000	0.0
30	0x00000000	0.0
31	0x00000000	0.0
32	0xbc0b79aa	-0.008512894
33	0xbb8e056c	-0.0043341424
34	0x38275daa	3.9903134e-05
35	0x3c90d4cf	0.0176796
36	0xbc0f6985	-0.008753185
37	0x00000004	6e-45
38	0x3aa282a9	0.0012398559
39	0xbb28cc2f	-0.0025756469
40	0x3c91ac51	0.017782362
41	0xbd03901b	-0.03211985
42	0x00000000	0.0
43	0x00000000	0.0
44	0xbc1555fc	-0.009114739
45	0xbbd73e4c	-0.0065687057
46	0xbc39cc25	-0.011340176
47	0x00000000	0.0
48	0xbcc0898d	-0.02350309
49	0xbcb1a668	-0.021685794
50	0x3c58b620	0.013227016
51	0x00000000	0.0
52	0xbbe26229	-0.0069086743
53	0x3dbc812d	0.09204326
54	0x3c10d930	0.008840844
55	0xbcb772e9	-0.02239366
56	0xbb734c22	-0.0037124236
57	0x3c46ff00	0.012145758
58	0x3bcefe06	0.006316903
59	0x00000000	0.0
60	0x00000000	0.0
61	0x00000000	0.0
62	0x3d2858ee	0.041100435
63	0x00000000	0.0

exp_avg_sq f4 [64]
0	0x3c9372e8	0.017999128
1	0x3c922cdd	0.017843658
2	0x3e9357fb	0.2877806
3	0x3b1b9837	0.002374185
4	0x3974aa0d	0.00023333002
5	0x3bb028d0	0.005375959
6	0x00000000	0.0
7	0x384ef125	4.933881e-05
8	0x3aa0624a	0.0012236324
9	0x3c40273e	0.011728106
10	0x3ada7a87	0.0016668596
11	0x3e243b25	0.16038187
12	0x00000000	0.0
13	0x3ad55eab	0.0016278824
14	0x3d0b7ecc	0.03405647
15	0x3d9c684b	0.0763708
16	0x3c25a1a4	0.010109339
17	0x3ded68dd	0.11592267
18	0x00000000	0.0
19	0x3a573e9d	0.0008210929
20	0x3e979e80	0.29613113
21	0x3585051b	9.910758e-07
22	0x3cb51be1	0.02210802
23	0x3dd313c5	0.10306505
24	0x00000000	0.0
25	0x3f054955	0.5206502
26	0x00000000	0.0
27	0x3cda9fc1	0.026687505
28	0x00000000	0.0
29	0x00000000	0.0
30	0x00000000	0.0
31	0x00000000	0.0
32	0x3bb42397	0.0054974067
33	0x39defa1e	0.00042529491
34	0x36d1d6d0	6.253693e-06
35	0x3e89ca1d	0.26912013
36	0x3ba1f986	0.0049430756
37	0x30eb77bc	1.7132531e-09
38	0x3721c7bb	9.642851e-06
39	0x3af7a4dc	0.0018893736
40	0x3e8e5850	0.27801752
41	0x3d1345c2	0.035955198
42	0x00000000	0.0
43	0x00000000	0.0
44	0x3ae4353d	0.0017410886
45	0x3b164cfa	0.0022934065
46	0x3bd09dfa	0.0063664885
47	0x00000000	0.0
48	0x3cab1fa4	0.02088911
49	0x3cb042cc	0.021516226
50	0x3bd11cca	0.0063816058
51	0x00000000	0.0
52	0x3b1cad01	0.002390683
53	0x3e271146	0.16315183
54	0x3dc97e89	0.09838588
55	0x3c8a204e	0.016861107
56	0x3b057d5f	0.0020368916
57	0x3bc79338	0.006090548
58	0x3b2e89b3	0.0026632368
59	0x00000000	0.0
60	0x00000000	0.0
61	0x00000000	0.0
62	0x3bd1b0ba	0.0063992413
63	0x00000000	0.0

exp_avg f4 [13, 64]
0	0x3e7031c2	0.23456481
1	0x3bc5662b	0.0060241423
2	0x3c746101	0.014915706
3	0x3c036ecb	0.008022021
4	0x00007438	4.1691e-41
5	0x3d36dff6	0.04464718
6	0x00000000	0.0
7	0xbac8ff6e	-0.0015334913
8	0x3d88dc6f	0.06682669
9	0x3dae6c9f	0.085168116
10	0x3e0f1ac9	0.13975061
11	0x3beccfb1	0.007226907
12	0x00000000	0.0
13	0x3e1a1065	0.15045317
14	0x3d6aae4a	0.05729512
15	0x3cc68058	0.024231121
16	0x3d64c78b	0.05585436
17	0x3d419b1d	0.04726707
18	0x00000000	0.0
19	0x3db865af	0.090037696
20	0x3bd88cf2	0.006608599
21	0xba2575f3	-0.00063118263
22	0x3d01d07b	0.031692963
23	0x3d8cc979	0.06874365
24	0x00000000	0.0
25	0x3c334945	0.010942762
26	0x00000000	0.0
27	0x3d36e832	0.044655032
28	0x00000000	0.0
29	0x00000000	0.0
30	0x00000000	0.0
31	0x00000000	0.0
32	0x3de25c9e	0.110528216
33	0x3c88e0b2	0.016708706
34	0xb9a86125	-0.00032115835
35	0x3c8de663	0.017321771
36	0x3dba35f9	0.09092326
37	0x80000004	-6e-45
38	0xbb343012	-0.0027494472
39	0x3d83748b	0.06418713
40	0x3c827c41	0.01592839
41	0x3de5fb04	0.11229518
42	0x00000000	0.0
43	0x00000000	0.0
44	0xbbed6c00	-0.0072455406
45	0x3d5e04be	0.05420374
46	0x3daa35f5	0.08311073
47	0x00000000	0.0
48	0x3de98217	0.11401766
49	0x3d9531cc	0.072848886
50	0x3d04df43	0.03243948
51	0x00000000	0.0
52	0x3da97f4e	0.082762346
53	0x3aa464af	0.0012542213
54	0x3b93112b	0.0044881306
55	0x3d4287c4	0.047492757
56	0x3e18f1d7	0.14936005
57	0x3d87b439	0.066261716
58	0x3ddf8ef5	0.10915939
59	0x00000000	0.0
60	0x00000000	0.0
61	0x00000000	0.0
62	0xbbfbafce	-0.0076808697
63	0x00000000	0.0
64	0x418f98ae	17.94955
65	0x400fe57a	2.2483811
66	0x3e968755	0.29400125
67	0xbe317cfa	-0.17332831
68	0x0000c3e5	7.0274e-41
69	0x40a3e9df	5.1222987
70	0x00000000	0.0
71	0xbcbacd02	-0.022802833
72	0x40956463	4.668504
73	0x40c3f6c7	6.123874
74	0x4113818d	9.219129
75	0x3e8d282a	0.27569705
76	0x00000000	0.0
77	0x4149d3b5	12.614186
78	0x3fcf3236	1.6187198
79	0x3fbba631	1.4660093
80	0x401788e9	2.3677313
81	0x404aaa45	3.1666424
82	0x00000000	0.0
83	0x4106896e	8.408552
84	0x3e75ca7d	0.24003024
85	0x39a10c9b	0.00030717705
86	0x402d50de	2.7080607
87	0x409b3695	4.850413
88	0x00000000	0.0
89	0x3e67571e	0.22591826
90	0x00000000	0.0
91	0x401dcee5	2.4657528
92	0x00000000	0.0
93	0x00000000	0.0
94	0x00000000	0.0
95	0x00000000	0.0
96	0x40a73b09	5.2259564
97	0x3fb8c4a2	1.4435008
98	0xb9744539	-0.00023295441
99	0x3d2a55d6	0.041585766
100	0x40e3e53a	7.1217318
101	0x00000004	6e-45
102	0xbddf0588	-0.10889727
103	0x4016d328	2.356638
104	0x3dc5acea	0.09652121
105	0x41110407	9.063483
106	0x00000000	0.0
107	0x00000000	0.0
108	0xbe820080	-0.25391006
109	0x4031a648	2.775774
110	0x40602cfb	3.5027454
111	0x00000000	0.0
112	0x40f76d47	7.7320895
113	0x409c3083	4.880922
114	0x3f9df3cf	1.234003
115	0x00000000	0.0
116	0x40c54091	6.1641316
117	0x3f82f6d6	1.0231578
118	0xbe277675	-0.16353782
119	0x40b56ab8	5.669277
120	0x413f1a08	11.943855
121	0x40c4816a	6.1407976
122	0x40f50a1a	7.657483
123	0x00000000	0.0
124	0x00000000	0.0
125	0x00000000	0.0
126	0xbe263d1d	-0.1623425
127	0x00000000	0.0
128	0xc1982710	-19.019073
129	0xc01501c1	-2.328232
130	0xbea722f4	-0.32643855
131	0x3daec154	0.08532968
132	0x8002706f	-2.24005e-40
133	0xc0a99904	-5.2999287
134	0x00000000	0.0
135	0x3bd1230d	0.006382352
136	0xc09c8667	-4.8914065
137	0xc0d3b5ce	-6.615943
138	0xc11ca204	-9.789555
139	0xbe9d1ab6	-0.3068444
140	0x00000000	0.0
141	0xc156710d	-13.4026
142	0xbfec95e3	-1.8483242
143	0xbfca2604	-1.5792851
144	0xc02ee489	-2.7326987
145	0xc05d74fa	-3.4602647
146	0x00000000	0.0
147	0xc10e0697	-8.876609
148	0xbe8998a1	-0.2687426
149	0x3a05c7b9	0.00051033084
150	0xc03c4bea	-2.9421334
151	0xc0a59755	-5.174723
152	0x00000000	0.0
153	0xbe8c5756	-0.27410382
154	0x00000000	0.0
155	0xc02d268f	-2.7054784
156	0x00000000	0.0
157	0x00000000	0.0
158	0x00000000	0.0
159	0x00000000	0.0
160	0xc0b6a806	-5.7080107
161	0xbfc2b15e	-1.5210378
162	0x3a262727	0.00063382316
163	0xbd8e19ce	-0.069385156
164	0xc0f22273	-7.566705
165	0x80000004	-6e-45
166	0x3db9f929	0.09080727
167	0xc02b46ef	-2.6762044
168	0xbe03e3db	-0.12879889
169	0xc117b6a9	-9.482095
170	0x00000000	0.0
171	0x00000000	0.0
172	0x3e58fef4	0.21191007
173	0xc044d051	-3.0752146
174	0xc07bd4b0	-3.9348564
175	0x00000000	0.0
176	0xc104d866	-8.302832
177	0xc0a6f695	-5.2176003
178	0xbfb01171	-1.3755323
179	0x00000000	0.0
180	0xc0d32b44	-6.5990314
181	0xbf6e0bc3	-0.92986697
182	0x3d2a508b	0.041580718
183	0xc0bf720f	-5.982673
184	0xc14c265c	-12.759365
185	0xc0caab9f	-6.33345
186	0xc103c463	-8.235446
187	0x00000000	0.0
188	0x00000000	0.0
189	0x00000000	0.0
190	0x3e246be2	0.16056779
191	0x00000000	0.0
192	0xc182a9da	-16.332935
193	0xc0076749	-2.115679
194	0xbe8e5272	-0.27797276
195	0x3e451e9e	0.19249961
196	0x0003f246	3.62418e-40
197	0xc0987054	-4.763712
198	0x00000000	0.0
199	0x3cf3612e	0.029709425
200	0xc08926c5	-4.2859826
201	0xc0ae5195	-5.4474587
202	0xc107069f	-8.4391165
203	0xbe85f88d	-0.26166192
204	0x00000000	0.0
205	0xc13720e3	-11.445529
206	0xbf965ff1	-1.1748029
207	0xbfb0ce3a	-1.3812935
208	0xc000c5f3	-2.0120819
209	0xc038ea78	-2.8893108
210	0x00000000	0.0
211	0xc0f61125	-7.689593
212	0xbe721976	-0.23642525
213	0x3aaef694	0.0013348632
214	0xc0197eb9	-2.3983595
215	0xc08a9e05	-4.3317895
216	0x00000000	0.0
217	0xbd806a16	-0.06270234
218	0x00000000	0.0
219	0xc011310a	-2.268618
220	0x00000000	0.0
221	0x00000000	0.0
222	0x00000000	0.0
223	0x00000000	0.0
224	0xc0969558	-4.7057304
225	0xbf9d442e	-1.2286432
226	0x39d37023	0.00040328605
227	0xbc0f57b9	-0.008748942
228	0xc0d049be	-6.5090017
229	0x80000004	-6e-45
230	0x3e015d25	0.12633188
231	0xc000717d	-2.0069268
232	0x3d3a2993	0.045449805
233	0xc1054f74	-8.331898
234	0x00000000	0.0
235	0x00000000	0.0
236	0x3e88c6b4	0.26714098
237	0xc01a73e4	-2.4133234
238	0xc041ea30	-3.0299187
239	0x00000000	0.0
240	0xc0ddc34d	-6.9300904
241	0xc08ddbad	-4.433066
242	0xbf900222	-1.1250651
243	0x00000000	0.0
244	0xc0b2b898	-5.5850334
245	0xbf75af27	-0.95970386
246	0x3e74c3dd	0.23902841
247	0xc0a38b8b	-5.110784
248	0xc12cf697	-10.810203
249	0xc0b83e70	-5.757622
250	0xc0dc1098	-6.8770256
251	0x00000000	0.0
252	0x00000000	0.0
253	0x00000000	0.0
254	0x3e2c07ed	0.16799898
255	0x00000000	0.0

exp_avg_sq f4 [13, 64]
0	0x41d4bb41	26.591433
1	0x3fa2281e	1.2668493
2	0x3c2b0fc9	0.010440775
3	0x3e2602d6	0.1621202
4	0x3ec82ffa	0.39099103
5	0x3fa9affd	1.3256832
6	0x00000000	0.0
7	0x39d367fd	0.00040322533
8	0x403f8501	2.992493
9	0x4079a23c	3.900527
10	0x40da35e0	6.8190765
11	0x3c0174b1	0.007901357
12	0x00000000	0.0
13	0x415d6ab9	13.838555
14	0x3f62a99c	0.88540053
15	0x3e0226db	0.12710135
16	0x3f88a31b	1.0674776
17	0x3f55f94b	0.83583516
18	0x00000000	0.0
19	0x41055708	8.333748
20	0x3ba21fb0	0.004947625
21	0x39174620	0.00014426606
22	0x3f2da775	0.67833644
23	0x3fc1063f	1.5080031
24	0x00000000	0.0
25	0x3daa1c86	0.08306222
26	0x00000000	0.0
27	0x3f0f9587	0.56087536
28	0x00000000	0.0
29	0x00000000	0.0
30	0x00000000	0.0
31	0x00000000	0.0
32	0x40508fb1	3.2587702
33	0x3e74bd55	0.2390035
34	0x379c3015	1.861904e-05
35	0x3ccc7189	0.024956482
36	0x40d10108	6.531376
37	0x3520f2b2	5.9957813e-07
38	0x3a451042	0.0007517376
39	0x3f896344	1.0733418
40	0x3dd439a6	0.10362558
41	0x409a9e7c	4.831846
42	0x00000000	0.0
43	0x00000000	0.0
44	0x3c19a08d	0.009376657
45	0x3fa56ffb	1.2924799
46	0x402741be	2.6133876
47	0x00000000	0.0
48	0x40b3bdcc	5.6169186
49	0x3fe5296a	1.7903264
50	0x3e4bd4eb	0.1990544
51	0x00000000	0.0
52	0x40a3d3a0	5.119583
53	0x3e399bf3	0.18125896
54	0x3ce87261	0.028374853
55	0x40026833	2.0376098
56	0x414ea0ce	12.914259
57	0x3f97b403	1.185181
58	0x4113c8be	9.236509
59	0x00000000	0.0
60	0x00000000	0.0
61	0x00000000	0.0
62	0x3a65db88	0.00087683694
63	0x00000000	0.0
64	0x45e6c504	7384.627
65	0x4229205a	42.281593
66	0x40d2f0ef	6.591911
67	0x4106b2fd	8.418698
68	0x3f899c23	1.0750774
69	0x43c76d26	398.85272
70	0x00000000	0.0
71	0x3d559ced	0.05215161
72	0x43faf8c9	501.94363
73	0x449e2ee9	1265.466
74	0x450ec984	2284.5947
75	0x4083289e	4.098708
76	0x00000000	0.0
77	0x458453d1	4234.477
78	0x43ca0dfe	404.1093
79	0x42c316dc	97.54465
80	0x440b6cfd	557.70294
81	0x4402128d	520.28986
82	0x00000000	0.0
83	0x44e4e567	1831.1688
84	0x40b35a83	5.604799
85	0x3b5f286b	0.003405119
86	0x43908c51	289.09622
87	0x440a4c66	553.1937
88	0x00000000	0.0
89	0x41e197d2	28.199131
90	0x00000000	0.0
91	0x43a8c4e5	337.53824
92	0x00000000	0.0
93	0x00000000	0.0
94	0x00000000	0.0
95	0x00000000	0.0
96	0x449337fe	1177.7498
97	0x42a33529	81.60383
98	0x39b5086f	0.00034529294
99	0x41a63a6f	20.778532
100	0x44acd4d0	1382.6504
101	0x3651596e	3.1195482e-06
102	0x3dcc35e1	0.09971214
103	0x43d73b64	430.464
104	0x4203f2ad	32.986988
105	0x44bbbfa1	1501.9884
106	0x00000000	0.0
107	0x00000000	0.0
108	0x3f6b7f2a	0.9199091
109	0x43e61f68	460.24536
110	0x4448bd1d	802.9549
111	0x00000000	0.0
112	0x44db1a3e	1752.8201
113	0x442a1997	680.39984
114	0x42c949ea	100.64436
115	0x00000000	0.0
116	0x449db6a4	1261.7075
117	0x4181ca2c	16.223717
118	0x41250057	10.312583
119	0x442e202f	696.50287
120	0x45839170	4210.1797
121	0x44149ed7	594.4819
122	0x44fad692	2006.7053
123	0x00000000	0.0
124	0x00000000	0.0
125	0x00000000	0.0
126	0x3e35b776	0.17745766
127	0x00000000	0.0
128	0x461de860	10106.094
129	0x433bba9e	187.72897
130	0x40e0189e	7.003005
131	0x41edc02e	29.718838
132	0x421ecbdd	39.699085
133	0x43f13df9	482.48416
134	0x00000000	0.0
135	0x3d8a9c0b	0.06768044
136	0x4458608e	865.50867
137	0x44cca3a8	1637.1143
138	0x45390d1e	2960.8198
139	0x40985e85	4.761538
140	0x00000000	0.0
141	0x45b0c36f	5656.429
142	0x43e052e4	448.64758
143	0x42cff83e	103.98485
144	0x4418ee8c	611.7273
145	0x440ca4a2	562.5724
146	0x00000000	0.0
147	0x452fabec	2810.745
148	0x40bad2ee	5.8382483
149	0x3a90c901	0.0011046232
150	0x43a6ff88	333.99634
151	0x441df750	631.86426
152	0x00000000	0.0
153	0x41ffda3f	31.981565
154	0x00000000	0.0
155	0x43b6855f	365.04196
156	0x00000000	0.0
157	0x00000000	0.0
158	0x00000000	0.0
159	0x00000000	0.0
160	0x44bc5567	1506.6688
161	0x42d8b73c	108.35788
162	0x398c0321	0.00026705212
163	0x41b031a4	22.024239
164	0x45082a62	2178.649
165	0x362bd59f	2.560533e-06
166	0x3e033985	0.1281491
167	0x43f34979	486.574
168	0x4215a0aa	37.4069
169	0x44f07895	1923.7682
170	0x00000000	0.0
171	0x00000000	0.0
172	0x3f63d503	0.88996905
173	0x440ffc9d	575.9471
174	0x44810e85	1032.4537
175	0x00000000	0.0
176	0x450eb477	2283.279
177	0x4451fac3	839.91815
178	0x42ea5235	117.16056
179	0x00000000	0.0
180	0x44e71b2c	1848.8491
181	0x41e95f27	29.171461
182	0x413877d4	11.529255
183	0x44564604	857.094
184	0x45ac8ccb	5521.599
185	0x4421a9f5	646.6556
186	0x4542e0e1	3118.055
187	0x00000000	0.0
188	0x00000000	0.0
189	0x00000000	0.0
190	0x3e584715	0.21120866
191	0x00000000	0.0
192	0x45e870fc	7438.123
193	0x42284b9b	42.073833
194	0x40d32c47	6.599155
195	0x40bafa3e	5.843047
196	0x3f75831a	0.9590317
197	0x43c8e1d8	401.7644
198	0x00000000	0.0
199	0x3d599ec3	0.053129923
200	0x43fb5dfb	502.73422
201	0x449e6a41	1267.3204
202	0x450fac41	2298.7659
203	0x408446ec	4.1336575
204	0x00000000	0.0
205	0x4584e3ea	4252.4893
206	0x43ca10e5	404.132
207	0x42c436ca	98.10701
208	0x440bd691	559.3526
209	0x4402f63b	523.84735
210	0x00000000	0.0
211	0x44e5596f	1834.7948
212	0x40b36c30	5.6069565
213	0x3a9d0323	0.0011979084
214	0x4390d4f3	289.66367
215	0x440c107b	560.2575
216	0x00000000	0.0
217	0x41e14b10	28.161652
218	0x00000000	0.0
219	0x43a9f660	339.9248
220	0x00000000	0.0
221	0x00000000	0.0
222	0x00000000	0.0
223	0x00000000	0.0
224	0x44938560	1180.168
225	0x42a1045a	80.5085
226	0x39f6898b	0.00047023254
227	0x41a5fb48	20.747696
228	0x44ad2d8f	1385.4237
229	0x374df198	1.2275203e-05
230	0x3dd780ee	0.10522638
231	0x43d6e51e	429.78998
232	0x42026cac	32.606125
233	0x44bd9963	1516.7933
234	0x00000000	0.0
235	0x00000000	0.0
236	0x3f347880	0.7049637
237	0x43e48a6d	457.08145
238	0x44479f11	798.4854
239	0x00000000	0.0
240	0x44dbf04a	1759.509
241	0x442b57f7	685.37445
242	0x42ca7f08	101.24811
243	0x00000000	0.0
244	0x449d97ad	1260.7399
245	0x4180f5cf	16.120024
246	0x41242415	10.258809
247	0x442f7f69	701.9908
248	0x458410d4	4226.1035
249	0x44161a05	600.40656
250	0x44f9ca74	1998.3267
251	0x00000000	0.0
252	0x00000000	0.0
253	0x00000000	0.0
254	0x3e35f1f7	0.17768084
255	0x00000000	0.0

exp_avg f4 [13]
0	0xbb18f530	-0.0023339503
1	0x3dbf27da	0.09333773
2	0xbdcb3f3c	-0.099241704
3	0xbd9783b9	-0.07398171
4	0x3db824c8	0.089913905
5	0x00000000	0.0
6	0x00000000	0.0
7	0x00000000	0.0
8	0x00000000	0.0
9	0x00000000	0.0
10	0x00000000	0.0
11	0x00000000	0.0
12	0x00000000	0.0

exp_avg_sq f4 [13]
0	0x3a97ad10	0.0011571962
1	0x3e947fef	0.29003856
2	0x3ed141bd	0.40870467
3	0x3e9592c8	0.29213548
4	0x3e9e6727	0.30938074
5	0x00000000	0.0
6	0x00000000	0.0
7	0x00000000	0.0
8	0x00000000	0.0
9	0x00000000	0.0
10	0x00000000	0.0
11	0x00000000	0.0
12	0x00000000	0.0
