Op_problems/problem_pooling/checkpoints/pinn_checkpoint_epoch_200_loss_243.996899.pth (torch, 20703 bytes, 12 tensors)

nn.0.weight f4 [64, 4]
0	0x3efe1f4c	0.49633253
1	0x3eeca819	0.46221998
2	0xbdd9fd17	-0.10643976
3	0x3f000ca2	0.50019276
4	0xbeb36936	-0.35041207
5	0x3d136aee	0.035990648
6	0xbe8a35a6	-0.26994056
7	0x3e768698	0.24074781
8	0x3e963f92	0.29345375
9	0xbef1883c	-0.4717425
10	0x3eb5c391	0.35500768
11	0x3e8189a7	0.25300333
12	0x3ece144a	0.40249854
13	0xbcdccfaa	-0.02695449
14	0x3e0959a1	0.13413097
15	0xbe24349e	-0.16035697
16	0x3e45d9fd	0.19321437
17	0xbd5771e3	-0.052598845
18	0xbea3b5d8	-0.31974673
19	0xbb971309	-0.0046104235
20	0xbc8e766e	-0.017390456
21	0x3cdc2cfe	0.026876923
22	0xbe48b92d	-0.19601889
23	0x3ecc96f4	0.39958918
24	0xbeca142a	-0.3946851
25	0xbe6c098c	-0.23050517
26	0xbe10936c	-0.14118737
27	0xbe99ecfe	-0.30063623
28	0xbe1aaed9	-0.15105762
29	0xbebfed48	-0.3748572
30	0x3f1b1c25	0.6058982
31	0x3bf4a305	0.0074657225
32	0x3ed8bc46	0.4233114
33	0x3da9327d	0.08261583
34	0xbdf74a40	-0.12074709
35	0x3e9b4721	0.30327705
36	0x3e81c173	0.25342903
37	0x3ef54899	0.4790695
38	0x3dd502a1	0.10400892
39	0xbdbae21c	-0.09125158
40	0x3e5d9237	0.21637808
41	0xbdf92025	-0.12164334
42	0x3e4709b2	0.19437292
43	0x3ee07f9b	0.43847355
44	0x3e0b3b35	0.13596804
45	0xbe8ab00d	-0.2708744
46	0x3e961cb0	0.29318762
47	0x3e080a9d	0.13285299
48	0x3e82017a	0.25391752
49	0xbe9c0886	-0.30475253
50	0xbefd6aa4	-0.49495423
51	0xbe45d10c	-0.19318026
52	0xbea3699c	-0.3191651
53	0x3edb2bab	0.42806754
54	0x3e0a9aad	0.13535567
55	0x3e690d6f	0.22759031
56	0x3e10c349	0.14136995
57	0x3e406820	0.1878972
58	0x3f139cb5	0.5766099
59	0xbe1a368e	-0.15059873
60	0x3dc7ef10	0.097623944
61	0xbea7f72f	-0.32805774
62	0x3e834ed7	0.25646088
63	0x3e4894bb	0.19587986
64	0xbdb88e0d	-0.09011469
65	0x3da7528c	0.081700414
66	0x3f2dde63	0.6791746
67	0xbd89982e	-0.06718479
68	0xbeb7c734	-0.35894167
69	0xbe8533ab	-0.26015982
70	0x3f050f51	0.51976496
71	0x3e85a7d8	0.26104617
72	0x3ef65610	0.48112535
73	0xbed3454e	-0.41263813
74	0xbefdeb98	-0.49593806
75	0xbec848fe	-0.3911819
76	0xbeb4c400	-0.35305786
77	0x3e2b44b8	0.16725433
78	0x3e141e81	0.14464761
79	0x3ebac103	0.3647538
80	0x3e210e6a	0.15728155
81	0xbe900b19	-0.28133467
82	0x3ed04565	0.40677944
83	0x3dc59330	0.096472144
84	0x3e395376	0.18098244
85	0xbe6065cd	-0.21913834
86	0x3e37662b	0.17910068
87	0xbee8bafd	-0.4545516
88	0xbdc87dd2	-0.09789623
89	0x3e620ab5	0.22074397
90	0x3e11f42f	0.14253305
91	0xbd5696cf	-0.052389916
92	0x3f182072	0.5942451
93	0x3ef570b2	0.47937542
94	0xbe8d47d1	-0.27593854
95	0xbe1c5b0e	-0.1526911
96	0x3eea68d2	0.45783097
97	0xbe2cc3f4	-0.16871625
98	0xbe35832c	-0.1772582
99	0xbef7b448	-0.4837973
100	0x3ece2ff8	0.40270972
101	0x3eb033be	0.34414476
102	0xbd196a95	-0.03745516
103	0xbeb1d97c	-0.3473624
104	0x3c402840	0.011728346
105	0xbeaede6e	-0.34154075
106	0xbed93086	-0.42419833
107	0xbe8cf83a	-0.27533132
108	0xbf28fca8	-0.6601052
109	0xbe96dc5c	-0.29464996
110	0x3f15a871	0.58460146
111	0x3eaff3ad	0.34365597
112	0x3e1dc71c	0.15407985
113	0xbeeec466	-0.46634215
114	0xbea82254	-0.3283869
115	0xbe2a6c14	-0.16642791
116	0x3da01fc0	0.07818556
117	0xbee14286	-0.43996066
118	0xbe5c9b64	-0.21543652
119	0xbe994258	-0.2993343
120	0x3ab59e00	0.0013856292
121	0xbe3e8450	-0.1860516
122	0xbd0deaf0	-0.034647882
123	0xbead7924	-0.33881485
124	0xbeafb798	-0.34319758
125	0xbe9559d2	-0.2917009
126	0xbe2f419c	-0.17114872
127	0xbeca0e50	-0.39464045
128	0x3f05fb4a	0.5233656
129	0xbd416621	-0.04721654
130	0x3eeb3cdd	0.45944872
131	0x3e65251e	0.2237744
132	0xbed10d8f	-0.40830657
133	0x3eb5d040	0.35510445
134	0xbd975a08	-0.07390219
135	0xbe1ec22c	-0.15503758
136	0xbe7bbabd	-0.24582954
137	0xbf068023	-0.5253927
138	0x3e5a00eb	0.21289413
139	0x3d7d3711	0.061820094
140	0xbe805403	-0.25064096
141	0xbe910879	-0.28326777
142	0x3efb5f68	0.49096227
143	0xbea8ad66	-0.32944793
144	0xbe26a806	-0.16275033
145	0x3d621a0e	0.05520063
146	0x3e5b20be	0.21399209
147	0x3eb19dd6	0.34690732
148	0x3ed5f0e4	0.41785347
149	0xbebd72f5	-0.37001768
150	0x3e6a7ee6	0.2289997
151	0xbe8905de	-0.2676229
152	0x3b826774	0.0039796177
153	0xbedce88c	-0.4314617
154	0x3efcf938	0.4940889
155	0xbd2856c9	-0.04109839
156	0x3edf7c9d	0.4364976
157	0x3e64d357	0.22346245
158	0x3d79b590	0.060964167
159	0xbe8ea474	-0.27859843
160	0x3f1ea583	0.619713
161	0x3ea1c640	0.31596565
162	0x3d93afba	0.072112516
163	0xbec540a5	-0.38525882
164	0x3ecda4ac	0.40164697
165	0x3c991eca	0.01869144
166	0xbe28a522	-0.16469243
167	0x3ef7b858	0.4838283
168	0x3de44cb0	0.111474395
169	0xbe8da386	-0.2766382
170	0xbe819252	-0.25306946
171	0xbcc39b80	-0.02387786
172	0x3e8ef0c4	0.27918065
173	0xbe02d554	-0.1277669
174	0xbe921132	-0.28528744
175	0xbe2f54ac	-0.17122144
176	0xbed658ec	-0.41864717
177	0x3e30422f	0.17212747
178	0x3eaae36b	0.3337663
179	0xbf3095b5	-0.68978435
180	0x3e869241	0.26283458
181	0x3e99054f	0.29886863
182	0x3de1c77e	0.11024378
183	0xbe3527f8	-0.17691028
184	0x3ef039ef	0.469192
185	0x3eaa6b73	0.33285102
186	0x3e5c14dd	0.21492334
187	0xbe127f55	-0.14306386
188	0xbe079408	-0.13240063
189	0x3d5b18d0	0.05349046
190	0xbdb4e4d0	-0.08832705
191	0xbe189398	-0.14900053
192	0x3edb27ad	0.42803708
193	0x3ef3f3b9	0.47646883
194	0xbd31465f	-0.04328
195	0xbd8411a7	-0.064486794
196	0x3e16a3e8	0.14710963
197	0x3cc149f3	0.023594832
198	0x3e157054	0.14593631
199	0x3e346057	0.17614876
200	0xbf0591e2	-0.52175725
201	0xbe53031c	-0.20606655
202	0x3ec57fb7	0.38574
203	0x3e7cebfe	0.24699399
204	0xbccbb9a0	-0.024868786
205	0xbe9a5808	-0.30145288
206	0xbe9c9f42	-0.30590254
207	0xbee550fa	-0.44788343
208	0xbe2fa6be	-0.17153451
209	0x3e138ce0	0.14409208
210	0x3e861989	0.26191357
211	0x3e42d241	0.19025518
212	0xbf2e981c	-0.6820085
213	0xbef9aabb	-0.4876307
214	0x3d7ab126	0.0612041
215	0x3f021a72	0.508216
216	0x3ee53dae	0.4477362
217	0x3e45798c	0.19284648
218	0x3dabce52	0.08388962
219	0xbe8b6b94	-0.27230513
220	0xbdbc6fd5	-0.09201018
221	0x3ee9bea4	0.4565326
222	0xbe4b8c30	-0.19877696
223	0xbd2d1923	-0.0422603
224	0xbeb05387	-0.34438726
225	0x3ecf4174	0.40479624
226	0x3ecd2777	0.40069172
227	0x3e86435a	0.2622326
228	0x3d64336b	0.0557131
229	0xbe7a52ae	-0.24445602
230	0xbdef05cd	-0.11671028
231	0x3f21b0ed	0.6316059
232	0x3e3a58ec	0.18197984
233	0x3eb90136	0.36133736
234	0x3e5ae6cf	0.21377109
235	0x3d794623	0.060857903
236	0xbba07180	-0.0048963428
237	0xbec2b086	-0.38025302
238	0xbedb556c	-0.4283861
239	0xbeef7302	-0.46767431
240	0x3e5197e4	0.20468098
241	0xbe7b6028	-0.245484
242	0xbdce1528	-0.10062629
243	0xbe935450	-0.28775263
244	0xbdba98d0	-0.09111178
245	0xbeb42e86	-0.35191745
246	0xbea74640	-0.32670784
247	0x3e29d600	0.16585541
248	0xbe487d68	-0.19579089
249	0x3e7d3640	0.24727726
250	0xbe7215ea	-0.23641172
251	0xbec47bcc	-0.383757
252	0xbdb4ac68	-0.088219464
253	0xbe7830d0	-0.2423737
254	0xbe1ca460	-0.15297079
255	0xbef3b5fc	-0.4759978

nn.0.bias f4 [64]
0	0x3f1766c3	0.59141177
1	0xbe0e6648	-0.13906205
2	0x3ee08416	0.43850774
3	0x3df25d13	0.11834159
4	0x3e43e54b	0.19130437
5	0xbf6cfbc3	-0.9257166
6	0x3eb81d48	0.3595984
7	0xbca7c94d	-0.02048173
8	0xbeb07c25	-0.34469715
9	0x3e02c959	0.1277212
10	0x3f2cf2ce	0.6755799
11	0xbe3edf76	-0.18639931
12	0xbdebc190	-0.115115285
13	0xbb9df76c	-0.0048207548
14	0x3f742303	0.95365924
15	0xbec661a6	-0.38746375
16	0x3f25a7e0	0.6470928
17	0xbd497270	-0.0491814
18	0x3ef219d0	0.47285318
19	0xbe964ecd	-0.29356995
20	0xbe35fd27	-0.17772351
21	0x3d15e669	0.03659669
22	0x3e2f7b42	0.17136863
23	0xbf2d7716	-0.67759836
24	0xbde86e68	-0.11349183
25	0x3e8552c3	0.26039705
26	0xbd332030	-0.04373187
27	0xbe9cdc81	-0.3063698
28	0xbe5149fc	-0.20438379
29	0xbe2289f8	-0.15872943
30	0xbef34720	-0.47515202
31	0x3ed20cc8	0.41025376
32	0x3f334093	0.7002041
33	0x3e8f3549	0.2797034
34	0xbc9c5670	-0.019084185
35	0x3d7e7da0	0.062131524
36	0xbd6a2b5f	-0.05717027
37	0xbeaa24bc	-0.3323115
38	0x3e1e7373	0.15473728
39	0x3dcb9205	0.099399604
40	0xbf202d55	-0.6256917
41	0xbef7a10a	-0.4836505
42	0xbe2a8070	-0.16650558
43	0xbe25a484	-0.16176039
44	0xbe539c1a	-0.20665017
45	0x3e9d6e74	0.30748332
46	0x3ebed6bf	0.37273213
47	0xbe75260c	-0.23940295
48	0x3e1a1f0f	0.1505091
49	0x3da97ade	0.08275388
50	0x3f04a59f	0.5181522
51	0x3e07ab64	0.13248974
52	0x3e6465a2	0.22304395
53	0xbe974c9a	-0.2955063
54	0x3f501d5b	0.8129479
55	0x3ec00dad	0.37510434
56	0xbf8496e7	-1.0358552
57	0x3f84ce85	1.0375525
58	0xbdb89812	-0.0901338
59	0x3e06b2dc	0.13154167
60	0x3eaba0f4	0.33521235
61	0x3efc6320	0.49294376
62	0xbe1ba5f4	-0.15200025
63	0x3dd48928	0.10377723

nn.2.weight f4 [13, 64]
0	0xbd640556	-0.05566915
1	0x3ba1563a	0.004923609
2	0x3ca04904	0.019566067
3	0x3c8efcba	0.017454494
4	0xbd2dff5b	-0.042479854
5	0xbd78c7a6	-0.060737275
6	0xbdaef0ec	-0.08542046
7	0x3b542ffe	0.0032377238
8	0xbd87e777	-0.06635945
9	0xbbcc79fe	-0.0062401285
10	0x3dd610f4	0.10452452
11	0xbd2fe5bb	-0.042943697
12	0xbdc2b70a	-0.09507568
13	0xbd9524ae	-0.07282387
14	0xbc72fc75	-0.014830698
15	0xbbd75b7e	-0.006572186
16	0xbd31f89d	-0.043449987
17	0xbd03e484	-0.03220035
18	0xbd6cf5b4	-0.05785151
19	0x3c3b6755	0.0114382105
20	0x3c98e4f0	0.018663853
21	0xbca0dd99	-0.019636916
22	0xbd5f8bb5	-0.054576594
23	0xbcbfd91d	-0.023418957
24	0xbdcef07c	-0.101044625
25	0xba9183d8	-0.0011101915
26	0x3df74124	0.120729715
27	0xbe3c68c2	-0.18399337
28	0xbdabe942	-0.083941
29	0x3cf83630	0.030299276
30	0x3d0d1ccc	0.03445129
31	0x3d8c43d0	0.06848872
32	0x3db68ea3	0.089139245
33	0x3e238351	0.15968062
34	0xbd91f910	-0.07127583
35	0x3d604939	0.05475733
36	0x3dc5efc6	0.09664874
37	0x3de4ec92	0.11177935
38	0xbc8e9afe	-0.01740789
39	0x3db2b487	0.08725839
40	0xbdf24b68	-0.11830789
41	0xbd0a68f6	-0.033791505
42	0xbde6cc50	-0.11269438
43	0x3bb6f620	0.0055835396
44	0xbd4edf58	-0.050505966
45	0x3d16762f	0.036733802
46	0x3d0d4de6	0.034498118
47	0xbdc225ae	-0.09479843
48	0xbdb6e1c3	-0.089297794
49	0x3c9fb9b0	0.019497722
50	0x3dbf45a1	0.093394525
51	0x3d93b11e	0.07211517
52	0xbd5d6cb4	-0.054058746
53	0x3ca89b99	0.020582007
54	0x3d2da6e2	0.04239548
55	0x3b13ebf3	0.0022571057
56	0x3d21dae8	0.039515406
57	0x3d9baabd	0.07600925
58	0x3dfb1ada	0.12260981
59	0xbdeb0900	-0.11476326
60	0x3dab2a5e	0.0835769
61	0xbdb48e06	-0.08816151
62	0x3c8644d4	0.016390242
63	0x3dd8a388	0.10578066
64	0xbbb670fc	-0.005567668
65	0x3d80d2eb	0.062902294
66	0xbee930f5	-0.45545164
67	0x3dc176d3	0.09446492
68	0x3d3e3709	0.046439204
69	0xbdfb33b9	-0.12265725
70	0xbcd19cf0	-0.025587529
71	0xbce6890a	-0.028141517
72	0x3d736060	0.059418082
73	0x3dd00bff	0.10158538
74	0x3d1f181a	0.038841344
75	0xbe52afc6	-0.20574865
76	0xbdcfced2	-0.1014687
77	0x3cdb58ea	0.026775796
78	0x3e79d751	0.24398543
79	0xbf263e0c	-0.64938426
80	0x3e16f4f2	0.14741877
81	0x3e48f11e	0.19623229
82	0x3c2324a0	0.009957463
83	0x3c3d0c43	0.011538568
84	0xbeb962b7	-0.36208126
85	0xbd64e97b	-0.055886727
86	0xbd1c3ff7	-0.03814694
87	0xbd968900	-0.073503494
88	0xbd82215a	-0.063540176
89	0x3f000b39	0.50017124
90	0xbd150c78	-0.036388844
91	0x3dc2d627	0.095135026
92	0x3df413fa	0.11917873
93	0x3d325760	0.04354036
94	0x3db680c4	0.08911279
95	0xbd77dda0	-0.060514092
96	0x3bce4deb	0.0062959096
97	0x3d712ef6	0.058882676
98	0x3d99ce29	0.07510025
99	0x3c771d35	0.015082647
100	0x3c03ff00	0.008056402
101	0x3dd2c758	0.10291928
102	0x3c015d44	0.007895771
103	0x3e60976d	0.21932764
104	0x3ed19225	0.40931812
105	0xbd3cb804	-0.04607393
106	0xbcb24ac0	-0.02176416
107	0xbded203a	-0.11578412
108	0x3c8d11b9	0.017220365
109	0x3dd005ed	0.1015738
110	0x3de8edc1	0.11373473
111	0xbc817398	-0.01580219
112	0xbcd49124	-0.025948115
113	0x3db418c7	0.087937884
114	0xbca469f0	-0.020070046
115	0x3da1cbee	0.079002246
116	0xbca2dd3a	-0.01988088
117	0x3e01f597	0.12691341
118	0x3e7caab7	0.24674498
119	0x394a03bd	0.00019265614
120	0xbc0b4d85	-0.008502369
121	0xbe05b8f6	-0.13058838
122	0x3cde8657	0.027163668
123	0x3dc7d55e	0.097574934
124	0x3df62396	0.12018506
125	0xbd797118	-0.06089887
126	0xbd2fc170	-0.042909086
127	0x3dcd63aa	0.10028775
128	0x3e3162f2	0.17322901
129	0xbd45bf78	-0.048278302
130	0x3efaba2d	0.48970166
131	0xbdea43e1	-0.11438728
132	0xbd472ddb	-0.048627716
133	0x3db9d8e5	0.090745725
134	0x3d0835b0	0.033254325
135	0x3c7dfe31	0.0155024985
136	0x3d375567	0.04475918
137	0x3e516745	0.2044955
138	0x3d96824f	0.07349073
139	0x3db87729	0.09007103
140	0xbbe7e3e0	-0.0070767254
141	0x3dbbdcfa	0.09173007
142	0xbd39d355	-0.045367558
143	0x3f23703b	0.63843125
144	0xbe47d8f5	-0.19516356
145	0xbe7e1360	-0.24812078
146	0xbdd4b882	-0.103867546
147	0xbc888f48	-0.016669884
148	0x3eedfd71	0.46482423
149	0xbcc3bfcf	-0.023895172
150	0x3e40a44f	0.18812679
151	0x3eceaded	0.4036707
152	0x3dc16524	0.09443119
153	0xbf233be0	-0.63763237
154	0xbd8cdbbc	-0.068778485
155	0xbea13865	-0.31488338
156	0xbd84a7a0	-0.064772844
157	0xbdacc402	-0.08435823
158	0xbd237fc0	-0.039916754
159	0x3cd6e558	0.026232406
160	0x3e080587	0.13283359
161	0x3cfe0711	0.031009229
162	0xbeb65ca7	-0.35617563
163	0xba84de3f	-0.0010137035
164	0xbcb6790a	-0.022274513
165	0xbeb840be	-0.35986894
166	0xbda94df3	-0.08266821
167	0xbcd692e2	-0.026193086
168	0xbda8a7a3	-0.08235099
169	0x3e4d7458	0.20063913
170	0x3d19245c	0.03738819
171	0x3d303570	0.043019712
172	0xbd13fc14	-0.036129072
173	0x3de7ac89	0.11312205
174	0x3da59d17	0.08086603
175	0x3ae12f00	0.0017180145
176	0x3e130ebf	0.14361094
177	0x3e3b272b	0.1827666
178	0xbe0a2793	-0.13491659
179	0xbd586e34	-0.052839473
180	0x3cb23274	0.021752574
181	0xbe530288	-0.20606434
182	0xbf18ae64	-0.596411
183	0x3e4483e7	0.19190942
184	0x3e200f55	0.15630849
185	0x3e12b242	0.14325812
186	0xbcda73ef	-0.02666661
187	0xbd89657c	-0.0670881
188	0xbce0fc08	-0.027463928
189	0xbcbcbf78	-0.023040518
190	0xbcdf90b2	-0.027290676
191	0xbdeb002e	-0.11474644
192	0x3d51a779	0.051185105
193	0xbdce410c	-0.100710005
194	0x3ed35620	0.41276646
195	0xbe42bf64	-0.19018322
196	0x3dd71baa	0.105033234
197	0xbdc49858	-0.0959937
198	0x3dc11e2e	0.094295844
199	0x3c99a4b9	0.018755304
200	0xbb52e9e1	-0.003218286
201	0x3da80713	0.08204474
202	0x3c95d03d	0.018287772
203	0x3eb54e6a	0.35411388
204	0x3db91782	0.09037687
205	0xbdb1cfcc	-0.08682212
206	0x3c8dcd8e	0.01730993
207	0x3f31422a	0.69241583
208	0x3db4493f	0.08803033
209	0x3e0e92bc	0.13923162
210	0x3d0c0c40	0.03419137
211	0xbd0bd159	-0.034135196
212	0x3e8dedf0	0.27720594
213	0x3e18b0c7	0.14911185
214	0x3dd88ba5	0.1057351
215	0xbe0320ba	-0.12805453
216	0xbdf0c6a2	-0.11756636
217	0xbef23cda	-0.4731205
218	0xbdae5448	-0.08512169
219	0x3e8fbe99	0.28075102
220	0xbd9b6a14	-0.07588592
221	0xbc13de70	-0.009025201
222	0xbce344f0	-0.027742833
223	0x3cb63988	0.02224423
224	0x3e189dac	0.14903897
225	0x38a8acb3	8.043032e-05
226	0x3d7e5f94	0.06210287
227	0x3da51f73	0.08062639
228	0x3e01afd7	0.12664734
229	0xbd9c78bf	-0.07640218
230	0xbd42eb2e	-0.047587566
231	0xbdbba917	-0.09163111
232	0xbeb80e94	-0.35948622
233	0x3d8dfa1e	0.06932472
234	0xbcdfb600	-0.027308464
235	0xbdada1f2	-0.08478154
236	0x3e1bcafa	0.15214148
237	0x3c75ed94	0.015010256
238	0x3d9253d1	0.07144893
239	0x3dfe551a	0.124185756
240	0x3da8cc0a	0.08242042
241	0x3e177e43	0.14794259
242	0x3d8612a8	0.06546527
243	0xbddc36e4	-0.10752657
244	0xbd76396b	-0.06011335
245	0xbe85d26c	-0.26137102
246	0xbe796489	-0.24354757
247	0xbda2f2ac	-0.07956442
248	0xbdb07b52	-0.086172715
249	0xbd2b1128	-0.04176441
250	0xbd638f74	-0.05555673
251	0xbdfc5f9c	-0.123229235
252	0xbd9d22d0	-0.076726556
253	0x3d433ae4	0.047663584
254	0x3d1691c9	0.036760125
255	0xbd184d0c	-0.037182853

nn.2.bias f4 [13]
0	0x3ef3612c	0.47535074
1	0x3d13c1c5	0.036073465
2	0xbd0945ca	-0.03351382
3	0xbd86aaaa	-0.0657552
4	0x3e1660ab	0.14685313
5	0x3daf9620	0.08573556
6	0xbdc7640a	-0.09735878
7	0x3de9aea6	0.11410265
8	0xbdd4f269	-0.103977986
9	0xbf197039	-0.59936863
10	0xbe856fb2	-0.2606178
11	0x3f808e17	1.0043362
12	0xbe1cb184	-0.15302092

exp_avg f4 [64, 4]
0	0xbfa8540f	-1.3150653
1	0xc113a806	-9.228521
2	0xc05c326a	-3.440577
3	0xc13ccc74	-11.799915
4	0xbed963c4	-0.42458928
5	0xc05bb50f	-3.432926
6	0xc00a0336	-2.156446
7	0xc04fa399	-3.2443602
8	0x3eebac42	0.4602986
9	0xbf1278be	-0.5721549
10	0xbf55189d	-0.8324068
11	0xbf3a8f03	-0.7287447
12	0xbdbb3d8b	-0.09142598
13	0xbe1a293c	-0.15054792
14	0xbe4661f9	-0.19373311
15	0xbe8bfa29	-0.27339295
16	0x002253aa	3.15242e-39
17	0x006cfeb9	1.0009611e-38
18	0x0001a640	1.51475e-40
19	0x0093d5e5	1.3576549e-38
20	0x402c5e8d	2.693271
21	0x4196411c	18.781792
22	0x40fc93f7	7.893062
23	0x41beb844	23.839973
24	0x00000000	0.0
25	0x00000000	0.0
26	0x00000000	0.0
27	0x00000000	0.0
28	0x3cdc9716	0.026927512
29	0xbe1d4acd	-0.15360565
30	0xbdd1532e	-0.102209434
31	0xbdf25d63	-0.11834218
32	0x3f71d963	0.9447233
33	0x40c9aa70	6.3020554
34	0x4024f1d8	2.577261
35	0x4101983a	8.099665
36	0x3eef7978	0.4677236
37	0x402a5d10	2.66193
38	0x3fc8c0e5	1.5683867
39	0x405af9cc	3.4214964
40	0xbe1cd874	-0.15316945
41	0x3e7c1a63	0.2461944
42	0xbe97a9e5	-0.29621807
43	0xbde69489	-0.112587996
44	0x3faf58f7	1.3699025
45	0x40e13e1b	7.038831
46	0x404a2046	3.1582198
47	0x40d7dd28	6.7457466
48	0x00000000	0.0
49	0x00000000	0.0
50	0x00000000	0.0
51	0x00000000	0.0
52	0xbf91fffa	-1.1406243
53	0xc0eca708	-7.3953896
54	0xc052952b	-3.2903545
55	0xc115ba1e	-9.357939
56	0x3e91f0c5	0.28504005
57	0x4068e06e	3.638698
58	0x3f508351	0.8145037
59	0x408d311a	4.412244
60	0x3fc76223	1.5576824
61	0x4132920d	11.160657
62	0x4090f05c	4.5293407
63	0x4133e1e1	11.242646
64	0xbf743f25	-0.9540885
65	0xc0e44986	-7.133975
66	0xc03ca424	-2.9475183
67	0xc1072ba0	-8.448151
68	0x3f8df93f	1.1091689
69	0x40f59160	7.673996
70	0x40350893	2.8286483
71	0x4126340f	10.38771
72	0x00000000	0.0
73	0x00000000	0.0
74	0x00000000	0.0
75	0x00000000	0.0
76	0x3fd40608	1.656434
77	0x41480e94	12.503559
78	0x40983997	4.75703
79	0x4176e228	15.430214
80	0x3fdfa419	1.7471954
81	0x410ea247	8.9146185
82	0x4092f3bb	4.5922523
83	0x40d5b07c	6.6777935
84	0xb97dfe19	-0.00024222619
85	0xbb9d0150	-0.004791416
86	0xbc42c161	-0.011886925
87	0xb9ace713	-0.0003297856
88	0x3fbdfa50	1.4842014
89	0x4128b56f	10.544295
90	0x40938744	4.610262
91	0x414d7a3a	12.84234
92	0x4015f8af	2.3433034
93	0x418520a8	16.640945
94	0x40e61f67	7.1913333
95	0x419ff29b	19.99346
96	0x00000000	0.0
97	0x00000000	0.0
98	0x00000000	0.0
99	0x00000000	0.0
100	0xc00536f1	-2.0814784
101	0xc115cd71	-9.362657
102	0xc08bfe7f	-4.3748164
103	0xc11fcc2e	-9.987349
104	0x00000000	0.0
105	0x00000000	0.0
106	0x00000000	0.0
107	0x00000000	0.0
108	0xbe8ff0db	-0.28113446
109	0xc00ab1e5	-2.1671078
110	0xbf9f140d	-1.2427994
111	0xc00b19d1	-2.1734507
112	0x00000000	0.0
113	0x00000000	0.0
114	0x00000000	0.0
115	0x00000000	0.0
116	0x00000000	0.0
117	0x00000000	0.0
118	0x00000000	0.0
119	0x00000000	0.0
120	0x00000000	0.0
121	0x00000000	0.0
122	0x00000000	0.0
123	0x00000000	0.0
124	0x00000000	0.0
125	0x00000000	0.0
126	0x00000000	0.0
127	0x00000000	0.0
128	0xbe832417	-0.25613472
129	0xbfdd8483	-1.7306064
130	0xbf05b725	-0.5223258
131	0xc0187000	-2.381836
132	0xbfae720c	-1.3628554
133	0xc11866b3	-9.525073
134	0xc0785946	-3.8804488
135	0xc13f02e2	-11.938204
136	0xba61718d	-0.0008599989
137	0xbb852312	-0.0040630186
138	0xbc9b3e8e	-0.018950727
139	0xbaa0066f	-0.0012208949
140	0x3c6cd74f	0.01445563
141	0x3e7e49c9	0.24832834
142	0x3eb3b695	0.35100237
143	0x3e5852a6	0.21125278
144	0xbf1c23d6	-0.6099218
145	0xc072dd22	-3.7947469
146	0xbfcb8883	-1.5901035
147	0xc0a26b07	-5.075565
148	0xbb85f851	-0.0040884395
149	0xbcf597d4	-0.029979624
150	0xbdb24eae	-0.08706413
151	0xbb8f5a6d	-0.0043747933
152	0xbcba3945	-0.022732386
153	0xbeeeaa11	-0.46614125
154	0xbeeaf253	-0.45888004
155	0xbeca9f4f	-0.39574668
156	0xbf831934	-1.0242066
157	0xc0e00e17	-7.00172
158	0xc022c38a	-2.5431848
159	0xc0e38e20	-7.1110992
160	0xbde184fd	-0.110116936
161	0xc08fbe2c	-4.4919643
162	0xbf9f9339	-1.2466804
163	0xc080284d	-4.0049195
164	0x3ebb4196	0.36573476
165	0x3fb3bb8d	1.4041611
166	0x3fba4be3	1.4554409
167	0x3fd85487	1.6900796
168	0x00000000	0.0
169	0x00000000	0.0
170	0x00000000	0.0
171	0x00000000	0.0
172	0x00000000	0.0
173	0x00000000	0.0
174	0x00000000	0.0
175	0x00000000	0.0
176	0xbceabaf3	-0.028653597
177	0xbed20da1	-0.41026023
178	0xbe89e3fb	-0.26931748
179	0xbdc159dc	-0.094409674
180	0xbf045cb5	-0.5170396
181	0xc055b7e3	-3.3393486
182	0xbfa4ce57	-1.287547
183	0xc08b82c2	-4.3597116
184	0xbef8783c	-0.48529232
185	0xc048f1da	-3.1397614
186	0xbf9aefe3	-1.2104458
187	0xc084e8be	-4.153411
188	0x00000000	0.0
189	0x00000000	0.0
190	0x00000000	0.0
191	0x00000000	0.0
192	0xbf9f4445	-1.2442709
193	0xc1014944	-8.080387
194	0xc04c5339	-3.1925795
195	0xc12b1c1c	-10.694363
196	0x3eb1eef4	0.3475262
197	0x3fd8e9a9	1.6946307
198	0x3f9d6cd8	1.2298841
199	0x4006539e	2.0988536
200	0xbf1d0033	-0.6132843
201	0xc0459c04	-3.0876474
202	0xbfda7faf	-1.7070216
203	0xc0796d6a	-3.897303
204	0x00000000	0.0
205	0x00000000	0.0
206	0x00000000	0.0
207	0x00000000	0.0
208	0xbfdbd7cf	-1.7175235
209	0xc1361d17	-11.382102
210	0xc09ac694	-4.8367405
211	0xc1693fb1	-14.57805
212	0x3e9d6f54	0.30749
213	0x400c27fa	2.18994
214	0xbe200128	-0.15625441
215	0x3fe93f38	1.8222418
216	0xbf8f7106	-1.1206367
217	0xc10c408e	-8.76576
218	0xc04d794b	-3.2105281
219	0xc10cc2df	-8.797576
220	0x3f6c4eb0	0.9230757
221	0x40ea8622	7.3288736
222	0x403a6767	2.9125612
223	0x410bb705	8.7321825
224	0x3e9deab6	0.30843133
225	0x3f41d99f	0.7572269
226	0x3f580fbb	0.84399
227	0x3fb0bedc	1.3808246
228	0xbffa3d80	-1.9550018
229	0xc1598a54	-13.5962715
230	0xc0c10d8e	-6.0329046
231	0xc181a55b	-16.20574
232	0x400ff9e5	2.2496274
233	0x4173b8a1	15.232575
234	0x40c98c26	6.298358
235	0x419aada2	19.334782
236	0x00000000	0.0
237	0x00000000	0.0
238	0x00000000	0.0
239	0x00000000	0.0
240	0x00000000	0.0
241	0x00000000	0.0
242	0x00000000	0.0
243	0x00000000	0.0
244	0x00000000	0.0
245	0x00000000	0.0
246	0x00000000	0.0
247	0x00000000	0.0
248	0x00000004	6e-45
249	0x00000004	6e-45
250	0x00000004	6e-45
251	0x00000004	6e-45
252	0x00000000	0.0
253	0x00000000	0.0
254	0x00000000	0.0
255	0x00000000	0.0

exp_avg_sq f4 [64, 4]
0	0x441f86f2	638.1085
1	0x472657ca	42583.79
2	0x45d91fbb	6947.9663
3	0x4712d0db	37584.855
4	0x4191c8d0	18.223053
5	0x449e14f4	1264.6548
6	0x435764eb	215.39421
7	0x449a0bdb	1232.3705
8	0x42fbf59f	125.97973
9	0x458bf852	4479.04
10	0x44a5234c	1321.103
11	0x45ab4bd7	5481.48
12	0x403bab6e	2.9323382
13	0x432141c4	161.2569
14	0x4205d0b2	33.453804
15	0x430f8ec6	143.55771
16	0x3f473370	0.7781286
17	0x4204a446	33.160423
18	0x400569a5	2.084573
19	0x4208e0a2	34.219368
20	0x45049604	2121.376
21	0x480ab99c	142054.44
22	0x46b2c067	22880.201
23	0x47f5f5f2	125931.89
24	0x00000000	0.0
25	0x00000000	0.0
26	0x00000000	0.0
27	0x00000000	0.0
28	0x3eeaf603	0.45890817
29	0x41e4e13b	28.609976
30	0x4156cdc4	13.425236
31	0x41dd1a5b	27.637869
32	0x43a3c462	327.53424
33	0x46ab3a3c	21917.117
34	0x455efc1c	3567.7568
35	0x46972a31	19349.096
36	0x42939ffb	73.81246
37	0x459ad26a	4954.302
38	0x444baffd	814.7498
39	0x4589c743	4408.9077
40	0x42919715	72.79508
41	0x4597a646	4852.784
42	0x44465a9e	793.4159
43	0x458694a9	4306.5825
44	0x42136604	36.849625
45	0x44d6048f	1712.1425
46	0x43ee7494	476.91077
47	0x44e64611	1842.1896
48	0x00000000	0.0
49	0x00000000	0.0
50	0x00000000	0.0
51	0x00000000	0.0
52	0x43b841b6	368.51337
53	0x46c078b9	24636.361
54	0x457abd78	4011.8418
55	0x46a9fe4d	21759.15
56	0x422f464d	43.818653
57	0x45350e9a	2896.9126
58	0x43f483cc	489.02966
59	0x451fbb34	2555.7002
60	0x4369f6ad	233.96358
61	0x462d92d6	11108.709
62	0x454650bb	3173.0457
63	0x46513b79	13390.868
64	0x42c3245c	97.571014
65	0x45cb24ac	6500.584
66	0x4487e69e	1087.2068
67	0x45b36711	5740.8833
68	0x447cea8e	1011.6649
69	0x478536b9	68205.445
70	0x462ffeeb	11263.7295
71	0x476ad18d	60113.55
72	0x00000000	0.0
73	0x00000000	0.0
74	0x00000000	0.0
75	0x00000000	0.0
76	0x44184039	609.0035
77	0x471ed0ca	40656.79
78	0x45cea0f6	6612.12
79	0x470c0938	35849.22
80	0x4316f37d	150.95113
81	0x45ff6dad	8173.7095
82	0x450e8a03	2280.6257
83	0x4600f55e	8253.342
84	0x39ade221	0.0003316561
85	0x3cafad27	0.02144487
86	0x3ce66027	0.02812202
87	0x3a52be8c	0.0008039258
88	0x43c0148e	384.16058
89	0x46c915a4	25738.82
90	0x458351e0	4202.2344
91	0x46b22610	22803.031
92	0x443cfba8	755.9321
93	0x4745acdc	50604.86
94	0x4602314f	8332.327
95	0x472fee70	45038.438
96	0x00000000	0.0
97	0x00000000	0.0
98	0x00000000	0.0
99	0x00000000	0.0
100	0x4386fece	269.99066
101	0x466fd771	15349.86
102	0x4544a0fa	3146.061
103	0x4646d92b	12726.292
104	0x00000000	0.0
105	0x00000000	0.0
106	0x00000000	0.0
107	0x00000000	0.0
108	0x42214db6	40.32589
109	0x452bc3c0	2748.2344
110	0x4400136b	512.3034
111	0x451f32ef	2547.1833
112	0x00000000	0.0
113	0x00000000	0.0
114	0x00000000	0.0
115	0x00000000	0.0
116	0x00000000	0.0
117	0x00000000	0.0
118	0x00000000	0.0
119	0x00000000	0.0
120	0x00000000	0.0
121	0x00000000	0.0
122	0x00000000	0.0
123	0x00000000	0.0
124	0x00000000	0.0
125	0x00000000	0.0
126	0x00000000	0.0
127	0x00000000	0.0
128	0x42559aea	53.401283
129	0x455f43ad	3572.2297
130	0x441235df	584.84174
131	0x45474448	3188.2676
132	0x43e4435f	456.52634
133	0x46f01bec	30733.96
134	0x459be210	4988.258
135	0x46d38afb	27077.49
136	0x37c26d66	2.3177545e-05
137	0x3a8511c6	0.0010152392
138	0x3c60c76a	0.013719419
139	0x383a7040	4.4450397e-05
140	0x3db7acd5	0.08968512
141	0x40b21257	5.5647388
142	0x40f8e24f	7.7776256
143	0x4006d901	2.1069949
144	0x435b1f98	219.12341
145	0x46659e92	14695.643
146	0x4515be09	2395.8772
147	0x464adefa	12983.744
148	0x3938a652	0.00017609567
149	0x3c36d982	0.011160256
150	0x3da77575	0.081767
151	0x3a162df6	0.00057288946
152	0x3cf021b3	0.029312944
153	0x3fd1939c	1.6373172
154	0x3ff89de0	1.942318
155	0x3f85b32a	1.0445302
156	0x437f859e	255.52194
157	0x4656c47c	13745.121
158	0x4524526d	2629.1516
159	0x4621c9e5	10354.474
160	0x43998c13	307.09433
161	0x46800eb1	16391.346
162	0x45468681	3176.4065
163	0x4643045a	12481.088
164	0x421848f5	38.071247
165	0x451c7a9a	2503.6626
166	0x43d9fa02	435.9532
167	0x450ee00d	2286.0032
168	0x00000000	0.0
169	0x00000000	0.0
170	0x00000000	0.0
171	0x00000000	0.0
172	0x00000000	0.0
173	0x00000000	0.0
174	0x00000000	0.0
175	0x00000000	0.0
176	0x3dd43707	0.10362058
177	0x414242ef	12.141341
178	0x4108661f	8.524932
179	0x401da7b0	2.4633598
180	0x4301724d	129.44649
181	0x46075160	8660.344
182	0x44b10150	1416.041
183	0x45eef121	7646.141
184	0x430f7583	143.45903
185	0x4616b792	9645.893
186	0x44c57499	1579.6437
187	0x460539bc	8526.434
188	0x00000000	0.0
189	0x00000000	0.0
190	0x00000000	0.0
191	0x00000000	0.0
192	0x444ac750	811.11426
193	0x475488e6	54408.9
194	0x460abf59	8879.837
195	0x473bb150	48049.312
196	0x41ed5c21	29.669985
197	0x44f57d4f	1963.9159
198	0x43a8202a	336.25128
199	0x44de7559	1779.6671
200	0x4294a44f	74.320915
201	0x459f445f	5096.5464
202	0x4455ba2e	854.90906
203	0x458cfa4a	4511.286
204	0x00000000	0.0
205	0x00000000	0.0
206	0x00000000	0.0
207	0x00000000	0.0
208	0x4481009a	1032.0188
209	0x47871de8	69179.81
210	0x462ff33a	11260.807
211	0x476e78f6	61048.96
212	0x4135a1a9	11.351968
213	0x44c8ffea	1607.9973
214	0x439e8df1	317.10892
215	0x45026f18	2086.9434
216	0x4359821f	217.50829
217	0x46219412	10341.018
218	0x451ccd0a	2508.815
219	0x4600d67e	8245.623
220	0x42c3f448	97.97711
221	0x45cbe252	6524.29
222	0x4485df33	1070.975
223	0x45b521a1	5796.2036
224	0x43080722	136.02786
225	0x460e8ce9	9123.228
226	0x44b93f0f	1481.9706
227	0x45fcdcf4	8091.619
228	0x444671dd	793.7791
229	0x474d3ee5	52542.895
230	0x460337a6	8397.912
231	0x473775e6	46965.9
232	0x44ccb5d8	1637.6826
233	0x47d621a6	109635.3
234	0x468b6fcd	17847.9
235	0x47bcf397	96743.18
236	0x00000000	0.0
237	0x00000000	0.0
238	0x00000000	0.0
239	0x00000000	0.0
240	0x00000000	0.0
241	0x00000000	0.0
242	0x00000000	0.0
243	0x00000000	0.0
244	0x00000000	0.0
245	0x00000000	0.0
246	0x00000000	0.0
247	0x00000000	0.0
248	0x391f943a	0.0001521864
249	0x3d01dfbe	0.031707518
250	0x3ca93c72	0.020658705
251	0x3baa9010	0.005205162
252	0x00000000	0.0
253	0x00000000	0.0
254	0x00000000	0.0
255	0x00000000	0.0

exp_avg f4 [64]
0	0xbd31f304	-0.04344465
1	0xbcb4a89b	-0.022053054
2	0xbcc2e63a	-0.023791421
3	0xbaf989e5	-0.0019038288
4	0x0000cf0d	7.4276e-41
5	0x3dc44281	0.09582997
6	0x00000000	0.0
7	0xbb080c69	-0.002075935
8	0x3d157bda	0.036495067
9	0x3cc5f440	0.024164319
10	0xbc646d52	-0.01394208
11	0x3d06a252	0.032869644
12	0x00000000	0.0
13	0xbd295f75	-0.0413508
14	0x3b1a1508	0.002351107
15	0x3d02cdc1	0.031934503
16	0xbcd763f1	-0.026292773
17	0x3d35fa29	0.044428024
18	0x00000000	0.0
19	0x3d4fcf0f	0.050734576
20	0x3d08d9af	0.033410724
21	0xb931fcb4	-0.00016974175
22	0x3d4f0e36	0.050550662
23	0x3d9686da	0.0734994
24	0x00000000	0.0
25	0xbdb3a421	-0.087715395
26	0x00000000	0.0
27	0xbba5665d	-0.005047603
28	0x00000000	0.0
29	0x00000000	0.0
30	0x00000000	0.0
31	0x00000000	0.0
32	0xbc098e05	-0.0083956765
33	0xbd38977c	-0.04506634
34	0xb95f2a7d	-0.00021282765
35	0x3b370cc4	0.0027931193
36	0xbccd4af9	-0.025060164
37	0xba7c914f	-0.000963469
38	0xbbafd225	-0.0053656274
39	0xbd1bce4d	-0.03803854
40	0xbd11a653	-0.03555901
41	0x3cb403f4	0.021974541
42	0x00000000	0.0
43	0x00000000	0.0
44	0xbb0636e4	-0.0020479495
45	0xbc8ed2a8	-0.017434433
46	0xbc8c44ed	-0.01712271
47	0x00000000	0.0
48	0xbd40f28b	-0.047106307
49	0x3c9b1cb2	0.018934581
50	0xbcd12261	-0.025529088
51	0x00000000	0.0
52	0xbd83009f	-0.06396603
53	0x3d00547d	0.031330574
54	0xbd53c7fd	-0.051704396
55	0x3cd7b5b9	0.02633177
56	0x3cb67e2d	0.022276962
57	0xbd937809	-0.07200629
58	0x3da6e875	0.081498064
59	0x00000000	0.0
60	0x00000000	0.0
61	0x00000000	0.0
62	0x00000004	6e-45
63	0x00000000	0.0

exp_avg_sq f4 [64]
0	0x3fc85a6b	1.5652593
1	0x3d4122f8	0.04715249
2	0x3e6a883d	0.22903533
3	0x3beb08fd	0.0071727023
4	0x3aa062b1	0.0012236444
5	0x40a55685	5.1668115
6	0x00000000	0.0
7	0x3aeebfeb	0.0018215155
8	0x3f4dc7a7	0.8038277
9	0x3e3ab115	0.18231614
10	0x3e394f1b	0.18096583
11	0x3da2f37c	0.07956597
12	0x00000000	0.0
13	0x3f678943	0.9044382
14	0x3ddc82c4	0.10767129
15	0x3f0c21f5	0.54739314
16	0x3e76b901	0.24094011
17	0x401fe44c	2.4983091
18	0x00000000	0.0
19	0x3fbe7c8b	1.4881757
20	0x3eba5bf6	0.36398286
21	0x36802d77	3.81999e-06
22	0x3f713fd5	0.94238025
23	0x3fee608c	1.8623214
24	0x00000000	0.0
25	0x3f0e7728	0.5565057
26	0x00000000	0.0
27	0x3dd76039	0.105164
28	0x00000000	0.0
29	0x00000000	0.0
30	0x00000000	0.0
31	0x00000000	0.0
32	0x3e07d00d	0.13262959
33	0x3f8faa2a	1.1223805
34	0x360174cd	1.9290485e-06
35	0x3a89f3f2	0.0010524972
36	0x3f0a3460	0.5398617
37	0x373b4cb6	1.1163929e-05
38	0x398928ac	0.0002616098
39	0x3eebac82	0.4603005
40	0x3f0e4948	0.5558057
41	0x3dc1a3b0	0.09455049
42	0x00000000	0.0
43	0x00000000	0.0
44	0x3a944dbc	0.001131467
45	0x3ea2d77c	0.31805027
46	0x3eb5a0cc	0.3547424
47	0x00000000	0.0
48	0x3fff6807	1.9953622
49	0x3d9726d4	0.07380453
50	0x3e40dfff	0.18835448
51	0x00000000	0.0
52	0x402229e6	2.5338073
53	0x3d989e16	0.074520275
54	0x3ec7a878	0.3899572
55	0x3e7667d3	0.24063043
56	0x3eabfd8d	0.3359188
57	0x3ff4be0b	1.9120497
58	0x40809202	4.017823
59	0x00000000	0.0
60	0x00000000	0.0
61	0x00000000	0.0
62	0x36373e84	2.7305514e-06
63	0x00000000	0.0

exp_avg f4 [13, 64]
0	0x3e482931	0.19546963
1	0x3d5ace87	0.053419616
2	0xbb241e6d	-0.002504255
3	0x3c5ad3d1	0.013356165
4	0x800001d1	-6.52e-43
5	0x3db1d75e	0.08683656
6	0x00000000	0.0
7	0x3c209b94	0.009802718
8	0x3db79ed7	0.08965843
9	0x3da3c9c7	0.0799747
10	0x3d8b7c4c	0.06810817
11	0xbba90ea5	-0.0051592165
12	0x00000000	0.0
13	0x3de32832	0.11091651
14	0x3c2a4052	0.010391312
15	0xbb717e2c	-0.0036848886
16	0xb9d26fe1	-0.00040137678
17	0xbbf44078	-0.0074539743
18	0x00000000	0.0
19	0x3db7247d	0.089425065
20	0xbb7afe8a	-0.003829869
21	0x3989d205	0.00026287153
22	0x3cdd21c9	0.02699365
23	0x3dac7151	0.08420051
24	0x00000000	0.0
25	0x3c6bc47e	0.014390109
26	0x00000000	0.0
27	0xbc086e9b	-0.008327152
28	0x00000000	0.0
29	0x00000000	0.0
30	0x00000000	0.0
31	0x00000000	0.0
32	0x3d5d7628	0.05406776
33	0x3c96b2af	0.01839575
34	0x39916098	0.00027728523
35	0x3bcb4b08	0.006204013
36	0x3d93bc3e	0.07213639
37	0x39e44ffc	0.00043547142
38	0x3bb66396	0.005566071
39	0x3c087c40	0.008330405
40	0x3c801534	0.01563511
41	0x3de480f2	0.11157407
42	0x00000000	0.0
43	0x00000000	0.0
44	0x3c02ffa9	0.007995524
45	0x3cf7f7ad	0.030269468
46	0x3d51c4b1	0.05121297
47	0x00000000	0.0
48	0x3db87c89	0.09008128
49	0x3d34cb0c	0.044138953
50	0xbc29c3f0	-0.010361657
51	0x00000000	0.0
52	0x3d6a7033	0.057235908
53	0x3c058460	0.008149236
54	0x3bfc5002	0.0076999674
55	0x3d8dd1a5	0.06924752
56	0x3df363a6	0.11884241
57	0x3da6b4d8	0.08139962
58	0x3db16749	0.08662278
59	0x00000000	0.0
60	0x00000000	0.0
61	0x00000000	0.0
62	0x00000004	6e-45
63	0x00000000	0.0
64	0xc0a54601	-5.1647954
65	0xbdb3a3e9	-0.08771498
66	0xbc0c1f79	-0.008552426
67	0xbda1a140	-0.07892084
68	0x8000050f	-1.815e-42
69	0xbfbe17ea	-1.4851048
70	0x00000000	0.0
71	0x3da423c0	0.08014631
72	0xbfff2a5b	-1.9934801
73	0xc02accf5	-2.6687596
74	0xc02ad9f5	-2.669553
75	0xbe0dd90b	-0.13852327
76	0x00000000	0.0
77	0xc0678b3c	-3.6178732
78	0xc021345b	-2.5188205
79	0xbbd646d4	-0.006539205
80	0xc0242a91	-2.565098
81	0xbfd1a8a3	-1.6379589
82	0x00000000	0.0
83	0xc03f2dd0	-2.9871712
84	0xbe6fad2a	-0.234059
85	0xbadcb797	-0.0016839382
86	0xbfa97913	-1.3240074
87	0xbf9e6130	-1.2373409
88	0x00000000	0.0
89	0xbe910127	-0.28321192
90	0x00000000	0.0
91	0xbfe75016	-1.8071315
92	0x00000000	0.0
93	0x00000000	0.0
94	0x00000000	0.0
95	0x00000000	0.0
96	0xc04f7cfe	-3.242004
97	0xbeaaac63	-0.33334646
98	0xba6b2b9e	-0.0008971038
99	0x3c21f213	0.009884375
100	0xc031ad4f	-2.776203
101	0xbb297dd8	-0.0025862362
102	0xbd12349f	-0.035694715
103	0xbe3464ec	-0.17616624
104	0xbe773b29	-0.24143662
105	0xc01da3ce	-2.4631228
106	0x00000000	0.0
107	0x00000000	0.0
108	0x3d5b5b69	0.053553972
109	0xbfa80358	-1.312602
110	0xc011b69d	-2.2767708
111	0x00000000	0.0
112	0xc01a0bd9	-2.4069731
113	0xbfe488d0	-1.7854252
114	0xbf97d385	-1.1861426
115	0x00000000	0.0
116	0xc0257492	-2.58524
117	0xbe2caacf	-0.16862033
118	0xbda3218d	-0.07965384
119	0xbfa92298	-1.3213682
120	0xc094705c	-4.6387157
121	0xbfdc6deb	-1.7221044
122	0xc04c3675	-3.1908238
123	0x00000000	0.0
124	0x00000000	0.0
125	0x00000000	0.0
126	0x80000004	-6e-45
127	0x00000000	0.0
128	0x40bdb530	5.9283676
129	0x3ef0757c	0.46964633
130	0xbd7eb205	-0.06218149
131	0x3d81ff08	0.063474715
132	0x800003dd	-1.386e-42
133	0x3ffab9b6	1.9587924
134	0x00000000	0.0
135	0xbe1ac958	-0.15115869
136	0x401562d1	2.3341563
137	0x4032c4be	2.7932582
138	0x403dda00	2.9664307
139	0x3daf8ca4	0.08571747
140	0x00000000	0.0
141	0x4083d168	4.1193123
142	0x4012419d	2.2852547
143	0xbd5b0725	-0.05347361
144	0x4016b794	2.3549547
145	0x3fd2b6e1	1.646206
146	0x00000000	0.0
147	0x405e6db7	3.4754465
148	0x3e54a6c8	0.20766747
149	0x3b4a3e6b	0.0030859958
150	0x3fafe28c	1.3741012
151	0x3faf28fa	1.368438
152	0x00000000	0.0
153	0x3e63dd26	0.2225233
154	0x00000000	0.0
155	0x3ff33436	1.9000309
156	0x00000000	0.0
157	0x00000000	0.0
158	0x00000000	0.0
159	0x00000000	0.0
160	0x404edcb2	3.2322202
161	0x3ef10548	0.47074342
162	0x3a89e64b	0.0010520903
163	0xbd219c0b	-0.039455455
164	0x40484fd8	3.1298733
165	0x3b7faf5e	0.003901444
166	0x3be2c07a	0.0069199177
167	0x3e40400e	0.18774435
168	0x3e80cfe9	0.25158623
169	0x403e28e9	2.971247
170	0x00000000	0.0
171	0x00000000	0.0
172	0xbdde95ff	-0.10868453
173	0x3f9e476a	1.2365544
174	0x400c6aae	2.1940112
175	0x00000000	0.0
176	0x4024eff7	2.5771463
177	0x3ff57356	1.9175823
178	0x3fa3720b	1.2769178
179	0x00000000	0.0
180	0x40344989	2.8169882
181	0x3ecdf317	0.40224525
182	0x3dbdb7f9	0.092636056
183	0x3fd0a2cd	1.6299683
184	0x40a2829e	5.0784445
185	0x400f4d1a	2.239081
186	0x40583df1	3.3787806
187	0x00000000	0.0
188	0x00000000	0.0
189	0x00000000	0.0
190	0x00000004	6e-45
191	0x00000000	0.0
192	0x408b305b	4.349653
193	0xbd8827fd	-0.06648252
194	0x3cee7f6e	0.029113498
195	0xbcc9c483	-0.024629837
196	0x00000f8e	5.58e-42
197	0x3f9c31d0	1.2202702
198	0x00000000	0.0
199	0xbddb695e	-0.107134566
200	0x3fd65769	1.6745425
201	0x400cbad1	2.1989024
202	0x40191fdf	2.3925703
203	0x3e1417a3	0.14462142
204	0x00000000	0.0
205	0x4044b235	3.073377
206	0x400eed0d	2.2332184
207	0x3cc97494	0.024591722
208	0x4015279b	2.3305423
209	0x3fcc10f1	1.594267
210	0x00000000	0.0
211	0x402626a6	2.596109
212	0x3e728dd3	0.23686914
213	0x3a2af5bb	0.0006521602
214	0x3f8f8b7f	1.1214446
215	0x3f5bca7f	0.8585586
216	0x00000000	0.0
217	0x3def7b0e	0.11693393
218	0x00000000	0.0
219	0x3fe2e3e3	1.7725796
220	0x00000000	0.0
221	0x00000000	0.0
222	0x00000000	0.0
223	0x00000000	0.0
224	0x40391d44	2.8924112
225	0x3e512664	0.20424801
226	0x39949206	0.00028337556
227	0xbd014d98	-0.03156814
228	0x401c9fa9	2.447245
229	0x3a9a4664	0.0011770246
230	0x3cbb76b2	0.022883747
231	0x3dc234d9	0.09482736
232	0x3de2444b	0.11048182
233	0x40061664	2.0951166
234	0x00000000	0.0
235	0x00000000	0.0
236	0xbdaf07e1	-0.08546425
237	0x3f88ae6d	1.067823
238	0x3ff3d909	1.9050609
239	0x00000000	0.0
240	0x3ff88470	1.9415417
241	0x3fc8eb83	1.5696872
242	0x3f97b35a	1.1851609
243	0x00000000	0.0
244	0x4010fbe2	2.2653737
245	0x3e0be74c	0.13662452
246	0x3ccc65d2	0.024950895
247	0x3f810577	1.0079793
248	0x407faa32	3.994763
249	0x3fc1b872	1.5134413
250	0x402cf988	2.7027302
251	0x00000000	0.0
252	0x00000000	0.0
253	0x00000000	0.0
254	0x80000004	-6e-45
255	0x00000000	0.0

exp_avg_sq f4 [13, 64]
0	0x422261a5	40.595356
1	0x408cd286	4.4006987
2	0x3c9945ae	0.018709984
3	0x3f04d92b	0.5189387
4	0x3fb34cea	1.4007847
5	0x4036af33	2.8544433
6	0x00000000	0.0
7	0x3ba81d3c	0.005130438
8	0x410534a4	8.325352
9	0x40a510b1	5.1582875
10	0x40ee1f38	7.441311
11	0x3cbb3f4f	0.022857336
12	0x00000000	0.0
13	0x4194f9e8	18.622025
14	0x3f52eef2	0.8239585
15	0x3b07f628	0.0020746086
16	0x3f360885	0.7110675
17	0x3eba46e4	0.3638221
18	0x00000000	0.0
19	0x4191f027	18.242262
20	0x3c1c5dc6	0.009543842
21	0x3a00abd5	0.00049084175
22	0x3f0d964e	0.5530747
23	0x3f433563	0.76253337
24	0x00000000	0.0
25	0x3d2c3160	0.042039275
26	0x00000000	0.0
27	0x3ed84f16	0.42247838
28	0x00000000	0.0
29	0x00000000	0.0
30	0x00000000	0.0
31	0x00000000	0.0
32	0x4084127b	4.127256
33	0x3eca6624	0.39531052
34	0x365628bb	3.1912193e-06
35	0x3a6994c3	0.0008910412
36	0x416a7545	14.65363
37	0x3810360b	3.4382607e-05
38	0x3a76ad99	0.00094100233
39	0x3e5b88a1	0.21438839
40	0x3d927b6e	0.071524486
41	0x40db98c0	6.8623962
42	0x00000000	0.0
43	0x00000000	0.0
44	0x3cbd825d	0.023133451
45	0x3f7826b3	0.9693405
46	0x40783e7b	3.8788135
47	0x00000000	0.0
48	0x40ca5daf	6.323936
49	0x3fda0084	1.7031407
50	0x3edea067	0.43481752
51	0x00000000	0.0
52	0x4121c9a1	10.111726
53	0x3f5a8e6a	0.85373557
54	0x3cabfe9f	0.020995436
55	0x40129164	2.290124
56	0x41900109	18.000505
57	0x3f557a1b	0.83389443
58	0x4198c7cb	19.097555
59	0x00000000	0.0
60	0x00000000	0.0
61	0x00000000	0.0
62	0x38934eb9	7.0241695e-05
63	0x00000000	0.0
64	0x45d2f0bd	6750.0923
65	0x430cc47f	140.76756
66	0x40af124c	5.4709835
67	0x41471841	12.443421
68	0x4070b429	3.760996
69	0x4441a89d	774.6346
70	0x00000000	0.0
71	0x40678405	3.6174328
72	0x448040ac	1026.021
73	0x44c5dde8	1582.9346
74	0x44a46d2a	1315.4114
75	0x40c36c3b	6.1069617
76	0x00000000	0.0
77	0x455219d9	3361.6155
78	0x442d13f3	692.3117
79	0x40684934	3.629468
80	0x44293eb0	676.9795
81	0x43805a8f	256.7075
82	0x00000000	0.0
83	0x450c60ab	2246.0417
84	0x413d4371	11.828965
85	0x3c38a9fa	0.011270994
86	0x43b51c30	362.2202
87	0x43fd535a	506.65118
88	0x00000000	0.0
89	0x41c63b28	24.778885
90	0x00000000	0.0
91	0x43c73242	398.39264
92	0x00000000	0.0
93	0x00000000	0.0
94	0x00000000	0.0
95	0x00000000	0.0
96	0x44ae8560	1396.168
97	0x4303772e	131.46555
98	0x3850fb6d	4.9825223e-05
99	0x3dbe69ef	0.09297549
100	0x44d216d8	1680.7139
101	0x3a06b634	0.0005138845
102	0x3dc6e0a1	0.09710813
103	0x41e15c05	28.169931
104	0x4216c666	37.69375
105	0x44c0d28f	1542.58
106	0x00000000	0.0
107	0x00000000	0.0
108	0x3f8b8b15	1.090182
109	0x43a375d0	326.9204
110	0x445dc8ed	887.13947
111	0x00000000	0.0
112	0x44b37710	1435.7207
113	0x441039a6	576.90076
114	0x432c889a	172.5336
115	0x00000000	0.0
116	0x44ac395b	1377.7924
117	0x41b2d197	22.352339
118	0x414284ed	12.157453
119	0x443fc001	767.00006
120	0x458f845b	4592.5444
121	0x444da052	822.505
122	0x45075cf4	2165.8096
123	0x00000000	0.0
124	0x00000000	0.0
125	0x00000000	0.0
126	0x3b8a7209	0.00422502
127	0x00000000	0.0
128	0x4646dec5	12727.692
129	0x442bf42a	687.81506
130	0x40bd64c4	5.9185505
131	0x42b1fdd1	88.995735
132	0x4315d11a	149.8168
133	0x4481ffd1	1039.9943
134	0x00000000	0.0
135	0x4069c0ed	3.6524003
136	0x45155fad	2389.9797
137	0x45132ee9	2354.932
138	0x45178d5c	2424.835
139	0x40fdedbe	7.9352713
140	0x00000000	0.0
141	0x45c0a435	6164.526
142	0x4421dfbf	647.49603
143	0x40670779	3.609831
144	0x441ebffe	634.9999
145	0x437feaaf	255.91673
146	0x00000000	0.0
147	0x459f1ed6	5091.8545
148	0x4138e13f	11.554992
149	0x3b6ecf77	0.0036439577
150	0x43c54be2	394.59283
151	0x43f09ecc	481.2406
152	0x00000000	0.0
153	0x41b8a7e3	23.081976
154	0x00000000	0.0
155	0x43bee28a	381.76984
156	0x00000000	0.0
157	0x00000000	0.0
158	0x00000000	0.0
159	0x00000000	0.0
160	0x4503a8d4	2106.5518
161	0x433dc5d0	189.7727
162	0x38a42cc0	7.828465e-05
163	0x3dd5bbf8	0.10436243
164	0x457efa32	4079.6372
165	0x3a199b02	0.0005859585
166	0x3de123dc	0.10993168
167	0x42330ff6	44.765587
168	0x420b10f1	34.766544
169	0x4516ee03	2414.8757
170	0x00000000	0.0
171	0x00000000	0.0
172	0x3f314cb4	0.69257665
173	0x43d638ec	428.4447
174	0x44c0e7a4	1543.2388
175	0x00000000	0.0
176	0x451534b2	2387.2935
177	0x4457aa70	862.6631
178	0x435154be	209.33102
179	0x00000000	0.0
180	0x453d2f81	3026.969
181	0x4306d429	134.82875
182	0x4137e10c	11.492443
183	0x448086e3	1028.2152
184	0x45e7659f	7404.7026
185	0x443e5ff0	761.499
186	0x45a6875b	5328.9194
187	0x00000000	0.0
188	0x00000000	0.0
189	0x00000000	0.0
190	0x3a8aa0d5	0.0010576496
191	0x00000000	0.0
192	0x45cb9236	6514.2764
193	0x4307108e	135.06467
194	0x40af3228	5.4748726
195	0x407b4853	3.9262893
196	0x406193cf	3.5246465
197	0x443b7642	749.8478
198	0x00000000	0.0
199	0x405e0e8b	3.4696376
200	0x4477e418	991.56396
201	0x44bcd1c6	1510.5554
202	0x44a00df7	1280.4364
203	0x40c570dc	6.170027
204	0x00000000	0.0
205	0x454a1b10	3233.6914
206	0x4427549c	669.322
207	0x406417e6	3.5639586
208	0x4424b64c	658.8484
209	0x437e88b3	254.53398
210	0x00000000	0.0
211	0x4507845c	2168.2725
212	0x41396af7	11.588614
213	0x3b4d5b22	0.0031334837
214	0x43adb4b6	347.4118
215	0x43f56b35	490.83755
216	0x00000000	0.0
217	0x41bc21fe	23.516598
218	0x00000000	0.0
219	0x43c4d832	393.68903
220	0x00000000	0.0
221	0x00000000	0.0
222	0x00000000	0.0
223	0x00000000	0.0
224	0x44a81098	1344.5186
225	0x42fa1928	125.04913
226	0x38930c1a	7.01176e-05
227	0x3da409b5	0.08009664
228	0x44ca8ab1	1620.3341
229	0x3a20d125	0.00061346806
230	0x3da86dc7	0.08224063
231	0x41995ea4	19.171211
232	0x420ae2a1	34.721317
233	0x44bac475	1494.1393
234	0x00000000	0.0
235	0x00000000	0.0
236	0x3eb141e8	0.34620595
237	0x43993bc4	306.46692
238	0x4450ff6d	835.991
239	0x00000000	0.0
240	0x44ab509f	1370.5194
241	0x440bd84c	559.37964
242	0x432bdbaa	171.85806
243	0x00000000	0.0
244	0x44a4dc1f	1318.8788
245	0x419c1bc7	19.513563
246	0x413a4a7c	11.643185
247	0x4438fce0	739.9512
248	0x458a2f4d	4421.9126
249	0x4448a2f2	802.546
250	0x44ffa17b	2045.0463
251	0x00000000	0.0
252	0x00000000	0.0
253	0x00000000	0.0
254	0x391b2b31	0.00014798042
255	0x00000000	0.0

exp_avg f4 [13]
0	0xbb93edf9	-0.0045144525
1	0xbcdcbe82	-0.02694631
2	0x3d06a9ef	0.032876905
3	0x3d1a8db5	0.0377328
4	0xbce36b36	-0.027761083
5	0x00000000	0.0
6	0x00000000	0.0
7	0x00000000	0.0
8	0x3c49f642	0.012326779
9	0x3ef44fab	0.47717032
10	0x3ef79cb3	0.4836174
11	0xbb7669c8	-0.0037599672
12	0xbb4ad685	-0.0030950618

exp_avg_sq f4 [13]
0	0x3af80f6f	0.0018925498
1	0x3e96ad19	0.29428938
2	0x3f1987d1	0.59972864
3	0x3e90ab60	0.2825575
4	0x3ea85d9b	0.32883915
5	0x00000000	0.0
6	0x00000000	0.0
7	0x00000000	0.0
8	0x3e02f5ae	0.12789032
9	0x43030f11	131.05885
10	0x4303fee0	131.9956
11	0x3baa134e	0.0051902896
12	0x3baeb4c7	0.005331609
