Op_problems/problem_pooling/checkpoints/pinn_checkpoint_epoch_150_loss_244.486877.pth (torch, 20703 bytes, 12 tensors)

nn.0.weight f4 [64, 4]
000000 7a 0f fe 3e a1 09 ed 3e 17 84 d7 bd 59 54 00 3f
       0.49621183 0.4629641 -0.10523241 0.50128704
000010 9d 41 a4 be 2a d0 16 3d 6f 2d 8c be e3 1c 7b 3e
       -0.3208131 0.036819614 -0.27378413 0.24522738
000020 63 90 af 3e 37 02 ee be ca 13 b1 3e 4d 18 7d 3e
       0.34289846 -0.46486065 0.3458541 0.24716301
000030 ed 9a b6 3e 77 71 a6 bc aa 33 08 3e d6 18 24 be
       0.35665074 -0.020317776 0.13300958 -0.16025099
000040 62 49 4b 3e 9b 07 4d bd 82 a0 a3 be 93 e7 9e ba
       0.19852212 -0.05005608 -0.31958395 -0.0012123458
000050 d7 9b a0 bc 41 40 dd 3c fc c8 48 be 3c 11 cd 3e
       -0.01960556 0.027008178 -0.1960792 0.4005221
000060 2a 14 ca be 8c 09 6c be 6c 93 10 be fe ec 99 be
       -0.3946851 -0.23050517 -0.14118737 -0.30063623
000070 9d 31 ca bd 02 e5 b8 be 8c 54 1f 3f 74 d6 7a 3c
       -0.09872744 -0.3611222 0.62238383 0.015309919
000080 04 17 d9 3e 86 e9 ab 3d c3 55 f6 bd 0a 25 9c 3e
       0.42400372 0.083941504 -0.120280765 0.3049701
000090 df 20 7f 3e 41 59 f6 3e 9f 81 dc 3d ca a4 b4 bd
       0.24914883 0.4811497 0.10766911 -0.088204935
0000a0 70 38 5e 3e a1 ff f2 bd c1 a2 4a 3e 23 6d e2 3e
       0.21701217 -0.118651636 0.19788648 0.4422389
0000b0 23 b4 25 3e b3 f3 88 be 34 0f 98 3e 30 84 00 3e
       0.16181998 -0.26748428 0.296991 0.12550426
0000c0 7a 01 82 3e 86 08 9c be a4 6a fd be 0c d1 45 be
       0.25391752 -0.30475253 -0.49495423 -0.19318026
0000d0 9e 1c a3 be 67 ed db 3e aa cd 0b 3e 9f 99 6a 3e
       -0.3185777 0.4295456 0.13652673 0.22910164
0000e0 60 4f 08 3e 86 8d 40 3e ba 51 14 3f 62 94 1e be
       0.13311529 0.18803987 0.57937205 -0.15486291
0000f0 42 98 0a 3e b8 b8 a3 be 6a f5 87 3e 51 31 3a 3e
       0.13534644 -0.31976867 0.26554424 0.18182875
000100 85 e0 c5 bd fc 79 a7 3d 64 67 2e 3f 67 b5 8f bd
       -0.09661964 0.081775635 0.6812651 -0.070170216
000110 7f e2 b7 be d1 f4 84 be ca 29 05 3f 92 5d 85 3e
       -0.3591499 -0.2596803 0.5201689 0.2604795
000120 10 56 f6 3e 4e 45 d3 be 98 eb fd be fe 48 c8 be
       0.48112535 -0.41263813 -0.49593806 -0.3911819
000130 4d 98 b4 be 6a 94 2c 3e 84 a6 15 3e 02 7c bb 3e
       -0.35272446 0.1685349 0.14614302 0.36618048
000140 b2 06 2f 3e 5b a1 8c be d6 74 d6 3e 51 27 b6 3d
       0.17092398 -0.27466854 0.41886014 0.08894218
000150 53 2b 45 3e c3 68 6f be 03 63 24 3e 86 41 e6 be
       0.19254808 -0.23379807 0.16053395 -0.44971865
000160 fa df c9 bd 25 16 63 3e f9 61 14 3e 4c c0 4f bd
       -0.09857173 0.22176416 0.14490499 -0.050720498
000170 3c 53 17 3f b8 bf f4 3e e7 75 8f be e3 6d 1d be
       0.5911138 0.4780252 -0.2801964 -0.1537395
000180 d2 68 ea 3e f4 c3 2c be 2c 83 35 be 48 b4 f7 be
       0.45783097 -0.16871625 -0.1772582 -0.4837973
000190 e5 c2 ca 3e 54 b5 ab 3e 88 ad a3 bc 76 34 b1 be
       0.39601818 0.3353678 -0.019980207 -0.34610337
0001a0 40 28 40 3c 6e de ae be 86 30 d9 be 3a f8 8c be
       0.011728346 -0.34154075 -0.42419833 -0.27533132
0001b0 ca 7a 27 bf 14 be 94 be 01 56 16 3f de 59 af 3e
       -0.65421736 -0.29051268 0.5872498 0.3424825
0001c0 1c c7 1d 3e 66 c4 ee be 54 22 a8 be 14 6c 2a be
       0.15407985 -0.46634215 -0.3283869 -0.16642791
0001d0 c0 1f a0 3d 86 42 e1 be 64 9b 5c be 58 42 99 be
       0.07818556 -0.43996066 -0.21543652 -0.2993343
0001e0 00 9e b5 3a 50 84 3e be f0 ea 0d bd 24 79 ad be
       0.0013856292 -0.1860516 -0.034647882 -0.33881485
0001f0 98 b7 af be d2 59 95 be 9c 41 2f be 50 0e ca be
       -0.34319758 -0.2917009 -0.17114872 -0.39464045
000200 c0 82 06 3f 4a 0f 35 bd 8f a5 ed 3e 08 f9 68 3e
       0.5254326 -0.044204034 0.46415374 0.22751248
000210 dd 8b d2 be 8b e0 b5 3e 08 1e 97 bd 2f 03 1f be
       -0.41122332 0.35522875 -0.07378775 -0.15528558
000220 a5 8b 9c be 1f 65 fb be 34 bf 4d 3e e0 ad 53 ba
       -0.3057529 -0.49100587 0.2009247 -0.00080749206
000230 17 44 79 be 72 2b 93 be 83 9f fd 3e e5 6f a2 be
       -0.2434238 -0.28744084 0.4953576 -0.31725994
000240 f0 33 23 be fd e5 69 3d d6 5b 5d 3e 4b bc b2 3e
       -0.15937781 0.0571041 0.21617064 0.3490928
000250 f5 64 da 3e 70 14 af be a5 31 6e 3e 58 77 8a be
       0.4265515 -0.3419528 0.23261125 -0.27044177
000260 5b 32 df 3c b6 69 e5 be 80 be f3 3e 6e 71 cf bc
       0.027245691 -0.44807214 0.47606277 -0.025322642
000270 7d 2d e7 3e 3f 9f 5e 3e 9e 40 96 3d e9 f1 8e be
       0.45151892 0.21740435 0.073365435 -0.27918938
000280 4d 49 25 3f 20 86 9d 3e 6c 31 b4 3d c4 4a c5 be
       0.64564973 0.30766392 0.08798489 -0.38533604
000290 48 43 cd 3e de dd 8a 3c e5 90 2c be 86 32 fa 3e
       0.40090394 0.016951498 -0.16852148 0.4886667
0002a0 b0 4c e4 3d 86 a3 8d be 52 92 81 be 80 9b c3 bc
       0.111474395 -0.2766382 -0.25306946 -0.02387786
0002b0 c4 f0 8e 3e 54 d5 02 be 32 11 92 be ac 54 2f be
       0.27918065 -0.1277669 -0.28528744 -0.17122144
0002c0 c2 f2 d8 be e6 78 26 3e cd 24 af 3e 45 6a 2f bf
       -0.4237271 0.16257057 0.34207764 -0.6852153
0002d0 08 6a 86 3e 14 36 9a 3e 93 47 e6 3d 87 18 32 be
       0.2625277 0.30119383 0.112441204 -0.17392169
0002e0 fb 17 f1 3e 9c 96 ab 3e 68 38 5e 3e d2 60 0f be
       0.47088608 0.33513343 0.21701205 -0.14001778
0002f0 08 94 07 be d0 18 5b 3d d0 e4 b4 bd 98 93 18 be
       -0.13240063 0.05349046 -0.08832705 -0.14900053
000300 9d d6 db 3e 8a 5f f4 3e aa 93 2c bd 62 71 81 bd
       0.42937174 0.4772914 -0.04213301 -0.06320454
000310 1e 26 17 3e 44 5c de 3c d9 f3 1a 3e e2 fa 39 3e
       0.14760634 0.027143605 0.15132083 0.1816211
000320 bc f2 06 bf 4e c6 53 be f7 1c c6 3e 39 e2 79 3e
       -0.52714133 -0.20681116 0.38693973 0.24402703
000330 a0 b9 cb bc 08 58 9a be 42 9f 9c be fa 50 e5 be
       -0.024868786 -0.30145288 -0.30590254 -0.44788343
000340 18 fd 2d be 9c 86 14 3e 48 7c 86 3e 9b ec 43 3e
       -0.16991079 0.14504474 0.26266694 0.19133227
000350 47 ef 36 bf 3e 32 ee be e9 74 fa 3c 51 63 00 3f
       -0.7145886 -0.46522707 0.030573325 0.50151545
000360 0b 1c ee 3e e2 dd 33 3e 10 f8 ea 3d 08 27 8f be
       0.4650577 0.1756511 0.114730954 -0.27959466
000370 2a fa c0 bd a8 ea ea 3e 5d c7 47 be e1 a5 1d bd
       -0.09422715 0.45882154 -0.19509645 -0.038488273
000380 1d 43 b1 be cd 38 d0 3e af 85 ce 3e 9b 30 87 3e
       -0.34621516 0.40668336 0.40336367 0.2640427
000390 cf 3c 5e 3d 9a 86 7a be 75 f6 ed bd 5a c6 21 3f
       0.05425721 -0.24465409 -0.116192736 0.63193285
0003a0 b3 7f 3a 3e 29 6c b9 3e 5b d2 5b 3e e1 69 7c 3d
       0.18212776 0.36215332 0.21466963 0.06162441
0003b0 80 71 a0 bb 86 b0 c2 be 6c 55 db be 02 73 ef be
       -0.0048963428 -0.38025302 -0.4283861 -0.46767431
0003c0 e4 97 51 3e 28 60 7b be 28 15 ce bd 50 54 93 be
       0.20468098 -0.245484 -0.10062629 -0.28775263
0003d0 d0 98 ba bd 86 2e b4 be 40 46 a7 be 00 d6 29 3e
       -0.09111178 -0.35191745 -0.32670784 0.16585541
0003e0 68 7d 48 be 40 36 7d 3e ea 15 72 be cc 7b c4 be
       -0.19579089 0.24727726 -0.23641172 -0.383757
0003f0 68 ac b4 bd d0 30 78 be 60 a4 1c be fc b5 f3 be
       -0.088219464 -0.2423737 -0.15297079 -0.4759978

nn.0.bias f4 [64]
000000 0d eb 1a 3f 8b c4 2e be 6a 16 ce 3e cd a9 01 3e
       0.6051491 -0.17067163 0.40251476 0.1266243
000010 7e 12 47 3e dc 90 6d bf 48 1d b8 3e 4b ad df bc
       0.19440648 -0.9279916 0.3595984 -0.027304312
000020 92 8f ac be d9 b2 3e 3e 1a 55 17 3f 80 2a 3a be
       -0.33703285 0.18622912 0.5911423 -0.18180275
000030 90 c1 eb bd 01 40 e7 bb 88 a2 53 3f 88 05 ca be
       -0.115115285 -0.0070571904 0.8266988 -0.39457345
000040 13 c7 33 3f 48 74 45 bd d0 19 f2 3e 0a 15 a7 be
       0.7022564 -0.048206598 0.47285318 -0.3263324
000050 a5 44 2d be 5d d3 0d bc 68 d1 1e 3e 93 1e 33 bf
       -0.16920717 -0.00865635 0.1550957 -0.6996853
000060 68 6e e8 bd 78 5b 42 3e 30 20 33 bd 58 bd 92 be
       -0.11349183 0.18980205 -0.04373187 -0.28660083
000070 fc 49 51 be f8 89 22 be 20 47 f3 be c8 0c d2 3e
       -0.20438379 -0.15872943 -0.47515202 0.41025376
000080 66 e0 33 3f 43 d7 97 3e 87 3e 85 bc 5e bf 3c 3d
       0.7026428 0.2965642 -0.016265167 0.04608094
000090 83 f4 94 bd cf 6b a6 be df df 2e 3e c5 89 bf 3d
       -0.072731994 -0.32504126 0.17077588 0.09352449
0000a0 fa 35 23 bf c5 e5 c1 be 70 80 2a be 84 a4 25 be
       -0.63754237 -0.37870613 -0.16650558 -0.16176039
0000b0 a4 77 47 be a1 18 a1 3e f3 fc bf 3e 0c 26 75 be
       -0.19479233 0.31464103 0.37497672 -0.23940295
0000c0 f6 32 14 3e 39 1c 2b 3e f9 a9 ea 3e 64 ab 07 3e
       0.14472565 0.16709985 0.45832804 0.13248974
0000d0 97 fa 61 3e 8c 66 70 be 2c 03 4b 3f 56 e2 a2 3e
       0.22068249 -0.23476619 0.79301715 0.31813306
0000e0 2c 2d 74 bf 15 33 85 3f a6 5a b7 bd dc b2 06 3e
       -0.95381427 1.0406214 -0.08952837 0.13154167
0000f0 f4 a0 ab 3e 20 63 fc 3e f4 a5 1b be 28 89 d4 3d
       0.33521235 0.49294376 -0.15200025 0.10377723

nn.2.weight f4 [13, 64]
000000 c7 11 67 bd 7c 0e 14 3c d1 f8 af 3c f5 90 0a 3d
       -0.05641344 0.0090366565 0.02148095 0.033829648
000010 f3 0c 2e bd 78 45 6f bd ec f0 ae bd 1c 8a ad 3b
       -0.042492818 -0.05841586 -0.08542046 0.005296005
000020 c4 c7 86 bd 3b 24 c5 bb dc f4 d3 3d aa ac 33 bd
       -0.06581071 -0.006016282 0.103494376 -0.043865837
000030 0a b7 c2 bd 2b bf 95 bd 68 10 87 bc 62 f2 32 bc
       -0.09507568 -0.07311853 -0.016487315 -0.010922046
000040 3a 79 36 bd df 52 e3 bc b4 f5 6c bd c7 69 3d 3c
       -0.044549204 -0.027749477 -0.05785151 0.011560864
000050 34 be 9f 3c dc 06 d2 bc 8a 3c 63 bd 0c 67 82 bc
       0.019499876 -0.025638036 -0.055477656 -0.015918277
000060 7c f0 ce bd 6e c5 2e 3b 24 41 f7 3d 78 7a 37 be
       -0.101044625 0.002666797 0.120729715 -0.17917812
000070 42 e9 ab bd 30 36 f8 3c cc 1c 0d 3d d0 43 8c 3d
       -0.083941 0.030299276 0.03445129 0.06848872
000080 6b 6e b7 3d d3 6e 1c 3e 3e da 94 bd e6 f7 61 3d
       0.089566074 0.15276651 -0.07268189 0.055168055
000090 e6 3e c6 3d 3d b3 d5 3d ec c0 ab bc e7 76 a9 3d
       0.09679966 0.104345776 -0.020966016 0.08274632
0000a0 86 ce e4 bd d7 e7 09 bd 50 cc e6 bd 20 f6 b6 3b
       -0.11172204 -0.033668365 -0.11269438 0.0055835396
0000b0 b8 dc 51 bd ae 04 17 3d e4 25 10 3d ae 25 c2 bd
       -0.051235884 0.036869697 0.035192385 -0.09479843
0000c0 c9 c0 b6 bd e7 69 a2 3c 1c e2 b3 3d 1e b1 93 3d
       -0.089234896 0.019825889 0.08783361 0.07211517
0000d0 a4 4d 5e bd c7 4a be 3c 0d a1 ea 3c ac 09 99 ba
       -0.054273263 0.023229016 0.028641248 -0.0011675856
0000e0 24 32 29 3d fc eb 8c 3d 72 48 fc 3d 00 09 eb bd
       0.041307583 0.06880948 0.12318505 -0.11476326
0000f0 5e 2a ab 3d 06 8e b4 bd d4 44 86 3c 88 a3 d8 3d
       0.0835769 -0.08816151 0.016390242 0.10578066
000100 6d 79 a9 bb d9 b3 8b 3d e3 8a d8 be 83 26 7f 3d
       -0.005171946 0.068214126 -0.42293462 0.062292587
000110 3a 21 3e 3d 0a 85 f8 bd f0 9c d1 bc cb 3c 45 bd
       0.046418406 -0.1213475 -0.025587529 -0.04815368
000120 22 e3 72 3d f7 e6 cf 3d e1 46 13 3d c9 cd 51 be
       0.059298642 0.10151475 0.035956267 -0.20488657
000130 d2 ce cf bd 76 f6 e6 3c db 93 74 3e 0c 59 1c bf
       -0.1014687 0.028193694 0.23884527 -0.61073375
000140 e6 e3 10 3e 86 6d 41 3e a0 24 23 3c 1e 06 4c 3c
       0.14149436 0.18889436 0.009957463 0.01245263
000150 77 f4 bb be c3 92 41 bd a6 c6 1c bd e1 c0 92 bd
       -0.3670995 -0.047259104 -0.038275383 -0.07165695
000160 5a 21 82 bd 6b fb e9 3e 78 0c 15 bd 0b f2 bc 3d
       -0.063540176 0.4569963 -0.036388844 0.092258535
000170 fa 13 f4 3d 60 57 32 3d c4 80 b6 3d a0 dd 77 bd
       0.11917873 0.04354036 0.08911279 -0.060514092
000180 41 c9 f4 39 f7 9c 91 3d 81 9b 96 3c c4 16 61 3b
       0.00046689252 0.07110017 0.018384697 0.0034345845
000190 25 30 f2 3b 39 a7 04 3e e6 d8 fb bc 1b f6 67 3e
       0.007390993 0.12954415 -0.030743074 0.22652476
0001a0 08 84 d5 3e e4 e0 41 bd c0 4a b2 bc 3a 20 ed bd
       0.41702294 -0.047333613 -0.02176416 -0.11578412
0001b0 8c 7e 0f 3d d5 4e cc 3d cc 0c e3 3d 98 73 81 bc
       0.035032794 0.099759735 0.11086425 -0.01580219
0001c0 19 e3 d0 bc 17 fe ac 3d 6e c6 c8 bc ee cb a1 3d
       -0.025498914 0.08446901 -0.024508681 0.079002246
0001d0 07 f6 a7 bc 61 e6 7c 3d 86 6e 99 3e 82 6d 93 3b
       -0.020503057 0.061743144 0.29967135 0.0044991383
0001e0 25 98 07 bc 05 26 08 be cd 92 da 3c 5e d5 c7 3d
       -0.00827602 -0.13295753 0.026681328 0.097574934
0001f0 96 23 f6 3d 18 71 79 bd 70 c1 2f bd aa 63 cd 3d
       0.12018506 -0.06089887 -0.042909086 0.10028775
000200 42 bd 2f 3e b2 6f 37 bd 6a 1d e1 3e 4f da d0 bd
       0.1716204 -0.044784255 0.43967754 -0.10197889
000210 ab 31 47 bd b4 c4 bb 3d b0 35 08 3d bf 59 45 3d
       -0.04863135 0.091683775 0.033254325 0.04818129
000220 c0 86 31 3d 01 90 4d 3e f9 8c 98 3d d0 ce b3 3d
       0.0433414 0.20074464 0.074487634 0.08779681
000230 e0 e3 e7 bb 4b 91 b9 3d fd cf 48 bd 5b 66 13 3f
       -0.0070767254 0.090609156 -0.049026478 0.5757806
000240 66 d4 47 be bd bc 72 be 82 b8 d4 bd 35 c7 87 bc
       -0.19514617 -0.2370481 -0.103867546 -0.016574482
000250 6b eb fb 3e 9b 5e e4 bc ba d5 3d 3e 32 9e c8 3e
       0.49203047 -0.027877143 0.18538561 0.39183193
000260 24 65 c1 3d ab bf 18 bf bc db 8c bd 9b e8 9b be
       0.09443119 -0.5966746 -0.068778485 -0.304509
000270 a0 a7 84 bd 02 c4 ac bd c0 7f 23 bd 58 e5 d6 3c
       -0.064772844 -0.08435823 -0.039916754 0.026232406
000280 28 d7 07 3e d8 29 cc 3c ce 2b 99 be 67 c9 bc b8
       0.1326567 0.024922296 -0.29916233 -9.002053e-05
000290 ed f6 b2 bc fe c6 b3 be f3 d4 3c bd e2 75 a8 bc
       -0.021846259 -0.35112756 -0.04610152 -0.020564023
0002a0 07 85 92 bd 5c ae 4d 3e 5c 24 19 3d 70 35 30 3d
       -0.07154279 0.20086044 0.03738819 0.043019712
0002b0 57 58 87 bd 6e a5 da 3d cf 99 9d 3d 00 2f e1 3a
       -0.06608646 0.106760845 0.07695352 0.0017180145
0002c0 52 bb 0e 3e b1 94 3b 3e ad 2a fd bd 34 6e 58 bd
       0.13938645 0.1831844 -0.123616554 -0.052839473
0002d0 27 34 b1 3c 0e 50 27 be 90 38 1f bf c2 2c 40 3e
       0.021631313 -0.16339132 -0.6219568 0.18767074
0002e0 b0 28 1f 3e 0a 30 1a 3e 81 b3 e8 bc 7c 65 89 bd
       0.15542865 0.15057388 -0.028405907 -0.0670881
0002f0 08 fc e0 bc 78 bf bc bc b2 90 df bc 2e 00 eb bd
       -0.027463928 -0.023040518 -0.027290676 -0.11474644
000300 8f 1a 50 3d 57 dc d8 bd 05 5c c1 3e 5a 97 26 be
       0.05080658 -0.105889015 0.37765518 -0.16268674
000310 8f 45 d7 3d d3 e2 c6 bd 2e 1e c1 3d 41 4c 0e 3d
       0.10511314 -0.09711232 0.094295844 0.03474069
000320 0e a2 63 bb d6 1c a6 3d 63 cd a8 3c 17 a6 b3 3e
       -0.0034734043 0.08110969 0.020605749 0.35087654
000330 82 17 b9 3d 53 83 b4 bd ea b6 9d 3c 41 f3 25 3f
       0.09037687 -0.088141106 0.01925226 0.648243
000340 bf 72 ba 3d 11 32 13 3e 40 0c 0c 3d fb fa 0e bd
       0.09103917 0.14374568 0.03419137 -0.034907322
000350 f6 53 92 3e a7 ea 13 3e 60 2f d7 3d b1 16 07 be
       0.28579682 0.14444982 0.10507083 -0.1319225
000360 a2 c6 f0 bd ff 9a e2 be 48 54 ae bd 15 78 90 3e
       -0.11756636 -0.44258878 -0.08512169 0.28216615
000370 14 6a 9b bd 70 de 13 bc f0 44 e3 bc 88 39 b6 3c
       -0.07588592 -0.009025201 -0.027742833 0.02224423
000380 c3 1c 1c 3e e7 d6 0d bc f9 21 de 3d 5f a5 c1 3d
       0.15245347 -0.008657194 0.108463235 0.0945537
000390 e3 0b 02 3e 08 d5 8f bd 58 82 87 bc 7b 62 c9 bd
       0.12699847 -0.07023054 -0.016541645 -0.09833237
0003a0 5a f8 bc be d1 4e 90 3d 00 b6 df bc f2 a1 ad bd
       -0.36908227 0.07046283 -0.027308464 -0.08478154
0003b0 63 82 0d 3e 83 b6 70 3c 7c 86 93 3d 1a 55 fe 3d
       0.1381927 0.014691952 0.07203385 0.124185756
0003c0 ba 43 a6 3d c8 e3 19 3e 45 0d 90 3d e4 36 dc bd
       0.081183866 0.15028298 0.07033781 -0.10752657
0003d0 8b be 75 bd 23 71 4e be 6c 46 90 be c7 c6 a8 bd
       -0.05999617 -0.20160346 -0.28178728 -0.08241039
0003e0 3a 95 b2 bd b0 06 1e bd 36 10 66 bd 9c 5f fc bd
       -0.08719869 -0.038580596 -0.056167804 -0.123229235
0003f0 d0 22 9d bd e4 3a 43 3d c9 91 16 3d 0c 4d 18 bd
       -0.076726556 0.047663584 0.036760125 -0.037182853

nn.2.bias f4 [13]
000000 69 d7 a1 3e b1 b3 fb 3c 10 38 d4 bc e1 49 ac bc
       0.31609657 0.030725332 -0.025905639 -0.021031322
000010 e9 dc 1b 3e 20 96 af 3d 0a 64 c7 bd a6 ae e9 3d
       0.1522099 0.08573556 -0.09735878 0.11410265
000020 17 71 b1 bd 4f c9 13 bf 17 4f 90 be 93 69 6c 3f
       -0.08664148 -0.5772905 -0.2818534 0.92348593
000030 30 ab 9b bd
       -0.07601011

exp_avg f4 [64, 4]
000000 bd 1d b5 3f 4c 11 14 41 f6 07 8b 40 a4 75 be 40
       1.41497 9.254223 4.344722 5.9518604
000010 77 db 36 bf 74 cd b8 c0 57 d6 04 c0 04 00 a1 c0
       -0.71428627 -5.7750797 -2.0755823 -5.031252
000020 88 91 b9 3f 76 84 54 40 57 30 8b 3f 7b 7c 19 40
       1.4497538 3.3205848 1.0874127 2.3982227
000030 65 d7 c4 bd c7 d7 e7 3e 23 4e ae 3e ce d2 64 3e
       -0.09611396 0.45281813 0.3404399 0.2234604
000040 e9 b2 bf 3c 33 49 96 3d a2 ce 99 3a 1e f1 cb 3d
       0.02340074 0.073381804 0.0011734555 0.09958099
000050 78 06 b8 bf bf b9 14 c1 43 78 a0 c0 5d a6 90 c0
       -1.4376974 -9.295348 -5.0146804 -4.520308
000060 00 00 00 00 00 00 00 00 00 00 00 00 00 00 00 00
       0.0 0.0 0.0 0.0
000070 49 a9 12 bc 5f 49 c9 be 6d 3b 86 be 29 aa cd be
       -0.008951494 -0.3931379 -0.26217213 -0.40168884
000080 4c 18 6b bf 3a 8d cd c0 48 c5 40 c0 73 08 8a c0
       -0.9183395 -6.4234896 -3.012041 -4.3135314
000090 b1 51 86 bd 38 f3 88 bf 0d 50 25 bf 02 c6 2d bf
       -0.0655855 -1.0699224 -0.6457527 -0.6788026
0000a0 a2 d8 0d 3f b3 74 a5 40 c9 c9 ef 3f dd 20 96 40
       0.5540868 5.1704955 1.8733455 4.6915116
0000b0 d0 66 58 3f 45 36 2a 3f df 12 10 be 29 41 0d 3f
       0.8453188 0.6648906 -0.14069699 0.5517755
0000c0 00 00 00 00 00 00 00 00 00 00 00 00 00 00 00 00
       0.0 0.0 0.0 0.0
0000d0 9e e7 f0 3e d1 74 58 40 55 ab fc 3f b2 a2 c1 3f
       0.4705171 3.38213 1.9739786 1.5127776
0000e0 f7 ca 43 bf c6 fb 5d c0 b9 32 cf bf 70 c6 0b c0
       -0.76481575 -3.468492 -1.6187354 -2.1839867
0000f0 70 32 a6 3f fc 8b dc bf 6b 53 39 bf cd 8e 91 c0
       1.2984142 -1.723022 -0.7239291 -4.5486817
000100 db 7d db be 10 f4 5b c0 8d 01 05 bf bc ab 8f c0
       -0.42869458 -3.4367714 -0.5195549 -4.4897137
000110 cf a7 2e c0 f1 e1 91 c1 63 18 f3 c0 9e 0c 5e c1
       -2.7289922 -18.235323 -7.596727 -13.87808
000120 00 00 00 00 00 00 00 00 00 00 00 00 00 00 00 00
       0.0 0.0 0.0 0.0
000130 62 7f 4b bf 73 8f 80 c0 6d 90 2d c0 2f 32 4c bf
       -0.79491246 -4.017511 -2.71194 -0.79764074
000140 d8 cc 28 40 54 b8 80 41 44 c4 d3 40 3b f4 65 41
       2.6375027 16.090004 6.617708 14.372127
000150 29 00 0c 3a 94 64 16 bb dd 94 85 b9 d9 f3 18 3a
       0.00053406 -0.0022948133 -0.0002547865 0.0005834676
000160 6b dc 1d bb 08 3a 32 3f 0b 9c 45 bf a8 73 26 40
       -0.0024087678 0.696198 -0.7719123 2.600809
000170 62 04 65 3f 2f b5 d4 40 c4 d4 1e 3f 25 0b 0b 41
       0.8945981 6.647117 0.62043405 8.690221
000180 00 00 00 00 00 00 00 00 00 00 00 00 00 00 00 00
       0.0 0.0 0.0 0.0
000190 27 14 ac c0 e6 e9 21 c2 74 2f 40 c1 31 37 15 c2
       -5.37746 -40.478416 -12.011585 -37.303898
0001a0 00 00 00 00 00 00 00 00 00 00 00 00 00 00 00 00
       0.0 0.0 0.0 0.0
0001b0 35 64 b6 bf d7 9b 14 c1 78 f3 50 c0 06 b6 03 c1
       -1.4249331 -9.288047 -3.2648602 -8.231939
0001c0 00 00 00 00 00 00 00 00 00 00 00 00 00 00 00 00
       0.0 0.0 0.0 0.0
0001d0 00 00 00 00 00 00 00 00 00 00 00 00 00 00 00 00
       0.0 0.0 0.0 0.0
0001e0 00 00 00 00 00 00 00 00 00 00 00 00 00 00 00 00
       0.0 0.0 0.0 0.0
0001f0 00 00 00 00 00 00 00 00 00 00 00 00 00 00 00 00
       0.0 0.0 0.0 0.0
000200 1a ed 16 3f b6 5d 86 40 24 d6 dc 3f 14 77 4c 40
       0.5895554 4.1989393 1.725285 3.194768
000210 0b 41 15 3f 39 c9 6b 40 60 c2 16 40 a5 f8 92 3f
       0.5830237 3.6841567 2.3556137 1.148213
000220 0e 60 ae ba f8 f3 d4 ba 01 8c 9b bc 18 2d f5 ba
       -0.0013303773 -0.0016247025 -0.018987658 -0.0018705456
000230 ee 97 f8 3c 4c c1 da 3e 8e 98 03 3f 5b 3f 54 3e
       0.030345883 0.427256 0.51404655 0.20727293
000240 43 e2 7a 3f b5 92 e6 40 16 18 43 40 da f7 af 40
       0.980015 7.2054086 3.048345 5.4990053
000250 bc 60 4e ba 89 a5 f2 3a db 7a 78 bc 94 59 c7 ba
       -0.0007872691 0.0018512468 -0.01516601 -0.0015209191
000260 32 86 94 3c 5d 1d 15 3e 31 4d 10 3e 0d 79 00 3e
       0.018130396 0.14561982 0.14091946 0.12546177
000270 e3 1a 07 bf 71 8a 92 c0 ce ce 83 3e 03 15 a4 c0
       -0.527754 -4.5793996 0.25743717 -5.127565
000280 bf 75 0c c0 fe 21 9e c1 a2 5e cf c0 41 a5 77 c1
       -2.1946867 -19.766598 -6.480302 -15.477845
000290 b4 dc 10 3f 80 bb 25 40 4f f7 57 3f be 7c 0d 40
       0.56586766 2.589569 0.8436174 2.2107387
0002a0 00 00 00 00 00 00 00 00 00 00 00 00 00 00 00 00
       0.0 0.0 0.0 0.0
0002b0 00 00 00 00 00 00 00 00 00 00 00 00 00 00 00 00
       0.0 0.0 0.0 0.0
0002c0 ec ff ee ba f2 4e 65 be bf 2d 20 be 6e 60 0e 3c
       -0.001823423 -0.22393396 -0.15642451 0.008689983
0002d0 c0 46 3f 3f 5d 72 a3 40 56 2d 0e 40 e1 77 68 40
       0.7471733 5.1077104 2.221517 3.6323168
0002e0 01 06 6b 3f 08 b7 cb 40 e9 ca 29 40 1b 98 99 40
       0.91806036 6.3660927 2.6530097 4.7998176
0002f0 00 00 00 00 00 00 00 00 00 00 00 00 00 00 00 00
       0.0 0.0 0.0 0.0
000300 50 b3 ef 3f 79 12 53 41 92 af b5 40 ae d0 1b 41
       1.8726597 13.19201 5.677682 9.738447
000310 35 f4 c3 3e 64 83 fc 3f cb 7f 0d 3f 5b b5 e4 3f
       0.38272253 1.9727597 0.5527312 1.7867845
000320 59 68 2b be 13 19 c0 3d 4f 18 ba 3e 35 c3 93 be
       -0.16739024 0.093797825 0.3634667 -0.2885987
000330 00 00 00 00 00 00 00 00 00 00 00 00 00 00 00 00
       0.0 0.0 0.0 0.0
000340 9b d6 b9 3f ab 85 20 41 7e d5 9a 40 d6 90 ce 40
       1.4518617 10.032634 4.838561 6.45518
000350 2b 6d 04 be 64 49 cf 3f 14 b7 04 bf b4 db 78 3f
       -0.1293227 1.6194272 -0.51841855 0.9721024
000360 07 8f 33 c0 05 20 a4 c1 d1 d5 89 c0 36 db 85 c1
       -2.8056047 -20.515635 -4.3073506 -16.732037
000370 c4 fd 7f 3e 6c c9 2b 40 5c 78 8f 3e 1f 76 72 40
       0.24999148 2.6841688 0.28021514 3.7884595
000380 e5 26 3a bf ce db d3 c0 55 be 1d c0 99 83 bd c0
       -0.727156 -6.6205816 -2.464742 -5.922314
000390 39 70 61 3e 38 0e 9c 3f c0 8c bc 3f 91 21 7d bf
       0.22015466 1.2191839 1.4730453 -0.98879343
0003a0 b6 4f df bf 1b 04 40 c1 2a 67 bc c0 f7 fe ec c0
       -1.7446201 -12.001002 -5.8875933 -7.4061236
0003b0 00 00 00 00 00 00 00 00 00 00 00 00 00 00 00 00
       0.0 0.0 0.0 0.0
0003c0 00 00 00 00 00 00 00 00 00 00 00 00 00 00 00 00
       0.0 0.0 0.0 0.0
0003d0 00 00 00 00 00 00 00 00 00 00 00 00 00 00 00 00
       0.0 0.0 0.0 0.0
0003e0 04 00 00 00 04 00 00 00 04 00 00 00 04 00 00 00
       6e-45 6e-45 6e-45 6e-45
0003f0 00 00 00 00 00 00 00 00 00 00 00 00 00 00 00 00
       0.0 0.0 0.0 0.0

exp_avg_sq f4 [64, 4]
000000 3c 02 18 44 2d db 19 47 2a 0f cd 45 0c 62 07 47
       608.0349 39387.176 6561.8955 34658.047
000010 9c f3 b6 41 bd c0 c2 44 08 d4 7f 43 39 4b be 44
       22.86895 1558.0231 255.82825 1522.3507
000020 fe f5 ce 42 fa a5 5c 45 8e 1a 84 44 d3 de 82 45
       103.48045 3530.3735 1056.8298 4187.853
000030 cf 02 0d 41 66 03 03 44 73 83 c0 42 ed 00 f1 43
       8.813186 524.0531 96.25674 482.00723
000040 51 62 2c 40 10 21 e7 42 e7 f7 e8 40 5a 1c ee 42
       2.6935008 115.564575 7.2802615 119.055374
000050 9c d9 fa 44 51 59 ff 47 50 8b a8 46 20 b1 e1 47
       2006.8003 130738.63 21573.656 115554.25
000060 00 00 00 00 00 00 00 00 00 00 00 00 00 00 00 00
       0.0 0.0 0.0 0.0
000070 e9 e9 a0 3f 27 54 99 42 98 7c 0e 42 cd c9 93 42
       1.2571384 76.66436 35.621674 73.89414
000080 c0 09 9a 43 53 73 9c 46 71 a6 50 45 fb 97 89 46
       308.07617 20025.662 3338.4026 17611.99
000090 6e 9a 9e 42 fc 0b a2 45 aa 4c 5a 44 77 b0 90 45
       79.30162 5185.498 873.1979 4630.058
0000a0 e7 cc 9e 42 a9 9d a0 45 12 c3 55 44 03 11 8e 45
       79.4002 5139.7075 855.048 4546.1265
0000b0 3e b9 33 42 f9 3a eb 44 15 e1 03 44 e0 21 f5 44
       44.9309 1881.8429 527.5169 1961.0586
0000c0 00 00 00 00 00 00 00 00 00 00 00 00 00 00 00 00
       0.0 0.0 0.0 0.0
0000d0 ae a6 af 43 2e 6d b2 46 6f 2e 6e 45 3f 16 9d 46
       351.3022 22838.59 3810.902 20107.123
0000e0 eb 50 4e 42 c4 91 51 45 07 7f 10 44 63 e8 37 45
       51.57902 3353.1104 577.9848 2942.5242
0000f0 8e ae 4f 43 31 a0 0e 46 88 89 29 45 c5 ff 22 46
       207.68185 9128.048 2712.5957 10431.942
000100 52 cc c3 42 64 ca c6 45 18 b3 88 44 e1 00 af 45
       97.89906 6361.299 1093.5967 5600.11
000110 ff 51 71 44 d9 4b 76 47 e2 97 25 46 d9 45 58 47
       965.2812 63051.848 10597.971 55365.848
000120 00 00 00 00 00 00 00 00 00 00 00 00 00 00 00 00
       0.0 0.0 0.0 0.0
000130 82 0e 12 44 dd 5a 14 47 44 9a c5 45 09 85 02 47
       584.2267 37978.863 6323.283 33413.035
000140 76 6a 16 43 d6 b3 f7 45 55 06 0b 45 4e a6 f6 45
       150.41586 7926.4795 2224.3958 7892.788
000150 cf 86 95 3a 2e 2b 95 3d 39 11 af 3d 8b aa 36 3b
       0.0011407974 0.072836265 0.08548207 0.0027872648
000160 d4 ca bc 43 ab 1c c1 46 3e 40 81 45 13 53 ab 46
       377.5846 24718.334 4136.0303 21929.537
000170 63 ff 36 44 f7 ed 3a 47 8a e5 fb 45 30 ec 25 47
       731.9904 47853.965 8060.6924 42476.188
000180 00 00 00 00 00 00 00 00 00 00 00 00 00 00 00 00
       0.0 0.0 0.0 0.0
000190 ba 31 50 43 ed bb 37 46 57 c2 1b 45 b6 e8 17 46
       208.19424 11758.981 2492.1462 9722.178
0001a0 00 00 00 00 00 00 00 00 00 00 00 00 00 00 00 00
       0.0 0.0 0.0 0.0
0001b0 ce 58 0e 42 86 30 15 45 6e 39 de 43 ab 85 0a 45
       35.586723 2387.0327 444.44867 2216.3542
0001c0 00 00 00 00 00 00 00 00 00 00 00 00 00 00 00 00
       0.0 0.0 0.0 0.0
0001d0 00 00 00 00 00 00 00 00 00 00 00 00 00 00 00 00
       0.0 0.0 0.0 0.0
0001e0 00 00 00 00 00 00 00 00 00 00 00 00 00 00 00 00
       0.0 0.0 0.0 0.0
0001f0 00 00 00 00 00 00 00 00 00 00 00 00 00 00 00 00
       0.0 0.0 0.0 0.0
000200 9b ea 58 42 d5 62 5d 45 af ea 11 44 94 23 49 45
       54.229107 3542.177 583.66693 3218.2236
000210 ea 71 d6 43 22 ff db 46 fd 09 92 45 6d 14 c1 46
       428.88995 28159.566 4673.2485 24714.213
000220 2d 25 14 38 97 70 a3 3a eb be a4 3c 02 7f 95 38
       3.5320572e-05 0.0012469467 0.020110568 7.128531e-05
000230 a9 7a bb 3d 09 a0 b1 40 97 6f 08 41 a9 f1 24 40
       0.09154255 5.5507855 8.527244 2.5772498
000240 6c 8f 53 43 ac 34 57 46 37 36 0f 45 48 8b 3d 46
       211.56024 13773.168 2291.3884 12130.82
000250 37 7e 9a 39 53 0f 8b 3c f2 0a 03 3e bb 70 d6 3a
       0.00029467206 0.01697508 0.12797144 0.0016360501
000260 0a 55 4c 3c b1 7a 2a 3f 11 63 72 3f 15 16 cc 3e
       0.012471447 0.6659346 0.94682413 0.39860597
000270 89 f9 6e 43 b4 9c 45 46 88 a7 1b 45 89 bf 14 46
       238.97475 12647.176 2490.4707 9519.884
000280 80 59 9d 43 84 48 7e 46 de 53 49 45 6b 27 41 46
       314.69922 16274.129 3221.2417 12361.8545
000290 a5 4c 41 42 16 a4 42 45 1f d9 06 44 aa c2 31 45
       48.32485 3114.2554 539.3925 2844.1665
0002a0 00 00 00 00 00 00 00 00 00 00 00 00 00 00 00 00
       0.0 0.0 0.0 0.0
0002b0 00 00 00 00 00 00 00 00 00 00 00 00 00 00 00 00
       0.0 0.0 0.0 0.0
0002c0 96 59 d4 3d d9 92 35 41 31 22 fb 40 97 c0 13 40
       0.1036865 11.3483515 7.8479238 2.3086298
0002d0 2d c9 f7 42 da 8b fb 45 0e d5 a7 44 dc 2e dd 45
       123.89292 8049.4814 1342.658 7077.8574
0002e0 ce 80 07 43 d5 4e 0a 46 1d f5 b8 44 0b 7e f3 45
       135.50314 8851.708 1479.6598 7791.7554
0002f0 00 00 00 00 00 00 00 00 00 00 00 00 00 00 00 00
       0.0 0.0 0.0 0.0
000300 db cc 3e 44 33 3e 42 47 54 94 01 46 2b fa 2a 47
       763.20087 49726.2 8293.082 43770.168
000310 39 db 20 42 ca e6 23 45 33 4f e0 43 8c 82 14 45
       40.214085 2622.4243 448.61874 2376.1592
000320 b4 9f 90 42 b7 18 9a 45 5a 41 55 44 6c 65 87 45
       72.31192 4931.0894 853.0211 4332.6777
000330 00 00 00 00 00 00 00 00 00 00 00 00 00 00 00 00
       0.0 0.0 0.0 0.0
000340 7a c6 72 44 72 49 77 47 87 ec 24 46 7a 7c 59 47
       971.1012 63305.445 10555.132 55676.477
000350 e0 44 dd 40 c5 f8 79 44 2a 16 30 43 2b 2d 9e 44
       6.9146576 999.887 176.08658 1265.4115
000360 5c 9b 6a 43 f4 a2 28 46 1d d7 2d 45 c4 bb 03 46
       234.60687 10792.738 2781.4446 8430.941
000370 ea 6e cd 42 54 54 cf 45 50 e9 8a 44 89 cf b7 45
       102.71663 6634.541 1111.291 5881.942
000380 41 e1 0e 43 e1 f5 10 46 d0 2a bf 44 7d ae 00 46
       142.8799 9277.47 1529.3379 8235.622
000390 ed 6b 3e 44 d8 a0 3f 47 46 ac fa 45 39 05 2b 47
       761.68634 49056.844 8021.534 43781.223
0003a0 fc 9e c0 44 c6 d8 c3 47 57 9f 82 46 8a 3b ac 47
       1540.9683 100273.55 16719.67 88183.08
0003b0 00 00 00 00 00 00 00 00 00 00 00 00 00 00 00 00
       0.0 0.0 0.0 0.0
0003c0 00 00 00 00 00 00 00 00 00 00 00 00 00 00 00 00
       0.0 0.0 0.0 0.0
0003d0 00 00 00 00 00 00 00 00 00 00 00 00 00 00 00 00
       0.0 0.0 0.0 0.0
0003e0 d6 54 0b 3a 6f ca e2 3d 62 c3 93 3d d8 eb 94 3c
       0.0005315071 0.110737674 0.07215001 0.018178865
0003f0 00 00 00 00 00 00 00 00 00 00 00 00 00 00 00 00
       0.0 0.0 0.0 0.0

exp_avg f4 [64]
000000 65 be 88 3d 2c ed 2d bd 64 50 bc bb 84 4d aa 3b
       0.0667694 -0.042462513 -0.005746888 0.005197229
000010 7f 8e 0e 3a 00 5e 4f bd 00 00 00 00 76 b3 80 bb
       0.00054381037 -0.050626755 0.0 -0.0039276434
000020 9f 19 ec bc f1 05 a4 3c 24 59 4b bc b3 5e a9 39
       -0.02882081 0.020022364 -0.0124113895 0.00032304748
000030 00 00 00 00 f5 d7 5d 3c 55 23 88 bd b1 25 db bc
       0.0 0.013540258 -0.06647364 -0.026751371
000040 2d 91 18 3c 5c 8f cd bd 00 00 00 00 4b 4c 84 bd
       0.009311956 -0.10037109 0.0 -0.06459864
000050 6a 1a b3 3d a3 0f 8a b8 ff e1 5b bc 38 8f 47 3c
       0.087452725 -6.583265e-05 -0.013420581 0.012180142
000060 00 00 00 00 51 02 8a be 00 00 00 00 9d f8 46 bd
       0.0 -0.26954892 0.0 -0.04857694
000070 00 00 00 00 00 00 00 00 00 00 00 00 00 00 00 00
       0.0 0.0 0.0 0.0
000080 09 6e b2 3c d1 1f 1a 3d fa 46 34 b9 fd 82 a6 3b
       0.021780984 0.037628 -0.00017192579 0.005081533
000090 1e 5c d1 3c 7b 9a 10 b9 76 5c 07 3b e3 cc a4 bc
       0.02555662 -0.00013790459 0.0020654476 -0.020117229
0000a0 0d 10 e9 bd 8e 0b 54 3d 00 00 00 00 00 00 00 00
       -0.113800146 0.051768832 0.0 0.0
0000b0 80 41 13 bb 1e 0c fc 3c 97 a9 0e 3d 00 00 00 00
       -0.002246946 0.030767497 0.034829702 0.0
0000c0 3a c7 7c 3d 3e ba 11 3d 23 49 e4 bc 00 00 00 00
       0.061713435 0.035578005 -0.027866906 0.0
0000d0 8d ad 47 3d f3 5e 35 3c 34 8f ce bd a4 04 7d bc
       0.048749495 0.011070001 -0.100859076 -0.015443001
0000e0 e4 68 5e 3c 99 07 9d 3b 45 de 83 bd 00 00 00 00
       0.013574813 0.0047921655 -0.06438879 0.0
0000f0 00 00 00 00 00 00 00 00 04 00 00 00 00 00 00 00
       0.0 0.0 6e-45 0.0

exp_avg_sq f4 [64]
000000 31 3f ba 3f 12 55 6f 3d d4 c7 39 3e 08 bd b5 3c
       1.4550534 0.05843074 0.18142635 0.022184864
000010 8e 96 8b 3b 83 a0 98 40 00 00 00 00 66 cc 9d 3b
       0.004259891 4.7695937 0.0 0.004815626
000020 f8 d5 3c 3f b8 32 47 3e 27 e6 45 3e ea 43 b5 3d
       0.7376399 0.19452941 0.19326077 0.08850844
000030 00 00 00 00 fa 7d 57 3f 94 5d 02 3e 62 2c ea 3e
       0.0 0.841766 0.1273101 0.45736986
000040 2c b9 72 3e a3 86 14 40 00 00 00 00 47 23 b3 3f
       0.2370345 2.3207176 0.0 1.3995141
000050 66 17 b7 3e 13 d1 3a 37 d2 72 69 3f 4c f5 e1 3f
       0.3576004 1.1135143e-05 0.91190827 1.7652984
000060 00 00 00 00 68 d8 dc 3e 00 00 00 00 f6 44 bd 3d
       0.0 0.43133855 0.0 0.09241669
000070 00 00 00 00 00 00 00 00 00 00 00 00 00 00 00 00
       0.0 0.0 0.0 0.0
000080 62 ff 08 3e a9 fc 83 3f 7b a1 39 36 40 b5 96 3a
       0.13378671 1.0311481 2.7661142e-06 0.0011498109
000090 dd 25 02 3f a9 bb 93 37 ed 72 05 39 8f 7c da 3e
       0.50839025 1.7611152e-05 0.00012726682 0.42673156
0000a0 93 2b 0f 3f c4 d7 f3 3d 00 00 00 00 00 00 00 00
       0.55925864 0.119063884 0.0 0.0
0000b0 41 af 86 3a 5a f3 97 3e f6 54 a7 3e 00 00 00 00
       0.0010275618 0.2967785 0.32682008 0.0
0000c0 9b 6f ea 3f 30 02 cd 3d 2e c4 3b 3e 00 00 00 00
       1.8315309 0.10010183 0.18336555 0.0
0000d0 9f 0c 15 40 53 12 3a 3d f7 20 d5 3e c6 ab 7c 3e
       2.3288953 0.04542763 0.41626713 0.24674901
0000e0 4d df b0 3e 53 1f e5 3f c6 36 6c 40 00 00 00 00
       0.34545365 1.7900184 3.690843 0.0
0000f0 00 00 00 00 00 00 00 00 61 fe 1f 37 00 00 00 00
       0.0 0.0 9.536366e-06 0.0

exp_avg f4 [13, 64]
000000 8e 1a 89 3e 1f 67 07 3d 08 5b 10 3b 92 83 9c 3c
       0.26778072 0.03305733 0.0022026915 0.019105706
000010 a4 9c 1a b9 d2 bb aa 3d 00 00 00 00 b3 75 ce ba
       -0.00014744938 0.08336605 0.0 -0.001575163
000020 30 ba de 3d e2 d1 16 3e 55 ea e6 3d bc 79 f3 3b
       0.10875356 0.14728501 0.11275164 0.0074302834
000030 00 00 00 00 6b 5c 3c 3e ca 43 d2 3d 1d 0e e4 3a
       0.0 0.1839463 0.10266836 0.0017399226
000040 97 9f c1 3d 3c d4 3a 3d 00 00 00 00 da 36 13 3e
       0.094542675 0.04561256 0.0 0.14376393
000050 05 07 50 3c 07 e8 79 b8 02 9b 88 3d fd 9e ca 3d
       0.012696986 -5.958232e-05 0.066701904 0.09893606
000060 00 00 00 00 64 3b d6 3c 00 00 00 00 26 83 52 3d
       0.0 0.026151367 0.0 0.051394604
000070 00 00 00 00 00 00 00 00 00 00 00 00 00 00 00 00
       0.0 0.0 0.0 0.0
000080 8c 04 0d 3e c3 46 e5 3c 1e ea 2e b8 82 40 5a bb
       0.13771266 0.027987843 -4.170287e-05 -0.003330261
000090 6d d0 01 3e 4e 63 aa b7 ff 25 49 bb 25 6c a3 3c
       0.12677164 -2.0311822e-05 -0.0030692813 0.019949028
0000a0 f8 77 0b 3d 6c 32 00 3e 00 00 00 00 00 00 00 00
       0.034049958 0.12519234 0.0 0.0
0000b0 f3 90 65 bb d1 ea 97 3d 76 0d f5 3d 00 00 00 00
       -0.0035029023 0.074178346 0.11965458 0.0
0000c0 2a 57 10 3e 9b 51 a9 3d 17 d8 bf 3c 00 00 00 00
       0.1409575 0.08267518 0.02341847 0.0
0000d0 f5 3c f0 3d 9a a4 47 bb bb 37 8f 3c e5 e6 b2 3d
       0.11730377 -0.00304631 0.017482629 0.08735446
0000e0 3c a9 6c 3e 2c 4b 88 3d fa e5 27 3e 00 00 00 00
       0.23111433 0.06654963 0.16396323 0.0
0000f0 00 00 00 00 00 00 00 00 04 00 00 00 00 00 00 00
       0.0 0.0 6e-45 0.0
000100 26 7a 8d c1 eb 60 fd bf 3d ef 45 bd c2 4d 05 be
       -17.684643 -1.9795202 -0.04832386 -0.13017944
000110 98 95 13 ba 14 b9 b4 c0 00 00 00 00 ed ff c1 3d
       -0.0005629896 -5.6475925 0.0 0.09472642
000120 12 35 df c0 27 59 0f c1 af 92 e3 c0 c4 67 33 bd
       -6.9752283 -8.959266 -7.1116557 -0.04380013
000130 00 00 00 00 ec 30 3c c1 38 eb a8 c0 99 25 34 3d
       0.0 -11.761944 -5.278713 0.04398117
000140 bf a4 96 c0 1a 90 f2 bf 00 00 00 00 3c 9e 11 c1
       -4.7076106 -1.8950226 0.0 -9.101131
000150 06 c9 88 bd 75 93 ba ba 33 ae 7f c0 18 6c c4 c0
       -0.06678967 -0.001423462 -3.9950073 -6.138195
000160 00 00 00 00 d9 61 ca bf 00 00 00 00 d2 57 0e c0
       0.0 -1.5811111 0.0 -2.2241101
000170 00 00 00 00 00 00 00 00 00 00 00 00 00 00 00 00
       0.0 0.0 0.0 0.0
000180 9d 63 f4 c0 02 32 19 c0 1e da 34 bb 8c f3 ad 3c
       -7.63716 -2.3936772 -0.0027595828 0.021234296
000190 4e c4 f9 c0 74 9a 47 bb 17 0e 8e 3c fc 1d 7a bf
       -7.805213 -0.0030457051 0.017340703 -0.97702
0001a0 70 f5 b1 bf e3 5e 06 c1 00 00 00 00 00 00 00 00
       -1.3903027 -8.398166 0.0 0.0
0001b0 bd 4d d0 3d 50 02 89 c0 5b f8 d8 c0 00 00 00 00
       0.101710774 -4.2815323 -6.780317 0.0
0001c0 90 05 0d c1 4a 23 9f c0 0a 89 a6 bf 00 00 00 00
       -8.813858 -4.9730577 -1.3010571 0.0
0001d0 d3 ae e4 c0 e3 3d 13 bc 51 56 ff be 89 ea cb c0
       -7.146341 -0.008986923 -0.49870542 -6.37238
0001e0 8d 27 58 c1 32 e2 ab c0 ee 39 1b c1 00 00 00 00
       -13.509656 -5.3713617 -9.701643 0.0
0001f0 00 00 00 00 00 00 00 00 04 00 00 80 00 00 00 00
       0.0 0.0 -6e-45 0.0
000200 86 0e 5e 41 f3 5b df 3f d9 bf 9d bd 0b a1 ed 3d
       13.878546 1.7449936 -0.07702608 0.11602982
000210 34 95 cd b9 97 80 92 40 00 00 00 00 e5 29 02 be
       -0.00039211812 4.578197 0.0 -0.12711294
000220 bc aa b0 40 dc 7d db 40 dc 64 b1 40 6e e6 36 bd
       5.5208416 6.8591137 5.543562 -0.04465335
000230 00 00 00 00 41 84 12 41 0d 6a 72 40 ac 16 10 be
       0.0 9.157289 3.7877228 -0.14071149
000240 45 aa 55 40 dc 2c ab 3f 00 00 00 00 a5 2d e4 40
       3.3385174 1.3373065 0.0 7.130572
000250 35 41 b9 bb 1b 87 02 3b f4 e1 41 40 57 fb 99 40
       -0.0056535252 0.0019916955 3.029416 4.811931
000260 00 00 00 00 77 3f a6 3f 00 00 00 00 6b 10 cd 3f
       0.0 1.2988118 0.0 1.6020635
000270 00 00 00 00 00 00 00 00 00 00 00 00 00 00 00 00
       0.0 0.0 0.0 0.0
000280 1b ce b7 40 30 9d f0 3f 6d f4 50 3b 16 6b 1f bd
       5.7439094 1.879797 0.003188397 -0.038920484
000290 cf 5f c2 40 1b 34 79 3b 74 ef db bc da 29 56 3f
       6.0741954 0.0038025442 -0.026847579 0.8365761
0002a0 3b 45 98 3f 0f c2 d6 40 00 00 00 00 00 00 00 00
       1.1896127 6.711189 0.0 0.0
0002b0 8c 9a 0c be 1f dd 4c 40 44 be a2 40 00 00 00 00
       -0.1373083 3.2009962 5.085726 0.0
0002c0 4f c7 d9 40 a4 78 75 40 b6 0d 71 3f 00 00 00 00
       6.8055797 3.8354883 0.94161546 0.0
0002d0 d5 e6 af 40 4a 30 a4 3e a2 d7 cc 3e 8e 13 a1 40
       5.4969277 0.32068092 0.40008265 5.033637
0002e0 36 6d 26 41 fa 63 8c 40 6b da ed 40 00 00 00 00
       10.401663 4.387204 7.4329123 0.0
0002f0 00 00 00 00 00 00 00 00 04 00 00 00 00 00 00 00
       0.0 0.0 6e-45 0.0
000300 58 cb 84 41 68 f1 f5 3f f2 48 01 3c f9 8a a7 3d
       16.599289 1.9214296 0.007890927 0.08180804
000310 6d 81 e1 3a 59 44 aa 40 00 00 00 00 cd 97 9d bd
       0.001720471 5.320843 0.0 -0.07694969
000320 25 6a d0 40 a4 7b 06 41 a7 01 d3 40 59 8b ed 3b
       6.512957 8.405186 6.5939517 0.0072492776
000330 00 00 00 00 f4 5a 31 41 a6 7d 9b 40 5e dc 9c bd
       0.0 11.084705 4.859088 -0.07659219
000340 84 53 8a 40 9d 6c d7 3f 00 00 00 00 d3 e4 08 41
       4.322695 1.6830021 0.0 8.555865
000350 36 1b 29 3d 29 f3 d9 3a 79 6a 70 40 f8 b0 b8 40
       0.041285716 0.0016628254 3.7564986 5.7716026
000360 00 00 00 00 80 20 ba 3f 00 00 00 00 70 6d 00 40
       0.0 1.4541168 0.0 2.0066795
000370 00 00 00 00 00 00 00 00 00 00 00 00 00 00 00 00
       0.0 0.0 0.0 0.0
000380 e2 2e e0 40 f2 d3 16 40 f8 12 26 3b 42 0c 41 3b
       7.005723 2.356686 0.0025340896 0.002945677
000390 50 71 e9 40 8a 71 5e 3b 8c 64 2c bb 1f 94 6a 3f
       7.295082 0.0033942186 -0.0026305048 0.91632265
0003a0 22 ec a3 3f 35 4b fb 40 00 00 00 00 00 00 00 00
       1.2806437 7.8529305 0.0 0.0
0003b0 eb 05 3c bd b2 fc 7f 40 3a 96 c9 40 00 00 00 00
       -0.04590408 3.9997983 6.299588 0.0
0003c0 30 69 04 41 e5 ca 93 40 cb 02 99 3f 00 00 00 00
       8.275681 4.6185174 1.1953977 0.0
0003d0 ed f0 d5 40 f1 4f 2a bd be 40 00 3f 29 b8 c2 40
       6.68566 -0.041580144 0.5009879 6.0849805
0003e0 7e 68 4a 41 d8 4f a1 40 6d 11 11 41 00 00 00 00
       12.650511 5.0409966 9.066754 0.0
0003f0 00 00 00 00 00 00 00 00 04 00 00 80 00 00 00 00
       0.0 0.0 -6e-45 0.0

exp_avg_sq f4 [13, 64]
000000 63 a0 f7 42 72 57 71 41 1a be 6d 3d cb ca e7 3f
       123.813255 15.083849 0.058042623 1.8108763
000010 dd 8c 9c 40 ed 91 ff 40 00 00 00 00 af d6 05 3c
       4.892195 7.986563 0.0 0.00816886
000020 3a f3 d2 41 19 5e 5a 41 88 23 b6 41 31 77 92 3d
       26.368763 13.647973 22.76735 0.0715164
000030 00 00 00 00 8b e6 61 42 a1 de 80 3f 3c a3 50 3b
       0.0 56.47514 1.0067941 0.0031835577
000040 da 7b 4a 3f 2d 01 4b 3f 00 00 00 00 6c 1c 69 42
       0.7909523 0.7929867 0.0 58.277756
000050 41 83 41 3c a9 e9 dd 3a d4 ba 78 3f e6 50 7e 3f
       0.0118110785 0.0016930598 0.9716008 0.9934219
000060 00 00 00 00 4e 7d 59 3d 00 00 00 00 45 2d 44 3f
       0.0 0.053098015 0.0 0.76631576
000070 00 00 00 00 00 00 00 00 00 00 00 00 00 00 00 00
       0.0 0.0 0.0 0.0
000080 f1 e9 2d 41 48 be 84 3f 1c 84 11 37 d1 d9 df 3a
       10.869615 1.0370569 8.673433e-06 0.0017078464
000090 be b9 3c 42 62 03 b4 38 ce fd 01 3b 00 62 2e 3f
       47.18139 8.583699e-05 0.0019835117 0.68118286
0000a0 d6 80 fb 3d 03 19 9f 41 00 00 00 00 00 00 00 00
       0.12280433 19.887213 0.0 0.0
0000b0 15 a6 9e 3d f7 e4 1d 40 8f 0e 32 41 00 00 00 00
       0.077465214 2.4671 11.128554 0.0
0000c0 a1 51 90 41 60 83 8f 40 1f d3 9b 3f 00 00 00 00
       18.039858 4.484787 1.2173804 0.0
0000d0 3c de ff 41 81 17 3e 40 4a 2e bf 3c 4b 37 bb 40
       31.983513 2.9701846 0.023337502 5.8504996
0000e0 d1 fe 4c 42 c7 cb 64 3f 2f c5 74 42 00 00 00 00
       51.248844 0.8937344 61.192562 0.0
0000f0 00 00 00 00 00 00 00 00 eb 9d 80 39 00 00 00 00
       0.0 0.0 0.0002453172 0.0
000100 74 c8 eb 45 4b dd 47 43 91 78 cb 40 96 66 2c 42
       7545.0566 199.86443 6.3584676 43.10018
000110 b6 29 52 41 2b c0 4f 44 00 00 00 00 83 59 93 40
       13.135183 831.0026 0.0 4.6046767
000120 c8 ad 93 44 4a fa de 44 71 a9 bb 44 d4 5a f8 40
       1181.4307 1783.8215 1501.295 7.7610874
000130 00 00 00 00 20 95 6e 45 aa 13 2b 44 d7 13 85 40
       0.0 3817.3203 684.30725 4.158672
000140 bc 90 2a 44 06 ab 85 43 00 00 00 00 64 d0 23 45
       682.2615 267.33612 0.0 2621.0244
000150 e3 cc 48 41 96 13 1f 3d 4e 95 c6 43 da 52 f4 43
       12.550021 0.038837038 397.16644 488.64728
000160 00 00 00 00 43 2f e2 41 00 00 00 00 6f 28 d3 43
       0.0 28.273077 0.0 422.3159
000170 00 00 00 00 00 00 00 00 00 00 00 00 00 00 00 00
       0.0 0.0 0.0 0.0
000180 e0 a2 c6 44 17 9a 10 43 82 fe ac 38 07 11 c9 3d
       1589.0898 144.60191 8.249005e-05 0.09817701
000190 bb be fb 44 d4 cf 80 3a 24 9a b4 3d f5 c6 5e 42
       2013.9603 0.0009827563 0.088184625 55.694294
0001a0 93 06 4d 42 4c 64 d0 44 00 00 00 00 00 00 00 00
       51.25642 1667.1343 0.0 0.0
0001b0 19 1b 43 40 72 4f c4 43 b1 4e 85 44 00 00 00 00
       3.048529 392.62067 1066.4591 0.0
0001c0 18 3f cb 44 b4 32 25 44 00 59 29 43 00 00 00 00
       1625.9717 660.79224 169.34766 0.0
0001d0 ee 2f cd 44 b8 aa 37 42 58 2b 39 41 c9 63 53 44
       1641.4978 45.916718 11.573082 845.55914
0001e0 72 58 a0 45 cb a2 51 44 89 da 25 45 00 00 00 00
       5131.0557 838.54364 2653.6584 0.0
0001f0 00 00 00 00 00 00 00 00 3a c2 71 3c 00 00 00 00
       0.0 0.0 0.01475578 0.0
000200 74 1d e4 46 65 dd 04 45 3b ba ff 40 7d 3a 9b 43
       29198.727 2125.8372 7.991483 310.45694
000210 d5 ce 02 44 f0 6b e7 44 00 00 00 00 ff fe 95 40
       523.23175 1851.373 0.0 4.6873775
000220 30 89 bd 45 50 66 91 45 b3 57 ac 45 37 b7 64 41
       6065.1484 4652.789 5514.9624 14.29473
000230 00 00 00 00 a6 41 5a 46 41 cf 12 44 5e 8a 84 40
       0.0 13968.412 587.23834 4.1418905
000240 84 52 13 44 e1 f8 8c 43 00 00 00 00 90 ed 47 46
       589.2893 281.94437 0.0 12795.391
000250 67 49 3f 41 89 51 4a 3c bc c7 08 44 9c 2a ea 43
       11.9554205 0.012348541 547.12085 468.3329
000260 00 00 00 00 c1 fa c0 41 00 00 00 00 ce b3 c3 43
       0.0 24.122438 0.0 391.40472
000270 00 00 00 00 00 00 00 00 00 00 00 00 00 00 00 00
       0.0 0.0 0.0 0.0
000280 7f 7f 83 45 fe f3 b4 43 39 96 2d 39 83 2b f0 3d
       4207.937 361.9062 0.00016554528 0.11727049
000290 5e 0c 25 46 a8 ef b7 3a b6 b3 e5 3d f9 5f e5 42
       10563.092 0.0014033215 0.11215918 114.68745
0002a0 35 11 2c 42 da 14 99 45 00 00 00 00 00 00 00 00
       43.016804 4898.6064 0.0 0.0
0002b0 de 79 c4 3f 69 eb 42 44 0f 6b 57 45 00 00 00 00
       1.5349691 779.6783 3446.6912 0.0
0002c0 ae cb 9f 45 8a fe d6 44 cf b8 9a 43 00 00 00 00
       5113.46 1719.9543 309.44382 0.0
0002d0 4d 93 eb 45 85 5c db 43 dd a9 1e 41 ac 53 e7 44
       7538.4126 438.7228 9.916471 1850.6147
0002e0 d4 1a 71 46 36 81 34 44 b1 88 59 46 00 00 00 00
       15430.707 722.0189 13922.173 0.0
0002f0 00 00 00 00 00 00 00 00 d4 13 72 3b 00 00 00 00
       0.0 0.0 0.0036938088 0.0
000300 c5 16 de 45 a4 29 39 43 78 0a d3 40 18 8a 56 41
       7106.846 185.16266 6.595028 13.408714
000310 91 f4 44 41 d2 26 44 44 00 00 00 00 29 c0 8b 40
       12.309709 784.60657 0.0 4.367207
000320 02 c4 8b 44 8e 9a cb 44 d9 8a b4 44 8e 9e 02 41
       1118.1252 1628.8298 1444.339 8.16371
000330 00 00 00 00 bd 2d 5e 45 02 66 21 44 b0 4a 81 40
       0.0 3554.8586 645.5939 4.040367
000340 36 db 23 44 26 11 86 43 00 00 00 00 37 f1 19 45
       655.4252 268.13397 0.0 2463.076
000350 49 60 42 41 22 50 2c 3c cb 5a b7 43 bd 1f ec 43
       12.148507 0.010517152 366.70932 472.24796
000360 00 00 00 00 bf 37 d1 41 00 00 00 00 48 f0 d0 43
       0.0 26.15222 0.0 417.8772
000370 00 00 00 00 00 00 00 00 00 00 00 00 00 00 00 00
       0.0 0.0 0.0 0.0
000380 f0 70 b9 44 c0 5a 02 43 5d 35 1a 39 66 c6 bd 3d
       1483.5293 130.35449 0.00014706464 0.09266357
000390 3b bd eb 44 2b ba bc 3a fd 45 9b 3d 74 65 ce 41
       1885.9135 0.0014398744 0.075817086 25.799538
0003a0 c4 20 2f 42 99 c0 c5 44 00 00 00 00 00 00 00 00
       43.781998 1582.0187 0.0 0.0
0003b0 dd 1b 16 3f 58 36 ab 43 66 a2 6b 44 00 00 00 00
       0.58636266 342.42456 942.5375 0.0
0003c0 99 28 ba 44 4c 91 1d 44 b7 df 2b 43 00 00 00 00
       1489.2687 630.27026 171.87389 0.0
0003d0 83 46 bc 44 40 42 10 42 3c 9a 2e 41 70 e4 47 44
       1506.2035 36.064697 10.912655 799.56934
0003e0 9a 7f 95 45 d9 95 49 44 93 06 13 45 00 00 00 00
       4783.95 806.3414 2352.411 0.0
0003f0 00 00 00 00 00 00 00 00 ff 7a 07 3a 00 00 00 00
       0.0 0.0 0.0005168169 0.0

exp_avg f4 [13]
000000 d2 f3 f9 bb 6b 5f e1 bd b3 34 b6 3d 88 48 fa 3d
       -0.0076279426 -0.11004528 0.0889677 0.122208655
000010 d9 08 d3 bd 00 00 00 00 00 00 00 00 00 00 00 00
       -0.10304422 0.0 0.0 0.0
000020 01 56 48 3c d9 5e 11 be e7 c5 fb be 14 f7 8d bb
       0.012227536 -0.14196338 -0.49174425 -0.0043324325
000030 04 07 bb 3b
       0.0057076234

exp_avg_sq f4 [13]
000000 78 6c b9 3b 5c 40 b0 3e c5 e1 b8 3f 52 e0 a2 3e
       0.0056586824 0.34424102 1.4443899 0.31811768
000010 8a 61 db 3e 00 00 00 00 00 00 00 00 00 00 00 00
       0.42847854 0.0 0.0 0.0
000020 85 f9 ba 3e 6d 06 f1 42 10 b9 f3 42 ee ae bb 3b
       0.36518493 120.51255 121.86145 0.0057276404
000030 ea 09 c6 3b
       0.0060436623
