Op_problems/problem_pooling/checkpoints/pinn_checkpoint_epoch_300_loss_242.602877.pth (torch, 20703 bytes, 12 tensors)

nn.0.weight f4 [64, 4]
00000000: 7020 fd3e ea76 eb3e feda dfbd 37de fe3e
00000010: 6a00 bfbe 93cb 1e3d 1321 85be c331 6b3e
00000020: 4cd2 673e 7203 f3be d129 bb3e 8be5 893e
00000030: a960 e93e 3dea 5ebd 6f73 243e aa33 2ebe
00000040: fdd9 453e e371 57bd d8b5 a3be 0913 97bb
00000050: 7baa 6fbc 23f6 da3c 099e 47be b9e2 cb3e
00000060: 2a14 cabe 8c09 6cbe 6c93 10be feec 99be
00000070: 93bf 8ebe 6c49 d2be f3fd 113f b003 083d
00000080: 4292 d73e 89cb a23d dcd4 fabd 5161 993e
00000090: 19f2 813e a3cb f13e eb46 c33d 6e72 c8bd
000000a0: 9fed 563e 213a 04be c0de 3e3e 811b dc3e
000000b0: 42e6 ca3d 576a 8cbe ce44 963e 847b 0b3e
000000c0: 7a01 823e 8608 9cbe a46a fdbe 0cd1 45be
000000d0: 4b9f a4be 3259 d93e e831 073e 5070 653e
000000e0: f26d 1b3e 603a 3d3e 5da9 113f 8e27 17be
000000f0: 4132 a43d de00 acbe 28dd 833e 0ce3 523e
00000100: 4939 a0bd 0b95 a33d e86d 2c3f 38e7 84bd
00000110: 8a29 b6be 2d6e 85be 79c8 043f 7f02 863e
00000120: 1056 f63e 4e45 d3be 98eb fdbe fe48 c8be
00000130: 02e0 b5be d579 283e 0805 113e 1e32 b93e
00000140: cacf 203e fad0 92be e3e8 c63e 4a59 de3d
00000150: c06d 123c c268 0bbe 20f4 723e 9b8b 10bf
00000160: c9b6 cebd d430 5f3e 9a61 0d3e 2a3b 63bd
00000170: ba12 183f 5fa5 f53e b7fd 8bbe 8c1f 1cbe
00000180: d268 ea3e f4c3 2cbe 2c83 35be 48b4 f7be
00000190: 23aa ce3e 788f b33e 1202 46bd ee13 b4be
000001a0: 4028 403c 6ede aebe 8630 d9be 3af8 8cbe
000001b0: 2729 27bf f04a 99be 566e 143f a80e b03e
000001c0: 1cc7 1d3e 66c4 eebe 5422 a8be 146c 2abe
000001d0: c01f a03d 8642 e1be 649b 5cbe 5842 99be
000001e0: 009e b53a 5084 3ebe f0ea 0dbd 2479 adbe
000001f0: 98b7 afbe d259 95be 9c41 2fbe 500e cabe
00000200: 5c99 033f 7751 63bd 2d1d e63e e49a 5c3e
00000210: a30b cfbe c58e b53e de8d 95bd a256 1ebe
00000220: 81a6 8ebe eed5 05bf 75fa 2f3e bfa1 643e
00000230: 2ef9 34be 53f0 6fbe 2f49 f43e 7d46 dbbe
00000240: 87ad 2dbe 8b8a 503d 0c8b 563e 8328 af3e
00000250: a3c0 ef3e c008 d2be 7e3b 753e fac4 85be
00000260: 5c6e 06be 883d c2be 0ca4 083f d96e e1bd
00000270: b970 cf3e 1c50 6d3e 8e49 2e3d 7dd2 8ebe
00000280: 6937 143f e200 a83e 4f8e 3c3d 7eb8 c4be
00000290: cad4 c73e d646 853c 1ad2 28be e74a f23e
000002a0: b04c e43d 86a3 8dbe 5292 81be 809b c3bc
000002b0: c4f0 8e3e 54d5 02be 3211 92be ac54 2fbe
000002c0: 8d4a b3be f00d 423e a2ed a13e 8ce0 35bf
000002d0: c9cb 843e a18b 963e 1e12 d73d 4fd5 39be
000002e0: ba2b ed3e 98c6 a73e 89f8 563e 589c 18be
000002f0: 0894 07be d018 5b3d d0e4 b4bd 9893 18be
00000300: 4916 d93e d9eb f23e 676d 3bbd 7f05 89bd
00000310: 8172 0b3e 6112 533c 8d2e 083e 07a0 283e
00000320: b320 03bf 9709 53be e7d1 c33e 6fdc 7e3e
00000330: a0b9 cbbc 0858 9abe 429f 9cbe fa50 e5be
00000340: 53f5 32be a868 113e 1d19 853e d675 403e
00000350: 12fe 25bf 1440 02bf c6fb c83d 9974 023f
00000360: 6835 ca3e d41c 5a3e af11 4f3d 9f86 8abe
00000370: 4040 c5bd d5c7 e63e 3b23 53be 2811 4abd
00000380: 313a b0be b23b cc3e cd7f c93e 0ed9 833e
00000390: d9cc 713d 3630 7bbe 91a9 f3bd 7b30 213f
000003a0: e999 393e 0116 b83e 69ea 583e c93f 723d
000003b0: 8071 a0bb 86b0 c2be 6c55 dbbe 0273 efbe
000003c0: e497 513e 2860 7bbe 2815 cebd 5054 93be
000003d0: d098 babd 862e b4be 4046 a7be 00d6 293e
000003e0: 687d 48be 4036 7d3e ea15 72be cc7b c4be
000003f0: 68ac b4bd d030 78be 60a4 1cbe fcb5 f3be
0.4943881 0.45989162 -0.10930441 0.4977891 -0.37305003 0.038768362 -0.26001796 0.22968201
0.22638816 -0.47463566 0.3655534 0.2693294 0.45581558 -0.054422606 0.1605966 -0.17011896
0.19321437 -0.052598845 -0.31974673 -0.0046104235 -0.014628048 0.026728695 -0.1949388 0.39821413
-0.3946851 -0.23050517 -0.14118737 -0.30063623 -0.27880535 -0.4107164 0.5702812 0.03320664
0.42103773 0.079489775 -0.12247631 0.2995706 0.25380018 0.47225675 0.09535011 -0.09787451
0.20989083 -0.129128 0.1863966 0.42989734 0.099071994 -0.2742488 0.2934937 0.13621336
0.25391752 -0.30475253 -0.49495423 -0.19318026 -0.3215278 0.42450863 0.13202631 0.22406125
0.1517866 0.184793 0.5689905 -0.14761183 0.08017398 -0.33594412 0.25754666 0.20594424
-0.07823426 0.07987412 0.67355204 -0.06489414 -0.35578567 -0.2606062 0.51868397 0.2617378
0.48112535 -0.41263813 -0.49593806 -0.3911819 -0.35522467 0.16452725 0.14162076 0.3617105
0.15704265 -0.2867506 0.38849553 0.10856874 0.008937299 -0.1361418 0.23725939 -0.5646302
-0.10093457 0.2179597 0.13806763 -0.055476345 0.59403574 0.4797773 -0.27342007 -0.15246409
0.45783097 -0.16871625 -0.1772582 -0.4837973 0.4036418 0.35070395 -0.04834182 -0.35171455
0.011728346 -0.34154075 -0.42419833 -0.27533132 -0.6529717 -0.29939985 0.5798086 0.34386182
0.15407985 -0.46634215 -0.3283869 -0.16642791 0.07818556 -0.43996066 -0.21543652 -0.2993343
0.0013856292 -0.1860516 -0.034647882 -0.33881485 -0.34319758 -0.2917009 -0.17114872 -0.39464045
0.5140588 -0.055497613 0.44944134 0.21543461 -0.40438566 0.35460487 -0.0730245 -0.15462735
-0.27861407 -0.52279556 0.17185386 0.22327326 -0.1767318 -0.2343152 0.47712085 -0.42827216
-0.16960727 0.050913375 0.2095148 0.34210595 0.46826658 -0.410223 0.23948476 -0.26126844
-0.13128036 -0.3793757 0.53375316 -0.11007471 0.40515688 0.2317509 0.042550616 -0.27894965
0.5789705 0.32813174 0.046034154 -0.38422006 0.39029533 0.016269129 -0.16486397 0.4732277
0.111474395 -0.2766382 -0.25306946 -0.02387786 0.27918065 -0.1277669 -0.28528744 -0.17122144
-0.35017815 0.18950629 0.31626612 -0.71045756 0.25936726 0.29403403 0.105015025 -0.18147777
0.46322423 0.32768703 0.20993246 -0.1490339 -0.13240063 0.05349046 -0.08832705 -0.14900053
0.42399815 0.47445562 -0.04575863 -0.066905014 0.13617899 0.0128828 0.13299008 0.16467296
-0.5122177 -0.20609127 0.3824608 0.24888776 -0.024868786 -0.30145288 -0.30590254 -0.44788343
-0.17476396 0.1420008 0.25995722 0.18794951 -0.64840806 -0.50879025 0.09813647 0.50959164
0.3949387 0.2130006 0.050553974 -0.27055833 -0.09631395 0.45074335 -0.20618908 -0.049332768
-0.34419397 0.39889294 0.39355317 0.25751537 0.05903325 -0.2453011 -0.118975766 0.629646
0.18125118 0.35954288 0.2118317 0.05914286 -0.0048963428 -0.38025302 -0.4283861 -0.46767431
0.20468098 -0.245484 -0.10062629 -0.28775263 -0.09111178 -0.35191745 -0.32670784 0.16585541
-0.19579089 0.24727726 -0.23641172 -0.383757 -0.088219464 -0.2423737 -0.15297079 -0.4759978

nn.0.bias f4 [64]
00000000: 54be 123f 3f13 d5bd fde2 f23e 2ed2 d43d
00000010: 4be5 433e 1e7d 6abf 481d b83e 5879 1d3d
00000020: 24d8 b0be 0834 ab3d a9a3 383f b0ef 4cbe
00000030: 90c1 ebbd fed3 20bc 14e1 863f b537 b3be
00000040: d8c6 1a3f e1cf 3bbd d019 f23e 480b 89be
00000050: 2891 43be ff94 253e 4a86 393e 9edd 27bf
00000060: 686e e8bd 4048 c23e 3020 33bd a65a aebe
00000070: fc49 51be f889 22be 2047 f3be c80c d23e
00000080: 995a 2c3f aa8a 863e 3e3d 88bd a176 e83d
00000090: a718 7abd 11ff c6be aea8 5c3e 78e2 063e
000000a0: 6e6a 1abf 86b7 11bf 7080 2abe 84a4 25be
000000b0: a4fb 73be a064 963e 2152 b73e 0c26 75be
000000c0: fd9f 133e 57fc 17bb cdc0 0b3f 64ab 073e
000000d0: fe00 5f3e 3fc6 cebe b72e 5f3f f7cb d53e
000000e0: ccf3 8abf f0a0 833f 4b90 adbd dcb2 063e
000000f0: f4a0 ab3e 2063 fc3e f4a5 1bbe 2889 d43d
0.5732167 -0.104040615 0.47438803 0.10391651 0.19130437 -0.91597164 0.3595984 0.0384458
-0.34539902 0.083595335 0.72124726 -0.20013309 -0.115115285 -0.009816168 1.0537438 -0.3500344
0.6045966 -0.045852546 0.47285318 -0.2676642 -0.19098341 0.16170119 0.18117633 -0.65572536
-0.11349183 0.37945747 -0.04373187 -0.34053534 -0.20438379 -0.15872943 -0.47515202 0.41025376
0.6732574 0.26277667 -0.06652306 0.11350752 -0.061058667 -0.38866475 0.21548721 0.13172328
-0.6031865 -0.5692066 -0.16650558 -0.16176039 -0.23826462 0.29373646 0.35804847 -0.23940295
0.144165 -0.0023191178 0.54591066 0.13248974 0.21777722 -0.40385625 0.87180656 0.41757175
-1.0855651 1.0283489 -0.08474787 0.13154167 0.33521235 0.49294376 -0.15200025 0.10377723

nn.2.weight f4 [13, 64]
00000000: 5079 5ebd f67a 843b daf0 5d3c 00d6 dfba
00000010: 5bff 2dbd 4b14 80bd ecf0 aebd 06cc ec3a
00000020: 9b9a 86bd 5ac1 d6bb 7984 da3d 2486 adbc
00000030: 0ab7 c2bd dd4c 95bd d2d9 54bc e6cc 4bbc
00000040: 43d1 30bd ba12 18bd b4f5 6cbd 8dd7 373c
00000050: 1ee9 273c 37e0 093d 0a2e 5ebd d5c7 dabc
00000060: 7cf0 cebd b67b 8f3a 2441 f73d b79d 3dbe
00000070: 42e9 abbd 3036 f83c cc1c 0d3d d043 8c3d
00000080: 74c0 b63d 1434 273e 8b79 3ebd f3ff 153d
00000090: 9023 c53d 4dff 313d 06b4 903b 0c08 c03d
000000a0: e9d2 f8bd a811 04bd 50cc e6bd 20f6 b63b
000000b0: 6bda 53bd 16c8 133d c1e3 093d ae25 c2bd
000000c0: 71b1 b6bd 8a33 9f3c 257d d13d 1eb1 933d
000000d0: 950b 5ebd e3fc 7d3c 0bc5 453d 5c3b c43b
000000e0: 0c90 163d 6564 a43d b79d f93d 0009 ebbd
000000f0: 5e2a ab3d 068e b4bd d444 863c 88a3 d83d
00000100: 68f8 bfbb b9d0 223d 6bc6 00bf da1e 3e3e
00000110: 0937 3e3d 7ab0 00be f09c d1bc f8dd 93bd
00000120: 022a 753d 3545 d43d 5bc8 2c3d 1c47 47be
00000130: d2ce cfbd 7ee3 c53c 13c7 803e 2b62 30bf
00000140: a059 1e3e 245c 4d3e a024 233c 3a04 113c
00000150: bd24 aebe 191b 833c 2dcf 16bd 2fd2 92bd
00000160: 5a21 82bd ec29 0b3f 780c 15bd 2e63 ba3d
00000170: fa13 f43d 6057 323d c480 b63d a0dd 77bd
00000180: e9cb 7e3c c0b4 2a3d f517 2c3e bb16 01bc
00000190: d012 013c 9788 893d 741b d33d d39c 4f3e
000001a0: a789 c83e a591 31bd c04a b2bc 3a20 edbd
000001b0: 44d2 6abc cacb dd3d 73c4 f73d 9873 81bc
000001c0: 7c10 c8bc 3d2f c13d 816d b7bc eecb a13d
000001d0: e2e8 a1bc 7df3 513e e1fb 3b3e 4df6 8dbb
000001e0: b181 1bbc 3df1 03be 3c79 e93c 5ed5 c73d
000001f0: 9623 f63d 1871 79bd 70c1 2fbd aa63 cd3d
00000200: 5473 353e 9c9c 31bd 04c7 0b3f a9f4 1fbe
00000210: db2d 47bd 851e c03d b035 083d 6edb 8e3d
00000220: 7bd8 473d 416d 553e e3bb 973d 81e3 953d
00000230: e0e3 e7bb 060c c43d f61e 32bd 9575 343f
00000240: b9c9 47be f361 81be 82b8 d4bd 2afc 60bc
00000250: 39ff ce3e d820 20be d21f 433e 18b4 d23e
00000260: 2465 c13d 8330 29bf bcdb 8cbd 8760 a0be
00000270: a0a7 84bd 02c4 acbd c07f 23bd 58e5 d63c
00000280: 844f 073e 1494 2c3d f1d4 1ebf 4a5a 7a3c
00000290: 4a17 a8bc cdc5 b1be f3ea 14be c3f3 f7bc
000002a0: 87ee adbd 63f6 4d3e 5c24 193d 7035 303d
000002b0: b585 b43b bad2 ee3d f2e0 aa3d 002f e13a
000002c0: af30 183e f592 393e 0fca 0cbe 346e 58bd
000002d0: 4f94 c33c 12f9 89be 998b 0fbf 367c 4a3e
000002e0: bd77 233e b090 103e 3bdb bebc 7c65 89bd
000002f0: 08fc e0bc 78bf bcbc b290 dfbc 2e00 ebbd
00000300: f30e 563d 646f a1bd a8ab ea3e 2849 58be
00000310: aa1b d73d aee4 bdbd 2e1e c13d fc9e 733d
00000320: cbbe 20bb 5292 aa3d b4e5 843c 1b8a b13e
00000330: 8217 b93d 9894 aabd 136e 893c 13f8 3b3f
00000340: 4448 b33d 3779 0f3e 400c 0c3d 35fc fcbc
00000350: 3cc5 813e b1b2 503d b7e4 db3d 318a 00be
00000360: a2c6 f0bd b231 00bf 4854 aebd 68fe 923e
00000370: 146a 9bbd 70de 13bc f044 e3bc 8839 b63c
00000380: 216a 143e 76d7 5a3c cbf2 9e3e f26c ee3d
00000390: 2e37 033e f6d5 0abe 6167 13be 310e acbd
000003a0: 7ef6 afbe 6929 8a3d 00b6 dfbc f2a1 adbd
000003b0: ac69 273e bcc5 673c fb4d 8f3d 1a55 fe3d
000003c0: 6039 ab3d da00 143e 4c22 893d e436 dcbd
000003d0: 5bc3 6ebd ba1b aabe c50c 52be b078 9cbd
000003e0: aa0f a9bd d6cd 38bd 38e3 5bbd 9c5f fcbd
000003f0: d022 9dbd e43a 433d c991 163d 0c4d 18bd
-0.05431491 0.0040429784 0.013546193 -0.0017077327 -0.042479854 -0.062538706 -0.08542046 0.0018066175
-0.065724574 -0.006553811 0.106697984 -0.021182127 -0.09507568 -0.07290051 -0.012991386 -0.012438988
-0.043168318 -0.037127234 -0.05785151 0.011220825 0.010248451 0.033661094 -0.054243125 -0.026706615
-0.101044625 0.0010946903 0.120729715 -0.18517195 -0.083941 0.030299276 0.03445129 0.06848872
0.08923426 0.1632846 -0.04650263 0.036621045 0.09625924 0.043456364 0.0044159917 0.09376535
-0.12149603 -0.0322434 -0.11269438 0.0055835396 -0.05172197 0.03607949 0.03366447 -0.09479843
-0.08920563 0.019433755 0.102289476 0.07211517 -0.054210264 0.015502187 0.048283618 0.0059885215
0.036758468 0.08026961 0.12188285 -0.11476326 0.0835769 -0.08816151 0.016390242 0.10578066
-0.0058584698 0.039749835 -0.5030276 0.18566456 0.046439204 -0.1256732 -0.025587529 -0.072200716
0.059854515 0.10364763 0.04218326 -0.1946072 -0.1014687 0.024156328 0.25151882 -0.6889979
0.15463877 0.2005468 0.009957463 0.008851105 -0.34012404 0.016004132 -0.036818672 -0.071689956
-0.063540176 0.5436084 -0.036388844 0.09100948 0.11917873 0.04354036 0.08911279 -0.060514092
0.015551546 0.041676283 0.16806014 -0.0078789545 0.00787802 0.067155056 0.10307971 0.20274667
0.3916752 -0.043351788 -0.02176416 -0.11578412 -0.014332358 0.10829885 0.120980166 -0.01580219
-0.024421923 0.09432838 -0.022391083 0.079002246 -0.019764367 0.2050304 0.18357803 -0.00433234
-0.00949137 -0.12884994 0.028500192 0.097574934 0.12018506 -0.06089887 -0.042909086 0.10028775
0.17719775 -0.043362245 0.5460055 -0.15620674 -0.048627716 0.09380821 0.033254325 0.06975447
0.048790436 0.20842458 0.074088834 0.073187836 -0.0070767254 0.09572606 -0.043486558 0.70491916
-0.19510545 -0.25270042 -0.103867546 -0.013731996 0.40429094 -0.15637529 0.19055107 0.41153026
0.09443119 -0.6608965 -0.068778485 -0.31323645 -0.064772844 -0.08435823 -0.039916754 0.026232406
0.13213927 0.042133406 -0.6204367 0.015280316 -0.020518918 -0.34721223 -0.14542751 -0.030267602
-0.08492761 0.2011352 0.03738819 0.043019712 0.005509103 0.11661287 0.08343686 0.0017180145
0.14862321 0.18122466 -0.13748954 -0.052839473 0.02387443 -0.26947838 -0.56072384 0.19773945
0.15963645 0.14117694 -0.023297897 -0.0670881 -0.027463928 -0.023040518 -0.027290676 -0.11474644
0.05226035 -0.07882574 0.45834088 -0.21121657 0.105033234 -0.09272133 0.094295844 0.05947779
-0.0024527784 0.0832869 0.016222812 0.3467568 0.09037687 -0.08329123 0.01677612 0.73425406
0.08754018 0.14011084 0.03419137 -0.03088198 0.2534579 0.050951663 0.10736983 -0.12552716
-0.11756636 -0.5007583 -0.08512169 0.28709722 -0.07588592 -0.009025201 -0.027742833 0.02224423
0.1449361 0.013357034 0.3104461 0.116418734 0.12814018 -0.13558182 -0.14394905 -0.08401144
-0.34367746 0.067461796 -0.027308464 -0.08478154 0.16348904 0.014146265 0.069972955 0.124185756
0.08360553 0.1445345 0.06695995 -0.10752657 -0.058291774 -0.3322428 -0.20512684 -0.07640207
-0.08254941 -0.045118175 -0.05368349 -0.123229235 -0.076726556 0.047663584 0.036760125 -0.037182853

nn.2.bias f4 [13]
00000000: 2d12 313f 8d61 3e3d 3796 41bd 0eb1 1abe
00000010: 1c09 0e3e 2096 af3d 0a64 c7bd a6ae e93d
00000020: 84a2 0ebe 5978 1bbf bcec 76be 78cc 843f
00000030: b8a7 54be
0.6916836 0.04647975 -0.047262397 -0.15106604 0.13870662 0.08573556 -0.09735878 0.11410265
-0.13929182 -0.6073051 -0.24113744 1.0374899 -0.20767105

exp_avg f4 [64, 4]
00000000: a75a 9a3f 8be7 b440 5a44 9d3f c72e f040
00000010: 891e 8ebd b620 44c0 08fc 43bf 0281 6ec0
00000020: 966b 2740 6f60 8641 a7dc df40 efd3 9941
00000030: 4526 ac3d ca36 5e3e 3460 83bd 8c0d d23d
00000040: 0400 0000 0400 0000 0400 0000 0400 0000
00000050: 51fc e0bf 8820 3bc0 da4b 72bf 2cc4 6dc0
00000060: 0000 0000 0000 0000 0000 0000 0000 0000
00000070: c05e 8d3a 4e78 a4be 2832 54be 7662 a5be
00000080: c610 33bf 6a44 00c0 7922 e9be d103 31c0
00000090: 9d59 03be 7761 0e40 7cbd 233f 2818 2e40
000000a0: 90f6 a23e d1cf 8a3f ea5b 903e 4dc1 a13f
000000b0: 004c 5f3e 2d4d 803f 7c2d c03e 0949 e73f
000000c0: 0000 0000 0000 0000 0000 0000 0000 0000
000000d0: 4532 543f 12ef ff3f 5ecf 013f 4a74 1d40
000000e0: 261e ccbe e79d 4cc0 a04d 3dbf 9a32 89c0
000000f0: 50ff a63f 8b07 8e41 0a4a e540 dfa5 ad41
00000100: 230a 813d 14b8 1ec0 8b58 4fbf 0872 2bc0
00000110: 673c dfbf 8701 2bc1 d309 16c0 1961 61c1
00000120: 0000 0000 0000 0000 0000 0000 0000 0000
00000130: 4dd1 80bf 37d2 29c0 2dc7 dcbe 80f9 75c0
00000140: e7f8 e9be d85b 7a3f 6d99 953f 5a44 c13f
00000150: f7b5 4aba 17d8 1ebe bee5 40be de42 f3bb
00000160: 2cb2 14bf 559d a63f 84a6 003f a876 a63f
00000170: 0b90 cebe a987 e940 3971 ed3f b15b 0e41
00000180: 0000 0000 0000 0000 0000 0000 0000 0000
00000190: 39c2 8f3f caed aa40 d6ce 8740 22de 8e40
000001a0: 0000 0000 0000 0000 0000 0000 0000 0000
000001b0: 74cb 30bf efd4 f8c0 6a85 fbbf e897 1cc1
000001c0: 0000 0000 0000 0000 0000 0000 0000 0000
000001d0: 0000 0000 0000 0000 0000 0000 0000 0000
000001e0: 0000 0000 0000 0000 0000 0000 0000 0000
000001f0: 0000 0000 0000 0000 0000 0000 0000 0000
00000200: 0aea ac3e d510 ed3f 6bcd e43e 5a31 1640
00000210: d312 5e3f e65f 3740 cb72 013f bdf6 7940
00000220: 687e 6739 a26e 513c 62e6 cd3c 5e07 343c
00000230: 2cf3 0cbd 0b51 e0be 74cb ffbe f1c4 9bbd
00000240: ff5f 143f 8c8a 0440 aede af3e 4a8d 3c40
00000250: 0606 99bb 890e 00bd 4698 b4bd 1197 8fbb
00000260: e73d 1bbd 4914 b4be 8622 91be 4e24 c0be
00000270: bc15 9e3f f153 c23f d7ee b83f 2484 0440
00000280: 2f10 cabd 1424 b33d 8889 5e3f c117 dabe
00000290: 6087 053e 2739 7f40 b414 743f 92df a740
000002a0: 0000 0000 0000 0000 0000 0000 0000 0000
000002b0: 0000 0000 0000 0000 0000 0000 0000 0000
000002c0: a79b d8bb c2b0 67bd 931e 6bbb 4b5b 6bbd
000002d0: 6a63 173f e361 5840 8469 423f ea7e 8d40
000002e0: e3ea 1a3f 3d3c 5c40 a271 3c3f 8f84 9340
000002f0: 0000 0000 0000 0000 0000 0000 0000 0000
00000300: d628 ac3f 3a7d c540 ff9a ab3f 8292 0241
00000310: 5cb0 423d 8f22 3640 77c8 3a3f 670b 6940
00000320: 4fe7 d13d bcfc 2cc0 e1a7 35bf 7513 5fc0
00000330: 0000 0000 0000 0000 0000 0000 0000 0000
00000340: 48f3 b13f 3e8c 8840 f309 5e3f 1cbb b740
00000350: 380b d5bf bdf0 97c1 da51 d0c0 a2d9 b7c1
00000360: deea be3f ccec a940 9c0f 6940 4d57 ac40
00000370: 86a5 f2bd 4a90 2340 e9a2 483f 1b90 3840
00000380: 945b 8abe 6c36 0f3f 3a85 a93e 8173 d73e
00000390: de22 813f 632e 5b3f f993 593f 7241 793e
000003a0: 64da d0bf fe2e 8bc0 036f 3ebf 599f c3c0
000003b0: 0000 0000 0000 0000 0000 0000 0000 0000
000003c0: 0000 0000 0000 0000 0000 0000 0000 0000
000003d0: 0000 0000 0000 0000 0000 0000 0000 0000
000003e0: 0400 0000 0400 0000 0400 0000 0400 0000
000003f0: 0000 0000 0000 0000 0000 0000 0000 0000
1.2058915 5.6532645 1.2286484 7.50571 -0.06939418 -3.0644965 -0.76556444 -3.726624
2.6159415 16.797087 6.995685 19.228483 0.08405737 0.21700588 -0.06414834 0.1025649
6e-45 6e-45 6e-45 6e-45 -1.7577001 -2.9238605 -0.9464699 -3.7150984
0.0 0.0 0.0 0.0 0.0010785684 -0.32123035 -0.20722258 -0.32301682
-0.6994747 -2.0041757 -0.45534113 -2.765858 -0.12827154 2.2246988 0.63961005 2.7202244
0.31828737 1.084467 0.28195125 1.2637116 0.21806335 1.0023552 0.37534702 1.8069164
0.0 0.0 0.0 0.0 0.82889205 1.9994833 0.5070704 2.4602227
-0.3986675 -3.1971376 -0.7394657 -4.287427 1.3046665 17.753683 7.165288 21.705992
0.063007616 -2.4799852 -0.8099448 -2.678835 -1.7440308 -10.687873 -2.3443496 -14.0862055
0.0 0.0 0.0 0.0 -1.0063874 -2.6534555 -0.4312071 -3.8433533
-0.4569771 0.9779639 1.1687447 1.5098984 -0.00077328034 -0.15512119 -0.1883764 -0.0074237427
-0.5808437 1.3016764 0.5025408 1.3004961 -0.4034427 7.29781 1.8550178 8.897386
0.0 0.0 0.0 0.0 1.1231147 5.341527 4.2439985 4.464616
0.0 0.0 0.0 0.0 -0.69060445 -7.775993 -1.965009 -9.7870865
0.0 0.0 0.0 0.0 0.0 0.0 0.0 0.0
0.0 0.0 0.0 0.0 0.0 0.0 0.0 0.0
0.33772308 1.8520762 0.4468797 2.3467622 0.86747473 2.8652282 0.50565785 3.9056847
0.00022076967 0.012782725 0.02513427 0.010988085 -0.034411594 -0.4381183 -0.4995991 -0.07605923
0.5795898 2.0709562 0.3434958 2.9461236 -0.0046699075 -0.03126386 -0.08818106 -0.004382022
-0.03790083 -0.35171726 -0.28346652 -0.37527698 1.2350383 1.5181867 1.4447888 2.0705652
-0.09866368 0.08747116 0.86928606 -0.42596248 0.13039923 3.9878633 0.9534409 5.2460413
0.0 0.0 0.0 0.0 0.0 0.0 0.0 0.0
-0.006610352 -0.056565054 -0.0035876378 -0.05746011 0.5913607 3.3809745 0.75942254 4.4217424
0.6051466 3.4411767 0.7361089 4.6099315 0.0 0.0 0.0 0.0
1.3449962 6.1715364 1.3406676 8.1607685 0.04753147 2.8458593 0.72962135 3.641321
0.10249197 -2.7029257 -0.7095929 -3.4855626 0.0 0.0 0.0 0.0
1.3902369 4.2671194 0.8673393 5.7415905 -1.6644049 -18.992548 -6.5099916 -22.981266
1.4915426 5.310156 3.6415777 5.385657 -0.11847977 2.5556817 0.7837358 2.8837955
-0.27022994 0.55942416 0.33109456 0.4208031 1.0088766 0.85617656 0.84991413 0.24341372
-1.6316648 -4.3494864 -0.7438814 -6.1132016 0.0 0.0 0.0 0.0
0.0 0.0 0.0 0.0 0.0 0.0 0.0 0.0
6e-45 6e-45 6e-45 6e-45 0.0 0.0 0.0 0.0

exp_avg_sq f4 [64, 4]
00000000: 09cb 3444 cabf 3547 57a1 e845 ac1a 2047
00000010: 09da 7341 b0eb 8344 fa85 3243 85f7 7f44
00000020: 65b2 3a43 2e98 e145 668b 0445 ec25 0a46
00000030: c9b9 b93f 62e4 2d42 0243 9341 cb5f dd41
00000040: d8a6 823d 72fe 2d40 6201 2f3e f18c 3340
00000050: 2ccf 1445 5a84 1648 e51c be46 b312 0548
00000060: 0000 0000 0000 0000 0000 0000 0000 0000
00000070: 638b d13d 4d2c 3e41 17d7 df40 918e 3c41
00000080: b9d6 b743 0dad b946 70c3 6c45 0794 a346
00000090: 733d 9e42 aadb a145 d5d0 5044 7fd3 8e45
000000a0: c092 9242 dda3 9445 bbdc 3d44 bfaf 8345
000000b0: bb47 f641 60e7 b244 51ff ce43 c700 c544
000000c0: 0000 0000 0000 0000 0000 0000 0000 0000
000000d0: 2015 d143 b245 d346 2cff 8645 88f9 b946
000000e0: 558e 2442 c8f6 2245 04f4 d643 82f0 0f45
000000f0: 31a7 9043 3cc2 6046 b79e 8245 ac8a 8a46
00000100: c564 d142 a5de d345 fc98 8b44 93eb ba45
00000110: 327f 8b44 8029 8d47 fe8f 3646 44de 7847
00000120: 0000 0000 0000 0000 0000 0000 0000 0000
00000130: f526 2b44 9956 2c47 c8ff db45 9b89 1747
00000140: 511d 0743 870e cd45 cb56 ec44 b84b d345
00000150: ca3d b13a f8d2 103e b6c0 333e 001c f13a
00000160: 86ff d343 2df6 d646 0afa 8945 e578 bd46
00000170: 8bbb 5544 a476 5947 c12e 0d46 93c7 4047
00000180: 0000 0000 0000 0000 0000 0000 0000 0000
00000190: 821a b443 37d6 9b46 1877 7445 95e8 7d46
000001a0: 0000 0000 0000 0000 0000 0000 0000 0000
000001b0: 1c89 3d42 1adf 4145 1b0f 0e44 582a 3445
000001c0: 0000 0000 0000 0000 0000 0000 0000 0000
000001d0: 0000 0000 0000 0000 0000 0000 0000 0000
000001e0: 0000 0000 0000 0000 0000 0000 0000 0000
000001f0: 0000 0000 0000 0000 0000 0000 0000 0000
00000200: 3570 6142 bc7f 6245 e7ac 1144 6364 4845
00000210: 731b f943 0fbc fc46 c9ea a045 4910 de46
00000220: 981b c238 8e8d 983d 6de7 573e 4c51 2f3e
00000230: c511 813d a785 6540 3b5d 8940 1197 263f
00000240: 95df 7443 05bd 7746 1d40 1e45 3074 5a46
00000250: 0295 eb38 9c17 f43b 01e2 6c3d a49c 4039
00000260: 539c 9a3d f519 b040 3192 bc40 30cc 6b40
00000270: 7081 8d43 f805 6946 f780 2d45 1522 2e46
00000280: e2a4 9243 e87a 6e46 3021 3345 cbd1 3446
00000290: 1d54 1042 1870 1245 f471 ca43 2035 0445
000002a0: 0000 0000 0000 0000 0000 0000 0000 0000
000002b0: 0000 0000 0000 0000 0000 0000 0000 0000
000002c0: 7ac4 fe3d e1fd 7741 168f 2941 c297 4740
000002d0: b7a1 0a43 709d 0b46 e20d b344 782f f645
000002e0: ae6e 1e43 cc3f 2046 2d97 cd44 2c7f 0d46
000002f0: 0000 0000 0000 0000 0000 0000 0000 0000
00000300: 8128 6644 887f 6847 1ba5 1446 33f8 4c47
00000310: 424a d441 9aa5 d744 8a5b 9243 0634 c144
00000320: c959 9b42 d4dc a145 6efa 5444 b0c2 8e45
00000330: 0000 0000 0000 0000 0000 0000 0000 0000
00000340: f033 9344 7ddb 9447 f8f6 3d46 dc01 8347
00000350: f07a b041 a8b3 3c45 5e3f 1b44 cf36 7645
00000360: 2ae1 4e43 ad02 2146 fd0b 1045 f694 0046
00000370: 8ac9 d442 72fc d745 02fe 8b44 4d9d bf45
00000380: b998 0f43 e38a 1246 a95b ba44 534d 0146
00000390: 3426 5944 3870 5947 0673 0846 81d7 4147
000003a0: 1898 e944 0dfc eb47 399b 9646 cdaf cf47
000003b0: 0000 0000 0000 0000 0000 0000 0000 0000
000003c0: 0000 0000 0000 0000 0000 0000 0000 0000
000003d0: 0000 0000 0000 0000 0000 0000 0000 0000
000003e0: 3e54 5137 115d 2a3b 46ff dd3a dabc df39
000003f0: 0000 0000 0000 0000 0000 0000 0000 0000
723.1724 46527.79 7444.1675 40986.67 15.240731 1055.3652 178.52335 1023.8675
186.69685 7219.0225 2120.7124 8841.48 1.4509822 43.47303 18.407719 27.671774
0.06379479 2.718655 0.17090371 2.8054774 2380.9482 154129.4 24334.447 136266.8
0.0 0.0 0.0 0.0 0.10231664 11.885816 6.995006 11.784806
367.67752 23766.525 3788.2148 20938.014 79.12002 5179.458 835.263 4570.437
73.28662 4756.483 759.4489 4213.9683 30.785025 1431.2305 413.99466 1576.0243
0.0 0.0 0.0 0.0 418.16504 27042.848 4319.8965 23804.766
41.138996 2607.4238 429.90637 2303.0317 289.30618 14384.559 4179.8394 17733.336
104.696815 6779.8306 1116.7808 5981.447 1115.9749 72275.0 11683.998 63710.266
0.0 0.0 0.0 0.0 684.6087 44118.598 7039.9727 38793.605
135.11452 6561.816 1890.7123 6761.465 0.0013522443 0.14142978 0.17553982 0.0018395185
423.99628 27515.088 4415.255 24252.447 854.93036 55670.64 9035.688 49351.574
0.0 0.0 0.0 0.0 360.2071 19947.107 3911.4434 16250.1455
0.0 0.0 0.0 0.0 47.383896 3101.9438 568.236 2882.6465
0.0 0.0 0.0 0.0 0.0 0.0 0.0 0.0
0.0 0.0 0.0 0.0 0.0 0.0 0.0 0.0
56.359577 3623.9834 582.7016 3206.2742 498.21445 32350.03 5149.348 28424.143
9.2557806e-05 0.074488744 0.21084376 0.17120856 0.063022174 3.5862825 4.2926307 0.6507426
244.87337 15855.255 2532.007 13981.047 0.00011233428 0.0074491035 0.05783272 0.000183689
0.07549348 5.5031686 5.8928456 3.6843376 283.01123 14913.492 2776.0603 11144.5205
293.28815 15262.727 2866.0742 11572.448 36.08214 2343.0059 404.89026 2115.3203
0.0 0.0 0.0 0.0 0.0 0.0 0.0 0.0
0.12439819 15.499482 10.597433 3.1186376 138.6317 8935.359 1432.4338 7877.9336
158.43234 10255.949 1644.7242 9055.793 0.0 0.0 0.0 0.0
920.6329 59519.53 9513.276 52472.2 26.536259 1725.175 292.71515 1545.6257
77.67536 5179.6035 851.91296 4568.336 0.0 0.0 0.0 0.0
1177.623 76214.98 12157.742 67075.72 22.060028 3019.2285 620.9901 3939.4255
206.87955 10304.669 2304.7493 8229.24 106.39363 6911.5557 1119.9377 6131.6626
143.59657 9378.722 1490.8644 8275.331 868.5969 55664.22 8732.756 49623.504
1868.7529 120824.1 19277.611 106335.6 0.0 0.0 0.0 0.0
0.0 0.0 0.0 0.0 0.0 0.0 0.0 0.0
1.2476985e-05 0.0025995413 0.0016937039 0.0004267458 0.0 0.0 0.0 0.0

exp_avg f4 [64]
00000000: 5609 553d d732 f1bc 68d5 f23d 9ec2 983a
00000010: 0400 0000 2ea4 02bd 0000 0000 6616 9bbb
00000020: f128 9fbc 1bde b83c a8ba 993b 6248 683c
00000030: 0000 0000 02ca 623c a4b7 0dbd 4b3c ef3d
00000040: fa21 85bc 6d47 b9bd 0000 0000 bbab eebc
00000050: 54dd 993c 3f74 03bb b94c 3b3c ae7f 613d
00000060: 0000 0000 9e08 f3bc 0000 0000 8e73 73bd
00000070: 0000 0000 0000 0000 0000 0000 0000 0000
00000080: d0b2 9a3c d3fa dd3c 4d16 8f39 ffb5 ccbb
00000090: 2b86 a53c 0d03 63ba eb71 62bb 2a8c 66bb
000000a0: c6ac 1cbc a5be 253d 0000 0000 0000 0000
000000b0: 81c9 02ba c7f2 ec3c 4ba2 fe3c 0000 0000
000000c0: 734f 603d ca25 f63c 28c7 c8bc 0000 0000
000000d0: 4b89 103d c743 01be da04 073c 0732 7f3c
000000e0: 69e0 e03b 5b51 053c 6f54 25bd 0000 0000
000000f0: 0000 0000 0000 0000 0400 0000 0000 0000
0.052010857 -0.029443188 0.1185711 0.001165468 6e-45 -0.031894855 0.0 -0.0047328947
-0.019428702 0.022566846 0.0046914406 0.014177414 0.0 0.013842108 -0.03459896 0.11681422
-0.016251553 -0.090468265 0.0 -0.029134622 0.018782295 -0.0020058302 0.011431866 0.055053405
0.0 -0.029667195 0.0 -0.059436373 0.0 0.0 0.0 0.0
0.018884093 0.027097141 0.000272917 -0.0062472816 0.020205578 -0.00086598174 -0.0034552764 -0.003517876
-0.009562677 0.040465016 0.0 0.0 -0.0004989133 0.028924359 0.031083247 0.0
0.05476327 0.030047316 -0.024509028 0.0 0.035287183 -0.12623511 0.008240903 0.015575892
0.0068626893 0.008137072 -0.040363725 0.0 0.0 0.0 6e-45 0.0

exp_avg_sq f4 [64]
00000000: 0ca7 d83f c110 213d 84e8 bf3e daf9 363b
00000010: 4063 d238 03ab b140 0000 0000 8f2f 7a3a
00000020: 67cb 5c3f 4744 403e 65f9 323e 5ae5 8d3d
00000030: 0000 0000 1f9f 7b3f 0d92 c13d 60bd 3b3f
00000040: 0cd7 7f3e 39ee 2740 0000 0000 b269 cc3f
00000050: 141b 9d3e 9c90 b537 ca82 7f3f 7689 0240
00000060: 0000 0000 a258 383f 0000 0000 bad4 f63d
00000070: 0000 0000 0000 0000 0000 0000 0000 0000
00000080: 0ae2 073e dea7 953f d391 f237 253b 183a
00000090: 469b 133f 01fd 0e37 dcca 4f3a 34fd fc3e
000000a0: 2c60 023f 8497 b33d 0000 0000 0000 0000
000000b0: 5ad5 b73a 966e a63e e858 bf3e 0000 0000
000000c0: e253 0a40 1b1e 833d 2383 423e 0000 0000
000000d0: d6d7 3040 1bab 133e bbf9 c33e 60a6 813e
000000e0: b6f8 ad3e 0874 0040 f142 8c40 0000 0000
000000f0: 0000 0000 0000 0000 5c5f 7034 0000 0000
1.6925979 0.03932262 0.37482083 0.002791992 0.00010032067 5.5521255 0.0 0.000954383
0.8624787 0.18776046 0.17477949 0.06928511 0.0 0.98289675 0.09451685 0.7333584
0.24984378 2.623915 0.0 1.5969756 0.3068472 2.164422e-05 0.99808943 2.03964
0.0 0.7201024 0.0 0.12052293 0.0 0.0 0.0 0.0
0.13269821 1.1691854 2.8916553e-05 0.0005807153 0.57658803 8.522767e-06 0.0007926652 0.4941193
0.50927997 0.08769134 0.0 0.0 0.0014025376 0.32506245 0.37372518 0.0
2.1613698 0.064022265 0.18995337 0.0 2.7631736 0.1442074 0.38276467 0.25322247
0.33978814 2.007082 4.3831716 0.0 0.0 0.0 2.2386433e-07 0.0

exp_avg f4 [13, 64]
00000000: 5656 c2bd 3ed6 38bb 87c3 6a39 5286 4e3a
00000010: 0400 0080 da89 9bbc 0000 0000 894d b03b
00000020: dd9f d2bc 2f37 7ebd 16d3 13bd 3559 9eba
00000030: 0000 0000 52ac adbd 2a5b 79bd 5b7c 70b9
00000040: 4bbb 7dbd 87e8 f5bc 0000 0000 1689 80bd
00000050: 0ddd 8bba 10c3 5839 3e79 11bd 875f d9bc
00000060: 0000 0000 4c8f 33bc 0000 0000 812e 17bd
00000070: 0000 0000 0000 0000 0000 0000 0000 0000
00000080: 8dd2 4abd 3f92 debc a113 5c39 ba03 a73a
00000090: 0df2 55bd 973e 3639 ed39 813b 34e2 f6bb
000000a0: 41fc 21bc c7b6 e5bc 0000 0000 0000 0000
000000b0: e9ce aaba c9bc 05bd 6fcc 47bd 0000 0000
000000c0: 8750 5bbd fd44 dbbc 4534 d6bc 0000 0000
000000d0: 7ba6 64bd dce4 833b f4ae dabb 968a 1ebd
000000e0: 919d d4bd 9b72 43bc fd8d 8ebd 0000 0000
000000f0: 0000 0000 0000 0000 0400 0000 0000 0000
00000100: 06e7 17c1 2761 0bc0 a15b 37be 5178 96bc
00000110: 0400 0080 2685 87c0 0000 0000 b8a9 26bc
00000120: 6032 7cc0 e09b 4bc0 2f3c 87c0 1ff6 25be
00000130: 0000 0000 1fbf c5c0 1a93 8cbf 6183 13be
00000140: 9132 9abf 8ed4 c4bf 0000 0000 429c b0c0
00000150: ca0a 25be 9198 dcbb 8e90 b9bf 0b0c 02c0
00000160: 0000 0000 2e5d 9c3e 0000 0000 cbf4 03c0
00000170: 0000 0000 0000 0000 0000 0000 0000 0000
00000180: 7b53 44c0 28ce 74bf 54a1 8aba 3cf0 c73c
00000190: e14c 92c0 8bc1 88ba c061 9dbb 2434 bd3e
000001a0: ac7b 053f f8f7 a8c0 0000 0000 0000 0000
000001b0: a013 133e 640e 48bf 6bab dbbf 0000 0000
000001c0: 95ab 56c0 942b 12c0 029f c9bf 0000 0000
000001d0: b75e 6ec0 dce7 67bf 60ae cc3e 4c34 37c0
000001e0: 195b d7c0 20ab 9ac0 57c3 84c0 0000 0000
000001f0: 0000 0000 0000 0000 0400 0080 0000 0000
00000200: 0fdc 7741 5aee 4540 65af 933e ce6d 133d
00000210: 0400 0080 e345 ce40 0000 0000 60b1 863c
00000220: 249a c940 9963 b840 eeff d640 db63 813e
00000230: 0000 0000 594a 2341 4d4c 2740 47f6 593e
00000240: 9ac8 2a40 e93f 1f40 0000 0000 807f 0d41
00000250: 9c99 a63e c98a 263c fd0d 2940 03b9 6e40
00000260: 0000 0000 a1bf aebd 0000 0000 fd68 4d40
00000270: 0000 0000 0000 0000 0000 0000 0000 0000
00000280: e7b5 ac40 5956 da3f 613e f93a 2e17 9dbc
00000290: 9ea0 eb40 9bd4 1c3b 2228 e83b bba3 11be
000002a0: 8cc8 55be eaf6 0341 0000 0000 0000 0000
000002b0: 02e9 13be 127b e63f e1a7 5f40 0000 0000
000002c0: 4189 be40 9c68 7140 4eed 1940 0000 0000
000002d0: 438f c640 47ac 923f a5bd 3fbe 94d9 9840
000002e0: 4dea 3441 aafe e440 ef6f e740 0000 0000
000002f0: 0000 0000 0000 0000 0400 0000 0000 0000
00000300: 0147 ef40 3caf 0240 0fcb 293e 7c5a 7cbc
00000310: 0400 0000 dbac 6740 0000 0000 0b51 c43b
00000320: 95ef 4a40 412e 0840 bdfc 5c40 be01 193e
00000330: 0000 0000 3a08 9a40 8539 b43e 21a3 083e
00000340: 81a9 053f dbf6 9f3f 0000 0000 5d33 8f40
00000350: 5d95 0c3e 0fde c03a a5a7 783f 4871 a53f
00000360: 0000 0000 e528 00bf 0000 0000 9cdf e13f
00000370: 0000 0000 0000 0000 0000 0000 0000 0000
00000380: c8f5 0940 95c8 2e3f fd8f 62b9 fa77 0fbd
00000390: 3581 6b40 5fd0 86ba a624 babb ac0b f4be
000003a0: ed55 31bf 69f5 8b40 0000 0000 0000 0000
000003b0: 846a 0bbe a4ac 883e 5527 633f 0000 0000
000003c0: 9c30 1440 d9e6 e13f 469c b13f 0000 0000
000003d0: 5dad 3740 72c8 6e3f dde2 f6be 6d80 0c40
000003e0: 0354 a340 b16b 8940 b9d1 3d40 0000 0000
000003f0: 0000 0000 0000 0000 0400 0080 0000 0000
-0.094891235 -0.002820387 0.00022388819 0.00078782917 -6e-45 -0.018986631 0.0 0.0053803367
-0.025710994 -0.062064346 -0.03608998 -0.0012081029 0.0 -0.08480133 -0.060877956 -0.0002293451
-0.061946195 -0.030018104 0.0 -0.06276147 -0.0010670737 0.00020672032 -0.035516016 -0.026534809
0.0 -0.010959458 0.0 -0.036909584 0.0 0.0 0.0 0.0
-0.049517203 -0.027169345 0.00020988147 0.00127422 -0.05223279 0.00017380189 0.003943673 -0.0075342897
-0.009886802 -0.028041257 0.0 0.0 -0.0013031635 -0.032650743 -0.048778947 0.0
-0.053543594 -0.026766295 -0.02614797 0.0 -0.05582283 0.004025085 -0.006673688 -0.038706385
-0.10381616 -0.01192918 -0.06960676 0.0 0.0 0.0 6e-45 0.0
-9.493902 -2.1778047 -0.17906047 -0.018367918 -6e-45 -4.2350035 0.0 -0.0101723
-3.9405746 -3.1813889 -4.2260966 -0.16207169 0.0 -6.17958 -1.0982392 -0.14405586
-1.2046682 -1.5377367 0.0 -5.5190744 -0.16117397 -0.0067320545 -1.449724 -2.031985
0.0 0.3053984 0.0 -2.061816 0.0 0.0 0.0 0.0
-3.0675952 -0.9562707 -0.0010576644 0.024406545 -4.5718846 -0.0010433657 -0.0048029125 0.36953843
0.52141833 -5.2802696 0.0 0.0 0.14362955 -0.7814696 -1.7161688 0.0
-3.3542225 -2.2839098 -1.575165 0.0 -3.724531 -0.90588164 0.39976788 -2.862567
-6.7298703 -4.8333893 -4.148845 0.0 0.0 0.0 -6e-45 0.0
15.491225 3.0926728 0.28844753 0.03599339 -6e-45 6.446031 0.0 0.016442
6.300066 5.762158 6.7187414 0.25271496 0.0 10.205651 2.614032 0.21285354
2.6684937 2.4882758 0.0 8.843628 0.3253907 0.010164925 2.6414788 3.7300422
0.0 -0.08532644 0.0 3.209533 0.0 0.0 0.0 0.0
5.397205 1.7057601 0.0019015783 -0.019176092 7.3633566 0.0023930434 0.0070848623 -0.14222614
-0.20877284 8.247782 0.0 0.0 -0.14444354 1.8006308 3.4946215 0.0
5.9542546 3.7720098 2.405109 0.0 6.204988 1.1458825 -0.18724687 4.77656
11.307202 7.156087 7.232414 0.0 0.0 0.0 6e-45 0.0
7.4774175 2.0419455 0.16581367 -0.0154024325 6e-45 3.6199253 0.0 0.0059911064
3.170873 2.127823 3.452926 0.14942071 0.0 4.813504 0.35200134 0.13343479
0.5221177 1.2497209 0.0 4.47502 0.13728853 0.0014714616 0.97130805 1.2925196
0.0 -0.500624 0.0 1.7646365 0.0 0.0 0.0 0.0
2.1556263 0.68274814 -0.0002160668 -0.035026528 3.6797612 -0.0010285488 -0.0056806384 -0.47665155
-0.6927174 4.3737073 0.0 0.0 -0.13614851 0.26694214 0.8873189 0.0
2.315467 1.7648574 1.3875816 0.0 2.8699563 0.93274605 -0.48219958 2.1953385
5.1040053 4.294396 2.9659255 0.0 0.0 0.0 -6e-45 0.0

exp_avg_sq f4 [13, 64]
00000000: 3b3a 7d41 61c7 083f d5fa af3b 1b63 2f3d
00000010: f532 eb3d 64f8 d03f 0000 0000 d47c eb3a
00000020: 02e5 2140 3a85 5140 a307 2c40 d091 ac3b
00000030: 0000 0000 bc65 ec40 4141 a73f d748 0a3b
00000040: 0ab1 953f 9fda b13e 0000 0000 f005 a740
00000050: 9a3e 133c 0906 7038 8e8a 2a3f a1da a13f
00000060: 0000 0000 0d69 743d 0000 0000 be9b f03e
00000070: 0000 0000 0000 0000 0000 0000 0000 0000
00000080: db5c 2440 d4ea 8b3e ee9f 1237 3d57 bb39
00000090: 0b00 7840 a026 3537 3c20 1d3a ef26 5e3d
000000a0: c0b5 993d 3574 5540 0000 0000 0000 0000
000000b0: 55a8 2e3b 06ff 243f e1bf ee3f 0000 0000
000000c0: 5813 5240 3ea5 7c3f 77ca 7c3e 0000 0000
000000d0: e4f5 4540 b4ee 9b3d d921 ff3c a33d ca3f
000000e0: fa2c 1541 c6e3 bc3f c8d7 aa40 0000 0000
000000f0: 0000 0000 0000 0000 753b c136 0000 0000
00000100: 64e2 d745 8c88 e442 3088 e240 e894 943f
00000110: 70df 9d3e d713 4a44 0000 0000 0507 a83f
00000120: b425 7f44 2275 c044 8ab0 9c44 1784 b640
00000130: 0000 0000 5b7b 5145 7b60 3a44 655d 8240
00000140: af50 3344 43ee 8443 0000 0000 ebf3 0945
00000150: ca65 3141 6f3c 313b dab2 b043 0dac 0f44
00000160: 0000 0000 0d9b c641 0000 0000 b0c1 bf43
00000170: 0000 0000 0000 0000 0000 0000 0000 0000
00000180: cab0 a544 7860 0643 baa3 6839 1baa bb3d
00000190: 108e c844 1533 ab39 2ff1 2d3e 1abb 8e41
000001a0: 60d4 0042 90c2 c344 0000 0000 0000 0000
000001b0: 2b5d ca3e d42d 9543 1ea8 5044 0000 0000
000001c0: 4c29 b544 b6d5 f943 0eea 3843 0000 0000
000001d0: 05bf a744 c0ba 6441 9420 5941 75be 3744
000001e0: fc09 8f45 6135 5a44 c6e9 0345 0000 0000
000001f0: 0000 0000 0000 0000 689b b539 0000 0000
00000200: 1d37 0146 c8c1 2943 8e1f eb40 238b ee40
00000210: 2d86 4441 28e2 6644 0000 0000 9773 ac3f
00000220: 976e 9d44 26fa e144 a1dc b944 b414 c240
00000230: 0000 0000 e772 7945 d1c7 5044 dda1 8540
00000240: d224 4744 c5da 8f43 0000 0000 8796 2845
00000250: fb28 3a41 f2e3 1b3b e251 c843 5adc 2444
00000260: 0000 0000 6824 eb41 0000 0000 beb3 cd43
00000270: 0000 0000 0000 0000 0000 0000 0000 0000
00000280: f9db c044 f634 1c43 e0bb 8939 5ee8 d23d
00000290: f336 f844 f0bf bb39 4404 333e 96de b141
000002a0: 51d1 1642 3531 e444 0000 0000 0000 0000
000002b0: 5328 d83e c847 ae43 6278 7a44 0000 0000
000002c0: 82aa d744 2a5b 1144 d4ed 4943 0000 0000
000002d0: f583 cc44 0b30 be41 53b9 7f41 f34e 5544
000002e0: 5c81 a745 bef7 6f44 c4f5 2445 0000 0000
000002f0: 0000 0000 0000 0000 e9d8 b538 0000 0000
00000300: c97d d345 7f39 e142 4800 e140 dead e63e
00000310: 9ef3 933e 8297 4644 0000 0000 8512 a23f
00000320: d920 7a44 dce0 bb44 4c07 9a44 9955 b540
00000330: 0000 0000 873c 4d45 a459 3644 ca8a 8140
00000340: 64e2 2f44 4f98 8343 0000 0000 7c65 0745
00000350: bf64 2f41 817a d23a 4cc7 ac43 43f3 0b44
00000360: 0000 0000 8ab3 be41 0000 0000 fa03 be43
00000370: 0000 0000 0000 0000 0000 0000 0000 0000
00000380: 6063 a244 a915 0343 ffbb ac39 76e6 9c3d
00000390: d2dc c444 abaa b039 184f 1d3e 4b6e 8441
000003a0: ee60 f741 1e2a c044 0000 0000 0000 0000
000003b0: 55a5 923e 1904 9143 a745 4b44 0000 0000
000003c0: c9cb b044 f01f f543 9772 3743 0000 0000
000003d0: 4968 a444 96ed 6041 054a 5141 468f 3344
000003e0: 0c2f 8c45 0e2b 5744 13dd 0045 0000 0000
000003f0: 0000 0000 0000 0000 2d8b 4b37 0000 0000
15.826716 0.5342923 0.0053704777 0.042819124 0.11484329 1.6325803 0.0 0.0017966279
2.5296025 3.2737565 2.687966 0.0052664056 0.0 7.3874187 1.3066789 0.0021100545
1.1694653 0.34737107 0.0 5.219475 0.008987093 5.722608e-05 0.6661767 1.2644845
0.0 0.059670497 0.0 0.46993822 0.0 0.0 0.0 0.0
2.5681674 0.27327597 8.739515e-06 0.00035732417 3.8750026 1.0797434e-05 0.0005993878 0.05423635
0.07505369 3.3352177 0.0 0.0 0.0026650627 0.64451635 1.8652307 0.0
3.2824306 0.9868964 0.24686609 0.0 3.093133 0.076138884 0.03114407 1.580006
9.323481 1.4757011 5.3388405 0.0 0.0 0.0 5.75877e-06 0.0
6908.299 114.26669 7.0791245 1.1607943 0.30834532 808.31 0.0 1.3127142
1020.5891 1539.6604 1253.5168 5.7036242 0.0 3351.7097 745.5075 4.0739007
717.2607 265.86142 0.0 2207.2449 11.087351 0.0027044078 353.39728 574.6883
0.0 24.825708 0.0 383.51318 0.0 0.0 0.0 0.0
1325.5247 134.37683 0.00022186237 0.091633044 1604.4395 0.0003265372 0.16986535 17.841358
32.207397 1566.0801 0.0 0.0 0.39524207 298.35803 834.62683 0.0
1449.2905 499.66962 184.91428 0.0 1341.9694 14.295593 13.570454 734.9759
4577.248 872.83405 2110.6108 0.0 0.0 0.0 0.00034638797 0.0
8269.778 169.75696 7.347602 7.4544845 12.282758 923.5337 0.0 1.3472775
1259.4559 1807.8171 1486.8947 6.065027 0.0 3991.1814 835.12213 4.1760087
796.5753 287.70914 0.0 2697.408 11.635005 0.002378699 400.6397 659.443
0.0 29.392776 0.0 411.40424 0.0 0.0 0.0 0.0
1542.8741 156.20688 0.00026270654 0.10298227 1985.7172 0.00035810424 0.17482096 22.233685
37.70441 1825.5377 0.0 0.0 0.42218265 348.5608 1001.881 0.0
1725.3284 581.42444 201.92902 0.0 1636.1237 23.773458 15.982745 853.2336
5360.17 959.871 2639.3604 0.0 0.0 0.0 8.671155e-05 0.0
6767.723 112.6123 7.0312843 0.45054525 0.28896803 794.3673 0.0 1.2661902
1000.51324 1503.0269 1232.228 5.666699 0.0 3283.783 729.40063 4.048192
703.53735 263.1899 0.0 2166.3428 10.962096 0.0016058238 345.557 559.80096
0.0 23.837666 0.0 380.03107 0.0 0.0 0.0 0.0
1299.1055 131.08461 0.00032946464 0.076611444 1574.9006 0.00033696493 0.15362203 16.553854
30.922329 1537.3162 0.0 0.0 0.28641763 290.032 813.0883 0.0
1414.3683 490.2495 183.44762 0.0 1315.2589 14.058004 13.080571 718.23865
4485.881 860.6727 2061.8171 0.0 0.0 0.0 1.2132147e-05 0.0

exp_avg f4 [13]
00000000: fac0 f4ba 0446 a7bd 65e3 fa3d 348a ae3d
00000010: e04b c0bd 0000 0000 0000 0000 0000 0000
00000020: 7557 ed3b d136 13be bcdb 7ebe 9aa6 0eb9
00000030: e857 093b
-0.0018673234 -0.08167651 0.12250403 0.08522454 -0.09389472 0.0 0.0 0.0
0.0072430917 -0.1437638 -0.2488851 -0.00013604239 0.0020956937

exp_avg_sq f4 [13]
00000000: d7b8 3a3a 6faf 9a3e d649 bb3e 8cdc 973e
00000010: 941e a73e 0000 0000 0000 0000 0000 0000
00000020: 4b0b 223d ed47 1043 38f4 1043 d9f9 a03b
00000030: 1645 a33b
0.000712288 0.3021197 0.3657977 0.2966045 0.32640517 0.0 0.0 0.0
0.03956155 144.28096 144.95398 0.0049125967 0.004982601
