Op_problems/problem_pooling/checkpoints/pinn_checkpoint_epoch_250_loss_242.981066.pth (torch, 20703 bytes, 12 tensors)

nn.0.weight f4 [64, 4]
0	0x3efd8cc0	0.49521446
1	0x3eec2563	0.46122274
2	0xbddce8a9	-0.10786564
3	0x3eff8e58	0.49913287
4	0xbebb9c59	-0.3664272
5	0x3d1990c9	0.037491594
6	0xbe875d10	-0.2643819
7	0x3e7149af	0.23563264
8	0x3e83b97c	0.2572745
9	0xbef201e4	-0.47267067
10	0x3eb9238a	0.36159927
11	0x3e86af99	0.26305845
12	0x3ee1a36a	0.44069988
13	0xbd1a1775	-0.037620027
14	0x3e16147c	0.14656252
15	0xbe26ef84	-0.16302305
16	0x3e45d9fd	0.19321437
17	0xbd5771e3	-0.052598845
18	0xbea3b5d8	-0.31974673
19	0xbb971309	-0.0046104235
20	0xbc7c9f29	-0.015418806
21	0x3cdc0b8f	0.02686098
22	0xbe4824c8	-0.19545281
23	0x3ecc3730	0.39885855
24	0xbeca142a	-0.3946851
25	0xbe6c098c	-0.23050517
26	0xbe10936c	-0.14118737
27	0xbe99ecfe	-0.30063623
28	0xbe543096	-0.20721659
29	0xbec9689d	-0.39337626
30	0x3f164ec4	0.58713937
31	0x3bffda98	0.007808041
32	0x3ed87c0c	0.4228214
33	0x3da6abd0	0.081382394
34	0xbdf7d11a	-0.1210043
35	0x3e9a724a	0.3016532
36	0x3e8259b1	0.25459054
37	0x3ef3d38e	0.4762234
38	0x3dccb6b8	0.09995788
39	0xbdc0c467	-0.09412461
40	0x3e5abf82	0.21362117
41	0xbdff9c34	-0.12480965
42	0x3e437cf2	0.19090632
43	0x3ede84e5	0.43460765
44	0x3df0638b	0.11737736
45	0xbe8baa85	-0.27278534
46	0x3e956306	0.2917711
47	0x3e0b9b8e	0.13633558
48	0x3e82017a	0.25391752
49	0xbe9c0886	-0.30475253
50	0xbefd6aa4	-0.49495423
51	0xbe45d10c	-0.19318026
52	0xbea3fe2f	-0.32029864
53	0x3eda5c86	0.42648715
54	0x3e091cfd	0.13389964
55	0x3e6776be	0.2260389
56	0x3e183d0a	0.14867035
57	0x3e3f67bc	0.18691915
58	0x3f12f221	0.5740071
59	0xbe184709	-0.14870848
60	0x3dac7206	0.08420186
61	0xbeaa310a	-0.3324054
62	0x3e844f49	0.2584174
63	0x3e4e5d30	0.20152736
64	0xbdab9812	-0.083786145
65	0x3da66b00	0.081258774
66	0x3f2d4427	0.6768212
67	0xbd85ac61	-0.06527019
68	0xbeb69fa7	-0.3566868
69	0xbe853544	-0.260172
70	0x3f050118	0.51954794
71	0x3e860036	0.26172036
72	0x3ef65610	0.48112535
73	0xbed3454e	-0.41263813
74	0xbefdeb98	-0.49593806
75	0xbec848fe	-0.3911819
76	0xbeb506d8	-0.35356784
77	0x3e2a11f6	0.16608414
78	0x3e12dad1	0.14341284
79	0x3eba0b4b	0.3633674
80	0x3e18e4ec	0.14931077
81	0xbe91800a	-0.28418
82	0x3ecb4034	0.3969742
83	0x3dd5be1e	0.104366526
84	0x3e4dcae8	0.20096934
85	0xbe4a3f96	-0.19750819
86	0x3e4d799a	0.20065919
87	0xbee05047	-0.43811247
88	0xbdca9060	-0.098908186
89	0x3e60dae3	0.21958499
90	0x3e0fcde2	0.14043382
91	0xbd5c8125	-0.0538341
92	0x3f1836f5	0.5945886
93	0x3ef5b029	0.47985962
94	0xbe8c8483	-0.27444848
95	0xbe1c030f	-0.15235542
96	0x3eea68d2	0.45783097
97	0xbe2cc3f4	-0.16871625
98	0xbe35832c	-0.1772582
99	0xbef7b448	-0.4837973
100	0x3ecd5e39	0.4011095
101	0x3eb24d2f	0.3482451
102	0xbd360e56	-0.044447266
103	0xbeb327a6	-0.34991187
104	0x3c402840	0.011728346
105	0xbeaede6e	-0.34154075
106	0xbed93086	-0.42419833
107	0xbe8cf83a	-0.27533132
108	0xbf285088	-0.6574788
109	0xbe9839e0	-0.29731655
110	0x3f1542b7	0.58304924
111	0x3eafffd5	0.34374872
112	0x3e1dc71c	0.15407985
113	0xbeeec466	-0.46634215
114	0xbea82254	-0.3283869
115	0xbe2a6c14	-0.16642791
116	0x3da01fc0	0.07818556
117	0xbee14286	-0.43996066
118	0xbe5c9b64	-0.21543652
119	0xbe994258	-0.2993343
120	0x3ab59e00	0.0013856292
121	0xbe3e8450	-0.1860516
122	0xbd0deaf0	-0.034647882
123	0xbead7924	-0.33881485
124	0xbeafb798	-0.34319758
125	0xbe9559d2	-0.2917009
126	0xbe2f419c	-0.17114872
127	0xbeca0e50	-0.39464045
128	0x3f04d311	0.5188456
129	0xbd4fee5c	-0.050764427
130	0x3ee8d23a	0.4547289
131	0x3e615ba6	0.22007617
132	0xbecfd783	-0.4059411
133	0x3eb5d07d	0.35510626
134	0xbd963931	-0.07335127
135	0xbe1e30b7	-0.1544827
136	0xbe3f24c2	-0.18666366
137	0xbf035dd3	-0.5131504
138	0x3e4c1ad2	0.19932106
139	0x3e46390c	0.19357699
140	0xbe64e893	-0.22354345
141	0xbe87f7b3	-0.26556167
142	0x3ef76e19	0.48326185
143	0xbebf0a43	-0.37312517
144	0xbe2a6935	-0.16641696
145	0x3d5a47ce	0.053291135
146	0x3e58f83d	0.21188445
147	0x3eb07db2	0.34470898
148	0x3edf76da	0.43645364
149	0xbec15ea9	-0.37767532
150	0x3e773c23	0.24144034
151	0xbe85dbe9	-0.2614434
152	0xbd8e9740	-0.069624424
153	0xbeccaf00	-0.39977264
154	0x3f04fe73	0.5195076
155	0xbda6e032	-0.081482306
156	0x3ed66bb8	0.41879058
157	0x3e69e8b0	0.2284267
158	0x3d55533e	0.05208134
159	0xbe8e9864	-0.2785064
160	0x3f19104d	0.597905
161	0x3ea52b9c	0.32259834
162	0x3d6cdddf	0.05782878
163	0xbec4f0d6	-0.38464993
164	0x3ecb608f	0.39722106
165	0x3c9acb8f	0.018895892
166	0xbe268e83	-0.16265301
167	0x3ef54c7c	0.47909915
168	0x3de44cb0	0.111474395
169	0xbe8da386	-0.2766382
170	0xbe819252	-0.25306946
171	0xbcc39b80	-0.02387786
172	0x3e8ef0c4	0.27918065
173	0xbe02d554	-0.1277669
174	0xbe921132	-0.28528744
175	0xbe2f54ac	-0.17122144
176	0xbecd6a3a	-0.40120107
177	0x3e39219f	0.18079232
178	0x3ea6f23a	0.3260668
179	0xbf32c875	-0.69837123
180	0x3e85bf38	0.2612245
181	0x3e97e70b	0.2966846
182	0x3ddcbb8f	0.107779615
183	0xbe375f95	-0.17907555
184	0x3eee9f98	0.46606135
185	0x3ea9399e	0.3305177
186	0x3e59a98c	0.21256083
187	0xbe15587e	-0.14584538
188	0xbe079408	-0.13240063
189	0x3d5b18d0	0.05349046
190	0xbdb4e4d0	-0.08832705
191	0xbe189398	-0.14900053
192	0x3ed9f848	0.42572236
193	0x3ef37d0b	0.47556338
194	0xbd366596	-0.044530474
195	0xbd866e4e	-0.06564008
196	0x3e1197c2	0.14218047
197	0x3c9b5880	0.018963099
198	0x3e0f1be4	0.13975483
199	0x3e2eff02	0.17089465
200	0xbf0448c8	-0.51673555
201	0xbe52a8ef	-0.20572256
202	0x3ec4f84d	0.38470688
203	0x3e7e5e68	0.248407
204	0xbccbb9a0	-0.024868786
205	0xbe9a5808	-0.30145288
206	0xbe9c9f42	-0.30590254
207	0xbee550fa	-0.44788343
208	0xbe318d3f	-0.17339037
209	0x3e129151	0.14313246
210	0x3e85a0a7	0.2609913
211	0x3e41bca0	0.18919611
212	0xbf28bee7	-0.65916294
213	0xbeff1bfe	-0.49826044
214	0x3da0f665	0.07859496
215	0x3f02df08	0.5112157
216	0x3ed684eb	0.41898283
217	0x3e513428	0.20430052
218	0x3d82112f	0.06350934
219	0xbe8abb7d	-0.27096167
220	0xbdbee796	-0.09321515
221	0x3ee87aea	0.45406276
222	0xbe4f234d	-0.2022831
223	0xbd3ac4af	-0.04559773
224	0xbeafd10d	-0.3433918
225	0x3ecdf9b8	0.40229583
226	0x3ecb86d3	0.397513
227	0x3e854d31	0.26035455
228	0x3d6bfe8b	0.057615798
229	0xbe7a2e24	-0.24431664
230	0xbdefb5b5	-0.1170458
231	0x3f218d5c	0.6310632
232	0x3e3a7227	0.18207608
233	0x3eb89b1e	0.36055845
234	0x3e5a1986	0.21298799
235	0x3d76376b	0.060111444
236	0xbba07180	-0.0048963428
237	0xbec2b086	-0.38025302
238	0xbedb556c	-0.4283861
239	0xbeef7302	-0.46767431
240	0x3e5197e4	0.20468098
241	0xbe7b6028	-0.245484
242	0xbdce1528	-0.10062629
243	0xbe935450	-0.28775263
244	0xbdba98d0	-0.09111178
245	0xbeb42e86	-0.35191745
246	0xbea74640	-0.32670784
247	0x3e29d600	0.16585541
248	0xbe487d68	-0.19579089
249	0x3e7d3640	0.24727726
250	0xbe7215ea	-0.23641172
251	0xbec47bcc	-0.383757
252	0xbdb4ac68	-0.088219464
253	0xbe7830d0	-0.2423737
254	0xbe1ca460	-0.15297079
255	0xbef3b5fc	-0.4759978

nn.0.bias f4 [64]
0	0x3f143a0a	0.5790106
1	0xbdf4a802	-0.119461074
2	0x3eef424a	0.46730262
3	0x3deb0587	0.11475664
4	0x3e43e54b	0.19130437
5	0xbf6b40ae	-0.9189557
6	0x3eb81d48	0.3595984
7	0xbbade3a0	-0.005306676
8	0xbeafed27	-0.3436062
9	0x3dce4b53	0.10072961
10	0x3f355c81	0.70844275
11	0xbe44ffa4	-0.19238144
12	0xbdebc190	-0.115115285
13	0xbc0e8690	-0.008699074
14	0x3f82b32c	1.0210929
15	0xbebce3a4	-0.36892426
16	0x3f1e19d9	0.6175819
17	0xbd39732b	-0.04527585
18	0x3ef219d0	0.47285318
19	0xbe8c86cd	-0.27446595
20	0xbe3b9ec0	-0.18322277
21	0x3ddee818	0.10884112
22	0x3e38e91c	0.18057674
23	0xbf29a6f0	-0.6627035
24	0xbde86e68	-0.11349183
25	0x3ea5bf68	0.32372594
26	0xbd332030	-0.04373187
27	0xbea520f0	-0.32251692
28	0xbe5149fc	-0.20438379
29	0xbe2289f8	-0.15872943
30	0xbef34720	-0.47515202
31	0x3ed20cc8	0.41025376
32	0x3f2fc2cb	0.68656605
33	0x3e892538	0.26786208
34	0xbd1712b7	-0.036883082
35	0x3da46e5d	0.080288626
36	0xbd6dd0b4	-0.058060363
37	0xbeae6b68	-0.3406632
38	0x3e3f89a4	0.1870485
39	0x3de5ee25	0.11227063
40	0xbf1cd1e9	-0.612578
41	0xbf0973e5	-0.53692466
42	0xbe2a8070	-0.16650558
43	0xbe25a484	-0.16176039
44	0xbe623ecb	-0.22094266
45	0x3e98bade	0.29830068
46	0x3eba67df	0.36407372
47	0xbe75260c	-0.23940295
48	0x3e161507	0.14656459
49	0x3d063420	0.032764554
50	0x3f09f475	0.53888637
51	0x3e07ab64	0.13248974
52	0x3e604b59	0.21903743
53	0xbeb4b33e	-0.35293
54	0x3f575096	0.8410734
55	0x3ecf8f77	0.40539142
56	0xbf88dc83	-1.0692295
57	0x3f840627	1.0314378
58	0xbdaf1ece	-0.085507974
59	0x3e06b2dc	0.13154167
60	0x3eaba0f4	0.33521235
61	0x3efc6320	0.49294376
62	0xbe1ba5f4	-0.15200025
63	0x3dd48928	0.10377723

nn.2.weight f4 [13, 64]
0	0xbd60ba24	-0.054865018
1	0x3b3f43a9	0.0029184616
2	0x3c8d2561	0.017229738
3	0x3b7185e9	0.0036853498
4	0xbd2dff5b	-0.042479854
5	0xbd7f26ac	-0.06229274
6	0xbdaef0ec	-0.08542046
7	0x3b8ca903	0.0042926087
8	0xbd87e5da	-0.066356376
9	0xbbd5b061	-0.00652127
10	0x3dd8d181	0.10586835
11	0xbd08679e	-0.033301942
12	0xbdc2b70a	-0.09507568
13	0xbd951075	-0.072785296
14	0xbc5da5e9	-0.013528326
15	0xbc1b8c6d	-0.009493929
16	0xbd3101ab	-0.04321448
17	0xbd11dedb	-0.035612922
18	0xbd6cf5b4	-0.05785151
19	0x3c388110	0.01126124
20	0x3c855860	0.016277492
21	0xbbe1d127	-0.006891388
22	0xbd5e90f0	-0.054337442
23	0xbcd6e365	-0.026231477
24	0xbdcef07c	-0.101044625
25	0x394f28d7	0.00019756272
26	0x3df74124	0.120729715
27	0xbe3e9a8c	-0.18613642
28	0xbdabe942	-0.083941
29	0x3cf83630	0.030299276
30	0x3d0d1ccc	0.03445129
31	0x3d8c43d0	0.06848872
32	0x3db6b73f	0.0892167
33	0x3e26f7f3	0.16305523
34	0xbd251a75	-0.040308435
35	0x3d3cde17	0.04611024
36	0x3dc58d57	0.09646099
37	0x3daa66cc	0.08320388
38	0x3a89791f	0.0010488367
39	0x3dbadad6	0.09123771
40	0xbdfa37bf	-0.12217664
41	0xbd083023	-0.03324903
42	0xbde6cc50	-0.11269438
43	0x3bb6f620	0.0055835396
44	0xbd48983f	-0.04897332
45	0x3d15707a	0.03648422
46	0x3d0b4de4	0.03400983
47	0xbdc225ae	-0.09479843
48	0xbdb6ccc1	-0.089257725
49	0x3c9e0e32	0.019293878
50	0x3dcaa3d0	0.09894526
51	0x3d93b11e	0.07211517
52	0xbd5d4ca0	-0.054028153
53	0x3c9507fc	0.018192284
54	0x3d3fc581	0.046819214
55	0x3b9bb5b0	0.0047518834
56	0x3d1a79a3	0.037713658
57	0x3da38037	0.079834394
58	0x3dfa0e3e	0.12209748
59	0xbdeb0900	-0.11476326
60	0x3dab2a5e	0.0835769
61	0xbdb48e06	-0.08816151
62	0x3c8644d4	0.016390242
63	0x3dd8a388	0.10578066
64	0xbbb6cfb6	-0.0055789603
65	0x3d5cbdb2	0.053891845
66	0xbef76939	-0.48322466
67	0x3e0f1154	0.13971454
68	0x3d3e3709	0.046439204
69	0xbdfe0125	-0.12402562
70	0xbcd19cf0	-0.025587529
71	0xbd2995a1	-0.041402463
72	0x3d759966	0.059960745
73	0x3dd2002b	0.10253938
74	0x3d283a23	0.04107107
75	0xbe4dfe2f	-0.20116495
76	0xbdcfced2	-0.1014687
77	0x3cd06fac	0.025443874
78	0x3e7e78a9	0.24850716
79	0xbf2d0a43	-0.67593783
80	0x3e1b8469	0.15187229
81	0x3e4c7a49	0.19968523
82	0x3c2324a0	0.009957463
83	0x3c2858ab	0.010275046
84	0xbeb37d79	-0.35056666
85	0xbd838a89	-0.06422908
86	0xbd1a5135	-0.0376751
87	0xbd95545a	-0.072914794
88	0xbd82215a	-0.063540176
89	0x3f06d4a8	0.5266824
90	0xbd150c78	-0.036388844
91	0x3dc13f3f	0.09435891
92	0x3df413fa	0.11917873
93	0x3d325760	0.04354036
94	0x3db680c4	0.08911279
95	0xbd77dda0	-0.060514092
96	0x3c3ee6ce	0.011651708
97	0x3d47696d	0.048684526
98	0x3e1fb260	0.15595388
99	0x3bb16cd7	0.005414586
100	0x3c06768b	0.008206974
101	0x3db3b524	0.08774784
102	0x3d83f594	0.06443325
103	0x3e55e236	0.20887074
104	0x3ecbbf55	0.39794412
105	0xbd368e93	-0.044569563
106	0xbcb24ac0	-0.02176416
107	0xbded203a	-0.11578412
108	0x3a079b84	0.0005173015
109	0x3dd6b8b1	0.10484446
110	0x3df0bede	0.11755155
111	0xbc817398	-0.01580219
112	0xbcceb67e	-0.025233503
113	0x3dbaf335	0.09128419
114	0xbca51f0b	-0.020156404
115	0x3da1cbee	0.079002246
116	0xbca0bdcd	-0.019621754
117	0x3e2d73ca	0.16938701
118	0x3e57179d	0.21005102
119	0xbb322ec5	-0.0027188521
120	0xbc11bbd8	-0.008894883
121	0xbe04202e	-0.129029
122	0x3ce53dc9	0.027983563
123	0x3dc7d55e	0.097574934
124	0x3df62396	0.12018506
125	0xbd797118	-0.06089887
126	0xbd2fc170	-0.042909086
127	0x3dcd63aa	0.10028775
128	0x3e32f179	0.17474927
129	0xbd4709ee	-0.048593454
130	0x3f062179	0.52394825
131	0xbe087d1f	-0.1332898
132	0xbd472ddb	-0.048627716
133	0x3dbb4ff5	0.0914611
134	0x3d0835b0	0.033254325
135	0x3d0983d3	0.033572983
136	0x3d3d0bf5	0.04615398
137	0x3e5372db	0.20649283
138	0x3d957d88	0.07299334
139	0x3da9336c	0.08261761
140	0xbbe7e3e0	-0.0070767254
141	0x3dbf0bbd	0.09328411
142	0xbd37fbc0	-0.044917822
143	0x3f2e5fc2	0.68114865
144	0xbe48af80	-0.19598198
145	0xbe814767	-0.25249788
146	0xbdd4b882	-0.103867546
147	0xbc81940f	-0.01581767
148	0x3edcdffd	0.4313964
149	0xbcd51c5b	-0.026014498
150	0x3e41f426	0.18940791
151	0x3ed12616	0.4084937
152	0x3dc16524	0.09443119
153	0xbf27c33c	-0.6553228
154	0xbd8cdbbc	-0.068778485
155	0xbea218c6	-0.31659526
156	0xbd84a7a0	-0.064772844
157	0xbdacc402	-0.08435823
158	0xbd237fc0	-0.039916754
159	0x3cd6e558	0.026232406
160	0x3e070bee	0.13188145
161	0x3d1885fb	0.03723715
162	0xbf0864e3	-0.5327894
163	0x3bf70af9	0.00753915
164	0xbcb478a2	-0.022030178
165	0xbeb4e297	-0.35329124
166	0xbdebd9f7	-0.11516183
167	0xbce50c75	-0.027960042
168	0xbdab3a17	-0.08360689
169	0x3e4d3fe4	0.20043904
170	0x3d19245c	0.03738819
171	0x3d303570	0.043019712
172	0xbc8e285e	-0.017353233
173	0x3dec2c6a	0.11531909
174	0x3da851ce	0.08218728
175	0x3ae12f00	0.0017180145
176	0x3e159ae6	0.1460987
177	0x3e3a240e	0.18177816
178	0xbe0dcb2e	-0.13847038
179	0xbd586e34	-0.052839473
180	0x3cb655fa	0.022257794
181	0xbe738602	-0.23781589
182	0xbf13cbd1	-0.57732874
183	0x3e47d0bb	0.19513218
184	0x3e2149e5	0.15750845
185	0x3e0fee99	0.14055862
186	0xbccfc346	-0.025361668
187	0xbd89657c	-0.0670881
188	0xbce0fc08	-0.027463928
189	0xbcbcbf78	-0.023040518
190	0xbcdf90b2	-0.027290676
191	0xbdeb002e	-0.11474644
192	0x3d525417	0.051349726
193	0xbdba4a8f	-0.09096252
194	0x3ee08d4e	0.43857807
195	0xbe5610dc	-0.20904869
196	0x3dd71baa	0.105033234
197	0xbdc1a8f2	-0.09456052
198	0x3dc11e2e	0.094295844
199	0x3d02a3d8	0.031894535
200	0xbb5b892f	-0.0033498516
201	0x3da8d39f	0.082434885
202	0x3c872d20	0.01650101
203	0x3eb45ca6	0.35226935
204	0x3db91782	0.09037687
205	0xbdaeb78c	-0.085311025
206	0x3c831079	0.015999066
207	0x3f38059d	0.71883565
208	0x3db16953	0.08662667
209	0x3e0d7907	0.138157
210	0x3d0c0c40	0.03419137
211	0xbd06821a	-0.03283892
212	0x3e87fa79	0.26558283
213	0x3e094015	0.13403352
214	0x3dd9ecdf	0.10640883
215	0xbe01b630	-0.12667155
216	0xbdf0c6a2	-0.11756636
217	0xbefb4dc2	-0.49082762
218	0xbdae5448	-0.08512169
219	0x3e90a685	0.28252044
220	0xbd9b6a14	-0.07588592
221	0xbc13de70	-0.009025201
222	0xbce344f0	-0.027742833
223	0x3cb63988	0.02224423
224	0x3e1583b3	0.1460102
225	0x3c00c364	0.007859085
226	0x3e4a13cf	0.19734119
227	0x3dc495be	0.095988736
228	0x3e01f55b	0.12691252
229	0xbe0a4c86	-0.13505754
230	0xbdd6b94f	-0.104845636
231	0xbdae4be0	-0.08510566
232	0xbeb2a714	-0.34893095
233	0x3d8b66c7	0.068067126
234	0xbcdfb600	-0.027308464
235	0xbdada1f2	-0.08478154
236	0x3e29e2ed	0.16590472
237	0x3c6a566b	0.01430283
238	0x3d8fc336	0.070196554
239	0x3dfe551a	0.124185756
240	0x3da98be6	0.08278637
241	0x3e155112	0.14581707
242	0x3d84e932	0.06489791
243	0xbddc36e4	-0.10752657
244	0xbd747343	-0.059680235
245	0xbe99ad0e	-0.30014843
246	0xbe60fbcb	-0.21971051
247	0xbd9f00f8	-0.07763857
248	0xbdad8cab	-0.08474096
249	0xbd3478ca	-0.044060506
250	0xbd617b32	-0.05504913
251	0xbdfc5f9c	-0.123229235
252	0xbd9d22d0	-0.076726556
253	0x3d433ae4	0.047663584
254	0x3d1691c9	0.036760125
255	0xbd184d0c	-0.037182853

nn.2.bias f4 [13]
0	0x3f1ddda1	0.61666304
1	0x3d2caabc	0.042155012
2	0xbd2ce07c	-0.042206272
3	0xbde27c57	-0.11058872
4	0x3e12908b	0.14312951
5	0x3daf9620	0.08573556
6	0xbdc7640a	-0.09735878
7	0x3de9aea6	0.11410265
8	0xbdf3b4bc	-0.11899707
9	0xbf1ab0ac	-0.6042583
10	0xbe7c4d78	-0.24638927
11	0x3f838a42	1.0276568
12	0xbe46aa0a	-0.19400802

exp_avg f4 [64, 4]
0	0xbdf0c66a	-0.117565945
1	0xc08c2894	-4.3799534
2	0xc0028514	-2.0393724
3	0xc09087a1	-4.5165563
4	0x3ef19956	0.471873
5	0x409a17d3	4.815408
6	0x3fac5b70	1.3465405
7	0x40b780af	5.7344584
8	0xbff38bc8	-1.9027033
9	0xc16c0108	-14.750252
10	0xc0f3e044	-7.621126
11	0xc18a23ec	-17.26754
12	0xbdd8097f	-0.10548686
13	0xbedce5d3	-0.43144092
14	0xbeff608c	-0.49878347
15	0xbe6fd245	-0.23420055
16	0x00000004	6e-45
17	0x00000004	6e-45
18	0x00000004	6e-45
19	0x00000004	6e-45
20	0xbf37721e	-0.71658504
21	0xbfb96276	-1.4483173
22	0x3f68d2ba	0.90946543
23	0xc02f7444	-2.7414713
24	0x00000000	0.0
25	0x00000000	0.0
26	0x00000000	0.0
27	0x00000000	0.0
28	0x3cbad2d9	0.022805618
29	0x3e971151	0.295054
30	0x3e7c578c	0.24642771
31	0x3e326d7c	0.17424577
32	0xbd73109b	-0.059342008
33	0x3fd9e559	1.7023116
34	0x3f6d9f01	0.92820746
35	0x3fc19ad9	1.5125381
36	0xbeb168c3	-0.3465024
37	0xc026a7be	-2.6039882
38	0xbf2b7153	-0.66969794
39	0xc051210e	-3.2676425
40	0xbe207007	-0.15667735
41	0xc00b4f70	-2.1767235
42	0xbf0ae4dc	-0.5425546
43	0xc0030717	-2.0473077
44	0xbf447665	-0.76743156
45	0xc0349333	-2.8214843
46	0xbf857535	-1.0426394
47	0xc084e928	-4.1534615
48	0x00000000	0.0
49	0x00000000	0.0
50	0x00000000	0.0
51	0x00000000	0.0
52	0x3e3b2c3f	0.18278597
53	0x3c893e6b	0.016753396
54	0xbf1c22a8	-0.6099038
55	0x3f128463	0.57233256
56	0x3c8f2c5d	0.017477209
57	0x3fffb52e	1.9977167
58	0x3f82922a	1.0200856
59	0x40146f46	2.3192916
60	0xbfe6f33d	-1.804298
61	0xc187b485	-16.963144
62	0xc106b10f	-8.418227
63	0xc1ac71b3	-21.555517
64	0x3ee03bde	0.43795675
65	0x408e95d3	4.455789
66	0x3f631a0a	0.8871161
67	0x409d9f26	4.9256773
68	0x3f2cfce8	0.67573404
69	0x413cf74c	11.810375
70	0x40875fcf	4.2304454
71	0x414ac215	12.672383
72	0x00000000	0.0
73	0x00000000	0.0
74	0x00000000	0.0
75	0x00000000	0.0
76	0xbeb8cee2	-0.3609534
77	0xbee933d6	-0.4554736
78	0x3f62f8d7	0.8866095
79	0xbf4e46dd	-0.8057688
80	0xbf739636	-0.9515108
81	0xbfbb4a82	-1.4632113
82	0x3d93470c	0.071912855
83	0xc0a57e53	-5.1716704
84	0x3a3e6e99	0.0007264405
85	0x3d19099d	0.037362684
86	0x3d0173a2	0.031604417
87	0x393424d8	0.00017179863
88	0xbf2584c0	-0.64655685
89	0xc0940c08	-4.6264687
90	0xbf052f91	-0.52025706
91	0xc0b3fd1c	-5.624647
92	0xbfd12877	-1.6340474
93	0xc1619b01	-14.100343
94	0xc0502351	-3.2521555
95	0xc182e7db	-16.36321
96	0x00000000	0.0
97	0x00000000	0.0
98	0x00000000	0.0
99	0x00000000	0.0
100	0x3fe6a8db	1.8020281
101	0x418b9a63	17.450384
102	0x409c04f0	4.8756027
103	0x41953072	18.648655
104	0x00000000	0.0
105	0x00000000	0.0
106	0x00000000	0.0
107	0x00000000	0.0
108	0x3f610efe	0.879135
109	0x41230aeb	10.1901655
110	0x40462ed8	3.096609
111	0x41346885	11.275517
112	0x00000000	0.0
113	0x00000000	0.0
114	0x00000000	0.0
115	0x00000000	0.0
116	0x00000000	0.0
117	0x00000000	0.0
118	0x00000000	0.0
119	0x00000000	0.0
120	0x00000000	0.0
121	0x00000000	0.0
122	0x00000000	0.0
123	0x00000000	0.0
124	0x00000000	0.0
125	0x00000000	0.0
126	0x00000000	0.0
127	0x00000000	0.0
128	0xbda8cbef	-0.08242022
129	0xbfef0391	-1.8672963
130	0xbf2345c1	-0.6377831
131	0xc000e482	-2.013947
132	0x3e5567d5	0.2084039
133	0xbec41475	-0.38296857
134	0xbf5c3ee9	-0.86033493
135	0xbdbafb2b	-0.09129938
136	0x39bcaf36	0.00035988697
137	0x3bbaf01d	0.0057048933
138	0x3c84302a	0.016136248
139	0xbbae3670	-0.005316548
140	0x3d011b68	0.031520277
141	0x3eb12b52	0.34603363
142	0x3ebfff46	0.37499446
143	0x3e185a30	0.14878154
144	0xbc15722c	-0.009121459
145	0xc008c37f	-2.1369321
146	0xbf4bd3d8	-0.7962012
147	0xc008bbe9	-2.1364691
148	0x38e71051	0.000110179775
149	0x3c11db36	0.008902362
150	0x3c4d5f4c	0.012534928
151	0x39c669f7	0.00037844453
152	0xbc494a12	-0.012285726
153	0xbea6a5cb	-0.32548365
154	0xbebd215d	-0.36939517
155	0xbd6f7fae	-0.058471374
156	0x3f16eddb	0.5895669
157	0xbd4d57d2	-0.05013258
158	0x3f01503d	0.5051306
159	0x3ea05fb9	0.3132303
160	0x3f543e2f	0.82907385
161	0x40f0bf99	7.5233884
162	0x4040e8dd	3.0142128
163	0x410a76cb	8.654002
164	0xbee0d7d4	-0.43914664
165	0xc09c766b	-4.8894553
166	0xbfd60a1a	-1.6721833
167	0xc0b103ff	-5.531738
168	0x00000000	0.0
169	0x00000000	0.0
170	0x00000000	0.0
171	0x00000000	0.0
172	0x00000000	0.0
173	0x00000000	0.0
174	0x00000000	0.0
175	0x00000000	0.0
176	0x39f1f3c0	0.0004614871
177	0x3e743436	0.23848042
178	0x3ec350e8	0.38147664
179	0x3e43efd4	0.19134456
180	0xbe32b96a	-0.17453542
181	0xc04617a8	-3.0951939
182	0xbf992c75	-1.1966692
183	0xc05360b2	-3.3027768
184	0xbe2aa022	-0.16662648
185	0xc05205f7	-3.281614
186	0xbf9837d1	-1.1892034
187	0xc060e484	-3.5139475
188	0x00000000	0.0
189	0x00000000	0.0
190	0x00000000	0.0
191	0x00000000	0.0
192	0xbe44536e	-0.19172451
193	0xc0b99c1e	-5.8003073
194	0xc0102888	-2.2524738
195	0xc0bec2b0	-5.9612656
196	0xbea0f3b3	-0.31435928
197	0xc04c85b9	-3.1956618
198	0xbf5cc23e	-0.8623389
199	0xc07a7c99	-3.9138548
200	0x3e985f90	0.29760408
201	0x405a5ef4	3.4120455
202	0x3f81dec1	1.0146104
203	0x4084d281	4.1506963
204	0x00000000	0.0
205	0x00000000	0.0
206	0x00000000	0.0
207	0x00000000	0.0
208	0x3e2bbff3	0.16772442
209	0xc00c0c8c	-2.1882658
210	0xbfbfa85d	-1.4973255
211	0xbfdd20f2	-1.7275679
212	0x3f489b3a	0.78361857
213	0x4101d7f1	8.11522
214	0x3f6489b1	0.892726
215	0x412ee301	10.930421
216	0x3fb7b5f2	1.43524
217	0x4109a954	8.60384
218	0x4054a51d	3.3225777
219	0x4119fd2b	9.624309
220	0xbf1fec89	-0.624703
221	0xc0a60689	-5.1882977
222	0xbf7f9dc5	-0.9985011
223	0xc0bb32ce	-5.8499517
224	0xbd37d089	-0.04487661
225	0x3f71c349	0.94438607
226	0x3dd7c60a	0.1053582
227	0x3f25534e	0.6458024
228	0x3ed9a6ed	0.42510167
229	0x401340f5	2.3008397
230	0xbf19d393	-0.6008846
231	0x4086259d	4.1920915
232	0xbe8a26ec	-0.2698282
233	0x400f91d5	2.243276
234	0x3fe10bb4	1.7581697
235	0x3fd475e2	1.6598475
236	0x00000000	0.0
237	0x00000000	0.0
238	0x00000000	0.0
239	0x00000000	0.0
240	0x00000000	0.0
241	0x00000000	0.0
242	0x00000000	0.0
243	0x00000000	0.0
244	0x00000000	0.0
245	0x00000000	0.0
246	0x00000000	0.0
247	0x00000000	0.0
248	0x00000004	6e-45
249	0x00000004	6e-45
250	0x00000004	6e-45
251	0x00000004	6e-45
252	0x00000000	0.0
253	0x00000000	0.0
254	0x00000000	0.0
255	0x00000000	0.0

exp_avg_sq f4 [64, 4]
0	0x44259f0f	662.4853
1	0x472a7b49	43643.285
2	0x45dad9e6	7003.2373
3	0x471681c0	38529.75
4	0x41813510	16.15091
5	0x448ac75c	1110.23
6	0x433d4c47	189.29796
7	0x4486fce2	1079.9026
8	0x431e9c39	158.61024
9	0x45b733e6	5862.4873
10	0x44d95924	1738.7856
11	0x45df4c91	7145.571
12	0x3fcd7335	1.6050783
13	0x42830b70	65.52234
14	0x419b8edf	19.444761
15	0x424d22af	51.28387
16	0x3e642628	0.2228018
17	0x4117eac5	9.494817
18	0x3f18ccdf	0.5968761
19	0x411cc4c3	9.798038
20	0x4509b16f	2203.0896
21	0x480e1443	145489.05
22	0x46b3d0cc	23016.398
23	0x47fbb53a	128874.45
24	0x00000000	0.0
25	0x00000000	0.0
26	0x00000000	0.0
27	0x00000000	0.0
28	0x3e223d52	0.15843704
29	0x413247e4	11.142551
30	0x40b4600b	5.636724
31	0x412c47c4	10.767521
32	0x43aa5ebc	340.7401
33	0x46afcdc6	22502.887
34	0x4560d1cd	3597.1125
35	0x469b32b8	19865.36
36	0x429530d5	74.595375
37	0x459a916a	4946.177
38	0x444791ad	798.2762
39	0x4588d992	4379.1963
40	0x428be8e4	69.954865
41	0x4590a5e7	4628.738
42	0x4439bb62	742.92786
43	0x458063bf	4108.4683
44	0x42073f39	33.81174
45	0x44c6facf	1591.8378
46	0x43e39443	455.1583
47	0x44d7b90c	1725.7827
48	0x00000000	0.0
49	0x00000000	0.0
50	0x00000000	0.0
51	0x00000000	0.0
52	0x43c04d5a	384.6043
53	0x46c6268a	25363.27
54	0x457d633f	4054.203
55	0x46aee664	22387.195
56	0x421ddc62	39.465218
57	0x452157fc	2581.499
58	0x43d75897	430.6921
59	0x450e8908	2280.5645
60	0x4382e567	261.7922
61	0x4647a0b8	12776.18
62	0x4569253e	3730.3276
63	0x4672322a	15500.541
64	0x42c29160	97.283936
65	0x45c74f73	6377.931
66	0x4482cd16	1046.4089
67	0x45b02c9a	5637.575
68	0x4481f4ec	1039.6538
69	0x4786f58d	69099.1
70	0x462f9539	11237.306
71	0x476e3bb6	60987.71
72	0x00000000	0.0
73	0x00000000	0.0
74	0x00000000	0.0
75	0x00000000	0.0
76	0x441d2860	628.63086
77	0x4721a0fd	41376.99
78	0x45ce7916	6607.1357
79	0x470e7b0c	36475.047
80	0x430f6061	143.37648
81	0x45e57dbb	7343.7163
82	0x4503944c	2105.2686
83	0x45e91dbf	7459.7183
84	0x398a811b	0.00026417602
85	0x3ce73df1	0.028227778
86	0x3d1fe7a5	0.039039273
87	0x39cdd332	0.00039258
88	0x43c54659	394.5496
89	0x46cb4e3e	26023.121
90	0x45824a22	4169.2666
91	0x46b3bcd1	23006.408
92	0x444453f0	785.3115
93	0x474a2b11	51755.066
94	0x4602cf9c	8371.902
95	0x4733ad96	45997.586
96	0x00000000	0.0
97	0x00000000	0.0
98	0x00000000	0.0
99	0x00000000	0.0
100	0x439a484b	308.5648
101	0x46857ffe	17087.996
102	0x45598261	3480.1487
103	0x46589152	13860.33
104	0x00000000	0.0
105	0x00000000	0.0
106	0x00000000	0.0
107	0x00000000	0.0
108	0x422ba93d	42.91527
109	0x4533a2d4	2874.1768
110	0x4406be4e	538.9735
111	0x45269363	2665.2117
112	0x00000000	0.0
113	0x00000000	0.0
114	0x00000000	0.0
115	0x00000000	0.0
116	0x00000000	0.0
117	0x00000000	0.0
118	0x00000000	0.0
119	0x00000000	0.0
120	0x00000000	0.0
121	0x00000000	0.0
122	0x00000000	0.0
123	0x00000000	0.0
124	0x00000000	0.0
125	0x00000000	0.0
126	0x00000000	0.0
127	0x00000000	0.0
128	0x425496d7	53.147305
129	0x455b5713	3509.4421
130	0x440dd572	567.3351
131	0x4542c6b1	3116.4182
132	0x43ea72ec	468.89783
133	0x46f2e3e4	31089.945
134	0x459add96	4955.698
135	0x46d5e9d7	27380.92
136	0x38b3a133	8.565411e-05
137	0x3d87c401	0.06629182
138	0x3e7a0d79	0.24419202
139	0x3dfc1b47	0.1230989
140	0x3d8ef251	0.06979812
141	0x40843007	4.1308627
142	0x40ab0800	5.3447266
143	0x3f96b41f	1.1773719
144	0x4362aff6	226.68735
145	0x466a9a3c	15014.559
146	0x45166356	2406.2085
147	0x464f49f7	13266.491
148	0x38f6188b	0.000117347656
149	0x3c00c4e6	0.007859444
150	0x3d6bbe6b	0.057554644
151	0x398197b3	0.00024717822
152	0x3d4eefd3	0.050521683
153	0x40524a58	3.2857876
154	0x4069dc60	3.6540756
155	0x40145737	2.3178232
156	0x43865e9e	268.7392
157	0x465eec00	14267.0
158	0x45279016	2681.0054
159	0x46272870	10698.109
160	0x439161cf	290.76413
161	0x466f999a	15334.4
162	0x45378253	2936.1453
163	0x4635f2c3	11644.69
164	0x420c1c8d	35.02788
165	0x450eba7f	2283.656
166	0x43c64e6c	396.61267
167	0x45014665	2068.3997
168	0x00000000	0.0
169	0x00000000	0.0
170	0x00000000	0.0
171	0x00000000	0.0
172	0x00000000	0.0
173	0x00000000	0.0
174	0x00000000	0.0
175	0x00000000	0.0
176	0x3ddc113d	0.107454754
177	0x414fa862	12.978609
178	0x41137651	9.216386
179	0x402ba597	2.6819818
180	0x43032951	131.16139
181	0x46075215	8660.5205
182	0x44ae44f5	1394.1549
183	0x45ef0d2d	7649.647
184	0x4313c3b0	147.7644
185	0x4619376c	9805.855
186	0x44c58320	1580.0977
187	0x46078847	8674.069
188	0x00000000	0.0
189	0x00000000	0.0
190	0x00000000	0.0
191	0x00000000	0.0
192	0x4453ae65	846.7249
193	0x475aee23	56046.137
194	0x460c83f5	8992.989
195	0x47416403	49508.01
196	0x41d57f82	26.68726
197	0x44da3051	1745.5099
198	0x43947f4d	296.99454
199	0x44c4318b	1569.5482
200	0x4296b1bd	75.347145
201	0x459e9d71	5075.68
202	0x4450b8a7	834.8852
203	0x458c33e0	4486.4844
204	0x00000000	0.0
205	0x00000000	0.0
206	0x00000000	0.0
207	0x00000000	0.0
208	0x44872bf8	1081.374
209	0x478b9fde	71487.734
210	0x46328513	11425.269
211	0x47765c31	63068.19
212	0x417a06a6	15.626623
213	0x450b273e	2226.4526
214	0x43e1f855	451.9401
215	0x4535431b	2900.194
216	0x434cd70e	204.84006
217	0x4618f23f	9788.562
218	0x4510057e	2304.3433
219	0x45f34dd1	7785.727
220	0x42c487cc	98.26523
221	0x45c9ee3f	6461.781
222	0x44824cbc	1042.398
223	0x45b375a1	5742.7036
224	0x43073e34	135.24298
225	0x460c8549	8993.321
226	0x44b369b3	1435.3031
227	0x45f89f60	7955.922
228	0x444b5d5e	813.45886
229	0x474fa669	53158.41
230	0x46027452	8349.08
231	0x47395e2e	47454.18
232	0x44d66466	1715.1375
233	0x47dd398e	113267.11
234	0x468d70d0	18104.406
235	0x47c32b6f	99926.87
236	0x00000000	0.0
237	0x00000000	0.0
238	0x00000000	0.0
239	0x00000000	0.0
240	0x00000000	0.0
241	0x00000000	0.0
242	0x00000000	0.0
243	0x00000000	0.0
244	0x00000000	0.0
245	0x00000000	0.0
246	0x00000000	0.0
247	0x00000000	0.0
248	0x3836c4de	4.357553e-05
249	0x3c14bf5b	0.009078826
250	0x3bc1d462	0.0059152106
251	0x3ac35959	0.0014903947
252	0x00000000	0.0
253	0x00000000	0.0
254	0x00000000	0.0
255	0x00000000	0.0

exp_avg f4 [64]
0	0x3a413ecb	0.00073717226
1	0x3cfe208f	0.031021385
2	0xbdfd52e2	-0.12369324
3	0xbb84df05	-0.0040549063
4	0x00000004	6e-45
5	0xbd6da614	-0.058019713
6	0x00000000	0.0
7	0x3aabdd5c	0.0013112235
8	0xbbd894d3	-0.006609538
9	0xbca43a3c	-0.0200473
10	0xbc34e3df	-0.011040657
11	0xbc8c21d5	-0.017105976
12	0x00000000	0.0
13	0x3c91cde5	0.017798373
14	0x39965a2a	0.00028677407
15	0xbe1a6faf	-0.15081666
16	0x3d286813	0.041114878
17	0x3d3a87c3	0.04553963
18	0x00000000	0.0
19	0xbd0970ff	-0.033555027
20	0xbc480bd8	-0.012209855
21	0x3990034e	0.00027468282
22	0xbd46aedf	-0.048506614
23	0xbdfaa17d	-0.12237833
24	0x00000000	0.0
25	0x3d7b904b	0.061416905
26	0x00000000	0.0
27	0x3d878dca	0.06618841
28	0x00000000	0.0
29	0x00000000	0.0
30	0x00000000	0.0
31	0x00000000	0.0
32	0xbb24770f	-0.0025095379
33	0x3cadebd5	0.021230618
34	0x393daab4	0.00018088036
35	0x3b733c3d	0.0037114762
36	0x3ab4d656	0.0013796787
37	0x399cd6ea	0.00029914762
38	0xbb83b2d3	-0.0040191202
39	0xbabfae0f	-0.0014624017
40	0x3cf97f49	0.030456202
41	0xbcf58724	-0.029971667
42	0x00000000	0.0
43	0x00000000	0.0
44	0x3ba60f74	0.00506776
45	0xbc064251	-0.008194522
46	0xbbffd47b	-0.007807312
47	0x00000000	0.0
48	0xbbf8bc1b	-0.0075907833
49	0xbc97100d	-0.01844027
50	0x3ce09df3	0.027419066
51	0x00000000	0.0
52	0x3c8cee7f	0.017203568
53	0x3d9294dc	0.07157299
54	0x3d1bda69	0.03805009
55	0xbd40cd2b	-0.047070663
56	0xb848895c	-4.781164e-05
57	0x3d2cd942	0.04219938
58	0xbce585c1	-0.02801788
59	0x00000000	0.0
60	0x00000000	0.0
61	0x00000000	0.0
62	0x00000004	6e-45
63	0x00000000	0.0

exp_avg_sq f4 [64]
0	0x3fcc7dc6	1.5975883
1	0x3d28e327	0.041232254
2	0x3e994233	0.29933318
3	0x3b5f678d	0.003408882
4	0x39b7b170	0.0003503668
5	0x40a89c71	5.269097
6	0x00000000	0.0
7	0x3a4900e5	0.0007667675
8	0x3f524a0e	0.8214425
9	0x3e385cd8	0.18004167
10	0x3e2f4c82	0.17119029
11	0x3d9a5d4e	0.07537328
12	0x00000000	0.0
13	0x3f6d2dce	0.9264802
14	0x3dc21876	0.09477322
15	0x3f22bad6	0.6356634
16	0x3e70ea48	0.23526871
17	0x40219973	2.5249908
18	0x00000000	0.0
19	0x3fc0c4ae	1.5060022
20	0x3eac47ac	0.3364843
21	0x36b152a1	5.2846303e-06
22	0x3f7273f4	0.9470818
23	0x3ff2c736	1.8967044
24	0x00000000	0.0
25	0x3f21a305	0.63139373
26	0x00000000	0.0
27	0x3de4806a	0.111573055
28	0x00000000	0.0
29	0x00000000	0.0
30	0x00000000	0.0
31	0x00000000	0.0
32	0x3e049415	0.12947114
33	0x3f909bac	1.1297507
34	0x38011ba1	3.0781728e-05
35	0x3a3e6bb2	0.00072639727
36	0x3f0c96b1	0.54917437
37	0x3707f3c0	8.1033795e-06
38	0x39fd1c17	0.0004827685
39	0x3ef2eb29	0.47445038
40	0x3f04af2a	0.5182978
41	0x3daf259b	0.085520945
42	0x00000000	0.0
43	0x00000000	0.0
44	0x3aa09f30	0.0012254473
45	0x3ea24f85	0.31701294
46	0x3eb817d8	0.3595569
47	0x00000000	0.0
48	0x40030c4d	2.0476258
49	0x3d84fc6d	0.06493459
50	0x3e3eea54	0.18644077
51	0x00000000	0.0
52	0x4026c945	2.6060345
53	0x3dd78b6b	0.10524639
54	0x3ebea96b	0.3723863
55	0x3e7293aa	0.23689142
56	0x3ea7e630	0.32792807
57	0x3ff68a4a	1.9260952
58	0x40843519	4.1314816
59	0x00000000	0.0
60	0x00000000	0.0
61	0x00000000	0.0
62	0x3551df93	7.818391e-07
63	0x00000000	0.0

exp_avg f4 [13, 64]
0	0xbe0bcfc1	-0.1365347
1	0xbcdc4177	-0.026886685
2	0x3ac3b6fd	0.0014931854
3	0x3bb62f92	0.00555987
4	0x80000004	-6e-45
5	0xbd53c60b	-0.05170254
6	0x00000000	0.0
7	0xba05bb5c	-0.0005101466
8	0xbd47b4a4	-0.048756257
9	0xbd7b074c	-0.061286256
10	0xbd4fe51b	-0.0507556
11	0x3ab22c12	0.0013593456
12	0x00000000	0.0
13	0xbdd1473d	-0.10218666
14	0xbcf98a9d	-0.030461604
15	0x39e84b85	0.00044306755
16	0xbcf556f3	-0.029948687
17	0xbc8bffd6	-0.017089766
18	0x00000000	0.0
19	0xbda7e12a	-0.081972435
20	0x3b896eb7	0.0041941064
21	0xba729fd9	-0.00092553865
22	0xbd00ad06	-0.031415008
23	0xbd19b410	-0.037525237
24	0x00000000	0.0
25	0xbabe33b4	-0.0014511258
26	0x00000000	0.0
27	0xbcde689c	-0.027149491
28	0x00000000	0.0
29	0x00000000	0.0
30	0x00000000	0.0
31	0x00000000	0.0
32	0xbd2062e8	-0.039156824
33	0xbd020fbd	-0.03175329
34	0xb94aedbf	-0.00019352789
35	0xbb019f50	-0.0019778796
36	0xbd840f58	-0.06448239
37	0xba00a36e	-0.00049071654
38	0xbaa9d132	-0.0012956022
39	0x3b1e60bd	0.0024166547
40	0x3baba692	0.0052383626
41	0xbd81dacf	-0.063405626
42	0x00000000	0.0
43	0x00000000	0.0
44	0xb9a487e6	-0.0003138177
45	0xbcbc329e	-0.022973355
46	0xbd124a89	-0.035715614
47	0x00000000	0.0
48	0xbd742d4a	-0.059613504
49	0xbd007c95	-0.03136881
50	0xbcb7c36a	-0.022432048
51	0x00000000	0.0
52	0xbd70830f	-0.058718737
53	0x39d7bb1d	0.00041147406
54	0x3b8d61f4	0.0043146554
55	0xbd6a3fe9	-0.057189856
56	0xbddecd36	-0.10878985
57	0xbd4ca999	-0.04996643
58	0xbd8da4a3	-0.069161676
59	0x00000000	0.0
60	0x00000000	0.0
61	0x00000000	0.0
62	0x00000004	6e-45
63	0x00000000	0.0
64	0x41726513	15.149676
65	0x403c642b	2.9436138
66	0x3ed55efa	0.41674024
67	0xbe037771	-0.12838532
68	0x80000004	-6e-45
69	0x40c5853a	6.172513
70	0x00000000	0.0
71	0xbd81fff1	-0.06347645
72	0x40c663dc	6.19969
73	0x40bd307c	5.9121685
74	0x40ce7529	6.451802
75	0x3e84e7b7	0.25958034
76	0x00000000	0.0
77	0x4120692c	10.025677
78	0x4023eeef	2.5614583
79	0x3eaa51b1	0.3326545
80	0x40210b50	2.5163155
81	0x4008ca63	2.1373527
82	0x00000000	0.0
83	0x4108e2d8	8.555382
84	0x3e2ac634	0.16677171
85	0x3b2c34b5	0.0026276533
86	0x402aab09	2.6666892
87	0x407c55b7	3.9427316
88	0x00000000	0.0
89	0x3d12359f	0.03569567
90	0x00000000	0.0
91	0x403736b3	2.8627136
92	0x00000000	0.0
93	0x00000000	0.0
94	0x00000000	0.0
95	0x00000000	0.0
96	0x40a75674	5.2293034
97	0x3fea4c41	1.8304521
98	0x3adbe807	0.0016777524
99	0xbd7fdcb3	-0.062466335
100	0x40e315fc	7.0964336
101	0x3add4572	0.0016881658
102	0xbd8e1f9d	-0.069396235
103	0x3d095cec	0.033535883
104	0x3d4bf380	0.049792767
105	0x41005fe3	8.02341
106	0x00000000	0.0
107	0x00000000	0.0
108	0xbe0280b8	-0.12744415
109	0x3ffc581b	1.9714388
110	0x40680319	3.625189
111	0x00000000	0.0
112	0x40c17241	6.045197
113	0x4071e253	3.7794387
114	0x4004f804	2.0776377
115	0x00000000	0.0
116	0x40bfa488	5.9888344
117	0x3f59bdf9	0.850555
118	0x3c03ba9b	0.008040096
119	0x409e20e4	4.941515
120	0x41318784	11.095585
121	0x40d4b421	6.6469884
122	0x40e4c598	7.1491203
123	0x00000000	0.0
124	0x00000000	0.0
125	0x00000000	0.0
126	0x80000004	-6e-45
127	0x00000000	0.0
128	0xc19469b3	-18.55161
129	0xc05131d4	-3.2686663
130	0xbefc9267	-0.49330446
131	0x3e0dadb5	0.13835795
132	0x80000004	-6e-45
133	0xc0e9537d	-7.2914414
134	0x00000000	0.0
135	0x3d3af600	0.04564476
136	0xc0f16638	-7.543728
137	0xc0f0d189	-7.525578
138	0xc0fc52df	-7.885116
139	0xbea12f4e	-0.31481403
140	0x00000000	0.0
141	0xc144713a	-12.277643
142	0xc0682116	-3.6270194
143	0xbecb3a0b	-0.3969272
144	0xc060bc6d	-3.5115006
145	0xc02aa36b	-2.6662242
146	0x00000000	0.0
147	0xc125bd48	-10.358711
148	0xbe51df03	-0.20495228
149	0xba634a17	-0.0008670403
150	0xc0594db8	-3.3953686
151	0xc0a010a1	-5.00203
152	0x00000000	0.0
153	0xbe78d185	-0.24298675
154	0x00000000	0.0
155	0xc05e2bd7	-3.4714258
156	0x00000000	0.0
157	0x00000000	0.0
158	0x00000000	0.0
159	0x00000000	0.0
160	0xc0d7b2b0	-6.7405624
161	0xc00dff56	-2.2187095
162	0xbaafb02b	-0.0013403943
163	0x3d96ccb0	0.0736326
164	0xc10a6b18	-8.651146
165	0xba5826ea	-0.0008245545
166	0x3d899fa6	0.06719904
167	0xbe0e99ad	-0.1392581
168	0xbe4ec511	-0.20192362
169	0xc11a8cff	-9.659423
170	0x00000000	0.0
171	0x00000000	0.0
172	0x3e1260e6	0.14294776
173	0xc02c97fd	-2.6967766
174	0xc09af393	-4.842233
175	0x00000000	0.0
176	0xc0f47f97	-7.640575
177	0xc09647e8	-4.6962776
178	0xc01f2fbe	-2.487289
179	0x00000000	0.0
180	0xc0ece503	-7.4029555
181	0xbf61ab64	-0.88152146
182	0xbdc8c8f0	-0.09803951
183	0xc0c0d472	-6.0259333
184	0xc15b89b6	-13.721121
185	0xc0f986d3	-7.797708
186	0xc110019c	-9.000393
187	0x00000000	0.0
188	0x00000000	0.0
189	0x00000000	0.0
190	0x00000004	6e-45
191	0x00000000	0.0
192	0xc1450fb8	-12.316338
193	0xc024ba5b	-2.5738742
194	0xbeb22a7e	-0.34798044
195	0x3daa8b0d	0.08327303
196	0x00000004	6e-45
197	0xc0a6dcbf	-5.2144465
198	0x00000000	0.0
199	0x3e07e818	0.1327213
200	0xc0a3f22d	-5.1233125
201	0xc092c05c	-4.5859814
202	0xc0a8e3b9	-5.277798
203	0xbe4d6aa2	-0.20060208
204	0x00000000	0.0
205	0xc100e809	-8.056649
206	0xbfda67d8	-1.7062941
207	0xbe937e1f	-0.2880716
208	0xbfd90dec	-1.6957374
209	0xbfd6a7ee	-1.6769998
210	0x00000000	0.0
211	0xc0df19b3	-6.971887
212	0xbd864f44	-0.065580875
213	0xbaa90ce8	-0.0012897523
214	0xc0023f93	-2.0351303
215	0xc047c804	-3.121583
216	0x00000000	0.0
217	0x3dfeec92	0.12447466
218	0x00000000	0.0
219	0xc012b92a	-2.2925515
220	0x00000000	0.0
221	0x00000000	0.0
222	0x00000000	0.0
223	0x00000000	0.0
224	0xc082408f	-4.0703807
225	0xbfb42de4	-1.4076505
226	0xbaded31b	-0.001700017
227	0x3da34512	0.079721585
228	0xc0b86d13	-5.7633147
229	0xba4d7dd4	-0.0007838879
230	0x3dd055dc	0.101726264
231	0x3e10c617	0.14138065
232	0x3e2c8ffc	0.168518
233	0xc0d619bc	-6.6906414
234	0x00000000	0.0
235	0x00000000	0.0
236	0x3e331c8e	0.17491361
237	0xbfb37b61	-1.4022027
238	0xc02bc011	-2.6835978
239	0x00000000	0.0
240	0xc0980935	-4.751124
241	0xc04260a7	-3.0371492
242	0xbfd51e3d	-1.6649853
243	0x00000000	0.0
244	0xc098b702	-4.77234
245	0xbf44596e	-0.7669896
246	0x3e2ba0ae	0.16760513
247	0xc07dd4b1	-3.9661067
248	0xc10d9aa6	-8.850256
249	0xc0b4a5a9	-5.645222
250	0xc0b3f5e7	-5.6237674
251	0x00000000	0.0
252	0x00000000	0.0
253	0x00000000	0.0
254	0x80000004	-6e-45
255	0x00000000	0.0

exp_avg_sq f4 [13, 64]
0	0x418bb8e4	17.465279
1	0x3fac610b	1.3467115
2	0x3bf827d6	0.007573108
3	0x3e186071	0.1488054
4	0x3ecd5b4b	0.40108714
5	0x3fbbf10a	1.4682934
6	0x00000000	0.0
7	0x3b338ec3	0.0027398325
8	0x40505327	3.2550752
9	0x40367ab6	2.8512397
10	0x40491a57	3.1422327
11	0x3c0dc6d6	0.008653363
12	0x00000000	0.0
13	0x41018e2d	8.097211
14	0x3f562c0a	0.8366095
15	0x3ae93bf3	0.0017794356
16	0x3f3e7b9b	0.74407357
17	0x3e84a8a1	0.25909904
18	0x00000000	0.0
19	0x40df6ff8	6.982418
20	0x3c011794	0.007879157
21	0x391d0531	0.0001497462
22	0x3eeb3fbe	0.4594707
23	0x3f45d3b5	0.77276164
24	0x00000000	0.0
25	0x3d2431b2	0.040086456
26	0x00000000	0.0
27	0x3eae42a8	0.3403523
28	0x00000000	0.0
29	0x00000000	0.0
30	0x00000000	0.0
31	0x00000000	0.0
32	0x4011bfea	2.2773385
33	0x3e67712f	0.2260177
34	0x3725440e	9.850612e-06
35	0x3a0745ed	0.0005160261
36	0x40af20e7	5.4727664
37	0x379954b9	1.8278473e-05
38	0x3a27c7e1	0.0006400329
39	0x3da4274c	0.08015308
40	0x3d649273	0.055803727
41	0x40526a91	3.2877543
42	0x00000000	0.0
43	0x00000000	0.0
44	0x3bef5376	0.0073036505
45	0x3f0e3872	0.5555488
46	0x3fee0e1d	1.8598057
47	0x00000000	0.0
48	0x4046fd5e	3.1092143
49	0x3f6c3a9f	0.9227695
50	0x3e68cf1f	0.2273526
51	0x00000000	0.0
52	0x407deccd	3.9675782
53	0x3e7dc47c	0.24781984
54	0x3ca7057c	0.020388357
55	0x3faa0b4f	1.3284701
56	0x410e2bca	8.885691
57	0x3f66c831	0.9014922
58	0x40e7c8cd	7.243262
59	0x00000000	0.0
60	0x00000000	0.0
61	0x00000000	0.0
62	0x37a8b6e9	2.0112335e-05
63	0x00000000	0.0
64	0x45ca3e48	6471.785
65	0x42ea3584	117.10452
66	0x40c8c56d	6.2741
67	0x406b1f49	3.6737845
68	0x3f89d770	1.0768871
69	0x443b8ffc	750.24976
70	0x00000000	0.0
71	0x40002b45	2.002641
72	0x4471e272	967.5382
73	0x44bab7dc	1493.7456
74	0x44997548	1227.665
75	0x40ba9b10	5.8314285
76	0x00000000	0.0
77	0x454741a6	3188.103
78	0x4430afd4	706.7473
79	0x40742b67	3.815149
80	0x442b01ac	684.0261
81	0x437f226c	255.13446
82	0x00000000	0.0
83	0x4503b973	2107.5906
84	0x413b9e24	11.726109
85	0x3b6dd7ad	0.0036291883
86	0x43ac35b5	344.4196
87	0x4401f6c6	519.85583
88	0x00000000	0.0
89	0x41c11b3b	24.138296
90	0x00000000	0.0
91	0x43be4c20	380.59473
92	0x00000000	0.0
93	0x00000000	0.0
94	0x00000000	0.0
95	0x00000000	0.0
96	0x44a39f38	1308.9756
97	0x42ff4568	127.63556
98	0x39820f8c	0.00024807116
99	0x3dd124be	0.10212086
100	0x44c2460e	1554.1892
101	0x39da97e9	0.00041693382
102	0x3e0d6cd7	0.1381105
103	0x41a13c88	20.154556
104	0x420568b4	33.35225
105	0x44ba07f4	1488.2485
106	0x00000000	0.0
107	0x00000000	0.0
108	0x3f127203	0.5720522
109	0x43954116	298.50848
110	0x444cefaa	819.74475
111	0x00000000	0.0
112	0x44ab1c35	1368.8815
113	0x440207e7	520.1235
114	0x43307c04	176.48444
115	0x00000000	0.0
116	0x44a0e806	1287.2507
117	0x41752973	15.322619
118	0x414c03db	12.750941
119	0x443374e4	717.8264
120	0x4588c6b5	4376.8384
121	0x444ad278	811.2886
122	0x44fbbb44	2013.852
123	0x00000000	0.0
124	0x00000000	0.0
125	0x00000000	0.0
126	0x3a9e907e	0.0012097505
127	0x00000000	0.0
128	0x4604e5ec	8505.48
129	0x438aaaed	277.33536
130	0x40cf10c0	6.4707947
131	0x41ccd2d7	25.60295
132	0x422b96a3	42.897106
133	0x4456dd70	859.45996
134	0x00000000	0.0
135	0x40029a22	2.0406575
136	0x44afa5ed	1405.1852
137	0x44e05e41	1794.9454
138	0x44c7fa58	1599.8232
139	0x40cde991	6.4347615
140	0x00000000	0.0
141	0x4581822c	4144.2715
142	0x4436d737	731.36273
143	0x4075f60e	3.843143
144	0x44304706	705.10974
145	0x4383a1a7	263.2629
146	0x00000000	0.0
147	0x453c9d68	3017.838
148	0x413e523b	11.895076
149	0x3abbe715	0.0014335836
150	0x43b9a2af	371.27097
151	0x44084bb2	545.18274
152	0x00000000	0.0
153	0x41cddf12	25.733921
154	0x00000000	0.0
155	0x43c19e44	387.23645
156	0x00000000	0.0
157	0x00000000	0.0
158	0x00000000	0.0
159	0x00000000	0.0
160	0x44c4f0e3	1575.5277
161	0x4316d2ce	150.82346
162	0x39a5e7cf	0.00031643963
163	0x3deea0b3	0.11651745
164	0x45106a5b	2310.6472
165	0x39e787bb	0.0004416088
166	0x3e143d30	0.14476466
167	0x41d26507	26.29933
168	0x420c95a9	35.146152
169	0x44e1fd07	1807.9071
170	0x00000000	0.0
171	0x00000000	0.0
172	0x3f032753	0.5123188
173	0x43ac6568	344.79224
174	0x4483a267	1053.0751
175	0x00000000	0.0
176	0x44d6973f	1716.7264
177	0x441c78c0	625.8867
178	0x43405137	192.31725
179	0x00000000	0.0
180	0x44e3702b	1819.5052
181	0x423e92e1	47.643436
182	0x415a0f63	13.6287565
183	0x444f7903	829.8908
184	0x45a87dba	5391.716
185	0x444e9f5e	826.4901
186	0x453cdc91	3021.7854
187	0x00000000	0.0
188	0x00000000	0.0
189	0x00000000	0.0
190	0x399ec61a	0.00030283706
191	0x00000000	0.0
192	0x45c69f13	6355.8843
193	0x42e6139a	115.038284
194	0x40c7a04d	6.238318
195	0x3f9c3d56	1.2206218
196	0x3f812de6	1.0092132
197	0x4438af7c	738.74194
198	0x00000000	0.0
199	0x3ff7562e	1.9323175
200	0x446dab28	950.6743
201	0x44b67159	1459.5421
202	0x449741f3	1210.0609
203	0x40ba2799	5.8173337
204	0x00000000	0.0
205	0x45438b8a	3128.7212
206	0x442d7187	693.77386
207	0x4071ef5d	3.7802346
208	0x442861bd	673.52716
209	0x437daf2c	253.68427
210	0x00000000	0.0
211	0x450181da	2072.1157
212	0x413929d7	11.572715
213	0x3aa2e4a2	0.0012427757
214	0x43a8aa6e	337.33148
215	0x43feb66f	509.42526
216	0x00000000	0.0
217	0x41ba16d7	23.261152
218	0x00000000	0.0
219	0x43bd2187	378.26193
220	0x00000000	0.0
221	0x00000000	0.0
222	0x00000000	0.0
223	0x00000000	0.0
224	0x44a086d6	1284.2136
225	0x42f95a46	124.676315
226	0x39a49757	0.00031393275
227	0x3dabfbfe	0.08397673
228	0x44bee75b	1527.2299
229	0x39f20226	0.00046159438
230	0x3dfb4d60	0.122706175
231	0x4189e181	17.23511
232	0x41fed3cd	31.853418
233	0x44b70e9f	1464.4569
234	0x00000000	0.0
235	0x00000000	0.0
236	0x3e9ca8d1	0.30597547
237	0x4390b922	289.44635
238	0x444742b5	797.0423
239	0x00000000	0.0
240	0x44a731bf	1337.5546
241	0x43ffb2bb	511.39633
242	0x432feaa9	175.91664
243	0x00000000	0.0
244	0x449db678	1261.7021
245	0x4167e42b	14.493205
246	0x41454230	12.328659
247	0x442ff78f	703.8681
248	0x45864794	4296.9473
249	0x44486c0e	801.68835
250	0x44f565d0	1963.1816
251	0x00000000	0.0
252	0x00000000	0.0
253	0x00000000	0.0
254	0x3831b7ab	4.2371143e-05
255	0x00000000	0.0

exp_avg f4 [13]
0	0xbb6b687f	-0.0035920439
1	0x3db5ba7c	0.0887346
2	0xbde03a7d	-0.10948656
3	0xbd563a36	-0.052301608
4	0x3dda728f	0.106663816
5	0x00000000	0.0
6	0x00000000	0.0
7	0x00000000	0.0
8	0x3bf0912c	0.0073415246
9	0xbdef9171	-0.116976626
10	0xbe8a74b5	-0.27042165
11	0x39cf2a6d	0.00039513726
12	0x3b329fc4	0.0027255872

exp_avg_sq f4 [13]
0	0x3a55c1df	0.0008154194
1	0x3e90f0b1	0.28308633
2	0x3ec52396	0.38503712
3	0x3e8e442d	0.2778639
4	0x3e9c0b2f	0.30477282
5	0x00000000	0.0
6	0x00000000	0.0
7	0x00000000	0.0
8	0x3d682851	0.056679074
9	0x430764ec	135.39423
10	0x43078be8	135.54651
11	0x3ba24689	0.004952256
12	0x3ba2fb48	0.0049738027
