Op_problems/problem_ED_Column/kkt_hardnet_model.pth (torch, 7489 bytes, 4 tensors)

0.weight f4 [64, 3]
000000 f2 c6 44 3e 83 f5 74 be 2d 5a 0d bf 34 d0 0d bf
       0.19216517 -0.2392178 -0.5521572 -0.5539582
000010 96 72 29 3f ee c5 c1 bd b8 7d e0 be e7 de 20 be
       0.6619047 -0.0946158 -0.43845916 -0.1571003
000020 2f ef 0a 3f 5b fc 8c 3e 0f 0d e8 bd 92 eb 0a 3f
       0.54271215 0.27536282 -0.11330616 0.542657
000030 cc 6c c9 3d 2a 61 cd 3c f5 de 13 3f 0f b9 df 3d
       0.098352045 0.025070745 0.5776208 0.10923969
000040 1a 06 b8 bd 6f 9e d6 3e 3e 94 ec 3e 8c 84 ae be
       -0.08985539 0.4191775 0.4620685 -0.340855
000050 b6 6a cd 3e 72 c5 02 bf 12 c1 dd be 64 8e 07 3f
       0.40120476 -0.5108253 -0.43311363 0.52951646
000060 a6 5c da be 11 b8 7b be 69 7c bc bd dd b6 4c 3e
       -0.4264881 -0.24581935 -0.09203417 0.19991632
000070 43 43 cd bc 2a 88 ee 3e b9 2c dd 3e 5b 81 03 bf
       -0.025056487 0.4658826 0.43198183 -0.51369256
000080 f6 20 09 bf 19 e5 d6 be cb e4 16 3f b2 a5 b4 bc
       -0.5356592 -0.41971663 0.5894286 -0.022051666
000090 c1 bc e8 be 8d 3b 9c be 80 51 05 3e 6a 26 da 3e
       -0.45456508 -0.30514184 0.13019371 0.42607433
0000a0 46 fe ab 3e 85 36 e3 3e 0f 78 30 3f 28 a6 e2 be
       0.33592433 0.44377533 0.68933195 -0.44267392
0000b0 ea 25 6e 3a 63 f2 bb be db 50 55 be 1e 10 88 3c
       0.0009084629 -0.36708364 -0.20831625 0.016609248
0000c0 f0 c2 a5 3e f0 b2 84 be 05 a8 a6 be 1a cf b8 bd
       0.32375288 -0.25917768 -0.32550064 -0.090238765
0000d0 53 cb a2 3e 46 72 a3 3c b5 bf 34 3f be 43 0c bf
       0.3179575 0.01995195 0.7060502 -0.54790866
0000e0 b7 dc 74 3e eb 71 5c 3f d9 82 1e 3f 97 c9 cb be
       0.23912321 0.86111325 0.6191841 -0.39802238
0000f0 fa cd f1 be 55 22 6b 3d b9 f2 29 3d 7c 81 16 3f
       -0.4722746 0.05740579 0.041491244 0.5879133
000100 15 76 1f 3f 2a e0 1c 3d 67 b6 2d be d6 29 a1 3e
       0.62289554 0.038299717 -0.16964112 0.3147723
000110 c3 a4 bf be 99 b4 bd be 8b a4 8f 3d 12 86 78 bd
       -0.3743039 -0.37051848 0.07013806 -0.060674734
000120 8c 47 2c 3f 44 74 4d bd 18 2c eb 3d 8c ee 27 3e
       0.6729667 -0.050159708 0.114830196 0.16399592
000130 e5 30 4a bd 55 18 3e be 29 80 9a 3d be b4 aa 3e
       -0.049363036 -0.1856397 0.07543976 0.3334102
000140 09 06 89 bd d1 b4 a8 be 85 9f 11 be 58 7a ca 3e
       -0.06690604 -0.32950452 -0.14221008 0.39546466
000150 cf 75 0d 3f d3 d9 3a be b6 b0 9f 3e cd 50 8b bd
       0.55257887 -0.18247156 0.31189507 -0.06802521
000160 ea 8a 0a bd 89 08 8b be 12 32 c4 3e 2f c6 65 3d
       -0.033823885 -0.2715495 0.3831945 0.056097206
000170 91 d9 6a 3e a9 92 0c bf 97 4d 0d bd f9 24 e7 be
       0.22934557 -0.54911286 -0.034497824 -0.45145395
000180 8d 55 09 bf 9d 8a 12 bf ef 0b be bd 64 68 c0 3e
       -0.53646165 -0.5724276 -0.0927962 0.37579644
000190 d8 e9 6c 3e 86 be 4a 3e f1 ed 7d be d7 c7 c3 be
       0.2313608 0.19799241 -0.24797799 -0.38238403
0001a0 e8 d3 ff bd 77 09 3b bf 71 ce 0b 3c 0c ae 1d 3e
       -0.1249159 -0.7306132 0.008533106 0.15398425
0001b0 95 5a f0 3e 8e f0 1f bf cb 99 0b 3f 5b a3 fe 3e
       0.4694411 -0.6247643 0.54531544 0.49734005
0001c0 b7 69 84 be 91 c8 fb be 9e 38 31 be 4c ee 08 3e
       -0.25861904 -0.49176458 -0.17306754 0.13372153
0001d0 c1 ff 27 be 45 cc 87 be 8d 6b 32 3d 9a e7 b3 be
       -0.16406156 -0.26523033 0.0435596 -0.35137635
0001e0 26 d3 02 bf 44 31 8f 3e 46 17 49 3d 62 75 45 3e
       -0.51103437 0.27967274 0.04909446 0.19283059
0001f0 6e ae 1b 3f 6b 0f 04 3d 9b c6 b2 3e 55 66 16 3f
       0.60813034 0.032241266 0.3491715 0.58749896
000200 d1 3a 8f be 74 ea c4 3e 78 9c ca 3e 93 c8 61 be
       -0.2797456 0.38460124 0.395725 -0.22049169
000210 e2 0b e7 3e 3b 86 87 be 6e 10 8d be 56 a6 22 3f
       0.45126253 -0.26469597 -0.27551597 0.6353506
000220 46 92 bb 3e 11 0c 9b bc fc d8 04 bf 6c 02 ee 3e
       0.36635035 -0.018926652 -0.5189359 0.46486223
000230 36 ac 3a 3e f3 ad 22 be 87 cc 80 bd 0a 1b c9 3e
       0.18229756 -0.15886669 -0.062890105 0.39278442
000240 39 3e 8f 3e 46 8c dd be 12 fb f9 bc e3 97 ce bd
       0.2797716 -0.43271083 -0.030515227 -0.10087564
000250 91 18 c4 3e 1e af 7a 3e 7d 17 af bd 1d 97 8a bd
       0.38299993 0.24480864 -0.08549402 -0.06767104
000260 42 4f d7 be de d6 02 be d5 ea 90 3e de c0 0d bf
       -0.42052656 -0.12777278 0.28304163 -0.55372417
000270 98 e1 74 3e eb 35 15 3f d1 3e 77 3e 4d d6 92 3e
       0.23914182 0.582854 0.24145056 0.28679124
000280 b2 02 20 be 67 72 47 bd 53 e3 3f bf 4e 06 a0 be
       -0.15626028 -0.048693087 -0.74956244 -0.3125481
000290 16 a8 27 3e fb d0 49 3e 3c 4b ae 3e 2d 89 a6 be
       0.16372713 0.19708626 0.34041774 -0.32526532
0002a0 07 c8 29 3e db 3d a3 be 25 f8 d9 be 38 b7 62 be
       0.1658021 -0.3188313 -0.42572132 -0.22140205
0002b0 1d 0a c9 be 61 38 e0 3d f8 e2 96 3e a7 f0 f3 3e
       -0.39265528 0.109482534 0.29470038 0.4764454
0002c0 23 ed bb 3e 9c 99 61 3e a3 90 8d 3e 5b 60 1e 3e
       0.36704358 0.22031254 0.27649412 0.15466444
0002d0 89 c3 0b bf c5 98 88 be fb 55 f1 be aa 5f 14 bf
       -0.5459524 -0.26679054 -0.4713591 -0.5795847
0002e0 de b4 3b 3e 6a 68 10 3f 2c cc 42 3f b5 41 a5 bd
       0.18330714 0.56409323 0.7609279 -0.08069173
0002f0 18 6c 5f 3e c4 70 cb 3e 79 5f f6 3d f3 be f1 be
       0.21818578 0.3973447 0.12029929 -0.47215995

0.bias f4 [64]
000000 85 f9 90 3d 51 7c 7a 3e 2e 31 88 3d ba dc ee 3e
       0.07078842 0.24461485 0.06650005 0.46652776
000010 c2 6d 10 3f 1d 7a 07 bf 82 31 e7 3e ea 8b df be
       0.5641748 -0.52920705 0.4515496 -0.43661433
000020 2f d1 a7 be 14 ef 6c 3e b2 84 8f 3c 01 22 f4 3e
       -0.32776782 0.23138076 0.017519329 0.47682193
000030 0d da fa 3e 4f 9a 77 be 95 cc 39 3f dc 24 d4 be
       0.48994485 -0.24179958 0.7257779 -0.4143437
000040 e2 5b dc 3d a0 dd d1 3d b5 2f 02 3f ba b7 1b 3f
       0.10759713 0.1024735 0.50854045 0.6082722
000050 65 1a ba 3e 48 e9 92 be 27 b0 ed 3e 83 ae 10 3f
       0.36348262 -0.28693604 0.46423456 0.56516284
000060 66 e0 5a bc e8 35 d4 3e 01 21 90 be 5d c4 d5 bd
       -0.013359165 0.41447377 -0.2815018 -0.10437844
000070 9e 3f 18 3e 37 82 d3 3a bf 4c 41 be fc a5 ab 3d
       0.14868018 0.001613683 -0.18876933 0.083812684
000080 ad 1b 7c bb 31 54 e2 be 0f 9c d8 be b9 d3 6b 3e
       -0.0038468644 -0.44204858 -0.42306563 0.23029985
000090 3d 8d 3e be 2b 59 67 3c 1f 27 18 3f e5 13 da 3e
       -0.18608566 0.01412038 0.59434694 0.42593303
0000a0 a2 e5 87 3e 1f 20 92 3e 12 e9 c1 3e b8 3c c6 be
       0.26542383 0.2854013 0.3787313 -0.387182
0000b0 09 89 09 3f 32 bf 11 bf 93 72 e5 be 64 fb 8c be
       0.53724724 -0.56932366 -0.44813976 -0.27535546
0000c0 7f 11 34 3f a8 7d 80 3e 8c b3 25 3e 9f 61 ab 3e
       0.70339197 0.25095868 0.16181773 0.33472916
0000d0 ef 8e 21 bf 8a f8 0c bf 98 91 b3 3e 8c a7 21 be
       -0.63108724 -0.5506674 0.35072017 -0.1578657
0000e0 47 76 8d 3e f0 cb d1 be 52 cf 0d 3f 5d 1a 30 bf
       0.276293 -0.40975904 0.5539447 -0.6879023
0000f0 12 a8 96 3e 2f 36 b2 3e 4f 72 a1 be b3 9b 02 3f
       0.29425102 0.34806964 -0.31532523 0.5101883

2.weight f4 [15, 64]
000000 0c 65 85 3d 8d 35 34 be 38 97 be bd fb 2b d4 3d
       0.06513414 -0.17598553 -0.093061864 0.10359951
000010 50 e2 eb bc 77 bf b0 3c e1 91 c4 3d 22 02 25 3d
       -0.028794438 0.021575673 0.09598137 0.040285237
000020 30 30 80 bd c6 3b cc 3d 3c 45 1b 3d 8b 66 6e bd
       -0.06259191 0.099723384 0.037907824 -0.05820326
000030 b6 f8 6d be ec 1b 8b 3d c3 b6 6e 3e fc 89 b5 3d
       -0.23239407 0.06792435 0.23311906 0.08864209
000040 02 44 83 3d 91 92 8a 3c 8e 94 e3 3d 88 5c fe 3d
       0.06409456 0.016915591 0.11112319 0.12419993
000050 48 4a 74 bd ac bd ac 3d 60 2d 01 bc 69 cf 52 be
       -0.059641153 0.084346145 -0.007884353 -0.20586933
000060 91 b2 b7 3d d6 74 93 3d ff cd 6c 3e 8f 78 cc bd
       0.08969606 0.07200019 0.23125456 -0.09983932
000070 49 4d 01 3e ca 1a 82 bd 37 3f 66 bd 88 92 e3 3c
       0.12627138 -0.06352766 -0.05621263 0.027779832
000080 48 f9 5c 3d d8 87 56 bd 40 ea 82 3c 1a 51 8b be
       0.05394867 -0.052375644 0.01598084 -0.27210313
000090 b4 1b 12 3e bc 0b 8c 3d 64 f6 6a bd 20 ff f9 3d
       0.1426838 0.06838176 -0.057363883 0.12206864
0000a0 16 fd 00 be 0a 60 4f bd f5 9c a0 3d 84 ac 19 3d
       -0.12596545 -0.0506287 0.07842437 0.03751804
0000b0 60 ce 64 bd 64 ec 01 3f b4 e1 27 be a5 68 da 3c
       -0.055860877 0.5075133 -0.16394693 0.026661227
0000c0 b1 7d 03 3f af 42 b0 bd a4 85 d8 3d ca 44 be bd
       0.51363665 -0.08606469 0.10572365 -0.09290464
0000d0 db 63 0c bc 28 13 fa 3c 0c cf 16 bf ae fe e8 3d
       -0.008568729 0.030526713 -0.5890968 0.11376701
0000e0 88 a5 7b bd 58 98 97 3d eb 59 35 3b 44 d8 c8 bc
       -0.06143716 0.07402104 0.0027672003 -0.024517186
0000f0 f4 4d ef 3d 0b 7e 4a bd 40 44 4b 3e 80 c9 f0 3d
       0.1168479 -0.04943661 0.19850254 0.11757183
000100 f0 13 f1 bd 1e 49 41 3e 4d f0 c5 bc 16 6e 98 bd
       -0.11771381 0.18875548 -0.024162436 -0.07442872
000110 b6 00 d3 3d 43 fb ae bb 2d 4f ba bd 42 ad c6 bc
       0.1030287 -0.0053400113 -0.09097133 -0.024252538
000120 3c 7b a5 3d b7 02 b0 3d 40 1d c9 bb 2c 69 06 3e
       0.08080146 0.08594268 -0.00613752 0.13126057
000130 6e a1 0a 3d 82 5c 6e bd 82 91 b4 bd b0 49 b6 3d
       0.033845358 -0.05819369 -0.08816816 0.089007735
000140 10 ec 3f bc 6d 1d 26 3d c7 f7 cd 3d 76 df 2c be
       -0.0117139965 0.040555406 0.100570254 -0.16882119
000150 96 b3 41 3e 6d db 25 3e f0 f7 ce 3d a4 a8 d4 3d
       0.18916163 0.16196986 0.10105884 0.10383728
000160 9e 6d ee 3c a0 b9 03 3d 05 d4 60 be 41 f1 2d bc
       0.029105004 0.032159448 -0.21955879 -0.010616601
000170 9a c3 74 bd 60 c2 96 bc 41 c6 de bc fc e3 24 bd
       -0.059756853 -0.018403232 -0.027194144 -0.040256485
000180 8e 4d ae bd 8d aa 22 bd f4 7e 25 3d b4 64 4a 3e
       -0.08510886 -0.03971343 0.040404275 0.19764978
000190 19 33 22 bd 36 2c a9 bd 63 92 81 bc 9c 59 41 bd
       -0.03959951 -0.08260386 -0.015816873 -0.0472046
0001a0 98 88 87 bd 05 20 1a 3e 5e f3 26 3e 5a d5 bd 3d
       -0.0661785 0.15051277 0.16303775 0.09269209
0001b0 18 4c 84 bd 66 3f 93 3e 91 06 62 3e b3 04 05 bd
       -0.06459826 0.28759307 0.22072817 -0.032475185
0001c0 c1 dd 73 be 66 7a 7c bd e0 d6 1b 3d f0 a7 88 bc
       -0.23815061 -0.061640166 0.038046718 -0.016681641
0001d0 59 3b c7 bc 22 fd d9 3d ff e1 45 bd b0 63 05 3c
       -0.024320291 0.106439844 -0.04831123 0.008141443
0001e0 84 28 7f 3d 7c 01 75 3d 19 bd 0f 3e 52 82 10 3d
       0.062294498 0.05981587 0.14036979 0.035280533
0001f0 76 f6 83 3d e8 ca 0b 3d 42 c7 8c 3c 72 58 96 bd
       0.06443493 0.034129053 0.017184857 -0.07341088
000200 24 72 9e 3d ba 70 50 bc 16 ad 02 3d e8 7a d7 3b
       0.07736614 -0.012722189 0.03190335 0.006575931
000210 94 ce 77 3d 38 c3 29 be ed 25 1b 3e 9b d2 b2 3d
       0.060499743 -0.16578376 0.15151186 0.08731576
000220 fe 28 89 3d a5 72 75 3b 26 e0 ee bd a7 61 71 bd
       0.06697272 0.0037452367 -0.11663847 -0.05893102
000230 94 1b 06 3e 9a 0e b8 bd f2 4d bb 3e e0 4a 6c bc
       0.13096458 -0.0898716 0.36582905 -0.0144221485
000240 12 0b ff 3d 4f ce d4 bd 57 0b 6a 3d 3a 79 1c be
       0.12453283 -0.10390913 0.05713972 -0.1528062
000250 74 7a b6 3d 07 bc 0d bd f4 45 81 3d 1d d2 45 3e
       0.08910075 -0.034603145 0.063121706 0.19318433
000260 70 02 d0 3d 42 c6 ea bd 68 bb 3e be 90 e1 d6 3d
       0.10156715 -0.11463596 -0.18626177 0.104922414
000270 af 2a e6 3d 20 27 46 3d 68 7a 8d bd 20 00 d8 bd
       0.1123861 0.048377156 -0.06908113 -0.10546899
000280 c2 c0 f6 3d d3 1c e5 bd 90 04 2f 3d 1d c8 d7 3b
       0.120484844 -0.111871384 0.04272896 0.0065851347
000290 69 cc 99 bc 00 50 36 3d 2e da 90 3e 38 38 f3 bc
       -0.018774228 0.044509888 0.28291458 -0.029689893
0002a0 d1 c9 69 3d 15 a1 0d 3d 01 74 a1 bd 58 c1 cb 3c
       0.057077233 0.034577448 -0.07883454 0.024872467
0002b0 c8 1d 2a 3d 35 c1 1c bf d2 7e 32 be 90 41 75 3d
       0.041532308 -0.6123231 -0.1743119 0.05987698
0002c0 9f 4c 06 3f 8f 41 0b 3d be 8e cf bd 30 0e ac 3d
       0.52460665 0.03399807 -0.10134648 0.084011436
0002d0 c7 cc aa 3b 18 84 ee 3c fa ed 82 3e cc 9d 05 3d
       0.0052123996 0.029115722 0.25572187 0.03262119
0002e0 14 31 ca bd 4e ac dc bd 33 98 bc 3d 2b a4 b0 be
       -0.09872642 -0.10775052 0.09208717 -0.3450025
0002f0 a0 5c e5 bc 17 60 98 bd 93 ff ca bd b8 48 59 bd
       -0.027998269 -0.07440203 -0.09912028 -0.053047866
000300 80 3d 84 ba 77 bb 35 be db f1 cf bd 32 57 8a bd
       -0.0010089129 -0.17747293 -0.10153552 -0.067549124
000310 65 d0 bd 3c d4 75 c6 bb 2d 37 21 3e c7 12 11 be
       0.02317066 -0.0060565267 0.15743704 -0.14167319
000320 ee 9b df bd 46 f1 d3 bb 4a fd ff 3d c3 d9 87 3d
       -0.10918413 -0.006467971 0.12499483 0.066333316
000330 94 bf 3e bd 11 2f a4 ba 9a 2f ab 3e 20 1a ac 3b
       -0.046569422 -0.0012526234 0.33434755 0.005252138
000340 d0 82 40 3c a6 f1 a8 bd 2b 60 0a 3e 50 4d ea 3e
       0.011749938 -0.08249216 0.13513248 0.4576211
000350 73 4b 6e bc fa a0 61 bb e8 4f d0 bc 7b 10 4b bb
       -0.014544356 -0.0034428225 -0.025428727 -0.0030985165
000360 d5 b9 84 3e 84 ac 8a 3d d4 72 29 3c 8c 4f a6 3c
       0.2592303 0.06771186 0.010342319 0.020301603
000370 ea ca 10 3d 3c 6c d9 3d da 51 19 3e dc 03 e7 bd
       0.035349764 0.10616347 0.1497263 -0.11280033
000380 6c b2 78 3d ea a6 46 3e 6c ea 08 3d d4 4a 5a be
       0.06071703 0.1939961 0.033426687 -0.21317607
000390 73 c1 27 3e c0 4a db 3b 3d df 94 bd 30 74 5f 3d
       0.16382389 0.0066922605 -0.07269142 0.054554164
0003a0 99 40 36 3d 41 72 b7 3d 7b a8 23 3d bc ae 55 3d
       0.0444952 0.08957339 0.039955597 0.052168593
0003b0 e4 f8 9d bd 06 b6 c8 3e ec 3a 18 be f1 84 82 3d
       -0.07713488 0.39201373 -0.14866227 0.06373013
0003c0 df 85 e2 3e cf 75 22 3d 06 5a 9d 3d d6 43 f4 bd
       0.4424276 0.039663132 0.07683186 -0.11927001
0003d0 d2 6f 20 bd 14 11 92 bd 20 b6 e5 be b4 db 9f bd
       -0.03916914 -0.07132164 -0.44865513 -0.07805577
0003e0 be c9 b6 bd 40 ed d5 bd 16 33 42 3d 02 51 be bb
       -0.08925198 -0.104456425 0.047412 -0.0058079967
0003f0 e0 24 a9 3b 58 0a c8 bc 56 03 61 3e fe 86 e8 bd
       0.0051618665 -0.024418995 0.21973929 -0.11353873

2.bias f4 [15]
000000 f7 dc 99 3c 66 bf 40 bb 15 10 ff 3d 13 f2 1b 3c
       0.018782122 -0.0029410957 0.12454239 0.009518164
000010 55 5b 58 ba 63 0d d5 3d 8d ae 9d 3d 81 e0 0b 3e
       -0.00082533556 0.10402944 0.076993085 0.1365986
000020 ef 6a 36 be 90 6f 35 bc 24 12 44 3d 5e 06 8e 3d
       -0.1781423 -0.011073962 0.047868863 0.06934808
000030 94 e2 de bd 50 5b 8b 3c f0 d0 71 bc
       -0.1088306 0.017011315 -0.014759287
