Op_problems/problem_ED_Column/mlp_model.pth (torch, 7345 bytes, 4 tensors)

0.weight f4 [64, 3]
0	0x3f4feff4	0.81225514
1	0x3ecd3cbf	0.40085408
2	0xbe24fcce	-0.16112062
3	0x3ea25727	0.31707117
4	0xbe13dd4c	-0.14439887
5	0x3da7d193	0.0819427
6	0x3e2d0f69	0.1690041
7	0x3edd32ff	0.4320297
8	0x3f10d412	0.56573594
9	0xbf159b45	-0.5844005
10	0x3f2d965d	0.6780756
11	0x3e1371ae	0.14398834
12	0x3ea445b5	0.32084432
13	0x3d099f65	0.033599276
14	0x3e7012aa	0.2344462
15	0xbed079b0	-0.4071784
16	0x3ebe0e0f	0.371201
17	0x3d174b39	0.036936972
18	0xbe89ffdb	-0.26953015
19	0x3e16b295	0.14716561
20	0xbe8831fe	-0.2660064
21	0x3ded775a	0.1159503
22	0xbeaedb96	-0.34151906
23	0x3eb01f83	0.34399042
24	0xbee95728	-0.45574307
25	0xbe8846b5	-0.26616445
26	0xbe26f11c	-0.16302913
27	0xbeb1bcf7	-0.3471448
28	0x3d5f3321	0.05449212
29	0xbf11fb0a	-0.5702368
30	0x3f5a4eaf	0.8527631
31	0xbed71d02	-0.4201432
32	0x3efcca1f	0.49372956
33	0x3f0969d4	0.53677106
34	0xbd5050fc	-0.050858483
35	0x3ed2d78a	0.41180068
36	0x3ebc5471	0.36783174
37	0x3ecc34af	0.39883944
38	0x3cf9d29a	0.03049593
39	0xbe3a7363	-0.18208079
40	0x3e1ed8fb	0.15512459
41	0xbe2052b6	-0.15656552
42	0x3f244414	0.6416638
43	0x3f158dea	0.5841967
44	0x3ec49837	0.3839738
45	0xbf1083de	-0.56451213
46	0x3eb2f289	0.34950665
47	0x3dd00b4d	0.101584055
48	0x3e961e23	0.29319867
49	0xbeb42bf6	-0.3518979
50	0xbf124f64	-0.5715239
51	0xbef6fcac	-0.48239648
52	0xbeac4ceb	-0.33652434
53	0x3f028fb1	0.51000506
54	0xbe46e11a	-0.19421807
55	0x3e564a54	0.20926791
56	0x3e0cd746	0.13753995
57	0xbc248dc9	-0.01004357
58	0x3ee75774	0.4518391
59	0xbed207ba	-0.4102152
60	0x3d14e5f7	0.036352124
61	0xbec9c2db	-0.39406475
62	0x3e364cbd	0.17802711
63	0xbe4b99e2	-0.1988292
64	0x3e3527c5	0.17690952
65	0xbdf65883	-0.12028601
66	0x3ef52bc6	0.4788496
67	0xbeaf3465	-0.3421966
68	0xbeb04c18	-0.34433055
69	0xbdd58387	-0.104254775
70	0x3edb65d9	0.4285114
71	0x3e2a79f7	0.16648088
72	0x3f0e38e6	0.5555557
73	0xbef3f454	-0.47647345
74	0xbf1299d7	-0.5726599
75	0xbf63f52c	-0.8904598
76	0xbecbeb41	-0.39827922
77	0x3ed547bd	0.41656294
78	0x3f162eac	0.58664966
79	0x3f226a0b	0.6344306
80	0xbe6f9c8d	-0.23399563
81	0xbec9842b	-0.3935865
82	0x3e9cd736	0.30632943
83	0xbe6ef7e8	-0.23336756
84	0x3f0e913b	0.55690354
85	0xbe38ee2c	-0.18059605
86	0x3e9c3c94	0.30514967
87	0xbf486318	-0.78276205
88	0xbe0f4665	-0.13991697
89	0x3e4bc496	0.1989921
90	0x3d2290d7	0.03968891
91	0xbc8f9805	-0.017528543
92	0x3eca4ece	0.39513248
93	0x3ec8f431	0.39248803
94	0xbed65d19	-0.41867903
95	0xbe9dd02f	-0.30822894
96	0x3f07561c	0.5286577
97	0xbe477e0a	-0.19481674
98	0xbe5197ab	-0.20468013
99	0xbf3b4f1a	-0.73167574
100	0xbe757795	-0.23971398
101	0x3e4200fb	0.18945687
102	0xbd9c120c	-0.0762063
103	0xbed69306	-0.41909045
104	0x3c5de251	0.013542728
105	0xbec9ebd2	-0.3943773
106	0xbefac9f4	-0.48982203
107	0xbea2c718	-0.3179252
108	0xbf1685de	-0.58798015
109	0xbe79d5c0	-0.24397945
110	0x3f1ebcb0	0.62006664
111	0x3ddf540a	0.10904701
112	0x3e362fa3	0.1779161
113	0xbf09da30	-0.5384855
114	0xbec22500	-0.37918854
115	0xbe44c95d	-0.19217439
116	0x3db8e532	0.090280905
117	0xbf020dc8	-0.5080228
118	0xbe7ebc2a	-0.24876466
119	0xbeb0f7eb	-0.34564146
120	0x3ad1b6a5	0.0015999867
121	0xbe5bfd6a	-0.21483389
122	0xbd23df5a	-0.040007927
123	0xbec84f42	-0.3912297
124	0xbecae694	-0.39629042
125	0xbeac749d	-0.3368272
126	0xbe4fae8b	-0.20281427
127	0xbf0ef62d	-0.55844384
128	0x3ee2241e	0.4416818
129	0x3ec3d67e	0.38249582
130	0x3f1170f5	0.56812984
131	0x3e79c8fb	0.24393074
132	0xbf1fbb28	-0.6239495
133	0x3f10a709	0.56504875
134	0xbdacb37f	-0.08432674
135	0xbe629ffb	-0.2213134
136	0xbef55f21	-0.4792414
137	0xbf12f048	-0.5739789
138	0x3f1fccf5	0.62422115
139	0xbca21dc9	-0.019789593
140	0x3e959079	0.29211786
141	0xbef29742	-0.47381026
142	0x3edb76eb	0.42864165
143	0xbed8fd1d	-0.4238061
144	0x3e00c231	0.12574078
145	0x3cc93210	0.024560004
146	0x3e87974b	0.26482615
147	0x3eeea4c5	0.46610084
148	0x3f06a42c	0.52594256
149	0xbeea63f3	-0.4577938
150	0x3e14c991	0.14530016
151	0xbe7e4b18	-0.24833333
152	0xbd819315	-0.06326882
153	0xbedd4194	-0.43214095
154	0x3f06a05d	0.52588445
155	0xbed8f54d	-0.4237465
156	0x3f166da9	0.5876108
157	0x3e2272db	0.15864126
158	0x3e27d01a	0.16387978
159	0xbf2911ca	-0.6604277
160	0x3f10b082	0.5651933
161	0x3dcbb693	0.09946933
162	0x3d8fcd88	0.07021624
163	0xbf0347b1	-0.5128127
164	0x3e740a36	0.2383202
165	0x3e8cd0df	0.27503106
166	0xbe87da47	-0.2653372
167	0x3f07c2c5	0.5303157
168	0x3e03cf0e	0.12871954
169	0xbea38ce4	-0.3194343
170	0xbe959dc9	-0.29221943
171	0xbdad840d	-0.08472452
172	0x3ec50ee0	0.3848791
173	0xbde0f1ff	-0.10983657
174	0xbea8a9f1	-0.32942155
175	0xbe4a745b	-0.19770949
176	0xbedcd67b	-0.43132386
177	0x3e52d7ef	0.20590185
178	0x3ee4cf12	0.44689232
179	0xbf0b257e	-0.54354084
180	0x3def413c	0.11682364
181	0x3eda221f	0.42604157
182	0x3e274d8e	0.16338179
183	0xbeb93618	-0.36174083
184	0x3e73a9d0	0.23795247
185	0x3e81e2dc	0.25368392
186	0x3e5d117a	0.21588698
187	0xbdcfc67c	-0.1014528
188	0xbe1c8d62	-0.15288308
189	0x3d7cfdc8	0.061765462
190	0xbdd0e0cf	-0.10199129
191	0xbe302e22	-0.17205098

0.bias f4 [64]
0	0x3ec09dc2	0.3762036
1	0x3ef78781	0.4834557
2	0xbdbdfeff	-0.09277152
3	0xbd6585d9	-0.05603585
4	0xbd794365	-0.060855288
5	0x3d24a95a	0.04020057
6	0x3e0e21fc	0.13880152
7	0x3dcd3a82	0.10020925
8	0xbf063deb	-0.5243823
9	0xbe5a2d76	-0.21306404
10	0x3effda93	0.49971446
11	0x3e6444b7	0.22291838
12	0xbe0ab5fd	-0.13545986
13	0xbeb23890	-0.3480878
14	0xbebd82c1	-0.3701382
15	0xbefdba0a	-0.49556
16	0xbe40b60e	-0.18819448
17	0x3eac71d6	0.336806
18	0x3ec728a6	0.388982
19	0x3e887ab2	0.2665611
20	0xbf02a5fe	-0.51034534
21	0xbeb1c3c7	-0.3471968
22	0xbdba9ac1	-0.09111548
23	0x3efdc448	0.49563813
24	0x3dab0b82	0.08351804
25	0xbd971ae1	-0.073781736
26	0x3e806e67	0.2508423
27	0xbe612e01	-0.21990205
28	0xbf0262f5	-0.50932246
29	0x3f19d5ee	0.60092056
30	0xbe1b4400	-0.15162659
31	0xbded08d9	-0.11573953
32	0xbf1308a2	-0.5743505
33	0x3f060056	0.5234426
34	0x3edff596	0.43742055
35	0x3e5776d6	0.21041426
36	0xbeaef0a6	-0.34167975
37	0xbf11df12	-0.56981003
38	0xbef01533	-0.46891174
39	0x3edc6e75	0.43053022
40	0x3e8debbe	0.2771892
41	0x3ef8c064	0.48584282
42	0x3e9c2de0	0.3050375
43	0x3e155e34	0.14586717
44	0x3e3d893f	0.18509386
45	0xbee0cee1	-0.43907836
46	0xbf0625f5	-0.5240167
47	0xbf0a3eff	-0.54002374
48	0x3e272206	0.16321573
49	0xbe9121bc	-0.2834605
50	0xbdedf6b7	-0.11619323
51	0xbeaa1f0c	-0.33226812
52	0xbe685ba7	-0.22691213
53	0xbeb54192	-0.3540159
54	0xbec3387d	-0.38129035
55	0x3eb425d6	0.35185117
56	0xbe2fb459	-0.17158641
57	0x3f015a38	0.5052829
58	0xbe3daa0e	-0.18521902
59	0xbed8d84d	-0.42352524
60	0xbc6b5a6d	-0.014364821
61	0xbe9a46f7	-0.30132267
62	0xbe34dfec	-0.17663544
63	0xbf0cb4e0	-0.54963493

2.weight f4 [15, 64]
0	0x3d2b5154	0.041825607
1	0xbdced3c5	-0.100989856
2	0x3d8a1797	0.06742781
3	0x3d7d13f7	0.061786618
4	0x3da1eab1	0.07906092
5	0xbdca1f05	-0.09869198
6	0x3db81d48	0.0898996
7	0xbd40a9f7	-0.04703709
8	0x3d3dfcc8	0.04638365
9	0x3df069d2	0.117389336
10	0xbca6a6b2	-0.020343158
11	0x3a9d7eef	0.0012015979
12	0xbd127069	-0.035751734
13	0xbdd5c18c	-0.10437307
14	0x3d57935f	0.05263078
15	0xbdde7a39	-0.10863156
16	0x3d9eecbe	0.07759999
17	0x3dda2c94	0.10653034
18	0x3deb0ee0	0.114774466
19	0xbcf18a68	-0.029484943
20	0xbdd25720	-0.10270524
21	0x3ce639e8	0.028103784
22	0x3d8d6be0	0.06905341
23	0xbdedffdd	-0.11621068
24	0xbce86e68	-0.028372958
25	0x3c3339a2	0.010939034
26	0xbda42d31	-0.08016432
27	0xbd7c0368	-0.061526686
28	0xbd85da7a	-0.06535812
29	0xbc07cd49	-0.00828869
30	0xbdf3bef9	-0.119016595
31	0x3dd20cc8	0.10256344
32	0x3dd69ce0	0.1047914
33	0x3d274e00	0.04084587
34	0xbc693b00	-0.014235258
35	0xbd50f518	-0.05101499
36	0xbdb977ce	-0.09056054
37	0xbdf91ffe	-0.12164305
38	0x3d3e4a04	0.046457306
39	0xbd8c8e4a	-0.06863077
40	0xbda49396	-0.08035962
41	0xbc1fcaa0	-0.009752899
42	0xbcc70724	-0.024295397
43	0xbd2a5cea	-0.041592516
44	0xbd3ec065	-0.0465702
45	0xbcd93400	-0.026514053
46	0xbd2abf7b	-0.041686516
47	0xbd75260c	-0.059850737
48	0xbdc123da	-0.09430666
49	0x3dd6a868	0.1048134
50	0xbd4ce554	-0.05002339
51	0x3d07ab64	0.033122435
52	0xbd5f650e	-0.054539733
53	0x3c6dffb3	0.0145262955
54	0x3df3b5f8	0.11899942
55	0x3d839efb	0.064268075
56	0xbdddd97a	-0.10832496
57	0x3ced5938	0.028973207
58	0x3df30194	0.118655354
59	0x3d06b2dc	0.032885417
60	0x3d953bab	0.072867714
61	0x3e030791	0.12795855
62	0xbc9ce810	-0.019153625
63	0x3cd48928	0.025944307
64	0x3d1c804b	0.038208287
65	0x3ca47303	0.020074373
66	0x3e1aed10	0.15129495
67	0x3df33aa3	0.118764184
68	0x3bec5bdb	0.0072130985
69	0xbd6180a5	-0.055054326
70	0xbdaef0ec	-0.08542046
71	0xbdd8086d	-0.10548482
72	0xbdc58a22	-0.09645487
73	0xbcfd3b88	-0.030912176
74	0x3e0bc63a	0.13649836
75	0x3d9b9a7a	0.075978234
76	0x3c55457a	0.013017053
77	0xbdcd5e8c	-0.10027799
78	0x3e2905e3	0.16506152
79	0x3d2fab99	0.042888258
80	0xbc7c2a40	-0.015390933
81	0x3d7a6fff	0.061141964
82	0xbcf6a067	-0.030105783
83	0xbc5f5050	-0.013629988
84	0xbc324460	-0.01088056
85	0xbcf242e8	-0.029572919
86	0xbd81ccdc	-0.06337902
87	0xbdb28194	-0.08716121
88	0xbdcef07c	-0.101044625
89	0xbf0fef78	-0.56224775
90	0x3ebf95a3	0.3741885
91	0xbd774db4	-0.060376838
92	0x3db28422	0.087166086
93	0xbd7b0fed	-0.061294485
94	0x3dda63db	0.10663577
95	0x3d8c43d0	0.06848872
96	0x3dc29740	0.09501505
97	0xbd97fde3	-0.07421472
98	0xbdfdd302	-0.12393762
99	0x3c35a260	0.0110860765
100	0x3dbfc3a6	0.09363489
101	0xbc3d4990	-0.011553183
102	0xbd96db00	-0.0736599
103	0x3df40e14	0.11916748
104	0xbd3f8094	-0.04675348
105	0xbd91c090	-0.071168065
106	0xbe0ad9f6	-0.13559708
107	0x3d9e59ae	0.07731949
108	0x3e51b955	0.20480855
109	0x3ce2acf0	0.027670354
110	0x3e4733bd	0.1945333
111	0xbdc225ae	-0.09479843
112	0xbda6dc8e	-0.08147536
113	0x3b104180	0.0022011697
114	0x3de96df6	0.113979265
115	0x3d93b11e	0.07211517
116	0x3d45cb6d	0.048289705
117	0x3d2f3a85	0.042780418
118	0xbdb68742	-0.08912517
119	0xbcc60af3	-0.024175143
120	0x3cb971d8	0.022637293
121	0x3e0ef3e3	0.13960223
122	0x3dd41002	0.10354616
123	0xbdeb0900	-0.11476326
124	0x3e3913d4	0.1807397
125	0xbd27371b	-0.040824037
126	0x3d3fba2c	0.046808407
127	0x3dd8a388	0.10578066
128	0xbda8ed6d	-0.082484104
129	0x3d55cba7	0.05219617
130	0xbdd81cf8	-0.105524
131	0x3cfb8c8e	0.03070667
132	0xbc23de22	-0.010001691
133	0x3d3f07aa	0.04663817
134	0xbcd19cf0	-0.025587529
135	0xbd69953c	-0.057027087
136	0x3db0765e	0.08616327
137	0x3d7b233c	0.0613129
138	0xbcc32f1d	-0.023826176
139	0xbdd5df82	-0.10443021
140	0xbe118af9	-0.1421317
141	0x3c5d8350	0.013520077
142	0xbc9a6972	-0.018849108
143	0x3e190a0d	0.1494524
144	0xbd0f41a4	-0.03497471
145	0x3de5bb34	0.11217347
146	0x3d332d0d	0.043744136
147	0x3bb8ce00	0.0056397915
148	0xbcfc01c8	-0.030762568
149	0xbde7d4ba	-0.11319871
150	0xbdf0b4b6	-0.11753218
151	0x3be8d971	0.007105999
152	0xbd82215a	-0.063540176
153	0x3e6ea924	0.2330671
154	0xbd04acf3	-0.0323915
155	0xbd484e44	-0.048902765
156	0xbe16c8fe	-0.1472511
157	0x3e59ad46	0.21257505
158	0x3d04f4b9	0.03245995
159	0xbd77dda0	-0.060514092
160	0xbd512290	-0.051058352
161	0x3e8a6e43	0.27037248
162	0xbdaa9102	-0.08328439
163	0xbda75926	-0.081713006
164	0x3c0087c9	0.007844874
165	0xbd3b44fc	-0.045720086
166	0xbdbfe996	-0.09370725
167	0x3d97d944	0.07414487
168	0x3dcddd9e	0.10052036
169	0x3ca61de0	0.020277917
170	0x3ca4827a	0.020081747
171	0xbdebfd4d	-0.11522923
172	0x3e9b91e5	0.30384746
173	0x3d02590c	0.031823203
174	0xbe2bce09	-0.16777815
175	0xbc817398	-0.01580219
176	0xbd06e53c	-0.03293346
177	0x3d8ea65e	0.06965326
178	0xbdcbe0da	-0.099549964
179	0x3da1cbee	0.079002246
180	0xbe26eb2a	-0.16300645
181	0x3ddf8f35	0.109159864
182	0xbcbc33a6	-0.022973847
183	0x3b134e95	0.0022477258
184	0xbd1ab9c0	-0.0377748
185	0x3e29d596	0.16585383
186	0xbb54f800	-0.0032496452
187	0x3dc7d55e	0.097574934
188	0x3db5e0ee	0.088807926
189	0xbcdd3871	-0.027004452
190	0xbdbac11c	-0.09118864
191	0x3dcd63aa	0.10028775
192	0x3e5aa887	0.2135335
193	0x3c53607c	0.012901422
194	0x3cc8fc7a	0.024534453
195	0xbe17df93	-0.1483138
196	0xbc9b5743	-0.018962508
197	0x3b10bc1e	0.0022084783
198	0x3d0835b0	0.033254325
199	0x3da134bb	0.07871386
200	0xbd0b592c	-0.034020588
201	0x3dec2e0e	0.11532222
202	0x3def5194	0.11685482
203	0xbb1414f8	-0.0022595506
204	0x3d219df4	0.039457276
205	0x3cf5e8a0	0.03001815
206	0x3dd5059d	0.10401461
207	0xbed214eb	-0.41031584
208	0x3d3fe46c	0.0468487
209	0xbcf95bc0	-0.030439258
210	0xbd9e4045	-0.07727102
211	0xbd8bd440	-0.06827593
212	0x3df6e388	0.12055117
213	0x3ddad7f6	0.106857225
214	0x3de53e78	0.111935556
215	0x3da7ac15	0.08187119
216	0x3dc16524	0.09443119
217	0xbeabb103	-0.33533487
218	0x3d973436	0.07383005
219	0x3d7fd2fc	0.06245707
220	0x3dc19ab6	0.09453337
221	0xbde70c9e	-0.112817034
222	0x3ccf555c	0.025309257
223	0x3cd6e558	0.026232406
224	0x3d83c9b6	0.06434958
225	0xbdc04f2b	-0.093901
226	0xbd96ac48	-0.07357079
227	0x3c8a2168	0.016861632
228	0xbd809bf6	-0.06279747
229	0xbda6abf6	-0.08138268
230	0x3d8570c4	0.06515649
231	0xbcac0428	-0.020998076
232	0x3de9edd0	0.11422312
233	0x3df90848	0.12159783
234	0x3d8e4ab5	0.06947843
235	0x3dae11ea	0.084995106
236	0xbd214c94	-0.03937967
237	0x3b004b40	0.0019576102
238	0x3df3f473	0.11911859
239	0x3ae12f00	0.0017180145
240	0x3da61659	0.08109731
241	0x3dee0576	0.11622135
242	0xbd04b080	-0.032394886
243	0xbd586e34	-0.052839473
244	0x3d800262	0.062504545
245	0xbe173745	-0.14767177
246	0x3cc6a4cb	0.024248501
247	0x3e1c8355	0.15284474
248	0x3dc82fac	0.09774718
249	0x3dc8aab3	0.09798183
250	0xbdbc6602	-0.09199144
251	0xbd89657c	-0.0670881
252	0x3cdf2ce3	0.027243083
253	0xbd032fc2	-0.032027967
254	0x3c287180	0.010280967
255	0xbdeb002e	-0.11474644

2.bias f4 [15]
0	0x3dcbcc70	0.09951103
1	0xbcd3c74b	-0.025851866
2	0x3e219b3e	0.15781876
3	0xbc40307b	-0.011730309
4	0xbd9af0b0	-0.07565439
5	0x3d29073a	0.041266657
6	0x3d05b06f	0.032638963
7	0x3d80c504	0.06287578
8	0x3da0000c	0.07812509
9	0xbddaae56	-0.10677783
10	0x3ddc51dc	0.10757801
11	0x3df7e86e	0.12104879
12	0x3d0b6574	0.0340323
13	0xbda09f2c	-0.078428596
14	0x3d792cf8	0.0608339
